lora_crossencoder_no_instruction_2/checkpoint-1556/adapter_model.safetensors (safetensors, 594924 bytes, 25 tensors)

base_model.model.bert.encoder.layer.0.attention.self.query.lora_A.weight f4 [16, 384]
00000000: 1258 ac3c e719 abbc 2304 f0bc 82c2 d0bc
00000010: 38a2 27bd c477 e4bc c85e 96bb 6e58 a9bc
00000020: 171f 293d a0d7 1f3c 7f4a 9b3c 36ea e13c
00000030: 1500 dfb9 7b4f 3abd 09f1 33bd 9128 a6bc
00000040: 8636 a1bc 312d 823c 93ea 41bd 5527 b9bc
00000050: 0615 fa3c aa45 40bd 8bc5 39bd 5966 24bc
00000060: 6e9b 4f3d c517 5abc 9459 c1bb 2878 debc
00000070: 6126 bdbc 766b 783c ae20 013d 2ab8 3a3d
00000080: 15b2 90bc cbec ddbc 3923 fabc 1bd5 bc3a
00000090: d69d 40bd fbf7 2abd 70f9 2abc 04ac 003c
000000a0: e0e0 47bd 4f05 48bd d6a2 e13c ddc8 25bd
000000b0: 073e 53bd db05 123d 8ea0 893c cbce 183b
000000c0: 8d9f 053c 245f 3cbd 0f5f 37bd 1913 15bc
000000d0: 99be 033d e0d4 273d 8515 4abd b33e 623c
000000e0: a1fc b1bc 3272 3e3c 3234 25bd 1715 f5bc
000000f0: 1d20 43bd ded1 00bd d0af 323d 3ce2 24bd
00000100: f30c 033d a117 993c 87ce 7b3c 9c6f e33c
00000110: 423f 4c3a ba49 053d cabf 17bd d5a0 01bd
00000120: 6e98 21bd 0bc7 02bd 7fca 81bc a91d 9d3c
00000130: 5438 b93c eb1e e23a ad15 ddbc 685c 74bc
00000140: c516 883c 538e c1bb 14ce 26bc a4e9 a1bc
00000150: b689 20bd dcbe 6dbc 895a 3c3d cd83 f8bc
00000160: d359 94bc fe5d 87bb cd15 d0bc 4108 1c3d
00000170: 1ee5 14bd 329c 123c ba27 b2bc 51c9 b1bc
00000180: e97e 1a3d c073 1ebc 27cf 403d 44c9 2dbd
00000190: a60c ad3c 1aac 48bd 3643 93bc a792 2bbd
000001a0: 386b 1d3d e5e0 893c a424 10bd c56c 103d
000001b0: b08c a43c 068f f1bb 08d1 32bd 0217 30bd
000001c0: 6d5e c7ba ef7f e2bc d30c 3cbc bc41 033c
000001d0: 9070 89bc 9d10 56bd abe7 38bc e0db 21bd
000001e0: 766e fdbc d5ec 093d 6c90 1abd 9a7e 2cbc
000001f0: b570 85bc 865a b13c 21b4 05bd ed1a 06bd
00000200: 9891 133c f76e 283d 328a 4cbc 6775 43bd
00000210: 95bf 95bc 09dd 2abd 74a5 953b 45cd 1e3d
00000220: c3bc abbc f69c a1bc 629c 25bd aa28 83bb
00000230: 2685 11bd e32f 10ba 626c 2fbd 0a7c 2d3d
00000240: 9d23 34bd 5d6f 22bd 4b33 c6bc ba68 09bd
00000250: 5acc bbbc 01a9 f23c 6872 0f3d 7cea ddbb
00000260: 3c3b 57bd 5262 68bc 595f 2fbc 6759 8c3c
00000270: 8b61 1c3d 0d86 5e3b 040d 2a3c 4e93 4a3c
00000280: 3110 26bd c102 fbbb 8cb1 69bc cff1 8b3c
00000290: ddfe 2c3d 6203 0ebd dfa3 233d 66dd 543c
000002a0: e0aa 5e3c e789 20bc 9152 923c 1f59 363c
000002b0: bded 91ba 2230 903c 262b 383d 8ff0 2ebd
000002c0: ad64 97bc 04dd 18bd 8d10 1bbd 1bc3 51bd
000002d0: 5ab9 1ebd 2a6f 71bc 45b6 b53c ddef debc
000002e0: 0d15 df3c 086c b2bc b6a2 3cbd 795e 95bb
000002f0: 16b7 1d3d 9858 fc3c b8ff dabb 3219 fa3c
00000300: bb8b f9bc 5bfe 0abc 2546 63bc 4378 ca3c
00000310: 3da7 afbc 93c7 80bc b30f 1e3d ac33 f0bc
00000320: 1086 583c 5607 1bbd a420 283d b251 36bd
00000330: 9261 303d dab7 59bd 9e41 e63c b599 a5bc
00000340: bf23 86bc 9955 2d3c d010 143c 5985 2a3d
00000350: e6ba a8bc 1e8f 313c 8725 16bd 3aa2 afbb
00000360: 98e5 cb3b 6c6b 34bd b7d3 243d d142 073c
00000370: b9b2 083d f944 17bc 097c ebbc 069c b6bc
00000380: e074 0c3d 8a85 523d f7d8 fb3c dbf1 84bc
00000390: 3ad3 96ba a679 9abc 764a 8d3c 74a3 e73c
000003a0: 6420 1f3d 8514 6fbc 9635 03bd 12da dfbc
000003b0: e54f f9bb 2d02 47bd c676 063d 4f36 163d
000003c0: d649 fc3b c0f0 8abb bbc0 553c afcb e2bc
000003d0: 47b7 6cb9 94f3 ec3c 035b 433d 878c 38bd
000003e0: 9ef5 343c b443 b33c 3c6d 3b3d 63c2 1a3d
000003f0: 5a3f 52bd 5db8 563d 66cd 4a3d 5455 643b
0.021038089 -0.020886375 -0.029298848 -0.025483374 -0.04092619 -0.02788914 -0.0045889355 -0.02067205
0.041289415 0.009755999 0.018956421 0.0275775 -0.00042533936 -0.045485955 -0.04393104 -0.020283015
-0.01967932 0.01589069 -0.047342848 -0.022601763 0.030527603 -0.046941437 -0.045354407 -0.010034167
0.05068534 -0.013311331 -0.005900571 -0.027156904 -0.02308959 0.015162339 0.031525306 0.04558579
-0.017663041 -0.02709045 -0.030534374 0.0014406772 -0.047025524 -0.0417404 -0.010435447 0.007853512
-0.048798442 -0.048833188 0.027543467 -0.04047476 -0.051572826 0.035650115 0.016800191 0.0023316618
0.008155716 -0.04598917 -0.04476839 -0.0090987915 0.03216419 0.040974498 -0.04933693 0.013808894
-0.021726908 0.011623906 -0.04033298 -0.029917283 -0.047638047 -0.031450145 0.0436247 -0.040254816
0.03199477 0.018688025 0.015369064 0.02776318 0.00077914086 0.032541014 -0.03704814 -0.031647522
-0.03945201 -0.031928103 -0.015843628 0.019179182 0.022609867 0.0017251646 -0.026987875 -0.0149146095
0.01661242 -0.005906859 -0.010180969 -0.019764729 -0.03919383 -0.014510836 0.04598478 -0.030336285
-0.018109238 -0.004131078 -0.02540102 0.03809381 -0.036351316 0.008948373 -0.021747459 -0.02170244
0.037718687 -0.009671152 0.047072556 -0.04242827 0.021124195 -0.048992254 -0.017976385 -0.041887905
0.03843233 0.01683087 -0.035191193 0.03525998 0.020086616 -0.007371786 -0.04365638 -0.042990692
-0.0015210636 -0.027648894 -0.011477667 0.008011278 -0.016777307 -0.052261937 -0.011285703 -0.03951633
-0.030936461 0.033673126 -0.037735388 -0.010528231 -0.016289094 0.02164961 -0.032642487 -0.032740522
0.00900688 0.04112145 -0.01248412 -0.047719385 -0.01827983 -0.0417147 0.0045668427 0.03876998
-0.020964032 -0.019728165 -0.04043234 -0.0040026503 -0.03552737 -0.00055003 -0.04282797 0.04235462
-0.043979276 -0.039656986 -0.02419438 -0.03354714 -0.02292459 0.029621603 0.035021216 -0.0067723375
-0.052546725 -0.014183598 -0.010703885 0.017132474 0.03817896 0.0033954412 0.01037908 0.012364222
-0.040542785 -0.0076602404 -0.014263522 0.017083077 0.042235244 -0.034671195 0.0399512 0.012992239
0.013590544 -0.0097985035 0.017861636 0.011129647 -0.0011133474 0.017601077 0.044963025 -0.042709883
-0.018480623 -0.037320152 -0.03785758 -0.051211458 -0.038750984 -0.014735976 0.02218164 -0.027213985
0.027231717 -0.021780029 -0.04605361 -0.004558381 0.038504682 0.030803964 -0.006683316 0.030529592
-0.030462136 -0.008483495 -0.013871704 0.024715548 -0.02144205 -0.015720164 0.03858919 -0.029321514
0.013215557 -0.037848793 0.041046754 -0.044511504 0.0430618 -0.05315385 0.02810746 -0.020214895
-0.016374467 0.01057949 0.009037212 0.041631076 -0.020596933 0.010837344 -0.036656883 -0.005359915
0.006222438 -0.044047758 0.04024097 0.008255676 0.03337357 -0.009232753 -0.028745668 -0.022291195
0.03429115 0.051396884 0.030743105 -0.016228607 -0.0011507042 -0.018856835 0.01724742 0.028276183
0.03884925 -0.014592295 -0.032033525 -0.027325664 -0.007608401 -0.04858606 0.032828115 0.036672886
0.0076992316 -0.0042401254 0.013046439 -0.027685015 -0.0002257499 0.02892474 0.047694217 -0.045055892
0.011044888 0.02188287 0.04575847 0.037783038 -0.051329948 0.052421916 0.04951229 0.0034840899

base_model.model.bert.encoder.layer.0.attention.self.query.lora_B.weight f4 [384, 16]
00000000: 77f1 34bb 2a33 683b 2403 7abb 9ad9 51bb
00000010: 70a8 47bb 3001 5dbb 9415 fc3a bfbf eb3a
00000020: 7a6f 873b 4c34 47bb 10b8 883b cc5c 6a3b
00000030: 3a00 5bbb 5eb0 803b 4433 823b a93a 913b
00000040: a8fb 04bb b22d 3f3b 4729 2cbb 20bd 19bb
00000050: b9d7 33bb 993c 46bb 7089 0fba a9b1 2d3b
00000060: db28 333b 05d7 5bbb 70fe 593b 6efe 353b
00000070: a89a 37bb 787f 713b 25f0 413b baa4 313b
00000080: 1acd 6f3b 07bf 2ebb d529 1c3b 289d 5e3b
00000090: d5d0 3d3b 31d4 433b bc55 a43a 4e11 8abb
000000a0: a8c9 3ebb d676 573b 8e09 1cbb b9f4 2dbb
000000b0: 9b03 2a3b 1eda 41bb 3211 50bb 932f 3cbb
000000c0: 321f db39 4965 6dbb 7008 2a3b 1943 f83a
000000d0: b82b d13a fade 853b 2190 a3ba ece8 3037
000000e0: 90c6 4abb 1fa3 9439 f9f3 47bb 1e36 53bb
000000f0: 621b 553b 8429 5abb f585 51bb 662b 2dbb
00000100: 1c8a 1a3b 649c 00bb 042c b339 95bc 253b
00000110: 116b 1a3b 3214 073b 5d87 fd3a e742 05bb
00000120: 86c2 3ebb 914a b83a 64ca 7fba b7fe 00bb
00000130: 6559 fc3a 96c6 31bb 41cb 03bb 881c 01bb
00000140: b61f 2fbb c715 3a3b f845 27bb 2c8e 30bb
00000150: 9998 43bb a0b2 51bb 1cee a6b8 75d2 343b
00000160: 672c 353b 696e 59bb ca14 483b 18e8 3b3b
00000170: 1380 3dbb a0a6 643b 63ae 483b 1b01 2f3b
00000180: df3f d6ba aae0 1f3b 1c52 a8ba 7181 26bb
00000190: f2eb 47bb c393 41bb e94c b1ba d2b4 3e3b
000001a0: 0bfc ef3a d05e 6ebb 4d61 fa3a 7e86 fb3a
000001b0: 382e 00bb d2a5 323b ed3f 183b 2390 ce3a
000001c0: 5b9c b0ba 34d1 233b 82fa 33bb a672 dcba
000001d0: 8e58 93b6 0110 0dbb 1a36 d03a 5f8a deba
000001e0: cc60 1a3b 5abe 1a3a fa19 3a3b 9bc7 2b3b
000001f0: fe15 26bb dff6 143a ff07 333b b5db 273b
00000200: b5a2 cc3a 1bc3 52bb 2d41 583b 8748 133b
00000210: 9af3 143b 8653 3b3b 75be 09bb 18f8 b3ba
00000220: ef9f 70bb 6634 0a3b fab4 83bb d760 6abb
00000230: 6acc 5c3b d0da 81bb 0edf 65bb a6c2 7ebb
00000240: 3b51 0abb ba42 803b 45dd 81bb fb62 37bb
00000250: a2f2 08bb f5d7 62bb 42f4 8d3a e94d bd3a
00000260: 3ea1 8d3b 6dba d4ba f0e3 8e3b c00f 5e3b
00000270: 87ff 76bb 416f 4a3b 1245 983b d57b 9f3b
00000280: 1534 513b 42cc 74bb c15a 733b 8380 4f3b
00000290: 7839 603b ed55 7e3b ec5f a63a 44b5 66bb
000002a0: 9d03 6fbb 2586 803b 0d02 7bbb 7297 5dbb
000002b0: 8b3a 623b 10a8 90bb 106c 82bb 4422 79bb
000002c0: 9f03 1b3b 0076 1bbb dcb0 0b3b c8f3 153b
000002d0: 84b3 243b 895c 233b 62c5 fe3a 11c6 43bb
000002e0: 018f 27bb 7ed2 513b 2f4e 36bb f7e2 19bb
000002f0: 5b46 1c3b e6b2 3ebb 8b23 36bb f264 2ebb
00000300: 6e79 01bb 0e73 633b 24de 53bb b8fe 6fbb
00000310: accd 8fbb f45f 5cbb b33d 0b3b e9bd 75b9
00000320: c89d 833b 8860 45bb ced9 7c3b a8b4 723b
00000330: 44f8 6cbb 70fa 743b 8eff 733b c147 803b
00000340: 98d4 2ebb 20fc 563b 1270 45bb 448b 35bb
00000350: fc66 40bb 27cf 5abb 29e7 0d39 c4ab 4f3b
00000360: 3be0 503b 5e1b 7cbb 5759 5f3b 2011 343b
00000370: f682 4dbb 62fc 7e3b c9db 673b 3661 5c3b
00000380: d31b 54ba cad6 1f3b aeeb 16bb c965 a7ba
00000390: 76e8 b1ba 43fb 0ebb 6686 133b 4fdb 0237
000003a0: 0a23 193b b578 beba a4fd 503b 1490 113b
000003b0: 8cfe 25bb 8276 423b 3150 203b 8331 323b
000003c0: c432 feb9 cfce e03a 3f4a 98ba 8f53 3fba
000003d0: 3e10 b5ba 243b c3ba d35f 713a da6f 643a
000003e0: 1f74 aa3a 96fe daba 5eab 133b eb91 a23a
000003f0: 3330 feba 688b 0e3b bfaa cb3a dd04 d33a
-0.0027609745 0.0035430887 -0.0038148845 -0.003202057 -0.0030465387 -0.0033722632 0.0019232505 0.0017986222
0.004133162 -0.0030396162 0.0041723326 0.0035760878 -0.0033416883 0.0039272746 0.0039733965 0.0044320417
-0.00202916 0.0029171524 -0.002626972 -0.0023458675 -0.0027441813 -0.0030248521 -0.0005475497 0.0026503599
0.0027337584 -0.003354491 0.0033263229 0.002777006 -0.0028015766 0.003684966 0.00295926 0.0027106241
0.0036590756 -0.0026664154 0.0023828645 0.0033968184 0.0028963585 0.0029881115 0.0012537758 -0.0042134887
-0.0029111896 0.0032877228 -0.0023809406 -0.002654357 0.002594209 -0.002957947 -0.003174853 -0.002871488
0.00041794177 -0.00362237 0.002594497 0.0018940895 0.0015958464 0.004085419 -0.0012478867 1.0544649e-05
-0.0030941106 0.00028350294 -0.003051041 -0.0032228301 0.0032517542 -0.0033288905 -0.0031970714 -0.0026423573
0.0023580855 -0.0019624466 0.00034174335 0.0025289406 0.0023562352 0.0020611403 0.001934271 -0.0020334066
-0.0029107644 0.0014060308 -0.00097576366 -0.0019683072 0.0019252716 -0.0027126423 -0.0020110162 -0.0019700844
-0.0026721782 0.0028394328 -0.0025523882 -0.002694021 -0.0029845594 -0.0031997338 -7.959848e-05 0.0027591262
0.0027644874 -0.0033177382 0.003052997 0.0028672274 -0.002891545 0.0034889355 0.003062152 0.002670354
-0.0016345939 0.0024395385 -0.0012841853 -0.0025406743 -0.0030505625 -0.0029537536 -0.0013526949 0.0029099477
0.0018309368 -0.003637243 0.0019102484 0.0019189862 -0.0019558799 0.002725948 0.0023231462 0.0015759509
-0.0013474332 0.002499652 -0.0027462547 -0.0016818836 -4.3912505e-06 -0.0021524432 0.0015885264 -0.0016978494
0.002355623 0.00059029984 0.002839683 0.0026211503 -0.0025342698 0.00056825386 0.0027317998 0.0025613133
0.0015612455 -0.003215975 0.0032997832 0.002247365 0.0022728206 0.002858372 -0.0021018062 -0.0013730554
-0.0036716422 0.002108836 -0.004019377 -0.0035763287 0.0033691176 -0.003962852 -0.0035075578 -0.0038873344
-0.0021105546 0.0039142044 -0.003963145 -0.002798258 -0.0020896574 -0.0034613584 0.0010830241 0.0014442775
0.0043222 -0.0016229876 0.0043606684 0.00338839 -0.0037688927 0.0030889066 0.0046469057 0.004867057
0.0031921912 -0.0037353192 0.003713295 0.0031662292 0.0034213942 0.003880854 0.0012693382 -0.0035203258
-0.003647066 0.0039222413 -0.0038300783 -0.0033812192 0.0034519758 -0.004414566 -0.003980167 -0.0038014809
0.0023653281 -0.0023721457 0.0021315133 0.00228809 0.0025131414 0.0024926981 0.0019437487 -0.0029872695
-0.0025567415 0.0032016332 -0.0027817597 -0.002348123 0.0023845646 -0.002909833 -0.0027792181 -0.002661046
-0.0019756216 0.003470603 -0.003232845 -0.003662033 -0.0043885317 -0.0033626528 0.0021246492 -0.00023435768
0.0040166117 -0.0030117352 0.003858197 0.003703395 -0.003615872 0.0037380718 0.003723118 0.0039148037
-0.0026677009 0.0032804087 -0.0030126614 -0.0027701417 -0.0029358258 -0.0033387633 0.00013532922 0.0031688074
0.0031871933 -0.003846846 0.003408035 0.0027476028 -0.0031358576 0.0038907756 0.0035378805 0.0033627278
-0.00080913043 0.00243895 -0.002302866 -0.0012771423 -0.0013573307 -0.0021817244 0.0022510528 7.799666e-06
0.0023366832 -0.0014531823 0.0031889463 0.0022211121 -0.0025328724 0.0029672687 0.002446186 0.0027190156
-0.0004848448 0.0017151478 -0.0011618807 -0.0007298523 -0.0013814045 -0.0014894945 0.00092076993 0.0008714177
0.0013004577 -0.0016707953 0.0022532563 0.0012403106 -0.0019393027 0.0021750573 0.0015538557 0.0016099472

base_model.model.bert.encoder.layer.0.attention.self.value.lora_A.weight f4 [16, 384]
00000000: 6ded 163d 2107 57bc 11ec 253d 2ea0 8b3c
00000010: 8537 3bbd 1a60 483c dcd4 ec3b bbec 083d
00000020: c279 673d 1d8a 093d 3363 5fbd 75e7 ebbc
00000030: 44eb 303d b8db 133c 34ed 1cbc b7b1 f93c
00000040: e7e7 a53c 29f6 f5bc 43a8 fcbc 322e c43c
00000050: 3dbe 4e3c 1899 39bd 0635 063c 8be1 323c
00000060: b3f5 263d 66c4 0e3d c8ec 083d c909 6cbc
00000070: 7b5b 2e3c 205e 423d b676 24bd ee93 e5bb
00000080: 8f24 3dbc c6d0 0d3d d297 8bbc da45 36bc
00000090: b2fd dabc 5d2b 8a3c 62cf f03b 50dc b73b
000000a0: e376 0b3c 09f7 48bd c538 6b3d aaae 253b
000000b0: bbd3 a83c fa71 e6bc 4426 89ba 06a8 b5bc
000000c0: 0204 5f3c 2380 13bd 35ff 01bd e8f3 393d
000000d0: 9b62 2dbd 7295 b33c ad1c 49bd 09b1 34bd
000000e0: f738 e4bb 9887 3cbd 83ba 683d 670a 273c
000000f0: f1a4 ce3c 9daa 13bd d032 6cbc 680e dbbb
00000100: 7081 3a3d e0d0 06bd 422e e93c c46b c33c
00000110: 6a49 073c 772f 17bb 1dd3 643c 23f8 633c
00000120: 49d9 62bd 6887 103d f6a6 0ebc ede0 2fbb
00000130: d5d4 a1bc e718 31bd b902 ecbc 3f74 b03b
00000140: 65d2 583d ab85 b63b 68d1 cebc 1253 473d
00000150: f76e 863c 1849 24bc 51b0 8a38 6619 0abc
00000160: 7710 0abd c055 003d c8df f33c e1f0 01bd
00000170: 8486 5d3c b684 693c eaae 1ebd 4575 81bb
00000180: a107 fa3c 9925 5abd 7be9 bf3c 28fa 303d
00000190: 9137 14bd 39bc 6bbc 023d e0bc 9862 113d
000001a0: 74e4 6ebc 6d59 463c d264 4f3d ca0c 1dbc
000001b0: 7bc4 23bc 87e6 17bd 0319 12bc 95c6 92bc
000001c0: d963 c6bc 9a60 e53b 8c6c 4d3d 956e c9b9
000001d0: 8802 99bb 6fa3 823c 4aed 243d 9966 4ebc
000001e0: 2513 673d 2ade 8d3c 5650 0dbd 8def cd3c
000001f0: a2d2 1f3c 381b 833c a390 eebc 0dbd d33c
00000200: 2c13 63bc 3e6d 633c 97b2 e23c 46ca ab3b
00000210: 33f7 58bd ca48 133d 5d98 09bd 55d1 bdbb
00000220: 8b0b 15bd 1fc7 2c3d 3ad2 9e3c a4dd 50bd
00000230: 82d8 ffba 4fcb 173d 82f9 28bd 797c 573d
00000240: c77c d3bc 5728 3ebd 8dcd 9e3b 1f5c 11bd
00000250: cd46 623a 9262 573d 5619 343d 319f 88bb
00000260: 9f0a d8bc 008e 84bb f8af 2a3d 103c 3bbb
00000270: bbea da3c 1b00 513d cb63 ccbb 822e 06bd
00000280: 9d83 0b3c 2bb4 073c 4a94 0e3d da0c 4abd
00000290: 6775 6c3c 746d e63c 06a9 b23c 53c0 053d
000002a0: 7372 283d e367 d03c b373 d93c 81e9 00bc
000002b0: eec6 913a c75e 6d3c 6019 8f3b 7691 3b3d
000002c0: a68d 283d 0fd2 333c 7228 36bd 4b83 42bc
000002d0: 8b04 32bc 5644 e0bc 5966 f83c ccd3 b8bb
000002e0: 16fd 173d 5e9f 0cbd 84be 623d 7b6c 593d
000002f0: 6980 84bb b5fb 6cbd 342c 08bd 4484 14bd
00000300: 8c9d 893c ae79 323d c10a 1b3d 161c b03b
00000310: fa11 193d 67c4 163d 0a16 273d ad09 9bbc
00000320: f224 afbc f832 66bd 1505 6a3d 2ebb 2c3d
00000330: 9760 a03c 5155 c1bc bc91 223d 41a9 3f3c
00000340: f9cc 293d e99f 46bd 659b f2b9 893d 543d
00000350: ffd4 9c3b 0581 d4bc db16 30bd 5b3e 623d
00000360: 7aad abbb 13ea 91bc c259 10bd cbad 68bd
00000370: 2a88 2a3d ff1e 0f3c 3075 313d 42f4 a63c
00000380: 7b63 ed3c 6ef5 e63c f3b5 503b 0e2f 46bd
00000390: 2039 b53b 2507 2abd 7451 b2ba ba24 403d
000003a0: 7613 4cbd ea1e f2bc 8afd fabb 9290 0a3d
000003b0: bd22 2e3d 4ee7 7bbb 87e8 a33c f6dc 33bb
000003c0: b7a3 efbc 847b eabc 32bb 61bd d22b ea3c
000003d0: 080d 32bc 3c47 2e3c e4de 2abd ab63 783c
000003e0: 8f78 fa3b 3461 0c3d 3710 e23a 0e11 f53b
000003f0: ca1a 3ebd c1ba 1b3c d7e1 1fbd 32b7 3cbd
0.03684752 -0.013124258 0.040508334 0.017044153 -0.045707244 0.012229944 0.0072275233 0.03342889
0.0565126 0.03357898 -0.054537963 -0.02879689 0.043193117 0.009024553 -0.009578038 0.030480249
0.020252181 -0.030024605 -0.030841952 0.023947809 0.0126185985 -0.045312017 0.008191353 0.010918031
0.04076166 0.03485527 0.033428937 -0.01440663 0.010641928 0.047453046 -0.040152274 -0.00700616
-0.011544361 0.03462293 -0.017040167 -0.011125052 -0.0267323 0.01686638 0.0073489407 0.00561098
0.0085122315 -0.049063716 0.057427187 0.002528111 0.020608773 -0.02813052 -0.0010463675 -0.022174846
0.013611795 -0.036010873 -0.031737525 0.045398623 -0.042330366 0.021921847 -0.049099613 -0.044114146
-0.0069647986 -0.04602775 0.056818496 0.010195351 0.025225135 -0.03605138 -0.0144164115 -0.006685067
0.045533597 -0.032914042 0.02846444 0.023855098 0.008257249 -0.0023069063 0.013966349 0.013914141
-0.055383 0.035285383 -0.008706799 -0.0026836947 -0.019754807 -0.04323664 -0.028809892 0.0053849514
0.052935023 0.0055701337 -0.025246337 0.048663206 0.016410334 -0.0100271925 6.613194e-05 -0.008428907
-0.03370711 0.031331778 0.029769793 -0.03172386 0.013520841 0.014252832 -0.03874103 -0.003950747
0.030521216 -0.053258512 0.023426762 0.043207318 -0.036185805 -0.0143881375 -0.02737284 0.035494417
-0.014580835 0.012106282 0.05063326 -0.009585569 -0.009995575 -0.037085082 -0.008917096 -0.017916957
-0.024217533 0.007000041 0.050152346 -0.00038420098 -0.004669491 0.015947072 0.04026536 -0.012597703
0.056414742 0.01731785 -0.034500442 0.02513864 0.009754809 0.01600419 -0.029121703 0.025846982
-0.013859551 0.013881026 0.027673049 0.0052426187 -0.052970123 0.03595809 -0.03359257 -0.0057927766
-0.03638796 0.042182084 0.019387353 -0.050992623 -0.001951948 0.037059125 -0.041253574 0.05260894
-0.025816334 -0.04642519 0.004846281 -0.035488244 0.0008631766 0.05258424 0.043969475 -0.0041693677
-0.026372252 -0.004045248 0.041671723 -0.0028569736 0.026723256 0.05102549 -0.006237482 -0.032759197
0.008515266 0.0082827015 0.03480939 -0.049328662 0.014432288 0.028128363 0.021809112 0.032654118
0.041124772 0.025440162 0.026544427 -0.007868172 0.0011121908 0.014487929 0.0043670386 0.04579302
0.04115071 0.010975375 -0.044472165 -0.011872123 -0.010865341 -0.027376335 0.03032224 -0.0056404825
0.037106596 -0.034331672 0.05535747 0.05308197 -0.004043628 -0.057857234 -0.03324528 -0.03625895
0.016798757 0.043573074 0.037852053 0.005374442 0.03737066 0.036808398 0.040792502 -0.018925512
-0.021379922 -0.05620095 0.057133753 0.042170696 0.019577308 -0.023600252 0.039689764 0.011698068
0.041455243 -0.048492346 -0.00046273615 0.051816497 0.0047861333 -0.025940428 -0.042990547 0.055235248
-0.005239186 -0.01781181 -0.03524185 -0.056806367 0.041633762 0.008735417 0.04332465 0.020380143
0.0289781 0.028193202 0.0031846731 -0.04838472 0.0055304915 -0.04151072 -0.0013604597 0.046910025
-0.049823247 -0.029555757 -0.0076596187 0.03382928 0.042513598 -0.003843743 0.020008339 -0.0027444935
-0.02925287 -0.02862335 -0.055110164 0.028585348 -0.010867365 0.010637101 -0.04171647 0.015160481
0.0076437662 0.034272388 0.0017247264 0.0074788397 -0.046412267 0.009504975 -0.039033737 -0.046073146

base_model.model.bert.encoder.layer.0.attention.self.value.lora_B.weight f4 [384, 16]
00000000: 38b5 693b 0925 913b b10e 6c3b 35b5 53bb
00000010: 4aaa 913b c0e8 5fbb be56 93bb 3b7f a6bb
00000020: 1733 373b eef4 7a3b 8362 abbb 74cb 91bb
00000030: e38c 6b3b a36b 3f3b 8aaf 71bb 20d4 363b
00000040: adcd 3dba feff 04b9 1473 0eba 2bc6 64b8
00000050: 696e 91bb 8d73 4cb7 750d ba3a 5a73 0f3a
00000060: f6aa 4638 e8cf f9b9 533a f63a d6ee 343a
00000070: 6518 0fba fdbc 1fb8 9c45 153b a99c 42b9
00000080: 4deb 2a3a 1ea2 773b 8297 493b 8704 35bb
00000090: f657 a3ba 49b2 46bb b833 b73a 56b3 883a
000000a0: 8d3e 403b c5cd 303b 8b75 ba3a b0af 773a
000000b0: 9cc5 e43a 339c 3a3b 4997 ac3a 0616 2b3b
000000c0: 145d 313b 787c 273b 1273 e73a ed8b 93ba
000000d0: fe0c 7b3b e86d b1ba aab9 56bb 587c 5abb
000000e0: 6779 5f3a 73e7 103b 2ccb 7ebb 489a 3dbb
000000f0: c380 123b cd54 503a 407b 59bb 52d2 903a
00000100: 69c4 91b9 f9aa f1b9 f164 a9b9 d9f3 9b38
00000110: f230 8dba 5958 24b7 aecb b939 4c97 233a
00000120: d8d5 5436 6cba 34b9 5d86 4a3a 3090 8339
00000130: 6f70 0eb9 c974 25b8 802d a53b fa23 6738
00000140: 56a8 203a 6381 053a d0f8 f239 1249 9aba
00000150: d8e8 8e39 74af 83ba 9714 6fba b360 60ba
00000160: a736 5d3a d2d0 7a3a de03 4fba 90ce 55ba
00000170: e094 683a 7883 5c3a f021 fbb7 d1eb 813a
00000180: 0f78 99bb d3fb a1bb 5d97 92bb 350f 873b
00000190: 18aa b6bb a030 943b baa9 bd3b e0e9 b83b
000001a0: a56d 84bb a02c a6bb 5889 b53b 7159 b33b
000001b0: 3691 9cbb 40f4 85bb 9a6a 853b 114a 87bb
000001c0: a6f7 43bb 42c1 23bb 912c 88bb 27ca 343b
000001d0: c1e1 46bb f939 4a3b 7669 d53a 7563 993a
000001e0: 08ff 5cbb 97b9 36bb 0fb8 8f3a 49e2 243b
000001f0: 3732 30bb b324 81bb 27f4 053b 6a2c 6abb
00000200: aa9d 20bb 53eb 5ebb e260 8abb 9a04 943b
00000210: aed1 e0ba 965a 7f3b 70e9 093b dec5 153b
00000220: 97ac a1bb dbb9 52bb 7ac9 fc3a 0b9c 353b
00000230: 837c 2ebb 7275 a7bb 6806 953a f95f 90bb
00000240: 9ae5 343b 82ce 753b 24b5 363b a04b 50bb
00000250: e75c 353b c9a1 4ebb 8997 4dbb a312 64bb
00000260: 7641 543b cd5c 5c3b 7f5c 51bb 1e30 52bb
00000270: 96bb 393b a337 4b3b 0f71 60bb fb6e 3f3b
00000280: b7f8 5cba 9141 92ba cb16 9bb9 dfda a33a
00000290: 79dc 163b 6c04 a23a def6 743a 79d4 d03a
000002a0: 5baa b3ba 2f04 adba 2b42 05bb de8c 8f3a
000002b0: 4d98 7cba f963 84ba b638 07bb b5d2 8eba
000002c0: 34d8 61bb 11d8 92bb a2a5 85bb 58d4 7e3b
000002d0: 8982 81bb ecb1 823b abfa 813b a6d3 8d3b
000002e0: 18be 83bb a1bf 85bb dd09 7e3b 108d 883b
000002f0: 5ca3 6bbb fec6 86bb 223f 06ba 1ff9 76bb
00000300: 6fc2 883b 91ff ab3b f8b2 963b 3577 8bbb
00000310: 9371 a03b bc2b 87bb 6d9a 95bb 75dc a7bb
00000320: dce6 843b 0ca4 913b 4cdc abbb 7ba4 9cbb
00000330: 0c3e 863b a79c 8c3b d089 b8bb 42a1 793b
00000340: b7c6 a53b e741 753b a015 933b a123 4ebb
00000350: 3daa 9a3b d124 7dbb 3972 b1bb 15d0 bbbb
00000360: 2527 113b 241d 9d3b 116c ccbb c64e b2bb
00000370: e5de a33b f63f 0a3b 0392 b7bb 3dd1 403b
00000380: db22 2ebb 1310 f7ba 6217 a9bb 47c2 6238
00000390: faee babb 812e 1e3a 4bb4 1e3b f6cf d03a
000003a0: 4cd2 cfb9 f9a9 8dba df85 253b f1df 043b
000003b0: 16e3 faba 25c7 5bba 7fea 933b 1a84 adba
000003c0: 3295 583b 1eb0 803b a4a8 1d3b c907 85bb
000003d0: 00ae 533b 81d3 7ebb f694 4fbb 3517 6dbb
000003e0: 5163 483b d3f5 783b c7db 55bb 9f69 75bb
000003f0: 0035 613b f3e3 363b cf30 0abb 6dae 4b3b
0.0035660993 0.0044294638 0.00360195 -0.0032304053 0.004445349 -0.003416583 -0.0044964245 -0.005081085
0.0027954036 0.0038292962 -0.0052302494 -0.0044493023 0.003594213 0.0029208444 -0.003687831 0.0027897432
-0.0007240426 -0.00012683865 -0.0005434018 -5.4543994e-05 -0.0044382107 -1.2186251e-05 0.0014194684 0.0005472206
4.73661e-05 -0.00047647883 0.0018785693 0.00069020444 -0.0005458652 -3.8084563e-05 0.0022777086 -0.00018559642
0.0006520048 0.0037785838 0.0030760472 -0.0027621107 -0.0012462127 -0.0030318669 0.0013977205 0.0010429423
0.0029334158 0.0026978117 0.0014225704 0.0009448482 0.0017453912 0.002847445 0.0013167645 0.0026105656
0.0027063536 0.0025556367 0.0017658195 -0.0011256911 0.0038307304 -0.0013536783 -0.0032764473 -0.0033338275
0.0008524865 0.002211061 -0.0038878424 -0.002893107 0.002235458 0.00079472066 -0.0033185035 0.0011049008
-0.00027802892 -0.00046094487 -0.000323094 7.436396e-05 -0.0010772033 -9.795732e-06 0.00035437703 0.00062405015
3.1714935e-06 -0.00017235585 0.000772571 0.00025093695 -0.0001358406 -3.944783e-05 0.0050408244 5.5108198e-05
0.00061285996 0.00050928275 0.00046343217 -0.0011771044 0.00027257833 -0.0010046796 -0.00091201946 -0.0008559331
0.0008438625 0.000956786 -0.00078969996 -0.00081560854 0.0008872282 0.00084119244 -2.9937335e-05 0.0009912198
-0.0046835016 -0.00494335 -0.0044736103 0.004121686 -0.005574476 0.004522398 0.0057880552 0.0056431144
-0.004041391 -0.0050712377 0.0055400543 0.0054733087 -0.0047780527 -0.0040879548 0.004071546 -0.0041287025
-0.0029902249 -0.0024987017 -0.0041557034 0.0027586312 -0.0030346962 0.0030857308 0.001628204 0.0011702614
-0.0033721346 -0.0027881616 0.0010964888 0.002515929 -0.00268854 -0.0039411425 0.0020439716 -0.003573204
-0.0024508038 -0.0034014776 -0.004222975 0.00451715 -0.0017152333 0.0038963906 0.002104368 0.0022853534
-0.0049339044 -0.0032154236 0.0019286119 0.0027711417 -0.0026624508 -0.005110436 0.0011369707 -0.004405972
0.0027602674 0.0037507121 0.0027878964 -0.0031783357 0.0027673782 -0.0031529537 -0.003137084 -0.0034801147
0.003238765 0.003362465 -0.0031946 -0.0032072137 0.002834057 0.0031008504 -0.0034247076 0.0029210437
-0.00084293954 -0.0011158456 -0.00029580886 0.0012501142 0.0023019596 0.0012360937 0.00093446474 0.0015932462
-0.0013707386 -0.0013200099 -0.0020333629 0.0010952016 -0.00096357317 -0.0010100595 -0.0020633168 -0.0010896536
-0.0034461142 -0.0044813235 -0.004078583 0.003888389 -0.0039523286 0.003988495 0.0039666495 0.004328209
-0.0040204637 -0.004081682 0.0038763203 0.0041672066 -0.0035955524 -0.004113077 -0.0005121102 -0.003768511
0.004173569 0.0052489717 0.0045989715 -0.004256154 0.0048963516 -0.0041250866 -0.004565528 -0.005122716
0.004055841 0.0044446047 -0.0052447673 -0.00478035 0.004096752 0.0042911354 -0.005631663 0.0038090502
0.005059089 0.0037423314 0.004488662 -0.0031454342 0.004720001 -0.003862668 -0.0054152277 -0.0057315924
0.0022148576 0.0047947336 -0.0062384685 -0.0054415194 0.0050009363 0.0021095253 -0.0056021228 0.002942159
-0.0026571068 -0.0018849395 -0.005160258 5.4063534e-05 -0.0057047578 0.00060341513 0.002421635 0.0015931118
-0.000396388 -0.0010808102 0.0025256795 0.002027508 -0.0019141163 -0.0008383862 0.004514038 -0.0013238222
0.0033047912 0.003927245 0.0024056816 -0.004059766 0.0032299757 -0.003888339 -0.003167448 -0.0036177163
0.0030576775 0.003798832 -0.0032632218 -0.0037446988 0.0034363866 0.0027906864 -0.002108622 0.0031079308

base_model.model.bert.encoder.layer.1.attention.self.query.lora_A.weight f4 [16, 384]
00000000: 3e92 5f3d 9586 013d c4bc 93bc 4c61 e73c
00000010: e9b7 9cbc 489b 6fbc 37f9 0c3d 7a90 3bbc
00000020: 9876 b33c a654 163d 2362 ccbc 936a 36bd
00000030: cec1 39bd 8317 f33c af90 843c 671e b8bc
00000040: 7934 15bc 9780 cc3c e79d 76bc 9430 d4bc
00000050: 9be5 573b 545a 59bd 95ea 84bc 911d bdbc
00000060: 1319 a93c 40a2 14bc f2bb 053d 441b d4bc
00000070: 93d4 d93c 1b9d 30bd 1e25 683c 27a5 83bc
00000080: 5137 52bd 5fda 053d b29a 6cbc 3479 f9bb
00000090: db18 c43c 4696 c7bc d0e9 ee3b a60a 013d
000000a0: d0a9 39bc 0399 78bc 5324 093a bcc7 233d
000000b0: 6f90 27bd c7a5 62bd 56cd 00bd 3090 593d
000000c0: 8b6e 93bb f1e1 8c3b 3b3a bc3c 581f 4dbd
000000d0: 2761 50bc 0b14 023d 30f0 22bd ea9b 1c3d
000000e0: 5001 bbba 604a 223d 9224 233b 7e08 1d3c
000000f0: 4f84 cf3c 256d e03c ba03 abbc e363 65bc
00000100: cea7 ab3c 44f0 1ebd 3c31 513d 24a5 c33c
00000110: c47b 0cba 1f50 4bbd 9949 143d 9cfc c73b
00000120: b1c8 ac39 f44f 59bd 5bbb 093b a500 11bd
00000130: c671 103d e459 a0ba be7e 403d 2405 dcbc
00000140: 7f69 053c 52c4 60bb a589 ed3c 0d56 f2bc
00000150: 8640 e9bc d2ae b8bc b8fb b0bc 96cb 1d3c
00000160: a832 39bb 908d 26bc b9fe 4d3d af04 243d
00000170: 815c 28bc 6f42 e8bc 2915 303d 0ea8 3e3d
00000180: 08d3 0abb 246e 7f3c 9941 a03b da13 cd39
00000190: 5e5a 343c 0f6b 2bbd 0bea f4bc d583 bcbb
000001a0: 200c 683d c810 b23b c2f3 65bc 4f5f ce3c
000001b0: 2e1d aebc cb7a 3bbd bae7 73bc 49a1 1c3d
000001c0: 8f78 5e3c 5417 343c be58 11bd 4182 713c
000001d0: cbd8 c5bc 53cb 1e3a 5b1b 1a3d 792a b33c
000001e0: 5b84 60bc 3157 953c b3e1 433d acfc 98bc
000001f0: bd09 bb3a f229 123d 5be0 91bb 0e24 3a3d
00000200: c36c 31bc 319b 9abc a2f2 243d 7df6 af3c
00000210: 2f3f 323d 9acb 543c bfbd 29bd 29ee ef3c
00000220: 707e da3b 8fd0 86bb 489c 15bd a7b1 e7bc
00000230: a407 533d 4e8b 1ebd 7d6a 343d 7fcc 12ba
00000240: 6120 f6bc 4572 1dbd 9390 653c 34b9 d1bc
00000250: 313a e03c 1f08 df3c 7773 65bd 9e72 163d
00000260: 2e58 293b 6037 7d3c 1f06 4cbd c8e4 053d
00000270: 6e2c 5b3c 0fc0 723c 670b 9abc 5463 89bc
00000280: 82c9 013c e1a4 24bd f541 f03c a81a 9c3c
00000290: 9f1f 5cbd 2dac 0abd 5af5 13bd 7307 e23c
000002a0: 5d54 073d 3d14 2c3d ffb8 213d f494 43bd
000002b0: 73e5 993c 149f 4f3c 1199 023d 3d71 983c
000002c0: 3ac8 03bd 7817 c4bc 2c5e 323d 10b9 09bd
000002d0: d537 17bd 0856 353d 43f4 1d3d a68f 3f3d
000002e0: a760 2e3d 7956 4f3d 9d57 9dbc 87ce f83c
000002f0: 217c d53b affd 4fbd 24fa b63c 21ea 98bc
00000300: 9841 ab3c 3cde 1f3d c15f f23c 1300 593d
00000310: ac90 77bc eb84 093d 5131 43bd 79cb 55bc
00000320: 4570 54bb ef4f 153d e844 c93c 9ecf 153d
00000330: c052 273d 3b52 0f3d f698 98ba 124f 38bd
00000340: d817 0abc b7e2 093d cf42 eb3c 6bf1 54bd
00000350: 7148 1a3b 0b63 0f3d fb39 9d3c eab3 253d
00000360: 0064 a8bc 79a6 50bd 9b7f 9abb 1877 e3bc
00000370: 6f93 39bd de71 80bc 1179 53bc 7d79 21bd
00000380: 1e93 093d 4111 63bc 86e7 8b3c e638 053d
00000390: 1e3a 323d ccec b2bc e062 c93c 4e65 a33c
000003a0: f92c 8fbc 69c5 fbbc db2e d63c 2b92 d03a
000003b0: 6b1d fdbb cd87 d53b 3001 aabc 51f8 313c
000003c0: 94f2 a53b 6e4b eabb ad4b 2bbc 51a2 943c
000003d0: 6d99 113d 0db3 353d c527 3b3d 28a4 703c
000003e0: 2a8a 84bb a70a e73c 0100 253d 3ee6 6fbc
000003f0: ab0b f5b9 02ae 3cbd 588d b13c de38 30bd
0.054582827 0.031622488 -0.018034346 0.028244637 -0.019130664 -0.014624424 0.034417357 -0.01144802
0.021907136 0.03670182 -0.024949139 -0.04453523 -0.045350842 0.029674297 0.016182272 -0.022475434
-0.009106749 0.02496366 -0.015052295 -0.02590207 0.0032943252 -0.05306466 -0.016225139 -0.023085387
0.02064184 -0.009071887 0.03264994 -0.025891908 0.026590621 -0.043118577 0.014169006 -0.016069962
-0.051322285 0.032678958 -0.014441179 -0.0076133255 0.023937633 -0.024363648 0.007291056 0.031504296
-0.01133199 -0.0151732 0.0005231548 0.039985403 -0.040909227 -0.05533388 -0.031445824 0.053116024
-0.0044992617 0.0042993953 0.022976985 -0.05007872 -0.012718475 0.031757396 -0.039779842 0.03823463
-0.0014267359 0.03962171 0.0024893624 0.009584544 0.025331644 0.027395794 -0.0208758 -0.014000866
0.020954039 -0.038803354 0.051072344 0.023882456 -0.00053590187 -0.049636956 0.036203 0.0061031114
0.00032955923 -0.053054765 0.0021016214 -0.035401005 0.035264753 -0.0012233821 0.04699587 -0.02685792
0.008142828 -0.0034296704 0.028996298 -0.029582048 -0.02847315 -0.022544298 -0.021604404 0.009631058
-0.0028258953 -0.010165587 0.05029175 0.04004353 -0.010275961 -0.02835199 0.04298893 0.04654699
-0.0021182913 0.015590224 0.0048906323 0.00039115438 0.011007873 -0.041850146 -0.029896757 -0.0057530203
0.05665219 0.0054341294 -0.014035167 0.025191931 -0.021254148 -0.0457714 -0.014886791 0.03823975
0.013578548 0.01099189 -0.03548502 0.014740528 -0.024151227 0.00060575193 0.037623744 0.021870838
-0.013703431 0.018230053 0.047822665 -0.01867517 0.001426987 0.035684533 -0.004451794 0.04544454
-0.0108291535 -0.01887283 0.040270455 0.02147984 0.043517288 0.0129879955 -0.04144072 0.029288368
0.0066679046 -0.0041142176 -0.036525995 -0.028282953 0.05152096 -0.03870707 0.044046868 -0.00055999303
-0.030044736 -0.038439054 0.01401152 -0.025601007 0.027371498 0.027225552 -0.05601832 0.0367304
0.0025839913 0.015455097 -0.049810525 0.032688886 0.013377292 0.014816298 -0.018804265 -0.016770996
0.007921578 -0.040196303 0.029328326 0.01905568 -0.053741094 -0.033855606 -0.036122657 0.027591443
0.03303944 0.04201149 0.039483067 -0.047749475 0.018786168 0.0126722045 0.031884257 0.018608684
-0.032173373 -0.023936972 0.04354684 -0.033623755 -0.03691848 0.0442715 0.038563024 0.046767853
0.042572644 0.050619576 -0.019206816 0.030371917 0.0065150415 -0.05077904 0.022336073 -0.018666329
0.020905301 0.0390303 0.029586675 0.052978586 -0.015110176 0.033574026 -0.047654454 -0.013049
-0.003241555 0.036453184 0.02456899 0.036574952 0.0408504 0.03499053 -0.0011642266 -0.044997282
-0.008428536 0.033663478 0.02871838 -0.051988047 0.0023541714 0.035006564 0.019192686 0.040454783
-0.020555496 -0.05094001 -0.004714919 -0.02776675 -0.04530662 -0.015679296 -0.012907282 -0.0394225
0.033587568 -0.013859094 0.017078172 0.032524966 0.043512456 -0.02184143 0.02458328 0.019945767
-0.0174775 -0.030733781 0.02614539 0.0015912702 -0.007724454 0.006516433 -0.02075252 0.010862426
0.005064318 -0.007150105 -0.010455054 0.018143805 0.03554671 0.04436021 0.045692224 0.014687575
-0.0040447908 0.028203322 0.040283207 -0.014642296 -0.00046738735 -0.046064384 0.021673843 -0.043022983

base_model.model.bert.encoder.layer.1.attention.self.query.lora_B.weight f4 [384, 16]
00000000: dff5 57bb aaf0 52ba f08b 6c3b fd83 6ab9
00000010: a9f6 7bbb a599 2339 c80d edba 2694 9abb
00000020: 72ce 283b a9fb 99ba 4ad3 8039 9c67 50bb
00000030: 06c9 9fba 4429 893a 3f64 f6b9 6e29 9a3a
00000040: 6471 16bb 7d69 823a ce22 183b 8fe9 3f39
00000050: f638 c0ba 820b a2b9 dc2d 89ba 942c 08bb
00000060: 228f 583a 1fac 15bb cbb2 9d3a e399 1abb
00000070: 4562 15bb bf5e 113b 4de8 1bbb a17b 153b
00000080: 2ed5 43b8 fba8 933a 4c96 d038 a7fd c9b9
00000090: fbd0 da37 ad21 77b7 27b9 1bba 6b5f 8fb9
000000a0: c0ca ba3a 7b02 c2b9 d033 1439 f05b abb9
000000b0: e279 b239 0baa 2e39 15b4 6d38 10d3 7239
000000c0: 159d 89bb 3019 c539 4761 8c3b 6213 b739
000000d0: 3ef8 88bb d07d 253a f395 0abb 254b 9bbb
000000e0: 10c7 b53a 2a97 cfba a335 023a 24cf 89bb
000000f0: bb11 03bb f97d 0a3b 7f15 b6ba fd2d d83a
00000100: be7e a9bb 37a8 89ba 7168 cc3b db74 d5b9
00000110: f8ad bdbb cd7a e23a 18ec a3bb 66ce a5bb
00000120: 3e61 563b afbe 8fbb d7db 073b 8c12 afbb
00000130: f912 8fbb 8f78 ad3b b888 b2bb 8ef9 bd3b
00000140: 3184 a7bb 93bb d539 e453 b43b 40e0 873a
00000150: c3f0 99bb 834f cd3a c71a 31bb c443 a6bb
00000160: 133d b43a facf 3cbb 6bcd 703a 1d3c c2bb
00000170: d850 a4bb 1bdf b63b 6fd6 80bb d373 4c3b
00000180: 7685 28ba 5fd4 e6b9 5cfe 023b 57c8 bf37
00000190: 44a8 2bbb 3a63 04b9 d894 88ba a04b 05bb
000001a0: 7086 aa3a 1ef2 c1b9 a09c 3eb9 d21a 9cb9
000001b0: 4f3f dd39 405c 18b9 8764 1c39 b5f1 7139
000001c0: fac1 54bb 2bed f439 b62d 8a3b 8011 ac39
000001d0: c234 79bb 1fb5 073a e959 ccba 5de0 84bb
000001e0: 9378 5c3a 6f3a 9bba a519 de39 07ea 06bb
000001f0: a907 19bb 5328 a53a 94e7 8cba 6ee0 823a
00000200: 32e7 92ba bb05 2fba 8b2d 633b 5be0 afb9
00000210: 4a3b b4bb be20 9639 4be5 d5ba 34b4 27bb
00000220: b47e 583b fe5a 6bba 250e b2b6 ade8 96ba
00000230: 0143 3aba cb32 5a3a 0b8c 00ba d775 673a
00000240: abbb dfba 122b d5ba 6e14 dd3a 5832 82ba
00000250: 5f83 2abb a226 8239 f7de 4ebb bee2 12bb
00000260: a070 393b 5155 9fba bfa1 2a3a 3d51 58ba
00000270: 5000 2eba 91c2 703a 6f23 8eba 6bbd 2f3a
00000280: 6ab0 8e3b a8f0 70ba 4eef 9dbb 29d0 d0ba
00000290: 8bd3 7b3b 5b8d faba c359 1b3b 85d1 8c3b
000002a0: e815 a837 59ea 4c3b df24 a3ba 6bd8 9a3b
000002b0: 3797 8e3b 60e5 a3bb f1fe a53b c2bd 70bb
000002c0: 77d3 3c3b cb23 dc39 a71e 92bb 1e4d f237
000002d0: ec62 853b a074 4bb9 ad3e fa3a 099c 893b
000002e0: 062f d5ba c4d0 883a f2e8 1cb9 ef44 ea3a
000002f0: b0c1 3f3b d8db 5fba d0c5 c53a 9180 91ba
00000300: 1ab4 93b9 615a 453b 7133 4c39 0761 e93a
00000310: a86d 0b3a 9a79 ac3a 20d2 5239 62bf e339
00000320: 9d15 b6bb cb11 2cba 1a74 ab3a 843e c8b9
00000330: fd71 a4ba 0c74 453a e35d 84ba 01d7 273a
00000340: 4aaa 6e3b c055 e7ba cf16 96bb 5b6d 65ba
00000350: c818 813b 9194 60bb 4cc4 943b 7fc9 543b
00000360: 4b91 a5ba ed6f 8f3b b89d 83bb 4d17 543b
00000370: b2ac 7f3b 50a4 5fbb af0f 7c3b 6f16 64bb
00000380: e5ef a8ba 9bf9 143a a05a ed3a 4a34 c1b8
00000390: 0b6f 1cbb d156 22b9 4ced 64ba 7320 4dbb
000003a0: 7ee4 483a be52 75b9 2ea4 8fb9 1a49 6bba
000003b0: 096c 1a3a 3245 8239 42d9 6037 95ed e139
000003c0: 98af ad3b 4973 5439 e91b d3bb 22ab 74ba
000003d0: ba09 d43b 4e9c b5bb 54fe ce3b e8c1 bc3b
000003e0: 971b 7bbb 6502 ac3b 850b 9abb faa6 ad3b
000003f0: 486b ad3b e511 acbb 0f6d bc3b 6214 c0bb
-0.0032952947 -0.0008046726 0.0036094151 -0.00022365148 -0.0038446581 0.00015602128 -0.0018085772 -0.0047173677
0.0025757817 -0.0011747974 0.00024571485 -0.0031800037 -0.0012190647 0.0010464569 -0.00046995466 0.0011761615
-0.002295577 0.0009949651 0.0023214105 0.00018302187 -0.0014665413 -0.00030907622 -0.0010465938 -0.0020778524
0.00082610745 -0.0022838188 0.0012031434 -0.0023590259 -0.002279417 0.0022181717 -0.0023789585 0.0022809284
-4.6690162e-05 0.001126557 9.946208e-05 -0.00038526693 2.608494e-05 -1.4730188e-05 -0.00059403706 -0.00027346177
0.0014251098 -0.00037004412 0.00014133682 -0.0003268416 0.00034041615 0.00016657279 5.6672918e-05 0.00023157545
-0.004199634 0.00037593534 0.0042840573 0.0003491892 -0.0041799834 0.0006312998 -0.0021146506 -0.0047391825
0.0013868529 -0.0015837897 0.0004967099 -0.0042056013 -0.0019999582 0.0021132214 -0.0013891904 0.0016493198
-0.0051725795 -0.0010502402 0.0062380363 -0.0004071359 -0.005788561 0.0017279029 -0.00500251 -0.005060005
0.003271177 -0.004386745 0.00207304 -0.005342787 -0.0043662754 0.0052939127 -0.005448427 0.0057975715
-0.005112194 0.0004076628 0.0055031646 0.0010366514 -0.0046978905 0.0015663955 -0.0027024017 -0.0050739963
0.0013751112 -0.0028810487 0.0009185883 -0.005927576 -0.00501452 0.0055807955 -0.0039318125 0.0031196966
-0.00064285786 -0.00044027247 0.0019988036 2.2862265e-05 -0.0026192823 -0.00012625466 -0.0010420335 -0.0020339265
0.0013010036 -0.0003699222 -0.0001817816 -0.0002977462 0.00042199573 -0.00014530215 0.00014914769 0.00023073594
-0.0032464252 0.0004671601 0.004216875 0.00032819435 -0.003802583 0.00051768305 -0.001559076 -0.0040550665
0.0008410301 -0.0011842976 0.00042362246 -0.0020586269 -0.0023350513 0.0012600519 -0.0010750168 0.0009985098
-0.0011207818 -0.0006676574 0.0034664597 -0.0003354576 -0.005500232 0.00028634624 -0.0016318945 -0.0025589587
0.0033034505 -0.00089780975 -5.30646e-06 -0.0011513435 -0.0007105321 0.0008323609 -0.00049036805 0.000882951
-0.0017069479 -0.0016263446 0.001686705 -0.0009933216 -0.0026018245 0.00024824316 -0.0031566003 -0.002241298
0.002829589 -0.0012156164 0.00065090874 -0.00082518515 -0.000663762 0.0009184266 -0.00108443 0.00067039457
0.0043545263 -0.0009191134 -0.004819787 -0.0015931177 0.003842565 -0.0019115614 0.0023704625 0.0042974376
2.0037362e-05 0.0031267612 -0.0012446902 0.004725506 0.0043515223 -0.005001709 0.005065792 -0.0036734198
0.0028812566 0.00041988338 -0.0044592205 2.8884559e-05 0.0040706303 -0.00019403035 0.0019092165 0.004199509
-0.0016264624 0.0010438194 -0.00014964098 0.0017873327 0.0029259734 -0.0008539534 0.001508886 -0.0011100938
-0.0002817221 0.0030113684 0.0001947412 0.0017805406 0.0005318769 0.0013158799 0.00020105438 0.00043439405
-0.0055567757 -0.00065639307 0.0013080866 -0.0003819355 -0.0012546178 0.0007532246 -0.0010098781 0.00064025825
0.0036417418 -0.0017649457 -0.0045803557 -0.0008751952 0.0039397217 -0.003426824 0.004540002 0.0032468734
-0.0012631802 0.0043773563 -0.0040166043 0.003236252 0.0039012847 -0.0034125037 0.0038461497 -0.003480341
-0.0012888877 0.0005682946 0.0018108673 -9.212697e-05 -0.0023869898 -0.00015481866 -0.000873287 -0.0031299859
0.00076634425 -0.00023395845 -0.0002739741 -0.00089754316 0.0005890732 0.00024847087 1.3402025e-05 0.00043092357
0.0053004734 0.00020260843 -0.006442536 -0.0009333362 0.006470886 -0.0055423146 0.0063169394 0.00576042
-0.0038316005 0.005249309 -0.0047010803 0.005299446 0.00529233 -0.0052511566 0.0057503055 -0.005861805

base_model.model.bert.encoder.layer.1.attention.self.value.lora_A.weight f4 [16, 384]
00000000: e20c 13bd b899 9bbc 4b93 3a3c 949b 8ebc
00000010: e81b e8bc 192c 0bbc 1f85 273c 96af 543d
00000020: 9147 2b3d 74c0 173d 2f04 14bd 7e35 92bc
00000030: 4a79 8db9 6224 63bc b3f1 31bc 458b 9d3b
00000040: 468c 843c 6554 5a3d 8d69 043b f23a f03c
00000050: 1fed abbc e83e 3b3d ba00 b63b 3b05 0d3d
00000060: 1851 fbbc 12d0 503d 0b72 fa3c 99d6 07bd
00000070: 495f 033d 65ed babc 14fd 553d 4192 d9bc
00000080: 374c 533d 578a b43c 4827 c7ba 65f5 2cbd
00000090: 12d5 523d 9421 41bc 2df7 bcbc 96cd 81bb
000000a0: f3e0 1d3d a1cc 363b bcdc 12bb 9fd1 083d
000000b0: e58e 553d c4fd 533d 0c8c ba3c c39a 0fbd
000000c0: 7572 8bbc 43fd a3bc a08c 313d 7e4f 28bd
000000d0: 0885 973c fcb4 cc3c 1a57 07bd 9155 5abd
000000e0: f461 c0bc b1f0 3abd eae6 863b 4cdc 63bb
000000f0: 800c 293d b467 2ebd 6d50 f43c 90f4 02bd
00000100: 59b7 30bd 616b a4bc 0dca b93c 709e 4dbc
00000110: 6f27 a0bc c235 363d 5244 12bd 9abd d23b
00000120: 3408 243c 2a69 3d3d d0f7 a13c 329f 463d
00000130: 4fd3 103d c237 6c3b fb8b 43bb 58ad 4bbd
00000140: 5b0b 92bb 6e1e 4abc 6bc6 573c 63a6 333d
00000150: 1282 2d3c 0996 04bd d6e4 123d 4fe8 a0bc
00000160: 8834 05bd fb22 1cbd b486 43bc 5af7 3e3d
00000170: 554a 023d 5782 0ebd d977 073d 7d2c 50bd
00000180: d8a8 393d e7aa ef3b affd 45ba 35d3 2d3d
00000190: 40be 35bd c9fc f13c ad1a c93c 4abf 043b
000001a0: 7a64 a2bc a0ae 7cbc 756a da3c 335d bfbc
000001b0: e134 0dbd f95e 433d d790 2bbd 3e6b cdbc
000001c0: fffb fdbc e992 113c 2ce7 0f3d b24c 1fbc
000001d0: 2f92 9fbc 5961 c13a 41e9 2dbd 6d9c fd3c
000001e0: 46ee f93c fd07 febc 0e48 e9ba 1dce 303d
000001f0: 2c18 03bd ab71 973c 2dff 65bd 25b6 0ebd
00000200: f067 57bd 6b54 4b3c fbd9 113c 2f6f 64bd
00000210: 27bb a23c 66a3 6e3c 29f0 b0bc 35b9 063d
00000220: 3e07 3c3d 1468 523d 7f0f e7bc a5ff c8ba
00000230: 0b88 90bc 107c 11bd d5d6 1e3d 74ab c2bc
00000240: f81b 013d b44d 29bd b0cf 063d ba2b 0d3d
00000250: f91c 023d 148e 39bc b90f 083d 4d2b cd3c
00000260: bbdd 21bd 9499 bd3c 3b0d 99bc 9d10 6c3c
00000270: 084a c73c 258a 19bd c0bf 153d 23c1 cdbc
00000280: 89ed 53bd 928a cf3a 1e9d 09bd 1567 a9ba
00000290: 99f1 a23b 4a3e a0bb c564 4abd cdf5 f43c
000002a0: 842c 16ba e9d4 113c fabd 233d 22f0 c3bc
000002b0: 3d17 35bc 1969 fcbb e2ad 1b3d 8257 08bd
000002c0: 1474 a9bc ca5c 0d3d ccb0 103c 925a 5bbd
000002d0: 68a0 2abc 61b5 9bbc f921 3b3d 96d4 c23c
000002e0: b3e5 ef3c f1b5 893c fd78 36bd bfcd bc3c
000002f0: 7a5f 66bd aa78 213b 2213 603c 1a84 f03c
00000300: d7e1 67bd 2d9c 96bc e9cb cbbc fb31 223d
00000310: d4ab 343d a0b4 7f3c 5237 90bc bc49 2c3c
00000320: 382a 163d 1eda 943c 17d3 b93c 119c 673c
00000330: 9d62 f23c 7a8c 52bb 710b 253d 7a9a 2f3d
00000340: 4de6 393c 9c8e dbbb 6db7 9fbb 9c6b a4bb
00000350: f198 3d3d 2a02 e7ba 0611 50bb a866 cebc
00000360: bf67 e4bc 52ba bf3b 806b b8bc 35a5 463d
00000370: 9e69 4b3d 565f 0ebd 502c 51bc 7c24 89bc
00000380: e1fa 023d 44db 6f3c fe9c b6bc 8b2b 4cbd
00000390: 1ab1 7e3c 66f3 87bb 26fc 4c3d beea 203d
000003a0: ec72 15bd 7602 06bb 67a1 3ebc fef2 babc
000003b0: 1c38 24bd d34f 47bd 89a3 173d d44f 5bbd
000003c0: 886a febc a4cb ea3b e550 123c 5504 44bc
000003d0: d547 f73a 17a4 a5bc 3bcf 65bd 90b3 ffbc
000003e0: 4445 f13b ee25 02bd ccc9 b8b9 4eab 11bc
000003f0: 1948 e8bc eb0a 913b c0c3 30bd 5018 1fbd
-0.035900958 -0.018994197 0.011387656 -0.01740817 -0.02833362 -0.0084944 0.01022461 0.051925264
0.041816298 0.037048772 -0.036136802 -0.017847773 -0.00026983983 -0.013863655 -0.010860848 0.004807862
0.016180169 0.05330314 0.0020204515 0.029324982 -0.020987092 0.04571429 0.005554286 0.034428816
-0.030678317 0.05097968 0.030571958 -0.03316364 0.032073293 -0.022818277 0.052243307 -0.026558997
0.051586356 0.022038622 -0.0015194202 -0.042226214 0.05147273 -0.011787791 -0.023067081 -0.0039612753
0.038544606 0.0027892964 -0.00224094 0.033403035 0.052138228 0.05175568 0.022771858 -0.0350597
-0.01702235 -0.020018226 0.043347 -0.041091435 0.018496051 0.024988644 -0.03304205 -0.05330426
-0.023484208 -0.045639697 0.0041168826 -0.0034768758 0.041271687 -0.042579368 0.029823506 -0.031971514
-0.043143604 -0.020070734 0.022679353 -0.0125499815 -0.019550053 0.04448486 -0.035709687 0.0064312937
0.010011721 0.04624287 0.019771487 0.048491664 0.03535777 0.0036043976 -0.0029838074 -0.04972586
-0.00445692 -0.012336357 0.013169865 0.04385985 0.010590093 -0.032369647 0.035862766 -0.019642023
-0.0325208 -0.038119297 -0.011933971 0.04662261 0.03180917 -0.03479227 0.03307328 -0.050823677
0.045327038 0.0073140743 -0.00075527554 0.04243775 -0.04437089 0.029539483 0.024548853 0.0020255619
-0.019823302 -0.015422493 0.02666209 -0.02335987 -0.034474257 0.047697995 -0.041886177 -0.025075551
-0.03100395 0.008885124 0.035132572 -0.009722875 -0.019478885 0.0014753743 -0.042458776 0.030958379
0.030509125 -0.031009668 -0.0017797963 0.043165315 -0.032005474 0.018486818 -0.056151558 -0.034841675
-0.052589357 0.0124102635 0.008902068 -0.055770095 0.019864632 0.014565324 -0.021598892 0.03289147
0.045905344 0.051368788 -0.028205631 -0.0015334977 -0.017642995 -0.035518706 0.0387791 -0.023763396
0.031520814 -0.04133387 0.03291291 0.03446553 0.03176591 -0.011325378 0.03321812 0.025045061
-0.0395181 0.02314452 -0.018683067 0.014408258 0.024327293 -0.03748526 0.03655982 -0.025116509
-0.051740203 0.0015834144 -0.033597104 -0.0012924398 0.0049726483 -0.004890238 -0.049412508 0.029902363
-0.0005728679 0.008900859 0.039976098 -0.023918215 -0.011052904 -0.0077029583 0.038007624 -0.03328658
-0.020685233 0.03451232 0.008831214 -0.05355317 -0.01041422 -0.019007387 0.045686696 0.02378301
0.029284334 0.01681039 -0.044548977 0.023047326 -0.056243397 0.0024638572 0.013676437 0.029359866
-0.056611862 -0.018385017 -0.024877505 0.039598446 0.04410918 0.015607029 -0.017604504 0.0105156265
0.036661357 0.018170413 0.022683663 0.01413633 0.029588038 -0.0032127188 0.040294115 0.04287193
0.011346412 -0.00670035 -0.004874161 -0.005017711 0.046288434 -0.0017624546 -0.0031748428 -0.025195435
-0.027881501 0.0058510685 -0.022512197 0.048497397 0.04966127 -0.03475889 -0.012766913 -0.01674103
0.031977538 0.014639679 -0.022291657 -0.049846213 0.015545154 -0.0041488884 0.050045155 0.039286368
-0.03648655 -0.0020448244 -0.011635161 -0.022820946 -0.040092573 -0.04866011 0.037021194 -0.053542927
-0.031056657 0.007165389 0.00893042 -0.011963923 0.0018866012 -0.020219846 -0.056105834 -0.031213552
0.0073629934 -0.031774454 -0.00035245565 -0.00889094 -0.028354691 0.0044263504 -0.04315543 -0.038841546
