lora_crossencoder_has_instruction_r_16 la_16 ld_0.3/checkpoint-774/adapter_model.safetensors (safetensors, 594924 bytes, 25 tensors)

base_model.model.bert.encoder.layer.0.attention.self.query.lora_A.weight f4 [16, 384]
000000 e8 9a 28 bd a9 a8 46 3d ac 88 14 bd 8a 98 05 3c
       -0.041163355 0.04850069 -0.036263153 0.008154044
000010 f1 6c 99 3b da 9d b5 bc 74 34 17 3d 51 65 ed bc
       0.0046821763 -0.022169996 0.036915258 -0.028978975
000020 8f df 0f 3c 96 fa 8e 3c 1f 73 23 bc 29 a6 2b bc
       0.008781328 0.017453473 -0.0099761775 -0.010476627
000030 e2 ff 06 bd 28 c4 8c bb f0 a8 38 bd 5d 11 45 bd
       -0.032958873 -0.0042958446 -0.045082986 -0.048112262
000040 e1 31 f7 3a b7 02 9c 3c 4e 65 dd bc f9 57 35 3d
       0.001885947 0.019044263 -0.027025845 0.04427335
000050 84 1f 0e bd 23 24 43 bd 88 27 b7 3c 76 be 44 bd
       -0.034698024 -0.047641885 0.022357717 -0.0480332
000060 69 94 ed 3c 59 bd 43 bd 67 fa 65 bc 17 2b f5 bc
       0.029001432 -0.047787998 -0.014036751 -0.029927773
000070 bf 1e 20 bd ee d8 0d 3d 08 db 42 bd 0b 14 bd 3c
       -0.03909182 0.03463071 -0.047572166 0.023080846
000080 54 75 05 3d dd c2 0f bd f1 d2 37 bb 40 ac b6 bc
       0.032582596 -0.035097945 -0.0028049315 -0.022298932
000090 3e e6 34 3d 93 8e 4e bd 39 ed 7a 3c 93 75 7c 3c
       0.04416489 -0.050428938 0.015315347 0.015408891
0000a0 c0 c5 26 bd 65 cb e7 3a 79 96 38 bc 4e 76 eb 3c
       -0.040715933 0.0017684518 -0.011266344 0.028742936
0000b0 e3 e9 04 3d 65 4c 0d 3d 5e bd 02 bd 61 c4 89 3c
       0.032449614 0.034496684 -0.031918876 0.016817274
0000c0 a8 ba 74 3c a2 da 3c bd e0 be d5 3c 9e ea db 3c
       0.01493708 -0.046106942 0.026091993 0.026845273
0000d0 b7 aa 2f 3c 97 aa 40 3d 5f 88 b3 3c dc a4 73 3c
       0.010721854 0.047037687 0.021915613 0.0148708485
0000e0 4c fa fa bc 19 60 90 3c 40 d5 d5 bb 8e 47 45 bc
       -0.030636929 0.017623948 -0.0065256655 -0.012040986
0000f0 46 14 04 3c 93 47 be 3c 88 31 27 3d 39 5b 41 3d
       0.008061474 0.023227489 0.04081872 0.047206137
000100 a3 44 85 bc 52 86 be bc f1 28 c4 bc 5a f4 01 bd
       -0.01626808 -0.023257408 -0.023945304 -0.031727172
000110 d6 03 47 bd e2 40 f7 3b 3c db d0 bb 14 e2 cc bc
       -0.048587643 0.0075455764 -0.006373791 -0.025010146
000120 aa 4d 1c bc 13 50 29 3c a8 c1 32 3d 7c 08 37 bd
       -0.009540001 0.010334033 0.043641716 -0.044685826
000130 76 f8 86 bc 25 28 0c bd 13 c0 24 bd 48 1c 88 bc
       -0.016475897 -0.034217972 -0.04022224 -0.016615048
000140 e5 66 cb 3b b2 18 06 bd 85 d0 d5 bc 1c bc 00 ba
       0.0062073343 -0.032738395 -0.026100406 -0.0004910843
000150 1d 83 dc bc 40 8f 99 3a a7 d3 35 bd 32 d1 d1 3c
       -0.026917988 0.0011715665 -0.0443913 0.025612447
000160 42 a8 42 bd 51 a2 30 bd 8c 98 e9 bc 04 bb b5 3c
       -0.047523744 -0.043123547 -0.028515123 0.022183903
000170 f2 bb 92 3c 2c ab 76 3c 43 96 14 3d f5 ec 00 bd
       0.017911885 0.015055459 0.036276113 -0.03147598
000180 bf fc 06 bd 22 f6 a0 bc d8 47 e3 bb 0a 1d 18 bd
       -0.03295588 -0.019648615 -0.0069360547 -0.03713707
000190 8f 0d 3d bd 81 d6 32 3c 08 fd 49 bd 61 af 39 3d
       -0.04615551 0.0109153995 -0.049313575 0.04533327
0001a0 f9 3d 05 3d 9f 75 00 bd 1a 42 48 bc 03 fe c7 bb
       0.032529805 -0.031362172 -0.012222791 -0.0061032786
0001b0 14 cf a1 bb f7 f7 05 3c 59 b4 26 bd 29 81 c3 bb
       -0.0049380157 0.008176795 -0.040699337 -0.005966325
0001c0 0c e0 35 3d 9a ef f0 bc 0d ac d2 3c 23 ae fa bb
       0.04440312 -0.029411126 0.025716806 -0.0076501532
0001d0 93 b4 3e bd f1 a3 01 3d 11 4d 46 bd 00 c3 46 bd
       -0.046558928 0.031650487 -0.04841334 -0.04852581
0001e0 e1 9a 27 3d 4a 81 46 bd 64 9d c4 3c 31 e0 58 3d
       0.04091919 -0.048463143 0.024000831 0.05294818
0001f0 e7 60 d7 bb 6c dc c9 bc 8b 23 7c bc fb c6 22 bd
       -0.006572831 -0.024641238 -0.0153893335 -0.039740544
000200 1f e6 d9 3b fd d4 0f bd 68 5e 79 3c ad db bd 39
       0.006649747 -0.03511523 0.015220262 0.0003621256
000210 0b 04 ea 3c 4c 3b f8 bc eb c9 20 3d 16 69 8c 3c
       0.028566381 -0.030301712 0.039255064 0.017139953
000220 ab 1b 10 bd 85 6b f7 3c 4e 25 d6 3c cb 34 51 bd
       -0.035182636 0.030202636 0.026140835 -0.051075738
000230 1f 89 71 bb 2b 33 96 3c 38 7f 12 3d 2a 23 38 3d
       -0.0036855412 0.018334946 0.035765857 0.04495541
000240 20 6b 3c bd 14 14 eb bc d9 84 21 bd 73 9c 39 3d
       -0.0460006 -0.028696097 -0.039433334 0.045315217
000250 1e 49 e7 bc af 16 4d bd 4c 13 ae bc 98 db 65 3b
       -0.028233107 -0.05007046 -0.021249436 0.0035073515
000260 b7 91 24 bc 12 16 14 bd 5e cb 95 bc fc 78 bc bb
       -0.010044507 -0.03615386 -0.01828545 -0.005751727
000270 2b 70 3f 3c c9 97 5d bc 81 89 a4 bc 27 92 fb bb
       0.011684458 -0.013524958 -0.020085098 -0.007677335
000280 03 d7 3c 3d 39 68 0e 3d b4 05 7f bc 9c 5e db 3c
       0.04610349 0.034767363 -0.015565325 0.026778512
000290 87 e2 8e 3c 96 ab 22 bd 08 91 03 3d 83 7e 85 bb
       0.017442001 -0.03971442 0.032120734 -0.0040739193
0002a0 e5 bd 36 3d 8f 22 c9 bc 7f 67 5b 3d 7b 74 10 3d
       0.04461469 -0.024552612 0.0535655 0.035267334
0002b0 8d 13 4e bd 61 eb bc 3c 17 d1 01 bd f6 cf 30 3d
       -0.050311614 0.023061456 -0.031693544 0.043167077
0002c0 67 92 a7 3c 42 9d 21 bc 19 e1 9f 3c 8b 5f 92 3a
       0.020455552 -0.009864153 0.019516515 0.001116739
0002d0 ad 48 8b 3c 61 ad 00 3d 37 45 d6 bc c4 8b 1c bd
       0.017002428 0.031415347 -0.026156051 -0.03821923
0002e0 66 f7 0c 3c 75 d3 2f 3d 0c 07 47 bd a9 32 40 3c
       0.008603906 0.04292627 -0.048590705 0.011730828
0002f0 d1 1e 24 3d 7b 55 13 bd 3f 17 4f 3d 47 b1 be 3c
       0.04006845 -0.035970192 0.05055928 0.023277892
000300 cc 0c 85 3c 3f 6d b5 bb 93 f6 03 3d 71 4d 07 3a
       0.016241454 -0.005536705 0.032217573 0.0005161381
000310 74 4f 67 bc 25 ee 1f bd 60 7a d3 bc 2d d4 a6 bc
       -0.014118064 -0.03904547 -0.025815189 -0.020364845
000320 eb 32 08 bd a8 5b ea bc e4 fd 5c bd c1 aa 55 b9
       -0.033251684 -0.028608158 -0.053953066 -0.00020376874
000330 6e 64 2e 3d 5f 1e 92 3c 02 42 09 3d 82 c1 0c bd
       0.042576246 0.017836748 0.033510216 -0.03436423
000340 e4 40 70 3c 80 82 7a bc c4 5a a8 bc 6a 12 30 bd
       0.014663909 -0.015289903 -0.020551093 -0.04298631
000350 e0 cd 84 bc cf 42 04 bd fa 4d 15 bd 1b d1 86 bc
       -0.01621145 -0.032290276 -0.036451317 -0.016457131
000360 17 23 1c 3d dc 15 fb bc 55 4d 0e 3d cb 3c 8f 3c
       0.0381194 -0.030650072 0.03474172 0.017485043
000370 cb 97 12 3d 11 52 39 3d c3 36 98 ba 7a 3c 83 3c
       0.035789292 0.04524428 -0.0011613 0.016020048
000380 f9 16 26 3d 12 2e 0f 3d ca 56 25 bb 08 75 04 3d
       0.040549252 0.034956045 -0.0025228732 0.032338172
000390 f2 4a 85 bc 16 e7 a6 3c 7e 93 0e 3d 8c 75 2c bd
       -0.016271088 0.020373862 0.03480863 -0.04210429
0003a0 a8 0b 27 3d 4b cd 00 bd 31 b0 ab 3c 87 9c 20 3d
       0.0407826 -0.031445783 0.020958038 0.039211776
0003b0 f8 94 39 3d 7a 4b 1b bd 1f f0 3e 3d b2 64 50 3d
       0.045308083 -0.037913777 0.046615716 0.05087728
0003c0 60 3e 8c 3c e3 c7 0c 3b b9 dd 1b bc 77 e3 14 3d
       0.017119586 0.0021481446 -0.009513312 0.03634974
0003d0 cc ba f5 bc 52 d2 a1 bc c0 da 68 bc cd bc 85 3c
       -0.029996298 -0.019753609 -0.01421231 0.016325379
0003e0 90 e7 3f 3d be 4a 6b 3c ba b0 4c bd 7b 16 d5 3c
       0.046851695 0.014361082 -0.049973227 0.026011696
0003f0 a3 0a bf 3c 1b c1 09 bd 15 24 4b bd 05 c7 ed bc
       0.023320502 -0.033631425 -0.049594957 -0.029025564

base_model.model.bert.encoder.layer.0.attention.self.query.lora_B.weight f4 [384, 16]
000000 d1 50 f7 3a 3d 24 15 bb 6d dc f7 3a 8a e7 f0 ba
       0.001886869 -0.0022757195 0.0018910296 -0.0018379551
000010 9b 2f 02 bb 44 e6 1d bb c0 fa b9 ba a8 99 4c ba
       -0.00198648 -0.0024093548 -0.0014189109 -0.0007804879
000020 b2 1c 01 bb fb 12 ef 3a 30 93 20 bb f7 24 8b ba
       -0.0019700942 0.001823991 -0.0024501793 -0.0010615875
000030 84 5d d3 ba 61 fd c4 ba 64 90 e8 3a f4 8e 21 3b
       -0.0016125892 -0.0015029126 0.0017743227 0.0024651857
000040 8a 56 31 3b 16 6e f6 ba e6 14 ff b9 ea 41 3a bb
       0.0027059638 -0.0018801119 -0.0004865296 -0.0028420635
000050 0a f9 86 bb 55 36 37 bb a3 62 e8 39 c1 e2 8f 3b
       -0.0041190432 -0.0027955968 0.00044323978 0.004391045
000060 85 16 f1 ba 7a 2e 22 3b ed 0c 3b bb 1c b9 0a ba
       -0.0018393552 0.002474694 -0.002854164 -0.00052918657
000070 d4 13 01 bb a3 9c 94 ba be 8d 91 3a 00 d7 34 3b
       -0.0019695656 -0.0011338185 0.0011104865 0.002759397
000080 99 ea 0d bb fb 75 1d 3b a9 cf b7 b9 aa be 56 3b
       -0.0021654724 0.002402662 -0.000350592 0.0032767453
000090 9c 03 19 3b 56 4e 46 3b 89 04 b2 ba e4 c8 ba ba
       0.0023348099 0.0030259094 -0.0013581674 -0.0014250544
0000a0 66 f2 b2 3a 1a 49 bf ba 9a 1c 23 3b 6d c9 87 3a
       0.0013652563 -0.001459393 0.0024888874 0.0010359712
0000b0 38 34 36 3b 0a 24 36 3a c0 a0 a5 ba 00 18 db ba
       0.002780212 0.0006948119 -0.0012636408 -0.0016715527
0000c0 e3 b7 87 ba 48 ba 9c ba 5e 37 2b ba 33 b7 53 b9
       -0.0010354485 -0.0011957372 -0.00065313827 -0.00020190775
0000d0 6e e9 35 3a 97 c5 40 3a e0 df d7 36 bb 48 2f bb
       0.0006939386 0.0007353662 6.433562e-06 -0.0026746232
0000e0 15 bf 6a 3a 97 7e d6 3a 12 81 93 3a 2e 80 b8 ba
       0.0008954865 0.0016364631 0.0011253676 -0.0014076286
0000f0 a3 d4 9f ba 30 ba ce ba c1 ed 85 39 e5 85 88 3a
       -0.0012194108 -0.0015772041 0.00025544877 0.001041588
000100 f3 7b 0f bb c0 73 58 3b a6 f4 93 bb 95 7f 77 3b
       -0.0021893948 0.0033027977 -0.0045152484 0.0037765254
000110 f8 0f 04 3b 2c e4 10 3b 1b a9 6b 3b a9 9b f1 39
       0.002015112 0.0022108657 0.003595895 0.00046083078
000120 ef 3a 3c 3b 1f 68 2c bb 70 bf c6 3a ce 6f 45 3b
       0.002872165 -0.0026307178 0.0015163254 0.0030126455
000130 e7 90 5c 3b c6 29 9c 3b a2 6c 6d bb d8 83 1e bb
       0.0033655704 0.004765722 -0.003622808 -0.0024187472
000140 46 44 30 3b e1 cc ab ba 12 da 25 38 e1 dd 1f bb
       0.0026896163 -0.0013107323 3.954216e-05 -0.0024393725
000150 d4 60 47 bb 82 eb 1e bb c5 d3 49 38 29 28 20 3b
       -0.0030422704 -0.002424926 4.811936e-05 0.0024438
000160 23 12 a0 ba 2a 0f f7 3a 46 b7 02 bb c5 44 0e ba
       -0.0012212436 0.0018849124 -0.0019945665 -0.00054271176
000170 a9 a8 e3 ba 7e 8d 05 ba 52 11 59 3a 5a f1 f9 3a
       -0.001736899 -0.00050946313 0.0008280474 0.0019069121
000180 62 58 ad 3a de 7f 33 3a 2b 91 93 bb 6e 87 f7 b8
       0.0013225193 0.0006847362 -0.0045033894 -0.000118031036
000190 15 30 06 bb fe e5 87 ba cf b4 89 3b 6a c2 1a 3b
       -0.0020475436 -0.0010368226 0.0042024623 0.0023614415
0001a0 b1 17 a9 b8 30 fa 27 bb ba 2e 6f ba 6e 42 7f 3b
       -8.062961e-05 -0.00256313 -0.0009124089 0.0038949507
0001b0 21 34 50 b9 40 2d 62 3b 32 08 04 bb 97 e4 95 b9
       -0.00019855845 0.0034511834 -0.0020146486 -0.00028589807
0001c0 a6 37 20 3b 20 1f 36 bb 14 23 2e 3a 1e 32 32 bb
       0.0024447232 -0.0027789548 0.00066428 -0.0027190517
0001d0 c8 9e 36 bb ba 7d 04 bb da bf 4d 3a fc 33 09 3b
       -0.0027865637 -0.002021654 0.00078487175 0.0020935526
0001e0 04 9e 23 bb 8a 32 94 39 63 10 54 bb 20 58 bd ba
       -0.002496601 0.00028266414 -0.00323584 -0.0014445819
0001f0 23 9f 11 bb da 21 d6 ba 05 b3 c6 3a a7 b7 52 3b
       -0.0022220097 -0.0016336993 0.0015159553 0.0032152922
000200 d2 5f 2c bb 62 28 f7 3a 7e 40 93 ba 08 c8 35 3b
       -0.002630223 0.001885664 -0.001123443 0.0027737636
000210 1f 32 19 3b 14 0c 2b 3b 36 7a 5c 3a 2f f5 91 3a
       0.0023375822 0.0026099728 0.0008410545 0.0011135692
000220 81 0a da 3a bd d5 fa ba 9b f2 16 3b 9c ee 7e 3a
       0.001663521 -0.0019137185 0.0023032788 0.00097248866
000230 20 3a 01 3b d7 bb bf 3a b2 86 c3 ba e0 8c 0f bb
       0.0019718483 0.0014628124 -0.0014917462 -0.0021904036
000240 97 bd 82 3b bb ef 78 bb f8 85 2a 3b 4c 94 57 bb
       0.003989886 -0.0037984687 0.0026019793 -0.0032894788
000250 2f b6 b3 ba b4 4c 57 bb 63 09 1d bb de ca a9 ba
       -0.0013710911 -0.0032852115 -0.0023961894 -0.0012954136
000260 9c 80 41 bb 50 4b 70 3b 21 58 65 bb 1f aa 26 bb
       -0.002952612 0.0036665983 -0.0034995156 -0.002543099
000270 56 e0 6f bb d1 94 7b bb eb 4b 14 3b dd f7 8e 3b
       -0.003660222 -0.0038388262 0.0022628258 0.0043630437
000280 6b 12 8f bb 2a 5a 6c 3b dc af 1a bb c5 5f 8f 3b
       -0.0043662093 0.0036064484 -0.0023603356 0.0043754303
000290 d7 2b 78 3b 23 f8 96 3b e2 27 19 3b d5 8a 25 3a
       0.0037867927 0.004607217 0.002336972 0.0006314938
0002a0 b0 68 80 3b c6 33 4f bb 72 c8 82 3b 8a 97 1b 3b
       0.0039187297 -0.0031616553 0.00399118 0.0023741447
0002b0 86 0f 61 3b 93 22 71 3b 65 9e 5d bb 8f f0 6b bb
       0.0034341528 0.003679429 -0.0033816334 -0.0036001538
0002c0 0f 47 de ba 97 bd 8d 3a 78 a7 d3 b9 a0 ef 83 3a
       -0.0016958433 0.0010813948 -0.0004036983 0.0010065921
0002d0 29 ca b5 3a 1a 61 37 3a 10 e7 83 3a a8 2c 19 3b
       0.0013869453 0.0006995365 0.0010063369 0.0023372564
0002e0 8d 55 81 3a de 9c 99 ba 4e 50 b1 3a 79 02 86 3a
       0.0009867415 -0.0011719724 0.0013527961 0.0010224126
0002f0 47 66 9c 3a 36 06 82 3a d3 31 b2 ba 20 a6 bb ba
       0.0011932336 0.0009920064 -0.0013595171 -0.0014316477
000300 b6 f6 37 3b 48 47 7b 3a f0 c9 be ba ad 04 bd ba
       0.0028070635 0.0009585512 -0.0014556032 -0.0014420949
000310 b3 2a 94 bb f0 0a 69 bb 26 3d 14 3b 74 65 67 3b
       -0.0045216917 -0.0035559498 0.0022619455 0.0035308274
000320 28 d4 1e bb c6 b5 6e ba 56 24 4d bb 2e df 2e 3a
       -0.0024235342 -0.0009106066 -0.0031302175 0.00066708296
000330 e2 3a 04 3a 1a 95 25 3a 38 db 22 ba 44 78 9d 3a
       0.00050441746 0.00063164684 -0.0006212476 0.0012013991
000340 16 d7 99 3b 64 5b 98 bb dc 4b e1 39 4e a2 b6 bb
       0.0046948297 -0.0046495665 0.00042971864 -0.0055735474
000350 52 0d a8 bb 69 f8 92 bb f5 35 79 3a 2e e1 41 3b
       -0.005128541 -0.004485179 0.00095066364 0.002958368
000360 d6 af 74 bb d0 ca 7b 3b 8e 18 a1 bb e6 7a 30 bb
       -0.0037336252 0.0038420446 -0.004916257 -0.0026928722
000370 bb 85 93 bb 3b 51 33 bb 9c a3 34 3b 37 ba 9c 3b
       -0.004502026 -0.002736165 0.002756334 0.0047829407
000380 c0 32 95 3a 90 03 29 ba 5c 4e a2 ba 6a e0 85 ba
       0.0011382923 -0.0006447369 -0.0012382972 -0.0010213975
000390 77 e9 fa ba fc a0 ae ba 57 90 94 3a e0 2c 5e 3b
       -0.0019143064 -0.0013323124 0.001133452 0.003390126
0003a0 05 38 fb b9 72 dd 9c 3a 78 df b3 ba b3 5c 07 3a
       -0.00047916188 0.0011967851 -0.0013723215 0.00051636546
0003b0 e1 f8 43 ba d4 25 03 39 36 e3 a4 b8 ea 5c 98 3a
       -0.00074757455 0.00012507226 -7.862451e-05 0.001162437
0003c0 87 14 16 ba 6f 02 41 3a db 3e 07 bb 06 24 b9 3a
       -0.0005725105 0.00073627284 -0.002063683 0.0014125116
0003d0 d6 8b 69 b8 0f 82 bb 39 3f 02 05 3b 59 b1 c0 39
       -5.568176e-05 0.0003576432 0.0020295528 0.00036753228
0003e0 3d e4 66 3a ae bf a0 b8 24 de 15 39 96 f5 ae 3a
       0.0008807814 -7.665098e-05 0.00014292501 0.0013348337
0003f0 17 2e 16 3a d8 53 b6 3a f1 b2 98 ba 9b 57 3c ba
       0.0005728914 0.0013910485 -0.0011650008 -0.0007184685

base_model.model.bert.encoder.layer.0.attention.self.value.lora_A.weight f4 [16, 384]
000000 8b 51 4d 3c be 8c 5b bc b5 12 18 3d 18 83 ab bc
       0.012531648 -0.013400255 0.037127215 -0.020936534
000010 ba 96 10 bd 82 cf 27 3d c5 1b 37 bd 20 4c 64 bc
       -0.035299994 0.04096938 -0.044704217 -0.013934165
000020 36 88 4b 3b 47 84 a1 3c fc 43 3a 3c eb f4 26 bd
       0.003105653 0.019716395 0.011368748 -0.040760916
000030 38 a7 1c bd 55 5b 47 bd e3 34 49 bc f8 ad 69 3d
       -0.03824541 -0.048671085 -0.012280676 0.057050675
000040 e7 91 11 bd 20 92 0c 3d 81 be e6 3c bd 32 6d bd
       -0.035539534 0.034319043 0.028167011 -0.057909716
000050 d0 f0 4b 3c 64 29 08 3d c3 81 25 3c 76 d0 6e 3c
       0.012447551 0.0332426 0.010101738 0.014576068
000060 bd 84 17 3d 93 35 68 3c 24 14 81 3b 36 4d 5c 3c
       0.036991823 0.014172929 0.0039391685 0.013446143
000070 5d 0b b6 bc c6 a5 db 3c 5d 05 b5 3a 79 79 2e 3d
       -0.022222215 0.026812445 0.0013810802 0.042596314
000080 f1 6a 1f 3d 8e 16 3c 3c 70 a9 a8 3c f1 25 65 bc
       0.038920347 0.011479987 0.020588607 -0.013986097
000090 e6 4d c5 3b 83 42 c3 3c 97 cb 0c 3d 43 b0 0a bd
       0.006021249 0.023835426 0.034373846 -0.033859503
0000a0 af 3e 20 bd d1 9e cc bc 66 2d 3b 3d 41 2a c3 bb
       -0.03912228 -0.024978073 0.045697592 -0.005955965
0000b0 fc d2 18 3c fe e5 9c 3c 79 b7 3e bd 48 b1 51 3c
       0.009327646 0.019152638 -0.046561692 0.012798615
0000c0 bb 79 d5 bb e8 c2 30 bc 2c 55 10 bd 1c 1c 20 3d
       -0.0065147555 -0.010788657 -0.035237476 0.039089307
0000d0 1f cb 3c bd 24 ea 44 3d 0b 38 00 3d 45 4e 1c bd
       -0.04609215 0.048074856 0.031303447 -0.03816058
0000e0 cc cc 14 3d ac 98 dd 3b ad 87 0f bd b4 eb 8b bc
       0.036328122 0.0067625847 -0.0350415 -0.017080165
0000f0 84 03 a8 bc ed 4b ca bc 54 db b4 3c 09 e6 10 3d
       -0.020509489 -0.024694407 0.02207724 0.03537563
000100 eb 5d f8 3c 3d 04 07 bd 40 01 31 bd 53 90 19 3d
       0.030318221 -0.032963026 -0.043214083 0.037491154
000110 71 dc 2d 3d 80 fb 3c 3d 19 d0 fd 3c 94 ed e0 3c
       0.042446557 0.046138287 0.030983018 0.027457036
000120 9c 2f 0d 3d 2b a3 85 3c 0d 74 2d bc c9 01 c1 bb
       0.034469232 0.016313156 -0.010586751 -0.0058901054
000130 34 2a ca 3a ad 9d 3a bc ec a8 04 bc eb b2 81 3c
       0.0015423954 -0.011390132 -0.008096915 0.015832385
000140 8d 07 2f 3d ce 4f 1a 3d ac 8c 2a bd b7 03 ca bc
       0.04273181 0.037673764 -0.04163806 -0.024659975
000150 7c 84 c1 3c ab 01 22 3d ff 75 10 3d 81 bc a1 bc
       0.023622744 0.039552372 0.03526878 -0.019743206
000160 84 39 61 3d dc 2c 06 bc c5 35 02 3d 01 48 98 3c
       0.05498649 -0.008189406 0.03178956 0.018589022
000170 60 89 e2 bc e9 27 ae 3c 34 3d 02 bd 7b db f1 3c
       -0.027653396 0.021259265 -0.03179665 0.029523602
000180 29 47 1b bd 52 7c 5a bd c9 ed 33 3d 78 a8 d2 3c
       -0.03790966 -0.053341217 0.04392794 0.025715098
000190 2a 8c c1 bc 79 92 13 3d dd e7 01 3d 47 1c 3b bc
       -0.023626406 0.03602836 0.031715263 -0.011420316
0001a0 8f e4 63 bd 08 c5 3a 3d 1f d9 78 bb 97 76 6f bc
       -0.055637892 0.04559806 -0.003797121 -0.014615676
0001b0 e4 9a f9 bc ab 91 2e bc de 99 28 3d 18 d5 1f 3d
       -0.030469365 -0.010654847 0.041162364 0.03902158
0001c0 af a8 11 bd a5 b8 1e bd 64 54 1a 3d 76 b3 e0 bb
       -0.03556126 -0.03875031 0.037678137 -0.006857331
0001d0 98 7e 95 bb b4 a1 33 bd 6c f7 b7 3b ee 7b 2f bd
       -0.0045622103 -0.043855384 0.005614212 -0.042842798
0001e0 96 80 dc ba 1e 7a 0b bd 30 a6 86 3c 6e 03 6f bd
       -0.001682299 -0.034052007 0.016436666 -0.05835288
0001f0 c8 59 03 3c 06 95 9f 3c 86 fd 2f bd 88 b8 65 3d
       0.008017011 0.01948024 -0.04296639 0.056084186
000200 8d b4 2d bd e7 a8 a7 bc 14 1f a9 bc 8f ca ce 3c
       -0.042408515 -0.020466281 -0.020644702 0.025243072
000210 b6 c9 ba bc 13 3f 91 bc 79 31 6f 3d bc 51 56 3d
       -0.022801261 -0.017730271 0.05839679 0.05232404
000220 2b 07 69 3d b3 8e 95 bc bc c2 ea bc b6 4a ac 3b
       0.0568916 -0.01825652 -0.02865731 0.0052579297
000230 01 90 23 bd 90 b5 5c 3d c3 89 6b bd fe a1 86 3b
       -0.039932255 0.05388409 -0.057504427 0.0041086664
000240 a4 d4 82 bc 25 c6 1a bd 6e 09 21 bd 59 f7 1f 3d
       -0.015970536 -0.03778662 -0.039315633 0.03905425
000250 5a b8 fb 3c 0c e0 ca 3b c9 bb ab bc 0d 4a cd 3c
       0.030727554 0.0061912593 -0.020963566 0.025059724
000260 3c ac 29 bd 80 b9 57 bb 91 33 e7 bc a1 00 8f 3c
       -0.04142402 -0.0032916963 -0.028222831 0.017456355
000270 fb 98 28 3d ba ad 9b 3c 2c c4 1c bd 90 41 d2 3c
       0.04116152 0.019003738 -0.03827302 0.025666028
000280 37 27 73 3c 02 c8 05 3d 88 2c fb ba 87 3e e9 bc
       0.0148408925 0.032661445 -0.0019163052 -0.028472198
000290 c6 88 38 bd bc c9 48 3d c7 78 1b bd 69 7d 49 3d
       -0.045052312 0.049020514 -0.03795698 0.049191866
0002a0 28 c0 2d bc b3 36 f2 3b 31 c2 e8 3c 93 3a 27 bd
       -0.010604896 0.0073917746 0.02841291 -0.040827345
0002b0 9d de 4a 3d 97 54 0f bc a7 27 13 bc ee 2c 37 3d
       0.049528707 -0.008748195 -0.008981622 0.044720583
0002c0 90 fb ac 3b b7 f2 3f bd 38 a9 f8 3c 56 db 91 3c
       0.005279012 -0.04686233 0.030354127 0.017804783
0002d0 91 55 32 bc 06 eb f1 3b ba 8d 88 bb 49 e2 e3 3c
       -0.010884658 0.0073827533 -0.0041672857 0.027817862
0002e0 fe 0f f3 bb 07 f3 0e bd da 80 30 3c 29 ed 26 bd
       -0.007417678 -0.034899738 0.010772908 -0.040753517
0002f0 20 95 40 bd b2 df 18 3d f3 11 b6 3c d1 a9 31 3d
       -0.047017217 0.037322707 0.022225356 0.04337484
000300 70 fc 87 3c 5d 7c d9 bc 59 cc 20 3d 9f e5 4e 3d
       0.016599864 -0.026548559 0.03925738 0.050511952
000310 ea 8a b6 3c b6 53 c6 bb 89 fb 54 3d 4e 8a 1d 3d
       0.022283036 -0.0060524596 0.051997695 0.038461976
000320 1c 04 93 3c a3 40 23 3d 5b c2 af 3b 11 21 93 bc
       0.017946295 0.039856564 0.005363745 -0.017960103
000330 d5 0c 16 bc 10 e9 a3 3a bd d3 ca bc 20 52 ad 3c
       -0.009158333 0.0012505371 -0.024759168 0.021157324
000340 99 57 25 3d df 4a 62 bd fa 48 24 3d cb 48 a2 bc
       0.040366743 -0.055247184 0.04010866 -0.019810101
000350 70 99 e8 bc 9c 73 58 ba 6e a0 b5 3c 6f ae 32 3d
       -0.028393477 -0.0008256973 0.022171225 0.043623384
000360 66 46 a0 3c 30 49 26 bc 5e 84 53 bd 15 83 cc 3c
       0.019564819 -0.010149285 -0.051639907 0.024964849
000370 f2 74 23 3d 9c 7c 2a bd ee bf 67 3d 5b 04 34 bd
       0.03990645 -0.041622743 0.056579523 -0.043949466
000380 cd 11 da bc e7 be 47 3d 47 5d c4 bc 8c 0a 98 3c
       -0.026619816 0.048766043 -0.02397026 0.018559717
000390 cd 98 70 bd 55 9a 50 bd 4b c2 38 3d df 71 17 3d
       -0.058739472 -0.050928432 0.045107167 0.03697383
0003a0 0e 5c 1b bd 18 ef fe 3c 6b fa 04 bd 76 d1 66 3c
       -0.037929587 0.031119868 -0.03246538 0.014088025
0003b0 61 90 0d 3d f8 14 c6 3c 9b 2e 3d bd c2 56 bd bc
       0.03456152 0.02417992 -0.046187025 -0.023112658
0003c0 4a 22 1e bd a8 d9 c4 bc c4 80 e3 3a b4 76 22 3d
       -0.03860692 -0.024029568 0.0017357101 0.039663985
0003d0 d1 26 e9 3c 60 33 b5 3c 8a 47 8a bc db a1 8d 3c
       0.028460892 0.022119224 -0.016879816 0.017289093
0003e0 20 30 b7 bb 7c 68 2e 3d 17 24 76 bc ea 37 34 3c
       -0.0055904537 0.042580113 -0.015023253 0.010999659
0003f0 c9 be 64 3a d2 94 61 bc 5a 79 c3 3c b6 ec 19 bd
       0.0008725939 -0.013768392 0.023861576 -0.03757926

base_model.model.bert.encoder.layer.0.attention.self.value.lora_B.weight f4 [384, 16]
000000 e9 c5 a4 3a 8e 82 39 3a d2 5f 8f b9 3e 01 f5 3a
       0.0012571189 0.0007076644 -0.00027346477 0.0018692387
000010 b5 1c 4e ba bf b2 5e 3a 28 2f d3 ba 97 fc bc 39
       -0.0007862554 0.0008495263 -0.0016112076 0.00036046348
000020 b2 29 51 3a e9 38 28 3b 27 2b d4 b9 3d 77 3e 38
       0.00079789304 0.0025668687 -0.00040467942 4.541058e-05
000030 f9 66 e4 ba 71 54 2b bb ef 7b 23 ba 26 cb 11 3b
       -0.0017425708 -0.002614286 -0.0006236424 0.002224633
000040 9f 0e f8 3a 94 80 37 bb f2 7b 7d ba c2 6f d9 3a
       0.0018925256 -0.0028000223 -0.00096696534 0.0016589093
000050 ba 1c 49 bb f4 0d 7c 3a 9d 35 ef ba 86 61 47 bb
       -0.0030687288 0.0009615116 -0.0018250231 -0.0030423119
000060 64 6e 82 3b 97 25 93 ba a6 74 7d bb 0c b8 d9 3a
       0.0039804447 -0.0011226413 -0.0038674264 0.0016610636
000070 4d fd 58 3b 96 6e c2 3a 88 e1 2c bb 27 52 07 bb
       0.0033109963 0.0014833983 -0.0026379544 -0.0020648332
000080 ef c9 7d 39 73 99 cc bb da c8 b0 ba 3e 71 f3 b8
       0.00024203186 -0.0062438785 -0.0013487593 -0.00011608236
000090 83 fc 2e ba c2 69 d6 38 47 45 b5 b9 e0 d9 d6 bb
       -0.00066752004 0.00010224014 -0.00034574626 -0.0065567344
0000a0 27 c9 da 3a 78 72 4b bb 57 12 1b bb 23 83 ea 3a
       0.0016692028 -0.003104357 -0.0023662054 0.0017891865
0000b0 29 7c df 3b 96 de 5d 3b fc d6 de ba 45 dc 93 bb
       0.006820221 0.0033854595 -0.0017001326 -0.004512342
0000c0 f2 cd 85 37 c0 f9 83 bb 43 10 92 b9 69 3e 43 ba
       1.5950736e-05 -0.0040275753 -0.00027859406 -0.00074479595
0000d0 5c 3a 91 b9 42 52 44 ba 1b 73 88 39 a3 4e 67 bb
       -0.00027700036 -0.0007489064 0.00026025702 -0.0035294674
0000e0 96 bf 25 3a 8a ed 1d bb e4 cf f3 ba 1d 2f aa 35
       0.0006322799 -0.0024097883 -0.0018601385 1.2679699e-06
0000f0 af 95 86 3b 98 76 2f 3b 7b b8 1f ba a0 57 45 bb
       0.004107199 0.0026773568 -0.00060928584 -0.0030112043
000100 e6 be ac bb f3 89 b2 3a f3 a2 96 3b 4f e9 af bb
       -0.0052717803 0.0013621434 0.004597062 -0.0053683887
000110 4d d8 53 3b c6 62 d6 bb 49 ae cc 3b fd 9e 60 3a
       0.003232497 -0.0065425364 0.0062463623 0.0008568613
000120 9f de 52 bb b9 f7 11 ba ad f1 01 3b 80 86 83 bb
       -0.003217615 -0.00055682246 0.0019827888 -0.0040138364
000130 e9 c2 f2 ba ff 1d 8f 3a ad 52 69 3b 69 cc 13 3a
       -0.0018521223 0.0010918974 0.0035602257 0.00056380645
000140 8e 2f ec ba 4d 83 25 3a 99 94 0b 3b 94 a8 60 bb
       -0.0018019543 0.0006313816 0.0021298288 -0.0034280168
000150 ab f4 d6 3a b4 50 47 bb b5 5a 24 3b cc 2e 32 b9
       0.0016399821 -0.0030413093 0.002507848 -0.00016992836
000160 a1 a3 cd ba 41 8d 81 bb c6 e7 60 3a cd 82 03 bb
       -0.0015689024 -0.0039536064 0.0008579459 -0.0020066977
000170 05 da 01 37 fe 78 9d 3b 2c d7 ea 3a 09 83 53 ba
       7.739761e-06 0.004805683 0.001791691 -0.0008068537
000180 0a 9d 83 ba 86 3b dc 3a 52 8a f7 b9 06 fb c3 ba
       -0.0010041308 0.0016802407 -0.00047214568 -0.001495213
000190 34 0f d4 39 c1 e4 e7 b9 2b 1a aa 3a 35 86 0a 3b
       0.00040447118 -0.00044230188 0.0012977769 0.0021137123
0001a0 13 5d 82 b9 53 d6 9a 3a 8f 9e 13 3b 9b 58 1b ba
       -0.00024864878 0.0011813141 0.0022524928 -0.0005925984
0001b0 f9 1b fd ba 94 cc b4 ba 97 6c 9b 39 82 fb cd 3a
       -0.0019310705 -0.0013793879 0.0002964481 0.0015715214
0001c0 ef a0 25 bb eb 93 81 3b 9c a0 47 3b f0 3c 40 bb
       -0.0025272926 0.003954401 0.003046072 -0.0029333197
0001d0 6b 8f 3d 3b 11 45 54 bb 66 7c 31 3b b6 27 5e 3b
       0.0028924595 -0.00323898 0.0027082204 0.0033898181
0001e0 b4 4d 49 bb 55 85 8e ba 2f 49 43 3b fb 10 76 bb
       -0.003071648 -0.0010873476 0.002979826 -0.0037546742
0001f0 5f 79 2b bb d5 f9 9c 3a e6 b8 42 3b 74 6d ce 3a
       -0.0026164872 0.0011976311 0.002971226 0.0015749172
000200 62 f4 8a 3b 4a 14 1c bb cd 6b 7f bb f7 16 9c 3b
       0.0042405585 -0.0023815804 -0.0038974166 0.00476348
000210 79 14 84 bb 1b 74 a1 3b 91 c3 96 bb 04 1a ea ba
       -0.004030761 0.004927171 -0.00460095 -0.0017860536
000220 49 3f 84 3b b5 59 e5 3a 05 e1 4a bb 1e 96 50 3b
       0.0040358645 0.0017498048 -0.0030956876 0.0031827758
000230 a0 53 ff 3a ef f5 1a bb fd 64 85 bb 21 6b 7c ba
       0.0019479878 -0.0023645123 -0.0040708766 -0.00096290006
000240 a5 34 e9 3a 90 8d a2 3a d2 76 bb 39 c3 de 49 3b
       0.0017792179 0.0012401808 0.00035755947 0.0030802942
000250 ae 22 ab ba 4b 5c 90 3a d6 91 2b bb fb 89 7f 3a
       -0.00130566 0.0011013834 -0.0026179454 0.0009748039
000260 bd 70 38 3a e3 b6 fa 3a 6d fb 57 39 36 64 4b ba
       0.0007035842 0.0019127991 0.00020597661 -0.0007758768
000270 87 6c a3 b9 8b 61 dd ba 9b 9d ad ba 9c 7c bd 3a
       -0.00031170642 -0.0016890032 -0.0013245823 0.0014456692
000280 ae 69 60 3b 90 f2 ca 38 87 f0 95 bb 16 41 4a 3b
       0.0034242678 9.6772914e-05 -0.0045757922 0.0030861548
000290 4d 3e 7e bb 24 1a 74 3b ee 77 54 bb b4 c5 82 3a
       -0.0038794458 0.0037247026 -0.0032420116 0.0009977133
0002a0 a5 e1 80 3b cd 78 22 3b ea f5 d3 ba 7d ea 97 3b
       0.003933149 0.002479124 -0.001617131 0.0046361075
0002b0 cd 67 8e ba 27 a5 3d bb f0 44 82 bb a5 08 d0 3a
       -0.0010864675 -0.002893755 -0.003975503 0.0015871717
0002c0 ec ce 03 3a 5a ab bc 3a 35 d4 0e ba bc 99 cc 3a
       0.0005028087 0.0014394328 -0.00054484914 0.0015609781
0002d0 3b 1d 6e 39 fb 36 2e 3b 8d e8 03 bb cb 73 00 3b
       0.00022708338 0.0026583064 -0.0020127625 0.0019600268
0002e0 c9 77 5d ba 5e d5 2c 3b 22 5a ac 3a 19 17 28 39
       -0.00084483303 0.0026372294 0.001314942 0.00016030333
0002f0 47 fd 0a bb b7 bc 40 bb af cc b0 39 76 92 00 3b
       -0.0021208094 -0.0029409358 0.00033721837 0.0019618548
000300 6d fb 6d 3b a9 f0 38 bb c0 0c 73 bb 36 e0 76 3b
       0.0036313192 -0.0028219617 -0.0037086457 0.0037670261
000310 b3 0f 59 bb bc 03 ee 3a 01 35 99 bb bf 2b 3a bb
       -0.003312093 0.0018159072 -0.004675508 -0.0028407422
000320 c0 25 6d 3b 96 12 c4 ba 5e 98 50 bb 56 71 5c 3b
       0.003618583 -0.0014959152 -0.00318291 0.003363689
000330 6d 62 66 3b 77 61 fe 3a e0 b0 7b bb e0 49 23 bb
       0.0035153881 0.0019407709 -0.0038404986 -0.002491586
000340 d8 aa 19 3b 85 b1 4e bb 09 8a 28 bb 61 71 21 3b
       0.0023447778 -0.0031538915 -0.002571704 0.002463423
000350 ff 1c 11 bb 0e 25 ef 3a d5 82 23 bb 96 fb 99 bb
       -0.0022142527 0.0018245296 -0.0024949808 -0.004699181
000360 97 26 43 3b 1d 66 86 b9 11 fa 4e bb b2 f0 1f 3b
       0.002977764 -0.00025634552 -0.0031582157 0.002440494
000370 14 a8 91 3b 95 7d ec 39 78 2a 3b bb 4f 38 22 bb
       0.0044450853 0.00045106994 -0.002855925 -0.00247528
000380 cc 08 4f bb 77 1c a9 3b 7d 37 a4 3b d3 9d 24 bb
       -0.0031590937 0.005160864 0.0050114975 -0.0025118485
000390 cf ec 72 3b e8 1e 52 bb 2f 60 4d 3b 48 2b 9b 3b
       0.0037067418 -0.0032061879 0.0031337847 0.004735384
0003a0 99 4c 64 bb 06 69 9d 3a f3 e6 a9 3b bb 57 ba bb
       -0.0034835695 0.0012009449 0.005185002 -0.005686728
0003b0 21 25 c0 bb a4 91 6a ba c7 2a 9d 3b 76 13 88 3b
       -0.005863801 -0.0008948094 0.004796359 0.0041527105
0003c0 be b9 12 3a 3c 95 8f b7 e6 95 b4 ba 13 c3 80 39
       0.0005597136 -1.7116421e-05 -0.0013777583 0.00024559404
0003d0 08 fe 32 ba 9d c0 45 3a 02 dd 03 ba a5 5a 30 3a
       -0.0006828015 0.0007543655 -0.0005030186 0.0006727374
0003e0 7c bf 1b 3a 7a 7c 71 3a a7 58 8c ba de 6c b2 3a
       0.0005941314 0.0009211969 -0.0010707573 0.0013612767
0003f0 92 02 b9 b9 7e c4 96 ba 7b 0e 4c ba 6f 3f 25 3a
       -0.00035287865 -0.0011502651 -0.000778414 0.0006303703

base_model.model.bert.encoder.layer.1.attention.self.query.lora_A.weight f4 [16, 384]
000000 57 32 50 bd e9 26 a2 bc 48 c7 40 3d 15 de d7 3c
       -0.050829258 -0.019793944 0.04706505 0.026351014
000010 b4 8c 20 bc f7 e3 5a bd e4 d8 3f bd bc 16 88 3b
       -0.009799171 -0.05344006 -0.046837702 0.004153101
000020 39 de 18 bd f4 37 7e 3c e5 20 2a 3d a8 c6 af bb
       -0.037321303 0.01551627 0.041535277 -0.005364258
000030 c3 6d 12 bc 8b 18 39 3d b1 4e 33 bd 1e fb f2 3c
       -0.008937302 0.04518942 -0.043776218 0.029660758
000040 48 c5 41 bc 23 79 5b 3c 84 4d 42 bd 65 d1 fb bc
       -0.011826821 0.01339558 -0.047437206 -0.030739496
000050 aa e8 8d bc 71 8e ae 3c 80 37 53 3d 26 d0 17 bd
       -0.017322857 0.021308156 0.0515666 -0.03706374
000060 3b 22 89 3a 15 6a 0d 3d 21 16 5f bc 1e 09 4f 3d
       0.0010462472 0.034524996 -0.013616116 0.050545804
000070 74 c5 1b bd db 1f 2c 3b c3 92 be bc b0 3e b2 3a
       -0.038030103 0.0026264105 -0.02326334 0.0013599005
000080 d6 98 c6 3c 2c d3 3d 3d 9a 19 20 3d f8 60 d6 3c
       0.0242428 0.046343967 0.039086916 0.026169285
000090 87 86 77 bc a3 1d c2 bc 49 f6 22 3d 76 53 3f bd
       -0.015107757 -0.023695773 0.039785657 -0.046710454
0000a0 e0 dd 38 bd c3 2c 86 3c 36 e8 f6 3b ea 6d 25 3d
       -0.04513347 0.016378766 0.007535006 0.040388025
0000b0 b0 3b 59 bd e9 7c 9b 3c 59 be bc 3b b6 2d 56 bd
       -0.053035438 0.01898046 0.005759996 -0.052289687
0000c0 18 e2 36 bd ce 32 aa bc d4 43 f6 3c 73 79 e3 3c
       -0.044649214 -0.020776179 0.03006164 0.027767872
0000d0 29 a4 d1 3c 1b aa 0d 3d 09 8d 4d 3c fb 9f 54 bc
       0.025590973 0.034586053 0.012545832 -0.012977595
0000e0 1d 34 4b bd 8a 1c c2 bc 5c 97 34 bd a4 e6 25 bd
       -0.049610246 -0.02369525 -0.04408966 -0.04050316
0000f0 bb df 8e bb 55 07 6b bc 55 3c 9a 3b fc 1f f9 ba
       -0.004360167 -0.01434501 0.004706899 -0.0019006724
000100 0a 06 2b bd ce e4 ec bc bd 9d 64 3c b3 94 02 3d
       -0.041753806 -0.028917696 0.013953623 0.031880092
000110 74 14 65 3a b6 03 e3 3c e2 4d dd bc 27 09 21 bd
       0.00087387045 0.02771173 -0.027014676 -0.03931537
000120 73 14 2c bd cb d3 53 3b e3 39 49 bd c3 6e 3a 3d
       -0.04201169 0.0032322283 -0.04912747 0.045515787
000130 99 7a db 3b 01 e4 0d bd 6a 23 00 bd 3f e2 18 bd
       0.0066979644 -0.03464127 -0.031283773 -0.03732514
000140 91 eb 53 bc 06 20 a3 3c 85 9f 26 3d aa d2 1a bd
       -0.012934581 0.01991273 0.040679473 -0.03779856
000150 dd e9 0b 3d 0f dd 8d bc c1 b2 0a 3d 1e 74 e1 bb
       0.034158576 -0.017317323 0.03386188 -0.0068802973
000160 a3 0d 65 bb de d3 9d 3c ec 0f 9d 3c 58 8d 23 bd
       -0.0034950755 0.019266065 0.019172631 -0.039929718
000170 3c 84 cb bb 7f 75 fe 3c 35 73 8f 3c 42 a7 26 3d
       -0.006210832 0.031061886 0.01751099 0.040686853
000180 df b4 a3 bc 06 98 04 3d f3 63 03 3d ad 5a c9 bc
       -0.019983707 0.032371543 0.03207774 -0.02457937
000190 bf 0b 20 bd 9c 94 2d 3d 0a d4 6d 3c 2e 2f 72 3b
       -0.039073702 0.042378053 0.014515886 0.003695439
0001a0 e0 0b 40 3c f8 68 29 bd 90 8b 00 bd 13 a8 35 3d
       0.011721581 -0.04135987 -0.031383097 0.04434974
0001b0 7e fa 54 3b 7b 03 a7 3c 76 a8 e1 bc 4b 3c 35 3c
       0.0032497938 0.020387402 -0.027546149 0.011061738
0001c0 85 23 22 3d 89 8b 33 3d f1 07 0d bd fc aa 29 bc
       0.039584655 0.043834243 -0.0344314 -0.010355707
0001d0 77 d0 3b 3d a9 4e df bb e2 fb 02 3d d4 81 51 bd
       0.045853104 -0.006814797 0.031978495 -0.051149204
0001e0 1c 9d 1d bc bb 61 2e bd 2d a7 2f bd 64 33 dd bc
       -0.009619977 -0.04257367 -0.04288404 -0.027002044
0001f0 47 68 b2 3c cb f0 02 3d 61 a0 0b bd 67 02 14 3d
       0.021778239 0.03196792 -0.034088496 0.036135104
000200 28 6d 00 3d 99 91 ad 3b 05 5b 21 bd ab cf bd 3c
       0.0313541 0.0052968976 -0.039393444 0.023170313
000210 07 e0 18 3d 18 e9 a9 bc f4 60 4f 3d bb 54 4d 3c
       0.037323024 -0.02074103 0.05062957 0.012532408
000220 d0 e2 56 3c 16 1a 69 bb d9 4a 95 3c 74 76 c1 bc
       0.0131156 -0.0035568527 0.018224167 -0.023616053
000230 9e b8 93 bc da 5c 45 3d d1 53 41 3d cb 91 0c bd
       -0.018032368 0.048184253 0.047199074 -0.034318727
000240 65 6a 36 3d 65 87 6a 3c 58 b3 be bc c1 e0 55 3d
       0.04453506 0.014314507 -0.023278877 0.052216295
000250 2c 43 46 bd a5 09 af bc 7c 22 e6 bc 0f cd 88 bb
       -0.048403904 -0.021366904 -0.028092615 -0.0041748355
000260 b7 3b 4d bd ad 63 56 bc 2f 34 51 bd 68 8f d7 3c
       -0.050105777 -0.013085288 -0.051075157 0.026313499
000270 51 1c d3 3c d4 3b 42 3d 00 7f 5b 3c cf 5a d1 bc
       0.025770338 0.047420338 0.013396978 -0.025555996
000280 b8 60 02 3d 7f a5 91 bb 5f 2d 4c bd 76 71 03 3d
       0.03183052 -0.0044447775 -0.049847957 0.032090627
000290 51 98 81 3c 5a ae 37 bb e5 18 8d 3b 25 02 9c 3c
       0.0158197 -0.0028027506 0.004305946 0.019043991
0002a0 42 e3 94 bc 85 9d 02 bd b5 4e 09 bc fd 27 21 3d
       -0.018174771 -0.031888504 -0.008380582 0.039344776
0002b0 73 32 aa 3a 1b 50 4e 3d 02 d4 18 bd 27 5b 2a 3a
       0.0012985006 0.050369363 -0.03731156 0.0006498568
0002c0 62 02 e9 3b a7 fa ef 3c 9e 5e b3 bb 79 e8 f0 bc
       0.0071108798 0.029294325 -0.0054739257 -0.029407727
0002d0 5b 2d a7 3b 6f da d7 bb 80 73 00 bd 17 e3 ed 3c
       0.0051018423 -0.0065873186 -0.03136015 0.029038949
0002e0 0c 59 35 3d 02 e9 24 3d bc 34 25 bd df 43 11 3c
       0.044274375 0.040261276 -0.040333495 0.008866279
0002f0 59 83 1d 3d d4 5e ed 3c 25 bb f8 bc 86 98 37 bd
       0.03845534 0.028975882 -0.030362675 -0.044823192
000300 ea f4 59 3c e2 de e0 bc bf 43 f7 3c 7f c3 1c bd
       0.013303021 -0.027450029 0.030183671 -0.038272377
000310 71 5b 3e bb dc cf 2e bd 69 31 2a 3d 25 8e 18 3d
       -0.0029046203 -0.0426787 0.041551027 0.037244935
000320 db ba 09 3d 1e 59 c8 3b cd c8 eb 3b 58 46 b8 bc
       0.033625465 0.006114139 0.007195568 -0.02249448
000330 f9 cf 7a 3b e1 0e b0 3c 13 31 59 3c a0 05 f1 bc
       0.0038270934 0.02149147 0.013256329 -0.029421628
000340 67 46 2c bd f7 b5 a1 3c 2e 2f f4 3c 9f 23 42 bd
       -0.04205933 0.019740088 0.029807653 -0.047397252
000350 77 fc 08 3c aa d1 cf 3c 49 a9 a3 bc a5 1c 0f bd
       0.008360974 0.02536853 -0.019978182 -0.034939427
000360 aa f9 0b bb 62 53 4d bd e0 15 51 bd b8 27 c1 3c
       -0.0021358528 -0.05012835 -0.051046252 0.02357851
000370 dd 5f dd bc 08 fb 2e 3d 7d 8e 00 3d ca a5 e5 bc
       -0.02702325 0.04271987 0.031385887 -0.028033156
000380 ac 34 12 bd ee 73 82 bc 1f 8d 56 bc c4 ec 57 bc
       -0.035694763 -0.01592442 -0.013095169 -0.013179008
000390 73 bf 50 bc 4f 1c 0d 3d d9 a3 2e 3d 35 d2 e5 bc
       -0.012740958 0.034450825 0.042636726 -0.028054336
0003a0 b8 e1 fc bb af 9e 80 3c d6 5b e0 3c 3e f6 a2 bc
       -0.0077173375 0.015700666 0.02738754 -0.019892808
0003b0 16 67 10 3d b7 bd c0 bc fa 00 91 3c 90 11 18 bd
       0.03525456 -0.023527963 0.017700661 -0.037126124
0003c0 6a 0a 7b 3c 4b 89 2d bd e2 59 d7 3c 62 4a 4b 38
       0.015322307 -0.04236726 0.026287977 4.8468246e-05
0003d0 8a f3 ad bb 38 87 30 3d 8a 8c ca bc 1a dc 15 bd
       -0.005308573 0.043097705 -0.024725217 -0.03658686
0003e0 11 51 c2 bc d5 c2 0c 3d 5a 24 25 3d dd 3b 45 bd
       -0.023720296 0.034365494 0.04031787 -0.048152793
0003f0 b8 12 07 bd e2 64 2c bd f6 97 35 bd 07 d9 8e 3c
       -0.032976836 -0.042088397 -0.044334374 0.017437471

base_model.model.bert.encoder.layer.1.attention.self.query.lora_B.weight f4 [384, 16]
000000 97 0c 1c bb dc f5 81 3a de 8d 6b ba ca 77 45 3b
       -0.0023811215 0.0009915191 -0.00089856784 0.0030131214
000010 90 6e 83 3b 37 3f be ba ac 85 96 3b e8 a0 08 39
       0.004010983 -0.0014514689 0.0045935716 0.00013029913
000020 1c 59 55 bb 69 a9 4c 3b 7e be 0b 3b be 47 86 bb
       -0.0032554334 0.0031228906 0.002132326 -0.004097908
000030 7c e0 a6 39 09 6c 34 3b 10 96 58 3b fe 2e 2b ba
       0.0003182924 0.0027530214 0.0033048429 -0.00065301347
000040 07 84 e2 ba 83 90 bc 3a 04 53 26 ba f8 37 e5 b6
       -0.0017281779 0.001438633 -0.0006344768 -6.8312474e-06
000050 46 17 93 3a 56 75 50 ba 74 58 8b 3a bb 31 9c ba
       0.0011222146 -0.0007952055 0.001063122 -0.0011916676
000060 be b2 a6 ba 16 6e 67 3a 3a 67 8b 3a 8c 0f 86 ba
       -0.0012718064 0.0008828355 0.0010635622 -0.0010228022
000070 2d a5 99 3a d9 8e ce 3a 4c 2b 92 3a 6f 3a dd 39
       0.00117222 0.0015759125 0.001115182 0.0004219594
000080 7b 89 14 3b f9 fb 31 39 3e 5c aa 3a 96 ff ab b8
       0.0022664953 0.00016973903 0.0012997461 -8.201522e-05
000090 9e ea 3b ba 7f fc ca 3a 55 48 96 3a aa a9 5a b9
       -0.00071684446 0.0015486627 0.0011465648 -0.00020853305
0000a0 20 70 ab 3a d6 2d 98 b9 42 f4 22 ba 34 18 92 3a
       0.001307968 -0.0002902585 -0.0006216207 0.0011146129
0000b0 60 23 5e bb 76 3f 09 bb 0c 1f 87 ba 6b 90 46 bb
       -0.0033895597 -0.0020942367 -0.0010308935 -0.0030298482
0000c0 e5 10 e8 ba a8 c2 4a ba a4 8d 6c ba 7c 5e 6a ba
       -0.001770523 -0.00077346945 -0.00090237916 -0.0008940471
0000d0 59 ae c6 39 27 fb 00 bb c7 7d 4c 3b 4c a9 bd 3a
       0.00037895402 -0.0019680948 0.0031202899 0.001447001
0000e0 fa b1 be ba 44 ee 39 ba 34 40 91 ba 2b 21 1c 3a
       -0.0014548891 -0.0007092694 -0.0011081756 0.000595587
0000f0 1b 5c 11 3a 8f b0 e2 3a 27 eb 78 3b 20 3b 04 38
       0.0005545036 0.001729505 0.0037981959 3.1526317e-05
000100 a7 20 8c 38 6c f6 2a 3a c5 79 a6 3a 4f e7 dd 3a
       6.681802e-05 0.0006521705 0.0012701085 0.0016929897
000110 68 31 ee 3a e1 5f 02 bb 1d 20 58 3b e5 77 39 ba
       0.0018172683 -0.0019893574 0.0032978125 -0.00070750556
000120 29 21 0f bb e4 0e ae 3a fd ad 1f 3a 9b b9 e7 ba
       -0.0021839833 0.0013279584 0.0006091295 -0.0017679216
000130 78 82 93 ba 88 3a 15 3a 7d 42 55 3b 70 07 10 bb
       -0.0011254093 0.0005692621 0.003254085 -0.002197709
000140 2a ae f3 ba fa 30 6c ba ee 80 82 ba f2 c1 3f ba
       -0.0018591334 -0.00090099836 -0.0009956637 -0.0007314972
000150 08 79 2f 3a 96 25 25 bb f7 5c 63 3b 26 27 d6 3a
       0.0006693755 -0.0025199405 0.0034692863 0.0016338571
000160 55 9d 0f bb 9d cf 23 ba 91 ab 8f ba 0f 9b b1 38
       -0.0021913846 -0.00062488933 -0.0010961165 8.4688996e-05
000170 5f de 24 3a 0e 87 fb 3a 46 6f 99 3b 1f e2 ea b8
       0.00062892394 0.001919003 0.0046824543 -0.00011200108
000180 29 b6 10 bb 35 b3 b4 ba f5 0a 0f ba ef 3c f2 ba
       -0.0022081232 -0.0013786318 -0.000545665 -0.0018481294
000190 fc 49 a7 38 5e 66 28 bb fd b6 4b 3b 71 f7 08 3b
       7.976961e-05 -0.0025695781 0.0031084411 0.002089944
0001a0 dd 8e 4d ba 62 47 be ba 39 02 ec ba bb d5 9a 3a
       -0.00078414177 -0.0014517123 -0.0018006033 0.0011812964
0001b0 dc 5e de 3a cd 0b 14 3b f9 d4 6b 3b 83 80 3a 3a
       0.0016965526 0.0022590042 0.0035985096 0.00071144867
0001c0 0d 56 0d bb e5 e3 5d b8 6f 14 90 ba 91 b4 01 ba
       -0.0021566183 -5.290275e-05 -0.0010992418 -0.0004947866
0001d0 bb 49 94 3a 21 8b ab ba dd 0e 3b 3b aa 82 1a 3a
       0.0011313477 -0.0013087728 0.0028542795 0.0005894104
0001e0 7e 02 36 bb 06 fe 0a 39 88 81 4d b9 34 a6 21 b9
       -0.0027772482 0.00013255337 -0.00019598578 -0.00015416072
0001f0 77 4f 9e 39 f1 5e 0e 3b 5f 48 35 3b 50 05 33 39
       0.00030195314 0.002172407 0.0027661545 0.0001707275
000200 58 bb 83 3a 2c d2 2a ba 80 12 14 3b f4 18 37 b9
       0.001005034 -0.00065163034 0.0022594035 -0.00017461536
000210 c1 05 6f b9 f1 d8 d2 ba 38 ec 30 3b 42 44 77 3a
       -0.0002279496 -0.0016086382 0.0026996266 0.00094324735
000220 9e 9b 87 39 81 ba 4a ba 47 25 84 ba 6f a4 db 39
       0.0002586515 -0.000773348 -0.001008191 0.00041893448
000230 de 5c bc 39 8f 19 8b ba a8 1f c0 3a 84 1a 15 ba
       0.00035927346 -0.0010612475 0.0014657872 -0.000568785
000240 0e 3d da 3a ad 1d cc 3a 2f c3 13 3b f7 4a 11 3b
       0.0016650276 0.0015572809 0.0022546758 0.0022169927
000250 68 d8 8b 3a 20 12 4e 3b 8c 79 8f 3a ef b6 1d bb
       0.0010669352 0.0031443909 0.0010946258 -0.0024065336
000260 93 f1 77 39 2d 65 d9 3a 4b f7 bb 3a a7 52 9b ba
       0.00023645749 0.0016585939 0.0014340667 -0.0011850194
000270 e6 fe 97 bb 60 4d 9e ba fa f7 fc b9 36 30 7d bb
       -0.0046385406 -0.0012077503 -0.00048249942 -0.0038633472
000280 eb 01 84 3a bc 12 f2 3a dc 9d d0 38 d5 6b c7 3a
       0.0010071372 0.0018468718 9.9476165e-05 0.0015214632
000290 39 88 96 3a 7f f3 53 3b e1 c9 01 bb 26 ed 1d bb
       0.0011484689 0.003234118 -0.0019804167 -0.002409765
0002a0 47 c1 8d b9 31 01 cb 3a 1c 5d eb 3a 30 e5 c2 ba
       -0.0002703762 0.0015488026 0.0017956826 -0.0014869329
0002b0 54 94 b9 ba 31 d2 79 3a 62 e6 87 ba 58 7c 5e ba
       -0.0014158585 0.0009529917 -0.0010368342 -0.00084871566
0002c0 8a c4 ec 3a c2 f7 55 ba a8 28 05 3a e0 7a 5b ba
       0.0018063944 -0.0008162224 0.00050796056 -0.0008372497
0002d0 c2 ed d1 ba 63 d2 cd 3a 29 0e 26 bb a3 85 30 ba
       -0.0016016292 0.0015702959 -0.002533803 -0.00067337806
0002e0 0b 57 dd 3a 2e f3 87 ba 66 36 84 ba dd 20 90 3a
       0.0016886903 -0.0010372156 -0.0010087013 0.0010996122
0002f0 79 4e a1 ba 88 f3 e6 ba 94 e3 fa ba 94 b4 33 b9
       -0.0012306712 -0.0017620185 -0.001914131 -0.00017138041
000300 0e 51 36 bb e8 12 23 ba 31 dd 64 bb 85 f8 b5 ba
       -0.0027819308 -0.0006220774 -0.003492188 -0.0013883269
000310 fd 4e 77 ba 3f db bf ba 34 cd 66 bb 16 12 3d 3a
       -0.00094340724 -0.0014637484 -0.0035217525 0.0007212473
000320 16 31 8c ba 9f e0 38 ba 9a 2d 86 b9 0b e7 bf 38
       -0.0010695781 -0.0007052514 -0.00025592447 9.150625e-05
000330 e4 ad e3 3a bc be 17 3b 66 3c a5 ba 32 fe e6 3a
       0.0017370549 0.0023154458 -0.0012606501 0.0017623364
000340 c6 31 07 3b 5a 7e 4e bb e9 a2 0f b8 e1 82 f2 ba
       0.0020629033 -0.0031508417 -3.424558e-05 -0.001850214
000350 49 bf 28 bb 10 78 6b 3a 06 cd 42 bb b9 e9 2a 3b
       -0.002574878 0.0008982429 -0.0029724254 0.002607925
000360 03 5b fb 3a f2 1f 0f bb a4 5c 1b bb 57 5f 0e 3b
       0.0019176904 -0.002183911 -0.002370634 0.0021724307
000370 83 48 db 39 c1 fa 02 bb f2 d6 00 bb e9 d6 17 3b
       0.0004182496 -0.0019985887 -0.0019659367 0.0023168868
000380 46 a7 aa ba 35 db c8 ba 80 3b 0b 39 56 53 b0 ba
       -0.0013019822 -0.0015324118 0.00013278238 -0.001345257
000390 7a d8 48 ba be 8c 5f bb 6d 3e 01 3b 3c f5 f7 3a
       -0.0007661652 -0.0034110988 0.0019721047 0.001891769
0003a0 98 03 cb 37 04 ce c2 ba 23 12 02 bb ea ea b6 3a
       2.420116e-05 -0.0014862423 -0.0019847236 0.0013955508
0003b0 18 52 cb 3a ed 33 31 3a c0 4b 94 3a 12 6d 9e ba
       0.0015512137 0.00067597517 0.0011314079 -0.0012086949
0003c0 39 e7 03 bb 86 a8 12 b9 a8 d8 cd ba 75 e7 6d ba
       -0.0020126833 -0.00013986425 -0.0015704827 -0.00090753223
0003d0 f9 94 cc b9 54 df a5 b9 fd 69 50 bb 01 58 82 3a
       -0.00039020905 -0.00031637645 -0.0031801455 0.000994444
0003e0 16 54 e8 b9 12 5a 57 b9 2c cf 84 39 9e b2 cb b7
       -0.00044313137 -0.00020537552 0.00025331357 -2.428266e-05
0003f0 ea 88 4f 3b 55 22 a8 3a ca 85 b7 b9 7b 43 54 3b
       0.00316673 0.0012827615 -0.0003500416 0.0032388854
