lora_crossencoder_has_instruction_r_16 la_16 ld_0.2/checkpoint-3096/adapter_model.safetensors (safetensors, 594924 bytes, 25 tensors)

base_model.model.bert.encoder.layer.0.attention.self.query.lora_A.weight f4 [16, 384]
0	0x3c83d015	0.016090432
1	0xbd25ddeb	-0.04049484
2	0xbb4cb9c6	-0.003123866
3	0x3c81c674	0.0158417
4	0x3c94a114	0.018143214
5	0x3d4b1928	0.049584538
6	0x3d29e90f	0.041482028
7	0xbb64a2da	-0.0034887106
8	0x3cdc2198	0.026871487
9	0xbc6c7060	-0.014431089
10	0x3c7f0b6b	0.015566687
11	0xbccfd9cd	-0.02537241
12	0x3cac7ee0	0.021056592
13	0xbc823ecf	-0.01589909
14	0x3c0044b1	0.007828877
15	0x3d098732	0.033576198
16	0xbd450588	-0.048100978
17	0x3d1d0d8d	0.038343
18	0xbbbd0d0c	-0.0057693776
19	0x3d2a49c2	0.041574247
20	0x3d2b50fb	0.041825276
21	0x3c6276dc	0.013822284
22	0xbd28d743	-0.041220915
23	0x3d13af82	0.03605605
24	0xbd0e6afd	-0.03477
25	0x3d1f4ddb	0.038892608
26	0xbc9f74b6	-0.019464832
27	0x3ce3505a	0.027748276
28	0xbc907b4c	-0.017636918
29	0xbd020394	-0.031741694
30	0xbcfb5ef4	-0.030684926
31	0xbbc6e387	-0.006069604
32	0xbd42d59f	-0.047567006
33	0x3b23193d	0.002488687
34	0x3c924500	0.017855167
35	0x3a86c83e	0.0010283065
36	0xbd6b377c	-0.05742596
37	0xbc8eac62	-0.017416183
38	0xbc2f3159	-0.010692918
39	0xbbeca4b6	-0.0072217835
40	0xba1fcb03	-0.000609562
41	0xbc672201	-0.014107228
42	0x3c64acf0	0.013957247
43	0x3c94eff2	0.018180821
44	0x3d4db0c6	0.050217412
45	0xbd49859c	-0.049199685
46	0xbc3a7f6a	-0.011382917
47	0x3cf3b8b1	0.029751154
48	0xbca2fc7b	-0.019895783
49	0x3cc50938	0.024052247
50	0x3b1207b1	0.0022282416
51	0x3cbf1918	0.023327395
52	0xbd30de8b	-0.043180984
53	0xbbfc9052	-0.007707634
54	0x3ca06248	0.019578114
55	0x3c853077	0.016258461
56	0xbc2849db	-0.010271515
57	0x3bdc9088	0.0067310967
58	0x3d2d9a04	0.04238321
59	0x3c9cc22b	0.019135555
60	0xbd2f3240	-0.04277253
61	0x3d2689df	0.040658828
62	0x3b9b0177	0.004730399
63	0x3d3cf364	0.046130553
64	0x3c4db6b3	0.012555766
65	0xbd02dc43	-0.03194834
66	0x3d48a7dc	0.04898821
67	0xbccc5861	-0.024944486
68	0xbd0f3af7	-0.034968343
69	0xbba001c9	-0.0048830253
70	0x3d3cd4d0	0.04610139
71	0x3b89a903	0.004201056
72	0xbd51891d	-0.051156152
73	0xbd2b317e	-0.041795246
74	0xbd653a52	-0.05596382
75	0xbbf7d15e	-0.0075628003
76	0xbd154339	-0.03644106
77	0xbd651889	-0.0559316
78	0xbc977820	-0.018489897
79	0xbc89c5a1	-0.01681787
80	0xbc90950a	-0.017649192
81	0x3d117a79	0.03551719
82	0xbd1adecd	-0.037810136
83	0xbbfc5bc0	-0.007701367
84	0xbcb719ee	-0.022351231
85	0xbc9be90d	-0.019032026
86	0xbd49ff1a	-0.04931555
87	0x3c97f815	0.018550912
88	0xbd4b5649	-0.049642835
89	0xbc7f670e	-0.015588535
90	0x3d5a689e	0.053322427
91	0xbd0d851a	-0.034550764
92	0x3ccdebf9	0.025136935
93	0xbce51ff3	-0.027969336
94	0x3d2ac994	0.041696146
95	0xbcea4403	-0.028596884
96	0xbd2e435e	-0.042544715
97	0x3b62211a	0.0034504593
98	0xbb78ddeb	-0.003797407
99	0xbd3f694b	-0.046731275
100	0x3c90d247	0.017678393
101	0xbac60237	-0.0015106861
102	0x3d2fca78	0.0429177
103	0x3ba7dee0	0.0051230043
104	0xbce37f43	-0.027770644
105	0x3bdd0521	0.006744996
106	0x3d2a8442	0.041630037
107	0xbd4942ea	-0.04913608
108	0xbbc16ec0	-0.005903095
109	0xba16cde1	-0.0005752724
110	0xbd27da8a	-0.0409799
111	0xbd2f5184	-0.04280235
112	0x3d459c91	0.048245016
113	0xbcb962a2	-0.02263004
114	0x3c12c55d	0.008958188
115	0xbce91104	-0.028450496
116	0xbcf98fcd	-0.030464077
117	0x3b2ff6fa	0.002685009
118	0x3ccf7bf5	0.025327662
119	0x3cf49c5b	0.029859712
120	0x3883fc33	6.2935425e-05
121	0x3d276538	0.040868014
122	0x3d47b3e5	0.048755545
123	0x3cbace89	0.022803562
124	0x3d3df6af	0.046377834
125	0x3d06c32b	0.03290097
126	0xbc997e5d	-0.018737013
127	0xbd33e2df	-0.043917533
128	0x3cba4811	0.022739442
129	0x3c9b4caa	0.018957455
130	0x3cb045c9	0.021517651
131	0xbbccb6a4	-0.0062473584
132	0x3d2781f6	0.040895425
133	0xbd1838d1	-0.03716356
134	0xbd1b0f89	-0.037856612
135	0x3c2c561f	0.01051858
136	0xbb8bb5f5	-0.0042636343
137	0x3d49c159	0.049256656
138	0xbd2c1cb0	-0.042019546
139	0xbca4520f	-0.02005866
140	0xbc363722	-0.011121543
141	0xbca91d2b	-0.020643791
142	0x3d25786f	0.040398058
143	0x3d3c306f	0.045944627
144	0xbcbf23c8	-0.023332492
145	0xbd4fd58e	-0.05074077
146	0xbba0a769	-0.0049027693
147	0x3d2a980d	0.041648913
148	0x3c98e9c1	0.01866615
149	0x3d44a26f	0.04800647
150	0x3ba60c8b	0.005067413
151	0xbd0c12aa	-0.034197487
152	0x3d5372df	0.05162322
153	0x3ca70c13	0.0203915
154	0xbd2d441d	-0.042301286
155	0x3caf4c52	0.021398697
156	0x3cc1ab05	0.023641119
157	0xbcffee60	-0.031241596
158	0xb84fadbb	-4.9514445e-05
159	0x3c51ffed	0.012817365
160	0x3c2a77c9	0.010404536
161	0xbab82bcc	-0.0014051138
162	0x3bd3227a	0.006443319
163	0xbd09e84c	-0.0336688
164	0xbd140b39	-0.036143515
165	0xbd0c42da	-0.034243442
166	0xbd10c07b	-0.035339814
167	0x3d135bba	0.03597615
168	0xbc448de3	-0.011996719
169	0x3b83b140	0.0040189326
170	0xbd01a789	-0.031653915
171	0xbd25396c	-0.040337965
172	0x3d50aff3	0.05094905
173	0xbd0d69f6	-0.03452488
174	0x3cdd5f89	0.027023094
175	0xbc035eeb	-0.008018236
176	0x3c0ed9f9	0.008718961
177	0x3bf4793f	0.0074607427
178	0x3cc3fae1	0.02392334
179	0xbd1b7de1	-0.037961844
180	0x3d2269b4	0.039651588
181	0xbd06334a	-0.032763757
182	0xbc5fe19c	-0.013664629
183	0xbc0534f2	-0.008130299
184	0x3d3b69fd	0.045755375
185	0xbcf553ef	-0.02994725
186	0x3c10e014	0.008842487
187	0x3a430204	0.000743896
188	0x3d451cb3	0.048123073
189	0xbcb12281	-0.021622898
190	0x3cf6670b	0.030078432
191	0xbd18ab65	-0.03727283
192	0xbbc4e3ae	-0.006008587
193	0x3ceebfce	0.029144194
194	0x3d03f744	0.032218233
195	0xbd4dcf97	-0.0502468
196	0x3cc7489e	0.024326619
197	0x3d1069f5	0.0352573
198	0x3d0462ff	0.032320973
199	0x3c5c362a	0.013440648
200	0xbc9b8915	-0.018986264
201	0xbc8ae556	-0.016955059
202	0xbcadbdce	-0.02120867
203	0xbbaeee8a	-0.0053384947
204	0xbc35cb00	-0.011095762
205	0x3cfca758	0.030841514
206	0x3d215de2	0.039396174
207	0xbd2d2e42	-0.042280443
208	0xbd211140	-0.03932309
209	0x3d1c16ca	0.03810767
210	0xbd3d6a04	-0.046243683
211	0xbc433a2e	-0.011915727
212	0x3cbf15a2	0.023325745
213	0x3ac07871	0.0014684332
214	0x3d286611	0.041112963
215	0x3d478bfc	0.048717484
216	0x3d58d285	0.052935142
217	0xbc405201	-0.011738301
218	0x3d164224	0.03668417
219	0xbcd9ba3d	-0.026578063
220	0xbcbbf92a	-0.02294596
221	0xbc916194	-0.017746724
222	0x3d3a9185	0.045548934
223	0xbd010b68	-0.03150502
224	0x3d36c36c	0.044619963
225	0xbc4b8552	-0.012421923
226	0xbd4446d1	-0.0479191
227	0xbd10d6ab	-0.035360973
228	0x3d432102	0.0476389
229	0x3b7a1660	0.003816031
230	0x3d29df43	0.041472685
231	0x3d3dd3ca	0.046344556
232	0x3c5a546d	0.013325793
233	0x3c377446	0.011197155
234	0xbd1b4ab6	-0.037913047
235	0xbcbf9daf	-0.02339062
236	0xbc9db952	-0.019253407
237	0xbcc6ad55	-0.024252573
238	0x3d2343b4	0.03985949
239	0x3b913c7f	0.0044322605
240	0x3cccfa2e	0.025021639
241	0xbac9641e	-0.001536492
242	0x3d330f6e	0.043715887
243	0x3cf85ab6	0.030316692
244	0xbc3ee411	-0.011651055
245	0xbc96af3b	-0.018394103
246	0xbcbdb467	-0.023157312
247	0xbc4ae67c	-0.012384053
248	0x3c8df563	0.017328924
249	0x37935d98	1.7567349e-05
250	0x3cd87488	0.026422754
251	0x3c0c8191	0.008575813
252	0x3c16302c	0.0091667585
253	0xbba7f345	-0.0051254355
254	0x3c185b24	0.009299073
255	0xbd214f8f	-0.039382514

base_model.model.bert.encoder.layer.0.attention.self.query.lora_B.weight f4 [384, 16]
0	0x3b297cde	0.002586178
1	0xbb370493	-0.002792631
2	0x3a37091b	0.0006982253
3	0xbb517a05	-0.0031963598
4	0x3a8b389a	0.0010621727
5	0xbb62f291	-0.0034629444
6	0xba8443de	-0.0010091027
7	0x3b08a979	0.0020852967
8	0x3aacec02	0.0013192894
9	0xbafddfd3	-0.0019369073
10	0x3a81da60	0.0009907
11	0x3ad43d1e	0.0016192531
12	0xbb6bdffa	-0.0035991655
13	0xbb7604d8	-0.0037539508
14	0xbaf1a360	-0.001843553
15	0x3b73ad91	0.003718231
16	0x3ae458c3	0.0017421473
17	0xbb63defb	-0.0034770358
18	0x3b7a2ace	0.0038172486
19	0xbb5c94d4	-0.0033658044
20	0xbb94af66	-0.0045375107
21	0xbb2f0e8f	-0.0026711558
22	0x3aeca08a	0.0018053215
23	0x3ae0dcb4	0.0017155618
24	0x3b58c9ea	0.0033079335
25	0x3b195f1e	0.0023402642
26	0xbb9bc14a	-0.0047532665
27	0x3b7cdd6b	0.0038584124
28	0xbb670641	-0.003525153
29	0xbb795abd	-0.003804847
30	0x3b8eeac8	0.004361484
31	0x3b177171	0.0023108388
32	0xbb85e4d7	-0.0040861177
33	0x3ad8d9bf	0.0016544386
34	0xba2565d9	-0.0006309427
35	0x3a1cbc0d	0.00059789495
36	0x39b1e461	0.00033930226
37	0x3b568d59	0.0032738058
38	0xbae0401e	-0.0017108952
39	0xbb0e4abb	-0.0021712023
40	0x3981f7c7	0.00024789406
41	0xbaae8dfb	-0.001331746
42	0x3b233b17	0.0024907046
43	0xbb1db6d3	-0.002406527
44	0x3b33e2c2	0.002744839
45	0x3b2aa865	0.0026040312
46	0xba65e3d8	-0.0008769608
47	0xbb11d4b4	-0.0022252025
48	0x3b01aba5	0.0019786146
49	0x3b022f13	0.0019864484
50	0xbb3875f5	-0.002814648
51	0xba93e3a3	-0.0011283051
52	0x3b396ec9	0.0028294793
53	0x3a70c0d1	0.00091840053
54	0xbb38b6c4	-0.0028185109
55	0x3a2413b9	0.00062590424
56	0x3b85c382	0.0040821442
57	0xbb0c6dad	-0.0021427677
58	0x3b0aecff	0.002119839
59	0xbb28949c	-0.0025723344
60	0xb9a5665e	-0.00031547522
61	0x3b2b986c	0.002618338
62	0xbb51eb89	-0.003203126
63	0xbac94530	-0.0015355702
64	0xbb17877f	-0.0023121533
65	0x3b3465d5	0.0027526517
66	0xba581048	-0.0008242172
67	0x3b2e69e7	0.0026613416
68	0xbab30a10	-0.0013659615
69	0x3b1f5028	0.0024309251
70	0x3a84e8ed	0.0010140218
71	0xbb277a14	-0.0025554942
72	0xba7dde07	-0.0009684269
73	0x3b5be979	0.0033555909
74	0xba6b0d4c	-0.000896652
75	0x39a53a0f	0.0003151451
76	0x3a92bdb6	0.0011195454
77	0x3aa429f1	0.0012524707
78	0x39d6a004	0.00040936482
79	0xbb6d12e5	-0.0036174592
80	0x3abf1ee9	0.0014581355
81	0xbaedd8f6	-0.0018146324
82	0x3ab25c74	0.0013607875
83	0xbb1584ca	-0.0022814744
84	0xba8a3233	-0.0010543525
85	0xbb02de99	-0.0019969104
86	0xbaa2eb40	-0.0012429729
87	0x3ad22d36	0.0016035202
88	0x3af7476b	0.0018865889
89	0x3ad4c4c3	0.0016232956
90	0xbb295274	-0.00258365
91	0x3b13e084	0.0022564242
92	0xbb22b2c9	-0.0024825803
93	0xbb32fe2b	-0.002731214
94	0x3ad2cac0	0.0016082153
95	0x3b093d93	0.0020941242
96	0xba900633	-0.0010988176
97	0xba32ba45	-0.00068179175
98	0x3b2955ad	0.002583842
99	0x3ae7e93c	0.0017693411
100	0xbb29a234	-0.0025884034
101	0xba0675ab	-0.0005129228
102	0x3aff046b	0.0019456273
103	0xbb5d2d98	-0.00337491
104	0xbad99907	-0.0016601392
105	0x3b645e43	0.0034846223
106	0xbb2f2065	-0.002672219
107	0x3b489726	0.003060767
108	0xbab81438	-0.0014044112
109	0xbae6aa4d	-0.0017598361
110	0x3b411a24	0.0029465044
111	0xbb1af9b4	-0.002364737
112	0x3ade7226	0.0016971275
113	0xbb2d9b26	-0.002649018
114	0x3b1d231c	0.0023977226
115	0xbab8bb28	-0.0014093863
116	0xbad93ced	-0.0016573943
117	0xbb721520	-0.003693886
118	0x3987ac83	0.00025877738
119	0x3b206fa3	0.0024480603
120	0x3ac6601a	0.0015134842
121	0x3b37acf7	0.002802668
122	0xbb061efb	-0.0020465243
123	0x3b60f98d	0.0034328431
124	0xbb8eac05	-0.0043540024
125	0xbb4e18e0	-0.0031447932
126	0x3ac2f62b	0.0014874389
127	0x3ad4bfbd	0.0016231459
128	0xbb10a273	-0.0022069484
129	0x3b297de1	0.0025862383
130	0x38fb0705	0.0001196992
131	0x3b6262d1	0.0034543762
132	0xbaa44566	-0.0012532889
133	0x3b233a9d	0.0024906762
134	0x3b1219bd	0.0022293173
135	0xbaedc6bc	-0.0018140892
136	0xbb101a98	-0.0021988507
137	0x3af6d3a7	0.0018831388
138	0xbac1ea40	-0.0014794543
139	0x39787804	0.00023695832
140	0x3b49db64	0.0030800933
141	0x3b387e18	0.002815133
142	0x3aca707e	0.0015444902
143	0xbb7d177a	-0.003861873
144	0x3b5383b7	0.0032274553
145	0xbb5f6c64	-0.0034091705
146	0xba8cb1eb	-0.0010734176
147	0xbbbd8774	-0.0057839695
148	0x3b1577c9	0.0022806993
149	0xbb8c9794	-0.0042905305
150	0xbb85f21e	-0.0040877005
151	0x3b8bde22	0.0042684237
152	0x3bc1acdd	0.0059104995
153	0xba9cce5c	-0.0011963355
154	0x3a839634	0.0010039271
155	0x3b1e3916	0.0024142913
156	0xbbc9978c	-0.006152099
157	0xbb978f9d	-0.0046252743
158	0xbadbe028	-0.0016775178
159	0x3b71a372	0.0036871103
160	0xbb5ecf6d	-0.0033998147
161	0x3bbcec4e	0.0057654744
162	0x39ae75f8	0.0003327576
163	0x3b82ff7a	0.0039977403
164	0xba3c52a7	-0.0007183947
165	0x3b71d8be	0.003690287
166	0x3adf29ce	0.0017026009
167	0xbb6cbf66	-0.0036124825
168	0xbb8118de	-0.003939732
169	0x3b5f674b	0.0034088667
170	0xb9244307	-0.00015665228
171	0x3a30f275	0.0006749996
172	0x3ba64641	0.005074293
173	0x3bb6e060	0.005580947
174	0x3a6afc57	0.0008963993
175	0xbb4a0be5	-0.0030829844
176	0xbab2629c	-0.001360971
177	0x3a5d298d	0.00084366725
178	0x3b00bd2d	0.0019644008
179	0x3b471430	0.0030377023
180	0xbb28dd8f	-0.0025766825
181	0x3aef5dd6	0.0018262218
182	0x3b4a4bd7	0.0030867958
183	0xbb07ccde	-0.0020721476
184	0xbb39a84a	-0.0028329068
185	0x3b013ade	0.0019718925
186	0xbb309a21	-0.0026947337
187	0x3b7569c5	0.0037447077
188	0x3a3da07f	0.00072336936
189	0x3a0eb042	0.00054431346
190	0x3b4e24f7	0.0031455138
191	0xbb1a1bab	-0.0023515027
192	0x3ac3da51	0.0014942383
193	0xbba61fce	-0.0050697094
194	0x3b78eff3	0.0037984818
195	0x3a32737e	0.0006807371
196	0xbb6a4f72	-0.003575292
197	0xbb5fc6ad	-0.003414552
198	0x3b185cb1	0.0023248608
199	0x3a41b5bc	0.0007389446
200	0xbafbe5d5	-0.0019218276
201	0x3b70aeee	0.003672536
202	0xbb5e0013	-0.0033874556
203	0x3bc9b623	0.0061557456
204	0xbbee6867	-0.0072756293
205	0xbbcbca72	-0.0062192017
206	0x3b5920ac	0.0033131046
207	0x3a9e63c3	0.0012084175
208	0x3b916ce3	0.004438029
209	0xbba042ad	-0.004890761
210	0x3ab50bea	0.0013812755
211	0xbb74169f	-0.0037244929
212	0xbaf4f4cd	-0.0018688679
213	0xbba7dc79	-0.005122718
214	0x395a077a	0.00020792885
215	0x3ba8a5d3	0.005146721
216	0x3b8039fe	0.003913163
217	0x39d4ebf2	0.00040611584
218	0xbb3635a0	-0.002780296
219	0x3b8954e1	0.0041910266
220	0xbbed6812	-0.007245072
221	0xbbb47514	-0.005507121
222	0x3b1de8d5	0.0024095078
223	0x3b1241f4	0.0022317143
224	0x3a58cb89	0.0008270075
225	0xba8b97c3	-0.0010650087
226	0x3b1ea27e	0.002420574
227	0xbb045bf7	-0.0020196417
228	0xbb83edf0	-0.004026167
229	0xbabb1d35	-0.0014275672
230	0x3ab33433	0.0013672173
231	0x39ed2dd3	0.00045238304
232	0x3b2cbf94	0.0026359307
233	0x3b067b41	0.0020520242
234	0xbb663112	-0.0035124463
235	0x3b2586ba	0.0025257305
236	0xbb0c807b	-0.0021438885
237	0xbaf9dea9	-0.001906355
238	0x3b4561bc	0.0030118069
239	0x3a8ad53e	0.0010592116
240	0xba49e0eb	-0.0007701057
241	0x3a6614d9	0.000877691
242	0x39f898ed	0.00047416185
243	0xba1ae5f9	-0.00059089024
244	0xbafd0085	-0.0019302523
245	0x3a079146	0.0005171489
246	0x39072fec	0.00012892456
247	0xba557cc4	-0.00081438967
248	0x3a959bd1	0.0011414235
249	0x3ac0b31a	0.0014701814
250	0xba1ecebf	-0.0006058029
251	0x398cedfb	0.0002688019
252	0x3996841f	0.00028708667
253	0x3a011796	0.0004924474
254	0x397b6569	0.00023975004
255	0xba28dca6	-0.00064415706

base_model.model.bert.encoder.layer.0.attention.self.value.lora_A.weight f4 [16, 384]
0	0xbd3eb83d	-0.046562422
1	0xbb37c4af	-0.0028040817
2	0xbc8de8ca	-0.017322917
3	0x3984e24d	0.0002534561
4	0xbd13e395	-0.03610571
5	0x3d16a228	0.036775738
6	0x3d1024d2	0.035191365
7	0x3c5f5774	0.01363169
8	0xbccfc001	-0.02536011
9	0x3c03e22d	0.00804953
10	0x3d0a90fd	0.033829678
11	0x3ce5905b	0.028022936
12	0x3bc1d948	0.0059157945
13	0x3caa47cb	0.020786187
14	0x3c1e4642	0.009660305
15	0x3ba9a6bc	0.005177347
16	0xbca293ad	-0.019845808
17	0x3d23df70	0.04000801
18	0xb9ca2ab5	-0.00038560262
19	0x3b4bc420	0.0031092241
20	0x3cd4e739	0.025989162
21	0xbc689111	-0.014194743
22	0xbcc375c1	-0.02385986
23	0x3c9e7e94	0.019347467
24	0x3bc7f316	0.006101976
25	0xbb3de7fd	-0.0028977387
26	0xbc5fe597	-0.013665578
27	0xbcbee706	-0.02330352
28	0xbd05f720	-0.03270638
29	0x3ce4cd39	0.027929889
30	0x3d22c0e6	0.039734744
31	0xb88d87f4	-6.748727e-05
32	0xbb8b1aa7	-0.0042451206
33	0x3c347aec	0.011015635
34	0x3c8a48f9	0.0168805
35	0x3d412708	0.047156364
36	0xbcabf2f2	-0.020989869
37	0x3d70c954	0.05878575
38	0x3b7564e0	0.003744416
39	0xbd2b8766	-0.041877173
40	0xbbf10e19	-0.007356417
41	0x3cb84d28	0.022497728
42	0x3d185acf	0.037195977
43	0xbceef64c	-0.029170178
44	0xbc81783d	-0.015804404
45	0x3d531a20	0.051538587
46	0x3d0deb8c	0.034648463
47	0x3d5c41f3	0.05377383
48	0x3cf246ca	0.02957477
49	0x3d179263	0.03700484
50	0x3d1b15c3	0.03786255
51	0x3d205ae0	0.039149165
52	0xbd6edd07	-0.058316257
53	0x3d42e815	0.047584612
54	0xbd5c78c7	-0.05382612
55	0xbc2abfbb	-0.010421689
56	0x3d06b250	0.032884896
57	0x3d01f452	0.031727143
58	0x3d77535c	0.060382232
59	0x3b9dd070	0.0048161075
60	0x3cf6f0aa	0.030144054
61	0x3c70e339	0.014702612
62	0xb89725a9	-7.207256e-05
63	0x3c3c7069	0.01150141
64	0x3d0c1a0a	0.03420452
65	0xbd25df03	-0.040495884
66	0x3cfa457a	0.030550707
67	0x3a8316f8	0.0010001352
68	0xbcd50b8f	-0.026006488
69	0xbc65755d	-0.014005032
70	0xbcbb5d15	-0.022871533
71	0xbcd989d2	-0.026554976
72	0xbc737599	-0.01485958
73	0x3bb531d0	0.0055296198
74	0xbbfb627a	-0.0076716514
75	0xbd131e12	-0.03591735
76	0xbd10e385	-0.03537323
77	0x3d4d799a	0.050164796
78	0xbcd32aa8	-0.025777176
79	0x3c90f2c2	0.017693881
80	0xbd0f430d	-0.034976054
81	0xbcff7c38	-0.031187162
82	0xbc8094fb	-0.01569604
83	0xbce7cd2f	-0.028296081
84	0x3d0df2b9	0.034655306
85	0x3d2af474	0.041737035
86	0x3d206f9a	0.03916893
87	0x3bf99aa9	0.007617314
88	0xbc62718c	-0.013821017
89	0x3d643d95	0.05572279
90	0x3d0a64e4	0.033787623
91	0x3c07498d	0.008257282
92	0xbcc14f2b	-0.02359732
93	0xbd162a01	-0.03666115
94	0xbd0e392a	-0.034722485
95	0xbd088b67	-0.03333607
96	0x3d3be3a9	0.04587141
97	0xbd6c53a5	-0.057696957
98	0xbbf947ea	-0.00760745
99	0xbd445256	-0.047930084
100	0x3d29215e	0.041291587
101	0x3c34d521	0.011037142
102	0x3ce00af8	0.02734898
103	0x3cdfddcd	0.027327443
104	0xb998ce8b	-0.00029145586
105	0xbc1f1600	-0.009709835
106	0x3c675e01	0.014121533
107	0xbd146ddd	-0.036237586
108	0xbd19ad37	-0.037518706
109	0xbc088e2d	-0.008334679
110	0x3d51e4f1	0.051243726
111	0xbd5d396a	-0.054009832
112	0xbcdf035f	-0.027223287
113	0xbd086c0d	-0.03330617
114	0x3d1a6f39	0.037703726
115	0x3d0187df	0.031623717
116	0xbcd1e920	-0.025623858
117	0xbc61d5b0	-0.013783857
118	0xbd498c58	-0.049206108
119	0xbd232830	-0.039833248
120	0x3d718809	0.058967624
121	0x3c2058fd	0.009786841
122	0xbc96fe82	-0.018431906
123	0xbcbd929a	-0.023141194
124	0xbb901d43	-0.0043980195
125	0x3cf8be01	0.030364038
126	0x3d736745	0.059424657
127	0xbbea163d	-0.0071437643
128	0xbcd5135c	-0.026010208
129	0xbd1add27	-0.037808564
130	0xbc1f1394	-0.009709258
131	0xbcf2da15	-0.029645005
132	0xbd4d1320	-0.050067067
133	0x3b6d83ce	0.0036241892
134	0x3d2b3a15	0.04180344
135	0x3a385d45	0.0007032941
136	0x3d74ff3a	0.059813716
137	0x3c6a6aad	0.01430766
138	0xb96c9351	-0.00022561594
139	0x3c81fe08	0.015868202
140	0xbd75dbad	-0.060023952
141	0xbcf27ac3	-0.029599553
142	0x390316df	0.00012501654
143	0xbcc35856	-0.023845833
144	0x3ca637cb	0.020290276
145	0xbc45ed17	-0.012080452
146	0x3d4b4dde	0.049634807
147	0x3c72ae1a	0.014812017
148	0xbd29687c	-0.04135941
149	0x3d237029	0.039901886
150	0x3d156290	0.03647095
151	0xbc3b310f	-0.011425271
152	0xbccecb9a	-0.02524357
153	0xbce37330	-0.027764887
154	0xbcdef43f	-0.027216075
155	0x3d234fa4	0.039870873
156	0x3c1fe341	0.009758771
157	0xbc88e5af	-0.016711084
158	0xbc08f2f6	-0.008358708
159	0x3c2172c2	0.009854021
160	0xbd4869ee	-0.048929147
161	0xbd3472e9	-0.0440549
162	0xbb6fe378	-0.0036604088
163	0x3ce91974	0.02845452
164	0xbd334796	-0.04376944
165	0x3cd5bfa7	0.026092364
166	0x3d0d2947	0.034463193
167	0x3cd622e9	0.026139693
168	0xbcb06d96	-0.02153663
169	0x3c27b117	0.010235093
170	0xbbbfc6d7	-0.005852561
171	0xbd07d5a3	-0.033162724
172	0xbc9b9443	-0.018991595
173	0x3d763c94	0.060116366
174	0xbd27926a	-0.040911116
175	0x3d5d3213	0.054002833
176	0x3bcf48a7	0.0063257995
177	0xbc896a41	-0.016774299
178	0x3b5e7b47	0.003394799
179	0xbd26cee5	-0.040724654
180	0x3cdc2cbe	0.026876803
181	0xbcde7fb9	-0.027160512
182	0x3cd2a4b5	0.025713304
183	0x3d411a02	0.047143944
184	0x3bf06503	0.0073362603
185	0x3cc2456c	0.023714744
186	0x3d4a9389	0.049457107
187	0x3d359001	0.044326786
188	0xbd735508	-0.059407264
189	0x3d46aad2	0.04850275
190	0x3ce2aafc	0.027669422
191	0xba1ce801	-0.0005985499
192	0xbc361499	-0.011113309
193	0xbc95a63a	-0.01826774
194	0x3d67b9b6	0.056573592
195	0xbcb1b126	-0.021690916
196	0x3bc07438	0.0058732294
197	0xbbe7a12e	-0.0070687747
198	0x3c633bec	0.013869267
199	0xbc2d1170	-0.010563239
200	0x3c989722	0.018626753
201	0x3c9d21d4	0.01918117
202	0x3c4f9b80	0.012671351
203	0xbd422133	-0.047394942
204	0xbcc09b5b	-0.02351158
205	0xbd32e1d2	-0.04367239
206	0x3d1cf882	0.038322933
207	0x3d6fa8f9	0.058510754
208	0x3d10cf21	0.035353784
209	0xbd30c5e5	-0.043157477
210	0x3d057cbb	0.032589655
211	0x3d1c21b4	0.03811808
212	0xbc847478	-0.016168818
213	0x3d34c2c0	0.04413104
214	0xbd1bbbf7	-0.038021054
215	0xbbb672bb	-0.005567876
216	0x3d33f994	0.043939188
217	0xbcf13821	-0.02944571
218	0xbb396304	-0.0028287778
219	0xbac1f054	-0.0014796355
220	0xbd25ff17	-0.040526476
221	0x3d1031c7	0.03520372
222	0xbb5edb3b	-0.0034005183
223	0x3d403387	0.04692414
224	0xbd4787c6	-0.048713468
225	0x3cfbb0ad	0.030723894
226	0x3ca4e47d	0.020128483
227	0xbd6fb055	-0.058517773
228	0x3c977f65	0.018493364
229	0x3c012e1d	0.007884529
230	0x3d42c335	0.047549445
231	0xbcede7e4	-0.029041238
232	0x3c2fffeb	0.010742168
233	0xb9c12965	-0.0003684267
234	0x3d1a0976	0.03760668
235	0x3d0a8d48	0.033826143
236	0xbc4773bd	-0.01217359
237	0x3c641f7a	0.01392352
238	0xbd5e266a	-0.054235853
239	0x3ccff675	0.025386075
240	0x3cb362eb	0.021897754
241	0x3cfa1760	0.030528724
242	0xbc8a55af	-0.01688656
243	0xbcabe47d	-0.020982975
244	0xbd6f1df7	-0.058378186
245	0xbbe87fdd	-0.0070953206
246	0x3c2ad486	0.010426646
247	0x3d6a608e	0.057220988
248	0xbc521e80	-0.012824655
249	0xbd34ee5f	-0.04417264
250	0x3c69abb2	0.014262127
251	0xbb725681	-0.003697783
252	0x3d2317f1	0.039817754
253	0x3d16c461	0.036808375
254	0x3ca267c9	0.01982488
255	0xbcb418cc	-0.02198448

base_model.model.bert.encoder.layer.0.attention.self.value.lora_B.weight f4 [384, 16]
0	0xb9f1c1f0	-0.00046111597
1	0x39d06e7b	0.00039755166
2	0x390e1b00	0.00013552234
3	0x3a307ef8	0.0006732787
4	0xbb305ec1	-0.0026911946
5	0x3a62ccde	0.00086517434
6	0x3b17a22f	0.002313744
7	0xbb16291b	-0.0022912684
8	0x3a99dc7b	0.0011738682
9	0xba829830	-0.0009963568
10	0x3a914126	0.0011082038
11	0x3a737a25	0.00092879153
12	0x3a86a7ab	0.0010273358
13	0xbacec459	-0.0015775069
14	0xba4c9563	-0.0007804243
15	0xba5d1292	-0.0008433248
16	0x3b947054	0.004529992
17	0xbba1d3cc	-0.0049385782
18	0x3bad496f	0.005288295
19	0x3b3d2f18	0.0028867181
20	0x3b3ae8ae	0.0028520036
21	0xbb83e9a9	-0.004025657
22	0xbb96cf4f	-0.00460235
23	0x3b734f1d	0.0037126013
24	0xbb813368	-0.0039428957
25	0xbb1bc09c	-0.0023765927
26	0x3b81c148	0.0039598085
27	0xbb825d89	-0.0039784354
28	0x3bc72834	0.0060777906
29	0xbb72fb93	-0.003707622
30	0x3b8c7c80	0.0042873025
31	0xbb3f6799	-0.0029206036
32	0x3bc729cf	0.006077982
33	0xbbc26b8d	-0.005933231
34	0x3b985860	0.004649207
35	0x3b2fb588	0.0026811082
36	0x3bb2c239	0.005455282
37	0xbbf2e1d3	-0.0074121743
38	0xbc087dea	-0.0083308015
39	0x3bbf25e7	0.0058333757
40	0xbbfba176	-0.0076791598
41	0xba4ad02d	-0.0007736709
42	0x3b1317ce	0.0022444609
43	0xbc01302e	-0.007885022
44	0x3b2c868b	0.002632531
45	0xbadd8d46	-0.0016903065
46	0x3c01f8e1	0.0079328725
47	0xbacdcc4f	-0.0015701147
48	0x3b99219f	0.0046731974
49	0xbb98113f	-0.004640728
50	0x3b00492e	0.0019574868
51	0xb9525d29	-0.00020061866
52	0x3b50a501	0.0031836631
53	0xbb641cdd	-0.0034807243
54	0xbb82e5d0	-0.003994681
55	0x3b56306e	0.0032682675
56	0xbb81a568	-0.0039564855
57	0x39e02aa3	0.00042756376
58	0x3a0982a3	0.00052456016
59	0xbb79fb5c	-0.0038144207
60	0x3ac2096b	0.0014803832
61	0xb996e75e	-0.00028782611
62	0x3b6b3532	0.0035889861
63	0xb77e39ee	-1.5153068e-05
64	0xbaf2bfe7	-0.0018520326
65	0x3b111f6d	0.0022143975
66	0xbb3c0b7e	-0.0028693373
67	0xbbd766d6	-0.0065735383
68	0xba2e1385	-0.0006640482
69	0x3a8068fa	0.000979691
70	0x3a562f96	0.0008170543
71	0xb967621d	-0.00022066427
72	0x3aa721b6	0.0012751136
73	0x3bd127c1	0.006382913
74	0xbb893087	-0.004186693
75	0x3aacec99	0.001319307
76	0xbb326eb0	-0.002722662
77	0x3bcaa658	0.0061843805
78	0xba764b69	-0.0009395392
79	0x3baf4133	0.0053483485
80	0xba14c196	-0.00056745985
81	0x39e16344	0.00042989303
82	0xba4c45e9	-0.00077924
83	0xbb08f31c	-0.0020896858
84	0x3ac8e3db	0.0015326695
85	0xba4bc7e1	-0.000777362
86	0xba69e8a5	-0.00089229114
87	0x3b36b66a	0.0027879723
88	0xb968c7ca	-0.00022199671
89	0x3b4d83f1	0.003135916
90	0xba988af9	-0.0011638097
91	0xb9a26180	-0.0003097169
92	0xba4f1d1b	-0.00079007604
93	0x3ab31f38	0.001366592
94	0x3a5ed923	0.0008500984
95	0x3adf9a96	0.001705962
96	0xbb4f5db5	-0.0031641547
97	0x3b5dafb7	0.0033826658
98	0xbb6015c9	-0.0034192672
99	0xbaed0e4c	-0.0018085926
100	0xbb30804c	-0.002693194
101	0x3b5ea981	0.0033975544
102	0x3b7cb7f9	0.0038561805
103	0xbb65dcc0	-0.0035074204
104	0x3b5095f8	0.003182767
105	0x3b14df47	0.0022716091
106	0xbb04b893	-0.0020251616
107	0x3b50dd3c	0.0031870147
108	0xbb7f6563	-0.0038970343
109	0x3b36cd0c	0.0027893214
110	0xbb6df837	-0.0036311278
111	0x3aeff6ac	0.0018307767
112	0xbb9bd199	-0.0047552106
113	0x3b8fd03d	0.0043888376
114	0xbb81cf26	-0.0039614616
115	0xbb8841c6	-0.0041582314
116	0xbb1233b0	-0.002230864
117	0x3b8d40a5	0.0043106847
118	0x3bacb31a	0.005270374
119	0xbaa96f6c	-0.0012926883
120	0x3ba794b6	0.0051141633
121	0x3b5ba8dd	0.0033517398
122	0xbb664b1a	-0.003513998
123	0x3b9353ce	0.0044960743
124	0xbb6a31f8	-0.003573535
125	0x3b518195	0.0031968106
126	0xbb9a680a	-0.0047121095
127	0x3b604fe1	0.00342273
128	0x3b2a2a8e	0.0025965306
129	0xbb425fcd	-0.0029659152
130	0x3b5ca4b1	0.00336675
131	0x3b9446c5	0.004525038
132	0x3a15d5ac	0.00057157385
133	0xbab523d1	-0.0013819878
134	0xbb2a5025	-0.0025987711
135	0xb9de7fe9	-0.0004243844
136	0xbadf6ae5	-0.0017045407
137	0xbb9f2bb0	-0.004857503
138	0x3b852e7e	0.00406438
139	0xbaea6137	-0.0017881755
140	0x3b7a2a59	0.0038172214
141	0xbb8aba1f	-0.004233613
142	0x3ae6b686	0.0017602004
143	0xbb8ada57	-0.004237454
144	0xba1d6171	-0.00060035946
145	0x3a31e746	0.00067864766
146	0xba07f73c	-0.0005186682
147	0x3a2f8323	0.0006695261
148	0xbaa2d6c0	-0.001242362
149	0x3a2ba56c	0.0006547782
150	0x36a118a4	4.8010425e-06
151	0xb9b4252b	-0.00034359968
152	0x3a6ad8b9	0.0008958686
153	0xbb13bbc8	-0.0022542346
154	0x3af568df	0.0018723271
155	0x3a6a5305	0.00089387625
156	0x3a993efb	0.0011691743
157	0xbb17370c	-0.0023073582
158	0xb9cf84bb	-0.0003958101
159	0xbaafda16	-0.0013416435
160	0xb9c7af75	-0.00038086963
161	0x39bd5040	0.0003610868
162	0x3a6c9b79	0.0009025853
163	0x3b53dc16	0.0032327226
164	0xbb1baeb8	-0.0023755264
165	0x3b01006a	0.0019684085
166	0x3b1eba68	0.0024219994
167	0xbb4bce77	-0.0031098404
168	0x3ae7b3d3	0.0017677493
169	0xbb53590a	-0.0032249116
170	0x3b493b39	0.0030705465
171	0x3ac69a83	0.0015152249
172	0x3b55d12c	0.0032625897
173	0xbb351857	-0.0027632916
174	0xbb098f6d	-0.002099003
175	0xbb5e1f6a	-0.0033893236
176	0xbb168ae9	-0.002297098
177	0x3b1c2796	0.0023827306
178	0xbb08cedf	-0.0020875258
179	0x3aab0c8e	0.0013050006
180	0xbb43dc99	-0.0029886125
181	0x3b44d326	0.003003308
182	0x3b5e02f8	0.0033876281
183	0xbb75dfb9	-0.0037517382
184	0x3b408387	0.0029375271
185	0xbae9620f	-0.0017805713
186	0xba94b6af	-0.0011345948
187	0x3b2e6fd3	0.0026616945
188	0xbb003698	-0.001956379
189	0x38e301da	0.000108245484
190	0xbb51f29b	-0.0032035473
191	0x37fc130b	3.0049609e-05
192	0x3b3f62cf	0.0029203182
193	0xbb63ab20	-0.003473945
194	0x3b6fb2be	0.0036575045
195	0x3ad33302	0.0016113224
196	0x3af4bf5b	0.0018672751
197	0xbb34e2dc	-0.002760104
198	0xbb5c863d	-0.0033649348
199	0x3b51dde3	0.0032023124
200	0xbb30ccbe	-0.0026977505
201	0xbb16d3ae	-0.0023014355
202	0x3b802d2d	0.0039116354
203	0xbb3188c2	-0.002708957
204	0x3b74678a	0.003729316
205	0xbb908961	-0.004410908
206	0x3b47a432	0.0030462858
207	0xbb652633	-0.0034965395
208	0x3bbb7adb	0.0057214326
209	0xbbc1f52e	-0.0059191203
210	0x3bb589dd	0.005540116
211	0x3b8ad2c4	0.004236551
212	0x3b9ad4fb	0.0047250963
213	0xbbe03dd4	-0.006843308
214	0xbc047536	-0.008084586
215	0x3bb661e8	0.0055658706
216	0xbbe22807	-0.0069017443
217	0xbb5f4226	-0.0034066527
218	0x3b98e00f	0.0046653817
219	0xbbe68fe1	-0.0070361947
220	0x3b9bed33	0.004758501
221	0xbb8d4c57	-0.004312079
222	0x3be87d9d	0.0070950524
223	0xbb75f8d7	-0.0037532353
224	0xbba2497e	-0.0049526086
225	0x3ba6239e	0.005070164
226	0xbba391ac	-0.0049917307
227	0xbb425d87	-0.0029657797
228	0xbb6d7209	-0.00362313
229	0x3b896a32	0.0041935677
230	0x3b9430dd	0.0045224265
231	0xbb3944d9	-0.0028269796
232	0x3b9478a5	0.0045309835
233	0x3b226c6c	0.0024783863
234	0xbb42edd8	-0.0029743817
235	0x3b962e2a	0.00458314
236	0xbb6b2f37	-0.0035886297
237	0x3b2ee8fa	0.0026689158
238	0xbb8adf92	-0.0042380774
239	0x3b3e3603	0.0029023893
240	0xbb4b13b4	-0.0030987086
241	0x3b57abe9	0.0032908863
242	0xbb0f0c82	-0.0021827524
243	0xbb3fb8b7	-0.0029254386
244	0xbb4cb32d	-0.0031234727
245	0x3b65ebc7	0.0035083161
246	0x3b8f3c9a	0.004371238
247	0xbb6866be	-0.003546163
248	0x3b66c697	0.0035213584
249	0x3af8f058	0.0018992526
250	0xbb2f9096	-0.002678906
251	0x3b66457b	0.0035136628
252	0xbb380c54	-0.002808352
253	0x3b2c12df	0.0026256365
254	0xbb72d9ed	-0.0037056163
255	0x3b1727e9	0.002306456

base_model.model.bert.encoder.layer.1.attention.self.query.lora_A.weight f4 [16, 384]
0	0xbd340e84	-0.043959156
1	0x3d3fbdfb	0.04681204
2	0x3d45122f	0.048113044
3	0x3d018d75	0.031629045
4	0x3d30fe2e	0.043211155
5	0x3c10cd2f	0.008837982
6	0xbcf2e611	-0.02965072
7	0x3ce71a6d	0.028210843
8	0xbcc5ce4a	-0.024146218
9	0xbd0bd97d	-0.03414296
10	0xbd2f5d97	-0.042813864
11	0xbbef6e0d	-0.0073068202
12	0xbd1c5936	-0.038171016
13	0x3d552eaf	0.052046474
14	0x3d1d749f	0.038441297
15	0xbd2e50db	-0.04255758
16	0x3c53c633	0.012925672
17	0x3d050164	0.03247203
18	0x3c404ca6	0.011737024
19	0xbd4d8e6c	-0.050184652
20	0xbce41778	-0.027843222
21	0x3d4c84d2	0.049931355
22	0x3d32ef6e	0.04368537
23	0x3d0991d3	0.033586334
24	0x3c84d2fc	0.016213886
25	0x3d1d2d37	0.0383732
26	0xbc677dbd	-0.014129099
27	0x3b37cd58	0.0028045978
28	0x3d4d2a43	0.050089132
29	0x3b710678	0.0036777537
30	0x3c67979e	0.014135269
31	0x3d16ada2	0.036786683
32	0x3aaf2fb0	0.0013365652
33	0x3ba2c46c	0.004967263
34	0xbd1fb3a9	-0.038989697
35	0xbd5b1568	-0.05348721
36	0x3d04b42f	0.0323984
37	0xba69e954	-0.0008923013
38	0x3d3060a8	0.04306093
39	0xbd3115fe	-0.043233864
40	0xbd05c075	-0.032654244
41	0x3c4474b6	0.011990717
42	0xbb85637e	-0.0040706983
43	0xbc1ae08e	-0.009452952
44	0xbbc09941	-0.0058776443
45	0xbcfc296a	-0.030781467
46	0xbd152c16	-0.036418997
47	0xbd1e3213	-0.038621973
48	0x3c8e4910	0.017368823
49	0xbbc612bb	-0.0060447133
50	0xbca5ccdf	-0.020239292
51	0xbd5398fc	-0.05165957
52	0x3cc28690	0.023745805
53	0xbb1af2bb	-0.0023643214
54	0xbc9f0929	-0.019413548
55	0x3b8db10c	0.004324084
56	0x3d47f770	0.04881996
57	0x3cbe2fef	0.023216216
58	0x3d026008	0.031829864
59	0xbc5fe9cc	-0.013666581
60	0xbc0454c2	-0.008076848
61	0x3c5de870	0.013544187
62	0x3cb99861	0.022655668
63	0x3d002656	0.03128656
64	0x3c67ec69	0.014155486
65	0x3d2cf1bd	0.042222727
66	0xbcbc2895	-0.02296857
67	0xbcfb6cb2	-0.030691478
68	0x3ca4f09d	0.020134265
69	0xbd2e1acb	-0.04250602
70	0xbd0cc8d0	-0.034371197
71	0x3c202560	0.009774536
72	0x3baab6cc	0.0052097794
73	0xbd61ee4e	-0.055158906
74	0x3d29fc4a	0.041500367
75	0x3ce3f235	0.027825454
76	0x3c0b0f88	0.00848759
77	0x3c75298b	0.014963518
78	0xbc0fc9ea	-0.008776167
79	0x3d0e255d	0.0347036
80	0xbc2f1e0f	-0.010688319
81	0x3d3f8a4c	0.04676275
82	0xbcd76a4f	-0.02629581
83	0xbd4fb3ca	-0.05070857
84	0xbcc8fe5d	-0.024535352
85	0xbd28cd13	-0.0412112
86	0x3cc33bca	0.02383222
87	0xbc6110f7	-0.013736955
88	0xbc9d0da1	-0.019171538
89	0x3cde7e34	0.027159788
90	0x3d47a625	0.048742432
91	0xbd4a00fa	-0.049317338
92	0x3d58b22f	0.052904304
93	0xbb8f17f6	-0.00436687
94	0x3b75e759	0.0037521927
95	0x3cd2c759	0.025729822
96	0xbd20a747	-0.039222028
97	0xbbf8bf58	-0.0075911693
98	0x3cf68d99	0.030096816
99	0xbd58c4f1	-0.052922193
100	0xbcb244c6	-0.02176131
101	0x3b65146f	0.0034954806
102	0xbb1d973d	-0.0024046444
103	0xbaf044d3	-0.0018331058
104	0x3ceade7c	0.028670542
105	0x3d09da9d	0.03365575
106	0xbc569d88	-0.013099082
107	0x3c5f621c	0.013634231
108	0xbc8d0f73	-0.01721928
109	0xbcfc9562	-0.03083295
110	0xbc334bcf	-0.010943367
111	0x3cdd4507	0.027010454
112	0x3c351eea	0.011054734
113	0x3c4f9149	0.012668916
114	0x3cd4a980	0.02595973
115	0xbc275008	-0.010211952
116	0x3c5709bd	0.01312488
117	0xbd02d059	-0.031936977
118	0x3c34dd55	0.011039098
119	0x3ca9fc14	0.020750083
120	0x3aebd16b	0.0017991489
121	0xbcea892c	-0.028629862
122	0xbd1b883c	-0.03797172
123	0x3c0b0a00	0.008486271
124	0x3b9fd819	0.004878056
125	0xbce93e6f	-0.028472153
126	0x3bb6ecbb	0.0055824197
127	0x3bfe9ea1	0.007770375
128	0x3d224fbd	0.039626826
129	0x3c65f142	0.014034571
130	0xbd62a2f2	-0.055331178
131	0xbc75d49e	-0.015004305
132	0x3d1ffef6	0.03906151
133	0xbd0fbec3	-0.035094034
134	0x3d0aea41	0.03391481
135	0x3d126820	0.035743833
136	0x3d4dde13	0.050260615
137	0xbc671c71	-0.014105902
138	0x3d144224	0.03619589
139	0x3a34ff03	0.0006904455
140	0x3cde81ef	0.027161567
141	0xbcac47e4	-0.021030374
142	0xbce40244	-0.027833112
143	0x3c8bb82c	0.017055593
144	0x3d66264d	0.05618887
145	0x3c2608ac	0.0101339035
146	0xbd258ea4	-0.040419236
147	0xbd3630d3	-0.044480156
148	0xbd379812	-0.04482276
149	0xbc956021	-0.018234314
150	0xbcc1ac68	-0.02364178
151	0xbd15dc5d	-0.036587108
152	0xbd0c7db0	-0.034299552
153	0xbc800df2	-0.01563165
154	0xbcf6fcdf	-0.030149875
155	0x3d45dbfb	0.048305493
156	0xbc175349	-0.009236165
157	0x3b5452c8	0.0032397974
158	0x3d28cd29	0.04121128
159	0x3c752a37	0.014963678
160	0xbc83a546	-0.01607002
161	0x3b9ad4dc	0.004725082
162	0x3d358560	0.04431665
163	0xbce99e12	-0.028517757
164	0x3c7478ed	0.014921409
165	0x3d5af92a	0.053460278
166	0xbb6ea7d6	-0.0036415956
167	0xbcef9905	-0.02924777
168	0xbd1b87d6	-0.03797134
169	0xbb6d5202	-0.003621221
170	0x3ae88cc6	0.0017742149
171	0x3bd3f069	0.006467868
172	0x3d242ebc	0.040083632
173	0xbc7b1eff	-0.015327214
174	0xbd559728	-0.052146107
175	0x3d43972f	0.0477516
176	0x3cc1a8e1	0.023640098
177	0xbd1bb272	-0.038011976
178	0x3c9d6e5c	0.019217663
179	0xbc9a885a	-0.018863846
180	0xbca0af2a	-0.019614775
181	0x3a831a0d	0.001000227
182	0x3d29019b	0.041261297
183	0x3a03b115	0.00050236407
184	0xbd213d82	-0.0393653
185	0xbd403bb3	-0.046931934
186	0x3c5aa2b1	0.013344453
187	0x3c5d2444	0.013497416
188	0xbcefc8e2	-0.029270593
189	0xbc6fc185	-0.014633541
190	0x3bec2a29	0.0072071743
191	0x3c5f6226	0.01363424
192	0x3ce54ee3	0.027991718
193	0xbbc19b16	-0.0059083803
194	0x3cfa6e12	0.030570064
195	0x3cd796b5	0.02631698
196	0xbd371977	-0.04470202
197	0xbd077d08	-0.033078223
198	0xbce5726c	-0.028008662
199	0xbcfa4b29	-0.030553417
200	0xbb938a31	-0.0045025577
201	0xbc21c42a	-0.009873429
202	0xbc86ae49	-0.016440528
203	0xbc985a0b	-0.018597623
204	0x3d20b69c	0.03923665
205	0x3c92a368	0.017900184
206	0x3d1ef2e2	0.03880585
207	0xbca38678	-0.01996158
208	0x3c9a7657	0.018855257
209	0x3d263717	0.04057988
210	0xbd0c431e	-0.034243695
211	0xbd20f82e	-0.039299183
212	0x3cf463d8	0.029832765
213	0x3d0ad57e	0.03389501
214	0x3cfa193f	0.030529616
215	0x3d29a20a	0.041414298
216	0xb85abfc5	-5.215385e-05
217	0xbcd23d8f	-0.025664119
218	0x3b700819	0.003662592
219	0x3c4c31e1	0.012463064
220	0xbd299725	-0.04140391
221	0x3b2231cb	0.0024748917
222	0xbceb0f83	-0.02869392
223	0x3cd7cb95	0.026342193
224	0x3bdd08ca	0.0067454325
225	0x3d19736c	0.03746359
226	0xbd1f533b	-0.038897734
227	0x3ceb4764	0.028720565
228	0xbd464770	-0.04840797
229	0xbc1f16c6	-0.009710019
230	0x3d2fd5eb	0.042928617
231	0x3d3a2833	0.045448493
232	0x3d566821	0.0523454
233	0x3d22044f	0.03955489
234	0xbadea769	-0.0016987148
235	0x3cdf7d5f	0.027281461
236	0xbd415948	-0.047204286
237	0xbc89e717	-0.016833825
238	0x3d04185c	0.032249793
239	0xbd30be94	-0.0431505
240	0x3d12fcaf	0.03588551
241	0xbd29851e	-0.041386716
242	0xbc8c4bf4	-0.017126061
243	0xbd1760ac	-0.036957428
244	0x3d45c8d8	0.048287243
245	0xbd24faf9	-0.04027841
246	0xbd15df72	-0.036590047
247	0x3d45e55e	0.048314445
248	0xbd143fa0	-0.03619349
249	0xbd06fcc0	-0.032955885
250	0xbcab7560	-0.020929992
251	0xbd4cb450	-0.049976647
252	0xbd3a2ef2	-0.045454927
253	0xbc5de28a	-0.013542781
254	0xbc65e7b8	-0.014032297
255	0xbbf0d19b	-0.0073492057

base_model.model.bert.encoder.layer.1.attention.self.query.lora_B.weight f4 [384, 16]
0	0xbb77ff95	-0.0037841548
1	0x3a9d8bb1	0.0012019781
2	0x3b73b903	0.0037189133
3	0xbbd6aaff	-0.006551146
4	0xbb09177d	-0.002091854
5	0xb9a72b36	-0.00031884917
6	0x3a88a193	0.001042413
7	0xbbf184a8	-0.00737055
8	0xbbc80ff4	-0.0061054174
9	0x3b89361c	0.0041873585
10	0x3ae18e63	0.0017208572
11	0x3b2b0d6d	0.0026100532
12	0xba6c9df0	-0.000902622
13	0xb92716d5	-0.00015934867
14	0x3997015d	0.0002880198
15	0x3b458bdc	0.0030143177
16	0xbb371901	-0.0027938487
17	0x3a261260	0.00063351355
18	0x3ae1a6b2	0.0017215817
19	0xbb3ef5ad	-0.0029138133
20	0xbaaa5fd0	-0.0012998525
21	0xbb31a659	-0.0027107208
22	0x39ba0a2b	0.0003548426
23	0xbb041146	-0.0020151897
24	0xbac252b3	-0.0014825672
25	0x3b76d206	0.0037661805
26	0xba7b9863	-0.00095975975
27	0x3abf76c2	0.0014607536
28	0x39dede69	0.00042508848
29	0xba09a8b8	-0.00052512763
30	0xbab69fd2	-0.0013933128
31	0x3a1ecd46	0.000605781
32	0xba9f4942	-0.001215257
33	0xbb1745c6	-0.002308236
34	0x3abbd719	0.0014331072
35	0x39c7ea22	0.0003813068
36	0x3b3470d9	0.0027533083
37	0xbafdef04	-0.00193736
38	0x3b5a62af	0.003332298
39	0xb9e446f3	-0.0004354041
40	0x382bedaa	4.099092e-05
41	0x3aaa5dcf	0.0012997928
42	0x3b9a6e4d	0.004712856
43	0x3acfdf9a	0.0015859485
44	0xbb602dbd	-0.003420695
45	0x3b399125	0.0028315273
46	0x3b6c3b9f	0.003604628
47	0xb92a8d1a	-0.00016265028
48	0xbb0c4ff2	-0.0021409956
49	0x3a484949	0.0007640315
50	0x3addaf7e	0.0016913263
51	0xbb13e922	-0.0022569378
52	0xbb094c59	-0.0020950048
53	0xba7b2b0c	-0.00095813046
54	0x393052c7	0.00016815505
55	0xbb8aab36	-0.0042318357
56	0xbb0bb9d4	-0.002132048
57	0x3b0f7866	0.0021891831
58	0x3a9cda65	0.0011966942
59	0x3a48ccaa	0.0007659892
60	0xba411d5c	-0.00073667406
61	0xb9f3801b	-0.00046444018
62	0x3aa1ba5a	0.0012338862
63	0x3b8e2a6b	0.0043385527
64	0xbae82a3a	-0.001771278
65	0x3a0f06f1	0.00054560514
66	0x3b1afb4d	0.0023648322
67	0xbab7b65f	-0.0014016143
68	0x3a44ddf6	0.00075098814
69	0x3ac83d3d	0.001527704
70	0x3af08086	0.001834885
71	0xbb76c2c4	-0.003765271
72	0xbb3f97ed	-0.0029234842
73	0x3b24805a	0.0025100918
74	0x3b5e5d1b	0.0033930007
75	0x3aee3f92	0.0018176904
76	0xbb03303c	-0.0020017764
77	0x3a7485e6	0.0009327814
78	0x3b90b598	0.004416179
79	0x3ba96231	0.005169176
80	0xbac3be7b	-0.0014934087
81	0x3aa43bd2	0.0012530035
82	0x3ad93438	0.0016571349
83	0xbaaf0c18	-0.0013355045
84	0xbb4032b5	-0.0029327099
85	0xb9830582	-0.0002499037
86	0xba04d917	-0.00050677493
87	0xbb59f7a3	-0.0033259175
88	0xbb0ab4c9	-0.0021164885
89	0x3b0a1548	0.0021069814
90	0x3ab2fe63	0.0013656135
91	0x3a013f9d	0.00049304386
92	0xba1ae9c7	-0.00059094693
93	0xba82281c	-0.0009930166
94	0x3add597e	0.0016887633
95	0x3bac3d82	0.0052563557
96	0xbb219007	-0.0024652497
97	0x3ae0712c	0.0017123572
98	0x3a606e12	0.00085613236
99	0xbb5ac12d	-0.0033379302
100	0xbb164303	-0.0022928126
101	0xbb021381	-0.001984805
102	0xba47b9bf	-0.0007618926
103	0xbb40e159	-0.0029431193
104	0xba2ce840	-0.0006595887
105	0x3b232589	0.00248942
106	0x38201ec1	3.8175614e-05
107	0xb9bbf29c	-0.00035848178
108	0x394f0adc	0.00019745104
109	0xbaa1940e	-0.0012327449
110	0x397154f0	0.00023015193
111	0x3b543800	0.0032382011
112	0xbb634f86	-0.003468485
113	0x3a1c5885	0.0005964118
114	0x3ad96af7	0.0016587664
115	0xbb1c289f	-0.0023827923
116	0xbb0587f1	-0.0020375217
117	0xba9bef9f	-0.0011896974
118	0x3a090705	0.0005227181
119	0xbb9069a6	-0.0044071255
120	0xbb53e47f	-0.003233224
121	0x3b0a52f4	0.0021106573
122	0x3a48f9bd	0.00076666084
123	0x3a97354e	0.0011536272
124	0xba225fff	-0.0006194114
125	0xb95931c6	-0.00020713275
126	0x399ec392	0.0003028182
127	0x3b36aac7	0.0027872787
128	0xbad2617f	-0.0016050785
129	0xbb08e49e	-0.002088822
130	0x3ada6f72	0.0016665293
131	0xbaded98a	-0.0017002088
132	0x3ae7fdae	0.0017699504
133	0xba2af07f	-0.0006520822
134	0x3a007488	0.0004900177
135	0xbae526dc	-0.0017482894
136	0xbab164f4	-0.0013534115
137	0x3aeb75e4	0.0017964211
138	0x3b1c11aa	0.002381424
139	0x3a8c9fa6	0.0010728731
140	0xbb3565df	-0.0027679128
141	0x39c9401b	0.0003838547
142	0x3b8c9962	0.0042907456
143	0x3b8713e6	0.004122245
144	0xba702b80	-0.00091617554
145	0xbb3811d8	-0.0028086808
146	0x3b09a911	0.0021005312
147	0x39ab87cd	0.0003271684
148	0x3b36aa01	0.0027872326
149	0x3ab7c89e	0.001402158
150	0x3babdb2e	0.005244634
151	0xba98f951	-0.0011670982
152	0xbab6ce25	-0.0013946934
153	0x3abed238	0.00145585
154	0x3bc3b0dc	0.005972011
155	0x3b2d73e3	0.002646678
156	0xbbb661be	-0.005565851
157	0x3bc6d8bd	0.0060683177
158	0x3b9856bd	0.004649012
159	0x39d11419	0.0003987856
160	0x3ab85706	0.0014064021
161	0x3a350bb0	0.00069063436
162	0xb9db8821	-0.0004187236
163	0xb9ad6db6	-0.00033078872
164	0x3b2393ab	0.0024959843
165	0x3b024782	0.0019879048
166	0x3a885133	0.0010400176
167	0x39a5aad2	0.00031598523
168	0xb913b485	-0.00014086261
169	0xbaab02b7	-0.0013047074
170	0xb673b2b4	-3.631384e-06
171	0x39e8155c	0.00044266402
172	0x3a8966a4	0.001048286
173	0x3aad8aed	0.0013240256
174	0xbb3654d4	-0.0027821558
175	0xbb6c2c2f	-0.0036037078
176	0x3b4e760c	0.0031503467
177	0xba94247e	-0.001130238
178	0xbb3d27fc	-0.0028862944
179	0x3b78456e	0.003788318
180	0x3ab8586c	0.0014064438
181	0x3a161564	0.00057252333
182	0xb9adcf19	-0.0003315143
183	0x3b6356d6	0.003468921
184	0x3b24f726	0.0025171726
185	0xbb7ec978	-0.003887741
186	0xba0ec9e5	-0.0005446955
187	0xbad3e0e7	-0.0016165049
188	0x39b738b5	0.0003494673
189	0x3951746d	0.00019975165
190	0xb9b766f0	-0.00034981174
191	0xbb010269	-0.0019685274
192	0x3ab866cb	0.0014068721
193	0x3b3d4fb5	0.002888662
194	0xbb34c5e7	-0.002758378
195	0x3b06700d	0.0020513565
196	0xbb4a0d10	-0.003083054
197	0x3ab8f6cf	0.0014111641
198	0xbaf6d72e	-0.0018832439
199	0x3b0477ff	0.0020213125
200	0x3b0b667c	0.0021270802
201	0xbb4954f3	-0.00307208
202	0xbbaf34cf	-0.0053468714
203	0xbb0dd85c	-0.0021643853
204	0x3b7f6b00	0.003897369
205	0xbb1aa12e	-0.0023594606
206	0xbbb23810	-0.005438812
207	0xbb76dd4a	-0.003766852
208	0x3babb678	0.005240258
209	0xb900ad49	-0.00012271585
210	0xbba0dacb	-0.0049088947
211	0x3ba889d5	0.005143384
212	0x3acc9184	0.0015607332
213	0x3b07bd8a	0.002071234
214	0xbb2e034f	-0.0026552265
215	0x3b87081c	0.0041208398
216	0x3b633bcf	0.00346731
217	0xbbd8f5b8	-0.006621089
218	0xbad560fb	-0.0016279513
219	0xbb5dbe59	-0.003383538
220	0x3ac895ec	0.0015303469
221	0xba83a1af	-0.0010042692
222	0xb93bf1ae	-0.00017923742
223	0xbb14fcb2	-0.0022733626
224	0xbb259433	-0.0025265336
225	0xb99eaed2	-0.0003026636
226	0x39cecc5c	0.0003944364
227	0xba7d5f1c	-0.00096653565
228	0xbb01259e	-0.001970626
229	0xba54b1dc	-0.00081136613
230	0xb9c4152c	-0.00037399807
231	0xbb46f335	-0.0030357365
232	0xb9efebb2	-0.0004576124
233	0x3ab9b32e	0.001416778
234	0xb99f443a	-0.00030377676
235	0xb9f1d398	-0.00046124752
236	0x3887397a	6.4480075e-05
237	0xbad8d46f	-0.0016542802
238	0x3a9ff985	0.00122051
239	0x3b5712e8	0.0032817665
240	0x3af31d9f	0.0018548256
241	0x3ad79eea	0.0016450558
242	0xbb26a46a	-0.0025427588
243	0x3a70880a	0.0009175545
244	0xbb087dd5	-0.0020826955
245	0x3aab2f34	0.0013060332
246	0xbb773d5b	-0.003772578
247	0x3ad2f833	0.0016095698
248	0x3aa334ad	0.0012451612
249	0xbb632e74	-0.003466514
250	0xbba36415	-0.004986296
251	0xbb0a5d6b	-0.002111281
252	0x3b731210	0.0037089624
253	0xbb20a98f	-0.0024515127
254	0xbb8844d2	-0.0041585946
255	0xbb1d8a61	-0.002403878

base_model.model.bert.encoder.layer.1.attention.self.value.lora_A.weight f4 [16, 384]
0	0x3cf467f4	0.029834725
1	0x3d018e68	0.03162995
2	0x3c1e670b	0.009668122
3	0xbd146ba9	-0.036235485
4	0xbb2eb0b5	-0.0026655619
5	0xbcc1ddc6	-0.02366532
6	0xbd3e6c57	-0.04649004
7	0xbcea1878	-0.02857612
8	0xbcbb3b3c	-0.022855394
9	0x3b932f86	0.004491749
10	0xbd6f0053	-0.05834992
11	0x3d08b36a	0.033374228
12	0x3d0c5ca0	0.03426802
13	0x3b84b711	0.0040501435
14	0xbcd7de29	-0.026351051
15	0x3d0b039e	0.033938996
16	0x3d31e898	0.04343471
17	0x3cb007fa	0.021488179
18	0xbc126c15	-0.008936902
19	0x3cee6cde	0.029104646
20	0x3c0c44f3	0.008561361
21	0x3cd08451	0.025453718
22	0x3b8abef6	0.00423419
23	0x3d042eef	0.032271322
24	0x3b4e4cc1	0.0031478854
25	0x3c587fa8	0.013214029
26	0xbcc75da1	-0.024336638
27	0x3c921735	0.017833332
28	0xbc9de205	-0.019272814
29	0xbbc8c752	-0.0061272765
30	0xbcf57cde	-0.029966768
31	0x3c84279c	0.016132168
32	0x3c46c095	0.012130876
33	0xbd0cf582	-0.034413822
34	0xbbb1527e	-0.005411445
35	0x3d4c5074	0.049881414
36	0xbced5016	-0.028968852
37	0x3d0af19a	0.033921815
38	0x39120f5d	0.00013929368
39	0xbc8e74c3	-0.01738966
40	0xbc9fcaf8	-0.019505963
41	0x3a8a864c	0.0010568588
42	0x3d01014e	0.031495385
43	0x3c6b065c	0.014344778
44	0x3c1e9d1e	0.009681014
45	0x3d5b0c06	0.053478263
46	0x3aa9063d	0.0012895536
47	0x3c565631	0.013082073
48	0x3d00f144	0.03148009
49	0x3c8d5291	0.017251285
50	0xbd6c2be0	-0.05765903
51	0x3cf01993	0.02930907
52	0xbd30b1fa	-0.04313848
53	0xbd190654	-0.03735955
54	0xbcb8385b	-0.02248781
55	0x3cc7bac1	0.024381043
56	0x3cf2cdb4	0.029639103
57	0xbc79fc56	-0.0152579155
58	0x3c42b18d	0.011883152
59	0x3d71d515	0.0590411
60	0xbc90c161	-0.017670335
61	0x3cbc1996	0.02296142
62	0xbcf47464	-0.029840656
63	0x3bcc697d	0.006238161
64	0xbc464b60	-0.012102932
65	0xbd361112	-0.044449873
66	0x3ce99e82	0.028517965
67	0x3bb2eba9	0.005460222
68	0x3d3cc749	0.04608849
69	0x3bd8e66f	0.0066192667
70	0x3d435b46	0.047694467
71	0x3d2db51e	0.042409055
72	0x3d09542b	0.033527534
73	0x3cbbdd95	0.022932807
74	0x3a81ab75	0.0009893017
75	0x3d0b12f5	0.033953626
76	0x3ccb2367	0.024797155
77	0x3cade4f3	0.021227336
78	0x3c184bce	0.009295417
79	0x3c4adc7e	0.012381671
80	0x3ccdbd30	0.025114626
81	0xbcff69ed	-0.031178439
82	0xbca80844	-0.020511754
83	0xbc90d3f4	-0.017679192
84	0xbce0e856	-0.027454536
85	0x3cf919a9	0.030407744
86	0xbc0743a7	-0.008255876
87	0x3d3b7f44	0.045775667
88	0x3d05f99b	0.032708745
89	0xbbf09798	-0.00734229
90	0x3d140b61	0.036143664
91	0x3c8962ac	0.016770683
92	0x3c87f8d9	0.016598152
93	0x3d5ef429	0.054432068
94	0x3d49074b	0.04907922
95	0xbd21d139	-0.03950617
96	0xbb16acdf	-0.0022991223
97	0x3d61d19e	0.055131547
98	0xbc450714	-0.012025613
99	0x3c5f3fc2	0.013626041
100	0xbacb3f30	-0.0015506502
101	0x3cd69b1f	0.026197014
102	0xbcbc1f0a	-0.02296402
103	0x3cf57f05	0.029967794
104	0xbcfd740c	-0.030939125
105	0x3d60b91a	0.054864027
106	0xbd2146c3	-0.039374124
107	0x3c310f99	0.010806941
108	0x3c8ef624	0.017451353
109	0xbcc25dc1	-0.023726346
110	0x3d3fe8dd	0.046852935
111	0x3ca80d88	0.020514265
112	0xba4b7188	-0.0007760753
113	0x3bdc27ef	0.0067186276
114	0x3c6c8ccd	0.014437866
115	0x3cf5abfa	0.029989231
116	0x3c92dc97	0.017927451
117	0x3d45e2c7	0.048311975
118	0x3d180d03	0.037121784
119	0x3c8ae209	0.016953485
120	0x3d7388f6	0.059456788
121	0x3c89afce	0.016807463
122	0x3ca04725	0.019565174
123	0xbd57365e	-0.052542083
124	0x3cf36058	0.029709026
125	0x3cd2b440	0.025720716
126	0xbcb758f9	-0.022381293
127	0xbd3624db	-0.044468742
128	0x3cf3d44e	0.02976432
129	0xbc12d7fb	-0.008962627
130	0xbd00609b	-0.03134213
131	0xbd2d9ac2	-0.042383917
132	0x3cb6b2bc	0.022302024
133	0x3d1ff9a4	0.039056435
134	0x3bd0de78	0.0063741766
135	0x3d331cba	0.043728568
136	0x3d59d7f4	0.053184465
137	0x3b8fa353	0.0043834834
138	0x3d48f8d0	0.04906541
139	0x3d4277e2	0.04747761
140	0x3cbbc813	0.022922551
141	0x3ba85b48	0.0051378347
142	0x3d197838	0.037468165
143	0x3ce64065	0.028106878
144	0x3d07d555	0.033162434
145	0xbc373f28	-0.011184491
146	0xbd42ec07	-0.047588374
147	0xbc8dea97	-0.017323775
148	0x3d325b0a	0.043543853
149	0x3b8986c1	0.004196972
150	0xbafa99b8	-0.0019119298
151	0x3c191913	0.009344357
152	0x3c5027b8	0.012704782
153	0xbd078985	-0.033090133
154	0x3d2e1e71	0.0425095
155	0xbd0f0dcc	-0.034925267
156	0x3c96e85b	0.018421343
157	0x3c13f4c2	0.009030523
158	0x3c613a4e	0.013746811
159	0x3cb05a59	0.021527456
160	0x3cd971a0	0.026543438
161	0xbd208717	-0.03919133
162	0xbd2d9f43	-0.042388212
163	0x3d0da171	0.03457779
164	0xbb57737c	-0.003287523
165	0xbd6405ee	-0.055669717
166	0xbb4dd312	-0.0031406325
167	0xbcab4093	-0.020904815
168	0xbb5aca6f	-0.003338482
169	0x3cdca9ba	0.0269364
170	0x3d091887	0.033470657
171	0x3cf06a8b	0.029347679
172	0xbcbb122e	-0.022835817
173	0x3d1bd9ef	0.038049635
174	0x3cd657b4	0.026164867
175	0x3d2b2faf	0.04179352
176	0xbd233e4b	-0.03985433
177	0xbc717a51	-0.014738635
178	0xbce25de0	-0.027632654
179	0x3d059ed1	0.032622162
180	0x3c2d74fb	0.010586972
181	0xbd65d864	-0.05611457
182	0x3d2c042c	0.041996166
183	0x3cf46ca3	0.029836958
184	0xb976c580	-0.00023533963
185	0xbc20d1a4	-0.009815607
186	0x3d088981	0.03333426
187	0x3d38c1d7	0.045106735
188	0xbd05f276	-0.032701932
189	0xbccb5613	-0.024821317
190	0xbc22aea2	-0.009929331
191	0xb9ccdb44	-0.00039073278
192	0xbccb2e51	-0.024802359
193	0x3d2e8a2c	0.04261224
194	0x3cd851c7	0.026406182
195	0xbd239ab9	-0.039942477
196	0x3b855e8d	0.004070109
197	0x3bc62de5	0.0060479515
198	0x3ae761e9	0.0017653081
199	0x3c7f5754	0.0155847855
200	0xbcaf07df	-0.021366058
201	0x3d2b9e2e	0.0418989
202	0xbb897d53	-0.004195848
203	0x3d21d553	0.039510082
204	0xbcbf6286	-0.02336241
205	0x3c186b41	0.009302915
206	0xbca85651	-0.020548971
207	0x3d4590e2	0.048233874
208	0xbd1c3549	-0.038136754
209	0xbd1fe0ef	-0.039032873
210	0x3c904140	0.017609239
211	0xbc484a45	-0.0122247385
212	0x3a87ac2e	0.0010350996
213	0xbd0e0b98	-0.034679025
214	0x3b95cf03	0.004571797
215	0xbb99a592	-0.004688927
216	0xbc284964	-0.010271404
217	0x3d1d9ed7	0.03848156
218	0x3b8a0bbd	0.004212825
219	0x3c6957ba	0.014242107
220	0x3bd3616b	0.006450822
221	0xbd68d117	-0.05684003
222	0xbc33e48a	-0.010979781
223	0x3bf09acf	0.0073426734
224	0xbd4b7a2e	-0.049677067
225	0x3d2c70ba	0.042099692
226	0xbcc135d6	-0.023585241
227	0xbd58c8de	-0.052925937
228	0xbd475ab4	-0.048670486
229	0x3cc55229	0.024087029
230	0x3c841b57	0.016126318
231	0xbaaa0046	-0.0012970052
232	0xbd49f01d	-0.049301255
233	0x3c1280de	0.008941857
234	0x3cd8017a	0.026367892
235	0xbd00ac2d	-0.0314142
236	0xbc881074	-0.016609408
237	0x3d11145c	0.035419807
238	0x3ceb5f3d	0.028731937
239	0xbc83f72b	-0.01610907
240	0x3c95f9c7	0.01830758
241	0x3d4fc78e	0.05072742
242	0xbb885d0c	-0.0041614827
243	0x3d103294	0.035204485
244	0xbd283e5c	-0.041075096
245	0x3c0dcd8e	0.008654965
246	0xbc3f71b5	-0.011684825
247	0xbd112c28	-0.0354425
248	0x3cdcc9dd	0.026951725
249	0x3d3b185c	0.045677528
250	0xbce1a042	-0.027542237
251	0x3d1bf0c4	0.03807141
252	0xbba8f7dd	-0.0051565007
253	0xbac6f75b	-0.0015179919
254	0x3bb90e2c	0.0056474414
255	0xbb3e89a1	-0.0029073732
