lora_crossencoder_no_instruction_1/checkpoint-389/adapter_model.safetensors (safetensors, 594924 bytes, 25 tensors)

base_model.model.bert.encoder.layer.0.attention.self.query.lora_A.weight f4 [16, 384]
000000 62 82 02 bd e5 70 0e 3d b0 fd d5 3c 63 c7 3a 3d
       -0.031862624 0.034775633 0.026121944 0.045600306
000010 1d e1 02 3d fa 82 37 3d d7 ea 12 3d 56 35 42 bd
       0.031952966 0.044802643 0.035868492 -0.047414146
000020 d5 d5 13 bd 1c bc 2e bd 65 ab 35 bd 47 39 02 bd
       -0.036092598 -0.042659864 -0.044352908 -0.031792905
000030 65 fc 42 bd 6d ab 9d 3c 59 56 11 bd fa 1e 69 3b
       -0.047603983 0.019246781 -0.03548274 0.0035571442
000040 05 2c 46 3d ac 60 a3 3c 37 fb a6 bc 40 21 76 bc
       0.048381824 0.019943558 -0.02038346 -0.015022576
000050 2c a9 f6 bc 04 c0 7a bc 6b eb b0 3c 0e f3 09 3a
       -0.030109964 -0.015304569 0.021596631 0.0005262353
000060 8a 06 33 3d a4 32 5a 3d 71 06 a3 3c 96 2e 7c 3b
       0.043707408 0.05327095 0.019900532 0.0038479916
000070 1d 55 0c bd db 74 46 bc 5c 95 2a 3d 97 71 05 3d
       -0.034260858 -0.012112821 0.041646346 0.03257903
000080 2c 1e 28 bc 76 4c 01 bc 42 c0 a3 3c d6 48 14 bc
       -0.0102611 -0.007891765 0.019989137 -0.009050569
000090 a2 76 91 bc 27 68 9b bc 6a d6 69 bc 21 0d 82 bb
       -0.017756764 -0.018970562 -0.014272312 -0.0039688502
0000a0 43 79 01 3c 80 46 05 3d 03 b6 55 3d 94 a8 e5 bb
       0.007902446 0.032537937 0.052175533 -0.0070086215
0000b0 40 f6 9b 3c 3d 74 1b bd a0 45 da 3a 07 c4 b8 bc
       0.01903832 -0.03795265 0.001665283 -0.02255441
0000c0 56 ed 8e bc f4 08 b1 3c 9e c8 76 3c 9d 67 16 3b
       -0.017447155 0.021610714 0.015062479 0.0022949942
0000d0 da 67 29 3d f7 d3 09 3d 25 ba 16 bd f9 13 78 bb
       0.041358806 0.03364941 -0.036798615 -0.0037853702
0000e0 c2 44 28 3c 6d a1 b1 3c 0b 11 fd bb 93 97 dc 3c
       0.010270299 0.02168342 -0.007722979 0.026927745
0000f0 c3 f7 41 3c e2 69 0b 3d 8a 40 95 3c 19 f6 1b 3d
       0.011838856 0.034036525 0.018219251 0.038076494
000100 e3 1a 13 3d 61 59 0f 3d 41 27 7c 3c dc 66 e1 3c
       0.035914313 0.034997348 0.015390218 0.027514867
000110 5b 08 59 3c be 41 0e bd b2 31 f7 3c cd 87 1b 3d
       0.013246621 -0.034730665 0.030175064 0.037971307
000120 4c f7 04 3b eb bd 2f 3d 33 3b 07 3d 14 bd d0 3c
       0.0020289002 0.04290573 0.03301544 0.025480784
000130 a7 e4 29 bd a4 59 00 3d 63 8c fc bc 04 4c d8 3b
       -0.041477825 0.031335488 -0.03082866 0.0066008586
000140 15 2d 8f bc f8 9a af bc 0a 5f ab 3b 06 99 00 3d
       -0.017477551 -0.0214362 0.0052298354 0.031395935
000150 1e ba 3b bb 02 06 b7 bc 78 79 3d 3d aa 13 77 3c
       -0.002864487 -0.022341732 0.04625842 0.015080372
000160 26 bb 3f 3d 4a 5c 1e bd 8f f2 e6 bc 84 25 23 3c
       0.046809338 -0.038662232 -0.028191833 0.009957675
000170 a6 9c 04 3c e2 32 93 bb f0 05 b6 bc 20 5c c0 3b
       0.0080939885 -0.0044921497 -0.022219628 0.005870357
000180 6d d5 43 3d 6c 79 93 3c 32 74 af bc eb b9 14 3c
       0.04781096 0.018002234 -0.02141771 0.009077529
000190 b0 ee 40 bd 12 1a 42 bd 68 f0 63 bc 46 cf e9 3b
       -0.04710263 -0.047388144 -0.013912298 0.0071353046
0001a0 de b1 34 bd c5 dd 96 bc 52 92 0f bc 8f 63 2f 3d
       -0.04411494 -0.018416295 -0.008762913 0.042819556
0001b0 f7 e6 64 3c 8c d3 41 3d fb c0 6e bc 1b 6f df bc
       0.013971082 0.047320887 -0.014572377 -0.027274659
0001c0 11 0c df 3c 7f b4 1d 3d ec 0f 34 bd 07 c1 49 bd
       0.027227433 0.038502213 -0.043960497 -0.04925635
0001d0 31 bb 5c 3b 16 38 41 3c 41 54 dd 3c a7 ae 8c 3c
       0.003368091 0.011793157 0.027017714 0.017173124
0001e0 b3 53 40 bd 0c 2c 98 bc 87 eb 86 bc 06 5c 2b bd
       -0.04695482 -0.01857569 -0.01646973 -0.041835807
0001f0 2d e5 cf bc 93 64 e5 bc ef 71 a4 3c 8c 75 b0 bc
       -0.025377834 -0.02800206 0.020073859 -0.021540426
000200 62 b8 b2 3c 38 ac 4e bb 73 95 1e 3d ce a3 ee bc
       0.021816436 -0.0031535756 0.038716745 -0.029130843
000210 33 3e 6a bc 84 dd 81 3a 6f e7 1e 3c f7 81 45 3a
       -0.014297056 0.0009907936 0.009698733 0.000753432
000220 bf d6 2c 3b d1 81 8a 3c b5 41 08 bd 2b 3b 6c bc
       0.0026373116 0.016907604 -0.033265788 -0.014418404
000230 94 f1 3e 3d 56 53 c8 bc d0 6f 70 bc e5 11 27 3c
       0.046617106 -0.0244538 -0.014675096 0.0101971375
000240 34 68 d8 3c 4f 96 0a bb 3a 35 22 3b df 8a 15 3d
       0.026416875 -0.002114672 0.0024750964 0.03650939
000250 1f 8e d8 bc 43 0a 04 3d de 14 fc bc 95 e1 ce bc
       -0.026434956 0.03223635 -0.030771669 -0.02525405
000260 18 bf 1d bb 0d 9d 3a bd f2 cb e8 bc 5b 63 e2 3c
       -0.00240702 -0.04555993 -0.028417561 0.027635267
000270 f7 bd 0a 3d f5 72 ed bc 83 13 0d bd dc 13 8e 3c
       0.03387257 -0.02898548 -0.034442436 0.017343454
000280 2b e7 45 3c 63 95 8e bc d7 bc 8b bc d7 87 42 3d
       0.0120790405 -0.017405218 -0.01705782 0.04749283
000290 82 7f 01 3d 5e 48 a2 3b 19 39 e4 ba f2 3f 2b bd
       0.03161574 0.0049524745 -0.0017412036 -0.04180903
0002a0 a2 0a ab 3c c6 38 25 3d 85 93 24 3c 7d 94 10 bd
       0.020879094 0.040337346 0.010044937 -0.03529786
0002b0 1d be 0e 3d a3 fa 28 3d 4e 51 06 bd d5 08 e7 3c
       0.034849275 0.04125465 -0.032792382 0.028202454
0002c0 68 d5 08 bd ef 2c 52 bd ab fe a2 bc ab 60 1f 3d
       -0.033406645 -0.051312383 -0.019896826 0.03891055
0002d0 06 9e 1b bd 10 83 28 3c 3a 3a 08 bd 24 03 00 bd
       -0.0379925 0.010285154 -0.033258654 -0.031252995
0002e0 dd 68 92 3c 69 40 3b bd 87 b0 3f bc 6c 32 30 3d
       0.017872268 -0.045715723 -0.011699802 0.043016836
0002f0 1b 76 89 bc 1e 8b d1 39 09 f9 44 3d 51 53 0d bc
       -0.01677995 0.00039967237 0.04808906 -0.008625821
000300 df b9 fd bc 72 66 32 3d 5d 1c 02 bd 34 08 2a bd
       -0.03097242 0.04355473 -0.03176533 -0.04151173
000310 83 40 c2 bc 4f 63 24 bd 71 14 49 bc 4c 5d de bc
       -0.023712402 -0.04013377 -0.01227294 -0.027144097
000320 f3 a7 e0 3b 7e 9a 30 bd e3 be 8e ba 20 fa b2 ba
       0.0068559586 -0.043116085 -0.0010890629 -0.0013654865
000330 bf 7d 13 bc 7a bc 07 3b f3 3b 41 3d 79 d8 e6 3c
       -0.009002148 0.0020711706 0.047176313 0.028179394
000340 71 d9 6f 3c 67 ee 00 bd a6 4d 55 bd e1 73 34 bc
       0.014639244 -0.03147736 -0.052076004 -0.011013956
000350 d9 0e 1c bd da f8 43 bc f2 bc 48 3d 95 8c fc bc
       -0.038100097 -0.011961186 0.049008317 -0.030828753
000360 7d 76 81 3c ce ae 1c 3d 45 5f 2d bd b6 56 9f 3a
       0.01580357 0.038252644 -0.042327184 0.0012156579
000370 d4 9a a9 3c 9d a4 49 bd 38 32 76 3c 70 49 81 3c
       0.02070371 -0.049229253 0.0150266215 0.015782088
000380 1e 3d f7 3c 66 56 81 bb 2e dc 8e 3a a6 3d 9c bc
       0.03018051 -0.003947067 0.0010899359 -0.019072365
000390 c5 61 db 3b 1d 06 b5 3c 00 ac bd 3c 27 e2 38 3d
       0.0066950046 0.022097642 0.023153305 0.04513755
0003a0 57 7f 11 bc 61 c1 bd bc f2 f0 3c 3d 6e 26 8e bc
       -0.008880458 -0.0231635 0.04612822 -0.01735231
0003b0 a5 55 f2 3b 5a cf e3 bb 58 f8 d3 3c ab 8a 09 bd
       0.0073954635 -0.0069522085 0.025875255 -0.03357951
0003c0 07 db f3 3c c7 13 1d 38 9f 93 1a bd 57 86 01 bd
       0.029767526 3.7450136e-05 -0.03773844 -0.031622257
0003d0 79 fc 16 bd 6a 1f 02 bd 1b 55 b0 3c c2 47 3b ba
       -0.03686187 -0.03176824 0.021524956 -0.00071441766
0003e0 c2 79 13 bc 2b 06 36 3d 12 99 e2 3c 34 ab 05 3d
       -0.009001197 0.044439476 0.02766088 0.032633975
0003f0 e7 fb f3 bc 10 aa 2c 3d e5 87 3e bd a6 a6 32 bc
       -0.029783202 0.04215437 -0.046516318 -0.01090399

base_model.model.bert.encoder.layer.0.attention.self.query.lora_B.weight f4 [384, 16]
000000 f1 ad 42 bb ce d6 49 3b c3 56 2f bb 46 77 50 3b
       -0.0029705728 0.00307982 -0.0026754595 0.0031809374
000010 fe 09 2f 3b 5b 52 3e 3b b0 bf 06 3b ba 81 4b 3b
       0.0026708837 0.0029040787 0.0020561032 0.0031052665
000020 32 bd e7 ba bf e6 49 bb 83 4e 5b bb 7c 37 16 bb
       -0.0017680286 -0.0030807701 -0.0033463545 -0.0022921255
000030 0e ef 32 3b 13 d5 31 3b d4 c6 40 bb 2c 22 4a bb
       0.0027303132 0.0027135059 -0.0029415386 -0.0030843122
000040 61 21 32 bb 7f e3 39 3b 64 f0 59 bb 01 6c 39 3b
       -0.002718054 0.0028364358 -0.0033254856 0.0028293135
000050 d2 1f 76 3a 1c 8e 2e 3b 0c e0 27 3b 55 94 36 3b
       0.0009388897 0.0026634997 0.002561572 0.002785941
000060 91 07 25 bb 3f 60 45 bb b1 f9 3e bb f0 15 2b bb
       -0.0025181512 -0.0030117182 -0.0029140527 -0.0026105605
000070 39 46 2c 3b 4b 32 2b 3b bc 4f 2e bb f1 3d 2b bb
       0.0026286973 0.0026122506 -0.0026597818 -0.002612945
000080 6f a0 31 3b 5a eb 2d bb 1d fc 50 3b 22 45 40 bb
       0.0027103683 -0.0026537986 0.0031888552 -0.0029338081
000090 7f b6 7e 3a 71 25 29 bb e8 88 5a bb 96 99 40 bb
       0.0009716525 -0.002580967 -0.0033345763 -0.002938842
0000a0 8c 6a 59 3b f6 f5 46 3b 09 6b 59 3b 30 ed 4b 3b
       0.003317508 0.0030359006 0.003317537 0.0031116717
0000b0 63 7e 40 bb 8e 11 39 bb 28 a3 35 3b 18 e1 4c 3b
       -0.0029372207 -0.0028239223 0.0027715657 0.0031262096
0000c0 01 e6 40 3b 4a af 43 bb a5 0c 3b 3b 37 81 3d bb
       0.0029433968 -0.002985912 0.0028541472 -0.002891613
0000d0 d0 04 01 bb db cb 46 bb a1 f6 5e b7 b1 bc 59 bb
       -0.0019686706 -0.003033391 -1.3289654e-05 -0.003322404
0000e0 2b 1d a9 ba 0b 04 b6 3a 47 02 3d 3b c1 c9 05 3b
       -0.001290237 0.0013886703 0.0028840469 0.0020414444
0000f0 7a 73 4b bb 3e 28 48 bb 68 61 37 3b 58 d0 42 3b
       -0.0031044171 -0.0030541564 0.0027981643 0.0029726233
000100 20 60 38 3b b0 e4 b5 ba 18 ac 25 3b cd e4 26 bb
       0.0028133467 -0.0013877358 0.0025279578 -0.0025465966
000110 f1 1d fe 3a 98 c5 1b bb d3 70 19 bb e4 5a 42 bb
       0.0019387585 -0.0023768898 -0.0023413196 -0.0029656226
000120 32 f7 06 3b df f5 cc 3a 31 00 1d 3b 86 e2 1a 3b
       0.0020594117 0.001563724 0.0023956413 0.0023633554
000130 b3 27 1c bb 27 12 25 bb ff 54 16 3b 4c 3d 34 3b
       -0.0023827374 -0.0025187822 0.0022938845 0.0027502356
000140 32 8a 33 bb bd 47 32 3b d8 24 5a bb 37 f5 3e 3b
       -0.0027395603 0.0027203404 -0.003328612 0.0029137859
000150 03 fe c5 3a 8b ac 2d 3b 96 07 34 3b 2f 35 3c 3b
       0.0015105609 0.0026500549 0.0027470342 0.0028718223
000160 a6 17 c5 ba c1 c2 4c bb 07 6e 40 bb 58 5c 36 bb
       -0.0015036955 -0.0031244012 -0.0029362456 -0.0027826037
000170 3d 83 31 3b 49 ca 2c 3b b7 30 2f bb 2c 34 2c bb
       0.002708628 0.0026365689 -0.0026731917 -0.0026276214
000180 73 58 11 bb fb d1 05 3b ac 94 47 bb 4c 38 20 3b
       -0.0022177964 0.0020419348 -0.0030453606 0.0024447618
000190 0b f4 04 39 81 ab 0e 3b 3f 21 5a 3b 92 9d 2e 3b
       0.00012679414 0.0021769705 0.0033283976 0.0026644212
0001a0 94 0c 63 ba 87 ae 19 bb ab 43 3f bb d8 08 36 bb
       -0.0008661237 -0.0023449974 -0.002918462 -0.0027776267
0001b0 4b 9e 2a 3b 37 84 1f 3b 5c 11 0e bb 67 46 1a bb
       0.0026034291 0.002434028 -0.0021677827 -0.0023540498
0001c0 96 a0 0c bb 83 b5 32 3b 32 41 8b ba b8 1a 00 3b
       -0.0021458021 0.0027268834 -0.0010624288 0.0019547176
0001d0 0d e8 21 3b f9 e0 0b 3b 76 7a 9c ba 8c d9 49 39
       0.0024704963 0.002134381 -0.0011938352 0.00019249896
0001e0 82 93 9c ba 33 3c 05 bb 77 f2 e7 b9 27 b8 ec ba
       -0.0011945816 -0.002033007 -0.00044240404 -0.0018060253
0001f0 ea b1 e4 3a 57 d1 0f 3b 90 3e 2e bb e9 79 b0 ba
       0.0017448042 0.0021944845 -0.0026587583 -0.0013464066
000200 b3 61 57 3b c0 87 5c bb 7a ce 4f 3b 14 d2 5e bb
       0.003286463 -0.003365025 0.0031708763 -0.0033999728
000210 70 b5 53 bb 3b c1 49 bb 6e 39 fd ba cc 9b 4c bb
       -0.003230419 -0.003078534 -0.0019319484 -0.0031220792
000220 47 3a a0 3a 34 2d 56 3b 4b 37 5c 3b 8d 80 1d 3b
       0.0012224399 0.0032680752 0.0033602293 0.002403292
000230 ed e2 3e bb f9 f8 3d bb 07 53 4c 3b e4 38 44 3b
       -0.0029126958 -0.002898751 0.0031177418 0.0029941136
000240 27 de 49 bb 23 fd 5d 3b 7e 34 2a bb f8 89 5b 3b
       -0.003080258 0.0033872805 -0.002597123 0.0033498984
000250 75 7b 4b 3b 8d 2f 3c 3b bd cb b4 3a 14 e1 2d 3b
       0.0031048928 0.0028714866 0.0013793629 0.0026531862
000260 29 67 d9 ba 01 87 47 bb 56 75 20 bb ae fe 1d bb
       -0.001658653 -0.0030445459 -0.0024484 -0.00241081
000270 ac 84 44 3b 78 7a 3b 3b db da 5f bb 9b ac 58 bb
       0.0029986305 0.0028606933 -0.0034157548 -0.0033061865
000280 87 f8 50 3b e6 53 55 bb 95 c5 7c 3b 78 60 59 bb
       0.0031886415 -0.0032551228 0.0038569917 -0.0033169072
000290 ce 21 5c b9 38 d9 48 bb e2 f2 3c bb e4 d8 4d bb
       -0.00020993428 -0.003064705 -0.0028831293 -0.0031409794
0002a0 30 80 3a 3b eb 18 60 3b cb 96 61 3b e3 ee 40 3b
       0.0028457753 0.003419454 0.0034422155 0.0029439263
0002b0 e5 02 47 bb 65 fb 44 bb 6b 3b 50 3b 87 c4 4a 3b
       -0.0030366716 -0.003005707 0.0031773697 0.0030939893
0002c0 53 20 3e 3b 7d 94 3f bb 0a 60 5a 3b 19 15 46 bb
       0.0029010966 -0.0029232793 0.0033321404 -0.0030224978
0002d0 3c de d7 3a 6d aa 33 bb 6c e1 25 bb a8 7d 39 bb
       0.0016469429 -0.0027414814 -0.0025311364 -0.0028303657
0002e0 91 7b 2b 3b 1a 90 4c 3b db 55 49 3b b6 08 33 3b
       0.002616618 0.003121382 0.003072134 0.0027318425
0002f0 d5 6c 2f bb dc d6 30 bb 88 8b 36 3b f9 f9 36 3b
       -0.002676775 -0.0026983535 0.0027854163 0.0027919991
000300 b0 5a 4a bb 49 79 58 3b 7a e7 51 bb c4 87 46 3b
       -0.0030876808 0.0033031276 -0.003202884 0.0030293325
000310 3a 87 db 3a a1 b7 4c 3b d8 14 d9 3a c0 d2 60 3b
       0.0016748675 0.003123738 0.0016561998 0.0034305304
000320 0a 2f 8c ba 61 8a 61 bb eb 9a 67 bb 5d 70 65 bb
       -0.0010695171 -0.0034414756 -0.003534014 -0.00350096
000330 ab 2d 5b 3b bc 54 50 3b fe a7 4e bb 8d da 61 bb
       0.0033443968 0.0031788787 -0.0031533237 -0.0034462542
000340 9d cd 38 bb c4 c8 45 3b ce a7 61 bb 35 9d 3b 3b
       -0.0028198727 0.003017948 -0.0034432295 0.0028627638
000350 89 77 92 3a 73 37 35 3b 46 bd 37 3b 39 2d 3f 3b
       0.001117454 0.0027651459 0.00280364 0.0029171242
000360 e5 93 1f bb ab ee 4f bb 66 9f 4c bb 56 1a 38 bb
       -0.0024349627 -0.003172795 -0.0031222939 -0.002809187
000370 d1 e2 3a 3b d5 fa 32 3b 06 c6 38 bb 6b 85 3c bb
       0.002851654 0.0027310152 -0.0028194203 -0.0028766047
000380 e3 98 0e bb c1 b3 27 3b 25 c8 25 bb 2a 77 1e 3b
       -0.0021758608 0.002558932 -0.0025296297 0.0024179914
000390 5b 4c 40 3b 4b 45 12 3b 9e be b3 3a c9 50 06 3b
       0.0029342386 0.0022319134 0.0013713425 0.002049493
0003a0 ca 54 77 ba e8 eb 22 bb f0 8f 1e bb 67 f7 f1 ba
       -0.0009434937 -0.002485985 -0.002419468 -0.0018460572
0003b0 19 9c 03 3b 39 85 08 3b 38 53 17 bb 8c 78 06 bb
       0.0020082055 0.002083136 -0.0023090374 -0.002051863
0003c0 00 94 fd ba ee c6 0a 3b bd a4 26 bb 88 6c 14 3b
       -0.0019346476 0.00211757 -0.0025427782 0.0022647697
0003d0 43 c8 b6 3a cd f9 fa 3a ad 69 d1 3a b8 eb f4 3a
       0.0013945181 0.0019147933 0.0015976928 0.0018685972
0003e0 2c b9 4c ba c3 51 12 bb a3 18 16 bb 88 12 ef ba
       -0.0007809575 -0.0022326566 -0.0022902868 -0.0018239776
0003f0 ff 67 f6 3a 4f 08 00 3b 23 ce 05 bb 92 6e ee ba
       0.0018799304 0.0019536202 -0.0020417057 -0.0018190912

base_model.model.bert.encoder.layer.0.attention.self.value.lora_A.weight f4 [16, 384]
000000 1c 0d fe bc 47 20 53 bc c5 fb 47 3d 37 c2 25 3d
       -0.03101211 -0.0128861135 0.04882409 0.04046842
000010 96 f1 4f bd d2 f2 31 3d 52 16 2c bd 66 6e 7c 3c
       -0.050767504 0.043444462 -0.042013474 0.01540718
000020 df ea 06 3d 1e f0 5e 3d fe 02 51 bd 9a 26 b9 3b
       0.032938834 0.054428212 -0.051028244 0.0056503536
000030 53 a6 4f bd 15 6d 44 3d f3 24 32 3c 9f 99 1b 3d
       -0.05069573 0.04795559 0.010873067 0.0379883
000040 5a e8 d3 bc cf 64 df 3c e3 57 8a ba 41 d7 b2 bb
       -0.02586763 0.027269749 -0.0010554757 -0.005457789
000050 ff be ac 3c db c4 a3 3c 4c 20 16 bd 5b fa 25 3d
       0.021087168 0.019991329 -0.036651894 0.04052196
000060 36 4b 17 bd 57 a8 dc bc 12 61 47 3c a3 22 2e bd
       -0.03693696 -0.02693574 0.012169139 -0.0425135
000070 dc f2 3f bc 58 7c de bb 7c 95 0c 3d e8 bd 08 bd
       -0.011715617 -0.0067897253 0.034322247 -0.033384234
000080 67 f9 ea bc d9 87 f2 ba 3b b5 36 bc cb 46 90 3c
       -0.028683377 -0.001850362 -0.011151607 0.017611882
000090 e7 80 8a bc 22 e4 67 bc df 6c a3 bb 9a 6e 1e bd
       -0.016907169 -0.014153512 -0.0049873437 -0.038679697
0000a0 62 6f 21 bc a5 03 95 3c 37 9c 91 3b 41 de c2 bc
       -0.009853216 0.018190214 0.004443671 -0.02378762
0000b0 28 98 2f 3d b3 a2 83 bc a5 fa 49 bd 60 81 81 3a
       0.042869717 -0.016068792 -0.0493113 0.0009880476
0000c0 2e 4c 34 bc 4a 57 d1 3c f5 ea 0b 3d 8e 2c aa bc
       -0.011004491 0.025554318 0.03415962 -0.020773198
0000d0 14 76 30 bd ff fe 23 bd 6a 91 92 bc 13 46 93 3c
       -0.043081358 -0.040038105 -0.017891604 0.01797775
0000e0 ff c8 06 bc ef c7 1a bd a3 ef c0 3a 3f 52 1a bd
       -0.008226632 -0.037788328 0.0014719855 -0.037676092
0000f0 2d 7b ca 3c ec d8 5f bd 09 89 fe bb 99 cf 23 bd
       0.024716938 -0.054650232 -0.0077678007 -0.039992902
000100 93 e0 24 3d b1 79 0e bd 9d 6e 20 3c d3 14 ce bb
       0.040253233 -0.034784023 0.009791997 -0.0062891035
000110 39 97 19 bd a3 67 2d bd d2 dc 9a 3c 0f a1 37 bc
       -0.037497733 -0.042335164 0.018904123 -0.011207833
000120 0c 86 ab 3c 85 d0 80 bb 8d 47 1f bd 4c 00 c9 bc
       0.020937942 -0.0039311075 -0.038886596 -0.024536274
000130 a5 6e 9d 3c 33 d6 3f 3d 76 49 e2 3c 15 19 d7 3c
       0.019217798 0.046835136 0.02762292 0.026257077
000140 94 a9 38 3d f6 3e b9 bb 66 83 9b 3c ca 3e fc bb
       0.045083597 -0.0056532575 0.018983554 -0.0076979147
000150 9c 0a 10 3d 09 cb 53 bd 8e aa a7 bc 95 30 09 3d
       0.035166368 -0.0517073 -0.020467069 0.033493597
000160 ab 20 23 bd b4 f7 2e 3d 72 1a 26 3c dc 52 4d 3d
       -0.039826076 0.042716697 0.010138141 0.05012785
000170 db d6 35 3d fd 9f 5c bc c8 15 23 3d 31 f8 56 bd
       0.044394355 -0.013465879 0.039815694 -0.052482788
000180 91 cb 66 3c 8e 6f a2 3c 2e ed 8e 3c 09 c1 e3 bb
       0.01408662 0.019828584 0.01744708 -0.006950502
000190 72 73 50 bd 4d a2 3f 3d 3d 48 20 3c 37 5a 0c 3c
       -0.050891347 0.04678564 0.009782848 0.008566431
0001a0 33 9a 26 3d 73 1a 02 bd 83 01 38 3c 5b 3b 12 3d
       0.0406744 -0.031763505 0.011230829 0.035701137
0001b0 4a 19 39 bd 8d 5a d2 bc f3 c9 b3 bc c4 4d 2a 3b
       -0.045190133 -0.025677944 -0.021946883 0.0025986293
0001c0 31 48 ca 3c ae 43 8f 3a d0 ae 5d 3c cc ff 93 3a
       0.024692627 0.0010930204 0.013530448 0.0011291443
0001d0 d4 aa ed 3c aa 1a 7f b8 46 66 ee 3c a1 2d 11 3d
       0.029012121 -6.082157e-05 0.029101502 0.035443906
0001e0 78 02 1c 3d 34 74 38 bc f5 3d 0c 3c f7 1c 38 bd
       0.038088292 -0.011258174 0.008559694 -0.044949498
0001f0 c2 75 11 3d a3 6b 3e bd d9 ca 21 3d fd 87 b2 bc
       0.035512693 -0.04648937 0.03950009 -0.02179336
000200 cc 3c 51 bc 8e d5 f1 bb 80 ec 12 3d 49 90 30 bb
       -0.012770843 -0.007380194 0.035870075 -0.002694147
000210 8d 28 38 3d 08 b0 32 bc f9 2a fb bb 6d be 93 3c
       0.044960547 -0.010906227 -0.007665035 0.018035138
000220 a8 27 16 bc 54 4d af 3c d2 29 2a bd 1b f1 fa bb
       -0.009164728 0.021399178 -0.04154379 -0.0076581365
000230 29 bf ee 3c e1 24 08 3d b4 3f c1 3c 70 d5 4f 3c
       0.029143887 0.033238295 0.023589946 0.012685165
000240 f7 16 df 3c 81 74 26 bd b4 e5 9a 3c a3 5a 0a bb
       0.02723263 -0.04063845 0.01890836 -0.0021111153
000250 0d 06 c2 3c 88 90 29 3c 01 24 5a 3c b0 1a 53 3d
       0.023684526 0.0103494 0.013314248 0.051539123
000260 09 d1 39 3d 1f 6b a3 3c e2 9b 55 3d d2 e0 29 bd
       0.045365367 0.01994854 0.052150615 -0.04147417
000270 fa 58 28 3d f3 ea 1d bd 6b 0e 99 3b 9b 05 0b bd
       0.04110048 -0.038554143 0.004670908 -0.033940893
000280 05 4d 31 bd 3c 96 e9 3b 47 22 98 3c 34 4f 5e 3c
       -0.043286342 0.007128505 0.018571032 0.013568688
000290 8d c9 2f bd d3 b6 1c bd be 8c 3c 3c 17 12 de bc
       -0.042916823 -0.038260292 0.011508165 -0.027108235
0002a0 7e e1 0a bc 59 39 73 3c 58 da d6 bb 9e 1e 2a bd
       -0.008476613 0.014845216 -0.0065567903 -0.041533105
0002b0 b3 a9 c5 bc 27 62 85 3c 1d 74 d7 bb 9e 8f 26 3d
       -0.02412877 0.016282154 -0.006575121 0.040664308
0002c0 6a 63 ef bc 9d 6b 26 3d ff e1 81 3c 99 b9 a3 3c
       -0.029222209 0.04062997 0.015854834 0.01998596
0002d0 ee 4b 5c 3d ff 6c 4a bc 9b b4 57 bd 90 cf 0c bd
       0.05378335 -0.012355088 -0.052662473 -0.034377635
0002e0 8e cc 6d 3c d1 30 5d bd 72 8a ea 3a 58 9a 0a 3c
       0.014514102 -0.054001633 0.0017894043 0.00845965
0002f0 43 b2 77 bc 4a 75 9c ba 8e 49 ed bc 4e 18 ad ba
       -0.0151181845 -0.001193681 -0.028965738 -0.0013206096
000300 78 39 48 bd e4 ec 1b 3c 70 9f c5 bc 40 45 98 3c
       -0.04888293 0.009516928 -0.024123877 0.018587708
000310 2d e8 96 bb 29 28 40 3d 48 79 fc 3c bf 55 f9 bb
       -0.004605314 0.0469133 0.03081955 -0.0076090987
000320 42 1b d6 3c 73 a8 45 3d 9b ab 8c ba 2a 42 e8 bb
       0.026136044 0.04825635 -0.0010732295 -0.0070879655
000330 be d7 46 3d 95 80 f9 bc 65 e2 03 3d b3 2c 13 bd
       0.04854559 -0.03045682 0.03219833 -0.0359313
000340 02 3e 1e bd da 8a 57 bd 23 59 54 3d c9 a3 b8 3c
       -0.038633354 -0.052622654 0.05184282 0.022539036
000350 9b c4 20 3d 4d 8c 63 3c 93 15 76 bc 57 ac d4 3c
       0.039249998 0.013888431 -0.015019792 0.025961084
000360 28 81 35 bd 5e 54 54 3d d6 3a 2a bd 6d 9e 4a 3b
       -0.044312626 0.05183827 -0.041560017 0.0030917183
000370 28 e0 34 bc d3 4c 46 3c 00 c7 0c bc 01 88 28 3d
       -0.011039771 0.012103277 -0.008592367 0.04114533
000380 a5 b8 df bc e9 e2 3a 3d a5 24 0b bd 5e 46 09 bd
       -0.027309725 0.045626555 -0.033970494 -0.033514373
000390 86 d3 57 bd b0 f0 37 bd fb a3 bc bc 56 fd f4 3c
       -0.05269196 -0.04490727 -0.02302741 0.029905956
0003a0 7c 83 bf bc 93 22 46 bc b8 27 bb bc 8f 7a 54 3d
       -0.023378126 -0.012093204 -0.022846088 0.051874693
0003b0 e8 eb d1 bc 06 44 13 bd e8 ed 85 bc b0 08 a3 3b
       -0.025625184 -0.035953544 -0.016348794 0.004975401
0003c0 99 b5 23 3d 93 33 22 3c 91 ff f4 bc 5e 3a 1c bc
       0.039968107 0.009899992 -0.02990702 -0.0095354
0003d0 bd 1a ab 3b 5e b6 8e bc ad 92 27 bd 55 34 1f bd
       0.0052216933 -0.017420944 -0.040911365 -0.038868267
0003e0 d8 68 01 3d 0e e0 81 3c 50 ea 74 bc 84 e1 44 bd
       0.031594127 0.015853908 -0.014948443 -0.04806663
0003f0 d8 38 e1 3c 3d 77 f9 3c 5e 97 c5 bc d5 2a fd bc
       0.027492926 0.030452365 -0.024120029 -0.030904213

base_model.model.bert.encoder.layer.0.attention.self.value.lora_B.weight f4 [384, 16]
000000 46 2e f9 3a 16 85 84 3b 38 ff 6b bb 5e 88 3c bb
       0.0019010983 0.0040441854 -0.0036010277 -0.0028767805
000010 e3 49 68 bb 70 b6 0b bb 31 23 1b bb 01 dc 0a 39
       -0.003544443 -0.0021318458 -0.0023672099 0.00013242663
000020 22 5e fc ba b0 98 1c bb ba b9 2e 3b 9a c3 42 bb
       -0.0019254128 -0.002389472 0.0026660995 -0.0029718638
000030 28 3b 3a bb 22 2f 30 bb c2 ff f3 ba 3a 08 58 3b
       -0.0028416608 -0.0026883562 -0.001861565 0.0032963888
000040 b2 7c 85 3a 66 dc 8f ba 18 50 85 ba 25 43 92 ba
       0.0010184257 -0.0010975718 -0.0010170965 -0.0011158927
000050 a7 10 a1 39 d0 db 73 ba 8d 22 8c ba 18 9d 86 3a
       0.0003072072 -0.0009302469 -0.0010691449 0.0010270206
000060 61 59 94 ba 38 a9 93 ba 9c 15 74 3a 43 bd 95 ba
       -0.0011318141 -0.0011265641 0.00093110814 -0.0011424202
000070 47 3d 85 ba 38 99 a3 ba a7 02 8d ba 8a c1 86 3a
       -0.0010165357 -0.0012481576 -0.0010758237 0.0010281068
000080 2b ae 18 3b 08 7c e1 ba bc 41 97 ba 22 76 59 bb
       0.0023297172 -0.0017203102 -0.0011539976 -0.0033181985
000090 6b 2e cd 3a 2d be 19 bb d8 4c 23 bb 3c 5b 08 3b
       0.0015654092 -0.00234593 -0.0024917629 0.0020806333
0000a0 7c 68 0e bb 09 fc 3a bb 54 c8 41 3b 00 90 41 bb
       -0.0021729758 -0.0028531572 0.0029568868 -0.0029535294
0000b0 ca 07 1e bb cc c4 63 bb d5 fc 19 bb 53 bf bc ba
       -0.002411353 -0.0034754751 -0.0023496647 -0.0014400281
0000c0 ed 57 a3 39 2d b0 5b 3b 19 88 21 bb 57 79 d4 ba
       0.00031155293 0.0033521757 -0.002464777 -0.0016210478
0000d0 87 e9 59 bb 71 d3 f2 b9 ae 5c 2b ba 71 28 3f ba
       -0.0033250765 -0.00046315373 -0.00065369427 -0.0007292098
0000e0 9c fc 80 38 5d a1 9b ba 38 b5 98 3a b2 45 b0 ba
       6.150568e-05 -0.0011873652 0.0011650687 -0.0013448505
0000f0 5a 31 85 ba 4c d6 9b ba 00 d1 a7 b9 2d 1c 2c 3b
       -0.0010161803 -0.0011889427 -0.0003200844 0.0026261911
000100 c1 41 90 3a 9c 42 2e 3a 0a 98 6c ba 1e 51 90 ba
       0.0011005924 0.0006647499 -0.0009025341 -0.0011010503
000110 81 15 3e ba c2 75 83 ba 10 00 8b ba 5e 6d 9e 3a
       -0.0007251129 -0.0010029601 -0.0010604877 0.0012087037
000120 76 6e 92 ba f4 46 8d ba 89 10 85 3a 0a 21 8a ba
       -0.0011171836 -0.0010778592 0.0010152023 -0.0010538411
000130 c9 96 90 ba 3c 62 a2 ba 11 ec 8f ba ab b3 6b 3a
       -0.0011031266 -0.0012388895 -0.0010980387 0.0008991311
000140 69 45 de 3a 1a b4 c5 3a 6c 6d c2 ba 3a 70 be ba
       0.0016957942 0.0015083582 -0.0014833636 -0.0014529296
000150 3b f7 a0 ba 61 7b d0 ba 3c c2 db ba 0c 20 af 3a
       -0.0012280712 -0.001590591 -0.001676626 0.0013360991
000160 6c 32 38 bb 9c c7 ba ba e9 05 ae 3a 17 f1 df ba
       -0.0028106226 -0.0014250162 0.0013276908 -0.00170854
000170 32 f3 ef ba fb 99 ab ba 66 d8 e5 ba ec 64 c0 3a
       -0.0018306731 -0.0013092154 -0.0017535805 0.0014678515
000180 d6 3c 29 bb 33 ba 8d bb 66 af 75 3b 71 30 5b 3b
       -0.0025823615 -0.004325175 0.0037488579 0.0033445621
000190 a9 61 7d 3b b2 a5 2b 3b f7 38 3a 3b bb a6 b0 ba
       0.0038662946 0.0026191291 0.0028415301 -0.0013477424
0001a0 65 49 ab 3a 56 3a 3f 3b 4e 38 45 bb 12 b5 59 3b
       0.0013068138 0.0029179058 -0.0030093375 0.0033219499
0001b0 50 f9 55 3b 9a 55 53 3b 72 c6 21 3b 5b 87 74 bb
       0.0032649823 0.0032247067 0.0024684933 -0.0037312123
0001c0 c9 16 52 bb d8 69 af ba a3 08 01 3b 25 57 72 3b
       -0.0032057038 -0.0013382984 0.0019688986 0.0036978212
0001d0 af 43 0e 3b 8c 9d 52 3b 67 13 59 3b f5 3c 1d bb
       0.0021707823 0.0032137362 0.0033123137 -0.0023992632
0001e0 a9 ab 17 3b 66 6c 5a 3b fe 02 66 bb 55 cd 63 3b
       0.002314309 0.003332877 -0.0035096998 0.0034759839
0001f0 7c 9c 68 3b b9 a1 6b 3b f5 d9 50 3b 47 57 1b bb
       0.0035493663 0.0035954549 0.0031868194 -0.0023703144
000200 91 0d 84 bb 72 de 97 ba c6 78 18 3b 1d dd 84 3b
       -0.0040299376 -0.001158668 0.0023265346 0.004054679
000210 a8 a8 a0 3a df 69 86 3b b1 86 89 3b aa d2 58 bb
       0.0012257295 0.0041019763 0.0041969647 -0.003308455
000220 f9 97 86 3b 77 9d 80 3b 40 e7 88 bb 44 f9 6f 3b
       0.004107472 0.0039250213 -0.004177958 0.003661708
000230 a3 16 7d 3b bf 74 8d 3b 42 cb 83 3b a3 58 e0 ba
       0.003861823 0.0043168957 0.004022033 -0.001711626
000240 cc 2c f7 39 74 d4 47 ba c2 3f b4 b7 8e e6 a7 b9
       0.00047144888 -0.00076229055 -2.1487362e-05 -0.000320245
000250 8f 77 68 3a 60 ba 10 b9 10 4d 7b b9 db 4d d0 3a
       0.0008867913 -0.0001380234 -0.00023965933 0.0015892343
000260 4d fd 38 b9 dd 51 b1 b9 29 d3 f8 38 5e a1 61 b9
       -0.0001764197 -0.00033821064 0.00011864893 -0.00021517786
000270 13 9b 83 38 4a e9 a0 ba 86 4e 13 ba 1a 0a 96 b9
       6.2754516e-05 -0.0012276557 -0.0005619306 -0.00028617756
000280 34 0c cd ba 1e ad 10 3b b2 f7 f6 3a 74 7d f4 3a
       -0.0015643896 0.0022075842 0.001884213 0.0018653111
000290 27 de 91 ba fa 3d ba 3a 19 d2 cc 3a 1c f8 c7 ba
       -0.0011128829 0.0014209144 0.0015626579 -0.0015256437
0002a0 c5 b5 c3 3a e6 3f e5 3a d6 ad c6 ba b9 b8 e2 3a
       0.0014931491 0.0017490357 -0.0015158008 0.0017297483
0002b0 b0 d4 b1 3a 91 73 08 3b 41 f7 cf 3a 8f b8 cf ba
       0.0013567414 0.0020820836 0.0015866534 -0.001584785
0002c0 ee 47 00 bb 21 1a 5c ba 5f 21 d3 3a 61 77 fa 3a
       -0.0019574123 -0.00083962275 0.0016107968 0.0019109064
0002d0 09 22 60 3a a3 28 ee 3a ff 85 f5 3a be 27 1b bb
       0.00085499935 0.001817007 0.001873195 -0.0023674811
0002e0 f3 3f 19 3b 0f 72 ec 3a 93 9d ea ba f0 b7 f8 3a
       0.0023384064 0.0018039363 -0.0017899744 0.0018975716
0002f0 df 51 ee 3a 33 a1 0d 3b 57 a4 01 3b 42 60 b4 ba
       0.0018182358 0.0021610975 0.0019781792 -0.0013761597
000300 b5 86 7b 3b 35 46 89 3b 3c 64 8c bb 13 7a 86 bb
       0.0038379852 0.0041892775 -0.00428441 -0.004103908
000310 05 e2 80 bb 00 4e 70 bb d3 8e 77 bb 01 0c 3f bb
       -0.0039331936 -0.0036667585 -0.003777434 -0.0029151442
000320 98 d0 04 bb 10 70 70 bb b0 4c 80 3b 4a 1e 84 bb
       -0.0020265933 -0.0036687888 0.003915392 -0.004031931
000330 8e aa 7e bb aa 8d 8c bb c1 ad 6d bb 14 df 78 3b
       -0.0038858983 -0.0042893486 -0.0036266895 0.0037974762
000340 c9 60 64 3a 42 98 87 3b f0 b6 6e bb bd cb 3e bb
       0.0008711932 0.0041380236 -0.0036424957 -0.0029113137
000350 21 5d 81 bb 7f f9 be ba fa 16 02 bb c2 43 19 bb
       -0.0039478694 -0.0014570205 -0.001985012 -0.0023386334
000360 3e d7 30 39 92 9d 30 bb 77 46 37 3b c5 88 55 bb
       0.00016864852 -0.0026949388 0.0027965584 -0.0032582742
000370 1f 60 36 bb e5 38 f9 ba 23 4c 38 ba 62 f6 78 3b
       -0.0027828289 -0.0019014148 -0.0007030388 0.0037988652
000380 46 fa 02 3b a7 60 a7 ba a5 51 2d ba 7e 79 ac ba
       0.00199856 -0.0012769894 -0.0006611592 -0.0013158766
000390 74 ec e2 3a 07 45 b4 ba ce 0e d9 ba 66 4f 36 3b
       0.00173129 -0.0013753482 -0.0016560198 0.0027818321
0003a0 75 ae 82 ba 61 13 c1 ba de 3b 1a 3a 50 5e bb ba
       -0.0009970205 -0.0014730507 0.00058835547 -0.0014295075
0003b0 32 31 72 ba a2 dd e4 ba ee 02 0a bb cc c3 b2 39
       -0.0009238898 -0.0017461071 -0.0021058875 0.00034096686
0003c0 f4 7f bb 39 f9 b1 c7 3a 19 1c e3 ba ba 5f a7 ba
       0.00035762752 0.0015235535 -0.0017327099 -0.0012769618
0003d0 d6 ab bc ba 0b c4 11 ba 79 24 7c ba ed e0 07 39
       -0.0014394473 -0.0005560524 -0.0009618472 0.00012958395
0003e0 8a 77 c4 b9 12 5e b8 ba 72 ab 06 3a 7a 2e 09 bb
       -0.00037473097 -0.0014066121 0.00051372417 -0.0020932243
0003f0 ab f9 97 ba e9 94 00 ba ef 3f 2c ba 1e 2a da 3a
       -0.0011594793 -0.0004905002 -0.0006570806 0.0016644632

base_model.model.bert.encoder.layer.1.attention.self.query.lora_A.weight f4 [16, 384]
000000 66 9e 06 bd 64 2f 30 3d 80 f0 39 3c c8 c2 18 bd
       -0.032865904 0.043013945 0.011348844 -0.037295133
000010 36 90 02 bd be 6f 1f bc e1 fb da 3c 48 24 2d bd
       -0.03187581 -0.009731231 0.026731433 -0.04227093
000020 15 b0 b2 ba 5f 0a ef bb 83 47 9d 3c 8c 9d 71 3c
       -0.0013632799 -0.0072949375 0.019199139 0.014747035
000030 a4 03 d6 3c 36 86 db 3c 24 cc d2 3c b6 ca 63 bc
       0.026124783 0.026797395 0.025732107 -0.0139033105
000040 98 b3 65 3c 06 eb 2e 3d cc 88 9f bc 61 01 9b bc
       0.014019869 0.042704605 -0.01947441 -0.018921556
000050 cd 54 78 3c 78 ba 44 3c c0 de 46 ba 00 cb 49 bb
       0.015156937 0.012007348 -0.0007586293 -0.0030791163
000060 c3 88 70 bc 52 d6 8e bc 00 be 37 3d 49 d1 c3 3c
       -0.014681044 -0.01743618 0.044858932 0.023903506
000070 f3 d7 15 bd 12 87 c6 ba 19 9a 0a bd a4 86 50 3c
       -0.0365829 -0.0015146455 -0.033838365 0.012727413
000080 b4 de 3c 3d 8c 45 41 3b 06 1a 42 3b 2e 3b 3b bd
       0.046110824 0.0029490916 0.0029617562 -0.045710735
000090 1e 45 21 3b bd ec 20 3d dd 2b 0f 3d 42 46 07 3d
       0.0024607847 0.03928827 0.03495394 0.033025987
0000a0 da 4e 8a bb 68 b7 34 3c 76 d6 26 bb 2d 04 03 3d
       -0.0042208256 0.011030056 -0.0025457419 0.031986404
0000b0 21 c1 5a bd 50 9d 91 bb 93 0f 96 3c b3 b6 39 3d
       -0.05340684 -0.004443802 0.018317973 0.04534025
0000c0 6e 73 eb bc 09 e9 9a bc 13 82 47 bd dd 51 07 3d
       -0.028741565 -0.018909948 -0.048708033 0.033037055
0000d0 c2 f8 37 3d 0e 57 30 bd 9e 32 6e 3c 36 58 ec bc
       0.04491497 -0.04305177 0.014538435 -0.028850656
0000e0 43 15 2b 3b 31 ed 07 bd 40 c2 2e 3d 87 6c 8e 3c
       0.0026105202 -0.033185188 0.04266572 0.017385734
0000f0 26 bd bb 3c 8e da 1a 3d c8 07 12 bd 3a cb 0a 3d
       0.022917341 0.037806086 -0.035651952 0.03388522
000100 ab ad 92 3b b9 6e 8f bc ee 81 c7 bc d3 09 0a bc
       0.0044762692 -0.017508851 -0.024353947 -0.008425194
000110 c0 cd 15 3c 8c fb 04 3d 26 e7 35 bd a9 8c 3b 3c
       0.009143293 0.032466456 -0.044409893 0.01144711
000120 c6 52 21 bc 82 31 3c bc f4 52 27 bd 92 bf 22 3d
       -0.009846395 -0.011486413 -0.040850595 0.039733477
000130 92 91 1b 3b d3 a0 af bc 9e 10 38 bd d3 5a b5 bc
       0.002373789 -0.021438992 -0.044937722 -0.022138035
000140 0c a2 15 bd 77 6e 0d bc 49 05 4a bd 39 21 41 3d
       -0.036531493 -0.008632294 -0.049321447 0.047150824
000150 e3 38 4a bd 1d 27 30 3c 86 13 0d 3d bd 5a 8b 3c
       -0.049370658 0.010751513 0.034442447 0.01701104
000160 24 c8 02 bc c5 96 85 bc 01 b7 0a bd 98 92 2b 3d
       -0.007982288 -0.016307244 -0.033865932 0.04188785
000170 5a 7e 94 bc 14 09 10 bd a2 bd dd 3c 16 b1 c0 3c
       -0.018126655 -0.035164908 0.027067963 0.023521941
000180 94 78 18 3d 72 06 ae 3c 61 e7 d8 bc 1c 6c 42 3d
       0.037224367 0.021243308 -0.026477518 0.047466382
000190 68 74 e5 bc 8e 60 32 bd a3 1c e2 bb 6c 54 f3 3b
       -0.028009608 -0.043549113 -0.0069003864 0.0074258354
0001a0 9c af d1 bc 5e 69 cf 3c 2f 45 ea bc 9c 87 24 bd
       -0.025596432 0.025318798 -0.028597442 -0.04016839
0001b0 75 ea c3 3c 8f 3b fe 3c 03 b3 4f 3d 1d a7 3a 3d
       0.023915509 0.03103426 0.05070783 0.045569528
0001c0 5e ec 3b bd a9 51 a4 3b 88 74 44 bc e0 96 c3 3c
       -0.045879714 0.0050146175 -0.011990674 0.023875654
0001d0 9e c9 0a bd a8 18 3f bc 29 03 d7 3c ec 8a 40 3d
       -0.033883683 -0.011663593 0.026246624 0.047007486
0001e0 48 b5 f4 3c 55 12 16 3d 0e 46 f5 b9 8d 79 09 bd
       0.029871598 0.036638577 -0.00046782236 -0.033563185
0001f0 c1 f9 5f bc 39 61 3c 3d c0 b7 44 3d 64 0f 03 3d
       -0.013670386 0.045991156 0.0480268 0.0319971
000200 6d 0c 0b bd d9 9a 8b bc 61 19 44 3d 3e 52 8f bc
       -0.033947397 -0.01704161 0.047875766 -0.01749527
000210 91 bf 04 bd bb 39 04 bd e6 b3 22 bd 69 0d b1 3c
       -0.032409254 -0.03228162 -0.039722346 0.02161284
000220 e4 c5 ee bc 9f 23 b4 bc 58 b0 3e bb 13 b8 44 3d
       -0.029147096 -0.021989642 -0.0029096808 0.04802711
000230 b1 1e f9 3c 74 be 4c 3d 13 82 d3 bc ce d5 3b 3d
       0.030410143 0.049986318 -0.02581886 0.045858197
000240 cc 29 0f 3d 40 a6 e0 3c aa 6f a9 bc 19 64 83 3c
       0.03495197 0.027423024 -0.020683128 0.016038941
000250 c9 44 29 b9 37 5d 46 3d 48 f2 0e bc 69 e2 e8 bc
       -0.0001614272 0.04842874 -0.008724757 -0.028428273
000260 c7 78 98 bc df f0 cb 3c 8a 5b 02 bc f5 71 94 bc
       -0.018612279 0.02489513 -0.007956395 -0.018120745
000270 f9 4d a6 3c e8 dc 0a 3d 6c c6 06 bd eb 79 29 bd
       0.020300852 0.03390208 -0.032904074 -0.041376036
000280 6e 85 2a 3d 3a df 30 bd ca 0f db 3c 8e 3f 0b 3d
       0.041631155 -0.043181635 0.026740927 0.033996157
000290 16 d9 38 3b 80 5d 47 bc c0 93 35 3d 97 ea 11 3d
       0.0028205565 -0.012168288 0.04433036 0.035624113
0002a0 24 a0 89 bc f0 2d f7 3c f9 25 b5 3c a5 ae 2a 3c
       -0.016799994 0.030173272 0.022112833 0.010417615
0002b0 ea b1 cf bc fa 18 ea 3b d2 43 0c bd 6e d7 03 3c
       -0.02535339 0.0071440907 -0.034244366 0.008046968
0002c0 33 fb 46 bd 79 4b 6a 3c ca 42 ab 3c 34 10 28 bc
       -0.048579406 0.014300221 0.020905871 -0.010257769
0002d0 5b 1f 2d bd 97 4b 41 bd b7 58 ea 3c 6f 11 19 bd
       -0.04226623 -0.04719123 0.028606756 -0.03737014
0002e0 64 8b ac 3b 1b 16 28 bd 25 9b ad bc ab 8a 29 ba
       0.00526564 -0.041036706 -0.021192143 -0.00064675015
0002f0 60 39 f4 3c 23 f9 5d bb fb d2 81 ba 1c c0 1d 3d
       0.029812515 -0.003387042 -0.0009904796 0.038513288
000300 fb 4a 3b 3d ea fa 2a bd 4c 30 7b bc c4 e9 aa 3c
       0.045725804 -0.041743197 -0.015331339 0.020863421
000310 99 fc 13 bd 99 cd 0c bd 46 fe b8 bb c5 c7 28 3d
       -0.036129568 -0.03437576 -0.005645546 0.04120614
000320 d0 dc d1 bc 0a 31 28 3d db 6e a1 bc 5f 27 09 bd
       -0.025617987 0.041062392 -0.01970618 -0.033484813
000330 ff f6 48 3b 54 6c 29 3c 3d 06 a9 bb b2 22 09 bd
       0.00306648 0.010340769 -0.0051582144 -0.033480354
000340 70 2c 28 bd 69 04 2f bd 36 82 33 bd 3d 40 b2 bc
       -0.041058004 -0.042728815 -0.04382535 -0.021759147
000350 30 44 a7 bc 9f fd f1 3c ab fc 94 38 8c ba 0b 3d
       -0.020418257 0.029539881 7.104253e-05 0.03411345
000360 b6 f7 22 3d a6 9c 86 bc ff 5e f3 3c ca 5a 20 bd
       0.039787017 -0.016432118 0.029708384 -0.039149083
000370 ec 54 e7 3c 6c 23 8c 3c 71 10 ed bc 47 88 0d 3d
       0.028238736 0.017106734 -0.028938504 0.034553792
000380 8e b0 1f bd 98 5c 6c 3c 5e 9f 29 bc 57 1a c2 bc
       -0.038986735 0.014426373 -0.0103529375 -0.0236942
000390 c1 06 f9 bb 98 2f 43 bd 90 a3 09 3b 82 b2 64 bc
       -0.007599682 -0.04765281 0.0021002032 -0.013958575
0003a0 90 3d 28 bc 61 e8 1b bd 08 bd e9 3c 8f 08 57 3c
       -0.010268584 -0.03806341 0.02853252 0.013124599
0003b0 8b ec 34 3c 2d 77 6a bc 82 c8 e9 bc b8 c1 b2 bc
       0.011042724 -0.01431064 -0.028537992 -0.021820888
0003c0 63 24 b8 3c 6e b7 3c bb d4 9d be 3c da 74 05 3d
       0.022478288 -0.0028795856 0.023268618 0.03258214
0003d0 e6 78 21 bd 8f 6e 16 bd 75 0c c1 bc b4 e5 80 3c
       -0.03942194 -0.03672653 -0.02356551 0.015734531
0003e0 3a 30 e1 38 65 ca 19 3d 8b e6 3b 3d 08 8b 44 3d
       0.00010737819 0.037546534 0.04587416 0.047984153
0003f0 28 56 1b 3d 05 f4 d7 3c 31 00 51 3d 86 6f 42 3d
       0.037923962 0.026361475 0.051025573 0.04746964

base_model.model.bert.encoder.layer.1.attention.self.query.lora_B.weight f4 [384, 16]
000000 62 1d 3d 3b d9 b8 f1 3a 2c d0 06 3b bd af 5c ba
       0.0028856625 0.001844193 0.0020570857 -0.0008418521
000010 de 89 fe 39 fd 24 4e 3a 67 19 68 3a c3 4c 07 3b
       0.00048549374 0.0007863788 0.0008853883 0.0020645119
000020 8a e3 15 3a 0b 34 f9 3a da 36 99 ba 9b bf 92 ba
       0.0005717805 0.0019012702 -0.0011689321 -0.0011196019
000030 0b 51 5e ba 18 a1 fd 38 17 d6 01 ba 2c 5b 5f 3a
       -0.0008480704 0.00012093986 -0.00049528613 0.00085203606
000040 e1 eb 91 3a f7 d6 7c 3a b6 84 af 3a 43 22 10 3b
       0.001113292 0.00096450694 0.0013390991 0.0021993078
000050 38 d9 c1 ba e3 41 ad b9 ec 78 39 3a 24 43 12 3a
       -0.0014789468 -0.0003304622 0.00070752087 0.0005579463
000060 22 f5 0b 3a 5e 5e a0 3a f7 7d 6d ba 07 e8 8d ba
       0.0005338957 0.0012235155 -0.0009059603 -0.0010826596
000070 91 d2 0b ba 05 ec ee ba ac f3 d3 ba 36 4e 18 3a
       -0.0005333806 -0.0018228298 -0.0016170642 0.0005809994
000080 f3 52 1b ba 18 a3 53 ba 4c 82 22 ba e8 f7 05 ba
       -0.0005925141 -0.0008073314 -0.00061992253 -0.0005110488
000090 af 17 0c 3a fe 46 75 3a 49 c3 18 ba 34 a1 dd b9
       0.00053441053 0.0009356587 -0.00058274396 -0.0004227251
0000a0 0d 49 92 b9 0c 68 65 b9 63 5d 28 ba 15 60 4a ba
       -0.00027901717 -0.00021877902 -0.0006422607 -0.0007720006
0000b0 ee 45 a1 3a bc c2 26 3a d2 4d a0 b9 6d a6 ab ba
       0.0012304166 0.0006361415 -0.0003057556 -0.0013095863
0000c0 f1 9e c8 3a d5 41 20 3b 4e 37 40 3b 62 8a a5 b9
       0.0015306157 0.0024453301 0.002932984 -0.00031574356
0000d0 b3 3a 5f b9 b1 7c 8a 39 3a d9 39 3a f4 66 42 3b
       -0.00021288804 0.00026414313 0.0007089559 0.0029663416
0000e0 06 c3 1b bb 0c d2 13 3b a8 99 30 ba 15 7c 31 ba
       -0.0023767366 0.0022555618 -0.0006736764 -0.0006770504
0000f0 26 ed 40 ba f6 c4 11 ba 20 be a3 ba 44 e5 2d 3a
       -0.00073595566 -0.00055606605 -0.0012492575 0.00066335895
000100 ed 41 60 3b 04 fd 49 3b b1 a0 6d 3b 3d 3f e5 b9
       0.0034218982 0.0030820975 0.003625911 -0.000437254
000110 84 4d d5 ba fa 41 30 bb 42 2e 0b 3b 25 85 5d 3b
       -0.0016273712 -0.0026894794 0.0021237289 0.0033801284
000120 1b 8a 6f bb 2a e2 6b 3b 5f da 04 bb 7a ad 8f ba
       -0.0036550823 0.0035992959 -0.002027176 -0.0010961734
000130 9a a7 0a bb 77 aa 69 bb be c9 67 bb e4 0f f2 3a
       -0.0021157027 -0.0035654583 -0.003536805 0.001846787
000140 3d 5e 84 3b 7f 40 3f 3b 30 97 83 3b d2 ae bf b8
       0.0040395544 0.002918273 0.0040158257 -9.1401525e-05
000150 ec 34 82 ba 6c 65 09 ba bf 3a 2f 3a 9a 35 60 3b
       -0.0009933985 -0.0005241248 0.0006684474 0.0034211637
000160 56 c5 83 bb 1e fc 8c 3b 75 5f 35 ba a8 24 e0 b9
       -0.004021327 0.0043025156 -0.0006918826 -0.0004275192
000170 1c 29 80 ba 41 03 44 bb 18 f1 73 bb 80 4e 41 3a
       -0.0009777877 -0.0029909166 -0.003722256 0.0007374063
000180 82 65 51 ba 28 af b0 3a 80 24 6a ba cd e1 4e ba
       -0.0007987843 0.0013479935 -0.00089318305 -0.00078919233
000190 95 99 19 3a cb c8 8b 3a e0 37 64 3a 4a b0 01 3b
       0.00058593723 0.0010664699 0.0008705836 0.0019788914
0001a0 d6 08 96 39 d6 89 bd b9 15 14 28 ba 11 97 95 ba
       0.00028616813 -0.00036151585 -0.0006411684 -0.0011412819
0001b0 b5 73 58 ba 2a b9 62 3a 40 49 52 3a 36 b4 6b 3a
       -0.0008256988 0.00086488074 0.00080217794 0.0008991392
0001c0 96 17 10 3a 23 e9 0e 3b 72 36 90 3a 57 d7 ac b9
       0.00054966786 0.002180644 0.0011002554 -0.00032966837
0001d0 f4 da d7 b8 fc c8 a2 39 e0 2a 1f 3a 3c 91 41 3b
       -0.00010292782 0.00031048793 0.00060717575 0.002953603
0001e0 e5 f8 26 bb f8 60 3e 3a 4c 16 09 ba 3e 99 1a ba
       -0.0025477943 0.0007262374 -0.0005229458 -0.00058974687
0001f0 eb 6c 3f ba 30 5c 55 b9 af f5 47 b8 ba 23 27 3a
       -0.0007302302 -0.00020347605 -4.7674108e-05 0.0006375868
000200 5a 1b 29 3a 68 9b 52 3b 45 bf 19 b9 dd 8f 43 ba
       0.0006450914 0.0032136086 -0.0001466247 -0.0007460097
000210 cb f6 39 39 7e b8 fe 39 1a 3f 94 3a 40 57 37 3b
       0.00017734912 0.00048584113 0.001131031 0.002797559
000220 93 fc 22 bb 3a 45 19 b9 05 44 89 ba 8b 5f 77 ba
       -0.0024869784 -0.00014617006 -0.0010472542 -0.0009436539
000230 b2 e2 ab ba 50 a7 55 38 68 d2 96 39 03 a4 82 3a
       -0.0013113825 5.093898e-05 0.00028766994 0.0009967092
000240 52 d9 92 3a 58 01 e4 3a 5a 98 ca 38 1f 13 50 ba
       0.0011203683 0.001739542 9.660488e-05 -0.00079374196
000250 4c 5e cf 39 26 95 a5 37 03 fc c5 b9 0c d2 79 3a
       0.00039552373 1.9738985e-05 -0.0003776253 0.00095298956
000260 11 61 55 bb 68 00 29 39 c5 8d 52 ba 73 1b a5 3a
       -0.0032559077 0.00016117247 -0.00080319896 0.0012596681
000270 9f 6e 23 b9 e1 46 f9 b7 59 a7 c2 ba a2 ae cb 38
       -0.00015586101 -2.9716119e-05 -0.0014850899 9.712322e-05
000280 57 a4 7b bb 17 bb 48 bb 7d 35 87 bb e4 b0 a7 b9
       -0.0038397515 -0.0030629092 -0.0041262493 -0.00031984516
000290 30 12 b2 3a 61 f7 9f 3a c9 f8 88 b9 bd 16 82 bb
       0.0013585743 0.0012204462 -0.000261253 -0.003969996
0002a0 93 80 88 3b e9 97 8d bb 23 7d 8b 38 04 4a 38 b9
       0.004165718 -0.0043210876 6.651345e-05 -0.0001757518
0002b0 08 40 69 3a 85 dc 71 3b ee 82 ff 3a 7f 93 12 ba
       0.0008897786 0.0036905122 0.0019493976 -0.00055914366
0002c0 fa 17 9a ba f0 2a 2b bb c8 58 6c ba 1e dd da 39
       -0.0011756413 -0.0026118122 -0.0009015915 0.00041744945
0002d0 62 cc 47 39 8a a8 43 b9 45 9a 2b ba c8 8e 47 bb
       0.00019054257 -0.00018659435 -0.000654612 -0.0030450094
0002e0 d8 37 46 3a 9c 01 4d ba b1 6b 07 3a 1d b6 13 3a
       0.0007561422 -0.0007820369 0.00051658886 0.0005634742
0002f0 00 7a 53 3a ec 7f 0e 38 8a fd 06 39 68 d5 5b ba
       0.00080671906 3.3974575e-05 0.00012873687 -0.0008385987
000300 0d 31 cc 3a 77 8d bb 3a 11 85 c8 3a ed b7 0f 3b
       0.0015578583 0.0014309128 0.0015298446 0.0021929697
000310 e4 ce 0c bb d8 3f 0b bb 89 c7 d3 b9 ba 79 94 b9
       -0.002148562 -0.002124777 -0.0004039372 -0.00028319453
000320 d2 10 07 bb 30 51 e8 3a 42 20 b4 3a c8 09 22 3b
       -0.002060939 0.0017724391 0.0013742524 0.0024725068
000330 78 f1 87 ba 4d 9f e4 ba e6 1e e3 b9 17 11 55 3a
       -0.0010371646 -0.0017442495 -0.00043319835 0.0008127852
000340 f3 4b 2b bb 0a a1 09 bb 06 b6 2c bb 01 c5 55 bb
       -0.0026137799 -0.0021000528 -0.0026353612 -0.0032618644
000350 d0 95 61 3b d1 1a 65 3b 2f 2d fb b9 3d 6a 02 bb
       0.003442157 0.003495861 -0.00047908115 -0.0019899749
000360 30 e7 4b 3b 11 e7 17 bb 13 f8 5e 3a 81 13 af ba
       0.003111314 -0.0023178498 0.0008505594 -0.0013357253
000370 7a 59 56 3a 35 a7 3e 3b 03 56 3f 3b 9c 6b 10 ba
       0.0008176785 0.0029091362 0.0029195554 -0.0005509199
000380 32 ad c4 b8 ea 92 09 3b 13 ca 34 39 da c2 17 ba
       -9.3782684e-05 0.0020992109 0.00017241416 -0.0005789228
000390 97 c4 91 39 c3 6d 7c 3a 95 63 75 3a b9 d2 1c 3b
       0.00027803026 0.0009629393 0.0009360847 0.0023929311
0003a0 99 bb ea ba a1 b5 6b 39 bd 2b 5b ba 9b 1a 8a ba
       -0.0017908692 0.00022479008 -0.00083607045 -0.0010536494
0003b0 07 bb 3a ba ac 22 8c 39 24 ee a6 b9 6f c7 64 3a
       -0.0007123206 0.00026728713 -0.00031839416 0.00087272277
0003c0 25 d4 8a bb 00 44 89 bb 37 bf 8d bb 56 a0 db ba
       -0.0042367154 -0.0041890144 -0.004325773 -0.0016756158
0003d0 96 7c 8e 3b 2e dd 90 3b 26 6e 4b 39 42 fe 98 bb
       0.004348348 0.004420898 0.00019400622 -0.004668982
0003e0 be d7 85 3b a4 b4 96 bb b1 0b a2 3a 56 f6 97 ba
       0.0040845564 -0.0045991708 0.0012363103 -0.00115938
0003f0 12 39 5b 3b b2 86 86 3b a5 e0 97 3b e9 09 d7 ba
       0.0033450765 0.0041054124 0.004634934 -0.0016406152
