lora_crossencoder_no_instruction_1/checkpoint-1554/adapter_model.safetensors (safetensors, 594924 bytes, 25 tensors)

base_model.model.bert.encoder.layer.0.attention.self.query.lora_A.weight f4 [16, 384]
000000 75 90 01 3d 44 a4 2b 3d 62 86 3a 3d 93 dd 21 3d
       0.031631906 0.041904703 0.045538314 0.03951795
000010 2b a4 58 3d 4f d5 21 bd ea a3 b3 3b c9 9f 13 3d
       0.052890938 -0.039510068 0.0054821866 0.036041055
000020 da f2 55 bd 6f 07 92 bc ae 2f 6e bc 1e a6 28 bd
       -0.052233554 -0.01782581 -0.014537735 -0.041174047
000030 50 56 b6 ba 7e f4 07 3c e3 37 e8 3b b4 86 47 3c
       -0.0013911221 0.008298038 0.0070867403 0.012178112
000040 2e c3 44 3b ca ad 2f bb 79 3e 4b bc 1c 3d 50 3d
       0.0030023563 -0.0026806467 -0.012405031 0.05083953
000050 7c f8 0d bd fc 2d ac 39 32 6a f8 3c 97 1f ef bc
       -0.0346608 0.00032840658 0.030324075 -0.029189868
000060 a3 a7 a5 3c a0 be 75 3c 1c 53 5f bc 55 28 72 3c
       0.020221537 0.014999062 -0.013630655 0.014780124
000070 5e 54 fa 3c 04 7f f7 bc e9 5f 91 bc 96 b4 ed 3c
       0.030557808 -0.030211933 -0.017745929 0.029016774
000080 b3 03 e8 3c 8f f0 f9 3c b1 92 92 3b 57 ad 1e 3d
       0.028322076 0.030510215 0.0044730534 0.03873953
000090 02 55 22 bb f2 ff a0 bc 59 15 12 bc 40 f7 5a 3b
       -0.0024769907 -0.019653294 -0.0089162225 0.0033411533
0000a0 40 ec 44 3d 89 41 9f 3c fc 00 4d bd f5 5d 29 3d
       0.048076868 0.01944043 -0.050049767 0.04134937
0000b0 5a ee f9 bc 22 fb c3 bc 7d fa 7f bc 9b 19 30 3b
       -0.030509163 -0.02392346 -0.015623686 0.002687073
0000c0 dc 4b fc 3b 9d 99 fb bc 9b 4b 75 bb 48 43 48 bd
       0.007699473 -0.030712897 -0.0037429098 -0.04889229
0000d0 f2 bb 35 3d d6 a8 d6 3c 50 10 e0 bc f1 15 a4 bc
       0.04436869 0.026203554 -0.027351528 -0.020029994
0000e0 2b 6a bc 3c 4a 25 89 3b 4c 4e a6 bc 02 e3 17 bc
       0.022999844 0.0041853534 -0.020301007 -0.0092704315
0000f0 b4 77 40 bd 26 a8 a1 3c df d1 dc 3c 21 63 4c bb
       -0.046989158 0.0197335 0.026955543 -0.0031187015
000100 bd 95 29 bc ab d5 ce bc 80 24 a1 3c d7 55 40 3d
       -0.010350642 -0.02524837 0.019670725 0.046956863
000110 79 bb aa 3b fc bd bc bc 00 5c d7 3c a1 93 30 bd
       0.0052103368 -0.02303981 0.026288986 -0.04310954
000120 40 c6 80 bc 5c 9b 01 3d 57 ff ff 3c b6 3e 56 3d
       -0.015719533 0.031642303 0.031249685 0.0523059
000130 35 10 82 bc c8 e1 64 3c f4 dc 34 3d fe 4b 1e 3d
       -0.015876869 0.013969846 0.04415603 0.03864669
000140 59 75 81 3c 67 1f ab bc e0 2b 22 bd e6 a8 84 3c
       0.015803026 -0.020888997 -0.039592624 0.016193818
000150 78 23 7f 3a 3f ae 47 bd b2 7f eb 3c bd 81 b4 3c
       0.0009732763 -0.04875016 0.028747413 0.02203452
000160 5d e5 0f bd 55 8e 17 3d d0 ee 06 3c 1e 78 40 bd
       -0.035130847 0.037000973 0.008235648 -0.046989553
000170 b3 6d 90 bc d9 d0 15 bd ec 1e 80 3c e3 48 fb 3c
       -0.017630434 -0.036576126 0.015639745 0.030674404
000180 64 b6 c2 bc 06 fd 26 3d 56 a8 35 bd b9 eb 4a bd
       -0.023768611 0.040768646 -0.04434999 -0.04954121
000190 0b a8 4c 3d 61 13 4f 3d 13 0d 00 bc e6 0a ef 3c
       0.049964946 0.05055559 -0.007815617 0.029180001
0001a0 9b 8a 3f bd fe 2c 40 3c 4c 39 fa 3c 2d 04 ae 3c
       -0.046763044 0.011729477 0.0305449 0.021242226
0001b0 44 63 1d bb c0 2e 35 3d 2d 5f 18 3d c5 19 98 3c
       -0.0024015466 0.044234037 0.03720014 0.018566975
0001c0 d4 b8 e1 bc ec 04 38 bd b6 e0 16 3d b0 83 bc bc
       -0.027553953 -0.04492657 0.036835395 -0.023012012
0001d0 50 8e 8c 3c b5 16 12 3c 6b 15 8f bc c6 95 2e 3a
       0.017157704 0.008916547 -0.017466268 0.0006659891
0001e0 4a 32 26 bd b5 a1 09 bb 35 8c a6 3c 43 d6 17 3d
       -0.040575303 -0.0021000926 0.020330528 0.03706957
0001f0 55 ed 5f 3c b7 17 f6 3c 34 2d 28 bd 98 f1 40 bc
       0.013667424 0.030040605 -0.041058734 -0.01177635
000200 bb 52 8c 3c 41 46 f4 3c 11 80 a6 bc 0b 59 02 bc
       0.017129293 0.029818656 -0.020324739 -0.0079558
000210 77 18 c7 bc 38 77 01 bd 6d a1 c0 3b da c6 aa 3c
       -0.024303658 -0.031607836 0.0058786185 0.020846773
000220 16 5d ab 3c ad 27 0a 3d c4 a9 ca 3b ba 4d 45 bd
       0.02091841 0.033729244 0.0061847884 -0.04816983
000230 d7 17 ab 3c 5f cc 9f bc 6e 4a d7 bc d1 b2 4f bd
       0.020885391 -0.019506631 -0.026280608 -0.050707642
000240 0a 22 1e bd d2 2b 2d 3c d6 98 13 bc eb 07 1b bd
       -0.03860668 0.01056953 -0.009008607 -0.037849348
000250 df 8a 55 bd 1d cd 1d 3d e0 ee 27 3c a5 a2 24 3d
       -0.05213439 0.03852569 0.010249823 0.040194172
000260 66 c9 3c bc 90 54 f7 bc b6 cb e5 3c b4 4a 06 3c
       -0.0115226265 -0.03019169 0.028051239 0.008196522
000270 e5 ba 22 bd a3 ec 59 bc 6c f3 a7 bc e8 29 4e 3c
       -0.039729018 -0.0133010475 -0.020501815 0.012583233
000280 a1 a2 54 bc 24 78 a1 bc 54 c1 39 3c 07 55 18 3c
       -0.012978227 -0.019710608 0.011337597 0.009297616
000290 2d f8 44 3d c7 e3 91 bc 82 b8 15 bd 76 81 fb bc
       0.04808824 -0.017808808 -0.036552913 -0.03070138
0002a0 89 3a 29 bd 40 be d8 3c 42 b4 dc 3c a2 df 2a bd
       -0.04131559 0.026457906 0.026941422 -0.04171718
0002b0 50 2e 35 3d a3 8e 13 bd c1 46 10 bd 57 dd bc 3b
       0.04423362 -0.0360247 -0.035223726 0.0057636905
0002c0 01 dd 71 3c d2 46 a6 3b 96 7e dc 3c 03 1c 8a bc
       0.014762164 0.0050743604 0.02691583 -0.01685906
0002d0 27 82 4b 3d e9 32 44 3d 4b 13 bc bb b1 ce 9a 3c
       0.04968467 0.047900114 -0.0057396046 0.018897386
0002e0 f7 2e 69 3c cf 0b 54 3d 1c a1 21 bc 20 9d 23 3d
       0.014232389 0.051769074 -0.009865072 0.039944768
0002f0 27 ab 5e 3d f1 c5 e5 bc c6 76 cf bb 84 0d 36 3d
       0.054362442 -0.028048487 -0.0063312976 0.044446483
000300 e7 61 97 bb c1 61 05 3d a1 7d 9a bc 74 84 23 bd
       -0.004619825 0.03256393 -0.018858733 -0.03992124
000310 e2 82 0d bd 3b 95 b5 bb 49 74 92 bb c9 c8 74 3c
       -0.034548648 -0.0055414713 -0.0044694287 0.014940449
000320 6f 6f b5 bb e5 73 be 3c d3 fd d6 3c 6a 46 5a bc
       -0.0055369656 0.023248622 0.02624408 -0.013322452
000330 40 df 20 3b 1c 0d 4f 3d f1 9b 1a bd b4 1c 92 3c
       0.002454713 0.05054961 -0.037746374 0.017835952
000340 a9 47 cd bb d3 56 bc bc 73 77 fb bc d2 fb fd bc
       -0.006264646 -0.02299062 -0.030696606 -0.031003866
000350 6f 57 0f 3d ca 12 93 3c 72 23 82 bc 69 db 06 3d
       0.034995493 0.017953295 -0.015886042 0.03292409
000360 29 d9 ab bc b0 3b 50 3d d0 37 0d 3d 1a d1 a5 bb
       -0.020977573 0.050838172 0.034477055 -0.0050603272
000370 45 f6 6c bc 62 65 28 bd 3d 93 2d bd ee 95 ab 3c
       -0.014463012 -0.04111231 -0.042376745 0.020945515
000380 f4 d9 15 3c d1 54 77 3c 34 51 05 bd 21 78 8b 3c
       0.009146202 0.015095905 -0.032548144 0.017025055
000390 7e 51 93 bc a6 54 b1 bb e1 21 79 bc 68 81 a8 bb
       -0.017983194 -0.005411702 -0.015205831 -0.0051423796
0003a0 ef a7 26 3d 93 c1 8f bc 9a 89 39 3d 31 df 0a 3d
       0.040687498 -0.017548358 0.045297243 0.03390426
0003b0 05 eb 9d bc 60 d1 37 3d a9 0b a2 bb dd e9 1b 3d
       -0.019277105 0.04487741 -0.0049452377 0.038064826
0003c0 f8 0f 14 3d 9f 69 ec bc 9a f1 37 3d 9b c1 1b 3d
       0.03614804 -0.028858958 0.044908144 0.038026433
0003d0 c2 06 db 3b 3e 9d 1e 3d 18 ec 1f bd 53 82 18 3d
       0.006684155 0.038724177 -0.039043516 0.03723366
0003e0 fc 7f 17 bd 23 5f 2c 3d 85 96 17 ba ee 37 32 bd
       -0.03698729 0.042082917 -0.0005782622 -0.04351037
0003f0 b5 da 77 b9 5b 9a 0f 3d 5f e9 3c 3d 63 f3 96 bc
       -0.0002363723 0.035059314 0.046120998 -0.018426603

base_model.model.bert.encoder.layer.0.attention.self.query.lora_B.weight f4 [384, 16]
000000 17 72 91 3b ad 50 a1 3b bb 90 37 bb 0c aa 10 bb
       0.0044386494 0.0049229474 -0.002800985 -0.0022074012
000010 08 16 8f bb 9e 3c 86 bb 07 49 95 ba 57 84 a3 bb
       -0.00436664 -0.0040965816 -0.0011389562 -0.0049901414
000020 f0 2a 57 ba 21 cb a6 bb f1 4f 5d bb ca b4 47 ba
       -0.00082079973 -0.005090133 -0.0033769573 -0.0007618187
000030 9d ad 95 bb f6 1a 89 3b 3d c9 96 3b bf 39 9a bb
       -0.0045678155 0.004184122 0.004601626 -0.004706591
000040 63 70 48 3b fb 40 3f 3b 5e 33 27 bb 70 a8 07 bb
       0.0030584566 0.0029183018 -0.0025512795 -0.0020699762
000050 28 39 39 bb 04 b1 2e bb e0 c3 39 3a 04 e3 4c bb
       -0.0028262828 -0.0026655803 0.00070863776 -0.0031263242
000060 20 11 a8 b8 57 43 48 bb 31 40 34 bb 27 6b 2f bb
       -8.014054e-05 -0.0030557716 -0.0027504081 -0.0026766749
000070 c6 3a 3f bb 87 7a 3d 3b 87 71 34 3b 18 93 43 bb
       -0.0029179319 0.0028912143 0.0027533488 -0.0029842313
000080 c0 1f 88 bb bc 17 84 bb dc 3f 90 3b be f6 93 3b
       -0.0041541755 -0.0040311497 0.004402144 0.004515498
000090 55 46 2e 3b b9 ff 74 3b 33 95 e3 ba 38 97 7e 3b
       0.0026592214 0.0037383868 -0.001736319 0.0038847458
0000a0 0e 42 3e ba cc aa 88 3b da 13 63 3b 25 72 80 3b
       -0.0007257768 0.004170751 0.0034649284 0.003919857
0000b0 ca 9f 52 3b 6a 88 60 bb 57 99 62 bb 5d 65 78 3b
       0.0032138699 -0.0034260997 -0.003457626 0.0037902214
0000c0 95 f4 72 bb 57 8b 6f bb aa 84 0b 3a fa 43 34 ba
       -0.0037072052 -0.003655156 0.00053221977 -0.00068765844
0000d0 ec 56 4f 3b 77 96 1c 3b 3f 5d d6 3a 1d f1 69 3b
       0.0031637503 0.0023893395 0.0016354694 0.0035696693
0000e0 d1 7c df 3a cb 1f 31 3b 84 74 1b 39 5b 6a 6a ba
       0.0017050748 0.0027027007 0.00014825357 -0.000894224
0000f0 56 9b 6f 3b e2 51 67 bb 09 bb 5d bb 11 e7 70 3b
       0.0036561093 -0.0035296609 -0.0033833405 0.003675882
000100 3e 09 14 bb eb c3 29 bb c8 53 6d 3b 99 7c 48 3b
       -0.0022588517 -0.002590413 0.0036213268 0.0030591844
000110 d4 f5 02 3b d5 f1 22 3b 0a 3d db ba d8 31 0f 3b
       0.001998295 0.0024863381 -0.0016726565 0.0021849778
000120 4c 2a 0d bb 5f 82 38 3b 5e ea 18 3b b3 4f 40 3b
       -0.0021540103 0.002815388 0.0023333053 0.002934438
000130 60 71 14 3b 4d 1a 23 bb 33 31 12 bb 60 69 12 3b
       0.0022650585 -0.0024887503 -0.0022307157 0.002234064
000140 7e 96 62 3b db e7 4e 3b f7 c4 35 bb da 4f d9 ba
       0.0034574564 0.0031571302 -0.0027735808 -0.0016579584
000150 3f c0 3d bb d3 fb 49 bb be 7e 28 ba 70 c9 66 bb
       -0.00289537 -0.0030820265 -0.00064275775 -0.003521528
000160 bd 98 05 ba 08 96 72 bb a7 30 32 bb c9 52 d7 ba
       -0.0005096307 -0.0037015695 -0.0027189644 -0.001642787
000170 80 b2 42 bb b5 de 52 3b a9 13 3b 3b ca 8e 62 bb
       -0.0029708445 0.00321762 0.0028545654 -0.0034569972
000180 eb a3 80 3b 91 48 47 3b 68 00 1b bb d7 db b6 ba
       0.0039257905 0.0030408243 -0.0023651365 -0.0013951015
000190 ba 59 dd ba 5d 27 3f bb 11 94 8e 3a 82 1b 46 bb
       -0.0016887703 -0.002916775 0.0010877867 -0.0030228798
0001a0 9a dd 20 ba 04 25 3e bb e3 f8 1b bb ac 97 01 bb
       -0.0006136537 -0.0029013762 -0.002379947 -0.0019774241
0001b0 7f 94 18 bb 11 76 3e 3b d9 91 17 3b cd cf 36 bb
       -0.002328187 0.0029062072 0.0023127703 -0.0027894855
0001c0 b0 7d fa 3a 06 fe 24 3b e9 2e 08 38 c5 fb 82 3a
       0.0019110944 0.0025175824 3.2468615e-05 0.0009993246
0001d0 f8 f0 17 bb 23 ff 8b ba d6 03 84 ba 24 b0 31 bb
       -0.00231844 -0.0010680895 -0.0010071944 -0.0027113045
0001e0 3f be 54 ba ac cc e6 ba 24 29 2b ba f4 bb e9 3a
       -0.0008115507 -0.0017608604 -0.0006529263 0.0017832504
0001f0 b2 b4 1a bb 66 c2 0f 3b 8b fb 3c 3b f1 20 ce ba
       -0.0023606238 0.002193594 0.0028836455 -0.001572637
000200 54 5c 4b bb 57 e6 6e bb 40 b0 06 3b c5 8b 68 3a
       -0.0031030374 -0.0036453211 0.002055183 0.0008870925
000210 63 bc 64 3b 20 39 3e 3b 28 57 24 3b 0f 3a 63 3b
       0.0034902326 0.0029025748 0.0025076363 0.0034672057
000220 17 b8 42 3a 35 a6 78 3b 8c 79 0d 3b fc 45 60 3a
       0.0007427944 0.0037940864 0.002158734 0.00085553504
000230 0b 76 67 3b a5 61 4c bb 78 3f 56 bb 33 ea 59 3b
       0.0035318162 -0.003118613 -0.003269164 0.0033251166
000240 ba 64 80 3b b0 b8 89 3b 2d ca 9e ba 20 0d e0 ba
       0.0039182575 0.0042029247 -0.0012114696 -0.0017093755
000250 9f 3f 83 bb c6 3e 56 bb 55 ce 9f ba 57 2e 91 bb
       -0.004005387 -0.0032691224 -0.0012192229 -0.004430573
000260 ac 90 98 b9 51 18 64 bb c7 e1 39 bb 24 3a 66 ba
       -0.00029099488 -0.0034804533 -0.0028363334 -0.00087824673
000270 5b 1e 84 bb 3f ed 65 3b d5 be 8a 3b a7 a3 5b bb
       -0.004031939 0.0035084037 0.0042341747 -0.0033514292
000280 d2 0a 80 bb 78 1c 78 bb 54 4d 52 3b 9d cb 50 3b
       -0.00390754 -0.0037858766 0.0032089548 0.0031859644
000290 f9 24 6e 3b 3b f1 64 3b 16 61 e1 ba 8d 35 8b 3b
       0.0036337955 0.0034933824 -0.0017195072 0.004248327
0002a0 45 b6 c2 ba 18 e0 8e 3b e4 03 6b 3b 70 69 7d 3b
       -0.0014855346 0.00436021 0.0035860473 0.0038667582
0002b0 2c 04 74 3b ce c4 7b bb 95 ae 75 bb 21 b6 7c 3b
       0.0037233932 -0.0038416865 -0.0037488092 0.0038560706
0002c0 3c 9c 4f bb 53 f7 58 bb f8 89 46 3b bd de 58 3b
       -0.0031678816 -0.00331064 0.0030294638 0.0033091747
0002d0 97 db 30 3b c0 8e 39 3b e7 a0 de ba 74 1c 67 3b
       0.0026986354 0.0028313845 -0.0016985208 0.0035264762
0002e0 16 d0 bb ba 14 ab 6f 3b ea ee 34 3b e2 90 75 3b
       -0.0014328982 0.0036570476 0.0027608224 0.003747039
0002f0 6f 7e 37 3b b5 4d 47 bb bc 64 39 bb 5a 35 62 3b
       0.0027998944 -0.0030411307 -0.0028288802 0.0034516663
000300 63 2d 9c 3b 7b 49 9f 3b 63 f4 1f bb 3c 9e 2e ba
       0.0047661527 0.0048610545 -0.002440714 -0.0006661152
000310 aa fb 92 bb ae d7 af bb 0d b0 05 bb 10 ae 94 bb
       -0.004485567 -0.005366287 -0.0020399124 -0.0045373514
000320 bf d2 90 ba 5a 61 a0 bb 7c d5 82 bb 0f 92 fc 39
       -0.0011049135 -0.0048944177 -0.0039927345 0.00048174008
000330 cc 47 8f bb 63 a4 8d 3b c2 c2 8c 3b 06 1b a6 bb
       -0.0043725725 0.004322575 0.004295678 -0.0050691394
000340 8a 0a 84 3b 0f dd 6b 3b 26 b7 41 bb 5d 4a 25 bb
       0.0040295767 0.0035989915 -0.0029558628 -0.0025221326
000350 5e 26 62 bb 87 48 73 bb 62 68 73 3a d8 f6 78 bb
       -0.0034507732 -0.0037122087 0.00092852686 -0.0037988927
000360 25 c5 5a 3a 01 fd 86 bb 05 8e 63 bb 7a 69 31 bb
       0.0008345417 -0.004119516 -0.0034722101 -0.0027070926
000370 f6 44 61 bb 90 59 61 3b 1f e8 59 3b ac fa 78 bb
       -0.003437338 0.0034385659 0.0033249927 -0.003799121
000380 7f 88 1c 3b 11 a4 1f 3b ff e9 2f ba 8c cc 74 3a
       0.002388507 0.0024359266 -0.00067105883 0.0009338341
000390 e4 ac 36 bb 8a 1d d0 ba f9 2e 33 bb bb be 37 bb
       -0.0027874047 -0.0015877944 -0.002734123 -0.0028037268
0003a0 9c bd a8 ba 1e e2 29 bb 9a 4e cf ba cd 97 88 3a
       -0.0012873891 -0.002592213 -0.0015816272 0.0010421217
0003b0 a2 40 21 bb 9c 40 13 3b 9a 22 17 3b 1a ba 21 bb
       -0.0024605175 0.002246893 0.0023061396 -0.0024677576
0003c0 e1 e2 08 3b d5 fc b6 3a 6d 4c 1a ba 2b 43 44 3a
       0.0020887183 0.0013960848 -0.0005886022 0.00074868154
0003d0 e2 4e a7 ba ca 7f d3 b9 45 a9 86 ba 6d e7 e6 ba
       -0.0012764598 -0.00040340266 -0.0010273835 -0.0017616578
0003e0 4f 2f 4c ba 16 e4 b9 ba 34 03 6e ba 8f 6b 18 ba
       -0.0007789032 -0.0014182355 -0.0009079457 -0.00058143673
0003f0 d4 a7 ac ba e4 c6 b8 3a 1c 59 97 3a fb 35 ad ba
       -0.0013172575 0.001409736 0.0011546942 -0.001321494

base_model.model.bert.encoder.layer.0.attention.self.value.lora_A.weight f4 [16, 384]
000000 45 be 1a 3d 9f b5 1e bd 53 94 25 3d c7 6f 05 bd
       0.03777911 -0.038747426 0.040424656 -0.032577302
000010 33 bf 93 3c b0 ec 5b 3d 5c 5b 52 bd db 31 65 bd
       0.018035507 0.05369252 -0.05135666 -0.05595575
000020 45 0f 09 3d c3 a6 88 3c 44 97 82 bc 11 d1 f7 3c
       0.033461828 0.01668108 -0.01594127 0.030251058
000030 10 33 3f bc ba 07 87 bc 73 b3 5d 3d 2c f8 bf bc
       -0.011669889 -0.016483176 0.054126214 -0.023433767
000040 8c 79 fe bb f8 91 19 bd ab dd 2f 3d 42 1f 38 bd
       -0.0077659544 -0.037492722 0.04293601 -0.044951685
000050 ac 2e 52 3d 4f fc 4f bd c9 ea a2 bc 89 4f 42 3d
       0.05131404 -0.05077773 -0.019887345 0.047439132
000060 4d 78 66 bd b3 47 17 bc ea 40 28 3d d6 73 b9 bb
       -0.05626707 -0.009233403 0.041077532 -0.0056595607
000070 58 7e 4f bd 64 1e 03 bc 89 10 36 3d 63 eb dd 3a
       -0.0506576 -0.008002851 0.044449363 0.0016931113
000080 ed 82 62 3d 70 4f 7c 3a 15 b8 6d bc 39 a9 94 bc
       0.05530064 0.0009624874 -0.014509221 -0.018147098
000090 1e 27 62 3d df 6d 39 bd fb 67 5f 3c fd 9e 8a bc
       0.055213086 -0.045270797 0.013635631 -0.016921515
0000a0 3b 99 ae bb 1a 8c 4b 3c 0e 42 50 3c f0 fd 08 bd
       -0.005328325 0.0124235395 0.012711061 -0.0334453
0000b0 8a 5c e3 bc 57 5c 75 bb 1d b0 0c bd 55 70 30 3d
       -0.027754087 -0.0037439072 -0.034347642 0.04307588
0000c0 2d 65 14 bc 5f 50 4f bb 81 d5 1a bd 6b 8c 3d 3a
       -0.009057325 -0.0031633598 -0.03780127 0.0007230702
0000d0 15 fa 06 3c 6b 7f 40 3d cd b0 ca 3c a4 73 07 3d
       0.008238335 0.046996515 0.024742508 0.033069268
0000e0 81 93 cc bc ed 9d df 3c cb 19 7d 3c 60 2e 7a 3c
       -0.02497268 0.027296985 0.015448044 0.015269846
0000f0 ab 2b 05 3d 26 1e 1d 3d b1 45 09 bd 0e 07 dd bb
       0.03251235 0.03835883 -0.03351373 -0.0067452257
000100 3a 77 14 bd b8 9e 4e bd c1 47 b6 3c 18 c9 d7 3c
       -0.036246516 -0.050444335 0.022251012 0.026341006
000110 33 6e fc b9 ed 00 c0 3b 5d c2 ce bc 47 24 bf bb
       -0.0004814729 0.0058594854 -0.025239164 -0.005833182
000120 78 35 19 bd a4 72 ed bc 01 66 a0 3c 29 55 2f 3c
       -0.037404507 -0.028985329 0.01957989 0.010701456
000130 69 03 22 bd b4 01 39 3c 88 27 e6 3c 3c 4d 4d 3d
       -0.039554033 0.01129191 0.028095022 0.050122485
000140 db 93 26 3c 3b 8a 29 bd c2 ce 72 3c 04 52 21 bd
       0.010167087 -0.041391592 0.014819803 -0.039384857
000150 90 ef 41 bc c3 70 fb 3c 8b 7c b3 3c 2d 3f 4c 3b
       -0.011836901 0.030693417 0.021909973 0.0031165585
000160 90 fa ea 3c 4a 96 ee 3c 69 cf 85 bc d3 20 63 3c
       0.02868393 0.029124398 -0.016334252 0.013862806
000170 27 4c 98 3c 58 a3 b6 bb 5f 04 29 3d 98 59 40 bc
       0.018591 -0.0055736713 0.041263934 -0.011740111
000180 16 85 c6 3b 75 f5 b3 bc da 32 d0 bc b8 d6 39 bd
       0.0060583455 -0.021967629 -0.025414873 -0.045370787
000190 96 0f ab bc b7 8e 26 bd fa b4 0f bc 2c cb 0f 3d
       -0.020881455 -0.040663447 -0.0087711755 0.03510587
0001a0 63 1f f1 bc 5d 44 42 3d 43 4a 59 3d 93 6e 38 bc
       -0.029433912 0.047428478 0.053049337 -0.011256832
0001b0 ed 77 3d bd f9 8f 9b bc 3a 1c 15 3c 14 e4 fa bc
       -0.04625695 -0.01898955 0.009100968 -0.030626334
0001c0 67 47 e9 3c 81 03 3a bc ec ae 49 3d 05 bf 2c bd
       0.02847643 -0.011353374 0.049239084 -0.042174358
0001d0 d3 6f 0c bd bc 18 7b 3c 56 29 76 3c 40 da d5 3c
       -0.03428633 0.015325721 0.015024504 0.026105046
0001e0 e0 43 e0 bc e8 cd 4d bd 53 8e 08 3d 9a 5d 16 3b
       -0.027376115 -0.050245196 0.033338856 0.0022943974
0001f0 78 59 bb bc d5 4d 8a bc 63 7b 0d 3d f9 ed 65 3d
       -0.02286981 -0.016882816 0.0345415 0.05613515
000200 cc fb ad bc aa 06 14 3d dc 71 00 3d b8 d7 09 bd
       -0.02123823 0.036139168 0.031358585 -0.03365299
000210 e3 7a 6d bd 9d 78 19 3c a8 48 a2 bc 34 31 02 bc
       -0.057978522 0.009367135 -0.019810036 -0.007946301
000220 dd bb 36 3d b1 fe f4 3c af 08 bf 3c 54 bb 19 bd
       0.044612754 0.029906603 0.02331957 -0.037532166
000230 78 80 27 bd 67 d1 9e bb 0f 8e 6b bd 14 7d 1b 3d
       -0.040894 -0.00484674 -0.057508525 0.03796108
000240 33 04 8f bc 33 93 44 3d ad 65 49 3c 2a 74 fc bc
       -0.017458057 0.047991943 0.012292308 -0.03081711
000250 25 fd 4b 3d 0f 8f 17 3d c0 e7 68 3d b8 0c a5 3b
       0.049801964 0.037001666 0.05686164 0.0050369166
000260 e0 41 52 bd e8 a4 cf ba e9 8b e7 bc c0 76 4d 3c
       -0.051332355 -0.0015841993 -0.028264957 0.012540519
000270 e8 8a 20 3d e4 9e 29 3c 4d 82 15 3d ae bd dd 3c
       0.03919497 0.010352824 0.036501218 0.027067985
000280 66 1a 5f bd a4 30 3c b6 40 42 5b 3d d6 9b 17 3d
       -0.054468535 -2.8042496e-06 0.053529978 0.03701385
000290 40 cc 69 bd 0f c3 54 3c c2 ed 8f 3c dd 79 99 bc
       -0.057079554 0.012985959 0.017569426 -0.018734867
0002a0 3b c5 26 bd f1 4d 14 3d 50 bf bf bc f7 8d 1e bd
       -0.040715437 0.036207143 -0.023406655 -0.038709607
0002b0 7c 72 93 bc 28 a6 4e bc 93 bf 87 bc 29 56 d5 bc
       -0.017998926 -0.012612857 -0.016570842 -0.02604206
0002c0 d8 74 1b bd 2a 0c 27 3d 24 58 d0 bc dc 99 a3 bc
       -0.037953228 0.040783085 -0.025432654 -0.019970827
0002d0 3e 8e da bc 09 c7 cd ba 79 ef 87 3c 99 75 10 bd
       -0.026679154 -0.0015699576 0.016593682 -0.0352684
0002e0 67 36 fe bc 66 0d 73 3a c5 99 3d 3c 00 49 ce bc
       -0.0310318 0.0009271711 0.011572306 -0.025181293
0002f0 af b9 eb bc 50 fb 87 ba a7 7e 95 3c 58 57 d2 3c
       -0.028775064 -0.001037458 0.01824887 0.025676414
000300 bf 5d 41 bd f1 07 f3 3b 92 84 21 bd bc 51 ce 3c
       -0.047208544 0.007416718 -0.03943307 0.025185458
000310 ea be 5d bc d0 6a 66 3d 0e fd 2a bd 8a f2 32 3c
       -0.013534287 0.056254208 -0.041745238 0.010922084
000320 e1 8f e8 3c 01 18 39 bd 1f b7 42 bc 3f 92 aa 3c
       0.02838892 -0.045188908 -0.01188448 0.020821689
000330 88 8e e0 bb 4f bc 30 3d ad eb 6f bb b7 93 19 bc
       -0.0068529285 0.043148335 -0.003660898 -0.009373597
000340 49 ca 5e bd 54 b4 2c 3d 9f 39 e0 3a 6c 77 36 3d
       -0.054392133 0.04216416 0.0017107016 0.044547483
000350 10 e7 26 bd c6 bb 39 3d ed c3 42 3d 33 8c 58 bc
       -0.040747702 0.04534509 0.04755013 -0.01321702
000360 fa 94 2c 3c f8 74 20 bd 42 f1 d1 bc 8d 54 79 bc
       0.010533566 -0.03917405 -0.025627736 -0.015217912
000370 d7 ba 04 3d cf 72 e3 3c 33 d6 88 3c bd bc f1 3c
       0.032404747 0.027764706 0.0167037 0.029508943
000380 45 38 d4 3c 5e 9e f1 bc 8b 8c bd bc 95 16 46 bd
       0.025905738 -0.02949446 -0.023138305 -0.04836138
000390 57 0f 9b 3c e2 b8 14 bc 07 74 3b 3b 88 34 9d 3c
       0.018928213 -0.009077283 0.0028603093 0.019190088
0003a0 e6 c2 e6 3c 70 bb 46 bd a3 e5 57 3d a5 43 06 3d
       0.028169107 -0.048518598 0.052709233 0.032779355
0003b0 63 d4 0a 3d 0a d9 a5 3c 69 66 d8 3a f0 94 c1 bc
       0.033893954 0.020245094 0.0016510013 -0.02363059
0003c0 27 51 06 3d 97 d8 23 3d 32 9a 13 bd 76 60 ac 3a
       0.032792237 0.040001478 -0.036035724 0.0013151306
0003d0 4d f3 ed 3c 8e e9 4a bd 5b c1 b2 bc 54 3f 31 3c
       0.029046679 -0.04953914 -0.021820715 0.010818321
0003e0 7a 63 ef 3c 04 9b aa ba 2b c6 f1 bc de 9c 8d 3c
       0.029222239 -0.0013016169 -0.02951344 0.017286714
0003f0 10 29 60 bd cd 75 c9 bc 48 e2 e2 bc ea 59 11 bd
       -0.05472666 -0.024592305 -0.02769579 -0.03548614

base_model.model.bert.encoder.layer.0.attention.self.value.lora_B.weight f4 [384, 16]
000000 e2 65 54 3b 78 6e 50 3b 68 1a 6c 3b 3f d1 93 bb
       0.003240936 0.0031804126 0.0036026482 -0.004511028
000010 11 8c 1e 3a 80 21 86 3b e0 56 87 3b 37 5f 4a bb
       0.0006048093 0.004093349 0.0041302294 -0.0030879506
000020 e4 38 c6 ba 03 91 d0 ba d0 f0 7b bb 78 08 4a 3b
       -0.0015123156 -0.0015912357 -0.0038443096 0.0030827802
000030 cb fc 69 3b 96 1c 91 3b f0 62 7d 3b 6b 9a d7 3a
       0.0035703655 0.0044284565 0.0038663708 0.0016449218
000040 29 b1 01 3b 39 79 1c 3b 69 72 0b 3b 93 31 00 bb
       0.0019789434 0.0023875965 0.002127791 -0.0019560799
000050 59 5d e3 3a a1 2f 0a 3b 54 52 14 3b 8e 38 17 bb
       0.0017346545 0.0021085518 0.002263208 -0.002307448
000060 13 ad f6 ba a8 21 e3 ba 9b c3 1b bb d6 c5 09 3b
       -0.0018819891 -0.0017328756 -0.0023767713 0.002102246
000070 b6 a9 1e 3b 75 b9 a6 3a dc db 27 3b d2 59 ff 3a
       0.0024210042 0.0012720065 0.0025613224 0.0019481725
000080 1f 14 b8 3a 2a 48 64 3b ab f9 20 ba 64 bf fa 39
       0.0014044082 0.0034833052 -0.0006140719 0.00047826313
000090 04 3f 21 3b e8 14 fb 37 8f a2 95 39 5b bc 5c bb
       0.002460421 2.9931267e-05 0.0002854061 -0.0033681605
0000a0 6f 7a 33 bb 46 f2 2f bb 7b 1e a3 ba 99 9f 7c 3b
       -0.0027386209 -0.0026847287 -0.0012444997 0.0038547276
0000b0 bc ad 87 3b 79 9f 8d b9 ea 6b 38 ba 0e fb 2e 3b
       0.004140584 -0.00027012432 -0.00070351234 0.0026699933
0000c0 b2 ff 16 3b e5 5c ff 3a bb 7f 2b 3b 96 d5 83 bb
       0.002304059 0.0019482641 0.0026168663 -0.004023264
0000d0 82 f6 61 ba 90 c3 3d 3b 4c 50 38 3b f8 b8 b3 ba
       -0.00086198014 0.0028955676 0.0028124033 -0.0013711741
0000e0 59 87 0e 39 9d 0a 48 3a c4 81 1d bb e3 be 0f 3b
       0.00013592596 0.0007630976 -0.0024033645 0.0021933846
0000f0 11 8c c6 3a 1a 02 7a 3b 4d 9d 44 3b 67 0e a2 b9
       0.0015147944 0.0038148225 0.0030000985 -0.00030909778
000100 03 40 07 39 45 05 0b 3a 7d 3a b3 38 d0 85 01 38
       0.0001289845 0.00053032144 8.5462794e-05 3.088062e-05
000110 07 f3 43 3a 35 68 31 b9 48 cc 94 38 9e 84 00 ba
       0.00074748736 -0.00016918856 7.09524e-05 -0.0004902574
000120 a7 58 20 ba 9c 35 10 ba 12 ae 2e b9 53 52 46 39
       -0.0006116726 -0.00055011525 -0.0001665878 0.0001891342
000130 bc cf fc 39 d6 12 6b b9 34 f8 67 39 53 90 38 3a
       0.0004821996 -0.00022418363 0.0002212234 0.0007040549
000140 d1 2b d2 3a f6 09 f0 3a 75 95 d4 3a b6 d6 aa ba
       0.0016034787 0.0018313515 0.0016218858 -0.001303396
000150 82 e1 44 3b b6 05 cc 3a 13 43 c6 3a 3d af 0c bb
       0.003004164 0.0015565667 0.0015126191 -0.0021466755
000160 d8 5e 13 bb e9 6e 32 bb 47 67 e5 ba eb a6 af 3a
       -0.0022486951 -0.0027226752 -0.0017502093 0.0013401186
000170 f6 ff 08 3b 07 cc 92 3a 21 f5 e5 3a a8 f7 2c 3b
       0.0020904518 0.0011199721 0.0017544368 0.0026392732
000180 85 a6 ac bb 56 09 be bb 9b 55 b7 bb 66 b5 ca 3b
       -0.005268874 -0.005799453 -0.0055949218 0.006186175
000190 52 81 8d bb 25 73 ba bb 4c 06 be bb 21 fe b3 3b
       -0.0043183947 -0.005689996 -0.0057990905 0.005492941
0001a0 05 bb 90 3b 62 e6 97 3b 3b b6 bd 3b 80 6f a3 bb
       0.0044168257 0.004635618 0.005789546 -0.004987657
0001b0 0e 3f bd bb 79 62 bf bb aa 87 c0 bb 22 5e 9d bb
       -0.005775339 -0.0058405963 -0.0058755474 -0.0048024813
0001c0 95 6c 80 bb 5a e9 a5 bb f7 e0 87 bb 89 90 75 3b
       -0.003919194 -0.005063218 -0.004146691 0.0037470183
0001d0 3a 2d 9c bb 28 42 71 bb 63 69 98 bb e5 e2 8e 3b
       -0.0047661336 -0.0036813114 -0.004651235 0.004360544
0001e0 10 9f 92 3b ff e8 97 3b 78 05 79 3b b5 f2 93 bb
       0.004474528 0.0046359296 0.0037997644 -0.004515017
0001f0 9e 9a a1 bb 00 a9 7a bb fe 3d 7f bb 24 00 98 bb
       -0.004931762 -0.0038247705 -0.0038946862 -0.0046386886
000200 66 a9 42 bb 07 fd 8e bb 49 a2 38 bb a1 c2 1e 3b
       -0.002970302 -0.0043636593 -0.0028172901 0.0024224895
000210 d1 75 9f bb 39 aa 39 bb 66 06 5b bb df 60 7b 3b
       -0.0048663397 -0.002833022 -0.0033420562 0.00383573
000220 19 b4 a5 3b 85 f5 ab 3b 09 07 48 3b 29 44 76 bb
       0.0050568697 0.005247774 0.0030521771 -0.0037577248
000230 6c 59 ac bb b0 ff 2a bb 50 d2 36 bb c4 ac aa bb
       -0.0052596834 -0.0026092343 -0.0027896352 -0.0052085835
000240 f9 27 17 ba a0 78 47 b9 09 3d f8 b9 0d c3 88 b6
       -0.0005766149 -0.00019023055 -0.0004734772 -4.0758227e-06
000250 5f ae b9 3a 8d bf 25 ba 2c a3 de b8 3d 3f d0 b8
       0.0014166347 -0.0006322794 -0.00010616178 -9.929992e-05
000260 ed ef 9c b9 96 8a 2f ba 9d 35 04 39 2f 04 5e b9
       -0.00029933397 -0.0006696371 0.00012608473 -0.00021173128
000270 2b d5 7a 39 98 7e ce b9 84 de ca b8 0c 61 e4 39
       0.00023921269 -0.00039385702 -9.673557e-05 0.00043559854
000280 e5 3f a3 ba 05 57 09 bb fb 40 c2 ba ad a3 82 3a
       -0.0012454955 -0.0020956409 -0.0014820391 0.0009966992
000290 48 26 bd ba 2f fb f7 ba ea 17 15 bb d5 26 05 3b
       -0.0014430964 -0.0018919463 -0.002274985 0.0020317335
0002a0 c6 ac d7 3a e9 4f 90 3a 7c a9 11 3b 53 9b f4 ba
       0.0016454689 0.0011010143 0.0022226265 -0.0018662013
0002b0 7c 80 16 bb c7 e8 c5 ba c7 99 1d bb be bd c4 ba
       -0.0022964766 -0.001509928 -0.0024047957 -0.0015010161
0002c0 62 ee e3 ba 16 7c 1c bb f2 37 e2 ba 6d 60 da 3a
       -0.0017389769 -0.0023877672 -0.0017259105 0.0016660817
0002d0 05 c4 44 bb 8b de ee ba 63 6f 00 bb 93 26 1e 3b
       -0.0030024063 -0.0018224282 -0.0019597642 0.0024131879
0002e0 c2 26 29 3b cd a6 39 3b 7f a6 07 3b 15 63 fd ba
       0.0025810455 0.002832818 0.0020698605 -0.0019331897
0002f0 8b 4b 2b bb 8d 8e d8 ba 1a 45 00 bb 39 f3 35 bb
       -0.0026137556 -0.0016521976 -0.0019572438 -0.002776338
000300 38 18 91 3b 73 85 96 3b 1f 40 95 3b 88 bc a6 bb
       0.004427936 0.004593545 0.004554763 -0.0050883926
000310 72 16 bc 3a fb 6d a9 3b bb c5 a2 3b 7b 14 89 bb
       0.0014349951 0.0051705814 0.004967419 -0.0041833497
000320 2f be 57 bb 28 8a 5c bb a2 e3 9a bb b8 7e 8f 3b
       -0.0032919755 -0.0033651683 -0.004726843 0.0043791197
000330 28 82 9b 3b bd 0c af 3b bb a8 98 3b 55 3c 76 3b
       0.0047457404 0.0053420947 0.004658786 0.0037572582
000340 e5 32 d0 3b 71 50 d8 3b 28 1d dd 3b 7b e8 df bb
       0.0063537234 0.0066013862 0.0067478605 -0.0068331338
000350 86 5f 08 3b fb fe db 3b 96 28 f0 3b a9 8e c4 bb
       0.002080889 0.0067137456 0.007329057 -0.0059984517
000360 3f c1 7d bb 97 b6 64 bb 41 3e d8 bb fc c7 c6 3b
       -0.003871992 -0.003489887 -0.006599218 0.0060663205
000370 d5 f6 d1 3b 90 cf de 3b 24 1a cf 3b a4 6a 81 3b
       0.0064075985 0.0067996457 0.006320255 0.00394948
000380 e6 3a 8e ba 08 d9 e4 39 12 17 91 ba 31 ca 5c 38
       -0.0010851293 0.0004364925 -0.0011069498 5.2640393e-05
000390 35 26 17 3b 3b 66 fd b9 79 67 34 b8 06 fe 92 ba
       0.0023063545 -0.00048332088 -4.301171e-05 -0.0011214621
0003a0 09 12 f6 ba ea 65 87 b8 bd c8 d7 b8 64 ba 9b 39
       -0.0018773685 -6.4562846e-05 -0.00010289389 0.00029702776
0003b0 70 85 a8 3a 35 71 2d ba c1 70 74 38 c1 7d f0 3a
       0.001285715 -0.00066162954 5.8279144e-05 0.0018348024
0003c0 85 b4 01 3b c2 1a e5 3a a8 0c fd 3a ae a0 9e ba
       0.0019791436 0.0017479288 0.001930614 -0.001210233
0003d0 d5 a0 8d 3a c0 e7 ef 3a c7 b6 e7 3a a0 1d 1e bb
       0.0010805378 0.001830332 0.0017678373 -0.0024126545
0003e0 a8 d8 cb ba 02 8e 85 ba 67 db fe ba b0 56 de 3a
       -0.001555224 -0.0010189416 -0.0019444049 0.0016963091
0003f0 ca e3 1b 3b 2e 04 b5 3a cf a7 f3 3a 99 3b aa 3a
       0.0023786896 0.001381045 0.001858944 0.0012987732

base_model.model.bert.encoder.layer.1.attention.self.query.lora_A.weight f4 [16, 384]
000000 f1 0c 19 bc 33 cd 96 bc 19 f1 e7 3c 27 f1 80 3b
       -0.009341464 -0.018408393 0.028313207 0.0039349976
000010 9b 3a ca 3c 3c c8 45 bd be 8a 09 bd e1 92 c6 3c
       0.024686148 -0.04828666 -0.03357958 0.02423996
000020 c8 b3 09 3d 22 95 2b bd 6a f9 a1 ba 7c d3 c6 bc
       0.03361872 -0.04189027 -0.0012357656 -0.024270765
000030 b1 0f e5 3b 5d 92 1e bd ed 2e 17 3c 87 cb a8 3c
       0.006990396 -0.0387138 0.009227497 0.020604862
000040 6a 5a 83 bc db 22 e4 3c 2f 2a b0 bc 26 d9 04 bd
       -0.016034324 0.027848652 -0.02150449 -0.03243365
000050 40 64 a7 bc c1 9b 1a bd 90 a0 82 bc 0d 7e 9a bc
       -0.020433545 -0.037746195 -0.015945703 -0.018858934
000060 27 05 e1 3c 3c 1c 3a bd 77 25 3c 3c 9f a7 45 bd
       0.027468277 -0.045437083 0.011483542 -0.04825556
000070 fd 48 0d bd 7f 97 37 3d 97 36 25 bd ce 22 e7 3c
       -0.034493435 0.044822212 -0.040335264 0.028214838
000080 9b 39 4e bb 5f 4e 99 3c f6 53 1b 3d 0e b1 f4 3c
       -0.003146744 0.018714128 0.03792187 0.029869583
000090 b7 28 96 bc 18 12 59 bb 6d 13 dc 3c 0c 0d bc bc
       -0.018329961 -0.0033122357 0.026864732 -0.02295544
0000a0 b6 c9 c2 3b 30 fb 2a bd 7c 89 4c 3d 91 e3 13 bc
       0.005944456 -0.041743457 0.049935803 -0.009026424
0000b0 a5 0f e0 3c 7a f4 3a bd e1 6c 10 bd a8 fc 3b 3d
       0.02735121 -0.045643307 -0.035260085 0.04589525
0000c0 10 5a 41 bc 2b 93 ef 3c fc f6 3e bc 4e 52 f4 bb
       -0.011801258 0.02924498 -0.011655565 -0.0074561005
0000d0 a9 57 01 3c f5 bc e4 3c e4 9c b7 bc dd bd dd bc
       0.007894435 0.027922133 -0.022413678 -0.027068073
0000e0 58 00 82 3c 18 c6 06 3c aa d6 25 bd 24 7c d2 bb
       0.015869305 0.00822594 -0.040487923 -0.00642349
0000f0 94 5c 25 bb d6 f1 2e bd fd af 23 3c 89 d1 3e 3c
       -0.0025232183 -0.0427111 0.009990689 0.011646637
000100 9d ae f0 bc e2 94 1a 3c 6f 10 b2 3c 47 1b 0d 3d
       -0.029380137 0.0094349105 0.021736352 0.03444984
000110 fe 9e e5 3b 1c cc 35 bd 38 ed 1f bd e8 d3 df 3c
       0.0070074787 -0.044384107 -0.03904459 0.027322724
000120 fa 28 25 3c 79 b8 f6 bc ec 0f 38 bd dd 42 45 3d
       0.01008057 -0.03011726 -0.04493706 0.04815947
000130 97 bc 4a 3c dc ac b6 bc 66 37 1d bd cb d0 f8 bc
       0.012374065 -0.022299223 -0.03838291 -0.030372998
000140 e7 ad 4a 3c 1c 28 2d 3d 9a 60 4f bd 9a a5 08 3d
       0.012370563 0.04227458 -0.050629236 0.033361055
000150 2c 23 a0 bc ac 1e c4 3c 0a 76 02 bd f5 dd d1 bb
       -0.019548021 0.023940407 -0.031850852 -0.006404633
000160 91 2f fa 3a e5 54 13 3d 97 ec 14 3d 6e 7a 05 3c
       0.0019087662 0.035969634 0.036358442 0.008146865
000170 73 71 09 3d b2 de 49 3d ca 96 d6 3c 1f dd bf 3c
       0.03355546 0.049284644 0.026194949 0.023420868
000180 40 49 53 3d 92 68 25 3d 98 98 34 bc ee c7 18 3c
       0.05158353 0.04038293 -0.011022709 0.009325011
000190 04 ad 29 3d 1c 1f b0 3c 9b 8a 33 bd a7 e4 f8 3b
       0.041424766 0.02149921 -0.043833356 0.007595617
0001a0 1f aa e6 bc 7d 9a 62 3d 77 6c 8f bc 8a c7 fb bc
       -0.028157292 0.055323113 -0.017507775 -0.030734796
0001b0 d3 1c 7e 3c 77 af 28 3d 26 29 03 3d e8 35 84 b9
       0.015509802 0.04118296 0.032021664 -0.00025217165
0001c0 d9 cb 12 3d cb 37 94 3c e3 08 5b bc 54 88 20 bd
       0.035838936 0.01809301 -0.013368818 -0.039192513
0001d0 50 47 04 3d db db e4 bc 73 38 01 bd 20 2c 03 3d
       0.03229457 -0.027936867 -0.031547975 0.032024503
0001e0 8a 38 9d 3b 96 c8 09 3c 4e 00 03 bd 5c 1d a2 3c
       0.0047979997 0.00840964 -0.031982712 0.01978939
0001f0 97 59 eb 3c 9d 90 35 3c 80 75 1c bd be db 3b 3d
       0.028729243 0.011081842 -0.038197994 0.04586386
000200 f7 dd e2 bc 88 e5 6a 3c 74 f4 4e 3d c7 0d 0d bd
       -0.027693732 0.014336951 0.050526097 -0.034436967
000210 10 d9 db 3b 02 12 5d bc 40 a9 96 bc 2e ff 31 bd
       0.0067092255 -0.013493063 -0.018391252 -0.04345625
000220 e2 6f b7 bc 87 d4 2e 3d a7 f9 4b 3d c2 17 42 bd
       -0.022392217 0.04268315 0.049798634 -0.04738594
000230 c4 38 59 bd f7 9a 91 3c 2b 63 48 3b 25 f1 13 bc
       -0.05303265 0.017774088 0.0030576687 -0.009029661
000240 1a 74 29 bd a5 e6 00 3c 90 e0 50 bd 46 e7 87 3b
       -0.04137049 0.00786749 -0.05099541 0.004147443
000250 bc 0e 71 bc 75 90 99 bc 24 b8 30 bd 18 55 34 bd
       -0.014712986 -0.01874564 -0.04314436 -0.044026464
000260 f8 58 d5 3c ca dc 97 bc f7 af c9 3b d2 90 f8 bc
       0.0260434 -0.018537898 0.00615501 -0.030342493
000270 3a 45 53 3d 94 7f 38 bc 12 ed a3 bc 8f ba 92 bc
       0.05157969 -0.011260886 -0.020010505 -0.017911224
000280 64 dd e0 bc 6b 3a f1 3c 0e 85 be 3c aa 8f 47 bd
       -0.027449317 0.029446801 0.023256805 -0.048720993
000290 7c ab 90 3c 11 61 e2 3c fe 2c 3a bd 86 87 27 bd
       0.017659895 0.027634175 -0.045453064 -0.04090073
0002a0 35 07 7f 3c 47 ea 8c bc 92 6a 36 3d 29 ad 05 3d
       0.015565683 -0.017201556 0.044535227 0.03263584
0002b0 1e 5e 14 bd 71 9d 8e 3b 5c a4 18 3c 42 7e 39 3d
       -0.03622257 0.0043522646 0.00931653 0.045286424
0002c0 14 c1 55 3b 48 ac 22 3d bd 1a e1 bc f4 bc d0 3c
       0.0032616304 0.03971508 -0.02747857 0.025480725
0002d0 c8 78 8a 3a 83 31 39 3c 0b 59 9b 3c aa f7 f7 bc
       0.001056456 0.011303308 0.018963357 -0.030269463
0002e0 4c 7a 07 bc f8 2c 23 3c 3c cf 53 3d f5 5e ea 3c
       -0.008268904 0.009959452 0.051711306 0.028609732
0002f0 7d 25 3d bd 04 81 4b 3d f4 28 98 bc b4 ed f5 3b
       -0.04617833 0.049683586 -0.018574215 0.007505143
000300 d6 a9 47 3c 30 7a 6e bc 65 01 dc bc 37 95 9b bc
       0.012186488 -0.014555499 -0.026856134 -0.01899205
000310 87 a2 10 3d fd c7 84 3c 65 01 01 bd 67 3c 10 3d
       0.03531125 0.016208643 -0.03149547 0.035213854
000320 3d 88 0a 3d 6c 36 f2 bb 59 6c cd bc 6d e9 56 bd
       0.033821333 -0.0073917415 -0.025076078 -0.052468706
000330 56 56 67 3c 96 e2 dd 3b a2 a3 14 3d 49 fd 20 bc
       0.014119705 0.006771396 0.036288865 -0.009826013
000340 46 2f 07 bd 00 5c fd bc 41 20 27 3d 30 a7 07 bc
       -0.033004068 -0.030927658 0.040802244 -0.008279607
000350 27 00 5f 3a 37 b6 06 3a 33 09 93 3c c8 6a e6 3b
       0.00085067976 0.00051388465 0.017948722 0.0070317723
000360 40 fc b9 3c 41 d7 34 bd 05 df fb ba 4b 4b e6 3c
       0.02270329 -0.044150595 -0.0019216245 0.028112074
000370 72 48 2a 3d 52 76 d4 3b 1d 8e c6 3a 7b 9d dc bc
       0.041572995 0.0064838314 0.0015148554 -0.026930561
000380 b1 16 27 3d 59 88 8c bc 0a e7 19 3d 97 42 4f 3d
       0.040793125 -0.01715486 0.03757385 0.050600614
000390 75 cb f1 bc f7 7f f2 bc 36 b8 a3 3c 6a 41 d7 3c
       -0.029515961 -0.029602034 0.0199853 0.026276309
0003a0 ba 71 1a 3d 63 3b bb bc 3a c4 09 bb 11 a6 47 3d
       0.037706114 -0.022855466 -0.00210215 0.048742358
0003b0 ef 4f ef bc 39 04 41 3c 1f 4f a0 3c b3 e8 aa bc
       -0.02921292 0.011780792 0.019568978 -0.020862913
0003c0 5c 89 27 bd 74 72 17 3d 5c 86 55 3c 99 63 b3 bc
       -0.04090248 0.036974385 0.013032522 -0.021898078
0003d0 4c c0 bd bc 3e 70 22 3d 91 9b 6a bd 3c ea dd 3c
       -0.023162983 0.039657824 -0.057277266 0.02708923
0003e0 ed 3a 28 3b b4 d4 09 bd c5 68 4f 3d 47 36 51 3d
       0.0025669888 -0.033650115 0.050637025 0.051077154
0003f0 50 4b be 3c 77 df c0 3c b5 31 3a bd 19 95 7b bc
       0.023229271 0.023544056 -0.04545756 -0.015355372

base_model.model.bert.encoder.layer.1.attention.self.query.lora_B.weight f4 [384, 16]
000000 3b df 81 3a 24 6b 80 ba 1c 72 d0 ba b3 5c 76 3a
       0.0009908447 -0.0009797555 -0.0015903148 0.00093979685
000010 6f 30 0a 3b da 25 1d ba ee d7 d6 3a 72 b6 88 bb
       0.0021085998 -0.0005994715 0.0016391256 -0.00417214
000020 e8 5c d8 b9 9f 38 e6 39 22 b1 aa b9 c8 84 86 3b
       -0.0004126795 0.00043911205 -0.000325569 0.004105184
000030 44 5f 8d bb 43 f1 4e 3b bd f5 ab bb 6f db fd 39
       -0.004314335 0.0031576909 -0.0052478 0.0004841941
000040 95 ac 04 3b 19 f6 0b 3a 49 ae da ba e0 47 81 39
       0.0020244468 0.00053391006 -0.0016684021 0.00024658348
000050 d2 37 01 3b 8e 78 0b bb 16 81 23 3a 90 83 cc ba
       0.001971711 -0.0021281573 0.0006237192 -0.0015603174
000060 7b 50 07 3a 0a 31 cf b8 6c 5c 59 3a 6b 08 ea 3a
       0.0005161834 -9.8796634e-05 0.0008291665 0.0017855292
000070 a3 51 be ba d6 33 4a 3a 84 b1 e6 ba a9 dd 49 ba
       -0.0014520179 0.00077134126 -0.0017600511 -0.00077005714
000080 9f a1 53 39 e4 dc dd b9 db 87 f1 b9 db 3a 83 b9
       0.00020182737 -0.0004231698 -0.00046068322 -0.00025030118
000090 b4 16 be 39 a7 e4 ff 37 e8 ce c2 b9 2b 90 15 b9
       0.0003625654 3.0504843e-05 -0.0003715672 -0.00014263454
0000a0 0b 48 d7 b9 2b f2 f9 3a 22 f4 55 b7 e4 e0 a1 3a
       -0.00041061672 0.0019069364 -1.2752631e-05 0.0012350348
0000b0 39 08 76 b9 2f 7d 6c 3a 0b 9a 0a ba ec c7 96 39
       -0.00023463451 0.00090213394 -0.00052872364 0.00028759183
0000c0 b2 99 ee 3a 7d 8e be ba c5 d7 22 bb e9 d2 04 3a
       0.0018203764 -0.0014538314 -0.0024847847 0.00050668285
0000d0 52 32 32 3b 22 cc a9 ba 57 ef 95 3a ac c3 95 bb
       0.0027190638 -0.0012954513 0.0011439127 -0.004570445
0000e0 19 60 41 38 b2 28 86 3a 62 9f d1 39 7d 37 86 3b
       4.6104284e-05 0.0010235517 0.00039982336 0.00409597
0000f0 f5 9e 9d bb 7c 44 47 3b 43 df af bb cb 08 ad 3a
       -0.004810209 0.003040581 -0.005367191 0.0013201473
000100 ad 31 bb 3b e9 ba 85 bb 07 f5 c2 bb d8 b9 97 3a
       0.005712709 -0.0040811193 -0.0059496197 0.0011575771
000110 30 d4 c6 3b d6 e9 b7 bb f7 cb 34 3b ac 48 a0 bb
       0.006067775 -0.005612592 0.0027587393 -0.0048914757
000120 e3 fc bc b9 b0 d1 9b 3a 48 1f 67 ba d7 c0 ca 3b
       -0.0003604657 0.0011888053 -0.0008816612 0.006187539
000130 81 4c b2 bb bf a9 9a 3b be 9f be bb 51 6d 63 3a
       -0.005441249 0.0047199423 -0.0058173826 0.0008675652
000140 19 3c 50 3b 16 98 1f bb 09 a4 bd bb a2 3c 11 3a
       0.0031774102 -0.0024352125 -0.005787377 0.0005540346
000150 90 34 c3 3b 84 a1 1e bb af db c9 3a 04 4b a2 bb
       0.0059571937 -0.0024205158 0.0015400554 -0.00495279
000160 7e 6d bc 39 05 f5 d3 3a ed b1 3b 3a d7 8f d3 3b
       0.00035939732 0.0016171044 0.0007159997 0.006456356
000170 7b 6c b6 bb 70 d8 74 3b df f0 d1 bb 33 f4 08 3b
       -0.005567131 0.0037360452 -0.006406888 0.0020897507
000180 df c2 65 3a c7 96 58 ba d9 b0 52 ba bd cd a0 3a
       0.0008764695 -0.00082622137 -0.00080372166 0.0012268346
000190 b2 21 39 3a f6 1f 8a b9 b1 15 c5 3a 70 24 11 bb
       0.0007062211 -0.00026345224 0.0015036372 -0.0022146963
0001a0 d3 c4 6d b9 91 da d0 39 a3 6e d9 39 de 6c 97 3a
       -0.00022675404 0.00039835696 0.00041471896 0.0011552831
0001b0 93 4c 46 bb 0c 8b 14 3b 0d 25 2c bb ea 9f 9a 3a
       -0.0030258044 0.0022665886 -0.0026267201 0.0011796926
0001c0 8f 07 b0 3a 1b 2f 8c ba 26 9d 01 bb 3e 85 f3 38
       0.0013429987 -0.0010695191 -0.0019777506 0.00011611961
0001d0 76 31 ef 3a e2 c2 8f ba dc ed c6 39 46 e3 8d bb
       0.0018248993 -0.0010968114 0.00037942722 -0.0043300716
0001e0 63 d0 c7 38 60 30 57 3a f1 0a db 39 9b 08 34 3b
       9.5278745e-05 0.00082088076 0.00041779087 0.002747095
0001f0 4e d2 92 bb bb 2b 06 3b b8 64 88 bb cb 8b 96 3a
       -0.0044806367 0.0020472843 -0.0041623972 0.0011485753
000200 73 4a 89 3a 5d 82 91 ba ea f6 29 bb 89 1c 97 3a
       0.0010474458 -0.0011101473 -0.0025934526 0.001152889
000210 4b 59 d9 3a 87 04 1d ba b5 a3 0f 3b fa 3f 00 bb
       0.0016582398 -0.00059897493 0.0021917645 -0.0019569383
000220 82 23 b3 b9 6f 84 43 3a 3c 29 6d b9 45 63 8e 3b
       -0.00034167996 0.0007458394 -0.00022617442 0.00434533
000230 81 e1 26 bb 0c 94 94 3b da bd 19 bb bc 78 81 3a
       -0.0025464 0.00453425 -0.0023459108 0.0009877901
000240 db 35 f9 39 2d a2 6d bb fa a6 12 bb b8 61 98 36
       0.00047533106 -0.0036259994 -0.0022377358 4.541329e-06
000250 bc d9 51 3a 1e c2 c8 b9 2a f0 a1 3a 50 f7 ce ba
       0.0008005162 -0.000382916 0.00123549 -0.0015790258
000260 06 0d 25 b9 83 1d 23 3b a3 97 49 ba bf 2f 7f 3b
       -0.00015740478 0.0024889417 -0.0007690137 0.003893837
000270 05 08 98 ba 6e 0c 50 3b fa 21 bb ba bf 34 ed 39
       -0.001159907 0.003174569 -0.0014277094 0.00045243461
000280 aa a1 60 bb 67 f4 0a 3b c9 a5 b9 3b b6 db 8e 39
       -0.0034276047 0.0021202804 0.005665515 0.00027248048
000290 22 00 c2 bb 52 b4 57 3b 39 a7 94 b8 18 49 99 3b
       -0.005920426 0.0032913876 -7.0883376e-05 0.004677903
0002a0 0f 83 94 ba 77 e1 bf ba c0 3f 95 ba c9 f4 a7 bb
       -0.0011330562 -0.0014639337 -0.0011386797 -0.005125616
0002b0 ac ac 99 3b 68 5a cf ba 10 bf b6 3b 13 ea 19 bb
       0.0046897735 -0.001581979 0.0055769756 -0.0023485466
0002c0 2d 9c d4 ba 4d 69 c9 3a e1 64 ed 3a b7 7f 25 ba
       -0.001622086 0.0015366465 0.0018111729 -0.00063132815
0002d0 51 57 17 bb 21 1f 94 3a 45 1e a8 ba 31 94 91 3b
       -0.0023092816 0.0011300781 -0.0012826404 0.0044427146
0002e0 1d d6 c8 b9 a1 43 19 ba df 4a 4b ba 7c de 4f bb
       -0.000383065 -0.00058465643 -0.0007754992 -0.0031718304
0002f0 ba 3e a0 3b 18 7e 2b bb 6f 44 91 3b 22 21 c3 ba
       0.00489029 -0.0026167687 0.0044332067 -0.0014887194
000300 9c 82 08 3a 24 a1 b8 b9 4e 1c 08 b9 78 c4 31 bb
       0.00052074506 -0.00035215274 -0.00012980515 -0.002712516
000310 c5 e9 45 b9 bd fe 2c ba 4d 45 56 bb 79 ba 05 3a
       -0.0001887447 -0.0006599238 -0.0032695115 0.0005101334
000320 38 b7 08 3b ca 5a a0 b7 63 f8 05 3b 9e cc 0e bb
       0.002086116 -1.9115763e-05 0.002044224 -0.0021789442
000330 47 fe 13 3a 18 a9 58 bb 35 2e 9e 3a 8f e7 86 3a
       0.0005645495 -0.0033059772 0.0012068214 0.0010292399
000340 97 74 57 bb 2f 83 31 3b 65 61 88 3b 33 7f 80 3a
       -0.003287589 0.0027086248 0.004162001 0.0009803533
000350 ab f9 7a bb c9 23 61 3b 65 79 f4 b9 f6 b0 49 3b
       -0.0038295786 0.0034353605 -0.00046629753 0.0030775643
000360 93 48 5e bb 42 16 82 ba c7 db 1a bb b2 17 8f bb
       -0.003391777 -0.0009924846 -0.0023629533 -0.0043668384
000370 07 0a 47 3b 95 28 f9 ba ac 6a 50 3b dd f4 ba ba
       0.0030370967 -0.0019009287 0.0031801863 -0.0014263649
000380 91 f2 ea 39 db 2f 11 ba 8c ad 66 ba 48 2a 4a 3a
       0.00044812684 -0.0005538442 -0.0008799664 0.0007711989
000390 6a 55 e5 39 3f e2 9b 38 e6 25 9e 3a f9 4b 27 bb
       0.00043741922 7.4331176e-05 0.0012065738 -0.002552746
0003a0 aa 6b 22 ba 9a 19 81 3a 2f b9 95 39 2b e0 15 3b
       -0.0006195853 0.0009849549 0.00028557467 0.002286921
0003b0 6a 9f 2c bb 5f 88 03 3b 48 5e 3d bb fd 35 d3 39
       -0.0026340135 0.0020070297 -0.0028895307 0.0004028528
0003c0 3b e3 dc bb c2 28 e0 3b bd 1f d8 3b 95 5d b8 ba
       -0.006740955 0.006840796 0.0065955804 -0.0014065976
0003d0 bf 31 e5 bb b9 e6 a8 3b 9e 33 83 bb 0f 38 cb 3b
       -0.0069944556 0.0051544574 -0.004003956 0.006201751
0003e0 ba ca 26 bb 1e 1a 78 bb 6d a9 11 ba 67 67 d9 bb
       -0.0025450424 -0.0037857364 -0.00055565574 -0.006634641
0003f0 74 3e d9 3b 0f 01 cc bb fd 51 e2 3b 4b 7f 7c bb
       0.0066297594 -0.006225712 0.0069067464 -0.003852802
