lora_crossencoder_has_instruction_2/checkpoint-1935/adapter_model.safetensors (safetensors, 594924 bytes, 25 tensors)

base_model.model.bert.encoder.layer.0.attention.self.query.lora_A.weight f4 [16, 384]
000000 d5 fc 81 3c 23 3b cf 3c a5 42 8d 3c 28 5b e2 bc
       0.01586763 0.025296753 0.017243693 -0.027631357
000010 48 01 10 bd d9 ed aa 3c ee 9f 06 3d 2e d9 5c 3d
       -0.035157472 0.020865368 0.032867365 0.053918056
000020 0c ed 10 3c a9 05 5b bd c4 8d 22 3c 3c 32 2f bc
       0.008845579 -0.053472195 0.009921495 -0.010693129
000030 30 8c 26 bc a6 39 41 3c 59 ec 28 bd 72 49 0f 3d
       -0.010165259 0.01179353 -0.041241024 0.034982152
000040 01 ff 17 3d e9 16 a3 3b a8 22 3c 3b 44 a5 a7 b7
       0.037108425 0.0049770963 0.002870718 -1.998491e-05
000050 e1 96 21 3c 15 72 38 3c 6b 0a 05 3c a7 9d d2 bc
       0.0098626325 0.011257668 0.00812016 -0.02570994
000060 cb da 88 bb cb 03 66 bd 44 9c 49 bc af da ef bb
       -0.004176473 -0.05615596 -0.012305323 -0.0073197703
000070 96 85 12 3d 06 6c 06 3d 87 29 97 bb 6b bf 37 bd
       0.03577193 0.032817863 -0.0046131047 -0.044860285
000080 f7 46 b0 3c 46 a9 b4 3c 98 d0 0a 3c 38 89 3c bc
       0.021518214 0.022053372 0.008472584 -0.011507325
000090 2b 6e 9c 3a 9b 1c 3b bc 92 ed 8e 3c 5f 0f f3 3b
       0.0011934688 -0.011420394 0.017447267 0.007417604
0000a0 f8 e6 ff 3c 77 88 28 bd 26 cb 36 3d 12 28 df 3c
       0.031238064 -0.041145768 0.04462733 0.027240787
0000b0 b5 98 48 3d d9 52 1d 3d 0a 5a 83 bc c8 b8 ee b9
       0.048973758 0.038409088 -0.016034145 -0.0004553257
0000c0 04 f9 b0 3c 58 0b 35 bd 7c 43 42 3b 76 9d 1c bd
       0.021603115 -0.04420027 0.0029642275 -0.038236104
0000d0 96 24 15 bd 66 12 10 3c 74 ad 5b 3d 15 f1 31 bd
       -0.036411844 0.008793449 0.053632215 -0.043442804
0000e0 51 cb c7 bb 88 c9 60 bc 87 f7 9e 3c dc 9f 29 bd
       -0.0060972353 -0.013719924 0.01940514 -0.04141222
0000f0 6b 66 15 bd 1a 5d a3 3c 23 51 8c bc 9a 8f f1 bc
       -0.036474627 0.019941855 -0.017128533 -0.02948742
000100 48 5e 0a 3c f7 75 9d bb a2 b7 bd bc cc 25 19 3d
       0.00844533 -0.0048053223 -0.023158852 0.03738956
000110 e5 6e 51 3c 55 1b 44 ba e7 a8 96 bc 92 6d 65 3c
       0.012782787 -0.00074808794 -0.018391086 0.014003174
000120 12 46 19 3d 98 c6 03 3d cc b7 3a bd c9 ec d2 bc
       0.03742034 0.032171816 -0.04558544 -0.025747674
000130 42 17 44 3d 57 1c f8 bc be a9 3d bd 6c bb 2a 3d
       0.047873743 -0.030286951 -0.046304457 0.041682646
000140 c8 d1 2d bd 0a 71 4d 3d b3 40 1d bc d6 07 ee bc
       -0.04243639 0.05015663 -0.009597945 -0.02905647
000150 18 27 13 3d 64 70 a7 3c 8d a2 0d bd d8 50 26 bd
       0.035925955 0.020439334 -0.03457885 -0.040604442
000160 53 82 d4 3c 09 7a 34 bd eb e7 4c 3d 29 90 40 3d
       0.02594105 -0.044061694 0.05002586 0.04701248
000170 b7 5b 09 3d ab d2 4c bd 9a b2 ec bc dd 62 02 3d
       0.03353473 -0.050005596 -0.028893758 0.031832565
000180 12 d8 09 bc 43 fd 42 bd 6d 14 1e 3d 9a 12 2d bd
       -0.008413332 -0.04760481 0.0385937 -0.042254068
000190 1f 4d 76 bc 28 34 22 3d 73 eb af 3c dd b8 04 bd
       -0.015033036 0.03960052 0.021474576 -0.032402862
0001a0 a2 4c 9f bc 58 b8 38 3d 68 30 24 bb 0e 9a 2d 3d
       -0.019445721 0.04509768 -0.0025053266 0.042383246
0001b0 02 2a 21 bd 8b 5b 40 bc 33 24 13 3d 73 4e a6 3c
       -0.039346702 -0.011740576 0.035923194 0.02030108
0001c0 59 87 50 bd 45 5a d9 bc ae e3 2d bd 6b 9b 2b 3d
       -0.050910328 -0.026532302 -0.04245346 0.041896265
0001d0 cc 6e b1 bc f0 ab 58 bc 90 03 e3 3c 1d 52 cb 3c
       -0.021659277 -0.013224587 0.02771166 0.024819428
0001e0 6f 0f 0a bd da d1 ef 3c c0 c6 ce 3c 18 88 50 3b
       -0.033706125 0.02927487 0.025241256 0.00318194
0001f0 4b 93 18 3b 18 2e 2d bb de c8 40 bc d4 93 85 ba
       0.0023281153 -0.002642518 -0.0117666405 -0.0010191151
000200 73 1e 44 3d a7 3d a5 3c 4f 27 47 bc 2e a5 23 bc
       0.0478806 0.020171 -0.012155368 -0.009988112
000210 bf 65 3c bc cf 67 60 bd 63 be 02 bd f1 68 29 3d
       -0.0114988675 -0.0547865 -0.03191985 0.041359846
000220 1c fb d6 3c 4c a1 41 bd 20 23 9b bc 74 5b a5 3b
       0.026242785 -0.047272965 -0.018937647 0.0050463025
000230 e5 86 36 3c 28 06 41 bc ae 83 15 bc 6a 41 3b 3d
       0.01114056 -0.011781253 -0.009125633 0.04571668
000240 6d 69 4c bc df a0 27 bc 94 88 b1 bc fd 5a 66 3b
       -0.012476307 -0.010231226 -0.02167157 0.0035149448
000250 f9 83 0d 3d 08 06 91 3c 5e 22 3a 3c 41 1e 52 bd
       0.034549687 0.017703071 0.011360733 -0.051298384
000260 8c 32 d2 bc 37 6a 69 3c d1 6e c5 bc 5e 07 f1 bc
       -0.025658868 0.014246515 -0.024100693 -0.029422458
000270 0f c6 5c bd ae 03 3d bd 0f b7 17 bd ff f6 e6 bc
       -0.05389982 -0.046146087 -0.037039813 -0.028193949
000280 12 a2 85 3c 47 80 fd 3c 42 ad d5 bb 40 66 bf bc
       0.016312633 0.030944956 -0.006520898 -0.023364186
000290 12 87 77 3b 96 cb ff bb 8d dc 2d bd 7f 23 25 3d
       0.0037769717 -0.0078062518 -0.04244666 0.040317055
0002a0 ce 91 be bc 70 c7 3a 3d 81 78 bc bc 71 eb fb bc
       -0.023262884 0.045600355 -0.02300668 -0.030751916
0002b0 fc f5 da bc b0 78 dc ba 1f 8a 20 3d dc b6 f6 bc
       -0.026728623 -0.0016820636 0.039194223 -0.030116491
0002c0 02 ee 0b 3d d2 60 92 3c 59 51 44 3d 37 9f 73 3c
       0.03416253 0.017868433 0.04792914 0.014869503
0002d0 01 2a 56 3d 45 e0 3a 3c bc 08 35 3c 66 17 21 bd
       0.05228615 0.011406009 0.011049446 -0.039328955
0002e0 6c f7 2a 3d c1 0a 37 3d f9 c1 07 bd 25 59 d9 3c
       0.041739866 0.04468799 -0.03314397 0.026531765
0002f0 30 21 28 bd a4 c9 d3 3b df 21 14 3c bf 06 0e 3d
       -0.041047275 0.0064632464 0.009041279 0.034674402
000300 41 71 d1 3c 60 13 82 3c 5e 47 0a bd 70 2a bd 3c
       0.025566699 0.01587838 -0.033759467 0.023091525
000310 b7 0b 09 3d bb dd 17 bd 99 da ec 3c 94 19 90 bc
       0.033458438 -0.037076693 0.02891283 -0.017590322
000320 01 0b 87 3b 4a 4e 21 3c 63 30 ef 3c ae 6e df 3c
       0.004121185 0.009845326 0.029197877 0.027274456
000330 94 06 6c bc d4 b0 b4 bc 9e 44 6c bc b1 3d 03 3d
       -0.014405865 -0.022056974 -0.0144206565 0.032041255
000340 40 1e 0d bd 0f 11 48 bc 6a 12 4f 3d 2d f9 bb 3c
       -0.034452677 -0.012211098 0.05055467 0.022945965
000350 f1 c3 d5 3a 0e 02 8a 3c 4b a8 61 3c 22 20 08 3d
       0.0016309005 0.016846683 0.013773034 0.03323377
000360 37 62 e6 3c d3 cb 0d bc a8 52 fa 3c e1 65 6f 3c
       0.028123004 -0.0086545525 0.030556992 0.014611692
000370 90 fe 32 bd 61 54 ed 3c 87 86 bf bc 92 59 1c 3d
       -0.0436998 0.028970899 -0.023379577 0.03817136
000380 a4 64 47 3d e4 ab 99 3b 48 57 d4 bc 63 6b b7 bc
       0.048679963 0.0046896804 -0.025920525 -0.022390073
000390 9c d9 c5 3c 31 49 32 bd e3 c3 ca 3c 17 14 1d 3d
       0.024151616 -0.043526832 0.02475161 0.038349237
0003a0 97 6e 83 bc c7 2e 53 bd 7c 21 92 bc 10 70 08 bd
       -0.016043944 -0.051558282 -0.017838232 -0.033309996
0003b0 bf 19 a3 3c 58 24 b4 3c fb c0 f8 bc 76 8c c6 3c
       0.019909738 0.021989986 -0.030365458 0.024236899
0003c0 bf 4e fb bb 02 b5 12 3c ff b9 3f bc 0b 09 39 3d
       -0.0076692994 0.008954288 -0.01170206 0.04517464
0003d0 ee 16 14 3d 10 4f e7 bc 0c e7 42 39 3d 26 17 bd
       0.03615468 -0.028235942 0.00018587353 -0.0369017
0003e0 c8 3f 39 bd fe 71 af 3b 94 bb 31 3d 10 19 42 bd
       -0.045226842 0.005354165 0.04339178 -0.047387183
0003f0 eb 0a c6 bc 42 99 f3 3c 31 46 e1 3c 51 d7 db 3c
       -0.024175128 0.029736165 0.02749929 0.02683607

base_model.model.bert.encoder.layer.0.attention.self.query.lora_B.weight f4 [384, 16]
000000 ee 00 3e 3b 70 6a 1b 3b 1e 21 77 3a 72 01 78 ba
       0.0028992253 0.0023714565 0.0009427237 -0.00094606646
000010 7f ac d2 3a 1c d9 07 3b 9e e4 dc ba 14 d8 0e bb
       0.0016073136 0.0020728773 -0.0016852801 -0.0021796273
000020 99 14 c4 3a 4d 75 d3 b9 4f f5 a6 39 b5 eb f3 ba
       0.0014959752 -0.00040332452 0.00031844756 -0.0018609675
000030 20 9a fb 3a 3e 9b b0 3a fa bf e3 3a d5 be 03 3b
       0.0019195713 0.0013474 0.0017375939 0.0020102758
000040 f8 24 34 3b cb b7 15 3b 3f e2 dc b9 94 53 28 3b
       0.0027487855 0.0022845145 -0.00042130236 0.0025684582
000050 e4 07 6a 3b 48 bf 3f 3b 51 69 5a bb 7d 4d 03 bb
       0.003571027 0.00292583 -0.0033326934 -0.00200352
000060 8e 4b ae 3a ee fa 20 bb 6b 7e 72 3b 59 8a 8c bb
       0.0013297664 -0.0024563628 0.003700162 -0.0042889533
000070 dc 0f 1c 3b 10 e9 e5 39 2e 3a 61 b9 46 45 83 3a
       0.0023813164 0.0004385193 -0.00021479346 0.0010015152
000080 0e d2 12 bb 2c 84 d8 ba 6a bf 71 3a 97 9b 21 3a
       -0.0022403034 -0.0016518882 0.00092219433 0.00061648473
000090 b4 1c 06 bb 76 cc 48 bb 44 30 e6 3a 09 14 79 3b
       -0.0020463886 -0.0030639446 0.0017561992 0.0038006327
0000a0 f0 06 0b bb 5c 47 41 3b d3 9b 0b bb 32 b1 da 3a
       -0.0021213852 0.0029491996 -0.0021302595 0.0016684888
0000b0 98 2c 33 bb 93 8c c3 ba ff ed 04 bb ff 98 21 39
       -0.0027339812 -0.0014919214 -0.0020283458 0.00015411152
0000c0 fb 75 72 ba c8 20 e9 ba 6e d8 b7 39 cc 7c f8 ba
       -0.0009249148 -0.0017786259 0.00035065733 -0.0018958091
0000d0 b4 c1 01 bb 16 6b dc ba 58 1b 0f 3b 7c 9d e3 b9
       -0.0019799294 -0.0016816582 0.0021836367 -0.0004341415
0000e0 b2 89 f6 39 3c cc 4b bb b1 17 e3 ba 42 e8 83 3a
       0.00047023367 -0.0031097075 -0.0017325786 0.0010063725
0000f0 58 44 3f 38 5b 65 08 3b 14 68 1a bb c5 77 97 ba
       4.56016e-05 0.0020812366 -0.002356057 -0.001155608
000100 79 f6 b0 ba 80 2a fa ba 12 3e 03 bb 72 b4 50 3a
       -0.0013501189 -0.0019086152 -0.002002601 0.0007961459
000110 e6 4d 1a ba 29 4c 47 ba 62 2e 11 3a 4e 1c 2b 3b
       -0.00058862416 -0.00076025963 0.00055382226 0.00261094
000120 cf 3e 8d 37 77 e2 c1 3a 7a 2d d4 39 00 ef 70 3a
       1.6837757e-05 0.0014792223 0.00040469674 0.0009190887
000130 7f 40 88 ba 29 d9 76 bb 58 51 b0 ba cc 7d 52 bb
       -0.0010395198 -0.0037666059 -0.0013451977 -0.0032118438
000140 29 30 eb 3a 09 c1 b8 3a 5c 41 11 38 72 42 e6 b9
       0.001794343 0.0014095615 3.4631565e-05 -0.00043918524
000150 0f fd 0b 3b b9 ea 20 3b af cf 03 bb 04 c4 d4 ba
       0.0021360551 0.0024553968 -0.0020112803 -0.0016232734
000160 17 d1 00 3b 33 1e d1 ba a6 15 1f 3b 9d 22 02 bb
       0.0019655877 -0.0015954435 0.0024274378 -0.0019857057
000170 49 f2 f6 3a d9 35 5f 38 67 cf 6c 3a 9c 29 7d 3a
       0.0018840517 5.3217493e-05 0.0009033591 0.00096573844
000180 9d 23 9f 3a dd 36 d0 39 55 2b 19 bb 47 3e 07 3b
       0.0012141351 0.00039713728 -0.0023371775 0.0020636485
000190 0b 96 08 3b ed 0a ff 3a 57 61 f3 ba 93 27 29 ba
       0.0020841386 0.0019458212 -0.0018568438 -0.00064527354
0001a0 63 73 a2 ba f7 ce a2 3a 3a 12 18 3b 62 c0 ee ba
       -0.0012394007 0.00124213 0.0023204223 -0.0018215294
0001b0 2f 43 98 3a fb aa 87 bb 40 1e 86 ba c5 a9 3e bb
       0.0011616702 -0.0041402555 -0.0010232404 -0.002909289
0001c0 7a a0 73 3b 24 6c 38 3b fe ae 7e b9 31 01 72 3a
       0.003717451 0.0028140629 -0.00024288517 0.0009231745
0001d0 62 5a 47 3b 6d 9e 89 3b 90 6b 3d bb 0c 81 48 bb
       0.0030418863 0.004199794 -0.0028903224 -0.0030594496
0001e0 06 e8 3d 3a 8b 85 ae ba 9e 06 19 3b 0e 8b 89 bb
       0.0007244352 -0.0013314945 0.0023349891 -0.004197485
0001f0 85 ec 57 3b 75 5e af 3a 02 d2 dd 39 6a af b0 3a
       0.0032947373 0.0013379591 0.00042308873 0.0013480012
000200 e3 40 11 bb 17 de c1 ba 8c 54 85 ba 10 67 ef 3a
       -0.002216392 -0.0014790919 -0.0010172292 0.0018264968
000210 17 db 42 ba ec 07 27 bb d5 db 02 37 42 45 f8 3a
       -0.00074331596 -0.00254869 7.799787e-06 0.0018941539
000220 3a 82 30 bb 5f c4 bb 3a d1 2a 71 3a 5a fd 93 39
       -0.002693309 0.0014325491 0.00091998006 0.00028226787
000230 51 3f d2 ba f7 6e bb ba 77 5e 85 ba e4 b0 b4 ba
       -0.0016040598 -0.0014300038 -0.0010175247 -0.0013785628
000240 c4 5e 95 3b a1 6a 52 3b 46 86 70 3a ee 44 a7 ba
       0.004558416 0.0032107013 0.0009175282 -0.0012761632
000250 d4 8c 0d 3b 33 2b 83 3b 65 b9 f3 ba a9 a3 a0 bb
       0.0021598833 0.0040029525 -0.0018594681 -0.0049023223
000260 b6 80 28 3b 22 07 54 bb 4b 82 a0 3a 28 a5 3d bb
       0.0025711483 -0.0032352884 0.0012245862 -0.0028937552
000270 c5 bc 70 3b 0c 8f 2e 3b c2 0e 8c 3a 7a 29 67 3b
       0.003673361 0.0026635556 0.001068555 0.0035272525
000280 24 0b 79 bb 6f 7b 5d bb de 17 a8 ba c1 07 0c 3a
       -0.0038001025 -0.0033795496 -0.0012824496 0.00053417316
000290 e3 3c 58 bb c9 41 39 bb ff 03 02 3b f9 78 41 3b
       -0.0032995276 -0.002826797 0.0019838808 0.0029521568
0002a0 77 ed 03 bb bd e8 43 3b 27 40 82 ba a4 27 00 3b
       -0.0020130554 0.0029893361 -0.0009937332 0.0019554878
0002b0 16 90 4f bb 4c f4 f8 ba f7 cb f1 ba 95 71 1f bb
       -0.0031671575 -0.0018993705 -0.0018447627 -0.0024329175
0002c0 50 d5 75 b9 c6 dd 00 ba fc 87 0d bb fa 7a fb 3a
       -0.00023444486 -0.00049158593 -0.0021595946 0.001918643
0002d0 1d f1 13 3b 96 8b f5 b9 88 d6 f5 ba 9d 67 85 3a
       0.0022574135 -0.0004683404 -0.0018755952 0.0010177974
0002e0 17 48 40 bb 85 28 f8 3a 12 f1 3a 3b 38 d2 d6 ba
       -0.0029339844 0.0018932974 0.0028525037 -0.0016389554
0002f0 15 62 90 ba f9 fe c0 ba 1f ee a9 ba 87 2c f5 ba
       -0.0011015559 -0.0014724425 -0.0012964642 -0.0018705287
000300 41 a4 b9 3b a3 b1 3b 3b 57 3d 13 bb 32 95 2b 3b
       0.0056653325 0.0028639815 -0.0022466981 0.0026181457
000310 25 84 99 3b 6d 9e 9c 3b f3 82 8a bb 86 29 cd ba
       0.0046849423 0.004779628 -0.004227036 -0.0015652634
000320 24 ef 01 bb 4d d3 01 3a 22 4a 80 3b 0d 39 a7 bb
       -0.0019826377 0.0004952446 0.0039150873 -0.0051032365
000330 be c2 91 3b 8b 49 07 bb be 8a 7b 3a 5d 9c 02 3a
       0.004448264 -0.00206432 0.00095955643 0.00049824064
000340 62 4e b1 3b f9 15 92 3b af 21 c6 b9 e9 0e 47 3a
       0.0054109553 0.0044581858 -0.000377906 0.00075934693
000350 73 04 8e 3b b9 b1 b1 3b 33 79 7e bb 05 97 b9 bb
       0.0043340265 0.0054227975 -0.0038829565 -0.005663755
000360 0a 80 e7 3a 76 43 8d bb 08 b2 6a 3b 23 05 a4 bb
       0.001766206 -0.0043110205 0.0035811681 -0.005005495
000370 ca 77 87 3b 73 b9 1f 3b 44 dc 91 3a cc 39 d2 3a
       0.004134153 0.002437201 0.0011128266 0.0016038953
000380 e1 b8 c3 3a df e7 31 3a bb 37 dc b9 2f 8f c0 3a
       0.0014932418 0.00067865656 -0.00042003192 0.001469111
000390 4d e2 e0 3a 70 9f 10 3b 67 88 dc ba 65 2f 81 ba
       0.0017157287 0.0022067688 -0.0016825319 -0.0009856044
0003a0 a6 ae c6 3a 57 b3 bd ba 6b 56 21 3b 6d 9e 0d bb
       0.001515825 -0.0014473003 0.002461816 -0.0021609322
0003b0 ed e5 94 3a b7 11 6a 39 8e ba 1c ba 99 c0 24 ba
       0.0011360027 0.00022322578 -0.00059787265 -0.0006284803
0003c0 ce 09 de b9 50 2a 0a ba 0d a8 1c b8 bf 19 d7 39
       -0.00042350445 -0.0005270587 -3.7349808e-05 0.00041027178
0003d0 6b e9 0f 39 a2 8f cd b8 9a 23 49 b8 c2 5a 44 3a
       0.00013724498 -9.8019154e-05 -4.795529e-05 0.00074903306
0003e0 7e fe 0e 3b ce f6 5d b9 03 ab 94 39 22 07 28 b9
       0.002181917 -0.00021168144 0.00028356173 -0.00016024386
0003f0 51 e8 c9 b9 16 8b 15 ba ee 7e 37 ba e1 4b d0 ba
       -0.00038510797 -0.00057046243 -0.000699981 -0.0015891754

base_model.model.bert.encoder.layer.0.attention.self.value.lora_A.weight f4 [16, 384]
000000 da ff eb bb 3c 83 13 bd 2d 26 f7 bc 4c 77 b9 3b
       -0.0072021307 -0.036013827 -0.03016957 0.0056599732
000010 35 55 13 bd f5 55 ab bc 26 0e 39 3d 50 ce 31 bc
       -0.03596993 -0.020915011 0.04517951 -0.010852411
000020 9c be bf bc 1c 54 18 bd b6 b4 00 3d c7 d7 5b bc
       -0.02340632 -0.037189588 0.03142234 -0.013418145
000030 09 3b 08 bd 83 26 14 bd 4e a4 20 bd 41 ac 26 bc
       -0.033259425 -0.03616954 -0.039219193 -0.0101729045
000040 ad 48 3c 3c e2 f3 35 3d 5b cf 22 bd eb 1f 41 3d
       0.011491937 0.044422038 -0.03974853 0.04714958
000050 40 82 bb 3a f3 d6 5e bd de 21 4b bd 5a 5b 1b bd
       0.0014305785 -0.05440421 -0.049592845 -0.037928917
000060 d0 00 34 3d 2e 6a 5e bd 0c 84 27 3d e5 ee 48 bd
       0.043946087 -0.05430048 0.040897414 -0.049055953
000070 8f 8e 79 3c db 52 c8 bc 69 01 87 3c 7f 41 41 bc
       0.0152317425 -0.024453571 0.016480165 -0.011795401
000080 d2 56 f8 bc e6 97 45 bd c9 30 11 bc e6 86 c8 bc
       -0.030314837 -0.048240565 -0.008861729 -0.024478387
000090 6f 93 15 3c f5 2a f4 bc a1 db 93 3c 74 4d be 3c
       0.009129389 -0.02980564 0.018049063 0.023230292
0000a0 64 3f 2f bd ef b8 c2 3c 00 73 29 3d e2 49 72 3c
       -0.042785063 0.023769824 0.04136944 0.014788123
0000b0 03 c8 c0 3c 75 55 f8 3b 38 82 12 3d 94 c5 33 bd
       0.023532873 0.0075785466 0.035768718 -0.043889597
0000c0 d6 f2 0f bb d9 0a 85 3c 00 33 db 3c f4 04 94 3c
       -0.002196481 0.016240524 0.026757717 0.018068768
0000d0 0c 4c f6 3c 4c 8e 4c bc 58 73 71 bc 6d e1 c0 3b
       0.030065559 -0.012485098 -0.014736973 0.005886248
0000e0 3c ba 5b 3d 87 17 1a 3d f7 58 4a bd b5 fd 56 bc
       0.053644404 0.037620094 -0.04940125 -0.013122012
0000f0 e6 fe 1e 3c f4 cd 92 bc c3 cb 09 bc 2c e8 2d bd
       0.009704327 -0.017920472 -0.008410397 -0.042457744
000100 f2 c5 3b bd fc e4 fa 3b 17 c8 26 3d 27 c0 d5 3c
       -0.045843072 0.0076566916 0.040718164 0.026092602
000110 a2 bc dd bc 06 cb 69 bd f5 f0 af bc c9 b4 53 3b
       -0.027067486 -0.057078384 -0.021477202 0.0032303801
000120 88 f3 41 bd 17 f8 05 3d 0e a9 db bc 56 57 12 3d
       -0.04735139 0.0327073 -0.02681401 0.03572782
000130 a1 d6 20 bd 85 55 66 3b b7 52 5c bd 55 d8 39 3d
       -0.039267186 0.0035146188 -0.05378982 0.045372326
000140 4e 37 54 bd c2 29 41 3d 9d b7 23 bd e8 c1 1f 3d
       -0.051810555 0.047158964 -0.03997003 0.039003283
000150 c0 70 66 bb 02 41 81 3b 34 a3 0e 3d 29 24 8d 3b
       -0.003516242 0.003944517 0.03482361 0.004307289
000160 73 ea bd bc 3d 86 54 bd 8a 78 b7 3a 6b d1 9d bb
       -0.023183083 -0.051885832 0.0013997715 -0.0048162243
000170 d7 3a 5d 3d 53 06 9e bb 74 9b 05 3d 09 a1 83 3b
       0.054011192 -0.0048225312 0.032618955 0.0040169996
000180 93 34 92 bc 69 b6 41 bc 09 a9 c3 bb 12 5d 58 bd
       -0.017847335 -0.011823275 -0.0059710783 -0.052823134
000190 37 1a 88 3c d0 08 02 bc 23 40 ad bc d6 6d 14 3d
       0.016614063 -0.007936671 -0.021148747 0.03623756
0001a0 df 0f 9b 3b 1f 19 21 3d 91 31 93 bc ac 29 0b 3d
       0.0047321166 0.039330598 -0.017967971 0.03397529
0001b0 60 93 fa bc 30 55 6e bc 33 da a0 bc d5 7e 2c bc
       -0.030587852 -0.0145466775 -0.019635295 -0.010528286
0001c0 67 02 ef bc b7 2e 68 bd 67 ea fd 3c ae 35 05 bd
       -0.02917595 -0.056685176 0.03099556 -0.032521896
0001d0 f9 6f c8 bc 29 f4 64 3d 76 56 54 bc 3e a4 4a 3d
       -0.024467455 0.05589691 -0.012960067 0.04947304
0001e0 6b 0b 18 bd 1a d2 b9 bc 97 bf 04 3d e2 9e 88 bc
       -0.037120264 -0.022683192 0.032409277 -0.016677324
0001f0 3a 7d 15 3d bf 4e d4 bc e6 2a 10 bd f8 23 73 3c
       0.03649638 -0.025916455 -0.03519716 0.014840119
000200 67 8a 02 bd 91 c9 bb bc d4 b8 3c 3d 40 28 6b 3d
       -0.031870272 -0.022923263 0.046074703 0.057411432
000210 74 c5 25 bc 2a 04 cb bc 56 36 15 3d 6c 78 1c bd
       -0.010117877 -0.024782259 0.036428772 -0.03820078
000220 e5 c5 e8 3b f3 0b 77 bc 60 fc 53 bd 5f ec 09 bd
       0.007103669 -0.0150785325 -0.051754355 -0.033672687
000230 3f 2e 24 bd 15 76 6e 3b 10 22 06 3d 52 0b 09 bd
       -0.040083166 0.00363863 0.03274733 -0.03345806
000240 19 c5 09 3d 9d bb 78 3c ec a1 fa 3c 27 57 87 3c
       0.033635233 0.015181449 0.030594788 0.01652105
000250 d9 6a 35 bd 67 59 c6 3b b9 6a 16 bd d7 ef 5a bd
       -0.04429135 0.006053138 -0.036722872 -0.053451385
000260 d0 44 27 bd 06 a6 1f bd a6 ba 0b 3c 65 a4 fc 3c
       -0.04083711 -0.03897669 0.008528387 0.030840108
000270 bf c0 1a 3d a3 bc e2 bc 8d 88 be bb ea 9a a8 3c
       0.037781473 -0.02767784 -0.005814618 0.020581681
000280 e1 49 c7 bc ce cf 17 3d 1f 70 e9 3c 7b 41 0d bd
       -0.02432722 0.037063412 0.028495846 -0.034486275
000290 fd eb db 3c 6e 10 96 39 8f 7c 16 3c 21 11 e0 bb
       0.026845926 0.0002862247 0.0091849705 -0.0068379794
0002a0 10 07 92 3c 90 ac 11 bd b1 fb 2f 3d ec e5 8c bc
       0.017825633 -0.03556496 0.04296464 -0.017199479
0002b0 d7 d5 dc bc 28 87 f5 bb 60 04 f3 bc 4a 5a 5e bd
       -0.026957436 -0.0074929185 -0.029665172 -0.054285325
0002c0 ba c7 7d 3c d5 38 82 3c 4a 75 1c 3c 4d fc 53 3d
       0.015489513 0.01589624 0.009549448 0.051754285
0002d0 d4 9d 34 3d e5 14 30 3c a5 68 7f bc 64 c5 ee bc
       0.04409583 0.010747169 -0.015588914 -0.029146858
0002e0 69 23 80 bc 1a f8 77 bc 52 2a 04 bd 27 1b 39 bd
       -0.015641885 -0.015134836 -0.032266922 -0.04519191
0002f0 96 56 9c 3a 40 e1 ad 3c 62 ee 7a 3c cb a5 70 bb
       0.001192766 0.021225572 0.015315624 -0.0036719914
000300 9a 0a a2 bc c8 93 0a bd 46 7b 48 bd 43 10 54 bd
       -0.019780446 -0.03383234 -0.048945688 -0.05177332
000310 a2 a5 5c 3d 52 7e 26 3d dc 56 9b 3c 8e e7 51 3c
       0.053868897 0.040647812 0.018962316 0.012811555
000320 61 49 35 bd 31 2a 5a ba e0 5b 24 3d 48 16 b0 bc
       -0.044259433 -0.0008322327 0.04012668 -0.021495
000330 2e 5c 0d 3d 0f 81 7f 3c e1 80 07 3d 3c 56 1a bc
       0.034511738 0.015594735 0.033081893 -0.009419974
000340 a9 bc e8 bc 27 83 ed 3c 25 0f 53 3d a7 9d 8a 3c
       -0.028410273 0.028993202 0.051528115 0.016920878
000350 91 2c 0f 3d d0 01 8e 3b a3 9c 2f bd d0 b1 87 bc
       0.03495461 0.004333712 -0.04287399 -0.01656428
000360 5c 46 d7 3c 82 75 10 bd ef cf d7 3a 06 57 25 bd
       0.026278667 -0.035268314 0.0016465167 -0.040366195
000370 67 53 1f bc bc 2e 26 3d d3 5d 33 3d 50 b8 05 3b
       -0.0097244745 0.040571913 0.04379065 0.0020404048
000380 07 ce 4e 3d 59 69 31 bd a2 42 36 3d 60 9c ad bc
       0.05048945 -0.043313358 0.04449714 -0.02119273
000390 2c 13 95 bb d8 7d 2b bc b5 23 92 3a f3 fc 20 bd
       -0.0045494046 -0.010467015 0.0011149558 -0.03930373
0003a0 21 fb 37 bd 5a f3 5c 3c 93 c8 91 bc b9 05 b4 3c
       -0.04491723 0.013485754 -0.017795837 0.021975385
0003b0 f0 5c 83 bc d5 5b c0 bc 0e 1c 1e 3c 79 32 d8 3c
       -0.016035527 -0.023481289 0.009650243 0.026391255
0003c0 b7 c0 ec bc 2c eb 4b bd a2 90 38 bc 52 f8 fc ba
       -0.028900487 -0.049784824 -0.011264952 -0.001930008
0003d0 0b 14 48 bc 6d b2 dd bc 28 6b f0 bc 9f 19 8d bb
       -0.01221181 -0.02706262 -0.029347971 -0.004306033
0003e0 ad 5a 0f bd bd 81 b2 bc 6b e1 62 bd 2a 6b 0c bd
       -0.034998585 -0.02179038 -0.055390757 -0.034281887
0003f0 df 5a 0d bd 41 e2 b3 3c 58 f2 79 3c a3 4e 5b 3d
       -0.03451049 0.021958472 0.015255533 0.05354179

base_model.model.bert.encoder.layer.0.attention.self.value.lora_B.weight f4 [384, 16]
000000 16 0f 59 ba a8 fe ba 39 26 16 79 39 b8 fe 05 3a
       -0.0008280141 0.00035666418 0.00023754741 0.00051115034
000010 e5 7e 4c ba b7 50 0b ba f1 57 df ba bb 3a 60 ba
       -0.0007800891 -0.00053144566 -0.0017039758 -0.00085536734
000020 6f c6 3c 39 45 34 de b9 28 29 b2 3a 85 cc 8d b9
       0.00018003 -0.00042382083 0.0013592588 -0.00027045995
000030 6a d8 a2 39 31 a1 7f ba c7 65 9b 3a 73 b8 9a 3a
       0.0003106029 -0.00097514974 0.0011855894 0.0011804238
000040 02 44 eb ba d5 62 34 bb 4d 4f 5b 3b b5 c0 48 bb
       -0.0017949345 -0.0027524729 0.0033464015 -0.003063244
000050 43 2a 6a 3b cf 4d 3f bb 02 76 3b 3b 94 ed 21 3b
       0.0035730756 -0.0029190665 0.0028604274 0.0024708258
000060 58 ed 5a bb 60 71 62 3b 00 a1 0e bb 72 0f 58 3b
       -0.0033405628 0.003455244 -0.0021763444 0.003296819
000070 1f 53 04 3b a4 7d 10 3b 9c e5 24 3b b4 d5 a9 3b
       0.0020191146 0.0022047544 0.0025161272 0.005182946
000080 ba ed f0 ba 0f 43 cf bb 54 6d 60 3b d4 fe df bb
       -0.0018381395 -0.0063251327 0.0034244852 -0.006835798
000090 e5 e4 cb 3b 1d 63 0f bb bc ac c4 3b 47 a4 a2 3b
       0.0062223547 -0.0021879144 0.006002037 0.004963431
0000a0 97 81 e7 bb 82 ff c7 3b ef a0 8e bb 9f 9a e3 3b
       -0.007065009 0.006103457 -0.004352681 0.0069459225
0000b0 99 fc 08 3b 50 db 8d 3b 65 82 0f 3b 42 48 92 3b
       0.0020902513 0.0043291226 0.002189779 0.00446418
0000c0 e0 b6 2d 3a cd a3 ed ba 4b 18 9a b8 55 d4 ec ba
       0.0006626677 -0.0018130481 -7.347817e-05 -0.0018068651
0000d0 65 18 d6 3a c2 3b 54 3a 30 5e 12 3b aa 3f cc 3a
       0.0016334174 0.0008096063 0.0022333972 0.0015582938
0000e0 91 e7 00 bb 1d 46 a6 3a 6a 40 ca ba 66 a3 f6 3a
       -0.0019669274 0.001268569 -0.0015430574 0.0018817007
0000f0 1b 58 45 ba e9 b1 ab 3a 75 9d 73 ba b9 ab d3 3a
       -0.00075280824 0.0013099286 -0.0009293177 0.00161492
000100 4d 26 97 3b 1c fc 80 3a 03 d9 1d bb db 92 c7 3a
       0.00461272 0.000984076 -0.0024085648 0.0015226261
000110 f3 ba dc b9 0e 2e 0b 3b ae b6 7a ba 56 46 94 b9
       -0.00042100958 0.0021237168 -0.00095639646 -0.00028281164
000120 f7 fe 80 3a 33 5e 59 ba 95 e2 ef 39 c9 71 75 ba
       0.000984161 -0.000829193 0.0004575445 -0.00093629636
000130 a1 22 37 bb 31 d0 a8 b9 9c 38 82 bb 49 ec 94 ba
       -0.0027944224 -0.00032198572 -0.0039740335 -0.0011361922
000140 9b 0c cb 3a dd c0 3b 39 13 44 57 ba 22 10 8c 39
       0.0015491428 0.00017905557 -0.0008211743 0.000267149
000150 d0 f1 99 3a 92 4d 30 3a 2d 71 2e 3a c3 7d 44 3a
       0.0011745039 0.0006725426 0.0006654438 0.00074955466
000160 1d b3 89 b7 a6 1d 71 3a 59 18 9c ba 79 f4 15 39
       -1.6415079e-05 0.00091978384 -0.0011909112 0.0001430082
000170 4e cf 9f ba 7d 2e 92 3a 3d fb 86 ba 63 9d be 39
       -0.0012192519 0.0011152771 -0.0010298264 0.00036356886
000180 4e 9a 23 3b 5c cd 2b 3b a1 7f 40 bb 47 c9 41 3b
       0.00249638 0.0026214933 -0.0029372948 0.0029569434
000190 e0 16 5f bb 0e 71 26 3b 8e 73 2f bb d4 c8 2a bb
       -0.0034040734 0.0025396976 -0.0026771757 -0.0026059644
0001a0 e6 26 4c 3b e1 27 58 bb 60 a3 1a 3b 82 94 4c bb
       0.0031151115 -0.0032982754 0.0023595914 -0.0031216447
0001b0 f3 43 cd ba b4 1b 1d bb c8 3f 3d bb da 62 98 bb
       -0.0015660509 -0.0023972811 -0.0028877128 -0.004650456
0001c0 0e d8 39 3b 32 c0 63 3b 90 3e 39 bb 91 ac 74 3b
       0.0028357538 0.0034752009 -0.002826605 0.0037334303
0001d0 cb 30 2b bb 90 27 37 3b 75 d6 cd ba 13 b3 4c bb
       -0.0026121612 0.0027947165 -0.0015704172 -0.0031234666
0001e0 88 da 70 3b 56 b7 32 bb f3 d0 c5 3a ff c8 58 bb
       0.0036751349 -0.0027269921 0.0015092179 -0.0033078787
0001f0 2a 05 37 bb 67 4d 07 bb 91 a9 40 bb 30 12 36 bb
       -0.0027926662 -0.00206455 -0.0029397944 -0.0027781837
000200 c2 f7 21 bb b6 5c 98 ba d5 32 06 3b 2b d5 89 ba
       -0.0024714326 -0.001162431 0.0020477076 -0.00105158
000210 b9 25 cb 39 33 e6 06 bb 52 56 c4 39 85 44 cf 39
       0.00038747283 -0.0020583987 0.00037448347 0.00039533168
000220 4d 72 a4 ba ff 22 a0 39 7e 58 0f 38 ed 93 9d 3a
       -0.0012546271 0.00030543652 3.417627e-05 0.0012022235
000230 cc 72 1f 3b c0 d5 16 38 e6 6d 16 3b e3 8e dc 3a
       0.00243299 3.5961857e-05 0.0022953688 0.0016827252
000240 e1 9f ec b9 5c 3e a7 3a 30 5b c7 b9 29 d4 a6 3a
       -0.00045132547 0.0012759673 -0.00038024178 0.0012728024
000250 5c 32 1f ba 39 2f 4d 3a 01 2f 92 ba 09 b1 99 ba
       -0.0006072873 0.0007827166 -0.0011152924 -0.0011725734
000260 d1 23 83 3a 74 46 54 ba a5 7c c1 3a 6a 40 6b ba
       0.0010005181 -0.00080976565 0.0014761878 -0.0008974137
000270 f7 5f 47 ba 23 fd a8 ba 35 d2 e7 39 2b d8 a6 3a
       -0.00076055474 -0.0012892823 0.0004421637 0.0012729218
000280 d0 95 ef ba 30 7a 6a 3a 85 61 03 3b b7 6b 80 3a
       -0.00182789 0.0008944599 0.002004714 0.0009797727
000290 34 2a 19 bb e8 30 fb ba d7 65 08 bb 49 ba f6 ba
       -0.0023371102 -0.0019164355 -0.0020812654 -0.0018823828
0002a0 2a 9a ac 3a 5b 1c 00 bb b5 35 03 3b d9 3f ae ba
       0.0013168503 -0.0019548151 0.0020021026 -0.0013294175
0002b0 94 b5 0c 3b d0 2d f9 ba 7f 68 c7 3a 89 81 e0 b9
       0.0021470534 -0.0019010846 0.0015213637 -0.0004282112
0002c0 cb e3 9e b9 29 08 04 3b f7 d2 bd ba b8 e7 0a 3b
       -0.00030305827 0.0020146465 -0.0014482428 0.0021195244
0002d0 d6 eb 41 bb b2 dc c2 3a 7d e3 34 bb 3f 47 28 bb
       -0.0029590032 0.0014866798 -0.0027601414 -0.0025677232
0002e0 f8 87 19 3b bb 64 32 bb b7 4c 25 3b ee d3 18 bb
       0.002342699 -0.0027220685 0.0025222728 -0.002331968
0002f0 65 57 54 ba 54 54 22 bb 17 86 6d ba 8c e7 45 bb
       -0.0008100181 -0.0024769502 -0.00090608135 -0.0030197827
000300 5e 37 54 bb 6e 23 0d bb f6 59 4a 3b bb 26 2b bb
       -0.0032381634 -0.002153601 0.0030876375 -0.0026115614
000310 d0 1f 33 3b 9e c5 21 bb fd dd 48 3b 6e fe f5 3a
       0.0027332194 -0.002468444 0.0030649893 0.0018767843
000320 53 6d 31 bb 58 88 23 3b c9 58 f4 ba 59 52 2e 3b
       -0.002707322 0.0024953093 -0.0018642183 0.0026599376
000330 dc f0 33 3b ef dc e5 3a d7 ac 44 3b a1 52 60 3b
       0.0027456796 0.0017537157 0.0030010247 0.0034228938
000340 1c c0 55 bb dc 21 73 bb 09 b9 7f 3b 6b b9 af bb
       -0.0032615727 -0.003709904 0.0039020202 -0.0053626797
000350 2a 65 bb 3b fe ff 3d bb 43 1f b9 3b b3 c0 95 3b
       0.005718847 -0.0028991695 0.0056494786 0.0045700907
000360 08 17 9f bb 83 46 a9 3b 84 64 80 bb 3e 66 aa 3b
       -0.0048550405 0.0051658764 -0.0039182324 0.0052001765
000370 06 e0 33 3b 44 6f 79 3b 21 a8 69 3b 00 98 9e 3b
       0.002744676 0.0038060704 0.003565319 0.004839897
000380 0a b5 07 3b 7a ac 43 3b fc 8b 51 bb b3 50 53 3b
       0.0020707273 0.0029857443 -0.0031974306 0.0032244145
000390 24 e6 28 bb 41 44 20 3b 55 a2 34 bb 46 88 23 bb
       -0.002577194 0.0024454745 -0.0027562578 -0.0024953051
0003a0 65 47 43 3b d1 b4 2d bb 52 1e 20 3b b9 e7 40 bb
       0.0029797193 -0.002650548 0.0024432135 -0.0029434992
0003b0 bd 3f 27 bb 87 87 1c bb a3 87 d5 ba ab 36 1d bb
       -0.0025520169 -0.0023884492 -0.0016291033 -0.0023988883
0003c0 90 02 13 3b bd cb 1f 3b 00 ac ec ba 29 21 37 3b
       0.0022431947 0.0024382912 -0.0018056631 0.002794335
0003d0 fb 79 4b bb d6 41 fe 3a d4 2b 27 bb ef e0 1c bb
       -0.0031048048 0.0019398283 -0.0025508301 -0.0023937782
0003e0 bb b9 43 3b 1f 52 40 bb e6 63 10 3b ad 12 3f bb
       0.0029865343 -0.0029345823 0.00220322 -0.0029155419
0003f0 25 12 e9 ba 36 28 0a bb 88 44 35 bb cb 66 35 bb
       -0.0017781897 -0.0021081096 -0.0027659256 -0.0027679678

base_model.model.bert.encoder.layer.1.attention.self.query.lora_A.weight f4 [16, 384]
000000 fd 3a 25 3d a8 2a 40 bd 38 b7 e9 bc d1 07 59 3b
       0.04033946 -0.04691568 -0.028529748 0.0033116231
000010 d0 98 3b 3d 6a 03 bb 3c 29 1b dc 3c 08 ed 41 3d
       0.04580003 0.022828776 0.02686842 0.04734519
000020 c0 8c 39 bb 63 91 f7 bb 1d d6 2d 3d 9a 00 e9 bc
       -0.0028312653 -0.0075551732 0.042440522 -0.02844267
000030 6e 5e 15 3d 32 16 7c 3c ef af 6b 3b 59 40 c0 3c
       0.03646701 0.015386151 0.003596302 0.023468183
000040 48 4c 17 bd 2a f5 f2 3c 24 1b a0 3c 7b 5f dd bb
       -0.03693798 0.029657919 0.019544192 -0.006755767
000050 df 6b db bc fc 0e 36 bd de 2a 5b bd 24 84 ca 3c
       -0.026784835 -0.044447884 -0.05350768 0.024721213
000060 ff 5c 32 bd ac 52 9a 3c d6 4d 9e bc f4 00 e6 3c
       -0.04354572 0.01883825 -0.019324224 0.028076626
000070 d2 a6 b0 3c e8 7d 41 3c 4c e0 43 bd 30 6d 1b bd
       0.021563921 0.011809804 -0.047821328 -0.037945926
000080 c6 50 3d bd 51 5a 4e bd 4b 87 f6 bc cb 56 d1 3c
       -0.04621961 -0.0503791 -0.03009381 0.025554081
000090 21 9c e2 3c f6 a3 1f bb 6c f5 87 3c 38 4a bd 3b
       0.027662339 -0.0024359203 0.016596518 0.00577667
0000a0 d2 44 9a bc d1 b7 2f bd 1c 36 0d 3d 76 ca 37 bd
       -0.018831644 -0.04289991 0.03447543 -0.044870816
0000b0 26 7b c0 bc a0 59 f1 bc eb a3 a8 bb e3 b0 c0 3c
       -0.023496222 -0.029461682 -0.0051464937 0.023521846
0000c0 a4 19 96 bc 1b 25 32 bb f3 70 4b bb 16 ec 45 bd
       -0.018322773 -0.002718276 -0.0031042665 -0.048320852
0000d0 8a 9f 95 3b a7 f4 4c 3d db 6d 15 bd 34 04 23 3d
       0.0045661377 0.050038006 -0.03648172 0.03979893
0000e0 76 92 3f bd 61 b2 01 bd 19 0d af 3c 45 18 b5 3b
       -0.046770535 -0.031664256 0.02136855 0.005526575
0000f0 25 c3 d2 3c 12 76 59 bc cc 3d 8a bc 85 13 5f 3c
       0.025727818 -0.013272779 -0.01687517 0.013615494
000100 ef f6 2a 3c ab 3e 8f 3c 27 f0 05 bc fb 42 e3 3b
       0.01043485 0.017485937 -0.008174933 0.006935475
000110 59 c3 a7 3a 27 18 97 bc df 93 44 3d 6b ac db bb
       0.0012799307 -0.018444134 0.047992583 -0.0067039034
000120 da 64 1c bc ad 73 4b bc 7b 10 cc 3b 0d 17 4e bd
       -0.009545529 -0.012417716 0.0062275506 -0.05031495
000130 43 b2 44 3d e9 b8 f5 bc 25 ca e1 3c 05 26 1f 3d
       0.048021566 -0.029995399 0.02756221 0.038854618
000140 1e 75 10 3d 3e 5a 7b 3c c7 61 45 3d 38 84 0a 3d
       0.03526794 0.01534134 0.04818895 0.0338175
000150 e6 d0 19 bd d6 a9 39 bc 09 88 ae 3c 2a 71 3a 3c
       -0.037552737 -0.011331996 0.021305101 0.0113795195
000160 41 fd 04 bd f2 f9 11 3b 7f 1f 68 bc a0 5c b8 3b
       -0.032468084 0.0022274223 -0.0141676655 0.005626276
000170 eb c8 cb 3c c9 92 2e bd 9a c1 04 bd 9b 22 99 bc
       0.024876079 -0.042620454 -0.032411195 -0.018693259
000180 6a 81 36 3d 65 00 ae bc 4d 37 2c 3d f8 11 d7 bc
       0.044557013 -0.021240423 0.042044926 -0.026253685
000190 b7 4b f4 b9 6f 78 f1 3b a1 13 3e bd ac a3 bd 3c
       -0.0004659572 0.007369093 -0.04640544 0.023149334
0001a0 ca c1 2a bd 6e 1e 03 3d dc f5 c3 bc 96 f0 c9 bc
       -0.041688718 0.032011442 -0.023920946 -0.024650853
0001b0 b9 f7 d9 3c 9c 53 1d bd b3 36 3f bd 2b e7 41 3d
       0.026607381 -0.038409814 -0.046683025 0.0473396
0001c0 8c 32 39 3c ca a6 45 bd 90 72 4d 3d c8 4c 92 3c
       0.011303555 -0.048254766 0.050158083 0.017858878
0001d0 5d 62 32 3d 07 bd f4 bb 6d ef 90 3b 14 61 61 bc
       0.043550838 -0.007468823 0.004423073 -0.013756055
0001e0 18 04 0f bd a0 5c b6 bc 77 73 5b 3c 28 52 ef 3c
       -0.034916013 -0.022260964 0.013394228 0.02921398
0001f0 ec 98 7d bb 9b cf 1f 3d 41 d3 aa 3c 42 c8 c0 3c
       -0.0038695885 0.039016347 0.020852687 0.02353299
000200 e5 07 18 bc a1 13 15 bd a1 0b 07 3d bf 1b d6 3c
       -0.009279226 -0.036395673 0.032970075 0.026136277
000210 5b a7 ff bb af ac e5 bc f2 8d bc 3c 1f 74 16 3d
       -0.0078019327 -0.028036444 0.023016904 0.036731835
000220 8f bf 57 3c d4 97 17 bd 19 00 2d bb 00 30 2b bd
       0.01316823 -0.03701003 -0.0026397763 -0.041793823
000230 3f 2c 5a bd 92 4f 44 b9 50 c6 46 3d 68 c7 20 bd
       -0.053264853 -0.00018721659 0.04852897 -0.03925267
000240 75 44 c7 bc af ac 3a 3d 1e fd aa 3c 2b 25 b6 bc
       -0.024324635 0.04557484 0.020872649 -0.02223452
000250 64 d9 46 3d fa 8e ed bc d0 85 5a bc 1b 59 fb 3b
       0.048547164 -0.02899884 -0.013337567 0.0076705343
000260 3f 3a c0 3b f7 31 15 bd ad 59 47 bd 64 31 17 3d
       0.0058663185 -0.036424603 -0.048669506 0.036912337
000270 2f d0 30 bd 0c d7 d4 3c 2e d0 1d bd 53 87 22 bd
       -0.04316729 0.025981449 -0.038528614 -0.039679836
000280 dd d7 39 3d 5c 9f f6 bc 9d d5 20 bd fb a8 46 bd
       0.04537188 -0.030105285 -0.039266217 -0.048500996
000290 42 ae 30 bd 6e 21 14 bd 68 6e 34 3d 85 8f a4 3b
       -0.043134935 -0.036164694 0.044050604 0.0050219917
0002a0 2b 72 95 3a e2 07 e8 3c 04 9e 1e b9 3d 3f e3 bc
       0.0011401823 0.028324071 -0.0001512692 -0.027740115
0002b0 a0 b2 12 bd 98 79 3c 3b 1b 7b 3b 3c 27 11 d4 bc
       -0.03581488 0.0028759 0.011442925 -0.025887085
0002c0 62 a8 2d bc 70 53 68 3b cf d4 33 bd db 43 ae bc
       -0.010599228 0.0035450123 -0.043904122 -0.02127259
0002d0 ba 75 47 3c 99 91 ac 3c cb 77 17 3d 52 44 49 3c
       0.012174064 0.02106552 0.036979478 0.012284355
0002e0 f4 4b 46 bd 57 e9 e9 bc 45 d6 2f bd 1f 3d 77 bc
       -0.04841228 -0.028553648 -0.042928953 -0.015090256
0002f0 ef a8 1d bd 50 89 2a 3d 54 ca 33 bd 88 06 2d bd
       -0.038491186 0.041634858 -0.043894127 -0.042242557
000300 f0 4c 0e 3b a8 05 07 3d 92 be ae 3c e9 11 ff 3c
       0.0021713339 0.03296438 0.021331105 0.03113647
000310 c7 54 25 3c de 36 0b bc c5 1a 8b bc 06 e0 1e bd
       0.010091013 -0.008496968 -0.016980538 -0.038787864
000320 99 5f 93 bc 66 8c 33 3d 0a c9 0c 3d b8 5b 29 bd
       -0.01798992 0.043835066 0.034371413 -0.041347235
000330 dc 3d 1c bc 94 19 0b bd e8 7a b0 3c 24 ec cb 3c
       -0.009536233 -0.03395994 0.021542981 0.024892874
000340 c2 75 09 bd c4 46 7b 3c d9 06 cd 3b 56 b7 ec bc
       -0.03355957 0.015336696 0.00625692 -0.028896015
000350 4e 75 60 3c 89 32 3e 3c 9d 58 23 bc 7a 9f 0e bc
       0.013699843 0.011608728 -0.0099698575 -0.008705014
000360 40 ca 9d 3c 3d 5c 03 3d b5 e0 61 3c 5c 08 53 3d
       0.01926148 0.032070387 0.0137864845 0.051521644
000370 81 a4 23 3d 4c c5 a8 3c 55 bd 50 bb e6 9e 1b bd
       0.039951805 0.020601891 -0.0031851132 -0.037993334
000380 81 aa f4 bc f4 ac 8d 3c dc 3e fc bc dc 29 19 bd
       -0.029866459 0.017294385 -0.030791692 -0.037393436
000390 e2 5d 1c 3d 72 9d 2a bc f9 7b 06 bd 9b 11 2a 3d
       0.03817547 -0.010413514 -0.032833073 0.041520696
0003a0 0c c0 2a 3d 35 73 4b 3c 03 0a c5 3c 24 09 d5 3c
       0.041687056 0.012417604 0.024052626 0.026005335
0003b0 55 f7 35 3d 5d 11 63 bc 40 d8 9e 3c 2c 8e 8f 3c
       0.044425327 -0.01385912 0.019390225 0.017523848
0003c0 86 a0 55 3d 39 1f 01 bd 22 b0 b4 3c 42 28 be bc
       0.05215504 -0.031523917 0.022056643 -0.023212556
0003d0 cb 02 46 bb fd 19 81 bc 75 67 0f 3c 6d a0 3c 3d
       -0.0030214067 -0.015759462 0.008752693 0.04605143
0003e0 6c 3f 38 3d 72 9c da 3c 56 95 1d 3d 16 66 4d bd
       0.04498236 0.026685927 0.038472496 -0.050146185
0003f0 32 4a 4d 3d 89 73 32 3c cb e4 ff 3c 42 28 2a 3c
       0.050119586 0.010891804 0.031237027 0.010385575

base_model.model.bert.encoder.layer.1.attention.self.query.lora_B.weight f4 [384, 16]
000000 5c ce 0f 3b 57 4c 7f bb 17 df 13 3b 1f b6 dd ba
       0.0021943068 -0.0038955414 0.0022563392 -0.0016915238
000010 6b 67 3b 3b 79 48 b9 ba 36 7d 9b bb 7c 87 8c ba
       0.0028595577 -0.0014135978 -0.004745151 -0.001072153
000020 66 c0 92 3b a8 c0 b1 3b 82 46 6b bb 75 7e 74 bb
       0.004478502 0.0054245777 -0.003590018 -0.003730682
000030 22 ee 6f 3b 13 b8 4b 3b 65 ef 2f 3b 6b b5 69 bb
       0.0036610444 0.0031085059 0.002684557 -0.0035661112
000040 4f 36 a9 3a 20 21 c5 ba 0c a6 64 3a 7c 4b 68 ba
       0.0012909862 -0.0015039779 0.00087222527 -0.00088613457
000050 d1 53 be 3a 93 a6 b5 ba 05 c2 c9 ba f1 b6 aa ba
       0.0014520829 -0.0013858847 -0.0015392905 -0.0013024491
000060 54 bd db 3a af 33 d6 3a 51 26 cf ba 59 9a 97 ba
       0.0016764798 0.0016342307 -0.0015804266 -0.0011566385
000070 74 5f cf 3a 6d 1f b4 3a f7 df f2 3a cf 03 c1 ba
       0.0015821294 0.0013742276 0.0018529881 -0.0014725866
000080 f1 a1 cc b8 f4 df 14 3a d6 38 09 3b a5 e2 04 3a
       -9.757642e-05 0.00056791236 0.0020938418 0.0005069173
000090 c9 d1 55 39 fe fd e5 ba 90 ed 23 39 4e b2 1a 3b
       0.00020391414 -0.0017547009 0.0001563339 0.0023604813
0000a0 6d 40 ed b8 99 99 dd b9 25 3b 42 ba 78 d3 54 3a
       -0.00011313041 -0.00042266844 -0.0007409326 0.00081186695
0000b0 c6 b3 cb 39 fb 1c 0b ba 96 9d fe b9 d5 75 2a 3a
       0.0003885312 -0.00053067476 -0.00048564066 0.00065025437
0000c0 04 5b 19 3b 70 09 72 bb db 5d b8 3a 90 63 18 bb
       0.0023400197 -0.0036931895 0.0014066057 -0.0023252703
0000d0 2a 0a c7 39 75 c9 13 ba a8 dc 36 bb 51 51 ec b9
       0.0003796381 -0.00056376244 -0.0027902517 -0.00045074013
0000e0 11 12 82 3b 05 48 c2 3a 54 7c cb ba b5 5f 9b ba
       0.003969439 0.0014822489 -0.0015524724 -0.0011854084
0000f0 6e b4 eb 3a 1a 4f 38 3b 90 4b 69 3b 48 78 2a bb
       0.0017982849 0.002812332 0.0035598017 -0.0026011635
000100 b5 0e e4 3a af f0 24 bb 3d 7d f2 3a a3 69 3c bb
       0.0017399403 -0.0025167873 0.0018500459 -0.0028749488
000110 5f 0c a2 3a dd c1 9c ba a6 66 fe ba 28 1b 94 3a
       0.0012363306 -0.0011959631 -0.0019409254 0.0011299597
000120 50 bb 0e 3b 89 e1 fc 3a bf 11 ec ba d4 27 1a bb
       0.0021779127 0.0019293289 -0.001801066 -0.0023522275
000130 f0 58 bd 3a 84 5c 29 3b dd 92 ff 3a 70 49 30 bb
       0.0014446061 0.0025842497 0.0019498725 -0.002689924
000140 86 17 20 3b b0 16 7a bb 62 7a c2 3a ef 0c 2f bb
       0.0024428084 -0.0038160495 0.0014837498 -0.002671059
000150 43 ca 75 b8 fc db ec b9 a1 86 39 bb a9 8b d6 b9
       -5.8600923e-05 -0.0004517733 -0.0028309005 -0.00040921316
000160 8a bc 86 3b a4 6e 8d 3a a6 c8 c5 ba 1a ed 96 ba
       0.004111831 0.001079042 -0.0015089705 -0.0011514754
000170 bd 98 e6 3a 78 78 3a 3b eb b5 6b 3b 6b c7 05 bb
       0.0017593127 0.0028453153 0.0035966586 -0.0020413052
000180 5c b9 27 3b 8d 8c 17 bb 75 94 90 3a f6 ad 02 bb
       0.002559266 -0.0023124546 0.0011030572 -0.0019940115
000190 b2 89 57 37 55 c6 d3 b9 ca 82 23 bb 3f 4c 97 ba
       1.2847058e-05 -0.00040392825 -0.0024949783 -0.0011543109
0001a0 c7 64 51 3b 5a 8e 6f 3a da 7d 82 ba d6 10 8a ba
       0.0031950937 0.00091383385 -0.000995572 -0.0010533582
0001b0 04 d0 0a 3b 96 c8 17 3b 22 c5 2e 3b 6a 5c e5 ba
       0.0021181116 0.002316033 0.0026667793 -0.0017498855
0001c0 09 04 b1 3a c3 06 76 bb c5 d4 96 3a dc fc ee ba
       0.0013505231 -0.0037540651 0.0011507502 -0.0018233317
0001d0 3e 79 25 3a b3 16 3f ba e1 d8 67 bb 4c a0 31 ba
       0.0006312317 -0.0007289454 -0.0035377073 -0.00067759
0001e0 c9 46 78 3b 4b fc 25 3b 1b 60 db ba b1 44 28 bb
       0.0037883988 0.002532738 -0.0016737016 -0.002567571
0001f0 85 97 0c 3b 6e 1c 47 3b ba 4b 3e 3b a8 01 54 bb
       0.0021452617 0.0030381936 0.0029036836 -0.003234962
000200 f7 30 86 3a 6f 24 9a ba 8e fd 0e 3b fe 2b c2 ba
       0.0010237981 -0.0011760126 0.002181861 -0.0014814136
000210 e2 16 70 3a d2 7e 79 ba 6e 01 83 ba 8e 86 cd 3a
       0.0009158683 -0.0009517494 -0.0009994933 0.0015680359
000220 4e ad 02 3b 11 49 bd 3a 00 54 b5 ba b0 2c c1 b9
       0.0019939723 0.0014441331 -0.0013834238 -0.00036845123
000230 a4 80 f1 3a fb 22 b8 39 32 6d 21 3b dc b1 e4 b9
       0.0018425179 0.00035121277 0.0024631736 -0.00043620064
000240 7f ba e0 ba bd 00 ff b9 0e db c2 3a 07 30 44 3a
       -0.0017145424 -0.0004863794 0.0014866309 0.0007483963
000250 52 d7 95 3a 25 fa 03 bb 64 d6 1e ba 7d 92 4f 3b
       0.0011431968 -0.0020138111 -0.00060591684 0.0031673007
000260 13 2a 53 39 90 bd 87 3a e7 3f b5 ba 9d 17 d4 ba
       0.00020138202 0.0010356177 -0.0013828248 -0.0016181354
000270 cc b2 60 3a be 3a fc 37 7d a9 77 ba 71 0c f2 b9
       0.00085715647 3.0068095e-05 -0.0009447558 -0.00046167106
000280 55 c5 27 bb 6f 52 68 3a 65 d9 b8 ba bc ad 4c 3b
       -0.0025599797 0.0008862381 -0.0014102875 0.0031231483
000290 67 2c 36 3a 95 6a df b8 5f a2 85 3a 65 d8 9c 39
       0.00069493655 -0.00010653321 0.0010195485 0.00029915865
0002a0 6e 76 bf ba 09 f4 4e 39 6e 86 0e 3a 1a 60 2a 3a
       -0.0014607438 0.00019736601 0.00054369017 0.00064993056
0002b0 38 e0 70 ba e8 1f ba ba b1 36 63 bb ce 18 67 3a
       -0.00091886846 -0.0014200183 -0.003467005 0.0008815647
0002c0 4e 98 f0 ba 40 35 0d 3b f1 35 07 bb f7 36 84 3a
       -0.0018355937 0.0021546632 -0.0020631517 0.0010087182
0002d0 a2 15 05 bb 43 16 97 3a 37 96 0f 3b 3a 7a 4e 3a
       -0.0020307084 0.001152702 0.0021909603 0.00078764895
0002e0 b8 53 1d bb 58 1d 29 bb 22 c5 2a 3b af 92 b6 3a
       -0.00240062 -0.0025804844 0.0026057442 0.0013929213
0002f0 a3 f7 19 bb dd 35 e3 ba 9d ad f4 ba ae be 08 3b
       -0.002349355 -0.0017334778 -0.0018667463 0.0020865607
000300 32 63 6d ba 33 b5 59 3a c2 99 1f bb 99 74 3b 3a
       -0.0009055614 0.0008304894 -0.0024353121 0.00071508583
000310 6d 45 ba ba 31 36 bd 3a 9f 69 9c 3a 6b 8d 2d bb
       -0.0014211364 0.0014435706 0.0011933333 -0.0026481997
000320 f3 ec 09 bb eb ed 83 ba e8 54 f9 3a e0 4e 5c ba
       -0.0021045774 -0.0010065412 0.0019022496 -0.0008404087
000330 6c 94 03 bb 05 db b4 3a 0f 8a 23 bb 5b 0a f4 b8
       -0.002007748 0.0013798183 -0.0024954116 -0.000116367555
000340 cd 29 f9 ba 6d 90 38 3b 65 4d 76 bb b5 b0 a2 3a
       -0.001900965 0.0028162256 -0.0037582752 0.0012412282
000350 34 ef 53 bb 7c 1d 1d 3b 52 c3 46 3b d8 49 7d 3a
       -0.003233862 0.0023973873 0.0030328822 0.00096621877
000360 e3 2d 4a bb 9d 89 5f bb 7a f1 7f 3b e7 7b 2f 3b
       -0.0030850105 -0.0034109124 0.0039053843 0.0026776732
000370 8b 23 57 bb bb 53 18 bb db 64 27 bb a6 3c 29 3b
       -0.0032827582 -0.0023243267 -0.0025542292 0.0025823503
000380 77 8f 2b 3b 60 e4 b8 ba 16 48 d7 3a 6c 38 3b bb
       0.002617804 -0.0014106147 0.0016424682 -0.0028567566
000390 b6 e0 d7 38 0a 15 c8 37 5f 63 74 ba 26 bb 1d ba
       0.000102938546 2.3851655e-05 -0.0009322669 -0.0006016962
0003a0 2f 2b e5 3a f1 ff 80 3a 1d 72 6a ba 06 9b fa ba
       0.0017484183 0.0009841901 -0.0008943396 -0.0019119687
0003b0 ec 70 95 3a 07 d0 12 3b 77 43 30 3b aa 3b a7 ba
       0.0011401451 0.0022401826 0.002689568 -0.001275887
0003c0 fe 15 ae b9 0a cd 27 3a cc ff 35 bb 5b ba 12 38
       -0.00033204252 0.00064010976 -0.0027770875 3.498267e-05
0003d0 24 90 88 ba 0e b5 0d 3b 4e b8 4f 3a 64 83 0a bb
       -0.0010418934 0.002162281 0.0007923887 -0.0021135444
0003e0 67 b1 69 ba de db 7e ba 7c 05 f1 3a fd d9 2a 3a
       -0.00089146796 -0.0009722094 0.0018388475 0.0006517468
0003f0 af 53 cf ba 08 c7 0b 38 76 7d 8b b9 a1 b3 90 39
       -0.0015817786 3.3325545e-05 -0.00026605622 0.00027599654
