lora_crossencoder_has_instruction_r_8 la_16 ld_0.2/checkpoint-774/adapter_model.safetensors (safetensors, 299980 bytes, 25 tensors)

base_model.model.bert.encoder.layer.0.attention.self.query.lora_A.weight f4 [8, 384]
0.025840012 0.042127375 0.0071250456 0.052247904 -0.038992725 0.0036434024 0.040653344 0.04815049
-0.022087567 -0.0009752286 -0.03793263 -0.041311268 -0.012455004 -0.0071308305 -0.030321682 0.04177525
0.02471785 0.018674938 -0.022900915 0.05325752 0.04762398 -0.01572795 0.0042615863 -0.01984953
0.029211314 0.035685666 0.023161203 -0.03828163 0.039545283 -0.01956193 0.003488785 0.02495136
-0.00016266959 0.03216292 0.03237761 -0.054696303 0.043892194 0.043766964 0.04007522 0.04644585
-0.014776528 -0.024580939 0.003264508 0.009208348 0.041064728 0.0002622745 0.02515026 0.031941336
-0.010149304 0.05054775 -0.018390281 0.010350265 0.041474074 -0.048832953 0.028454687 -0.0072865016
-0.047929335 -0.04674312 -0.05426458 -0.02984556 0.030486831 -0.01184946 0.012114651 0.047357943
-0.047789674 -0.02912482 0.03185646 0.027307378 0.029106272 -0.037799772 -0.002007669 -0.013219457
0.013608838 0.01386648 0.009821715 -0.008946383 -0.035139102 -0.022087345 0.0035432011 0.020896796
-0.015819168 -0.025604023 0.021747025 0.0014381221 0.01730031 -0.04285241 -0.023840373 -0.026098818
0.03720544 0.033018894 -0.037707154 -0.011729104 0.007974914 -0.009773309 -0.033296462 0.013319747
0.0042118616 -0.024795692 0.022511529 -0.007511458 -0.02323401 -0.005119199 0.016042573 0.028189728
-0.02390337 0.040663768 -0.030770987 -0.04947299 0.042458422 0.027351215 0.036993243 0.044990007
-0.047801003 0.03857454 0.029646443 -0.017954813 -0.0403408 -0.039647084 -0.040809035 -0.046446767
-0.016051542 -0.023144975 0.04521691 0.0537602 0.038060706 -0.0041432795 -0.015325238 -0.04270633
0.036366623 -0.021902861 0.054660335 -0.049985733 0.0049685007 -0.02885599 0.041614164 0.021307552
0.03548333 0.043163918 0.031437956 0.037961118 -0.0026994671 0.017514853 0.02447996 -0.023948926
-0.0033160935 -0.036002543 0.037552204 0.024346184 0.024497341 0.00063309935 -0.047173582 -0.008215318
0.041135054 0.046855282 0.031819854 0.02274461 -0.03883274 -0.001670652 -0.0141141005 0.0071756737
0.02803575 -0.014047537 -0.0332548 0.018220888 0.0030215834 0.0022818753 -0.042379305 -0.02139712
-0.030591687 -0.047545146 -0.028513428 -0.020746276 -0.0419193 0.018441137 -0.025224002 -0.009459183
-0.033416476 0.024148924 0.036357053 0.0042066486 -0.036073264 0.034841936 0.03361038 -0.0022253057
0.039519224 -0.016374575 -0.04208974 0.044195905 -0.0047795465 0.028313614 -0.02497622 0.037112333
0.037621915 -0.0056638606 -0.036684018 0.016617643 0.035693403 -0.046955116 0.050177857 0.015697297
-0.0021142862 -0.026082842 0.009730483 0.01523256 -0.0026634326 0.022930654 0.0055385213 -0.044604998
-0.012661922 -0.009374903 -0.027708411 0.04294785 -0.02238014 0.050928667 0.047610287 0.010403088
-0.02089771 0.031877536 0.040963966 0.012511796 -0.03507907 0.035243224 0.03268956 1.20120785e-05
-0.0033778532 -0.018516427 -0.036579292 0.044790633 -0.008279582 0.016314931 -0.009194549 -0.03640658
-0.017440932 -0.037867833 0.02929031 0.0071797874 -0.027518502 -0.01935371 0.0072774086 0.01081024
-0.0041353363 -0.044635028 0.033386305 -0.023177128 -0.031062376 -0.022373943 -0.043948524 -0.008722889
0.038655713 0.025112722 0.0005011822 -0.0082050385 -0.027277563 0.01185332 -0.04597424 0.0012713869
00000000: 6fae d33c c18d 2c3d 3779 e93b e601 563d
00000010: d6b6 1fbd 26c6 6e3b 1f84 263d 7339 453d
00000020: fcf0 b4bc 7ca6 7fba 3f5f 1bbd 0136 29bd
00000030: 1310 4cbc bea9 e9bb 2d65 f8bc 861c 2b3d
00000040: 177d ca3c 2ffc 983c b39a bbbc 8f24 5a3d
00000050: 5d11 433d e7d7 80bc c7a4 8b3b 7b9b a2bc
00000060: 914c ef3c 222b 123d 90bc bd3c 33cd 1cbd
00000070: 3cfa 213d 5740 a0bc 19a4 643b cb66 cc3c
00000080: 4992 2ab9 44bd 033d 639e 043d 3b09 60bd
00000090: 4dc8 333d fd44 333d ea25 243d 013e 3e3d
000000a0: 4019 72bc f75d c9bc 5bf1 553b 9cde 163c
000000b0: 7d33 283d e381 8939 eb07 ce3c ebd4 023d
000000c0: 4449 26bc 280b 4f3d 37a7 96bc 2894 293c
000000d0: b8e0 293d 1005 48bd ce19 e93c 9bc3 eebb
000000e0: 8d51 44bd b775 3fbd 8944 5ebd ad7e f4bc
000000f0: 85bf f93c 3d24 42bc 877c 463c 67fa 413d
00000100: 1bbf 43bd 2d97 eebc eb7b 023d b9b3 df3c
00000110: 4770 ee3c efd3 1abd 1993 03bb 6c96 58bc
00000120: 9bf7 5e3c 3c30 633c 42eb 203c da93 12bc
00000130: 05ee 0fbd 85f0 b4bc 0d35 683b c22f ab3c
00000140: 3397 81bc 87bf d1bc d126 b23c 5f7f bc3a
00000150: 61b9 8d3c 0286 2fbd e34c c3bc 30cd d5bc
00000160: bb64 183d d23e 073d d172 1abd 6e2b 40bc
00000170: 37a9 023c 3b20 20bc df61 08bd 113b 5a3c
00000180: a803 8a3b 5620 cbbc 196a b83c ad22 f6bb
00000190: 4055 bebc f4be a7bb b76b 833c 25ee e63c
000001a0: 00d1 c3bc 0d8f 263d 7013 fcbc 31a4 4abd
000001b0: e2e8 2d3d a80f e03c 3a86 173d 7147 383d
000001c0: fcca 43bd 5600 1e3d 19dd f23c f915 93bc
000001d0: 653c 25bd fb64 22bd 6027 27bd f73e 3ebd
000001e0: 867e 83bc 889a bdbc 5e35 393d a833 5c3d
000001f0: 8be5 1b3d 59c4 87bb b516 7bbc d5ec 2ebd
00000200: 2bf5 143d a16d b3bc 84e3 5f3d d7bd 4cbd
00000210: cece a23b 6663 ecbc 9d73 2a3d 2d8d ae3c
00000220: f856 113d a6cc 303d 16c5 003d 1e7d 1b3d
00000230: 8be9 30bb 4f7b 8f3c 328a c83c 8a30 c4bc
00000240: d152 59bb 6777 13bd 57d0 193d a671 c73c
00000250: a6ae c83c 94f6 253a 1639 41bd 8b99 06bc
00000260: 3b7d 283d 53eb 3f3d 8955 023d e852 ba3c
00000270: 140f 1fbd c7f9 daba d43e 67bc ea21 eb3b
00000280: 3bab e53c a427 66bc 2f36 08bd f943 953c
00000290: c205 463b 848b 153b ec95 2dbd 0349 afbc
000002a0: 6b9b fabc b3be 42bd fe94 e9bc 18f4 a9bc
000002b0: 92b3 2bbd de11 973c 91a2 cebc b0fa 1abc
000002c0: b7df 08bd f7d3 c53c 22eb 143d edd7 893b
000002d0: 8fc1 13bd 6bb6 0e3d 0aab 093d 6fd6 11bb
000002e0: e9de 213d f923 86bc 4b66 2cbd c406 353d
000002f0: be9d 9cbb f4f1 e73c ee9a ccbc 1a03 183d
00000300: 7019 1a3d e897 b9bb fb41 16bd b921 883c
00000310: 3f33 123d 0254 40bd 4c87 4d3d 9e97 803c
00000320: d68f 0abb afab d5bc 9b6c 1f3c fd91 793c
00000330: fc8c 2ebb 11d9 bb3c 7c7c b53b bbb3 36bd
00000340: f373 4fbc 3199 19bc c0fc e2bc 16ea 2f3d
00000350: 8e56 b7bc 949a 503d 0103 433d b771 2a3c
00000360: ad31 abbc 0592 023d d5c9 273d 47fe 4c3c
00000370: 12af 0fbd 335b 103d 7de5 053d 7c87 4937
00000380: f95e 5dbb c3af 97bc 2bd4 15bd 6276 373d
00000390: 15a7 07bc e4a6 853c bca4 16bc 111f 15bd
000003a0: 49e0 8ebc 4d1b 1bbd 3bf2 ef3c 6c44 eb3b
000003b0: 7b6e e1bc ac8b 9ebc 5477 ee3b 6f1d 313c
000003c0: b781 87bb 38d3 36bd 14c0 083d f6dd bdbc
000003d0: 8676 febc 8f49 b7bc 5e03 34bd 73ea 0ebc
000003e0: 7455 1e3d 32b9 cd3c c561 033a 6d6e 06bc
000003f0: 3275 dfbc 6d34 423c 7c4f 3cbd aaa4 a63a

base_model.model.bert.encoder.layer.0.attention.self.query.lora_B.weight f4 [384, 8]
0.0008380997 0.0014667752 0.0021943606 0.0022882712 -0.0012186565 -0.0012370829 0.0007046432 -0.0018743605
0.0049194735 -0.003618099 0.0022028948 0.00058180024 -0.0009938774 0.0007992285 -0.0033278745 -0.0027845749
-0.0020583544 0.0016527364 -0.0019904652 -0.00053545466 0.0014655754 0.0013080466 0.0012210959 0.0019981712
0.00044098828 0.0017850675 0.0008971654 -0.0005777084 0.0017294923 -0.0013281406 0.0022308829 0.00028794832
0.00069903693 -0.000940339 -0.0021922404 -0.0048943264 0.002882944 0.004057608 -0.001406212 0.002287192
0.0028734938 -0.00036562697 0.0015130413 0.00029151174 -0.00079561805 4.220703e-05 -0.0020227602 -0.0020143855
0.0024099527 -0.0023986264 0.0007392075 -0.0029996466 0.0016480524 0.0031816051 -0.0021907648 -0.0011441677
0.0013993699 -0.00060165895 0.002421158 0.0014161032 -0.0005004254 -4.7710757e-05 -0.0013261038 -0.0028055923
-0.00075117516 -0.0013682129 -0.0017802527 -0.0024976123 0.0010397981 0.0008479869 -0.0009167477 0.0017948493
0.0007198142 0.0024188925 0.002837041 0.001950701 -0.0014868422 -0.0024773513 0.0020559547 -0.0034292857
-0.0015987707 -0.0013442838 -0.004341681 -0.0021335273 0.0027516834 0.0017097809 -0.00121744 0.00400293
0.00088423735 -0.0020695855 -0.0013175062 -0.0027287556 0.0010668761 0.0012489057 -0.0018417438 0.0011076698
0.004186593 -0.0024918318 0.0029420408 -0.0010245136 0.0015074319 0.0023806202 -0.002922697 -0.0013719733
0.0038306485 -0.0013895463 0.0040122196 -0.00046861038 -0.0018815997 -0.0012373134 -0.0012921205 -0.004516161
0.003729518 -0.0026048566 0.00083811046 0.00032939648 0.0002739733 0.001195574 -0.002796399 -0.00083246356
0.0015521671 -0.0002375591 -0.00046493713 -0.0017405868 0.0011955017 0.0013343842 -0.00066791184 0.0008098734
0.0017950108 -0.00051495875 0.0013734952 0.0015796717 -0.00053271133 -0.00062109815 -0.0010823961 -0.001784441
0.003426531 0.0002646283 0.0021914078 0.0025336766 -0.0016889547 -0.0009329156 0.00022402903 -0.0022823985
-0.00084614917 0.0002858208 -0.00095205853 0.0010199979 0.0014959619 0.0012352227 0.0007345597 0.0016899994
-0.0010592457 -0.0008565058 -0.0016358247 0.000579316 0.0003523097 0.0019639826 -0.00063278317 0.0023581742
-0.0034785408 0.0016734394 -0.0020634676 -0.0003167118 0.00063755125 -0.00074659265 0.0018983658 0.0027622075
0.0014547185 0.00067861547 0.0015787808 0.0010928682 -0.00060152827 -0.0013262304 -0.00011781033 -0.001875714
0.001218631 -0.001957139 -9.8114615e-05 -0.00051141024 0.00074151007 0.00071466813 -0.0008734428 0.00019694798
0.002003089 -0.0034310834 0.0014854176 0.00043048547 -0.0013585207 1.7053031e-05 -0.0028808552 -0.0017846526
0.00067898515 0.0023885223 0.0030973866 0.004121391 -0.0027891535 -0.0026696967 0.0026873746 -0.0033049514
-0.0026975898 0.0031979517 0.0026679263 0.0024290644 -0.0013463532 -0.0018590677 0.0025156657 -0.0023859304
-0.0021247033 0.0022739226 -0.00021383293 0.0016333106 -0.00090466585 -0.0032391078 0.0019269647 0.00034237807
0.002900515 -0.0031865113 0.0013785089 -0.0017027906 0.0009157808 0.0024231023 -0.0021952142 -0.0019532598
0.0032289333 -0.0001879687 0.00093050656 0.0016428579 -0.00022240925 -6.1069586e-05 -0.0006197895 -0.0006993191
-0.0022047386 -0.0007964276 -0.003870637 -0.0013552624 0.0039387126 0.0033359653 -9.44989e-05 0.0047128336
0.004393883 -0.0037584968 0.002207558 0.00060568 -0.0009498507 0.00067271653 -0.0035696793 -0.0025292425
-0.0017094176 -0.001325585 -0.0014633617 -0.0016029385 0.00027847057 0.00021525605 6.292781e-05 0.0014207087
00000000: ebb3 5b3a cf40 c03a 43cf 0f3b d2f6 153b
00000010: 54bb 9fba 9d25 a2ba ceb7 383a 1aad f5ba
00000020: 8933 a13b a11d 6dbb 715e 103b f483 183a
00000030: fe44 82ba 5183 513a 7818 5abb 6a7d 36bb
00000040: 75e5 06bb a2a0 d83a 7772 02bb c15d 0cba
00000050: 8d18 c03a c372 ab3a 2e0d a03a c0f3 023b
00000060: 7234 e739 edf8 e93a c02f 6b3a 5b71 17ba
00000070: 22b0 e23a 0115 aeba 0134 123b c5f7 9639
00000080: 933f 373a 1581 76ba b1ab 0fbb 9660 a0bb
00000090: c6ef 3c3b aff5 843b a550 b8ba b7e4 153b
000000a0: 3a51 3c3b 9fb1 bfb9 3e51 c63a 0bd6 9839
000000b0: 0691 50ba 7407 3138 4990 04bb c803 04bb
000000c0: 4cf0 1d3b 4632 1dbb 60c7 413a b895 44bb
000000d0: 7603 d83a 7a82 503b ef92 0fbb e6f7 95ba
000000e0: 106b b73a a6b8 1dba 4aac 1e3b 8a9c b93a
000000f0: fb2e 03ba 091d 48b8 a9d0 adba 07de 37bb
00000100: 83ea 44ba 9b55 b3ba 5e57 e9ba fbae 23bb
00000110: d649 883a 704b 5e3a e651 70ba 2641 eb3a
00000120: eab1 3c3a 4886 1e3b a6ed 393b aaae ff3a
00000130: 25e2 c2ba 0f5b 22bb 32bd 063b debd 60bb
00000140: d88d d1ba ae32 b0ba a944 8ebb a6d2 0bbb
00000150: 9655 343b ba1a e03a 8292 9fba 032b 833b
00000160: 2acc 673a e2a1 07bb 2cb0 acba ecd4 32bb
00000170: 6cd6 8b3a 52b2 a33a ab66 f1ba 3b2f 913a
00000180: b02f 893b 004e 23bb 41cf 403b f948 86ba
00000190: 0595 c53a 2e04 1c3b b88a 3fbb c9d3 b3ba
000001a0: 9e0b 7b3b 7021 b6ba f078 833b d2af f5b9
000001b0: 02a0 f6ba 592d a2ba 5f5c a9ba 4efc 93bb
000001c0: ee6a 743b 3eb6 2abb a4b4 5b3a d9b2 ac39
000001d0: 13a4 8f39 ceb4 9c3a ca43 37bb af39 5aba
000001e0: 1672 cb3a 4919 79b9 cec2 f3b9 6724 e4ba
000001f0: 61b2 9c3a 81e6 ae3a ce16 2fba af4d 543a
00000200: 9146 eb3a 4cfe 06ba da06 b43a fd0c cf3a
00000210: a7a5 0bba 31d1 22ba 30df 8dba e7e3 e9ba
00000220: a78f 603b cfbd 8a39 b99d 0f3b 0a0c 263b
00000230: ea5f ddba e88e 74ba 56e9 6a39 4b94 15bb
00000240: 1cd0 5dba 38da 9539 9193 79ba 73b1 853a
00000250: 2714 c43a 32e7 a13a 788f 403a f882 dd3a
00000260: 63d6 8aba 2287 60ba 2b69 d6ba 3ddd 173a
00000270: 35b6 b839 29b6 003b 5ce1 25ba 998b 1a3b
00000280: 3bf8 63bb 4f57 db3a 3e3b 07bb 570c a6b9
00000290: 5721 273a fcb6 43ba 96d2 f83a 2706 353b
000002a0: 41ac be3a 1de5 313a 18ef ce3a 923e 8f3a
000002b0: e1af 1dba e8d4 adba f010 f7b8 85da f5ba
000002c0: 79ba 9f3a 5843 00bb e2c2 cdb8 2910 06ba
000002d0: e661 423a 9158 3b3a c1f7 64ba d283 4e39
000002e0: 4246 033b 07dc 60bb 58b2 c23a c8b2 e139
000002f0: 6410 b2ba 1b0d 8f37 bbcc 3cbb 01eb e9ba
00000300: ecfd 313a c188 1c3b 86fd 4a3b bc0c 873b
00000310: 3bca 36bb 14f6 2ebb aa1e 303b e297 58bb
00000320: 0cca 30bb ba94 513b 60d8 2e3b f030 1f3b
00000330: 1e78 b0ba f6ab f3ba dedd 243b 455d 1cbb
00000340: 9b3e 0bbb 1706 153b 5738 60b9 cf14 d63a
00000350: 1927 6dba 3647 54bb 3592 fc3a 3581 b339
00000360: 9116 3e3b cad4 50bb 15af b43a 2c30 dfba
00000370: 0211 703a e9cc 1e3b 95dd 0fbb 4302 00bb
00000380: 839c 533b 7719 45b9 3ded 733a 2a55 d73a
00000390: 8736 69b9 7c12 80b8 5f79 22ba 8352 37ba
000003a0: 607d 10bb 5ac7 50ba 83aa 7dbb 0fa3 b1ba
000003b0: 5110 813b 36a0 5a3b b62d c6b8 1d6e 9a3b
000003c0: 90fa 8f3b 1d51 76bb adac 103b 7fc6 1e3a
000003d0: 67ff 78ba 3e59 303a 48f1 69bb a6c1 25bb
000003e0: 890e e0ba 40bf adba 45ce bfba b119 d2ba
000003f0: b0ff 9139 5bb6 6139 1cf8 8338 1337 ba3a

base_model.model.bert.encoder.layer.0.attention.self.value.lora_A.weight f4 [8, 384]
-0.026831374 0.028797332 -0.056657095 0.00778886 0.017504325 -0.02627865 -0.023732398 0.020032356
-0.047221333 -0.001010615 -0.022790028 -0.028053468 0.051382978 0.024578478 -0.011745062 0.002365158
-0.031105075 0.012981877 -0.018249528 0.04868882 0.011887857 0.005041326 0.008643599 0.05435328
0.0040632305 -0.05049227 0.010027881 -0.042440798 0.011587792 0.037323114 -0.047690224 0.0052852663
-0.020210462 -0.009763187 0.005632759 -0.001909452 0.019506147 0.022004036 0.045163967 -0.014223995
0.013902187 0.019847466 -0.041146476 -0.041027427 -3.3467174e-06 -0.0042689727 -0.029175378 0.02085966
-0.020453958 -0.046885397 0.037804406 0.015143646 0.03422199 0.015062025 -0.006188116 -0.04159357
0.054874655 0.05825774 -0.043590695 0.03516858 -0.0005071835 0.017425679 0.023773583 0.013870842
0.029736398 -0.051495176 -0.0082672965 0.0031484317 0.029683229 -0.014977053 -0.027436612 0.017604547
0.03906924 -0.035171438 0.022280714 0.0026707032 0.023482408 -0.013720215 0.0283921 -0.013311673
-0.016961945 0.012598444 -0.023459617 0.00749467 -0.03236183 0.003217771 0.011510904 -0.0027156898
0.008933938 -0.03403531 0.04514224 0.008227633 0.030166453 -0.030886516 -0.021966316 0.022016572
-0.033108614 -0.005621426 -0.016088113 0.03876298 -0.037440993 0.04433154 -0.04056076 -0.001609304
0.029490564 -0.046733964 -0.054321412 -0.014519569 -0.01638276 -1.9427063e-05 -0.052586116 -0.029630808
-0.0014117038 -0.034337778 0.032870494 0.010315622 0.054445423 0.019578781 -0.023709089 0.025404027
-0.011623731 -0.022996249 0.03493428 0.05037957 0.043616723 4.287506e-05 -0.03312299 -0.010329721
-0.032373283 -0.023495117 -0.008707469 -0.0010175167 -0.022776453 -0.04518416 -0.03548006 -0.022018868
-0.0010867525 -0.043760944 0.022837324 0.04421603 0.056806013 -0.0029398084 0.032218218 -0.008294753
0.013586298 -0.010555343 0.04190865 -0.0054499013 -0.030219931 -0.04698115 -0.029813923 -0.0571502
-0.021892305 -0.025627585 -0.044697233 -0.016418057 -0.05707576 -0.055200547 -0.03426441 -0.029757634
0.022756675 -0.035297267 0.0023706548 0.033704445 -0.016619382 -0.017464226 0.01783779 -0.057916284
0.05435473 -0.032540902 0.053679947 -0.012836345 0.0040212637 -0.040016085 -0.040139217 0.016334875
0.014702046 0.036958665 0.03739832 0.052767884 0.019272465 -0.010596951 -0.003096154 0.0284437
0.032587316 0.03769818 -0.037676148 -0.04193193 -0.023114432 -0.019796813 -0.02666462 0.045547683
0.053842787 -0.014679675 0.012283678 0.0070641777 0.04117045 -0.04238307 -0.029781833 0.038217846
0.0050805937 0.025222747 0.0031297605 0.039190363 -0.019987173 0.044782612 0.037667584 -0.015842736
0.05123087 0.009484747 0.017028267 -0.03186344 0.020051895 -0.05164889 0.022007536 -0.02772584
-0.05164358 0.0044156844 0.0403024 0.018439658 -0.002201741 0.018928573 -0.010599083 0.029911114
-0.0119126225 0.023269784 -0.015416318 0.035910863 0.0004102525 0.040913288 0.038795393 0.023039365
-0.027799265 -0.05586287 -0.012444588 0.02560512 -0.019458953 -0.011941967 -0.020419242 -0.026697136
-0.00031919286 0.006272255 -0.038833726 -0.019096633 0.017238295 -0.0051608663 -0.028084857 -0.044387825
-0.012388944 -0.0047177635 -0.02389413 0.025256611 0.022536531 0.00615525 -0.024908245 0.054389093
00000000: 78cd dbbc 62e8 eb3c 4511 68bd b139 ff3b
00000010: 3b65 8f3c 5346 d7bc 726a c2bc e51a a43c
00000020: 286b 41bd 9d76 84ba 27b2 babc 63d0 e5bc
00000030: f576 523d ce58 c93c 5c6e 40bc c400 1b3b
00000040: 12d0 febc f0b1 543c 0980 95bc ee6d 473d
00000050: 49c5 423c b531 a53b e29d 0d3c 8ca1 5e3d
00000060: d924 853b fcd0 4ebd fb4b 243c 67d6 2dbd
00000070: b9da 3d3c 1fe0 183d d356 43bd 0730 ad3b
00000080: 6990 a5bc c6f5 1fbc 0293 b83b 9446 faba
00000090: 5bcb 9f3c cf41 b43c dafd 383d c20b 69bc
000000a0: 00c6 633c 2797 a23c 3589 28bd 600c 28bd
000000b0: 2b98 60b6 bde2 8bbb 3401 efbc e1e1 aa3c
000000c0: 0f8f a7bc e70a 40bd cbd8 1a3d 0e1d 783c
000000d0: 5b2c 0c3d b6c6 763c aec5 cabb 055e 2abd
000000e0: 3fc4 603d ab9f 6e3d 288c 32bd ee0c 103d
000000f0: 82f4 04ba 4cc0 8e3c d1c0 c23c 8742 633c
00000100: bf99 f33c 9bec 52bd 8e73 07bc eb55 4e3b
00000110: 3e2a f33c 5062 75bc bfc2 e0bc 6937 903c
00000120: 1107 203d ed0f 10bd 0b86 b63c f706 2f3b
00000130: 2e5e c03c c1ca 60bc 8d96 e83c 3419 5abc
00000140: c7f3 8abc b469 4e3c 622e c0bc d995 f53b
00000150: d78d 04bd 3de1 523b 3b98 3c3c b7f9 31bb
00000160: a75f 123c 9c68 0bbd 12e7 383d 32cd 063c
00000170: a31f f73c b805 fdbc b4f2 b3bc 195c b43c
00000180: e69c 07bd f033 b8bb 38cb 83bc eec5 1e3d
00000190: ba5b 19bd fd94 353d 0a23 26bd 48ef d2ba
000001a0: 3296 f13c 1d6c 3fbd 2180 5ebd 7de3 6dbc
000001b0: 2335 86bc 4df7 a2b7 8a64 57bd 4fbc f2bc
000001c0: eb08 b9ba c5a5 0cbd 36a3 063d db02 293c
000001d0: 2a02 5f3d ae63 a03c 9039 c2bc 1b1c d03c
000001e0: 7671 3ebc a162 bcbc 3f17 0f3d cf5a 4e3d
000001f0: 73a7 323d bfd4 3338 f9ab 07bd fd3d 29bc
00000200: d999 04bd d578 c0bc c6a9 0ebc 325e 85ba
00000210: af95 babc 0713 39bd 8a53 11bd ea60 b4bc
00000220: 5d71 8eba ad3e 33bd 5715 bb3c de1b 353d
00000230: 6cad 683d cda9 40bb 40f7 033d b7e6 07bc
00000240: 1099 5e3c 51f0 2cbc 68a8 2b3d 1695 b2bb
00000250: ca8f f7bc 4e6f 40bd 543c f4bc 5416 6abd
00000260: 7e57 b3bc f1f0 d1bc 7214 37bd 297f 86bc
00000270: 46c8 69bd f819 62bd d758 0cbd 48c6 f3bc
00000280: 356c ba3c de93 10bd fd5c 1b3b ac0d 0a3d
00000290: 5f25 88bc 2311 8fbc 8f20 923c a039 6dbd
000002a0: 11a3 5e3d 9c49 05bd 81df 5b3d 884f 52bc
000002b0: cec4 833b e8e7 23bd 0569 24bd b7d0 853c
000002c0: dae0 703c f861 173d fb2e 193d 2323 583d
000002d0: 4ae1 9d3c d59e 2dbc d8e8 4abb c302 e93c
000002e0: 477a 053d 6869 1a3d 4e52 1abd d1c0 2bbd
000002f0: 7a5a bdbc ed2c a2bc c36f dabc 3590 3a3d
00000300: 418a 5c3d 0583 70bc 7b41 493c 9e7a e73b
00000310: 59a2 283d df99 2dbd 08f9 f3bc 518a 1c3d
00000320: 1c7b a63b ef9f ce3c ab1c 4d3b 1386 203d
00000330: 24bc a3bc f96d 373d 5349 1a3d a0c8 81bc
00000340: 76d7 513d ea65 1b3c dd7e 8b3c 3d83 02bd
00000350: df43 a43c c98d 53bd 2649 b43c 4d21 e3bc
00000360: 3888 53bd 72b1 903b 2114 253d c40e 973c
00000370: 164b 10bb 1810 9b3c c7a7 2dbc 2708 f53c
00000380: 292d 43bc 46a0 be3c b994 7cbc 4517 133d
00000390: 2917 d739 b194 273d ebe7 1e3d 0dbd bc3c
000003a0: 49bb e3bc 77d0 64bd 63e4 4bbc d4c1 d13c
000003b0: 6268 9fbc 3da8 43bc 4146 a7bc f4b3 dabc
000003c0: 5759 a7b9 7d87 cd3b 1d10 1fbd 8b70 9cbc
000003d0: 5337 8d3c 7c1c a9bb 3712 e6bc 02d0 35bd
000003e0: fffa 4abc 7897 9abb 9fbd c3bc f4e6 ce3c
000003f0: 889e b83c fbb1 c93b 600c ccbc 19c7 5e3d

base_model.model.bert.encoder.layer.0.attention.self.value.lora_B.weight f4 [384, 8]
0.0015695406 -0.0027653829 0.00086902693 -0.00076355063 -0.0009720199 0.0026864533 0.0012584983 -0.0036549496
-0.004159085 0.0034013032 -0.0022698042 -0.0014574095 0.0013437294 -0.0029292074 -0.0022052012 0.002664248
-0.0030288224 0.0069852173 -0.0011964592 0.00055763207 0.0007382973 -0.0067077167 -0.0019349931 0.005103893
-0.0034179315 0.00422665 -0.0003644524 0.00081128796 -0.00012495778 -0.0040130215 -0.000421222 0.0033199587
0.0021230602 -0.0016307321 0.0036327208 0.004920862 -0.0050685117 0.0016809454 0.0037964487 -0.00059853884
0.00087850454 -0.00062261766 0.0015411582 0.0030081063 -0.0020905014 0.000841033 0.0015790225 0.0008794101
0.002945494 -0.0025534886 0.0011553322 0.0019940764 -0.00091177726 0.0021610057 0.0025438129 -0.0022284372
0.0031890492 -0.0043582013 0.0028697243 0.0024949154 -0.0029116636 0.004350898 0.0030662417 -0.0023182852
-0.002958647 0.0024155178 -0.0038740523 -0.004447106 0.0042225337 -0.0021884935 -0.0035412088 0.0008396653
-2.8789907e-05 -0.0012167175 0.0002562774 -0.0022393959 -0.000116245996 0.0015816065 0.0008951146 -0.0010338861
-0.0009809632 -0.000566256 -0.0038055435 -0.0027838403 0.003840374 0.00029865405 -0.0041662985 -0.0018503178
0.00091931515 -0.0012863424 -0.00019385057 -0.0023581632 0.0011712947 0.0010383528 -2.8441682e-05 -0.0019716306
-0.0033090767 0.003216751 -0.0035059208 -0.003969903 0.0037138823 -0.0026403458 -0.0034200344 0.002664436
-0.003430336 0.004410795 -0.002602906 -0.0019409796 0.002279534 -0.0035554962 -0.0028230739 0.0033668957
0.0053257034 -0.0053560515 0.0038184784 0.002657461 -0.0038487203 0.005297949 0.005470044 -0.0043898807
-0.00021748668 -0.0013261286 0.00013573065 -1.4842364e-05 5.391831e-05 0.00094482454 -8.54049e-06 -0.0013308311
0.0023616785 -0.002424915 0.0025570216 0.0029962666 -0.0026878437 0.0022676555 0.002716912 -0.0010391929
0.0014142311 -0.0013325741 -0.0012872532 -0.0008553373 0.0012875417 0.00071305636 -0.0018799324 -0.0011865392
-0.0003502813 0.0037770527 0.002202114 0.0030868107 -0.0025282193 -0.0038819155 0.002116651 0.0040829293
-0.0035118542 0.004514019 -0.0031308157 -0.0016175853 0.003044066 -0.004526927 -0.003853323 0.00701261
0.0015548089 0.0002611135 0.0023481837 0.0023466474 -0.0020728277 0.00019852472 0.0024525323 0.0019759457
-0.006604812 0.0060991966 -0.0069872993 -0.0069453674 0.006889481 -0.0059035434 -0.0073484974 0.005054012
4.8832248e-05 0.00063819677 0.0005830547 0.0017425314 -0.0011167603 -0.0005685008 0.0003175764 0.0028622053
0.006118103 -0.006509707 0.0061002187 0.004675606 -0.0060710195 0.006228435 0.006826785 -0.006426234
0.0058036023 -0.0050153 0.005591546 0.004708914 -0.0055566737 0.0053633004 0.0066286256 -6.773131e-05
-0.007565988 0.007758344 -0.008129637 -0.008374638 0.0083097955 -0.0073650857 -0.008828912 0.0067988983
-0.0034162407 0.003691408 -0.0034177306 -0.0030088855 0.0032126987 -0.0034497732 -0.0039090044 0.0043966556
-0.00043213408 0.00053213484 -0.0001963373 0.000592258 -0.00011936004 -0.00039629274 -0.0002188714 0.0012444686
0.00012067951 -0.0006077744 -0.0001596931 -2.7074546e-05 -5.1201678e-06 0.0005482989 -0.0001445721 -0.0011261977
0.00497902 -0.0015485624 0.004232467 0.003203573 -0.0040747854 0.0019723938 0.005081533 0.0008488283
-0.0068889977 0.0071008597 -0.0074923257 -0.0048309388 0.0076823337 -0.006718653 -0.008166578 0.006083771
-0.0024418402 0.0015988577 -0.003048772 -0.004430848 0.0031734845 -0.0013865198 -0.0029165149 0.00035991252
00000000: 0bb9 cd3a 6d3b 35bb 69cf 633a 0429 48ba
00000010: 27cf 7eba 350f 303b 32f4 a43a e187 6fbb
00000020: ef48 88bb 66e8 5e3b ffc0 14bb 8c06 bfba
00000030: 1420 b03a f2f7 3fbb 2385 10bb aa9a 2e3b
00000040: 357f 46bb 40e4 e43b 82d2 9cba 0e2e 123a
00000050: 4b8a 413a 68cc dbbb 989f fdba 8f3e a73b
00000060: 60ff 5fbb b67f 8a3b f913 bfb9 9dac 543a
00000070: 1907 03b9 aa7f 83bb 76d7 dcb9 aa93 593b
00000080: 0a23 0b3b 4abe d5ba f112 6e3b 2f3f a13b
00000090: c215 a6bb 2b53 dc3a d7cd 783b 43e7 1cba
000000a0: 714b 663a 2a37 23ba b000 ca3a a623 453b
000000b0: cb00 09bb c578 5c3a 34f7 ce3a 3688 663a
000000c0: 3009 413b 6e58 27bb 846e 973a 0daf 023b
000000d0: 5604 6fba a99f 0d3b 19b6 263b f90a 12bb
000000e0: 5eff 503b 3ecf 8ebb fc11 3c3b bc81 233b
000000f0: 9cd1 3ebb fa91 8e3b 00f3 483b 5fee 17bb
00000100: dce5 41bb aa4d 1e3b d0e3 7dbb 07b9 91bb
00000110: 2e5d 8a3b d46c 0fbb a013 68bb fc1c 5c3a
00000120: db81 f1b7 447a 9fba f85c 8639 d4c2 12bb
00000130: 18c9 f3b8 e84d cf3a 20a6 6a3a 7683 87ba
00000140: aa93 80ba cc70 14ba 6d66 79bb 1771 36bb
00000150: c9ae 7b3b ab94 9c39 7285 88bb 5d86 f2ba
00000160: 32fe 703a 7d9a a8ba 5e44 4bb9 6a8b 1abb
00000170: 2186 993a 5719 883a 0c96 eeb7 7936 01bb
00000180: 18dd 58bb 20d0 523b 97c3 65bb f615 82bb
00000190: 9b64 733b a709 2dbb a822 60bb d19d 2e3b
000001a0: 7dcf 60bb 6e88 903b 8495 2abb 7868 feba
000001b0: 3c64 153b 5403 69bb 5203 39bb 23a7 5c3b
000001c0: 3d83 ae3b d181 afbb 703f 7a3b cc28 2e3b
000001d0: d03a 7cbb 6b9a ad3b 0e3e b33b fdd8 8fbb
000001e0: 230d 64b9 7ed1 adba eb52 0e39 7803 79b7
000001f0: 5826 6238 1aae 773a 2049 0fb7 486f aeba
00000200: 64c6 1a3b 53eb 1ebb b493 273b 035d 443b
00000210: 8926 30bb f29c 143b 380e 323b 8735 88ba
00000220: b95d b93a c4a9 aeba 0db9 a8ba b738 60ba
00000230: bbc2 a83a 67ec 3a3a 1068 f6ba a685 9bba
00000240: f6a5 b7b9 6e88 773b 5851 103b 174c 4a3b
00000250: 7bb0 25bb bc67 7ebb 83b7 0a3b 18ca 853b
00000260: 2327 66bb 56ea 933b 5f2e 4dbb 2805 d4ba
00000270: f47e 473b 9e56 94bb 0888 7cbb 09ca e53b
00000280: bbca cb3a 10e6 8839 fce3 193b 36ca 193b
00000290: 47d8 07bb 132b 5039 aaba 203b de7e 013b
000002a0: 2e6d d8bb c5db c73b b7f5 e4bb f795 e3bb
000002b0: 28c1 e13b 8372 c1bb aacb f0bb 209c a53b
000002c0: 3ad1 4c38 a94c 273a 23d8 183a a765 e43a
000002d0: 4260 92ba 7107 15ba 6280 a639 d693 3b3b
000002e0: 5e7a c83b 614f d5bb 58e4 c73b d335 993b
000002f0: 67ef c6bb e617 cc3b 39b3 df3b 2893 d2bb
00000300: 252c be3b 6357 a4bb 4a39 b73b 3c4d 9a3b
00000310: c214 b6bb a0be af3b f134 d93b f80a 8eb8
00000320: 1cec f7bb b539 fe3b 2b32 05bc c735 09bc
00000330: cf25 083c d156 f1bb 24a7 10bc 4bc9 de3b
00000340: 02e3 5fbb 8deb 713b 01fc 5fbb b930 45bb
00000350: 248c 523b 9715 62bb 1b17 80bb d211 903b
00000360: 0e90 e2b9 f77e 0b3a e5df 4db9 c341 1b3a
00000370: ef50 fab8 83c5 cfb9 d880 65b9 701d a33a
00000380: 5215 fd38 0d53 1fba 4a73 27b9 251e e3b7
00000390: e8cd abb6 b7bb 0f3a 4798 17b9 ed9c 93ba
000003a0: 0c27 a33b 22f9 caba 82b0 8a3b 09f3 513b
000003b0: c785 85bb 4743 013b fd82 a63b e783 5e3a
000003c0: 1abd e1bb 54ae e83b 2f82 f5bb da4c 9ebb
000003d0: 16bc fb3b 2528 dcbb 1ccd 05bc 5f5a c73b
000003e0: 4807 20bb c390 d13a e8cd 47bb a630 91bb
000003f0: 3cfa 4f3b e2bb b5ba 0023 3fbb a4b2 bc39

base_model.model.bert.encoder.layer.1.attention.self.query.lora_A.weight f4 [8, 384]
-0.0023923211 0.031002846 0.018251196 -0.026833033 -0.033352055 -0.046973977 -0.004160298 -0.030581586
-0.00886884 0.03772728 0.021868039 -0.044427108 -0.007814402 0.01669807 0.004043104 0.04245773
0.017635673 -0.043643095 -0.013294497 -0.024174724 0.037430245 -0.010091387 0.007253207 -0.029454283
-0.011353515 0.04264699 0.0406632 0.037620883 0.0018529947 -0.0098050805 0.040571913 0.00221988
0.0032545805 -0.039075777 0.020758847 -0.040624943 -0.039747536 -0.0047109644 0.014744898 -0.024675034
0.021584705 -0.03842368 -0.039474156 -0.018630441 0.0051300926 -0.030751297 0.0045961845 0.012721068
-0.039738778 0.020147078 0.04147118 -0.048551794 0.026693037 -0.024420055 0.04319046 0.016868211
0.031154443 -0.023637116 -0.047517728 0.034817506 0.022489833 0.0035540194 0.006141227 -0.036767244
-0.0026741822 0.009034401 0.020292701 -0.002289705 -0.014876111 0.019708704 0.024649428 0.00029059034
-0.038985748 -0.03610916 -0.040896207 -0.020641988 -0.035786096 -0.020610053 0.0042911717 0.014907518
-0.022691386 -0.021409705 -0.017463787 -0.012044776 -0.02768177 -0.04075347 -0.030880155 0.044851966
-0.010923726 -0.03337502 -0.012594428 0.009641655 0.026670404 -0.0053951372 -0.047123373 -0.049965292
0.0025694736 0.01722495 -0.014000677 -0.034689218 -0.0006073147 0.0023257325 0.03470412 0.01798605
-0.021763824 -0.011559172 0.010487495 -0.042339776 0.029869566 0.021662919 0.01903354 0.052981872
0.014314545 -0.02318806 0.02924669 0.019116497 0.008032404 0.001342707 -0.008738744 -0.01474691
0.048384987 -0.030206967 -0.026336687 0.032070294 0.035308383 0.03630564 -0.011561208 -0.030767161
-0.032812204 -0.028527683 -0.035493445 0.03277974 0.03718457 0.020709867 0.034027983 -0.0024312758
-0.04258986 -0.053619552 -0.04254585 0.03582665 -0.04705261 0.021115795 0.029419638 0.04131633
0.04008493 0.02705778 0.013360284 -0.04482751 0.046620786 -0.042426724 0.0052035954 0.013136804
-0.019030632 0.040781405 -0.011013675 -0.0070576826 0.047304288 0.042955518 0.034323204 -0.03435645
0.0042673433 -0.027236406 0.04488868 0.029449537 0.017073272 -0.045816362 -0.031759344 0.01248403
0.040692817 -0.023513984 -0.028346179 0.013902173 -0.03761906 0.014438732 0.010647151 0.049528364
0.043423686 -0.031337757 -0.045178656 0.021830577 0.026215069 0.018465796 -0.034907546 -0.047856137
-0.03704517 -0.0079554785 0.0017775234 -0.029709086 -0.044422228 -0.03165493 -0.023417536 0.03552028
-0.0107381 0.032778684 0.011496235 -0.0024066216 -0.038193557 -0.021892719 0.0090057375 -0.038622037
0.021031175 -0.04028704 -0.006949993 0.041844584 -0.047871303 -0.027270898 -0.034049287 0.0044261334
0.030041344 -0.037371248 -0.011513965 -0.010710179 0.029219197 -0.0055337227 -0.041049097 0.033937685
-0.032583997 -0.034714416 -0.039329655 0.024006542 0.011515648 -0.011948263 0.043889824 -0.00089089153
0.04561976 -0.0062115407 0.011162736 0.03191956 0.043009963 0.044397816 0.043939836 0.041074384
-0.04642438 0.022425763 -0.012315812 -0.030441148 -0.0050430726 -0.008136586 0.002475714 0.04425652
-0.003661166 -0.0036352077 0.029631097 -0.029486015 0.005748758 -0.016867528 -0.025558185 0.018934375
0.03407795 -0.03057055 0.0051447675 -0.023853317 0.00884463 -0.010373702 0.024123471 -0.047348294
00000000: 7dc8 1cbb aef9 fd3c 8883 953c f3d0 dbbc
00000010: 2a9c 08bd c967 40bd 1c53 88bb 3c86 fabc
00000020: 9c4e 11bc ec87 1a3d 9a24 b33c 33f9 35bd
00000030: fa07 00bc 64ca 883c 047c 843b 28e8 2d3d
00000040: b078 903c 1ac3 32bd 29d1 59bc 120a c6bc
00000050: 7550 193d 5856 25bc 4fac ed3b 1c4a f1bc
00000060: 1804 3abc 9cae 2e3d 758e 263d 5b18 1a3d
00000070: 2fe0 f23a 7da5 20bc bc2e 263d 687b 113b
00000080: cd4a 553b ec0d 20bd 750e aa3c 5766 26bd
00000090: 50ce 22bd 6f5e 9abb 9694 713c 4c23 cabc
000000a0: 68d2 b03c 2662 1dbd a7af 21bd de9e 98bc
000000b0: 561a a83b 25ea fbbc 979b 963b 076c 503c
000000c0: 21c5 22bd 7c0b a53c afdd 293d 3fde 46bd
000000d0: 5bab da3c 910c c8bc 7be8 303d 342f 8a3c
000000e0: 9a37 ff3c a0a2 c1bc f3a1 42bd cd9c 0e3d
000000f0: 993c b83c 8dea 683b 593c c93b 4099 16bd
00000100: 5541 2fbb 0605 143c e13c a63c e00e 16bb
00000110: efba 73bc 2674 a13c 99ed c93c 605a 9839
00000120: 85af 1fbd 33e7 13bd c882 27bd 6319 a9bc
00000130: 7194 12bd 6ad6 a8bc f59c 8c3b aa3e 743c
00000140: 49e3 b9bc 6863 afbc 3710 8fbc 7457 45bc
00000150: e1c4 e2bc 1ced 26bd 61f8 fcbc b2b6 373d
00000160: 6df9 32bc 3fb4 08bd dc58 4ebc 08f8 1d3c
00000170: e47b da3c b1c9 b0bb 7004 41bd 68a8 4cbd
00000180: 9d64 283b 571b 8d3c 1863 65bc 4816 0ebd
00000190: 3334 1fba 516b 183b e825 0e3d 7b57 933c
000001a0: 0c4a b2bc ae62 3dbc bed3 2b3c 796c 2dbd
000001b0: 05b1 f43c 6f76 b13c 3aec 9b3c 8503 593d
000001c0: 8e87 6a3c e3f4 bdbc c196 ef3c 339a 9c3c
000001d0: 589a 033c c5fd af3a f32c 0fbc 069d 71bc
000001e0: 562f 463d 9a74 f7bc 09c0 d7bc 245c 033d
000001f0: 869f 103d 39b5 143d 396b 3dbc 6a0b fcbc
00000200: 1766 06bd e3b2 e9bc 9361 11bd 0c44 063d
00000210: d94e 183d bda7 a93c ed60 0b3d 0a56 1fbb
00000220: b472 2ebd 2da0 5bbd 8f44 2ebd f7be 123d
00000230: 3dba 40bd 08fb ac3c 7401 f13c 503b 293d
00000240: 1830 243d 47a8 dd3c 18e5 5a3c 0d9d 37bd
00000250: 70f5 3e3d a5c7 2dbd ec82 aa3b c03b 573c
00000260: 21e6 9bbc 670a 273d b372 34bc 2244 e7bb
00000270: 24c2 413d 20f2 2f3d 7d96 0c3d 59b9 0cbd
00000280: 12d5 8b3b e21e dfbc 31dd 373d 2840 f13c
00000290: 3fdd 8b3c f0a9 3bbd 1616 02bd d189 4c3c
000002a0: 83ad 263d 66a0 c0bc 3f36 e8bc f1c5 633c
000002b0: 7216 1abd 6e90 6c3c 6371 2e3c 41de 4a3d
000002c0: 09dd 313d 055c 00bd 410d 39bd 0ad6 b23c
000002d0: fcc0 d63c 9545 973c 37fb 0ebd cc04 44bd
000002e0: adbc 17bd b257 02bc cafb e83a 7860 f3bc
000002f0: 15f4 35bd 9aa8 01bd 22d6 bfbc b77d 113d
00000300: dbee 2fbc f142 063d b45a 3c3c 69b8 1dbb
00000310: d970 1cbd 5c58 b3bc cd8c 133c 2432 1ebd
00000320: 9249 ac3c 0604 25bd c4bc e3bb 3a65 2b3d
00000330: b314 44bd 3867 dfbc 4477 0bbd 1909 913b
00000340: 4419 f63c 9812 19bd 12a5 3cbc bf79 2fbc
00000350: 195d ef3c 3b54 b5bb 1923 28bd 3e02 0b3d
00000360: cc76 05bd b430 0ebd 2218 21bd 5ea9 c43c
00000370: 21ac 3c3c a6c2 43bc d1c5 333d b88a 69ba
00000380: c9db 3a3d 2e8a cbbb e9e3 363c 16be 023d
00000390: 372b 303d 7cda 353d 42fa 333d 9d3d 283d
000003a0: 7e27 3ebd 3cb6 b73c 42c8 49bc b75f f9bc
000003b0: 5c40 a5bb 514f 05bc 973f 223b 5346 353d
000003c0: 2cf0 6fbb aa3c 6ebb eabc f23c a88c f1bc
000003d0: 1460 bc3b c52d 8abc 665f d1bc 431c 9b3c
000003e0: 5295 0b3d 176f fabc 7095 a83b 0868 c3bc
000003f0: 11e9 103c 76f6 29bc 969e c53c 49f0 41bd

base_model.model.bert.encoder.layer.1.attention.self.query.lora_B.weight f4 [384, 8]
-0.0025895638 -0.0026531548 -0.00076366955 0.0008521284 -6.6596425e-05 0.003970189 -0.00055432855 -0.00073921186
-0.0013784867 -0.0017039782 -0.0014181312 0.0013942125 0.0013534293 0.0014539674 -0.0011340554 -0.0017136356
0.00179288 0.0026015372 -0.00031501186 -0.0026377616 -0.0021815307 -6.9681487e-06 0.0026672732 0.0028673296
-0.002310808 -0.0019321616 0.0008049471 0.00066310697 0.00040273232 -2.8353754e-05 -0.0012125175 9.448407e-05
-0.003181347 -0.0022373826 -0.0006378122 -0.0011403423 -0.0010986645 0.0009756775 0.00011361517 0.0027182028
-0.0032395453 -0.002469156 0.0010396907 0.00063941005 0.0003214296 0.00018859471 -0.0014578452 0.0011296842
-0.00255016 -0.0028378023 0.0017295302 0.0016026547 0.0005899388 0.00094815105 -0.0020286953 -0.00057306606
-0.0022898319 -0.0018831164 0.00029363783 0.00042921465 0.0005668627 0.00085373933 -0.0007184793 -0.000667556
0.0012548845 0.0012703441 0.00043177477 -0.0018214725 -0.0018490161 -0.00041952607 -0.00054603437 0.0029727267
0.00078694057 0.0029869538 -0.0016670953 -0.0049641356 -0.0019028675 0.0007842281 0.003907299 0.0030101452
0.00021584751 -0.0001568379 -0.0018715151 0.00069213245 5.6957542e-05 0.0012220652 0.0021441574 -0.0014181084
0.0016203054 0.0019302849 0.0010261968 -0.0011843003 0.0005387491 -0.0015127807 0.0010479628 0.00032131316
-0.0022392513 -0.002806839 0.0008455725 0.003401761 0.0023239604 -0.0010327689 -0.0011085775 -0.004147084
0.0018541925 0.001832327 0.0030808717 -0.00040330115 0.00016862163 -0.0028850688 0.00012463416 0.0012273975
-0.001963935 -0.0024539155 0.0015120608 0.00036081517 0.0011778908 -0.001365684 -0.0023165243 0.0011485075
-0.0008679103 -0.0013462311 0.00044482548 0.002359384 0.002630393 -0.0004687435 -0.0022808828 -0.0026824945
0.0017449647 0.0021470624 -0.0029864523 -0.0023502647 -0.0026604307 0.0023752342 0.0028851558 0.0030093028
-0.0017574051 -0.002074857 0.0015682351 0.0014140912 0.0019923623 0.0015664786 -0.0014768786 -0.0015661104
-0.0005513231 -0.000652626 3.7388556e-05 0.0006920441 -0.00010750934 0.0005651006 -0.00054061925 -0.0024737671
0.00093271775 0.0005501052 0.003280001 -0.0001699305 -0.00023855812 -0.00248054 -0.0034575097 0.0018802898
-0.0025390214 -0.002096447 -0.00082135946 0.00016763333 -0.00033251345 0.0033294063 -0.00030560224 -0.00016552492
0.0012992655 0.00037821103 0.0014291365 0.0025569233 0.0039356113 -0.0017789348 -0.00046511024 -0.0032489053
-0.00091212 0.0007397943 3.1860754e-06 -0.001695819 -0.00060469203 0.00038173023 -0.00021755112 0.0030186917
0.0019328076 0.0024670865 -0.0026562088 -0.0027246415 -0.002538172 0.00042135484 0.0028825942 0.0022449004
0.0020153627 0.0024410083 -0.0033320072 -0.0020203579 -0.0029080717 -6.333226e-05 0.0024513009 0.001919071
0.002318472 0.0024943973 -0.00109372 -0.001608936 -0.0008730449 -0.0016704911 0.0016664185 0.0012136138
-0.0017503808 -0.0026560773 0.00047349918 0.0032849733 0.0016972942 8.364425e-05 -0.003406171 -0.0031309796
-0.003567052 -0.0037832211 8.7684e-06 0.0014408664 0.0014345928 0.0022110208 -0.0012722119 -0.001985684
-0.003371974 -0.001820364 0.0018859495 0.0017307448 0.0010419161 -0.0007144542 -0.0020528599 0.0009952706
0.0024562725 0.0019508987 -1.1617923e-05 -0.0004321029 0.00036068299 -0.00043117776 0.00056176115 -0.0016903874
0.0009546173 0.000981545 -0.0009407098 -0.00034879596 2.3274507e-07 0.00030440243 0.0011067267 -0.0004692235
0.0013340033 0.0020350008 0.00056820054 -0.0014248425 -0.001039523 -0.0009774406 0.0018112224 0.0014387072
00000000: acb5 29bb 8de0 2dbb ff30 48ba 5e61 5f3a
00000010: afa9 8bb8 5c18 823b 5c50 11ba abc7 41ba
00000020: 57ae b4ba 0558 dfba 96e0 b9ba 02be b63a
00000030: 8d65 b13a 0d93 be3a 96a4 94ba 129c e0ba
00000040: 12ff ea3a 8d7e 2a3b 2d28 a5b9 4cde 2cbb
00000050: 03f8 0ebb f1cf e9b6 6bcd 2e3b cfe9 3b3b
00000060: ed70 17bb 9640 fdba 1603 533a 5bd4 2d3a
00000070: d125 d339 39d9 edb7 56ed 9eba c025 c638
00000080: 257e 50bb 0da1 12bb da32 27ba 8a77 95ba
00000090: 1001 90ba 9cc4 7f3a ae44 ee38 e023 323b
000000a0: 8d4e 54bb 90d1 21bb 3b46 883a 159e 273a
000000b0: 8d85 a839 82c1 4539 2b15 bfba e911 943a
000000c0: 9620 27bb 6cfa 39bb 67b1 e23a 2b10 d23a
000000d0: 1fa6 1a3a 578d 783a dcf3 04bb d039 16ba
000000e0: 0111 16bb e7d2 f6ba 67f3 9939 3708 e139
000000f0: 8399 143a 7acd 5f3a 5458 3cba edfe 2eba
00000100: f07a a43a ad81 a63a d45f e239 7abe eeba
00000110: af5a f2ba d6f3 dbb9 bf23 0fba 14d2 423b
00000120: b04a 4e3a c5c0 433b 7082 daba 30aa a2bb
00000130: a369 f9ba a894 4d3a cd08 803b db45 453b
00000140: 2055 6239 da74 24b9 a04d f5ba 3970 353a
00000150: b2e5 6e38 b42d a03a fe84 0c3b d2df b9ba
00000160: 6d60 d43a 9d01 fd3a 7381 863a 863a 9bba
00000170: d73a 0d3a 7f48 c6ba cc5b 893a ec75 a839
00000180: 67c0 12bb f2f2 37bb 69a9 5d3a 14f0 5e3b
00000190: 964d 183b f95d 87ba b04d 91ba 43e4 87bb
000001a0: 6008 f33a b12a f03a 73e8 493b 2a72 d3b9
000001b0: 06d0 3039 6c13 3dbb 3ab0 0239 a0e0 a03a
000001c0: 5db5 00bb dfd1 20bb 5730 c63a cb2b bd39
000001d0: 7563 9a3a c000 b3ba d4d0 17bb 8489 963a
000001e0: 7984 63ba 0574 b0ba 7737 e939 e59f 1a3b
000001f0: ac62 2c3b b0c1 f5b9 dd7a 15bb cacc 2fbb
00000200: 4db7 e43a bbb5 0c3b 5bb8 43bb e606 1abb
00000210: 9f5a 2ebb d1a9 1b3b e214 3d3b b937 453b
00000220: bb58 e6ba 53fa 07bb 3d8d cd3a 0759 b93a
00000230: 4b92 023b 4d52 cd3a d393 c1ba f245 cdba
00000240: ab86 10ba fd14 2bba a8d1 1c38 4b6a 353a
00000250: a376 e1b8 4223 143a 58b8 0dba ed1e 22bb
00000260: a181 743a ef34 103a 49f5 563b 5f2f 32b9
00000270: 7525 7ab9 8e90 22bb 6397 62bb 0e74 f63a
00000280: b665 26bb 8b64 09bb 8050 57ba bbc6 2f39
00000290: 3355 aeb9 2b32 5a3b 3d39 a0b9 c290 2db9
000002a0: 1e4c aa3a a04a c639 dd51 bb3a 0e92 273b
000002b0: 4df6 803b 262b e9ba 0ada f3b9 96eb 54bb
000002c0: 561b 6fba c1ee 413a 5cd0 5536 3e46 deba
000002d0: 3284 1eba f722 c839 6f1e 64b9 3ed5 453b
000002e0: 4356 fd3a d8ae 213b ca13 2ebb e68f 32bb
000002f0: 7657 26bb 4ae9 dc39 e8e9 3c3b 2e1f 133b
00000300: 2d14 043b 53f9 1f3b ce5d 5abb fb67 04bb
00000310: 5995 3ebb 40d1 84b8 01a6 203b 5689 fb3a
00000320: 81f1 173b 0b79 233b 275b 8fba efe2 d2ba
00000330: 0ddd 64ba 61f4 daba ba6b da3a 1f12 9f3a
00000340: 096d e5ba 9511 2ebb fc3f f839 b548 573b
00000350: be77 de3a 2a6a af38 113a 5fbb 1f31 4dbb
00000360: 34c5 69bb ebef 77bb fe1b 1337 74db bc3a
00000370: f208 bc3a c6e6 103b 59c0 a6ba 4022 02bb
00000380: 56fc 5cbb 4899 eeba f731 f73a 29da e23a
00000390: e790 883a 364a 3bba 4689 06bb bd73 823a
000003a0: 6af9 203b 4cb5 ff3a 99ea 42b7 df8b e2b9
000003b0: 0d1a bd39 b30f e2b9 2743 133a fd8f ddba
000003c0: 483f 7a3a 2fa7 803a f799 76ba 9ade b6b9
000003d0: 7ae8 7934 3498 9f39 960f 913a 1d02 f6b9
000003e0: b9d9 ae3a a65d 053b 4bf3 143a c8c1 baba
000003f0: 9b40 88ba 771d 80ba 8a66 ed3a 0193 bc3a

base_model.model.bert.encoder.layer.1.attention.self.value.lora_A.weight f4 [8, 384]
-0.04271241 -0.038398925 -0.034525443 0.027824266 0.0463087 0.0066119605 -0.020343915 0.020856265
0.023708742 0.011251145 -0.0020682288 -0.01958888 0.012492404 -0.04689099 0.04397728 -0.029671557
0.03810976 0.012638492 -0.042981565 -0.045081794 0.05122634 -0.016362434 0.009195842 0.023124948
-0.0052853036 -0.008155417 0.04008108 -0.019026697 0.013200247 0.012229123 0.022996755 0.04658488
-0.03810984 -0.0436259 -0.010257932 -0.03511501 -0.034219187 -0.013182119 0.00024642676 -0.016916985
-0.031455502 0.010351184 -0.02456232 -0.03742892 0.02639828 0.029369475 0.033439815 0.0077804397
0.021589965 0.04693551 0.0286886 0.03109454 -0.0084567 0.012589659 0.030373674 0.0004822926
0.01829767 -0.009729585 0.03162917 -0.010548855 -0.017881075 0.02133833 -0.052105792 0.030806972
-0.03003627 -0.015179122 0.011439618 0.04657844 -0.025624514 -0.04305037 -0.014195207 0.0451418
-0.02838574 0.024287384 0.011154219 -0.004266704 -0.015311986 0.029689055 0.040713664 -0.03195272
0.04080725 0.016691657 0.024694953 -0.036802135 -0.0017020834 -0.016855843 0.03667583 -0.0070668515
0.051886365 -0.014134687 -0.03091618 -0.039349668 -0.037597567 0.033011205 0.026453367 0.0083130235
0.015552012 -0.019865206 -0.045911323 0.021011434 0.008713522 0.0074766716 0.016517224 0.016194806
-0.001407818 0.046255514 -0.0021394226 -0.008409518 -0.03188244 0.05205232 0.024623154 0.019510655
-0.05716334 0.03860841 -0.04006022 -0.010488733 0.032467593 0.0012947004 0.015578803 0.020579077
0.017297633 -0.0059306654 0.0070292368 -0.014347292 -0.015672639 -0.039727252 -0.035411753 -0.048032742
-0.014095596 0.042888153 -0.0006494088 -0.007230873 0.019054143 0.051823486 -0.020900322 -0.005994278
0.02695606 -0.01787309 0.054017074 0.014899402 -0.022722004 0.0447988 0.023534244 0.0047733365
-0.0457476 -0.044470597 -0.052401066 0.016251674 -0.026386365 -0.0028583899 0.0011438632 -0.027493475
0.015632022 0.017780615 -0.040554456 0.039368775 0.03294992 0.03478014 0.005269527 -0.0033039858
-0.05519544 -0.012752215 0.0105732605 -0.05087911 -0.035304446 0.03617945 -0.03917378 -0.04479578
-0.043560367 0.022513594 -0.003368186 0.009361791 -0.036816806 0.009494991 0.002534625 -0.03543225
-0.044210386 0.022796463 0.044907454 0.04346762 -0.05622838 -0.030577745 -0.01652245 -0.015963739
0.03171076 -0.02046202 0.032452863 0.017482264 -0.021403542 -0.027659804 -0.054071527 -0.023327034
0.008802748 -8.292914e-05 -0.028353257 -0.03330098 0.01900448 -0.022086203 -0.016219892 0.038459606
0.044776037 0.035192277 0.017815204 -0.01933079 -0.015289498 -0.04136425 0.007675748 -0.0047469903
-0.023248268 -0.04477523 -0.030599145 0.010480941 -0.008417738 -0.033776768 -0.008593137 -0.05895916
-0.009883148 0.006221004 -0.021205004 0.00427256 0.03959973 0.026288714 -0.006791302 -0.033609554
-0.049668383 0.045607764 -0.0321438 -0.05686206 -0.050886806 -0.014039164 0.027903067 -0.04485926
0.042966247 -0.021794062 -0.023626074 -0.037777457 -0.040375374 0.03697461 0.018179733 -0.0010793945
0.010003283 -0.029232586 -0.038752582 0.003494164 0.025371728 -0.03893561 0.020399245 0.04304337
0.053601593 0.035551798 -0.02104173 0.05018332 0.054005012 -0.009894971 -0.0017480977 0.035009317
00000000: 35f3 2ebd 3148 1dbd 8d6a 0dbd b7ef e33c
00000010: 31ae 3d3d 25a9 d83b 48a8 a6bc c2da aa3c
00000020: d638 c23c b956 383c 1f8b 07bb dc78 a0bc
00000030: f1ac 4c3c c410 40bd 8521 343d c411 f3bc
00000040: fb18 1c3d ad11 4f3c 700d 30bd b0a7 38bd
00000050: b6d2 513d 830a 86bc 28aa 163c 8870 bd3c
00000060: 5730 adbb 4c9e 05bc 0f2c 243d e0dd 9bbc
00000070: d945 583c a95c 483c b163 bc3c cacf 3e3d
00000080: 1019 1cbd 12b1 32bd e310 28bc c2d4 0fbd
00000090: 6b29 0cbd d0f9 57bc d732 8139 7d95 8abc
000000a0: 7cd7 00bd 0398 293c eb36 c9bc 114f 19bd
000000b0: 3541 d83c 4198 f03c 30f8 083d 0ff3 fe3b
000000c0: 70dd b03c 733f 403d 5b04 eb3c fab9 fe3c
000000d0: f88d 0abc db44 4e3c 36d2 f83c 38dc fc39
000000e0: ffe4 953c d668 1fbc 978d 013d 1bd5 2cbc
000000f0: 557b 92bc b9cd ae3c e26c 55bd e75e fc3c
00000100: a00e f6bc dab1 78bc 3c6d 3b3c 09c9 3e3d
00000110: 80ea d1bc 9655 30bd 0393 68bc 9ce6 383d
00000120: 3689 e8bc 56f6 c63c 2fc0 363c b5cf 8bbb
00000130: 20df 7abc 7636 f33c 5fc3 263d dbe0 02bd
00000140: 8125 273d f1bc 883c 124d ca3c d6bd 16bd
00000150: 7118 dfba 4415 8abc 6539 163d 0c91 e7bb
00000160: cc86 543d 2d95 67bc ee43 fdbc 1e2d 21bd
00000170: e8ff 19bd c236 073d bbb4 d83c 5933 083c
00000180: decd 7e3c 5bbc a2bc 830d 3cbd 2c20 ac3c
00000190: 29c3 0e3c defe f43b 214f 873c f8aa 843c
000001a0: 8986 b8ba 6c76 3d3d 8e35 0cbb 13c8 09bc
000001b0: 2997 02bd d034 553d 7fb6 c93c cfd4 9f3c
000001c0: 1b24 6abd da23 1e3d 2f16 24bd efd8 2bbc
000001d0: bdfc 043d f0b2 a93a 3c3e 7f3c 7495 a83c
000001e0: c4b3 8d3c 0756 c2bb 8355 e63b e710 6bbc
000001f0: e863 80bc 0bb9 22bd ea0b 11bd fbbd 44bd
00000200: 37f1 66bc 7dab 2f3d 163d 2aba f6f0 ecbb
00000210: 6f17 9c3c dd44 543d 2737 abbc a66b c4bb
00000220: f5d2 dc3c 966a 92bc 0241 5d3d 9f1c 743c
00000230: 7f23 babc f27e 373d e3ca c03c a669 9c3b
00000240: d661 3bbd cd26 36bd 80a2 56bd 3b22 853c
00000250: 3828 d8bc d353 3bbb aeed 953a ff39 e1bc
00000260: ba0e 803c a7a8 913c 6e1c 26bd 2741 213d
00000270: 7ff6 063d 9f75 0e3d ffab ac3b af87 58bb
00000280: 9d14 62bd abee 50bc 783b 2d3c 9d66 50bd
00000290: 659b 10bd e730 143d af74 20bd c87b 37bd
000002a0: 5b6c 32bd 6e6e b83c c9bc 5cbb 3362 193c
000002b0: 38cd 16bd e190 1b3c f31b 263b 6821 11bd
000002c0: f315 35bd a6bf ba3c e1f0 373d 1a0b 323d
000002d0: bb4f 66bd 2e7e fabc 175a 87bc 63c6 82bc
000002e0: 24e3 013d f79f a7bc 4bed 043d f736 8f3c
000002f0: 7b56 afbc d096 e2bc 1b7a 5dbd 5618 bfbc
00000300: 6739 103c 3eea adb8 1745 e8bc 9c66 08bd
00000310: 49af 9b3c 20ee b4bc 94df 84bc d287 1d3d
00000320: 1467 373d c725 103d 31f1 913c 9b5b 9ebc
00000330: cd80 7abc 8f6d 29bd d784 fb3b a48c 9bbb
00000340: 2773 bebc 3b66 37bd 0fab fabc 41b8 2b3c
00000350: 8dea 09bc 8259 0abd 3bca 0cbc 297f 71bd
00000360: edec 21bc 90d9 cb3b 1eb6 adbc d500 8c3b
00000370: 5433 223d 6e5b d73c 9289 debb 2caa 09bd
00000380: 1371 4bbd 35cf 3a3d 38a9 03bd 31e8 68bd
00000390: af6e 50bd 8604 66bc f994 e43c 58be 37bd
000003a0: 60fd 2f3d 7689 b2bc 788b c1bc 89bc 1abd
000003b0: a660 25bd b072 173d aaed 943c 787a 8dba
000003c0: cfe4 233c 2d79 efbc 07bb 1ebd 58fe 643b
000003d0: 5fd8 cf3c f27a 1fbd 511c a73c 3f4e 303d
000003e0: 588d 5b3d c39e 113d b55f acbc 068d 4d3d
000003f0: 5c34 5d3d 841e 22bc 6d20 e5ba ee65 0f3d
