lora_crossencoder_has_instruction_r_16 la_16 ld_0.1/checkpoint-3096/adapter_model.safetensors (safetensors, 594924 bytes, 25 tensors)

base_model.model.bert.encoder.layer.0.attention.self.query.lora_A.weight f4 [16, 384]
-0.027601942 0.025060989 -0.030338246 0.015240672 0.037241966 -0.026962059 -0.031821072 -0.013524948
-0.052085232 0.0024778552 0.024801278 0.024194844 0.04710108 -0.018890072 -0.03266948 -0.02015503
0.008461548 0.026543006 0.023050845 0.04222482 0.03696348 -0.04152721 0.005480361 0.0073885517
-0.030067747 -0.01566461 0.03425941 0.026116535 0.03877883 -0.01863479 -0.048930332 0.026526274
-0.037053198 -0.010807269 0.011762032 0.0372939 0.037359618 0.007051698 0.023684172 0.029425183
-0.02654965 0.051353827 0.0024832042 0.022624008 -0.02943506 -0.0125148725 0.041864887 -0.0040169396
-0.010943384 -0.044883456 0.046081502 0.0059425556 -0.04823384 -0.016897127 -0.0299649 0.0012507258
0.046138365 0.044437908 -0.0015057999 -0.030488579 0.043300156 0.030329427 -0.027826535 0.024267577
0.012572115 0.02216242 0.032048803 -0.0002830053 0.007478493 -0.0208522 -0.025618462 0.0013019943
0.0041256784 -0.0018782321 0.02643411 0.022842823 -0.014386851 -0.020825922 -0.052264992 -0.0496464
0.011729465 0.02706741 0.03475813 -0.05436954 -0.012264085 -0.008583561 0.032675434 -0.016971132
-0.018301174 -0.014554579 -0.035985727 -0.009864915 0.0029234088 0.026138324 0.011999856 0.05954762
-0.011664965 0.008717505 0.006974866 0.0023407477 -0.039030567 0.049005125 0.008612816 -0.031663913
0.011796188 0.023543136 -0.052950025 -0.011999681 0.027484145 -0.00565357 -0.030340021 0.014624817
-0.04220259 -0.002052581 0.008131907 0.0052645816 0.050431382 -0.010396414 -0.0072706286 -0.011407886
-0.029995492 -0.01034811 0.0133801475 0.03624647 0.01966619 0.047510985 -0.01700024 -0.028790073
-0.028262809 -0.044074472 -0.011582264 0.008279004 0.031309243 -0.047310602 0.023382246 -0.02782607
0.0034201702 0.041084938 -0.015365908 -0.025187023 -0.033872165 -0.017979322 -0.01976033 0.042010743
-0.0055057793 0.040949404 -0.016239746 -0.031404406 -0.031305633 0.035043687 0.014512731 -0.01413739
0.031810742 0.039989106 0.044095166 0.042234216 -0.0064592166 -0.0012113123 -0.032940995 -0.009633595
0.034363255 -0.027581474 0.0350058 0.01212549 0.035929196 -0.016321646 0.048075028 0.01445685
0.028419884 0.01365833 0.004168797 -0.003963701 0.040172026 -0.031249685 0.009971889 0.017886043
-0.002276321 -0.031571485 0.04127865 0.030626077 -0.029424885 -0.019193154 -0.04156579 -0.021062074
0.024659796 0.015818821 0.039337307 0.028955681 -0.0045161294 -0.008234831 0.021331647 0.031607084
-0.011093135 0.053640466 -0.017837727 -0.0480027 0.010011358 -0.041966736 -0.018657863 0.030988568
0.03134865 0.025999023 -0.054086752 -0.015450895 -0.026455201 0.004662224 0.047201686 -0.029760795
0.025287557 -0.025044246 0.0014404755 0.015352954 0.030233964 0.005609551 -0.049179375 -0.045121957
-0.01704549 -0.02535685 0.04701599 -0.02422192 0.0395411 0.01170981 0.0055738557 0.03884944
0.040060285 0.038339894 0.049945913 0.01849321 -0.0057827425 0.021886894 -0.046338793 0.0058193
0.025221257 -0.025618378 0.014849097 0.007699229 0.0028918148 -0.019925384 -0.007989933 -0.040256523
-0.009403441 -0.02710417 0.016382432 -0.03306877 0.027681775 0.044285074 0.03378665 0.010453901
0.039463356 -0.02689702 0.018181063 -0.024229297 -0.01983185 -0.01336212 -0.029450545 0.045076314
00000000: 781d e2bc b44c cd3c ea87 f8bc 03b4 793c
00000010: 088b 183d 89df dcbc d056 02bd be97 5dbc
00000020: 5357 55bd 8363 223b 0d2c cb3c 4434 c63c
00000030: 10ed 403d 5abf 9abc 6fd0 05bd 291c a5bc
00000040: 4ea2 0a3c b870 d93c 20d5 bc3c eff3 2c3d
00000050: 0567 173d 7018 2abd 9a94 b33b aa1b f23b
00000060: a350 f6bc 1153 80bc 9853 0c3d 58f2 d53c
00000070: 8dd6 1e3d fda7 98bc 2c6b 48bd a14d d93c
00000080: 18c5 17bd f910 31bc 8ab5 403c 7dc1 183d
00000090: 6606 193d ee11 e73b 4f05 c23c 150d f13c
000000a0: a77e d9bc 6458 523d 41bd 223b fc55 b93c
000000b0: cc21 f1bc 2e0b 4dbc 847a 2b3d 88a0 83bb
000000c0: e14b 33bc b7d7 37bd f5bf 3c3d c5b9 c23b
000000d0: d990 45bd d86b 8abc f378 f5bc 65ef a33a
000000e0: 95fb 3c3d 8604 363d 435e c5ba 2fc3 f9bc
000000f0: 815b 313d 6b75 f83c 79f4 e3bc cccc c63c
00000100: 46fb 4d3c f78d b53c 9b45 033d 5460 94b9
00000110: 250e f53b 3cd2 aabc cfdd d1bc aea7 aa3a
00000120: b330 873b 032f f6ba 598c d83c df20 bb3c
00000130: d4b6 6bbc 209b aabc d113 56bd 065a 4bbd
00000140: f12c 403c 79bc dd3c 8a5e 0e3d 98b2 5ebd
00000150: 4def 48bc 10a2 0cbc add6 053d 0b07 8bbc
00000160: 58ec 95bc 5476 6ebc c565 13bd 74a0 21bc
00000170: a996 3f3b 0a20 d63c 0b9b 443c 35e8 733d
00000180: 691e 3fbc ded3 0e3c 6b8d e43b 3b67 193b
00000190: 84de 1fbd 99b9 483d c51c 0d3c 05b2 01bd
000001a0: cc44 413c 89dd c03c 20e2 58bd 4f9a 44bc
000001b0: 6e26 e13c 9541 b9bb a38b f8bc ee9c 6f3c
000001c0: 9fdc 2cbd 9884 06bb b13b 053c 8382 ac3b
000001d0: 2391 4e3d b955 2abc 743e eebb 24e8 3abc
000001e0: 1bb9 f5bc 1f8b 29bc 6838 5b3c 2e77 143d
000001f0: fd1a a13c e19a 423d 1644 8bbc 29d9 ebbc
00000200: 6887 e7bc 6f87 34bd 89c3 3dbc a9a4 073c
00000210: 1f3e 003d c3c8 41bd 208c bf3c 80f3 e3bc
00000220: ef24 603b ae48 283d 4ac1 7bbc 0455 cebc
00000230: 8abd 0abd 5f49 93bc 6ae0 a1bc 7513 2c3d
00000240: d369 b4bb 90ba 273d 3709 85bc e8a1 00bd
00000250: 563a 00bd f889 0f3d cec6 6d3c 83a0 67bc
00000260: fb4b 023d 9ecb 233d 229d 343d c9fd 2c3d
00000270: d6a7 d3bb e5c4 9eba 23ed 06bd 3ad6 1dbc
00000280: 7cc0 0c3d 8bf2 e1bc 3e62 0f3d fea9 463c
00000290: 7e2a 133d f9b4 85bc 52ea 443d 6cdc 6c3c
000002a0: d1d0 e83c 30c7 5f3c 679a 883b efe1 81bb
000002b0: 6c8b 243d 57ff ffbc 2261 233c c085 923c
000002c0: 542e 15bb 1a51 01bd cd13 293d 8ae3 fa3c
000002d0: 750c f1bc f63a 9dbc e440 2abd 5f8a acbc
000002e0: 5703 ca3c 7996 813c 2820 213d 7734 ed3c
000002f0: 0afc 93bb 62eb 06bc b5bf ae3c 6e76 013d
00000300: fbbf 35bc 1bb6 5b3d 6d20 92bc 7b9e 44bd
00000310: ae06 243c 50e5 2bbd 60d8 98bc bddb fd3c
00000320: 7167 003d e7fb d43c 128a 5dbd c025 7dbc
00000330: 94b8 d8bc 92c5 983b 8e56 413d e9cc f3bc
00000340: da27 cf3c 9729 cdbc 56ce bc3a f58a 7b3c
00000350: 38ad f73c 53d0 b73b 5070 49bd cdd1 38bd
00000360: fca2 8bbc 2bb9 cfbc d793 403d 0c6d c6bc
00000370: d9f5 213d 81da 3f3c e4a4 b63b 9720 1f3d
00000380: 4116 243d 4b0a 1d3d 1694 4c3d 137f 973c
00000390: 297d bdbb 254c b33c bfcd 3dbd d4af be3b
000003a0: cf9c ce3c a2dd d1bc a049 733c d049 fc3b
000003b0: 9a84 3d3b 8f3a a3bc 35e8 02bc 06e4 24bd
000003c0: e410 1abc 9009 debc 7334 863c 1e73 07bd
000003d0: e4c4 e23c 4464 353d df63 0a3d d746 2b3c
000003e0: 54a4 213d 2457 dcbc 74f0 943c 857c c6bc
000003f0: 6776 a2bc cbec 5abc 4542 f1bc f1a1 383d

base_model.model.bert.encoder.layer.0.attention.self.query.lora_B.weight f4 [384, 16]
0.003671782 -0.002442432 0.0029737446 -0.0013658929 0.0020973256 0.004728501 -0.0031733646 0.0033737153
-0.0012448942 0.0016748784 0.0018054866 -0.004343485 -0.0020527923 0.0035755152 0.001404774 0.0033685623
0.0042413594 -0.0034006813 0.002293243 -0.004365922 0.0019549422 0.003720565 -0.002121511 0.0028651336
0.0015768319 -0.0034321416 -2.8881546e-05 -0.0033337795 -0.00042509614 0.0019295164 -0.004397525 0.0016146846
-0.0026307525 0.004351939 -0.0023434267 0.0031450575 -0.0023760374 -0.0032617091 0.0020447404 -0.0032966472
-4.76869e-05 0.0010247848 -0.00082873314 0.005027112 0.0011428021 -0.003857574 0.0012681335 -0.0029231615
6.502501e-05 -0.0021079557 0.0019916752 0.0031633563 0.0016920235 0.00032626634 0.00016887223 -0.003742935
-0.0042633777 0.00092945044 -0.0013312626 0.0011684333 -0.0014660412 -0.0024955499 -0.00021823867 -0.0031787222
-0.0018762841 -0.000406773 -0.0028013142 0.0006307511 -0.0041135275 -0.0009810341 0.0021491025 -0.0017909418
0.00033146044 -0.0028485085 -0.0015753206 0.0015944511 0.0019930121 -0.0025015702 -0.0014902009 -0.0025013562
0.0020155057 -0.003227085 0.0014026111 -0.0034315453 0.0015689979 0.0029586658 -0.0013869542 0.0024125115
-0.00039956672 -0.0009226226 0.0020658057 -0.0023295323 -0.0006052492 0.0018460137 5.980882e-06 0.0013576809
0.0012461871 0.0015537645 -0.0041946475 -0.0023479257 -0.0029832807 0.0013532863 0.00056402106 0.0015350847
0.00246824 -0.0027927351 -0.00096945703 -0.0015454934 0.0024249475 0.00021127563 -0.002645404 -0.0004326493
0.0044128313 -0.00017176701 0.004067845 -0.0034437634 0.0037872507 0.005769298 -0.0042857914 0.0034425524
0.001032003 -0.0017634397 0.0005221379 -0.004706612 -0.0013925309 0.002754094 -0.0020557991 0.0019545383
-0.003116027 0.0034340387 -0.0027853996 0.0017279395 -0.0019440281 -0.0041279607 0.0023552983 -0.0030796363
0.0022859895 -0.0016204865 -0.0014943301 0.0036765835 0.0016529909 -0.0028737097 -0.0013531897 -0.0021694484
0.005138342 -0.005248094 0.0060471427 -0.0039634383 0.0057842317 0.00719384 -0.0042879716 0.004552494
-0.0022556407 0.0014941551 0.0025565417 -0.0053924327 -0.003624889 0.0037776495 0.0016078692 0.0020581384
-0.0052492633 0.0035526564 -0.0033210635 0.0033495887 -0.0039004006 -0.0046571726 0.004233691 -0.0047676535
0.0020358292 -0.0018296472 -0.00078310736 0.0045276163 0.003065011 -0.004087684 -0.001581001 -0.004105802
-0.0011484078 0.0020220357 -0.0024442172 -0.003034651 -0.0018068079 -0.0020475565 0.001385087 -0.00026479972
0.003160131 -0.0025704675 -0.00126932 0.00051676075 0.0010481004 -0.00164589 -0.002463942 -0.0008520435
0.006234763 0.00017295881 -0.0002601972 -0.0061251223 0.0009632584 0.0042100055 -0.005029728 0.0057350276
0.0033950114 -0.002785992 0.00084359467 -0.007692174 -0.00063219917 0.0022378855 -0.0037993765 0.0021908686
0.0069447723 -0.0051878537 0.0030949083 -0.0051551783 0.0064085624 0.0066080694 -0.0045424495 0.0050724978
0.00089112535 -0.0025566653 0.0008074684 -0.0061135525 -0.0035180317 0.004331843 -0.0026149037 0.002731223
0.0018913387 -0.0015284055 0.0009680392 -0.0027329104 0.00057631254 0.0024410998 -0.00076043076 0.00097411993
0.0007920101 -0.004252158 -0.0009243527 -0.0022399852 0.00060310727 0.00077597366 -0.0040585236 5.702515e-06
-0.0005286544 -2.3101038e-05 -0.00069759507 0.00014444623 -0.0010507503 0.00014120458 0.001030355 -0.0012439854
-0.0015889609 -0.0035842862 -0.0031584955 0.00071226637 0.0029715612 -0.0008504733 -0.0006218046 -0.0012620775
00000000: 48a2 703b 3611 20bb 28e3 423b c307 b3ba
00000010: 4973 093b 8bf1 9a3b 39f8 4fbb 8d19 5d3b
00000020: b82b a3ba 9887 db3a 14a6 ec3a cb53 8ebb
00000030: 2488 06bb 3153 6a3b 6520 b83a 19c3 5c3b
00000040: 1afb 8a3b f7dd 5ebb 3c4a 163b 0210 8fbb
00000050: 7d1e 003b b9d4 733b 0c09 0bbb f7c4 3b3b
00000060: b3ad ce3a c8ed 60bb a646 f2b7 8a7b 5abb
00000070: 70df deb9 d4e7 fc3a 1d19 90bb d3a3 d33a
00000080: b468 2cbb b69a 8e3b 2d94 19bb 4f1d 4e3b
00000090: 4bb7 1bbb 66c2 55bb 0d01 063b 900c 58bb
000000a0: 6b03 48b8 1252 863a 573f 59ba 79ba a43b
000000b0: 13ca 953a 5acf 7cbb 8037 a63a 8392 3fbb
000000c0: 095e 8838 a125 0abb c486 023b 5050 4f3b
000000d0: e3c6 dd3a ba0e ab39 4b13 3139 074c 75bb
000000e0: ceb3 8bbb 5da6 733a c37d aeba 1e26 993a
000000f0: 2e28 c0ba 618c 23bb ffd6 64b9 1c52 50bb
00000100: a6ed f5ba 2644 d5b9 4196 37bb fd58 253a
00000110: c5ca 86bb 0b96 80ba f5d7 0c3b 09be eaba
00000120: dec7 ad39 0bae 3abb fd7a ceba e7fc d03a
00000130: 329d 023b 62f1 23bb d852 c3ba cbed 23bb
00000140: 9316 043b 817d 53bb d2d7 b73a c7e3 60bb
00000150: d5a6 cd3a 2de6 413b 76ca b5ba 3a1b 1e3b
00000160: f07c d1b9 28dc 71ba 7862 073b 11ab 18bb
00000170: 96a9 1eba f1f5 f13a 63af c836 36f4 b13a
00000180: 1a57 a33a afa7 cb3a 4173 89bb a8df 19bb
00000190: 2583 43bb c160 b13a d0da 133a e534 c93a
000001a0: 32c2 213b 5206 37bb 2923 7eba 2792 caba
000001b0: deeb 1e3b df89 5d39 845e 2dbb 35d5 e2b9
000001c0: 8399 903b 5b1c 34b9 8f4b 853b c3b0 61bb
000001d0: 8633 783b 610c bd3b d36f 8cbb 729c 613b
000001e0: 4644 873a 3823 e7ba 15e0 083a ec39 9abb
000001f0: 9585 b6ba 087e 343b 96ba 06bb b617 003b
00000200: 4236 4cbb 9c0d 613b 408b 36bb 077c e23a
00000210: c2ce feba d843 87bb 595b 1a3b b9d3 49bb
00000220: 8ad0 153b 8166 d4ba 66dd c3ba d6f2 703b
00000230: 2ca9 d83a d954 3cbb 835d b1ba 4e2d 0ebb
00000240: 895f a83b 34f8 abbb 1c27 c63b bbdf 81bb
00000250: a789 bd3b 4eba eb3b 1d82 8cbb 162d 953b
00000260: 5fd3 13bb 87d7 c33a a78b 273b 01b3 b0bb
00000270: 8c8f 6dbb 7192 773b 23bf d23a d5e1 063b
00000280: 0302 acbb afd3 683b 33a6 59bb c684 5b3b
00000290: dd9d 7fbb 329b 98bb c6ba 8a3b fa39 9cbb
000002a0: 8c6b 053b c6d0 efba 7249 4dba 665c 943b
000002b0: 5ade 483b fbf1 85bb 9739 cfba f789 86bb
000002c0: 2c86 96ba 2184 043b 292f 20bb ffe0 46bb
000002d0: 6ad2 ecba 4c30 06bb cf8b b53a d1d4 8ab9
000002e0: 331a 4f3b 4a75 28bb 505f a6ba 3a77 073a
000002f0: 6a60 893a e7ba d7ba 167a 21bb ac5b 5fba
00000300: fc4c cc3b 475c 3539 146b 88b9 40b5 c8bb
00000310: 2d83 7c3a 16f4 893b 6bd0 a4bb e6ec bb3b
00000320: d77e 5e3b 3195 36bb ae24 5d3a a20e fcbb
00000330: 2bba 25ba 7da9 123b f6fe 78bb ad94 0f3b
00000340: f990 e33b dffe a9bb f2d3 4a3b c5ec a8bb
00000350: ebfe d13b 8188 d83b d4d8 94bb 3237 a63b
00000360: 699a 693a ba8d 27bb 49ac 533a 3254 c8bb
00000370: c78e 66bb 22f2 8d3b ce5e 2bbb 51fe 323b
00000380: cce6 f73a c754 c8ba 03c4 7d3a a11a 33bb
00000390: ae13 173a dcfa 1f3b a557 47ba 155c 7f3a
000003a0: e69e 4f3a b055 8bbb 4250 72ba b7cc 12bb
000003b0: d819 1e3a b66a 4b3a 5dfd 84bb 3b58 bf36
000003c0: 6595 0aba 1ac9 c1b7 d0de 36ba 7d76 1739
000003d0: 54b9 89ba 5110 1439 fa0c 873a 390d a3ba
000003e0: ae44 d0ba 58e6 6abb c3fe 4ebb 63b7 3a3a
000003f0: 86be 423b 4cf2 5eba 9a00 23ba 4b6c a5ba

base_model.model.bert.encoder.layer.0.attention.self.value.lora_A.weight f4 [16, 384]
0.049024917 0.059758235 0.031424463 0.04264979 -0.01157935 0.00421395 0.00947162 0.034819886
-0.03726345 0.017392494 0.036158614 0.018804764 0.052199222 0.002860541 -0.009527367 -0.023487989
-0.0024453995 0.010312199 -0.022767937 -0.01533487 -0.04283258 -0.045306172 -0.006685539 0.04892065
-0.0020684097 0.011901523 0.03891957 0.0011006803 0.046909798 -0.019642213 -0.041093092 -0.031857125
0.024012854 -0.056959998 0.04539005 -0.007730568 0.026307208 0.00793724 0.046944227 0.011348994
0.020672284 0.0060310685 -0.05395085 0.015975859 0.019781679 -0.02172956 0.053747542 -0.058016792
0.049677446 0.027279576 -0.035015073 -0.026779698 -0.026561944 0.035737716 0.04259689 0.02798513
0.057659745 0.046810977 -0.009434638 -0.059648108 -0.03940161 0.054110736 0.016395228 -0.040987857
-0.035704535 0.044388566 0.040299006 -0.00991728 -0.056370642 -0.038008645 0.014133661 0.02951409
0.035108738 -0.017002536 0.016769106 -0.023978977 0.05960203 -0.012308567 0.030164434 -0.026409905
-0.007359028 0.043720603 0.015494065 -0.025603468 -0.05706051 0.044812005 -0.019519754 -0.017608115
0.025518473 0.032757618 -0.004400756 -0.0071197054 0.003724057 0.011994241 0.016388357 -0.0339872
-0.015057572 0.044316497 0.005659035 0.034577385 0.058129948 0.028000692 0.010738453 0.006449227
0.041882705 0.015442235 0.019853674 -0.037620787 -0.023062095 -0.023074958 -0.0008285555 0.024372485
-0.006727198 0.019937376 0.02786169 0.005193769 0.048883922 0.016497787 -0.020426173 0.01179974
-0.021931197 0.04181866 -0.0028468757 -0.013979459 0.050406646 0.02908493 -0.020977983 0.041304804
0.026430346 -0.009916582 -0.038322862 0.024177887 0.049782936 0.011666435 0.035827164 -0.010100248
0.021020532 -0.016049063 -0.002925018 -0.03653662 -0.018940413 -0.03019525 0.034644477 0.0349598
0.050270587 0.020965122 0.035533205 0.04869128 0.030269766 -0.04632526 -0.03143293 -0.0026782637
0.032481965 0.017716575 -0.047119413 -0.030968891 -0.04682709 0.014723036 -0.0021226474 -0.05869743
-0.0049913796 -0.0032637066 0.0053797597 -0.030245444 0.04487131 0.022753008 0.03443817 0.011256848
0.05674736 0.02836791 0.013119832 -0.011578481 0.037328314 -0.052948885 0.021616653 -0.005343637
-0.040622216 -0.03116627 -0.04168311 0.059058037 0.04233446 -0.009160194 -0.05355553 -0.006359889
-0.013581685 0.013352706 -0.039141126 -0.015845517 0.04684505 -0.053509854 0.043958843 -0.02126397
-0.024623735 0.033571873 -0.012160372 -0.023801833 0.05269263 0.001953667 0.037842188 0.019644346
-0.02044459 0.031748533 -0.0039162547 0.04077942 0.01407959 -0.04012382 -0.030180518 -0.015431322
0.017326241 -0.003415325 0.05548439 -0.03013134 0.013236954 0.021515088 -0.025485368 -0.04512821
0.0051257224 0.014648583 0.014989197 0.051628847 -0.012933376 0.014191311 -0.045983505 -0.024848059
-0.036628436 0.03291455 -0.031905938 -0.038821805 0.027642652 0.023431784 0.00911709 -0.021492627
-0.0024506985 -0.0034546521 -0.060420014 -0.0017618446 0.03804953 -0.0019204192 0.0580905 0.027051942
0.0276442 -0.048255812 0.047716677 0.005487275 0.026620781 -0.012585027 0.03328116 -0.0076886523
-0.055068363 0.05542765 -0.004456188 0.024131756 -0.047849976 -0.011947793 0.05665046 -0.022345679
00000000: 5ace 483d 0dc5 743d f0b6 003d 8cb1 2e3d
00000010: 50b7 3dbc 2d15 8a3b db2e 1b3c 4c9f 0e3d
00000020: 8fa1 18bd b47a 8e3c 0e1b 143d 730c 9a3c
00000030: dace 553d ea77 3b3b ac18 1cbc e269 c0bc
00000040: ff42 20bb 7ff4 283c d383 babc 1b3f 7bbc
00000050: 3771 2fbd f792 39bd 5e12 dbbb 0561 483d
00000060: 288e 07bb 9bfe 423c 216a 1f3d b444 903a
00000070: 7d24 403d b5e8 a0bc 3b51 28bd 9e7c 02bd
00000080: 9bb6 c43c e34e 69bd ebea 393d b450 fdbb
00000090: 3782 d73c 330b 023c 9748 403d 22f1 393c
000000a0: ec58 a93c 45a0 c53b 91fb 5cbd cedf 823c
000000b0: 300d a23c 3102 b2bc 6226 5c3d 04a3 6dbd
000000c0: 947a 4b3d 6b79 df3c f76b 0fbd 1961 dbbc
000000d0: 6f98 d9bc b661 123d 147a 2e3d 1241 e53c
000000e0: a02c 6c3d debc 3f3d bd93 1abc 9351 74bd
000000f0: 9563 21bd 38a3 5d3d 494f 863c e2e2 27bd
00000100: eb3e 12bd c9d0 353d 9210 253d 167c 22bc
00000110: e7e4 66bd f4ae 1bbd df90 673c 88c7 f13c
00000120: 2ece 0f3d e748 8bbc 5d5f 893c 8f6f c4bc
00000130: 4221 743d dfa9 49bc 671b f73c 9659 d8bc
00000140: 0024 f1bb 6014 333d d2da 7d3c 5dbe d1bc
00000150: 48b8 69bd cb8c 373d e4e7 9fbc e53e 90bc
00000160: 1e0c d13c da2c 063d 3834 90bb 6b4c e9bb
00000170: 4f0f 743b 7e83 443c e040 863c 2a36 0bbd
00000180: 09b4 76bc 3785 353d 6d6f b93b 04a1 0d3d
00000190: ab19 6e3d b561 e53c 56f0 2f3c 0a54 d33b
000001a0: 338d 2b3d 6e01 7d3c 2ca4 a23c 4118 1abd
000001b0: b8ec bcbc b207 bdbc 6b33 59ba cea8 c73c
000001c0: d46f dcbb b553 a33c 333e e43c 7e30 aa3b
000001d0: 823a 483d 5e26 873c ca54 a7bc b253 413c
000001e0: 0ea9 b3bc 0b4a 2b3d a692 3abb 1a0a 65bc
000001f0: 3377 4e3d 8543 ee3c 05da abbc 3a2f 293d
00000200: 7484 d83c 2979 22bc 6ff8 1cbd b410 c63c
00000210: 31e9 4b3d 9324 3f3c 81bf 123d 837b 25bc
00000220: 4033 ac3c 5379 83bc a9b1 3fbb 6ca7 15bd
00000230: ed28 9bbc 075c f7bc 5ee7 0d3d 0232 0f3d
00000240: 88e8 4d3d 0cbf ab3c 448b 113d 8270 473d
00000250: 4df8 f73c 8ebf 3dbd d1bf 00bd cf85 2fbb
00000260: cf0b 053d 5a22 913c 4900 41bd 79b2 fdbc
00000270: c3cd 3fbd e438 713c 1d1c 0bbb b76c 70bd
00000280: ba8e a3bb e9e3 55bb b248 b03b 4bc5 f7bc
00000290: fbca 373d 8464 ba3c 0a0f 0d3d a56e 383c
000002a0: eb6f 683d d263 e83c 90f4 563c abb3 3dbc
000002b0: 93e5 183d eee0 58bd 6815 b13c ad19 afbb
000002c0: 7b63 26bd 6850 ffbc e9bb 2abd d7e6 713d
000002d0: e666 2d3d a314 16bc 0b5d 5bbd 9e66 d0bb
000002e0: b785 5ebc 4fc5 5a3c 7252 20bd 75ce 81bc
000002f0: 98e0 3f3d 262d 5bbd 300e 343d c731 aebc
00000300: b7b7 c9bc a982 093d 4c3c 47bc 10fc c2bc
00000310: 3ad4 573d 1809 003b 6900 1b3d 2eed a03c
00000320: 6a7b a7bc c00a 023d ed53 80bb 5208 273d
00000330: 15ae 663c e058 24bd 223d f7bc a8d3 7cbc
00000340: c3ef 8d3c a5d3 5fbb 9a43 633d 00d6 f6bc
00000350: cfdf 583c 6940 b03c b1c6 d0bc 5cd8 38bd
00000360: adf5 a73b 9c00 703c 4095 753c c578 533d
00000370: 83e6 53bc ac82 683c 3359 3cbd 288e cbbc
00000380: b307 16bd 68d1 063d cdaf 02bd 9d03 1fbd
00000390: d872 e23c 03f4 bf3c d95f 153c 4e11 b0bc
000003a0: e69b 20bb 7267 62bb fa7a 77bd b2ed e6ba
000003b0: d3d9 1b3d 93b6 fbba 4ef0 6d3d 099c dd3c
000003c0: 1776 e23c e3a7 45bd 9072 433d 99ce b33b
000003d0: d313 da3c 6e31 4ebc d351 083d 17f1 fbbb
000003e0: 5d8f 61bd 1b08 633d 3705 92bb f6af c53c
000003f0: 56fe 43bd adc0 43bc 500a 683d 490e b7bc

base_model.model.bert.encoder.layer.0.attention.self.value.lora_B.weight f4 [384, 16]
-7.2817544e-05 -0.0014278706 -0.00085187046 -0.0010442539 -0.00015385868 0.0005424689 0.00083660573 -0.0001024315
0.0013475302 9.875023e-05 0.0008936669 0.0005466225 -0.0012480615 -0.0022345216 -0.0020335289 -0.00032765258
-0.0041346117 -0.0049392744 -0.0054713655 0.0038457958 0.004618304 0.0053073703 0.005018814 0.0050205197
-0.0031297826 -0.0050520957 0.0020539563 -0.004337805 0.00372795 0.00063864735 -0.0022429589 -0.004774913
-0.0054660053 -0.0037709635 -0.0043756077 0.008390315 0.0063160714 0.006574312 0.0037775077 0.0066467607
-0.0073978268 -0.009825904 0.0028691257 -0.009482034 0.007859011 0.0019494859 -0.0011113615 -0.0053454502
-0.004611413 -0.003184765 -0.0020168617 0.0039237677 0.0017125075 0.004088069 0.0011843216 0.00460542
-0.0037448022 -0.0047928407 -7.081755e-05 -0.004602387 0.004126813 0.0014885579 0.00054181507 -0.002613658
0.0017362939 0.0054281065 0.0029686838 -0.0012601049 -0.0027568382 -0.0018402935 -0.0034249306 -0.0026820193
0.0013189989 0.0013629537 -0.0065470156 0.0016907057 -0.0012953406 0.00228231 0.005798623 0.0021569277
0.0006324434 0.0016102134 0.0011629076 0.00029833155 -0.0014167757 -0.00034600915 -0.0016193871 -0.0006716592
6.319205e-05 -0.00010855431 -0.0022414092 0.00034375634 0.00016980038 0.0075833793 0.003089607 0.0007746773
0.0033634899 0.003766409 0.003907394 -0.0035075091 -0.0033754671 -0.004335309 -0.002664622 -0.0036627688
0.0029894386 0.0042402735 -0.0015773869 0.003655405 -0.0033087702 -0.00014956451 0.0032683287 0.0037318175
0.0043400787 0.0032302544 0.003722059 -0.004803249 -0.0058049085 -0.0050622714 -0.00395041 -0.004437217
0.004786341 0.005000235 -0.003963498 0.0053482843 -0.0046875905 0.0014989177 0.0031964527 0.0043227593
-0.0027981955 -0.004348202 -0.0034870082 0.0015913156 0.0025411132 0.002473717 0.0040000128 0.0023433084
-0.0014985187 -0.002430084 0.0039340993 -0.002035766 0.0014313183 -0.0037731319 -0.0044260104 -0.0028962744
0.0011555816 -0.0023475057 -0.00024695782 -0.0010810315 -0.0012602812 -0.00042589358 0.00020102534 -0.0012958116
0.0015926125 0.0006129529 -3.4943216e-05 0.0012809118 -0.0015001666 -0.0014830179 -0.0021050514 0.0007120561
1.9851188e-07 -0.0028541526 -0.0033661753 -0.0017751411 0.00066694006 -0.000567604 0.0036972258 -7.406106e-05
0.0015832611 0.0017415327 0.0035373415 0.0011597377 -0.0017464403 -0.0032870646 -0.0026473738 -0.00043709032
0.0020550578 0.0009934371 0.0017471332 -0.0028505719 -0.0018639421 -0.002792729 -0.001160493 -0.0022995344
0.0025437502 0.0031970532 0.0015552085 0.0026388539 -0.0027266543 -0.003060327 -0.0013257966 0.0021691655
-0.0039202836 -0.0065329764 -0.0048731104 0.0040754494 0.004574337 0.0048660305 0.0053274673 0.004808403
-0.0031985627 -0.0049086055 0.0050481716 -0.004764633 0.0037281918 -0.0010664334 -0.004881712 -0.0044080266
-0.0053472873 -0.0064748228 -0.0057439473 0.007216038 0.005476334 0.0062438003 0.0048433645 0.0061139655
-0.0060654404 -0.007840159 0.0040467107 -0.0064038243 0.0070849066 -0.0011544325 -0.0036504958 -0.005525022
0.005059031 0.0033811529 0.0047816285 -0.004736804 -0.0054413406 -0.005008376 -0.004720789 -0.0054496466
0.0047255787 0.004952394 -0.00379745 0.0050922907 -0.004824529 0.0005860762 0.0024734691 0.00505724
0.0024742796 0.0032917894 0.0025967169 -0.0034414872 -0.0023286918 -0.0027204817 -0.0024145208 -0.0034411964
0.0032308388 0.0041024266 -0.0022932463 0.003473685 -0.0034041994 -0.0005384799 0.0024488145 0.0021721884
00000000: 9fb5 98b8 6327 bbba 0f50 5fba 59df 88ba
00000010: 2055 21b9 7934 0e3a a94f 5b3a 7ed0 d6b8
00000020: 9c9f b03a 2018 cf38 f844 6a3a 374b 0f3a
00000030: ff95 a3ba 0d71 12bb f444 05bb c9c8 abb9
00000040: a37b 87bb a3d9 a1bb 2449 b3bb bf09 7c3b
00000050: 2455 973b 73e9 ad3b dd74 a43b 2c83 a43b
00000060: 0a1d 4dbb 0d8c a5bb ab9b 063b 2524 8ebb
00000070: 9f50 743b e66a 273a 9bfe 12bb e076 9cbb
00000080: 2d1c b3bb 4522 77bb 4261 8fbb 8877 093c
00000090: 0cf7 ce3b 546d d73b 1090 773b 12cd d93b
000000a0: 7869 f2bb d4fc 20bc f107 3c3b 885a 1bbc
000000b0: 15c3 003c e485 ff3a 1bab 91ba e328 afbb
000000c0: 561b 97bb 7eb7 50bb 532d 04bb f392 803b
000000d0: 3776 e03a 35f5 853b 3d3b 9b3a 10e9 963b
000000e0: 5b6b 75bb 430d 9dbb e283 94b8 9fcf 96bb
000000f0: 373a 873b b71b c33a 9808 0e3a e849 2bbb
00000100: 5b94 e33a 42de b13b 408e 423b 1b2a a5ba
00000110: 12ac 34bb 0136 f1ba cd74 60bb d1c4 2fbb
00000120: 42e2 ac3a 23a5 b23a 5988 d6bb ab9a dd3a
00000130: 6bc8 a9ba cf92 153b 6002 be3b 3e5b 0d3b
00000140: 8fca 253a cc0d d33a b46c 983a 6269 9c39
00000150: 1bb3 b9ba 9068 b5b9 9d41 d4ba 4912 30ba
00000160: f985 8438 a7a7 e3b8 9be4 12bb 323a b439
00000170: 710c 3239 ff7d f83b 017b 4a3b b713 4b3a
00000180: ff6d 5c3b dbd5 763b 9909 803b 3dde 65bb
00000190: f136 5dbb 350f 8ebb f0a0 2ebb 100b 70bb
000001a0: 75ea 433b fef1 8a3b 52c0 ceba 858f 6f3b
000001b0: f4d7 58bb 6bd4 1cb9 7531 563b 8291 743b
000001c0: 3837 8e3b adb2 533b caed 733b 9364 9dbb
000001d0: 1a37 bebb 69e1 a5bb 7172 81bb 1366 91bb
000001e0: bdd6 9c3b 03d9 a33b 3be0 81bb a940 af3b
000001f0: 5c9a 99bb 5577 c43a 947b 513b efa5 8d3b
00000200: ee61 37bb 5d7b 8ebb 4a86 64bb b193 d03a
00000210: ce88 263b 161e 223b 8a12 833b 3192 193b
00000220: f269 c4ba 0b42 1fbb 9ee9 803b 7c6a 05bb
00000230: 139b bb3a a646 77bb 1108 91bb 6ccf 3dbb
00000240: e276 973a 9cd8 19bb 1e7a 81b9 66b1 8dba
00000250: 0530 a5ba 784a dfb9 54ca 5239 39d8 a9ba
00000260: 35bf d03a 93ae 203a fe8f 12b8 45e4 a73a
00000270: 3da1 c4ba d361 c2ba e7f4 09bb 47a9 3a3a
00000280: 8826 5534 bc0c 3bbb 0d9b 5cbb daab e8ba
00000290: 97d5 2e3a 42cb 14ba 284d 723b 3b51 9bb8
000002a0: 6d85 cf3a 2444 e43a bed2 673b 5702 983a
000002b0: d0e8 e4ba cb6b 57bb 907f 2dbb 4529 e5b9
000002c0: 26ae 063b 3836 823a 1000 e53a a9d0 3abb
000002d0: 854f f4ba 3806 37bb af1b 98ba c9b3 16bb
000002e0: 0cb5 263b a785 513b 23d8 cb3a 9ff0 2c3b
000002f0: abb1 32bb c48f 48bb 5ac6 adba 8f28 0e3b
00000300: b975 80bb 9412 d6bb 9dae 9fbb 598b 853b
00000310: 52e4 953b 3973 9f3b 0992 ae3b cf8f 9d3b
00000320: fa9e 51bb 5ed8 a0bb 226b a53b a320 9cbb
00000330: ae54 743b 91c7 8bba c5f6 9fbb 3571 90bb
00000340: 4c38 afbb c02a d4bb b937 bcbb 8474 ec3b
00000350: d272 b33b cb98 cc3b 16b5 9e3b a957 c83b
00000360: 9ac0 c6bb 0374 00bc 459a 843b 2cd7 d1bb
00000370: 8128 e83b 5450 97ba 283d 6fbb 3e0b b5bb
00000380: 3ac6 a53b 5596 5d3b 35af 9c3b 3137 9bbb
00000390: 464d b2bb 4e1d a4bb d9b0 9abb f392 b2bb
000003a0: 07d9 9a3b b147 a23b a4de 78bb 3bdd a63b
000003b0: 1517 9ebb e8a2 193a ed19 223b 34b7 a53b
000003c0: 8627 223b 10bb 573b ae2d 2a3b 938a 61bb
000003d0: f79c 18bb 1c4a 32bb f03c 1ebb b285 61bb
000003e0: 7bbc 533b a66d 863b 4a4a 16bb c3a6 633b
000003f0: fd18 5fbb c628 0dba 4a7c 203b 465b 0e3b

base_model.model.bert.encoder.layer.1.attention.self.query.lora_A.weight f4 [16, 384]
-0.0512811 -0.023587113 -0.03509042 0.006739801 -0.010892879 0.009587189 0.024034439 -0.029697726
-0.039327707 0.025124097 0.010092796 0.03152862 -0.018153256 0.045930866 0.031165067 0.0030951796
0.006215842 -0.011416628 0.023818996 -0.0153306015 0.039316062 0.034595106 0.00558104 0.0074194074
0.033498283 0.03654983 -0.021798749 -0.0018373721 0.052641273 -0.05091837 0.04397829 -0.02743946
0.013536289 0.0024455825 0.03143791 0.01368563 -0.034988645 -0.017854495 0.021919962 0.035015527
-0.044222657 0.021944262 -0.037515666 0.009074045 -0.045895502 -0.040734544 -0.015944926 -0.048776757
-0.05298075 0.029683182 -0.032619037 -0.00022405342 0.0021779938 0.012592867 -0.04250452 0.05053143
0.018481461 -0.00520533 0.04734743 0.029731667 -0.0087109655 0.0037112327 -0.0065724123 -0.0022658932
0.026165497 0.037831474 -0.023674082 0.028479083 -0.023087323 -0.033648923 0.0016309588 0.0011378597
-0.03782764 -0.0095041 0.023525402 -8.665194e-05 0.022525143 0.023924282 -0.0029227415 0.014254426
0.04632769 -0.031173829 0.0272481 0.02398776 -0.017257718 0.03937632 -0.010140194 0.00642818
0.0072732274 -0.04754494 0.024188893 0.049873117 0.043412518 0.019558437 -0.013695929 -0.030525383
0.045920778 -0.0038820754 0.030711614 0.023187786 -0.011221449 0.016305268 0.038203087 -0.023851296
0.020839956 -0.013044654 0.03615098 -0.006330804 0.034830492 -0.047095213 -0.016710022 -0.03497929
-0.027097613 0.049486335 -0.01812002 -0.010854554 0.044182263 0.016801538 0.01723855 -0.03879857
-0.026608866 0.035761897 0.026280345 -0.027964793 -0.021079665 -0.035264626 0.00080338994 -0.023085294
0.029325144 0.051106993 -0.005497997 0.021486707 -0.002240298 -0.0038213108 -0.017746089 -0.0029902032
-0.0020955992 -0.041370817 -0.046529308 -0.032884054 0.025008587 -0.010726677 -0.04737491 0.042663015
-0.044571776 0.005491937 -0.022191398 -0.036434732 -0.012561201 -0.014515924 0.00069863803 -0.018002087
0.029366348 0.04577582 0.024312796 -0.011045792 0.046619885 -0.00431348 -0.0050831777 -0.02867889
0.009031759 0.00019044483 -0.053112715 -0.0072360192 0.0043551014 0.016132288 -0.02841299 -0.0165539
0.002742482 -0.03627136 0.025576685 -0.04863002 0.008568465 0.0020572254 -0.017144531 -0.015638808
-0.007933945 0.0046594213 -0.028261442 0.019016525 -0.048625026 0.026526872 0.047081828 0.0012954159
0.045824893 0.0042303507 0.044772044 0.03498411 0.036702413 0.02444421 -0.04151818 -0.02729162
-0.04720403 0.0044479487 0.01894484 -0.033311833 -0.026352733 -0.049704332 -0.028475994 0.0057530673
0.02445449 0.0035669166 -0.0050082626 0.014593365 -0.037326295 0.027715275 0.0025480683 0.045072407
0.038310364 -0.004744974 0.005566265 0.037001956 0.028753346 -0.010030241 0.0073783235 0.050474204
-0.048975553 0.03773688 -0.032655377 -0.024290346 7.136407e-05 -0.034234807 0.023310967 -0.007488446
-0.0111342855 -0.0061029564 -0.03497884 -0.019529738 -0.009919486 0.015833948 -0.024986831 0.041060284
-0.04989458 -0.01785618 -0.056705426 0.036556687 -0.017338296 0.026676698 0.028145479 0.03719239
-0.012715362 -0.031522296 -0.0063832887 0.028542912 0.01614453 -0.014655683 0.020056155 0.03529692
-0.045393474 -0.022332234 0.0062991735 0.045853015 -0.0363457 0.0029596689 0.012918892 -0.03310589
00000000: 210c 52bd c339 c1bc f9ba 0fbd 8cd9 dc3b
00000010: 0c78 32bc 9613 1d3c dfe3 c43c a548 f3bc
00000020: 1716 21bd 0dd1 cd3c 415c 253c 2724 013d
00000030: 23b6 94bc 0122 3c3d e24d ff3c 7fd8 4a3b
00000040: 43ae cb3b cf0c 3bbc 0e20 c33c 342d 7bbc
00000050: e109 213d 99b3 0d3d 28e1 b63b 801e f33b
00000060: 7f35 093d 46b5 153d 4a93 b2bc fad3 f0ba
00000070: 609e 573d c88f 50bd 9422 343d b8c8 e0bc
00000080: 50c7 5d3c 1146 203b 0ac5 003d b139 603c
00000090: 4150 0fbd 9743 92bc 7e91 b33c 716c 0f3d
000000a0: d122 35bd 74c4 b33c 07aa 19bd 4eab 143c
000000b0: ecfc 3bbd 44d9 26bd ef9e 82bc 23ca 47bd
000000c0: 5802 59bd 252a f33c 8a9b 05bd e2ef 6ab9
000000d0: acbc 0e3b 5052 4e3c 3819 2ebd 0bfa 4e3d
000000e0: 6f66 973c 7991 aabb 61ef 413d d38f f33c
000000f0: 70b8 0ebc 2738 733b 645d d7bb 617f 14bb
00000100: 0659 d63c 2df5 1a3d 26f0 c1bc f74c e93c
00000110: a021 bdbc 74d3 09bd e5c5 d53a 3c24 953a
00000120: 28f1 1abd 16b7 1bbc 58b8 c03c e8b8 b5b8
00000130: a686 b83c dbfc c33c 778b 3fbb 658b 693c
00000140: 1bc2 3d3d 4260 ffbc 6837 df3c fb81 c43c
00000150: 0f60 8dbc 1049 213d 0e23 26bc 7ba3 d23b
00000160: 4154 ee3b 7cbe 42bd c927 c63c c147 4c3d
00000170: 53d1 313d 0439 a03c e464 60bc 5e10 fabc
00000180: 6d17 3c3d 6b6a 7ebb ec96 fb3c 50f4 bd3c
00000190: 2bda 37bc a092 853c d77a 1c3d cb63 c3bc
000001a0: 8eb8 aa3c 3fb9 55bc 0d13 143d a272 cfbb
000001b0: 6baa 0e3d e9e6 40bd 75e3 88bc 7246 0fbd
000001c0: d0fb ddbc 2fb2 4a3d 7070 94bc 4dd7 31bc
000001d0: 76f8 343d 61a3 893c dc37 8d3c 40eb 1ebd
000001e0: d6fa d9bc 117b 123d e149 d73c 6c16 e5bc
000001f0: 43af acbc a471 10bd 969a 523a 5f1d bdbc
00000200: 493b f03c 9155 513d 8b28 b4bb e404 b03c
00000210: f7d1 12bb f56e 7abb 3f60 91bc 49f7 43bb
00000220: 5256 09bb 7274 29bd 8495 3ebd 6eb1 06bd
00000230: cfde cc3c f2be 2fbc 320c 42bd 6abf 2e3d
00000240: e590 36bd b5f5 b33b bcca b5bc 963c 15bd
00000250: 7fcd 4dbc 33d4 6dbc ce24 373a 1d79 93bc
00000260: b291 f03c 6d7f 3b3d a12b c73c 69f9 34bc
00000270: 7ef4 3e3d 1858 8dbb c990 a6bb feef eabc
00000280: f1f9 133c 25b2 4739 b88c 59bd 211c edbb
00000290: 3db5 8e3b dc27 843c 5cc2 e8bc 0b9c 87bc
000002a0: 36bb 333b 4791 14bd 3286 d13c 4630 47bd
000002b0: bf62 0c3c 84d2 063b b072 8cbc f51c 80bc
000002c0: 61fd 01bc 0fae 983b 8a84 e7bc 8bc8 9b3c
000002d0: 092b 47bd e24e d93c e0d8 403d f2ca a93a
000002e0: e2b2 3b3d c19e 8a3b e462 373d 804b 0f3d
000002f0: 4555 163d 393f c83c f80e 2abd ad92 dfbc
00000300: 0359 41bd 19c0 913b 3632 9b3c fd71 08bd
00000310: b0e1 d7bc c596 4bbd 7d46 e9bc 3a84 bc3b
00000320: c854 c83c eec2 693b 5a1c a4bb 0219 6f3c
00000330: 75e3 18bd 250b e33c 7efd 263b d89d 383d
00000340: 54eb 1c3d ba7b 9bbb 3765 b63b 5d8f 173d
00000350: 238c eb3c e155 24bc ddc5 f13b 0abe 4e3d
00000360: 979a 48bd fd91 1a3d a5c1 05bd 8cfc c6bc
00000370: 4ba9 9538 cc39 0cbd a4f6 be3c a361 f5bb
00000380: 946c 36bc 4ffb c7bb f945 0fbd d4fc 9fbc
00000390: 5785 22bc 32b6 813c 2fb1 ccbc d42e 283d
000003a0: 425e 4cbd 2047 92bc f343 68bd 77bc 153d
000003b0: 0b09 8ebc 1789 da3c 5991 e63c 0c57 183d
000003c0: 1854 50bc 861d 01bd e82a d1bb d3d2 e93c
000003d0: 8941 843c 641e 70bc ce4c a43c 8193 103d
000003e0: 82ee 39bd 17f2 b6bc 4c69 ce3b 5fd0 3b3d
000003f0: 3bdf 14bd 01f7 413b c3a9 533c 0b9a 07bd

base_model.model.bert.encoder.layer.1.attention.self.query.lora_B.weight f4 [384, 16]
-0.0031156153 0.0001673461 0.0077676945 -0.0022526353 0.0029083942 -0.0030697885 0.0009579563 -0.008338578
-0.0017293137 0.00088928087 0.00081445614 -0.005852355 -0.0015755699 0.006105769 9.4865165e-05 -0.0018408031
-0.0013037182 0.001013125 0.0016140105 0.0003606415 0.0003461512 -0.0010700616 0.0011417236 -0.0021534723
-0.0003549133 0.00037913825 -0.0009216076 -0.002230919 -0.0012605465 0.0016868659 0.0016273533 -0.0010066921
0.0012282418 -0.003329536 0.00021883102 -0.0029075784 0.0016919926 -0.0038938697 -0.0023541674 -0.0003380064
-0.002979098 0.0030095566 0.0037710976 0.0003662789 0.0022262307 0.00012904243 -0.003735731 0.0018738613
-0.0037766914 3.15538e-05 0.0023275842 -0.00038630143 0.0011011888 -0.0015818632 -5.8739493e-05 -0.0030439796
-0.00031931177 0.0006288925 0.0006751533 -0.0006988599 -0.0013897668 0.004250574 0.0003717595 -0.0015962268
-0.0051475605 -0.0012575136 0.0029835964 -0.0021767535 0.0027259015 -0.002828858 -0.001559338 -0.003070854
-0.0015375443 0.0022097065 0.0025552579 -0.0015966109 -0.0007081123 0.002930969 -0.0020568727 -0.0020154554
-0.005019102 9.688897e-05 0.0021853498 8.139454e-05 0.0009936687 -0.0011854335 -0.00019623425 -0.0025021906
0.00015433584 2.22638e-05 0.00048497532 -0.00014890097 -0.0021835964 0.0040914635 0.0004354487 -0.0022829797
-0.0036917455 0.0010754744 0.0010362195 3.4930108e-05 0.0001190012 -0.00075585826 0.00063659594 -0.0026390827
0.00040907616 0.00016893979 -0.00029488181 -0.00062864786 -0.0022295236 0.0036279098 0.0010300184 -0.0021857617
-0.0029012412 8.507864e-05 0.003317155 -0.001196503 0.0015290432 -0.0022377288 0.0005317135 -0.0042506605
-0.0010503058 0.00048564753 0.0007259344 -0.002482187 -0.0015136176 0.005090247 0.00024996762 -0.0019656906
-0.0014895374 -0.0014965765 0.0012166665 -0.00051175687 0.0010450799 -0.00040826132 -0.0027942741 -0.0016840155
-0.00044032698 0.0030131922 0.0024080316 -0.00047248648 0.00226146 0.0013618227 -0.0015825522 0.0018956789
0.0013510647 -0.0050529195 0.0018596626 -0.0049177865 0.0053439178 -0.0050693043 -0.0025495416 -0.0009028547
-0.003053438 0.0034844964 0.0057888846 -0.0012983242 0.0031806466 0.0009771726 -0.005663009 0.0014231593
0.004912315 -0.0003034393 -0.0003675425 -0.00044697963 -0.00023635899 0.0007116762 0.0011859474 -0.00016471415
-0.0010719529 -0.001130974 -0.001049498 -0.000911918 0.00013589856 -0.0009314752 -0.0009348979 0.0005490475
0.0022241506 -0.0007543074 -0.0028973026 0.00061454094 -0.00021905747 -9.31332e-05 -0.00054079824 0.003504672
0.00019262383 -0.00020386149 1.17740365e-05 0.0024191309 0.0012454725 -0.0025673031 -0.00056343264 0.0012459966
-0.0011453431 0.0021973369 -0.0012033962 0.0009625961 -0.0017594293 0.0014663882 0.004145162 0.0017515364
0.0020915645 -0.004080959 -0.0025870288 0.0006083359 -0.0038521974 -0.0022656599 0.0044599515 -0.0037817804
0.002053457 0.000757137 -0.0037338599 0.0023165075 -0.0035956681 0.0033427682 -0.00079000875 0.004297324
0.0022643562 -0.0016818752 -0.0015309525 0.0036672757 0.0011558862 -0.0037715335 0.00011007021 0.0012212852
-0.004607897 0.0007795709 0.0014470851 0.00026728713 0.00021056463 -0.0021052973 -0.0015520795 -0.0020468964
0.0007684692 0.0007618214 -4.4888943e-06 -0.00014046577 -0.0024619896 0.001169034 0.0010216511 -0.0017770061
0.00024750078 0.0041608964 -0.0014844777 0.002105323 -0.002705098 0.0027636664 0.0018981108 0.0015980396
0.0032568837 -0.0030114867 -0.004222628 0.00059902895 -0.0015300966 -0.0013543518 0.004433908 -0.0010758585
00000000: 5a2f 4cbb a079 2f39 2588 fe3b f3a0 13bb
00000010: c29a 3e3b 812e 49bb 5c1f 7b3a 889e 08bc
00000020: 24aa e2ba a11e 693a 3a81 553a 1dc5 bfbb
00000030: 5a83 ceba e712 c83b 59f2 c638 1a47 f1ba
00000040: 86e1 aaba d5ca 843a 358d d33a 7c14 bd39
00000050: a17b b539 4f41 8cba e3a5 953a 4521 0dbb
00000060: a813 bab9 13c7 c639 0a98 71ba 9c34 12bb
00000070: ec38 a5ba d419 dd3a ea4c d53a fbf2 83ba
00000080: f5fc a03a 5834 5abb 0176 6539 128d 3ebb
00000090: dac5 dd3a 4b30 7fbb 6048 1abb 7336 b1b9
000000a0: f83c 43bb fb3b 453b 8524 773b 1f09 c039
000000b0: f4e5 113b 904f 0739 2ad3 74bb 5a9c f53a
000000c0: 5e82 77bb a358 0438 628a 183b 8088 cab9
000000d0: c455 903a 8556 cfba 0d5f 76b8 817d 47bb
000000e0: 4d69 a7b9 43dc 243a c5fc 303a b233 37ba
000000f0: d628 b6ba 6648 8b3b b7e8 c239 7c38 d1ba
00000100: deac a8bb 28d3 a4ba 7188 433b dda7 0ebb
00000110: 0aa5 323b 5d64 39bb b362 ccba 6240 49bb
00000120: 6d87 c9ba b9d0 103b 1d76 273b 5f45 d1ba
00000130: 9da0 39ba 8015 403b 99cc 06bb bb15 04bb
00000140: 4777 a4bb df30 cb38 1638 0f3b 5cb2 aa38
00000150: fd3d 823a 8c60 9bba 3bc4 4db9 cbfb 23bb
00000160: 36d5 2139 25c3 ba37 4944 fe39 4d22 1cb9
00000170: ab1a 0fbb af11 863b ef4c e439 0b9e 15bb
00000180: 36f1 71bb eff6 8c3a c2d1 873a eb81 1238
00000190: 4890 f938 ca24 46ba 3be1 263a 76f4 2cbb
000001a0: 4679 d639 6e25 3139 5e9a 9ab9 d8cb 24ba
000001b0: 331d 12bb 3ac2 6d3b af01 873a ff3e 0fbb
000001c0: c022 3ebb 3f6c b238 a064 593b fbd3 9cba
000001d0: 2d6a c83a dca6 12bb b062 0b3a 2049 8bbb
000001e0: 6aaa 89ba 829e fe39 a24c 3e3a 30ac 22bb
000001f0: 9464 c6ba 16cc a63b 160e 8339 d1d2 00bb
00000200: 953c c3ba c628 c4ba 8e78 9f3a 6c27 06ba
00000210: 10fb 883a e80b d6b9 2420 37bb 2fba dcba
00000220: b0db e6b9 fa78 453b 11d0 1d3b 10b8 f7b9
00000230: 0135 143b 307f b23a a46d cfba 6e78 f83a
00000240: 3516 b13a f692 a5bb ecbf f33a 6225 a1bb
00000250: 081c af3b 681c a6bb 3616 27bb 8ead 6cba
00000260: 301c 48bb 265c 643b afb0 bd3b 882c aaba
00000270: 6572 503b 7914 803a c390 b9bb 4d89 ba3a
00000280: 7cf7 a03b ef16 9fb9 b8b2 c0b9 9758 eab9
00000290: 22d7 77b9 c88f 3a3a cb71 9b3a 1eb7 2cb9
000002a0: c580 8cba 313d 94ba 4f8f 89ba c80d 6fba
000002b0: fe7f 0e39 3e2e 74ba f013 75ba f4ed 0f3a
000002c0: 0ec3 113b b6bc 45ba ace0 3dbb 2519 213a
000002d0: cbb2 65b9 8250 c3b8 5bc4 0dba a4ae 653b
000002e0: 11fb 4939 a7c3 55b9 1a89 4537 488a 1e3b
000002f0: 1f3f a33a 3340 28bb 53b3 13ba b550 a33a
00000300: 561f 96ba 3201 103b 47bb 9dba bb56 7c3a
00000310: a79c e6ba d333 c03a 24d4 873b cf93 e53a
00000320: a112 093b 91b9 85bb 248b 29bb bb78 1f3a
00000330: 2675 7cbb 777b 14bb c924 923b bfd7 77bb
00000340: 4b93 063b 9b7a 463a c6b3 74bb 8cd0 173b
00000350: 4da5 6bbb 5812 5b3b 9718 4fba 91d0 8c3b
00000360: 9865 143b 5e72 dcba 3eaa c8ba ad56 703b
00000370: 1b81 973a d52b 77bb 7ed5 e638 8813 a03a
00000380: d7fd 96bb 1e5c 4c3a 1eac bd3a ac22 8c39
00000390: 03cb 5c39 07f9 09bb 256f cbba 3925 06bb
000003a0: 1873 493a f8b4 473a 4f9f 96b6 fe49 13b9
000003b0: 5559 21bb 463a 993a ece8 853a 6eea e8ba
000003c0: fec2 8139 2158 883b ce92 c2ba 75f9 093b
000003d0: 0348 31bb a11e 353b 08ca f83a 5075 d13a
000003e0: 7171 553b 5d5c 45bb f95d 8abb 2708 1d3a
000003f0: 868d c8ba 8184 b1ba 514a 913b d203 8dba

base_model.model.bert.encoder.layer.1.attention.self.value.lora_A.weight f4 [16, 384]
0.022022318 0.040203966 0.016882954 -0.039206736 0.0011281016 -0.012331972 0.03301247 0.02049267
-0.017146599 0.017395912 0.033560406 0.015294949 0.033646014 0.0496967 -0.008923479 0.015117903
0.0077251187 -0.04663231 -0.037927214 0.058363333 0.0130496705 0.034356415 -0.0035675205 0.020818835
-0.047190156 0.0022223569 -0.018451445 -0.040711842 -0.017027263 0.00627462 0.017806191 0.041578766
-0.054467674 0.03089113 0.057576347 0.021380547 0.008037172 -0.009650273 -0.028927905 0.027415456
0.026666455 0.018639702 -0.009471064 0.033865526 0.026055533 0.004093015 0.029191278 0.023368176
-0.011483431 0.003645584 0.015947254 0.002933365 -0.04963056 0.0424314 -0.0040314817 -0.0028735164
0.04815103 0.052926533 0.023258207 0.006220515 -0.029601235 0.017750064 0.043844827 0.0014961731
-0.003025584 -0.03717818 0.056230325 -0.0429605 0.03928705 -0.004079592 -0.00029841304 0.034047265
-0.04352121 -0.052212268 -0.003174469 -0.043530624 0.0002142642 -0.018480264 0.0054789567 -0.048288066
-0.04683451 -0.016486576 0.038094424 -0.05580726 0.0319512 -0.04309231 0.03196013 0.0042328597
0.043007962 0.014173847 -0.027365351 -0.038737863 0.014101646 0.0019507954 -0.026562564 -0.020795621
-0.04074897 -0.04562823 0.0032933252 -0.043961108 0.04013311 -0.047256574 -0.016032325 5.7200337e-05
-0.041231953 -0.006917451 0.044300456 -0.023477418 0.022001907 0.0022735107 0.0045891153 -0.0064672045
-0.044410482 -0.033149775 0.035055913 0.010072817 0.020029614 0.0022236472 0.033547714 0.053122822
0.019959113 -0.0031407797 0.041591406 0.005803936 0.047207035 -0.025249176 0.036382902 0.005954352
2.6232356e-05 -0.049643956 0.008639242 -0.017444205 0.022356452 -0.0024177379 0.016592743 0.038409796
0.0032359685 -0.005089115 -0.028424047 -0.025445675 -0.009213095 0.018918576 0.029550442 0.03933361
0.044762623 -0.010543177 0.039945185 0.015767038 -0.05032137 -0.04172848 0.035230037 0.013940332
-0.008765787 0.0462228 0.023850482 0.01663961 0.012951381 0.015417179 -0.028907476 -0.01812337
-0.015746081 0.020767508 -0.01158965 0.038875777 -0.035769157 0.030760441 -0.0012062194 -0.02047887
-0.0059649916 -0.03577124 0.020090386 -0.02914951 0.040096205 0.009067217 0.01453779 0.01961189
-0.0068968222 0.03449376 0.014315513 -0.017677452 -0.009484471 -0.017289259 -0.027695093 -0.02100139
0.05133975 0.0015709841 -0.0005026258 0.028169584 -0.008704001 -0.05800556 -0.011196991 0.020753544
0.036380723 -0.016564531 -0.004608429 -0.023406401 -0.005562055 -0.023684986 0.0066293445 0.00058704556
-0.036039084 -0.008776893 -0.0097990185 -0.034036446 -0.01069182 0.041167468 0.019000156 -0.05643875
-0.011519905 0.014799182 0.0032976938 0.0019792055 0.047324188 0.0021666172 0.007821849 0.04421531
0.001983206 -0.018397372 0.02468499 -0.012338363 0.027809873 -0.007797576 -0.010332955 -0.006197347
-0.00890527 -0.008617968 -0.039818585 0.017004155 0.0029182814 -0.020943075 -0.006580401 -0.04594822
0.013347724 0.006187861 -0.045625243 0.023956224 0.022989066 0.043539174 -0.011588931 0.04644411
-0.031211048 0.020087898 0.043670632 -0.008173461 0.052776903 -0.008176638 0.020829137 0.04696074
-0.006792984 -0.027301975 0.024220077 -0.023844162 0.013711331 -0.016260533 -0.009139518 -0.030572033
00000000: 2668 b43c eaac 243d 1f4e 8a3c 3e97 20bd
00000010: cfdc 933a 0a0c 4abc 1538 073d 3ee0 a73c
00000020: 0677 8cbc df81 8e3c a376 093d aa97 7a3c
00000030: 67d0 093d c48e 4b3d c933 12bc 15b1 773c
00000040: fe22 fd3b 8501 3fbd 9159 1bbd 640e 6f3d
00000050: 49ce 553c 50b9 0c3d 10cd 69bb 438c aa3c
00000060: 774a 41bd f6a4 113b 7c27 97bc 76c1 26bd
00000070: c27c 8bbc 549b cd3b 4ade 913c 7f4e 2a3d
00000080: 7f19 5fbd 650f fd3c 2dd5 6b3d 4226 af3c
00000090: 58ae 033c 2e1c 1ebc 37fa ecbc 6196 e03c
000000a0: 9c73 da3c 4ab2 983c 862c 1bbc 94b6 0a3d
000000b0: 6a72 d53c b31e 863b 8c22 ef3c 9e6e bf3c
000000c0: 0025 3cbc c0ea 6e3b d1a3 823c b33d 403b
000000d0: 6a49 4bbd 8ccc 2d3d 851a 84bb 9b51 3cbb
000000e0: 043a 453d 7ec9 583d ff87 be3c 76d5 cb3b
000000f0: 4a7e f2bc 9568 913c a296 333d 3d1b c43a
00000100: e048 46bb 2648 18bd c551 663d 59f7 2fbd
00000110: 75eb 203d 19ae 85bb 5274 9cb9 2575 0b3d
00000120: 4c43 32bd 88dc 55bd c10a 50bb 2b4d 32bd
00000130: 1cac 6039 ec63 97bc d288 b33b b5c9 45bd
00000140: 8bd5 3fbd db0e 87bc e608 1c3d 2796 64bd
00000150: 43df 023d 9081 30bd a0e8 023d cdb3 8a3b
00000160: 1e29 303d 6c39 683c 4d2d e0bc 98ab 1ebd
00000170: 970a 673c d5b1 ff3a bc99 d9bc 945b aabc
00000180: 64e8 26bd abe4 3abd d4d4 573b 9010 34bd
00000190: 9e62 243d 1c90 41bd 3956 83bc 65ea 6f38
000001a0: d6e2 28bd c9ab e2bb 6574 353d b753 c0bc
000001b0: 583d b43c 2eff 143b 4a60 963b d8ea d3bb
000001c0: c4e7 35bd 0fc8 07bd ca96 0f3d 7508 253c
000001d0: 2515 a43c 9cba 113b 5469 093d 5197 593d
000001e0: 4b81 a33c 8ad5 4dbb c05b 2a3d f22e be3b
000001f0: 2a5c 413d 5cd7 cebc 3d06 153d ba1c c33b
00000200: 8e0d dc37 7657 4bbd 9b8b 0d3c 26e7 8ebc
00000210: e124 b73c e972 1ebb 81ed 873c 9753 1d3d
00000220: 8b12 543b 97c2 a6bb 8cd9 e8bc 7373 d0bc
00000230: 85f2 16bc 21fb 9a3c c513 f23c 481c 213d
00000240: 0359 373d 4abd 2cbc 909d 233d e029 813c
00000250: c81d 4ebd 7ceb 2abd 5f4d 103d fe65 643c
00000260: 609e 0fbc 1e54 3d3d 1662 c33c cb4f 883c
00000270: 0732 543c 5698 7c3c 5fcf ecbc 7677 94bc
00000280: edfd 80bc 9f20 aa3c 84e2 3dbc 353c 1f3d
00000290: ae82 12bd 52fd fb3c 021a 9eba 4ec3 a7bc
000002a0: fa75 c3bb dd84 12bd 9894 a43c f4ca eebc
000002b0: eb3b 243d aa8e 143c e92f 6e3c 1da9 a03c
000002c0: bdfe e1bb 5449 0d3d 9d8b 6a3c 4ed0 90bc
000002d0: c164 1bbc 34a2 8dbc d2e0 e2bc 1b0b acbc
000002e0: a149 523d 7be9 cd3a a5c2 03ba e6c3 e63c
000002f0: 3a9b 0ebc 3d97 6dbd 9673 37bc 5603 aa3c
00000300: f403 153d 57b2 87bc 4e02 97bb c8be bfbc
00000310: e641 b6bb 0407 c2bc f93a d93b f6e3 193a
00000320: b89d 13bd f5cc 0fbc 108c 20bc cd69 0bbd
00000330: be2c 2fbc 389f 283d 37a6 9b3c 522c 67bd
00000340: fcbd 3cbc 4578 723c 1f1e 583b 8fb5 013b
00000350: 02d7 413d cefd 0d3b 3627 003c 1d1b 353d
00000360: adf8 013b 16b6 96bc 2d38 ca3c d826 4abc
00000370: 88d1 e33c cf82 ffbb 8e4b 29bc 1d13 cbbb
00000380: 69e7 11bc 6132 0dbc d018 23bd 4c4c 8b3c
00000390: a340 3f3b d090 abbc 68a0 d7bb 3334 3cbd
000003a0: 6ab0 5a3c 8ac3 ca3b 89e1 3abd d83f c43c
000003b0: 9153 bc3c 2256 323d 80df 3dbc 2e3c 3e3d
000003c0: 50ae ffbc 608f a43c fadf 323d fbe9 05bc
000003d0: 982c 583d 4ef7 05bc dea1 aa3c e859 403d
000003e0: ae97 debb 64a8 dfbc 2f69 c63c d554 c3bc
000003f0: 7ea5 603c cf34 85bc ebbd 15bc 3372 fabc
