lora_crossencoder_has_instruction_2/checkpoint-4257/adapter_model.safetensors (safetensors, 594924 bytes, 25 tensors)

base_model.model.bert.encoder.layer.0.attention.self.query.lora_A.weight f4 [16, 384]
0.016077753 0.02567085 0.017060801 -0.027777778 -0.0348315 0.02082767 0.032838386 0.054178778
0.008822006 -0.053581614 0.009852351 -0.010828132 -0.010234906 0.011894037 -0.041241407 0.03506021
0.036955815 0.004989972 0.0029461745 -0.00034356723 0.009841189 0.011015783 0.007900086 -0.025675755
-0.00436681 -0.05627312 -0.012057979 -0.0071509727 0.03579085 0.032897927 -0.004729806 -0.044893105
0.021344945 0.021756254 0.008833858 -0.011873257 0.0010877745 -0.01153333 0.017516324 0.0073474427
0.031378426 -0.041266866 0.044354606 0.027548065 0.04918215 0.038528886 -0.015797364 -0.00047645872
0.021846661 -0.044205803 0.0030703996 -0.03825053 -0.03640114 0.008702567 0.053741407 -0.043443628
-0.006148801 -0.01366557 0.019114174 -0.04159099 -0.036467593 0.020089772 -0.017294401 -0.0292214
0.008411839 -0.0048968163 -0.022898968 0.037185337 0.0128028225 -0.0008519992 -0.01819689 0.01399695
0.037395194 0.032165688 -0.04574472 -0.025812529 0.04792377 -0.030668078 -0.046368428 0.041377347
-0.04250463 0.050454535 -0.009431551 -0.02909161 0.035950247 0.020690843 -0.034764487 -0.040643092
0.026040342 -0.044252127 0.050141454 0.046834927 0.033906125 -0.05008209 -0.028817842 0.031897467
-0.00851494 -0.047696657 0.038648266 -0.04246288 -0.014811858 0.03972246 0.021554414 -0.032404326
-0.019353101 0.04510584 -0.002545506 0.042266008 -0.03915573 -0.011733478 0.03567705 0.020232573
-0.0509278 -0.026668089 -0.042206336 0.04192056 -0.021488957 -0.013225654 0.027930398 0.024947299
-0.033688862 0.029423548 0.025472369 0.0032454727 0.0021773207 -0.0027596501 -0.01172557 -0.00082892406
0.047818173 0.019996809 -0.011947137 -0.009774042 -0.011386339 -0.055081237 -0.03200956 0.04109546
0.02617901 -0.046990097 -0.018956974 0.004871479 0.011208185 -0.01192273 -0.008823711 0.045551848
-0.012338222 -0.010049451 -0.021817727 0.0037895853 0.034499753 0.017463075 0.011077306 -0.05158777
-0.025308855 0.014040868 -0.024233647 -0.02940879 -0.05420804 -0.0461718 -0.037018772 -0.028215107
0.016372379 0.03102891 -0.0068511027 -0.023313798 0.0038599872 -0.007862035 -0.042616434 0.040087853
-0.023180127 0.04552096 -0.022901628 -0.030704763 -0.026721334 -0.0017552099 0.03930081 -0.030189725
0.034432456 0.018037856 0.047818467 0.014826206 0.0523904 0.011553996 0.010939177 -0.039098203
0.041939005 0.04478924 -0.032920193 0.026560288 -0.040866252 0.006392943 0.00919083 0.034877397
0.02543338 0.016172685 -0.033803426 0.023095816 0.0337593 -0.037043124 0.02901254 -0.017520078
0.0040144287 0.010029482 0.029067285 0.027383601 -0.014234598 -0.022147538 -0.014409933 0.03205591
-0.034573097 -0.012505864 0.050534233 0.022681333 0.0017057548 0.016820237 0.013872398 0.03323977
0.027832549 -0.0086699845 0.030735662 0.014897269 -0.043507226 0.028975945 -0.023372069 0.0382461
0.049202416 0.004607972 -0.025826778 -0.022257928 0.024410775 -0.043284982 0.024584942 0.038128104
-0.015925113 -0.05181646 -0.017978443 -0.033348273 0.019902155 0.021908736 -0.030510519 0.024018636
-0.007818572 0.008841613 -0.011524809 0.04512558 0.036338218 -0.02807442 0.00031193375 -0.03682212
-0.04529786 0.0052115945 0.043235034 -0.047486458 -0.024124129 0.029566584 0.027401581 0.026885984
00000000: 7eb5 833c ad4b d23c 18c3 8b3c 398e e3bc
00000010: 7aab 0ebd ca9e aa3c 8b81 063d 91ea 5d3d
00000020: 2d8a 103c 6578 5bbd c16b 213c 7a68 31bc
00000030: 4fb0 27bc 35df 423c c0ec 28bd 4b9b 0f3d
00000040: fb5e 173d eb82 a33b 9b14 413b d020 b4b9
00000050: f03c 213c 8b7b 343c 5d6f 013c f655 d2bc
00000060: 7517 8fbb a57e 66bd d48e 45bc b552 eabb
00000070: 6d99 123d fabf 063d 7dfc 9abb d5e1 37bd
00000080: 98db ae3c 2c3a b23c e3bb 103c 0d88 42bc
00000090: a893 8e3a 4bf6 3cbc 657e 8f3c d1c2 f03b
000000a0: aa86 003d 7207 29bd 2dad 353d 7bac e13c
000000b0: 3973 493d 77d0 1d3d 7969 81bc 35cd f9b9
000000c0: c5f7 b23c 2511 35bd c238 493b 96ac 1cbd
000000d0: 5d19 15bd 3695 0e3c f31f 5c3d f2f1 31bd
000000e0: e27b c9bb 8ee5 5fbc 5495 9c3c 505b 2abd
000000f0: 0b5f 15bd 4e93 a43c fdac 8dbc b861 efbc
00000100: cfd1 093c 7975 a0bb 9e96 bbbc a74f 183d
00000110: eec2 513c b358 5fba a511 95bc 7753 653c
00000120: b42b 193d 2bc0 033d d15e 3bbd cc74 d3bc
00000130: b74b 443d 9f3b fbbc d2ec 3dbd 4b7b 293d
00000140: 5619 2ebd 6aa9 4e3d cb86 1abc 8751 eebc
00000150: 9140 133d d87f a93c 3565 0ebd 5f79 26bd
00000160: 8e52 d53c b841 35bd 2061 4d3d fbd5 3f3d
00000170: 26e1 0a3d e122 4dbd 6513 ecbc eba6 023d
00000180: 3f82 0bbc 925d 43bd a54d 1e3d 8fed 2dbd
00000190: 6fad 72bc 05b4 223d e292 b03c 66ba 04bd
000001a0: 658a 9ebc e7c0 383d 81d2 26bb 1f1f 2d3d
000001b0: c261 20bd c63d 40bc 1922 123d c8be a53c
000001c0: ab99 50bd 0977 dabc 8de0 2cbd e5b4 2b3d
000001d0: 9c09 b0bc 6ab0 58bc 4ace e43c 475e cc3c
000001e0: 55fd 09bd a709 f13c 6eab d03c ffb1 543b
000001f0: 61b1 0e3b 3fdb 34bb 9b1c 40bc 274c 59ba
00000200: fddc 433d 59d0 a33c edbd 43bc 4e23 20bc
00000210: c48d 3abc dd9c 61bd 751c 03bd b753 283d
00000220: 5d75 d63c b078 40bd a84b 9bbc eda0 9f3b
00000230: 89a2 373c 8e57 43bc 5491 10bc 9394 3a3d
00000240: 4126 4abc 74a6 24bc 17bb b2bc b15a 783b
00000250: 9d4f 0d3d b90e 8f3c 977d 353c b34d 53bd
00000260: 8454 cfbc ab0b 663c a485 c6bc b4ea f0bc
00000270: 4009 5ebd a41e 3dbd ffa0 17bd 5e23 e7bc
00000280: 5e1f 863c 5730 fe3c 377f e0bb 94fc bebc
00000290: d7f7 7c3b c4cf 00bc 928e 2ebd 2933 243d
000002a0: 40e4 bdbc 3074 3a3d 329c bbbc 8e88 fbbc
000002b0: b3e6 dabc 120f e6ba e3f9 203d 7150 f7bc
000002c0: 0c09 0d3d 20c4 933c 4cdd 433d 9de9 723c
000002d0: 5197 563d f94c 3d3c 3c3a 333c 7025 20bd
000002e0: 3cc8 2b3d ec74 373d 53d7 06bd f694 d93c
000002f0: 5f63 27bd e57b d13b 2395 163c 9adb 0e3d
00000300: aa59 d03c 947c 843c 7675 0abd 7033 bd3c
00000310: 3147 0a3d 88ba 17bd b5ab ed3c 4486 8fbc
00000320: 788b 833b b252 243c 841e ee3c 9353 e03c
00000330: 3b38 69bc c16e b5bc a417 6cbc 0f4d 033d
00000340: 859c 0dbd 65e5 4cbc fcfc 4e3d 34ce b93c
00000350: a293 df3a 98ca 893c 0e49 633c 6d26 083d
00000360: 1601 e43c 8d0c 0ebc 5bc9 fb3c ad13 743c
00000370: a234 32bd f65e ed3c c876 bfbc f1a7 1c3d
00000380: 7988 493d 79fe 963b ae92 d3bc 4256 b6bc
00000390: 1bf9 c73c 984b 31bd 5c66 c93c 372c 1c3d
000003a0: 6275 82bc 7f3d 54bd 8747 93bc 3398 08bd
000003b0: d809 a33c f379 b33c 32f1 f9bc bbc2 c43c
000003c0: 7819 00bc 6adc 103c 8dd2 3cbc 9ad5 383d
000003d0: 62d7 143d 53fc e5bc 0a8b a339 cbd2 16bd
000003e0: 408a 39bd 06c6 aa3b 3817 313d 2981 42bd
000003f0: f79f c5bc 9f35 f23c 4879 e03c ff3f dc3c

base_model.model.bert.encoder.layer.0.attention.self.query.lora_B.weight f4 [384, 16]
0.0034841045 0.002968935 0.0012215105 -0.000551256 0.0021162315 0.0023794617 -0.0021491896 -0.0025440338
0.0020615654 -0.00076189724 0.00054907566 -0.0022926233 0.0026767587 0.0017169622 0.0021049913 0.0026712464
0.0026502633 0.0021129388 -0.0003303402 0.002432547 0.003466054 0.0028082493 -0.003280678 -0.0019365042
0.0014139867 -0.0025002756 0.0035353822 -0.0042621503 0.002328827 0.0005676448 -0.00029560682 0.0009251324
-0.0022984396 -0.0016193278 0.0007473356 0.0008858787 -0.0018103697 -0.0030886536 0.0016156952 0.0040402906
-0.0025372216 0.0034668685 -0.0018921064 0.0015158576 -0.0029512001 -0.0018472333 -0.00197731 0.00025135098
-0.00093708525 -0.0017786197 0.00027586852 -0.001883265 -0.0020132365 -0.0017445323 0.0021805074 -0.00034273503
0.00019612667 -0.002941575 -0.0018394283 0.00095347106 -8.9737005e-05 0.002134747 -0.002623557 -0.0011853758
-0.0014963145 -0.0021364968 -0.00153637 0.0003611172 -0.00089561776 -0.0010236661 0.000854781 0.002606138
4.769004e-05 0.0008570679 -6.9944576e-06 0.0011532643 -0.0011477076 -0.003226849 -0.0015416294 -0.0031978816
0.0012511497 0.00077992084 0.00051439356 -0.0013757601 0.001253246 0.0017588552 -0.0011477894 -0.0014817946
0.0023604757 -0.0020573793 0.0014544575 -0.001094352 0.0017520341 0.00037431586 0.0007541386 0.0009208007
0.0012965491 0.0004944125 -0.002457753 0.0019760928 0.002205063 0.0020980933 -0.0019761696 -0.00084343133
-0.0010493658 0.0012302094 0.0025659462 -0.0018981608 0.0013538667 -0.0042560617 -0.0006079128 -0.003088225
0.0044581788 0.0037137715 -0.00043353304 0.0014293811 0.003897461 0.0047571454 -0.003733771 -0.0034634678
0.0008326221 -0.0012839157 0.0030014226 -0.005127567 0.003890067 0.0014156722 0.00072863104 0.001894699
-0.0019466399 -0.0010615359 -0.0016196783 0.0025586588 2.167654e-05 -0.0021649692 -0.0007063285 0.001871128
-0.0032317836 0.0018969451 0.0020338518 -0.00039759954 -0.0015459327 -0.0020817483 -0.00091123773 -0.0016424473
0.0052349507 0.0037458234 0.00097421143 -0.00084273 0.002800787 0.0044347118 -0.0025499454 -0.005237674
0.002683795 -0.003432237 0.0015830025 -0.0036700997 0.00419042 0.0029860497 0.0012493964 0.00409361
-0.0033443607 -0.0029099607 -0.001752402 0.0010231801 -0.0028370041 -0.0020418325 0.0013606224 0.002771025
-0.002137641 0.0034329386 -0.00018910864 0.0013538381 -0.0030626857 -0.0022911092 -0.0016010364 -0.0024065955
0.0002942156 -0.00017875592 -0.0027557567 0.0026726893 0.0031310406 6.624735e-05 -0.002700817 0.0010056373
-0.0033933085 0.0022655993 0.0038639747 -0.00239569 -0.000988129 -0.0018714785 -0.0011115664 -0.002092848
0.0065897168 0.003742037 -0.0024951915 0.0033764096 0.005777423 0.0057004336 -0.0052671125 -0.0019530223
-0.002018744 0.00063649076 0.0047469134 -0.0061334376 0.005331104 -0.002123381 0.0016939986 0.0007036363
0.0055404445 0.0043059266 -0.00015173823 0.00071338913 0.004379656 0.005461815 -0.003962988 -0.005795779
0.0018798312 -0.0046489434 0.0034236587 -0.005115126 0.004239412 0.002831362 0.0010598454 0.0012815719
0.0016104534 0.0007164509 -0.00025657789 0.0016564259 0.0018154202 0.0022657102 -0.0018482379 -0.0010589251
0.0016644034 -0.0017147779 0.0024347608 -0.0023608624 0.001287834 0.000540593 -0.00061434414 -0.0005960982
-0.00074166653 -0.00082234736 0.00056481163 -0.00019458057 -0.00032567783 -0.0005329777 0.00035183624 0.0008930405
0.0023536223 -0.00041277515 -0.00030573457 0.00019648948 -0.0006359105 -0.00020666161 -0.00096702436 -0.0016808093
00000000: 9355 643b 7792 423b 171b a03a 2a82 10ba
00000010: 79b0 0a3b bef0 1b3b 6bd9 0cbb ceb9 26bb
00000020: 541b 073b 0fba 47ba d8ef 0f3a d63f 16bb
00000030: 8f6c 2f3b b10b e13a e5f3 093b 1410 2f3b
00000040: 0ab0 2d3b 3b79 0a3b 8331 adb9 5e6b 1f3b
00000050: bd26 633b 9b0a 383b a500 57bb 4cd2 fdba
00000060: 8555 b93a aadb 23bb dfb1 673b 82a9 8bbb
00000070: 3c9f 183b ffcd 143a adfb 9ab9 9684 723a
00000080: 6ba1 16bb a03f d4ba d8e8 433a 503a 683a
00000090: ed49 edba 026b 4abb bcc5 d33a 6a64 843b
000000a0: 8447 26bb 6734 633b 8e00 f8ba beaf c63a
000000b0: ec68 41bb dd1e f2ba c295 01bb c2c7 8339
000000c0: baa6 75ba 9320 e9ba 72a2 9039 e3d7 f6ba
000000d0: 81f0 03bb caa8 e4ba d8e6 0e3b 1eb1 b3b9
000000e0: 5aa7 4d39 70c7 40bb f918 f1ba 5cf2 793a
000000f0: 3031 bcb8 1de7 0b3b fcef 2bbb 9d5e 9bba
00000100: fc1f c4ba 7804 0cbb 0660 c9ba 5554 bd39
00000110: e4c7 6aba 892c 86ba 6213 603a bdcb 2a3b
00000120: ca06 4838 daac 603a efb1 eab6 2129 973a
00000130: ad6e 96ba 8b79 53bb 8010 caba 8d93 51bb
00000140: 9efd a33a 9a73 4c3a 5ed8 063a d952 b4ba
00000150: f543 a43a 6389 e63a 6c71 96ba c738 c2ba
00000160: 36b2 1a3b 19d5 06bb 7fa3 be3a 5c70 8fba
00000170: 82a4 e53a d33f c439 62b1 453a e461 713a
00000180: f8f0 a93a 769b 013a 4112 21bb 5681 013b
00000190: d182 103b 2a80 093b a082 01bb b819 5dba
000001a0: e08a 89ba fa3e a13a 6f29 283b b5cb f8ba
000001b0: 3a74 b13a 6f76 8bbb 565c 1fba d163 4abb
000001c0: ea15 923b bf62 733b d24b e3b9 125a bb3a
000001d0: 8c6c 7f3b d4e1 9b3b 48b2 74bb 59fb 62bb
000001e0: 5344 5a3a 1049 a8ba 84b3 443b 2605 a8bb
000001f0: 7ff0 7e3b 148e b93a 9a01 3f3a 8c57 f83a
00000200: 6526 ffba 3c23 8bba 634b d4ba 2caf 273b
00000210: 04d6 b537 28e2 0dbb e728 39ba a340 f53a
00000220: 55cc 53bb eaa2 f83a 5f4a 053b e874 d0b9
00000230: e5a0 caba f16d 08bb 21e0 6eba 6347 d7ba
00000240: f389 ab3b 7d7c 753b 3962 7f3a a7ea 5cba
00000250: 698d 373b 0f51 913b fc1c 27bb cba0 abbb
00000260: 9ce2 2f3b 62ef 60bb c07c cf3a 0e86 70bb
00000270: ca4f 893b 9ab1 433b c9c2 a33a b123 863b
00000280: 102d 5bbb 0ab5 3ebb dbb0 e5ba 3a1c 863a
00000290: 08ed 39bb 44d0 05bb e956 b23a 169a 353b
000002a0: aa17 0cbb 27fb 603b 774b 46b9 4573 b13a
000002b0: 57b7 48bb 6f26 16bb ded9 d1ba f9b7 1dbb
000002c0: f340 9a39 6d70 3bb9 ed99 34bb 4928 2f3b
000002d0: 2532 4d3b 46ee 8a38 3100 31bb 97cf 833a
000002e0: 4562 5ebb 737a 143b bd3a 7d3b 0201 1dbb
000002f0: 1b84 81ba 664c f5ba fbb1 91ba 2a28 09bb
00000300: 8dee d73b f73c 753b 5e86 23bb c146 5d3b
00000310: 8950 bd3b b4ca ba3b be97 acbb 8efc ffba
00000320: e74c 04bb 2cda 263a ff8b 9b3b 01fb c8bb
00000330: 8bb0 ae3b 6c28 0bbb 2909 de3a 3c74 383a
00000340: 9e8c b53b bb18 8d3b ec1b 1fb9 bc02 3b3a
00000350: 3883 8f3b 06f9 b23b f4db 81bb 85ea bdbb
00000360: ab64 f63a 2a56 98bb 765f 603b c99c a7bb
00000370: c4ea 8a3b 5f8e 393b 83ea 8a3a 6bfa a73a
00000380: d915 d33a 35d0 3b3a 4d85 86b9 6e1c d93a
00000390: 65f3 ed3a 4f7c 143b 9340 f2ba a1cb 8aba
000003a0: 1c28 da3a 66c2 e0ba 8290 1f3b b3b8 1abb
000003b0: 8acc a83a 95b6 0d3a f00b 21ba 7943 1cba
000003c0: 666c 42ba cc92 57ba de0f 143a 5308 4cb9
000003d0: bdbf aab9 87b7 0bba a976 b839 ef1a 6a3a
000003e0: 3b3f 1a3b be69 d8b9 004b a0b9 be08 4e39
000003f0: 3bb3 26ba 4eb3 58b9 e87f 7dba 9a4e dcba

base_model.model.bert.encoder.layer.0.attention.self.value.lora_A.weight f4 [16, 384]
-0.007013169 -0.03585254 -0.030404447 0.0057902513 -0.03624013 -0.021079388 0.045355204 -0.010767871
-0.023415381 -0.03734304 0.03159307 -0.013611737 -0.03309492 -0.036066197 -0.039430033 -0.010298861
0.011318798 0.04455137 -0.039535392 0.047283202 0.0013302912 -0.05469628 -0.049757425 -0.037647985
0.0437645 -0.054486096 0.04091804 -0.048928563 0.015414107 -0.024699448 0.016298283 -0.011848611
-0.03056632 -0.048347156 -0.008697709 -0.024657726 0.008915571 -0.02993864 0.018218365 0.023327563
-0.042647406 0.023859736 0.041177377 0.014552223 0.023739975 0.007512579 0.035840195 -0.044006098
-0.0020254727 0.015875278 0.026913255 0.0179338 0.030235864 -0.012638349 -0.014558799 0.006066225
0.05362596 0.03778791 -0.04955789 -0.013296521 0.009748847 -0.017764593 -0.008230588 -0.04254366
-0.045703057 0.007327093 0.040960595 0.025934922 -0.026983144 -0.057254974 -0.02130364 0.0034597802
-0.04731696 0.032410916 -0.02700724 0.035903253 -0.039131932 0.0034612746 -0.053910147 0.045430593
-0.05200859 0.047355127 -0.039860062 0.038793735 -0.0036166278 0.0040782588 0.034644864 0.004187245
-0.02339425 -0.052138142 0.0015109538 -0.004941753 0.054281075 -0.005009214 0.0325827 0.0041578347
-0.017988425 -0.011471779 -0.0059394487 -0.05269466 0.016836038 -0.0078108544 -0.02125092 0.036055125
0.004985881 0.03917906 -0.017905427 0.033983566 -0.030422833 -0.014781939 -0.019774916 -0.0104435785
-0.029077882 -0.056898683 0.031222206 -0.032669667 -0.024412585 0.056026693 -0.01274723 0.049554158
-0.037265915 -0.022588301 0.03264571 -0.01652633 0.036576007 -0.026155202 -0.03537899 0.01458012
-0.03195549 -0.022793993 0.04621456 0.05759399 -0.009995474 -0.02493225 0.03621017 -0.03846674
0.0070294836 -0.014979735 -0.051939625 -0.033693433 -0.039914355 0.0036798432 0.032944467 -0.033601783
0.033608258 0.015463052 0.030438147 0.016764805 -0.044461105 0.0058923196 -0.036903776 -0.053587634
-0.040675674 -0.039139234 0.008393043 0.03061434 0.037632108 -0.027812844 -0.005959263 0.020349754
-0.024071418 0.037239164 0.02873558 -0.034297545 0.026970696 0.00044219097 0.009110488 -0.0071108113
0.018007355 -0.03570745 0.04315904 -0.017069705 -0.02702953 -0.007649814 -0.029480012 -0.05445289
0.015669856 0.016118055 0.0096059535 0.051866375 0.0440457 0.010931275 -0.015798107 -0.029241055
-0.015422355 -0.01497403 -0.03257137 -0.04536441 0.0013800273 0.021167522 0.015512487 -0.0035703017
-0.019783406 -0.033611093 -0.049225017 -0.051902354 0.054084446 0.04051409 0.01875337 0.012867054
-0.0443871 -0.0006951402 0.039937936 -0.021440845 0.034293767 0.015780503 0.03326054 -0.0096460935
-0.028465746 0.02907602 0.051680926 0.016736967 0.035191473 0.0042332513 -0.04266727 -0.016771292
0.026076669 -0.03500541 0.0015206207 -0.040274817 -0.009861075 0.04066367 0.043683894 0.0020656553
0.05068056 -0.0435933 0.04448996 -0.021005984 -0.0043633766 -0.010331823 0.0010360508 -0.039068658
-0.04474473 0.013450051 -0.018079339 0.02182141 -0.015759854 -0.023418766 0.009712154 0.026601601
-0.029096054 -0.04996755 -0.011135739 -0.0017795621 -0.012019256 -0.026787087 -0.029139236 -0.004400869
-0.035188008 -0.021460079 -0.055619832 -0.0342568 -0.034867298 0.021776214 0.015428113 0.053810757
00000000: bace e5bb 1dda 12bd bf12 f9bc 26bc bd3b
00000010: 8870 14bd aeae acbc 61c6 393d b96b 30bc
00000020: 9dd1 bfbc 04f5 18bd bc67 013d c303 5fbc
00000030: 8a8e 07bd 26ba 13bd 6381 21bd 8ebc 28bc
00000040: 7b72 393c 7f7b 363d ddef 21bd 08ac 413d
00000050: 2a5d ae3a 3509 60bd 71ce 4bbd c634 1abd
00000060: 6842 333d d02c 5fbd ad99 273d 5169 48bd
00000070: 738b 7c3c 7f56 cabc fa83 853c ad20 42bc
00000080: 3866 fabc ab07 46bd d680 0ebc 00ff c9bc
00000090: 9d12 123c e141 f5bc ae3e 953c 7219 bf3c
000000a0: 0caf 2ebd 7e75 c33c 9ca9 283d 726c 6e3c
000000b0: 567a c23c 152c f63b 2bcd 123d bd3f 34bd
000000c0: cbbd 04bb df0c 823c 3079 dc3c e8e9 923c
000000d0: 34b1 f73c 1411 4fbc 0788 6ebc 2fc7 c63b
000000e0: e5a6 5b3d 7fc7 1a3d 37fd 4abd a7d9 59bc
000000f0: a1b9 1f3c 0d87 91bc 97d9 06bc 4342 2ebd
00000100: 2133 3bbd 1c18 f03b 4cc6 273d 7975 d43c
00000110: c10b ddbc 3184 6abd f984 aebc 7bbd 623b
00000120: 6ecf 41bd 4fc1 043d 4a3e ddbc 4a0f 133d
00000130: ce48 20bd 8dd6 623b e3d0 5cbd 6e15 3a3d
00000140: f606 55bd 73f7 413d 4e44 23bd 2ee6 1e3d
00000150: f204 6dbb eaa2 853b c6e7 0d3d 2835 893b
00000160: 4ca5 bfbc ce8e 55bd 320b c63a 6eee a1bb
00000170: d555 5e3d 5524 a4bb 7075 053d 723e 883b
00000180: 765c 93bc 21f4 3bbc b59f c2bb 5bd6 57bd
00000190: bbeb 893c 32f2 ffbb 6916 aebc 8aae 133d
000001a0: 9a60 a33b 397a 203d 67ae 92bc 5a32 0b3d
000001b0: 4e39 f9bc f22f 72bc 01ff a1bc 8b1b 2bbc
000001c0: bd34 eebc 980e 69bd b6c5 ff3c a1d0 05bd
000001d0: e7fc c7bc 3f7c 653d c2d9 50bc 4df9 4a3d
000001e0: 25a4 18bd 1a0b b9bc 82b7 053d 3a62 87bc
000001f0: b9d0 153d 6f43 d6bc 8fe9 10bd 75e1 6e3c
00000200: c3e3 02bd 78ba babc 7a4b 3d3d ade7 6b3d
00000210: 0ec4 23bc b83e ccbc 1d51 143d 4d8f 1dbd
00000220: 9557 e63b 906d 75bc a5be 54bd 2002 0abd
00000230: 3c7d 23bd 8629 713b c7f0 063d 06a2 09bd
00000240: d0a8 093d be58 7d3c 6c59 f93c 5856 893c
00000250: d91c 36bd 5c14 c13b 6a28 17bd b57e 5bbd
00000260: 899b 26bd 7650 20bd f982 093c edca fa3c
00000270: 2024 1a3d c3d7 e3bc ec45 c3bb 87b4 a63c
00000280: 6c31 c5bc 1888 183d e166 eb3c 957b 0cbd
00000290: a6f1 dc3c ded5 e739 2844 153c cf01 e9bb
000002a0: 2984 933c fa41 12bd 89c7 303d c4d5 8bbc
000002b0: 086d ddbc 4aab fabb 1180 f1bc fe09 5fbd
000002c0: 125e 803c 030a 843c 4a62 1d3c d671 543d
000002d0: 4469 343d 1719 333c 086b 81bc f08a efbc
000002e0: 0cae 7cbc a255 75bc 8f69 05bd 08d0 39bd
000002f0: 08e2 b43a 8367 ad3c 1628 7e3c b9fb 69bb
00000300: cf10 a2bc c9ab 09bd 2ca0 49bd 9097 54bd
00000310: a787 5d3d 1af2 253d aba0 993c 56d0 523c
00000320: 3fcf 35bd 123a 36ba f695 233d b6a4 afbc
00000330: 9f77 0c3d 1d46 813c 343c 083d a60a 1ebc
00000340: ff30 e9bc d530 ee3c 61af 533d f71b 893c
00000350: ef24 103d 16b7 8a3b e0c3 2ebd f363 89bc
00000360: bd9e d53c d561 0fbd 904f c73a 35f7 24bd
00000370: 5990 21bc f38e 263d e2ed 323d f25f 073b
00000380: 6b96 4f3d e38e 32bd 1b3b 363d be14 acbc
00000390: a8fa 8ebb ce46 29bc 19cc 873a 7506 20bd
000003a0: 4046 37bd 9a5d 5c3c 1f1b 94bc d0c2 b23c
000003b0: cf1a 81bc b6d8 bfbc ba1f 1f3c 9aeb d93c
000003c0: d95a eebc c6aa 4cbd ad72 36bc 3240 e9ba
000003d0: 6aec 44bc 9870 dbbc 68b5 eebc 2a35 90bb
000003e0: 4d21 10bd 0ccd afbc 9fd1 63bd dc50 0cbd
000003f0: 03d1 0ebd 0864 b23c 32c6 7c3c ab68 5c3d

base_model.model.bert.encoder.layer.0.attention.self.value.lora_B.weight f4 [384, 16]
-0.0009744283 0.00013700819 0.00044909373 0.0002844388 -0.00051160273 -0.00072594144 -0.0014460194 -0.0006114249
-4.190171e-05 -0.00015496681 0.0010709394 -4.6670542e-05 0.00047181695 -0.0007027095 0.0013588391 0.0014420602
-0.0022003402 -0.0031467013 0.0038409203 -0.0034705538 0.0039936476 -0.003399458 0.0032161616 0.00283193
-0.0037399153 0.0038921998 -0.0025365213 0.0036739265 0.0024528974 0.0025599273 0.0029342915 0.0056139203
-0.0021215419 -0.006500958 0.0036219284 -0.007070716 0.0064194715 -0.0024047825 0.006212033 0.005099165
-0.0072848275 0.006321365 -0.0044952584 0.007208813 0.0023544123 0.0044685453 0.0024656497 0.004674336
0.000783168 -0.0016295137 -0.00025446498 -0.0016515751 0.0014507362 0.0009970834 0.002093195 0.0013534969
-0.0018075594 0.0010833844 -0.0013483539 0.0017460628 -0.0008957615 0.0011134195 -0.0010730934 0.0014382578
0.0043615424 0.0007483329 -0.0021296388 0.0012926119 -0.00018358094 0.0018294497 -0.000765649 -4.6994293e-05
0.0007600085 -0.000573027 0.0002451928 -0.00073001574 -0.0025362666 -0.00010536689 -0.0036985967 -0.00084954
0.0015447644 0.0001283126 -0.00076711556 0.00024273514 0.0012209284 0.00060470006 0.000665663 0.00081177906
-4.4463177e-05 0.0009749393 -0.0012377361 0.00015581545 -0.0011871393 0.0011669364 -0.0010021641 0.00041314482
0.0030944159 0.003148546 -0.0035488722 0.003513763 -0.003957267 0.003152706 -0.0031879202 -0.0031249523
0.0036577675 -0.0038590508 0.0028565596 -0.0036418675 -0.002161533 -0.002883313 -0.0035061894 -0.005266487
0.0026583872 0.003474856 -0.0027780093 0.0036927303 -0.0026565718 0.0026930915 -0.001603979 -0.0031973883
0.003657184 -0.0027224305 0.0016037788 -0.0032352398 -0.0026345674 -0.0021462126 -0.0027726705 -0.0027253528
-0.0022958382 -0.0010181736 0.001855842 -0.0009036054 0.00025216295 -0.0018487143 0.0002780753 0.00024699135
-0.0011109046 0.00014213525 0.00015922723 0.0010812157 0.0022476092 -9.324619e-05 0.0021164315 0.0015168699
-1.7910497e-05 0.0015320502 -0.00068338664 0.0015873348 -0.0009149468 0.0010891733 -0.0014024377 -0.0013851046
0.0013057827 -0.0011079543 0.0016916702 -0.001249554 -0.0011306035 -0.0015032867 -1.3031482e-06 0.0008878144
-0.0016348845 0.0011048432 0.001763071 0.0011785176 -0.0025478 -0.0016695631 -0.0022467796 -0.0020947743
0.0015165863 -0.0021813016 0.002196121 -0.0015130796 0.0019336964 -0.0020943175 0.0013068382 -0.0006618584
-5.281389e-05 0.0022507787 -0.0017356956 0.0023435908 -0.003197288 0.0017841824 -0.0029391642 -0.0027878247
0.0025674885 -0.0029736552 0.0027239833 -0.0025425316 -0.0010842032 -0.0026758478 -0.0011711757 -0.0032866092
-0.003138093 -0.00198138 0.002906633 -0.0024589694 0.0025500157 -0.0022837599 0.0029251846 0.001674595
-0.0025588733 0.002304221 -0.0016711197 0.0025301808 0.0026134327 0.0015548483 0.002875861 0.0032584413
-0.004019569 -0.0046770317 0.004809685 -0.0064585186 0.0068380716 -0.0036749463 0.006863383 0.0056552417
-0.0059115104 0.006317581 -0.0051151416 0.006240656 0.0034801639 0.0049293707 0.0043593557 0.0057983305
0.0019598228 0.0028492617 -0.0030308873 0.0031028076 -0.0024317508 0.0022869576 -0.002650786 -0.0023485236
0.0028557617 -0.0025035003 0.002305828 -0.0028417415 -0.0024235898 -0.0022574044 -0.0015123467 -0.002258295
0.0031375582 0.0032445027 -0.0027768107 0.0037528698 -0.0039720275 0.002839266 -0.0034114223 -0.0031587137
0.0038707755 -0.0038356842 0.002940517 -0.0037886612 -0.0026566358 -0.002814735 -0.0037105118 -0.0037792583
00000000: c770 7fba dba9 0f39 5774 eb39 bb20 9539
00000010: 141d 06ba 1b4d 3eba 5c88 bdba 0848 20ba
00000020: 9ebf 2fb8 967e 22b9 c35e 8c3a 1dc0 43b8
00000030: 335e f739 0936 38ba 131b b23a 8303 bd3a
00000040: 9533 10bb e338 4ebb f3b7 7b3b 3b72 63bb
00000050: 25dd 823b 71c9 5ebb 3dc6 523b e797 393b
00000060: 5e19 75bb 4714 7f3b c43b 26bb 42c6 703b
00000070: cac0 203b 74c4 273b 3e4d 403b faf4 b73b
00000080: 9109 0bbb fd05 d5bb e05d 6d3b 77b1 e7bb
00000090: 6e5a d23b 8e99 1dbb 4f8e cb3b e516 a73b
000000a0: 90b5 eebb 7423 cf3b f64c 93bb e837 ec3b
000000b0: 7c4c 1a3b e06c 923b bd96 213b 2c2b 993b
000000c0: 844d 4d3a 6895 d5ba b669 85b9 aa79 d8ba
000000d0: a126 be3a 91b0 823a fc2d 093b d267 b13a
000000e0: a1eb ecba 5900 8e3a 40bb b0ba 25dc e43a
000000f0: 89d1 6aba 29f0 913a 0aa7 8cba ec83 bc3a
00000100: 45eb 8e3b c52b 443a 6991 0bbb dc6c a93a
00000110: a27f 40b9 25ca ef3a d6b5 48ba bd1b 45b8
00000120: 4f3b 473a 3137 16ba 388d 8039 875e 3fba
00000130: 7e37 26bb 6bf8 dcb8 2864 72bb aab3 5eba
00000140: b179 ca3a a78b 0639 4118 49ba b886 7e39
00000150: 8f07 a03a bc84 1e3a e37f 2e3a 92cd 543a
00000160: f97d 3ab8 1293 7f3a 883b a2ba 6462 2339
00000170: c999 9bba e3f3 983a 0c5b 83ba 5c9b d839
00000180: afcb 4a3b d657 4e3b 3294 68bb 2947 663b
00000190: f6ab 81bb a19d 4e3b 6dec 50bb 00cc 4cbb
000001a0: 28b7 6f3b 21e8 7cbb 1e35 3b3b 66ac 6ebb
000001b0: 82a8 0dbb f7f5 3cbb 19c8 65bb 7f92 acbb
000001c0: 5638 2e3b 69ba 633b 430f 36bb bc01 723b
000001d0: e119 2ebb 947e 303b 9b3c d2ba 468b 51bb
000001e0: 5ead 6f3b ce6a 32bb e335 d23a 5106 54bb
000001f0: b5a8 2cbb 79a7 0cbb b1b5 35bb d59b 32bb
00000200: c675 16bb 3d74 85ba b93f f33a efdf 6cba
00000210: bd34 8439 8f50 f2ba a3ca 9139 9e7e 8139
00000220: c69b 91ba 240a 1539 3cf6 2639 94b7 8d3a
00000230: a04c 133b 2b8d c3b8 d4b3 0a3b b5d1 c63a
00000240: 803e 96b7 13cf c83a 4d25 33ba 1e0e d03a
00000250: 0ad9 6fba 97c2 8e3a 00d2 b7ba 668c b5ba
00000260: cc26 ab3a c738 91ba 08bb dd3a 13c8 a3ba
00000270: c230 94ba ee09 c5ba d5e7 aeb5 37bc 683a
00000280: 9f49 d6ba 63d0 903a d916 e73a 7d78 9a3a
00000290: fef8 26bb 3ed5 daba b53e 13bb 7b48 09bb
000002a0: 31c8 c63a 2bf4 0ebb ccec 0f3b 8752 c6ba
000002b0: 1674 fd3a d140 09bb 374a ab3a 9180 2dba
000002c0: 7c84 5db8 cd81 133b 4880 e3ba ee96 193b
000002d0: 9789 51bb 3adb e93a fe9e 40bb f0b3 36bb
000002e0: 4f43 283b a8e1 42bb db84 323b 9aa0 26bb
000002f0: d31b 8eba 475d 2fbb 2382 99ba 2764 57bb
00000300: 77a8 4dbb 0ada 01bb 367d 3e3b a926 21bb
00000310: 2a1e 273b 22ab 15bb 74b4 3f3b 167e db3a
00000320: c5b2 27bb 6a02 173b 7909 dbba 64d1 253b
00000330: 2046 2b3b 0dcc cb3a f178 3c3b 938b 553b
00000340: 97b6 83bb c941 99bb 909a 9d3b fba1 d3bb
00000350: e711 e03b 5ed7 70bb 3be6 e03b 9b4f b93b
00000360: 58b5 c1bb b603 cf3b eb9c a7bb 6b7e cc3b
00000370: 7613 643b 8f86 a13b edd8 8e3b ecff bd3b
00000380: 5f70 003b aeba 3a3b daa1 46bb 7958 4b3b
00000390: 025e 1fbb c8e0 153b cfb8 2dbb b0e9 19bb
000003a0: bb27 3b3b c411 24bb 601d 173b 833c 3abb
000003b0: 17d5 1ebb f6f0 13bb ef39 c6ba e7ff 13bb
000003c0: 7e9f 4d3b b9a1 543b 27fb 35bb b5f2 753b
000003d0: c827 82bb fb12 3a3b 2b92 5fbb 6c02 4fbb
000003e0: d6ac 7d3b 1a60 7bbb b0b5 403b 304b 78bb
000003f0: f41a 2ebb 6b77 38bb 0f2c 73bb 6fad 77bb

base_model.model.bert.encoder.layer.1.attention.self.query.lora_A.weight f4 [16, 384]
0.040269565 -0.04692528 -0.028664127 0.0032580923 0.045934927 0.02288663 0.026805073 0.047732584
-0.0027103196 -0.007529167 0.042310074 -0.028544521 0.036450386 0.015362161 0.003879419 0.023439985
-0.03706393 0.02979452 0.019482892 -0.007072515 -0.026771817 -0.04440624 -0.053672537 0.02484995
-0.043702897 0.019021828 -0.019492079 0.028087419 0.02142773 0.012073123 -0.047996063 -0.03788374
-0.04624886 -0.050293434 -0.029945105 0.025533976 0.027924282 -0.002487458 0.01658431 0.005632566
-0.018921 -0.042759907 0.03446323 -0.04452735 -0.023379797 -0.029156895 -0.005064989 0.023714757
-0.018391337 -0.0025700484 -0.003208573 -0.048118677 0.0047024544 0.04991163 -0.036546424 0.039778005
-0.04668989 -0.03173301 0.021431338 0.005426546 0.025564771 -0.013410278 -0.016839746 0.013286032
0.010345562 0.017292341 -0.008108591 0.0068860124 0.0012831305 -0.018286338 0.04800392 -0.0067449217
-0.009423811 -0.012283008 0.0063822092 -0.05038395 0.047935627 -0.030105894 0.027436638 0.03877035
0.035288133 0.015300125 0.048130173 0.03393412 -0.037292577 -0.011080023 0.021303091 0.011537365
-0.032331485 0.0022942757 -0.014143083 0.0057242434 0.024834512 -0.042440042 -0.032329343 -0.018778425
0.044596173 -0.021095963 0.041933738 -0.026405493 -0.00036969737 0.0075411024 -0.046378534 0.023319349
-0.04194087 0.03218906 -0.023951191 -0.024752587 0.026557863 -0.038247503 -0.046546113 0.047299843
0.011288797 -0.048172195 0.050426494 0.017956892 0.043363016 -0.0073649916 0.004253618 -0.013674628
-0.034729987 -0.02231255 0.013399594 0.029228238 -0.0038748758 0.039128643 0.020831758 0.023413172
-0.009145682 -0.036549784 0.03292788 0.026151953 -0.00790386 -0.028019777 0.023225112 0.036779687
0.01299471 -0.03682656 -0.0024797763 -0.041864116 -0.05339823 0.0001076225 0.048628945 -0.039116938
-0.024274562 0.045413513 0.020829719 -0.022092784 0.04860876 -0.029108472 -0.013240408 0.0074765254
0.005860315 -0.036132272 -0.0486585 0.03693563 -0.0431438 0.0260538 -0.038399376 -0.039774813
0.045191932 -0.030033002 -0.039362974 -0.048568428 -0.043117147 -0.036206093 0.044096258 0.0049020755
0.0011986027 0.028343186 -0.00024953941 -0.027568702 -0.035767186 0.0029444175 0.011738619 -0.025928684
-0.010593644 0.0034229797 -0.043885224 -0.021393888 0.012157118 0.02093395 0.03700934 0.012469928
-0.048666567 -0.028682834 -0.042821903 -0.015035386 -0.038491003 0.041690595 -0.043997206 -0.042101435
0.0022746285 0.03304469 0.021523554 0.031054424 0.01031797 -0.008657029 -0.016852396 -0.038845528
-0.017929453 0.043981474 0.034414444 -0.041375104 -0.009614351 -0.03397468 0.021525117 0.025201248
-0.033753365 0.015013522 0.0062306025 -0.028879808 0.013827915 0.011595492 -0.010009646 -0.008817459
0.019197725 0.032241963 0.013974467 0.051664248 0.04013828 0.020566404 -0.0031613368 -0.037896443
-0.029721158 0.017480278 -0.030724825 -0.037532404 0.03806076 -0.010508869 -0.032832142 0.04170131
0.04161658 0.012256132 0.024251815 0.025936978 0.04455461 -0.0138629535 0.01922245 0.017093858
0.05230906 -0.031368196 0.02177151 -0.02326438 -0.0031529167 -0.015820054 0.008618219 0.04606314
0.045041606 0.026765486 0.03852811 -0.0501394 0.05019643 0.010982935 0.03142602 0.010161436
00000000: b3f1 243d b934 40bd 08d1 eabc b885 553b
00000010: 4326 3c3d be7c bb3c 5096 db3c 3e83 433d
00000020: 9e9f 31bb 3bb7 f6bb 544d 2d3d 33d6 e9bc
00000030: 004d 153d 93b1 7b3c da3d 7e3b 3605 c03c
00000040: 59d0 17bd a313 f43c 969a 9f3c 8ec0 e7bb
00000050: 9250 dbbc 51e3 35bd bcd7 5bbd 1f92 cb3c
00000060: cf01 33bd aad3 9b3c daad 9fbc 9617 e63c
00000070: 3589 af3c 59ce 453c 8597 44bd fb2b 1bbd
00000080: 726f 3dbd 7d00 4ebd 704f f5bc a12c d13c
00000090: 77c1 e43c 9f04 23bb d2db 873c 6391 b83b
000000a0: 3700 9bbc 0325 2fbd 5129 0d3d 5062 36bd
000000b0: fd86 bfbc 71da eebc 35f8 a5bb 7345 c23c
000000c0: 6ea9 96bc 426e 28bb ec46 52bb 1718 45bd
000000d0: 0c17 9a3b 2370 4c3d b4b1 15bd 43ee 223d
000000e0: e63d 3fbd 79fa 01bd c690 af3c 2bd1 b13b
000000f0: 366d d13c c8b6 5bbc 82f3 89bc a8ad 593c
00000100: 6f80 293c aba8 8d3c e5d9 04bc 0fa4 e13b
00000110: b72e a83a 3bcd 95bc c29f 443d 8104 ddbb
00000120: 5466 1abc ab3e 49bc da21 d13b 675f 4ebd
00000130: 2658 443d a3a0 f6bc cdc2 e03c a9cd 1e3d
00000140: 4a8a 103d 60ad 7a3c 2524 453d 81fe 0a3d
00000150: 1ac0 18bd fc88 35bc d283 ae3c 3707 3d3c
00000160: 056e 04bd 8f5b 163b 64b8 67bc 6f92 bb3b
00000170: bf71 cb3c 9cd5 2dbd c66b 04bd 36d5 99bc
00000180: 7aaa 363d 71d1 acbc b6c2 2b3d 5550 d8bc
00000190: f1d3 c1b9 5a1b f73b 6bf7 3dbd 3808 bf3c
000001a0: 31ca 2bbd add8 033d 4a35 c4bc f0c5 cabc
000001b0: e08f d93c 6aa9 1cbd 23a7 3ebd 7bbd 413d
000001c0: a5f4 383c 3550 45bd 038c 4e3d 551a 933c
000001d0: 6b9d 313d 0756 f1bb ef61 8b3b 8c0b 60bc
000001e0: 0841 0ebd cfc8 b6bc f989 5b3c 0f70 ef3c
000001f0: a1f1 7dbb 5b45 203d 5da7 aa3c fbcc bf3c
00000200: c5d7 15bc 3ab5 15bd 62df 063d 9f3c d63c
00000210: 317f 01bc bb89 e5bc 9742 be3c 4ca6 163d
00000220: c4e7 543c 72d7 16bd be83 22bb b579 2bbd
00000230: 1ab8 5abd 64b3 e138 252f 473d 1539 20bd
00000240: 72db c6bc 8503 3a3d 16a3 aa3c edfb b4bc
00000250: fb19 473d e474 eebc 4cee 58bc a4fd f43b
00000260: e307 c03b 6fff 13bd 234e 47bd d149 173d
00000270: 8eb7 30bd c76e d53c aa48 1dbd eaea 22bd
00000280: 2d1b 393d c507 f6bc 123b 21bd b0ef 46bd
00000290: 9b9b 30bd d74c 14bd 479e 343d 97a1 a03b
000002a0: 6f1a 9d3a f82f e83c 9dd4 82b9 c2d7 e1bc
000002b0: 9d80 12bd 21f7 403b 5653 403c 6468 d4bc
000002c0: f790 2dbc 1254 603b fec0 33bd 3c42 afbc
000002d0: a62e 473c ad7d ab3c 1b97 173d ab4e 4c3c
000002e0: 9856 47bd 43f8 eabc 0566 2fbd fb56 76bc
000002f0: bea8 1dbd c2c3 2a3d 6a36 34bd 8e72 2cbd
00000300: ef11 153b de59 073d 2a52 b03c d965 fe3c
00000310: b40c 293c 36d6 0dbc 090e 8abc 7d1c 1fbd
00000320: cae0 92bc eb25 343d 29f6 0c3d f178 29bd
00000330: 8385 1dbc 0929 0bbd 7155 b03c d972 ce3c
00000340: f840 0abd 46fb 753c 152a cc3b 5995 ecbc
00000350: 7b8e 623c 05fb 3d3c 80ff 23bc 1b77 10bc
00000360: 8c44 9d3c 2610 043d 2af5 643c e49d 533d
00000370: 0968 243d e07a a83c 6e2e 4fbb 4d39 1bbd
00000380: c979 f3bc cd32 8f3c a1b2 fbbc 94bb 19bd
00000390: 99e5 1b3d 642d 2cbc ff7a 06bd fece 2a3d
000003a0: 2676 2a3d f2cd 483c beab c63c c979 d43c
000003b0: e57e 363d 7121 63bc 6678 9d3c 6b08 8c3c
000003c0: 0642 563d f07b 00bd 2a5a b23c f194 bebc
000003d0: 2aa1 4ebb 0f99 81bc 6e33 0d3c b4ac 3c3d
000003e0: 8c7d 383d 4b43 db3c a7cf 1d3d f95e 4dbd
000003f0: c69a 4d3d c5f1 333c 92b8 003d 277c 263c

base_model.model.bert.encoder.layer.1.attention.self.query.lora_B.weight f4 [384, 16]
0.002336456 -0.004399801 0.0027482652 -0.0017152402 0.0036188462 -0.0019589602 -0.005269293 -0.0009576579
0.005007103 0.006112078 -0.004252428 -0.004282163 0.004319238 0.0034492323 0.002975557 -0.0039342507
0.0021089553 -0.0021065073 0.0015330551 -0.0013052466 0.0020224447 -0.0018542237 -0.0020653377 -0.0016024505
0.0023934308 0.002291391 -0.0022095363 -0.0018149619 0.0023182598 0.0021320977 0.0025517375 -0.0020927265
0.000385006 0.0002752669 0.0023246878 0.00019426312 0.00044934324 -0.0019174102 -9.346036e-05 0.002326937
0.00019942032 -0.00017791199 -0.00094817294 0.000557967 0.0006546158 -0.00016438283 -0.00021089426 0.00036999246
0.0026361055 -0.004251061 0.0017618913 -0.0023660392 0.0009256068 -0.0010336406 -0.003313851 -0.00033768578
0.0045375954 0.0020366642 -0.0020514096 -0.0016319271 0.0023316443 0.0032503952 0.0039651627 -0.0030806973
0.0012698517 -0.0021839878 0.0017171869 -0.0023272582 0.0011485209 -0.0013395488 -0.0016998999 0.0019405903
0.0018031542 0.0016784401 -0.0016080759 -0.0019002293 0.0011810809 0.0020024527 0.0014367516 -0.0022337607
0.002423379 -0.0039925682 0.0016299441 -0.0024869896 0.00018093473 -0.0008036772 -0.0030342042 -9.862374e-05
0.004279718 0.0012659347 -0.0017337301 -0.0011729155 0.001968718 0.0028357166 0.0036495489 -0.0021293748
0.0026589597 -0.0026070536 0.0014355023 -0.0018746092 0.0005134683 -0.001032661 -0.0028644078 -0.0008938807
0.003550121 0.0013191954 -0.0015035647 -0.0013616164 0.0024425287 0.0024331512 0.0028501519 -0.0019573432
0.0017687296 -0.004488412 0.0015396762 -0.0020796305 0.0012882127 -0.0011146945 -0.0041196994 -0.0007018592
0.004476934 0.0032184268 -0.0022142548 -0.003244897 0.0027877332 0.0036920642 0.003399825 -0.0038931756
0.0012022525 -0.001463503 0.0024958318 -0.001236619 0.0014266403 -0.0016276668 -0.0013715089 0.0019588745
0.0024273861 0.001790374 -0.001783789 -0.0005770598 0.0022933255 0.00040387342 0.002750579 -0.00062718056
-0.0021178124 -0.000215637 0.0012638649 0.0009729836 0.00092671975 -0.0018134296 -0.00036781823 0.0036489961
-0.00018250917 0.0007206291 -0.00107435 -0.0012588117 0.0005526186 -0.00040178403 -0.0013380443 -0.00010856961
-0.00274751 0.0011261469 -0.0015821896 0.0030423524 0.000428736 0.0002800837 0.0012448546 7.58321e-05
-0.001699136 -2.1063684e-05 0.0008075258 0.0007725235 -0.0011330687 -0.0015465276 -0.0036591764 0.0010376613
-0.0017577497 0.0023411817 -0.0023350683 0.0007924785 -0.0024802508 0.0016911863 0.0024091352 0.00050618005
-0.0025512846 -0.002951043 0.0030004473 0.001621084 -0.0025769703 -0.0017107587 -0.0019288672 0.0021692216
-0.0007340613 0.00079451385 -0.0025341883 0.00035561167 -0.0015699702 0.0017747356 0.0012816933 -0.0028938076
-0.0021910863 -0.0010180156 0.0020418065 -0.0009125126 -0.0021519451 0.0016699111 -0.0025083846 -0.00018034261
-0.0027733932 0.003625192 -0.00462328 0.0016059862 -0.0040740864 0.0031017966 0.003760986 0.0011793912
-0.0040078447 -0.0043272637 0.004772842 0.0035989555 -0.004257761 -0.0032218485 -0.0033361684 0.003351817
0.0032057767 -0.0021775311 0.0021088296 -0.0035002672 0.0007784268 -0.00040861918 -0.0015756751 -0.00059946184
0.002458439 0.0016672406 -0.0014904722 -0.002539878 0.0018104347 0.0029764425 0.003346741 -0.0019495072
-0.00033021136 0.0006469696 -0.0028075112 -5.446994e-05 -0.001159535 0.0025095071 0.0008315784 -0.0024571612
-0.0008974887 -0.00096785976 0.0019111123 0.00059358595 -0.0015755072 0.00019274665 -0.00019661541 0.00022982279
00000000: 3a1f 193b 352c 90bb 3d1c 343b e9d1 e0ba
00000010: 2a2a 6d3b e661 00bb 09aa acbb 550b 7bba
00000020: a012 a43b d447 c83b f457 8bbb 6351 8cbb
00000030: 6588 8d3b 840c 623b 9001 433b e3ea 80bb
00000040: 6636 0a3b 540d 0abb cbf0 c83a cf14 abba
00000050: fe8a 043b 6c09 f3ba 9e5a 07bb 5109 d2ba
00000060: 1bdb 1c3b 292b 163b decd 10bb 04e4 edba
00000070: f2ed 173b aaba 0b3b 0d3b 273b 2026 09bb
00000080: a1da c939 b351 9039 ca59 183b 1cb3 4b39
00000090: d495 eb39 9c51 fbba 2600 c4b8 867f 183b
000000a0: 7c1b 5139 e38d 3ab9 cf8e 78ba 8844 123a
000000b0: 869a 2b3a 2e5e 2cb9 7f23 5db9 8cfb c139
000000c0: 83c2 2c3b 7c4c 8bbb 43ef e63a 8d0f 1bbb
000000d0: 6ca4 723a 397b 87ba 322d 59bb 6b0b b1b9
000000e0: 1cb0 943b 8e79 053b f170 06bb 63e6 d5ba
000000f0: 80ce 183b 9504 553b 32ee 813b 86e5 49bb
00000100: 2771 a63a 3c21 0fbb 3b13 e13a ea84 18bb
00000110: f789 963a cd93 afba 2dcf deba 685b fe3a
00000120: d157 ec3a 1bff db3a 13c6 d2ba 1d11 f9ba
00000130: 80ce 9a3a 953b 033b 6251 bc3a 4964 12bb
00000140: 8ed1 1e3b 17d4 82bb d9a3 d53a c3fc 22bb
00000150: 4cb9 3d39 ddad 52ba 80d9 46bb 38d4 ceb8
00000160: e03c 8c3b b8ed a53a 543e e3ba 83bc 99ba
00000170: 9b05 013b 6ed7 393b 452d 6f3b fb8c 0bbb
00000180: f141 2e3b 1adb 2abb 7727 bc3a 72b5 f5ba
00000190: 469a 063a 5a5a 87ba cab8 3bbb 5153 6aba
000001a0: 26a9 683b dae8 ac3a 4213 c5ba 4478 b2ba
000001b0: d512 203b 8175 1f3b 9dc9 3a3b c546 00bb
000001c0: b8d4 e73a 8713 93bb f6ce c93a 694a 08bb
000001d0: 3fd9 a83a f11a 92ba 8bfe 86bb f9fc 37ba
000001e0: 3fb3 923b 3eec 523b 081d 11bb 56a8 54bb
000001f0: 67b2 363b 8ff6 713b 99cf 5e3b a624 7fbb
00000200: e694 9d3a 03d3 bfba 1c91 233b 0c16 a2ba
00000210: 1bfe ba3a 6f57 d5ba 34c4 b3ba 7660 003b
00000220: c814 1f3b fcaa ea3a 07ce e9ba d445 17ba
00000230: 9e4b 163b f9be d339 0f43 343b 6069 24ba
00000240: ffca 0abb 9e1c 62b9 45a8 a53a d30f 7f3a
00000250: 1cef 723a 9ab0 edba bad7 c0b9 ff23 6f3b
00000260: ef5f 3fb9 9ae8 3c3a 34d1 8cba b6fe a4ba
00000270: 9bdd 103a 8aa6 d2b9 5161 afba deaf e3b8
00000280: 920f 34bb 389b 933a 7961 cfba 3462 473b
00000290: f9c7 e039 33d8 9239 642a a33a 0c08 9f38
000002a0: 8bb5 deba ebb1 b0b7 24b0 533a 2d83 4a3a
000002b0: 7a83 94ba dbb4 caba cbce 6fbb 2302 883a
000002c0: 4b64 e6ba 836e 193b f207 19bb 55be 4f3a
000002d0: b48b 22bb ccaa dd3a 95e2 1d3b 2bb1 043a
000002e0: 7433 27bb 4966 41bb 27a3 443b 8e7a d43a
000002f0: 63e2 28bb 893b e0ba 0bd2 fcba 8029 0e3b
00000300: 056e 40ba ec46 503a a014 26bb 6471 ba39
00000310: 75c7 cdba 3f9e e83a 7efe a73a 09a6 3dbb
00000320: 5498 0fbb ef6e 85ba d4cf 053b af35 6fba
00000330: a607 0dbb ebe0 da3a b663 24bb 5a1a 3db9
00000340: d1c1 35bb a194 6d3b e27e 97bb f47f d23a
00000350: ea7f 85bb 8347 4b3b e07a 763b cd95 9a3a
00000360: 3d54 83bb b8cb 8dbb 8065 9c3b 74dc 6b3b
00000370: b084 8bbb a625 53bb 9ea3 5abb 28aa 5b3b
00000380: 0218 523b e9b4 0ebb 4a34 0a3b bd64 65bb
00000390: 570f 4c3a f03b d6b9 e286 ceba 3425 1dba
000003a0: c31d 213b 5087 da3a f35b c3ba 1574 26bb
000003b0: 1c4c ed3a 6b10 433b ff54 5b3b 9b86 ffba
000003c0: 3820 adb9 6599 293a 39fe 37bb a776 64b8
000003d0: 8afb 97ba 8b76 243b 48fe 593a 5308 21bb
000003e0: 7245 6bba f8b7 7dba 4a7e fa3a e19a 1b3a
000003f0: 4081 ceba 091c 4a39 8c2a 4eb9 96fc 7039

base_model.model.bert.encoder.layer.1.attention.self.value.lora_A.weight f4 [16, 384]
0.009872744 -0.04566974 -0.0084771 0.03431 -0.012148956 0.033938784 0.0035012418 -0.034649424
0.018325942 0.03635186 -0.05001729 0.018798934 -0.01757684 -0.027578028 0.026088154 -0.029729055
-0.039604638 0.04214114 -0.018782374 -0.054536264 -0.009170253 -0.050260693 0.038237747 -0.019729225
-0.018846821 -0.006305981 0.033376966 -0.030295433 -0.028260384 -0.0016298919 -0.039283115 -0.015413948
0.00929529 -0.019955892 -0.002305042 -0.0011242079 -0.039679363 -0.045627646 -0.023436772 -0.008436054
-0.022798007 -0.033579808 0.0004966509 0.04802737 0.041500058 0.036962193 -0.03933063 0.02080953
0.027702386 -0.008293607 -0.0013917404 -0.0039119297 0.022607608 0.01058075 0.013951488 -0.04241475
-0.018372757 -0.035382595 0.017885717 0.04586187 -0.0053365096 -0.048866566 0.021743475 -0.0045600105
0.027077219 0.029630829 -0.03501681 0.033586565 0.021370327 0.054657895 -0.04582167 -0.03924423
0.02612367 -0.016336484 -0.053781692 0.01048747 0.002700284 -0.009742257 -0.03197908 -0.0049212994
0.04013847 -0.04997473 0.013887315 -0.04108383 -0.026351219 -0.011094416 0.00072005525 -0.030037208
0.02156602 -0.018809231 0.03760584 0.0039422363 0.006880334 0.022520602 0.049216185 0.012279668
0.020318618 -0.014994286 0.035102624 -0.027151156 0.0295836 -0.012855306 -0.0002780761 -0.014651856
-0.036188032 0.008876567 0.01786822 -0.008339822 -0.03273657 0.03543721 0.041447822 0.014923819
0.027822481 0.011360045 0.015578264 0.049271166 -0.013057001 0.029755315 0.029556537 8.199567e-05
-0.019198185 0.032760266 -0.032543182 0.034855954 -0.014837184 0.0156244775 0.04238157 0.0051571834
-0.050279517 -0.007537014 -0.01219195 0.0028726032 -0.018252024 -0.0018302894 -0.029182024 0.030500976
-0.0018128302 -0.006037195 0.02335641 -0.04895085 0.016694328 0.0014837676 -0.026886955 -0.014459546
-0.017428838 -0.009943526 0.028732292 -0.039940696 -0.020966088 -0.040106755 0.019572737 0.0070474204
-0.027140629 -0.023286888 0.014399705 -0.014510408 -0.011393529 0.05215741 0.05050574 -0.013221432
0.010077924 -0.004075603 -0.009134053 0.029809564 -0.027562782 -0.017618045 -0.005152252 0.038968135
0.0024185618 0.01821423 -0.036901396 -0.0289381 -0.019423595 -0.01467856 0.007165984 -0.0286542
-0.052606132 0.007297404 0.041908395 0.013428645 -0.016896954 -0.01393167 -0.00797107 0.011916095
0.0044201757 0.01956132 0.008584272 -0.0398258 0.018416205 -0.04020945 -0.04618302 0.009694656
-0.006009071 0.028660432 -0.0074493014 -0.03210964 -0.02848528 0.04076697 0.027323725 0.039277233
-0.03727639 -0.00546507 0.01660608 -0.009609281 0.03253114 0.006574581 -0.05536219 -0.039421987
0.039897874 -0.0022184236 0.023690725 0.032641023 0.034108438 0.037361875 -0.025427205 -0.047138702
0.040344473 -0.042783424 -0.0438535 0.048672136 -0.02711108 -0.038192566 -0.015442623 -0.042650484
-0.03243779 0.030638086 0.03892472 0.047878675 0.03746475 0.033658393 -0.010136773 -0.0127683515
0.043094493 -0.017453892 0.050489184 0.04218612 0.03046689 0.042027883 0.00380401 -0.013415852
0.03435264 0.044239614 0.012867347 0.011395067 0.03829379 0.049132485 -0.0024420929 -0.034902643
-0.0075127925 -0.021450622 -0.02334506 0.01705303 0.014436418 -0.02485588 -0.037346877 0.028315973
00000000: 4ac1 213c 3110 3bbd 89e3 0abc a488 0c3d
00000010: 6a0c 47bc 6503 0b3d 1775 653b 8eec 0dbd
00000020: 4920 963c b0e5 143d eede 4cbd 3900 9a3c
00000030: 4efd 8fbc 51eb e1bc d3b6 d53c 598a f3bc
00000040: 7938 22bd 309c 2c3d 7edd 99bc 6b61 5fbd
00000050: d43e 16bc 28de 4dbd 2f9f 1c3d 2f9f a1bc
00000060: a664 9abc 67a2 cebb 49b6 083d 212e f8bc
00000070: 5282 e7bc 19a2 d5ba 55e7 20bd c98a 7cbc
00000080: 464b 183c 8a7a a3bc 3010 17bb 285a 93ba
00000090: d486 22bd 0ee4 3abd 79fe bfbc 6037 0abc
000000a0: e3c2 babc fb8a 09bd ad31 023a 59b8 443d
000000b0: f7fb 293d ab65 173d 2819 21bd bf78 aa3c
000000c0: 1df0 e23c e9e1 07bc 0f6b b6ba a52f 80bb
000000d0: 9733 b93c e25a 2d3c c894 643c 17bb 2dbd
000000e0: 7782 96bc 57ed 10bd 1185 923c a8d9 3b3d
000000f0: e3dd aebb 4f28 48bd 5f1f b23c 246c 95bb
00000100: 0bd1 dd3c 5abc f23c c96d 0fbd 1192 093d
00000110: d310 af3c f5e0 5f3d 81af 3bbd 8fbe 20bd
00000120: 4f01 d63c 17d4 85bc 314a 5cbd a3d3 2b3c
00000130: 3ff7 303b fd9d 1fbc 7ffc 02bd da42 a1bb
00000140: 3c68 243d 4db2 4cbd 9f87 633c 8547 28bd
00000150: 83de d7bc 5ac5 35bc 17c2 3c3a 9710 f6bc
00000160: 39ab b03c d115 9abc 9508 1a3d e02d 813b
00000170: 6d74 e13b 207d b83c e996 493d a930 493c
00000180: 3b73 a63c 98aa 75bc c5c7 0f3d 1a6c debc
00000190: 4e59 f23c 109f 52bc beca 91b9 570e 70bc
000001a0: e739 14bd 056f 113c 6060 923c c0a3 08bc
000001b0: c816 06bd 9c26 113d 31c5 293d 0983 743c
000001c0: f9eb e33c 7b1f 3a3c fa3b 7f3c 90d0 493d
000001d0: 08ed 55bc 6bc1 f33c 8d20 f23c 17f5 ab38
000001e0: 8345 9dbc a12f 063d 004c 05bd 1ec5 0e3d
000001f0: a917 73bc cffd 7f3c 4c98 2d3d 97fd a83b
00000200: e5f1 4dbd 0ef9 f6bb bfc0 47bc 4942 3c3b
00000210: 4585 95bc 52e6 efba 240f efbc 2fdd f93c
00000220: 7d9c edba aad3 c5bb f155 bf3c b080 48bd
00000230: 8bc2 883c fb7a c23a 0842 dcbc bbe7 6cbc
00000240: ecc6 8ebc 2cea 22bc fc5f eb3c db98 23bd
00000250: 13c1 abbc fb46 24bd 0157 a03c 0cee e63b
00000260: 0656 debc 25c4 bebc beec 6b3c 10bd 6dbc
00000270: edab 3abc 02a3 553d 1bdf 4e3d b59e 58bc
00000280: e01d 253c a38c 85bb ffa6 15bc 3033 f43c
00000290: 58cb e1bc b853 90bc 39d4 a8bb 0d9d 1f3d
000002a0: bc80 1e3b 0236 953c eb25 17bd 980f edbc
000002b0: 3b1e 9fbc 587e 70bc a1d0 ea3b 36bc eabc
000002c0: 8779 57bd 101f ef3b 23a8 2b3d d203 5c3c
000002d0: 7b6b 8abc a941 64bc 1799 02bc ba3b 433c
000002e0: 1fd7 903b 103f a03c 0ca5 0c3c 6120 23bd
000002f0: 95dd 963c aab2 24bd 682a 3dbd 56d6 1e3c
00000300: bee7 c4bb 48c9 ea3c 4519 f4bb 6685 03bd
00000310: f659 e9bc 44fb 263d 01d6 df3c 2ae1 203d
00000320: 21af 18bd 5414 b3bb 7909 883c 3f70 1dbc
00000330: 5f3f 053d 956f d73b 77c3 62bd f378 21bd
00000340: f46b 233d f962 11bb 0d13 c23c 98b2 053d
00000350: 4ab5 0b3d c408 193d b74c d0bc 8314 41bd
00000360: 3f40 253d ac3d 2fbd ba9f 33bd 6f5c 473d
00000370: 0e18 debc cf6f 1cbd 0e03 7dbc 46b2 2ebd
00000380: 7ddd 04bd b9fc fa3c 876f 1f3d 6e1c 443d
00000390: a374 193d 62dd 093d b514 26bc 5932 51bc
000003a0: da83 303d 77fb 8ebc bfcd 4e3d 5acb 2c3d
000003b0: b395 f93c 6e25 2c3d b34c 793b 29ce 5bbc
000003c0: 5bb5 0c3d 9934 353d 91d1 523c 60b2 3a3c
000003d0: f3d9 1c3d 253f 493d 850b 20bb 13f6 0ebd
000003e0: df2d f6bb 37b9 afbc 243e bfbc ccb2 8b3c
000003f0: ba86 6c3c 8f9e cbbc 0af9 18bd e6f6 e73c
