lora_crossencoder_has_instruction_r_4 la_16 ld_0.2/checkpoint-3870/adapter_model.safetensors (safetensors, 152508 bytes, 25 tensors)

base_model.model.bert.encoder.layer.0.attention.self.query.lora_A.weight f4 [4, 384]
-0.04153609 0.0075279805 -0.0054310914 0.029994208 -0.043670665 0.036403645 0.00065429945 0.04301815
-0.0169826 -0.03542386 -0.04706518 0.012521043 -0.008107094 0.040613387 0.015719568 -0.022500914
-0.026185445 -0.043578614 -0.023983043 -0.0038970616 -0.051530853 0.018932903 0.028866116 -0.015289784
0.014084006 -0.008435049 -0.036423065 -0.005104326 -0.026555369 -0.02080838 -0.025539165 0.0013937993
-0.0438988 0.009284873 0.0039431592 0.049435 0.05049136 -0.027400546 -0.047000334 -0.002250761
0.029401857 0.015460089 -0.0058522136 0.0070402636 -0.039120957 -0.008701367 0.013226813 0.044246748
-0.04886991 -0.015893495 -0.020852255 -0.035712592 0.024837473 -0.040828012 0.042292718 -0.0012704913
-0.033430874 -0.031920005 0.05653503 0.040304724 0.010049852 0.022157159 -0.030240292 0.04174099
-0.03971796 -0.037745513 0.028827865 0.011475927 -0.035179924 -0.008632506 -0.020929147 -0.0043957345
-0.020593537 0.0029059257 0.00047445175 -0.00987824 0.0011792204 0.04730989 0.008903007 0.025917482
-0.04969094 0.011624381 -0.01710612 0.00774887 -0.0034652425 0.0019694394 0.029164588 -0.04433751
0.020937812 0.03704246 -0.008661004 -0.034080334 -0.036704212 0.054238424 0.014768331 0.03400817
0.04837239 0.021221222 0.000331418 -0.031022035 -0.048622437 0.042943645 0.012392477 0.01313623
0.03747541 -0.012955819 -0.00759404 -0.002480164 0.032163437 0.04631138 -0.013404824 0.015196639
0.020661622 -0.019792022 0.048999008 -0.021683166 0.028456083 0.0029032433 0.044997137 0.0029059392
-0.0011136228 -0.04794802 -0.03729378 -0.035389118 -0.048629645 -0.033688325 0.026685722 0.046023123
-0.03915536 -0.0069182063 -0.02892348 -0.0051533342 -0.0026333588 0.023503019 -0.021920813 -0.0037065484
0.038921557 0.043958616 0.01870923 -0.02731933 0.036607638 0.0141137745 -0.009322629 0.03889152
0.037557304 0.012871575 0.01683446 0.03167938 -0.0034244927 -0.039773997 0.03494772 0.052042097
0.003228492 -0.002302792 0.03940001 0.0049967016 0.018718775 0.05012828 -0.036457412 0.007256272
-0.008250983 -0.046788096 -0.039585758 -0.009955534 -0.04211418 -0.03387213 0.040345233 -0.022639345
0.0011920863 -0.02642555 -0.038023777 -0.00775948 0.027349897 0.0070205503 0.02036697 0.00992056
0.0081890095 0.028633084 -0.00071679667 0.025844537 -0.024877688 -0.04972582 0.038162436 0.010660544
0.028273162 -0.05532606 -0.021767648 -0.010349822 0.045406107 0.019172033 0.03978038 -0.016459355
0.029535389 0.021071736 0.04429173 0.013110764 -0.002010453 -0.026201276 0.04481543 -0.007875232
-0.027427712 -0.053581636 0.03067425 0.017459484 0.001463071 -0.023938252 -0.031197876 0.02426244
0.022028688 -0.032314163 0.013733905 -0.04301627 -0.033628725 0.035614043 0.049398698 -0.009081975
-0.02254126 -0.0020745052 0.021639822 -0.05393934 -0.035676822 -0.048274636 0.011890451 -0.0037021206
0.028578764 0.0038818587 0.04455379 -0.014544989 0.009764409 -0.027282711 0.024860106 -0.018465072
-0.027428528 -0.0046578343 -0.0018455373 0.010283646 -0.006901616 0.024296407 -0.033553693 -0.03700245
0.01991213 -0.02323945 0.043758374 0.013938006 -0.022687556 -0.04350494 0.028099485 -0.046333592
-0.04814775 0.051072944 0.047998644 -0.00416278 -0.01012872 0.0517933 0.014619863 -0.029587077
00000000: bf21 2abd 47ad f63b 4cf7 b1bb 6ab6 f53c
00000010: 03e0 32bd fd1b 153d 4b85 2b3a cd33 303d
00000020: 181f 8bbc 9c18 11bd 6bc7 40bd 1025 4d3c
00000030: 9ed3 04bc 395a 263d 53c6 803c d653 b8bc
00000040: dc82 d6bc 7d7f 32bd 1678 c4bc d865 7fbb
00000050: 0412 53bd 2d19 9b3c a278 ec3c 0182 7abc
00000060: 9ac0 663c 2933 0abc 5a30 15bd 3142 a7bb
00000070: a58a d9bc 5676 aabc 8337 d1bc 25b0 b63a
00000080: 3acf 33bd 941f 183c 9e35 813b 5b7c 4a3d
00000090: 07d0 4e3d 1c77 e0bc 6c83 40bd 8181 13bb
000000a0: 2adc f03c 504c 7d3c edc3 bfbb 03b2 e63b
000000b0: 4c3d 20bd 2e90 0ebc 46b5 583c 143c 353d
000000c0: d12b 48bd 1333 82bc 59d2 aabc 5e47 12bd
000000d0: f577 cb3c 463b 27bd 213b 2d3d 9d86 a6ba
000000e0: d0ee 08bd 8dbe 02bd 4791 673d 9116 253d
000000f0: 22a8 243c ee82 b53c 7dba f7bc 9af8 2a3d
00000100: 4daf 22bd 0a9b 1abd 6a28 ec3c 8705 3c3c
00000110: d318 10bd 5b6f 0dbc 9a73 abbc 180a 90bb
00000120: c7b3 a8bc 5871 3e3b d6bf f839 57d8 21bc
00000130: 1290 9a3a 04c8 413d ebdd 113c e650 d43c
00000140: ba88 4bbd 3074 3e3c 2222 8cbc 3cea fd3b
00000150: 1f19 63bb b611 013b 93ea ee3c 409b 35bd
00000160: c685 ab3c d6b9 173d e2e6 0dbc d297 0bbd
00000170: 2857 16bd 1c29 5e3d dff6 713c 274c 0b3d
00000180: 2122 463d 21d8 ad3c 2cc2 ad39 ec21 febc
00000190: 5228 47bd ade5 2f3d d109 4b3c 5839 573c
000001a0: d17f 193d a544 54bc 6dd7 f8bb 3f8a 22bb
000001b0: cfbd 033d 00b1 3d3d e89f 5bbc 53fb 783c
000001c0: 9042 a93c e122 a2bc 2fb3 483d e5a0 b1bc
000001d0: bb1c e93c 5744 3e3b eb4e 383d 9271 3e3b
000001e0: fbf6 91ba 2565 44bd 5dc1 18bd 2ef4 10bd
000001f0: e12f 47bd c5fc 09bd 049c da3c be82 3c3d
00000200: 5f61 20bd 1fb2 e2bb eff0 ecbc 4ddd a8bb
00000210: 6e94 2cbb 6789 c03c 4793 b3bc 90e9 72bb
00000220: 366c 1f3d f30d 343d 1944 993c cacc dfbc
00000230: e4f1 153d 763d 673c f1bd 18bc b74c 1f3d
00000240: b0d5 193d 4ce3 523c 6ce8 893c 3dc2 013d
00000250: 746d 60bb 0fea 22bd 5725 0f3d 182a 553d
00000260: 1c95 533b 70ea 16bb e861 213d 5fbb a33b
00000270: 1e58 993c 5053 4d3d 5e54 15bd 05c6 ed3b
00000280: 222f 07bc e0a4 3fbd ad24 22bd 891c 23bc
00000290: eb7f 2cbd 81bd 0abd 0b41 253d 2676 b9bc
000002a0: c73f 9c3a 657a d8bc d2be 1bbd 3c43 febb
000002b0: e40c e03c a50c e63b a2d8 a63c d889 223c
000002c0: 322b 063c ee8f ea3c 69e7 3bba ecb7 d33c
000002d0: 4bcc cbbc 4dad 4bbd 3750 1c3d 90a9 2e3c
000002e0: 1e9d e73c 949d 62bd 1152 b2bc 4d92 29bc
000002f0: c1fb 393d ab0e 9d3c c0f0 223d c5d5 86bc
00000300: 33f4 f13c a29e ac3c 3f6b 353d 88ce 563c
00000310: cec1 03bb 0fa4 d6bc 6290 373d 1e07 01bc
00000320: 15b0 e0bc 6b78 5bbd 9148 fb3c 3107 8f3c
00000330: 84c4 bf3a 271a c4bc b092 ffbc 06c2 c63c
00000340: 8275 b43c db5b 04bd 2c04 613c d431 30bd
00000350: 46be 09bd 08e0 113d 4a56 4a3d 90cc 14bc
00000360: 73a8 b8bc 6cf4 07bb ff45 b13c 7fef 5cbd
00000370: dc21 12bd a0bb 45bd 2bd0 423c 479f 72bb
00000380: 031e ea3c c866 7e3b 097e 363d 1b4e 6ebc
00000390: e6fa 1f3c fe7f dfbc 6ca7 cb3c 1044 97bc
000003a0: cbb1 e0bc bfa0 98bb f5e5 f1ba bd7c 283c
000003b0: f426 e2bb 4209 c73c 996f 09bd e28f 17bd
000003c0: c31e a33c a960 bebc fb3b 333d 3c5c 643c
000003d0: 41db b9bc 3c32 32bd e430 e63c 4bc8 3dbd
000003e0: 9336 45bd dd31 513d 3a9a 443d ee67 88bb
000003f0: eef2 25bc 3625 543d 2688 6f3c 9960 f2bc

base_model.model.bert.encoder.layer.0.attention.self.query.lora_B.weight f4 [384, 4]
-0.0035740351 0.0026227154 0.0012479166 0.00049317477 -0.0021757027 -0.00064260134 0.0011648254 -0.0033434103
0.0017617465 0.0023270494 -0.0006648799 0.0002640353 0.0028444065 0.00055214186 0.0018376329 0.001735757
0.0025171442 -0.0016055715 0.0010171796 0.00043628272 -0.0017871187 -0.0004498586 0.002881415 -0.0011805893
0.0011771142 -0.002531164 -0.0021236138 -0.0016671927 -0.0032285915 0.0011374004 -5.3313237e-05 -0.0019089488
0.0023833134 -0.003190737 -0.003234543 -0.0016348488 -0.003968532 0.0021536562 0.0058089523 0.0014205555
0.005572612 -0.000102137856 -0.0020385974 -0.000367568 0.0011475133 -0.0040155286 -0.0032944535 -0.0028993888
-0.0014011512 -0.0024618024 -0.0003004671 -0.0032076123 -0.0048799785 -0.0013026014 0.0033060152 -0.0021810124
-0.000680872 -0.00034761472 0.0011354291 -0.0014032378 0.0007001384 0.00013075632 0.00093693816 8.602449e-05
-0.001600334 0.00038859888 0.000449235 5.685221e-05 -0.0014510666 -0.0017311623 0.0023646164 0.0014541111
0.0025331418 0.0010687558 -0.0009891554 0.0016213104 0.0006868166 0.00041202537 -0.0037281788 -0.0009007331
0.0030150546 0.00068582746 -0.0015455929 0.0025989811 -0.0012542224 0.0004926829 0.0036631564 0.0018541511
0.00045648107 -0.004045841 -0.0035670225 -0.0022642224 -0.0016357937 -0.0019078184 -0.0037741743 -0.0045787925
-0.0034239797 0.002177641 0.0029034775 0.0025154115 -0.004588706 0.003834754 0.0038728442 0.0016548351
0.00011909764 0.0010200681 0.0007793917 0.0023619407 0.000208724 -0.0024079739 -0.001957933 -0.0014476186
-0.00059788604 0.00020962713 0.00091177 -0.00030350414 0.00601497 0.00065554725 -0.0036717476 0.0006986872
-0.0025796785 -0.0006599644 0.0010200088 -0.0036373755 0.0029920063 -0.002376467 -0.0033055434 0.00020038786
-0.0030261953 0.0031992164 0.00077694654 -0.0003832215 0.0035935116 -0.0023597968 0.00010443603 0.001454034
-0.0024502145 0.0025112417 -0.00020720762 -0.0013154435 -0.0035607624 0.002646067 0.0009909224 -0.00053740374
0.0030713896 -0.002987542 -0.0010436844 -0.00011946359 0.0032990659 -0.0031134223 -0.00075464905 0.0005458035
-0.003022333 0.0028388363 0.00050484505 -0.0007716345 -0.0018029251 0.0022423638 0.00055596634 0.0003940731
-0.002855078 0.0025144592 8.247007e-05 -0.0011355575 0.002279248 -0.0021475449 -0.0006842882 0.00029488985
0.0027454635 -0.0030130558 -0.000883741 -0.0002490258 -0.003674847 0.0023434244 -0.0003626187 -0.0021051413
0.0024947647 -0.002998952 -0.00044459096 0.0006935705 -0.0034553492 0.0031543975 0.000663666 -0.0009935927
0.0009971092 -0.0019726434 -0.00073888456 -0.0016395132 -0.0027354595 0.0027582373 0.0004072884 -0.00059160904
-0.0034645246 0.0022829284 0.00097201276 -0.0034007302 -0.002903261 0.003002339 0.0008225641 -0.0001517717
0.0023749187 -0.0011644068 0.0007516766 0.001795992 -0.004330019 0.0033441419 0.00020005231 -0.0023397359
0.0025579263 -0.0026812628 -0.00068537396 -3.0083973e-05 0.0022094839 -0.0021906972 -5.559882e-06 0.0003136072
0.0013084407 -0.0012240027 -0.0016195268 -0.00030579988 -0.0029754345 0.0024431688 0.00020711348 -0.0011151356
-0.002006639 0.0016141977 -0.00020138815 -0.0007036596 0.0016454931 -0.0023304764 -0.00019386945 -0.00046637593
-0.0027699003 0.0027896538 0.00042837826 -0.00049095246 -0.003074642 0.0029568844 0.0008485913 -0.00035889656
-0.0002937982 0.0020267377 0.0012187199 0.0033082676 -0.0022731633 0.002956851 0.0012056855 0.0014948641
-0.002450707 0.0028330323 0.0010953782 0.00081026315 -0.0026987065 0.002945919 0.0020535016 0.0008252552
00000000: 5c3a 6abb dde1 2b3b 2291 a33a 6648 013a
00000010: 3c96 0ebb 3f74 28ba 0ead 983a 1e1d 5bbb
00000020: 67ea e63a 6981 183b 564b 2eba 386e 8a39
00000030: 3969 3a3b 9dbd 103a badc f03a 5782 e33a
00000040: acf6 243b 0a72 d2ba e252 853a e0bc e439
00000050: c13d eaba 00db ebb9 1fd6 3c3b 01be 9aba
00000060: 6649 9a3a e3e1 25bb 542c 0bbb b485 daba
00000070: c796 53bb d314 953a a79c 5fb8 b135 faba
00000080: 5d31 1c3b af1b 51bb a0fa 53bb 6c48 d6ba
00000090: 760a 82bb 5b24 0d3b 0659 be3b ef31 ba3a
000000a0: 759a b63b d832 d6b8 fd99 05bb 24b6 c0b9
000000b0: 2868 963a b294 83bb c2e7 57bb ac03 3ebb
000000c0: d5a6 b7ba 3156 21bb 0388 9db9 ce36 52bb
000000d0: 3ae8 9fbb 0dbc aaba bba9 583b 51ef 0ebb
000000e0: 8c7c 32ba 0f40 b6b9 aed2 943a d9ec b7ba
000000f0: 7e89 373a a21b 0939 db9c 753a 0c68 b438
00000100: 4cc2 d1ba dcbc cb39 4d87 eb39 9874 6e38
00000110: b731 beba 2be8 e2ba aef7 1a3b df97 be3a
00000120: 1103 263b 7e15 8c3a 8ca6 81ba 2682 d43a
00000130: 7b0b 343a 1c05 d839 7654 74bb 2d1f 6cba
00000140: 3998 453b 1ac9 333a 7e95 caba ab53 2a3b
00000150: b864 a4ba 6427 013a 9111 703b fd06 f33a
00000160: da53 ef39 f992 84bb b5c4 69bb 5963 14bb
00000170: 2168 d6ba c30f faba 2358 77bb b209 96bb
00000180: d964 60bb c1b6 0e3b 4548 3e3b 9ad9 243b
00000190: db5c 96bb 7f50 7b3b 8bcf 7d3b 0de7 d83a
000001a0: 0fc4 f938 ceb3 853a 1750 4c3a caca 1a3b
000001b0: ecdc 5a39 19cf 1dbb aa50 00bb 05be bdba
000001c0: 74bb 1cba 5bcf 5b39 d903 6f3a a31f 9fb9
000001d0: 3a19 c53b 08d9 2b3a b4a1 70bb 1b28 373a
000001e0: d30f 29bb 7601 2dba d1b1 853a 0961 6ebb
000001f0: 8915 443b 80be 1bbb d1a1 58bb 351f 5239
00000200: 2253 46bb f2a9 513b 00ac 4b3a 1eeb c8b9
00000210: 1f81 6b3b d2a6 1abb ab04 db38 4995 be3a
00000220: c793 20bb a593 243b df45 59b9 f66a acba
00000230: ae5b 69bb a369 2d3b d7e1 813a 8ee0 0cba
00000240: 5e49 493b a3ca 43bb 3dcc 88ba 8788 fab8
00000250: 2435 583b 8f0a 4cbb a4d3 45ba 4114 0f3a
00000260: 5512 46bb c50b 3a3b 9457 043a 8447 4aba
00000270: 2150 ecba 9ff4 123b 45be 113a 999b ce39
00000280: 431c 3bbb a0c9 243b c8f3 ac38 fdd6 94ba
00000290: 705f 153b d3bd 0cbb ce61 33ba 729b 9a39
000002a0: 3ced 333b b076 45bb dbaa 67ba ad8f 82b9
000002b0: b4d5 70bb 2394 193b dc1d beb9 69f6 09bb
000002c0: 357f 233b 118a 44bb fd17 e9b9 bad0 353a
000002d0: 2473 62bb 02ba 4e3b dff9 2d3a 703b 82ba
000002e0: 6fb1 823a 7747 01bb b4b1 41ba efe4 d6ba
000002f0: 6545 33bb 8bc3 343b 5389 d539 3616 1bba
00000300: 140d 63bb 2f9d 153b acce 7e3a c9de 5ebb
00000310: a344 3ebb e4c2 443b 58a1 573a e824 1fb9
00000320: 86a4 1b3b 029f 98ba 2a0c 453a 7e67 eb3a
00000330: d5e2 8dbb 6429 5b3b 22c5 5139 4156 19bb
00000340: e2a2 273b 20b8 2fbb abaa 33ba d75c fcb7
00000350: fdcc 103b cd91 0fbb 068f bab6 a56b a439
00000360: fc7f ab3a b76e a0ba 4d46 d4ba c453 a0b9
00000370: 82ff 42bb 921d 203b 9a2c 5939 be29 92ba
00000380: d181 03bb 7d93 d33a b82b 53b9 cc75 38ba
00000390: 96ad d73a e8ba 18bb 6f49 4bb9 eb83 f4b9
000003a0: 3787 35bb a0d2 363b f597 e039 43b3 00ba
000003b0: ef7f 49bb 4ac8 413b 0074 5e3a 482a bcb9
000003c0: ed08 9ab9 04d3 043b 74bd 9f3a 85cf 583b
000003d0: 5af9 14bb bac7 413b 1808 9e3a 51ef c33a
000003e0: 0a9c 20bb 65aa 393b cb92 8f3a d767 543a
000003f0: c8dc 30bb 5210 413b 0a94 063b f055 583a

base_model.model.bert.encoder.layer.0.attention.self.value.lora_A.weight f4 [4, 384]
0.01318769 0.041811846 -0.0016767622 0.053265143 0.019737726 -0.048679426 0.0027690537 -0.010669465
-0.0070016114 -0.0426336 0.04046279 -0.040196538 0.012196824 0.008702421 -0.05933448 -0.033287253
-0.010875597 0.048562642 0.010058156 0.05276669 0.019258456 -0.00043875852 -0.008941564 -0.0038010576
0.026938863 0.026542827 0.013074557 -0.01928381 0.0463566 -0.052655812 -0.058743663 0.022625737
0.0014946827 0.025725435 0.055266738 0.02893039 -0.015376919 -0.0022665726 0.023888547 -0.023892343
0.0297564 0.0012262738 0.0012384322 0.022065084 0.057440802 -0.010436131 0.02758035 -0.022372026
-0.013566528 -0.0057267454 -0.037911832 -0.0012860628 -0.016352002 -0.039234538 -0.013302459 0.025660295
-0.03611606 0.016418282 -0.022986446 0.016663184 -0.011812519 0.013862328 -0.0136634875 0.0054152175
-0.00880031 0.03179584 -0.012321105 -0.0031817416 -0.023582524 0.03976133 0.031122908 -0.04074527
0.0012314252 0.03505942 0.026998209 -0.016520156 0.027925964 -0.034157682 0.02352199 -0.050551187
-0.050065167 0.032459985 0.04804121 0.030062972 -0.045860637 -0.03562671 0.024017325 0.024758652
-0.050157107 0.002428686 0.043653905 -0.021243868 -0.018329557 0.023169635 0.0031756114 -0.0059753684
0.02053893 0.018419197 -0.02573334 0.019560866 -0.011450164 0.034348093 -0.046845283 0.015923789
-0.023782037 -0.014625218 0.020781409 0.020789854 0.029093903 -0.013984421 -0.0041849795 0.04935733
0.014051672 0.030848898 -0.028940665 -0.031565312 0.033151835 -0.0103175305 -0.026075142 0.002299193
-0.03766071 0.0075098365 -0.0059823655 -0.03519422 0.01018785 0.03692169 0.017953817 0.0429725
-0.024183577 -0.020296691 0.022829205 0.017515792 0.05021043 0.011184562 -0.0153385885 -0.019383222
-0.04964444 -0.04370618 0.0391804 0.0006149739 0.0017009084 0.03494978 0.008275813 -0.037863832
0.0004896289 -0.019115783 0.013617107 0.010570664 -0.0069046337 -0.05028211 -0.050634306 -0.05911655
0.013275293 0.0371546 -0.01646297 0.027321195 -0.043570653 0.032389272 -0.046032317 -0.028006995
0.047574468 0.054854207 -0.047710765 -0.004969858 0.03742169 -0.010094295 0.042213324 0.010808182
0.0020173818 -0.008338252 -0.0031391114 -0.037684835 -0.035972036 0.013042543 -0.013481203 0.0132279545
0.049180947 -0.036774926 0.019541318 0.02954161 -0.014924143 -0.0031111746 -0.013626025 -0.0048333337
0.043668527 -0.00479528 -0.0130364215 -0.044356972 -0.032439377 -0.022676872 0.043579 -0.038725235
0.036670875 0.033718664 -0.018550256 0.038172226 -0.0061863796 -0.033757534 -0.029881112 0.043533377
0.0039783493 -0.0023271888 0.0029032945 0.0069376905 0.018250663 0.022482488 0.007409609 -0.026233815
0.0030212319 0.052637644 0.02909053 -0.011168992 -0.014220383 0.019120254 -0.05568651 0.013495679
-0.055223923 0.038595308 0.0055758622 -0.00048249462 -0.039440583 0.043837786 -0.008911377 0.02583328
0.0011331672 0.02089154 0.02836981 0.03448713 0.0051047015 -0.007729181 -0.03579682 0.04228159
-0.028270783 -0.044389285 -0.046937622 0.017440245 -0.010817202 -0.059983402 0.054556068 0.009383727
0.038353775 -0.049498543 0.030144986 0.014408049 0.051502768 -0.009098819 0.04370155 -0.042602118
-0.021887008 -0.006461882 -0.030123707 -0.03536848 -0.02195344 -0.04569703 0.025467906 -0.03382419
00000000: 2e11 583c e642 2b3d cec6 dbba 8d2c 5a3d
00000010: 03b1 a13c 1464 47bd 0379 353b fbce 2ebc
00000020: c66d e5bb 92a0 2ebd 4fbc 253d 20a5 24bd
00000030: 30d5 473c 9994 0e3c b608 73bd 3758 08bd
00000040: 8f2f 32bc 9fe9 463d f7ca 243c e221 583d
00000050: e9c3 9d3c 2c09 e6b9 a37f 12bc 2a1b 79bb
00000060: e4ae dc3c 5870 d93c ab36 563c 15f9 9dbc
00000070: 6be0 3d3d 9fad 57bd 329d 70bd 9c59 b93c
00000080: 3be9 c33a 26be d23c 605f 623d 6dff ec3c
00000090: 79ef 7bbc c78a 14bb eab1 c33c e0b9 c3bc
000000a0: b2c3 f33c ecba a03a e452 a23a d6c1 b43c
000000b0: 0c47 6b3d 4efc 2abc 30f0 e13c 8a45 b7bc
000000c0: 2546 5ebc 6ca7 bbbb 7049 1bbd 1b91 a8ba
000000d0: a2f4 85bc 65b4 20bd 8ff2 59bc 8a35 d23c
000000e0: 6fee 13bd a27f 863c 124e bcbc 3b81 883c
000000f0: 4c89 41bc d11e 633c d2dc 5fbc 2372 b13b
00000100: 2d2f 10bc 5b3c 023d 76de 49bc c484 50bb
00000110: 2330 c1bc c7dc 223d 78f5 fe3c 83e4 26bd
00000120: c667 a13a 779a 0f3d 592b dd3c 4755 87bc
00000130: fec4 e43c ede8 0bbd 30b1 c03c c30e 4fbd
00000140: 2211 4dbd c3f4 043d dcc6 443d 9f46 f63c
00000150: 5dd8 3bbd 50ed 11bd fbbf c43c a8d2 ca3c
00000160: 8a71 4dbd 972a 1f3b 70ce 323d 9f07 aebc
00000170: de27 96bc 3fce bd3c eb1d 503b 06cd c3bb
00000180: 4241 a83c dbe3 963c bace d2bc 1c3e a03c
00000190: 7899 3bbc 96b0 0c3d d7e0 3fbd 9b72 823c
000001a0: 8cd2 c2bc 9c9e 6fbc c63d aa3c 7c4f aa3c
000001b0: 5656 ee3c ea1e 65bc 2722 89bb e92a 4a3d
000001c0: fc38 663c d4b6 fc3c f914 edbc a14a 01bd
000001d0: 38ca 073d dc0a 29bc 899b d5bc 0fae 163b
000001e0: 1e42 1abd 1315 f63b b807 c4bb d027 10bd
000001f0: f1ea 263c 333b 173d e213 933c ef03 303d
00000200: a31c c6bc 3f45 a6bc 5004 bb3c 477d 8f3c
00000210: 74a9 4d3d 743f 373c b44e 7bbc 90c9 9ebc
00000220: f857 4bbd 4005 33bd a17b 203d 3336 213a
00000230: 04f1 de3a 8027 0f3d 4797 073c 1b17 1bbd
00000240: 705a 003a b498 9cbc 491a 5f3c 9430 2d3c
00000250: 4440 e2bb 9df4 4dbd eb65 4fbd 3224 72bd
00000260: 9d80 593c 6c2f 183d 5add 86bc b3d0 df3c
00000270: 2477 32bd 9daa 043d 628c 3cbd ed6e e5bc
00000280: 72dd 423d ceae 603d 5d6c 43bd 31da a2bb
00000290: 7c47 193d 8b62 25bc e1e7 2c3d cd14 313c
000002a0: 0d36 043b 2a9d 08bc 8db9 4dbb 6a5b 1abd
000002b0: 6a57 13bd 64b0 553c 43e0 5cbc 10ba 583c
000002c0: f671 493d 4ea1 16bd 1d15 a03c 3f01 f23c
000002d0: 6584 74bc d9e4 4bbb b13f 5fbc f160 9ebb
000002e0: c5dd 323d b921 9dbb b796 55bc a8af 35bd
000002f0: 27df 04bd d9c4 b9bc e57f 323d 5a9e 1ebd
00000300: 3334 163d 951c 0a3d b5f6 97bc 7b5a 1c3d
00000310: 1db7 cabb 5745 0abd 3cc9 f4bc 0e50 323d
00000320: d05c 823b c083 18bb 3345 3e3b 9155 e33b
00000330: 6a82 953c 322d b83c 4ecc f23b 4ce8 d6bc
00000340: dcff 453b 929a 573d 434f ee3c 26fe 36bc
00000350: 9cfc 68bc 14a2 9c3c 8a17 64bd fb1c 5d3c
00000360: 7b32 62bd 1d16 1e3d b9b5 b63b 55f7 fcb9
00000370: 738c 21bd 408f 333d 0601 12bc 51a0 d33c
00000380: c886 943a bc24 ab3c ce67 e83c 6042 0d3d
00000390: 5745 a73b 1245 fdbb b09f 12bd 762f 2d3d
000003a0: 2198 e7bc 8ad1 35bd aa41 40bd d8de 8e3c
000003b0: a23a 31bc 28b1 75bd 2f76 5f3d 34be 193c
000003c0: d918 1d3d fcbe 4abd 9ef2 f63c bd0f 6c3c
000003d0: 91f4 523d 3713 15bc 6600 333d 8f7f 2ebd
000003e0: 624c b3bc 32be d3bb fec5 f6bc 8ade 10bd
000003f0: b3d7 b3bc cf2c 3bbd 12a2 d03c 3c8b 0abd

base_model.model.bert.encoder.layer.0.attention.self.value.lora_B.weight f4 [384, 4]
0.0011050936 -0.0023344236 0.0012790601 0.0004556545 -0.005528765 0.004979472 -0.0050887153 0.0051223976
-0.009202993 0.008572866 -0.009779011 0.004706396 -0.003253651 0.0031480256 -0.0035842815 -0.00012235175
0.0010465446 -0.0011559223 0.0021058617 -0.006706482 -4.391838e-06 -7.8206904e-05 0.0013969919 -0.002267902
0.0043516215 -0.0040708636 0.0036160047 -0.0029811016 0.0043846495 -0.0039243717 0.0047378573 -0.002878666
-0.0012518079 0.0012079078 -0.0019190391 0.0039436193 0.0007716387 -0.0013153652 0.0019210674 0.0002797697
0.0020193625 -0.0021913801 0.0007515145 0.003344573 0.0036570276 -0.0037061977 0.0027997836 -0.00032216127
-0.004076215 0.0044699283 -0.004007067 0.005934069 -0.0072025415 0.006495167 -0.0046926956 0.004922377
0.004566141 -0.0045418865 0.0051346836 -0.0030111193 0.0033105465 -0.003113204 0.0023987577 -0.0019113781
0.004381358 -0.004887323 0.0046752617 -0.00452398 0.0032554183 -0.0030712627 0.0028059038 -0.001371568
-0.0031436123 0.0033490255 -0.0032440033 -0.0034562368 -0.0046343757 0.007345184 -0.0050870664 0.0036207654
-0.0040827948 0.0045959014 -0.0034981014 0.00017081304 -0.010068812 0.010228827 -0.010181773 0.012384769
-0.00069485017 0.00068178633 0.00032977195 -0.0016553833 0.008194919 -0.008928271 0.008642374 -0.009382107
0.0043156566 -0.0021793603 0.006123272 -0.007524194 -0.010842668 0.011600154 -0.011428812 0.012728553
-0.004619524 0.004935117 -0.004046561 0.005011005 -0.0013358616 0.0012156315 -0.00050743687 0.00030226662
-0.0013240325 -0.00018406534 -0.0010310268 0.0014335896 0.0001181826 0.00022326781 0.0018773172 -0.0052236817
-0.010388052 0.011491584 -0.011493273 0.013483818 -0.00509811 0.0039396244 -0.0046235397 0.0069704284
0.0023106707 -0.002109326 0.0020541376 -0.002958378 -0.009105282 0.0085018985 -0.0091749625 0.011651208
-0.0052128755 0.0052414653 -0.005663761 0.008801137 -0.0048900777 0.0054358793 -0.0053186603 0.005308864
0.00036234554 -0.00043760327 -1.0985757e-06 0.0013449787 -0.0042282636 0.0048808204 -0.004858635 0.004557062
-0.007879832 0.007755602 -0.0077523636 0.0062574325 0.002087415 -0.0014225623 0.0013732172 -0.002297662
0.0009127328 -0.000748626 0.0003427131 -0.0006872674 0.0073288935 -0.00777916 0.007662167 -0.011020167
0.01072389 -0.011305249 0.010793178 -0.012413877 0.00041995393 -0.0010530134 0.00039147874 -0.00042844543
0.0030970878 -0.0032426796 0.0026819867 -0.0032256495 0.0041586095 -0.005220211 0.004633225 -0.0036456361
0.001812265 -0.0026414357 0.0025127165 -0.0014994815 0.0070645614 -0.0071975654 0.007330081 -0.009287869
0.0019046422 -0.0028564415 0.0026335614 -0.0015025267 -0.005540682 0.004883501 -0.005434232 0.0047117947
0.0058692014 -0.005973339 0.005333205 -0.005871759 -0.005677319 0.0033070424 -0.0047610556 0.005470338
-0.0011323058 0.0017812041 -0.001909812 0.0012259465 -0.008271178 0.009101224 -0.008479433 0.007680861
0.0057499227 -0.0071491464 0.00638155 -0.0058534727 -0.0059084953 0.006343629 -0.005488281 0.0058617485
0.0011938884 -0.0012872579 0.0009723378 -0.0014414901 0.00061553234 -0.0015310043 0.0015034192 -0.0003807137
0.0030326485 -0.004430347 0.002851837 -0.0022929348 -0.0048645437 0.004398471 -0.004120192 0.005492797
-0.0035106959 0.003440154 -0.0028561777 0.0034374055 0.0033105288 -0.0056736763 0.0039238892 -0.0019314637
-0.003804445 0.0032646102 -0.0030990927 0.004321018 -0.0032503686 0.0038676455 -0.0037689744 0.0036024372
00000000: cad8 903a 21fd 18bb 23a6 a73a e9e4 ee39
00000010: a42a b5bb d72a a33b 3dbf a6bb c9d9 a73b
00000020: 26c8 16bc 3575 0c3c 2538 20bc 1c38 9a3b
00000030: 353b 55bb 1b4f 4e3b 44e6 6abb 8c4b 00b9
00000040: 362c 893a 5182 97ba 7f02 0a3b 0cc2 dbbb
00000050: 9a5d 93b6 0303 a4b8 451b b73a 15a1 14bb
00000060: 0c98 8e3b e164 85bb 7efa 6c3b 965e 43bb
00000070: 1bad 8f3b 0498 80bb 0740 9b3b 00a8 3cbb
00000080: b413 a4ba a952 9e3a 4488 fbba 7a39 813b
00000090: cc47 4a3a 5568 acba 53cc fb3a 0eae 9239
000000a0: 4857 043b 429d 0fbb 4901 453a a030 5b3b
000000b0: beaa 6f3b aee3 72bb 937c 373b c1e7 a8b9
000000c0: c591 85bb 7a78 923b b74d 83bb 9472 c23b
000000d0: 4c03 ecbb 69d5 d43b 2fc5 99bb e44b a13b
000000e0: 919f 953b 1bd4 94bb d940 a83b 3356 45bb
000000f0: c1f5 583b e506 4cbb 7a34 1d3b 3587 faba
00000100: 7f91 8f3b d625 a0bb f032 993b e53d 94bb
00000110: db58 553b 3d47 49bb 41e3 373b 2fc6 b3ba
00000120: 1005 4ebb 537b 5b3b 5899 54bb 0882 62bb
00000130: f6db 97bb dfaf f03b 68b1 a6bb 5d4a 6d3b
00000140: f7c8 85bb 3799 963b 6740 65bb 471c 3339
00000150: a9f7 24bc cf96 273c 74d1 26bc 7ce9 4a3c
00000160: 9b26 36ba e8b9 323a 3ee5 ac39 72f9 d8ba
00000170: fb43 063c e247 12bc be98 0d3c 69b7 19bc
00000180: 5a6a 8d3b 99d3 0ebb baa5 c83b 848d f6bb
00000190: 72a5 31bc 930e 3e3c e93f 3bbc 6c8b 503c
000001a0: 605f 97bb c3b6 a13b 0499 84bb 5b33 a43b
000001b0: 1418 afba d355 9f3a 8305 05ba 8a79 9e39
000001c0: 298b adba aa01 41b9 8523 87ba 49e7 bb3a
000001d0: cdd8 f738 ff1c 6a39 5010 f63a 6b2b abbb
000001e0: a632 2abc 3247 3c3c 484e 3cbc 3beb 5c3c
000001f0: 0c0e a7bb f717 813b 1081 97bb 3168 e43b
00000200: 9f6e 173b 9e3c 0abb b69e 063b 59e1 41bb
00000210: 522e 15bc 8c4b 0b3c 9552 16bc b5e4 3e3c
00000220: c5d0 aabb 99c0 ab3b 1297 b9bb a532 103c
00000230: f23c a0bb 761f b23b 2848 aebb fbf5 ad3b
00000240: 32f9 bd39 1e6e e5b9 c672 93b5 ff49 b03a
00000250: 3f8d 8abb 4aef 9f3b 2f35 9fbb 6853 953b
00000260: 691a 01bc b422 fe3b 8a07 febb 260b cd3b
00000270: 03cd 083b 4575 baba 86fd b33a 5f94 16bb
00000280: 7644 6f3a 713f 44ba 2cae b339 bc29 34ba
00000290: 3727 f03b 53e8 febb ea12 fb3b ee8d 34bc
000002a0: 41b3 2f3c a739 39bc dfd5 303c 9363 4bbc
000002b0: 432d dc39 4405 8aba 633f cd39 f9a0 e0b9
000002c0: 83f8 4a3b 2383 54bb 45c4 2f3b 6b65 53bb
000002d0: f244 883b 4e0e abbb 4fd2 973b a0eb 6ebb
000002e0: 8689 ed3a f01b 2dbb 63ac 243b 408a c4ba
000002f0: d67d e73b 8ed9 ebbb 2d31 f03b 252c 18bc
00000300: 30a5 f93a 2333 3bbb d497 2c3b 6ef0 c4ba
00000310: 9c8e b5bb c705 a03b a411 b2bb 6665 9a3b
00000320: 6e52 c03b 00bc c3bb 2bc2 ae3b e267 c0bb
00000330: ce08 babb f7ba 583b a102 9cbb 8540 b33b
00000340: e169 94ba 4b77 e93a a852 faba f0af a03a
00000350: d683 07bc 4d1d 153c 52ed 0abc bbaf fb3b
00000360: d969 bc3b 6343 eabb 521c d13b 7dce bfbb
00000370: 0d9c c1bb 38de cf3b 0ad7 b3bb e913 c03b
00000380: 3f7c 9c3a 35b9 a8ba 7ce4 7e3a 62f0 bcba
00000390: ad5b 213a fbab c8ba 610e c53a 879a c7b9
000003a0: 66bf 463b 722c 91bb e3e5 3a3b 1045 16bb
000003b0: c066 9fbb 0d21 903b ad02 87bb ecfc b33b
000003c0: b413 66bb 3574 613b b62e 3bbb 1846 613b
000003d0: 75f5 583b 3fea b9bb f893 803b 2b29 fdba
000003e0: ff53 79bb 12f3 553b 261a 4bbb 5397 8d3b
000003f0: 2304 55bb 5378 7d3b e600 77bb de16 6c3b

base_model.model.bert.encoder.layer.1.attention.self.query.lora_A.weight f4 [4, 384]
-0.0082231015 0.024565455 0.0034907013 0.04708981 -0.041190732 -0.038050566 0.03577783 0.03870124
0.0064418833 0.0075852396 0.0010213578 0.013487884 -0.025990242 -0.046623215 -0.04464081 -0.0063593625
-0.006920605 0.013797827 0.04815074 0.034397606 -0.048283983 0.04092624 -0.01302337 -0.04650857
0.009830617 0.031826127 0.04478646 -0.015392832 -0.013785591 0.031073064 -0.05424686 0.000112522444
-0.03952477 -0.028749332 0.028678922 -0.02177825 0.032158084 -0.028134556 0.042725883 -0.042684026
-0.028050087 0.003554608 -0.03284257 -0.026283478 -0.04159761 0.0338191 -0.043384496 -0.027976796
-0.036205966 -0.0067870496 -0.020389125 -0.0025908183 -0.00068964076 0.015428766 0.004446302 0.009785541
0.039901745 -0.031969506 0.03922923 -0.00028122403 -0.037726764 0.04844108 0.0019931248 -0.03285994
-0.03573447 -0.041967396 0.042576052 0.021401163 0.051526863 0.042131342 0.025102278 -0.02706222
0.03994701 -0.036010984 0.025175137 -0.011302497 -0.04056013 0.042650297 0.0011899587 -0.012160276
-0.04521987 0.022999242 -0.02364744 0.011550295 0.016234921 0.0266617 0.045099787 0.02891862
0.0031634232 0.027772866 0.013427328 0.007824762 0.049666733 0.038285404 0.018413398 0.024606125
0.03852164 0.017331421 0.033725515 -0.01588838 0.024559733 0.0053380276 -0.014167091 -0.0146019505
-0.048655417 0.02978823 0.008746582 -0.030536313 -0.013719825 0.039876256 -0.037897117 0.005862696
-0.018575953 0.046262283 0.003489377 -0.0325612 -0.034329575 0.00429429 -0.025944378 -0.045854352
0.031139113 -0.038481932 0.018544497 -0.01645168 -0.046385642 -0.02794069 -0.026035506 -0.010341143
-0.0095810015 -0.021669116 0.018567465 0.0044282647 -0.019933976 0.017665973 -0.024532206 -0.0144548975
0.049624555 0.053252213 0.028608471 -0.0069030095 -0.028400661 -0.01522812 0.0539606 -0.030135969
-0.032324124 0.016609192 -0.022499695 0.014450527 -0.029052502 -0.04651126 0.040986504 0.008691416
0.013234432 0.034006834 0.008454075 -0.011238175 0.02911815 0.032742884 0.013055521 -0.034585614
-0.025271345 -0.050570253 -0.015366662 -0.050687388 0.020454094 0.0053722905 -0.050231982 0.0062335054
-0.014342416 -0.0117126405 -0.024026882 -0.037784945 -0.0057824515 0.019366475 0.00089418655 -0.045453653
-0.033701587 -0.017833319 -0.026126256 0.007564131 0.034236632 0.02463534 -0.02299899 0.0054015014
0.03293813 -0.0064265756 0.03144714 0.01463085 -0.017923115 0.013744518 0.02473159 0.053008374
0.029340008 -0.01898763 0.041804586 0.026852528 -0.023135772 -0.050884128 -0.009610545 -0.018769117
-0.014580647 0.019079495 0.037167586 0.002856959 -0.011126013 0.037719633 -0.023959458 0.0052181645
-0.044003647 -0.037409365 -0.0070164246 0.024695925 0.008173987 -0.045412365 0.033221617 -0.008091142
0.033035375 0.050732896 0.029082304 0.027363759 0.039227404 0.03698089 -0.046508983 0.022799587
-0.00029776653 -0.011503857 -0.0035055575 -0.042650018 0.002191223 0.029674204 -0.00046843165 -0.008388481
-0.012790898 0.019776667 -0.018805454 -0.00016486118 0.00115076 -0.013623825 0.015243976 -0.007821985
-0.04114875 0.02768753 -0.035360422 0.009068761 0.020177897 -0.0296216 -0.016799163 0.0073032817
-0.021404976 -0.0066571846 -0.042007063 0.042880494 0.030312331 0.03261611 -0.024361469 -0.0060444484
00000000: 30ba 06bc 7e3d c93c 40c4 643b 3fe1 403d
00000010: 9db7 28bd e9da 1bbd c68b 123d 3185 1e3d
00000020: 6f16 d33b 9a8d f83b 15df 853a 49fc 5c3c
00000030: 7de9 d4bc fcf7 3ebd 48d9 36bd 3362 d0bb
00000040: 3ec6 e2bb 4810 623c b639 453d 81e4 0c3d
00000050: 6dc5 45bd 46a2 273d f95f 55bc c57f 3ebd
00000060: 9910 213c 1d5c 023d 0272 373d 3832 7cbc
00000070: f6dc 61bc f08c fe3c f531 5ebd 07fa eb38
00000080: bae4 21bd b883 ebbc 0ff0 ea3c 4d68 b2bc
00000090: 32b8 033d 717a e6bc 5601 2f3d 72d5 2ebd
000000a0: 4cc9 e5bc 6df4 683b ee85 06bd 7350 d7bc
000000b0: 4162 2abd e685 0a3d f1b3 31bd 982f e5bc
000000c0: b54c 14bd e665 debb 1807 a7bc b8ca 29bb
000000d0: 02c9 34ba efc8 7c3c 49b2 913b 8953 203c
000000e0: 0370 233d 75f2 02bd d4ae 203d 4071 93b9
000000f0: 6187 1abd 276a 463d 169f 023b 2598 06bd
00000100: 4f5e 12bd 01e6 2bbd 3a64 2e3d 7e51 af3c
00000110: d50d 533d ea91 2c3d 4ba3 cd3c 97b1 ddbc
00000120: 7a9f 233d 4180 13bd 173c ce3c 1c2e 39bc
00000130: 6122 26bd 14b2 2e3d 63f8 9b3a e53b 47bc
00000140: 7838 39bd e868 bc3c 47b8 c1bc 733d 3d3c
00000150: 19ff 843c a369 da3c 8eba 383d bee6 ec3c
00000160: 6f51 4f3b ec83 e33c 4cfe 5b3c 6e33 003c
00000170: 586f 4b3d 28d1 1c3d b2d7 963c c992 c93c
00000180: dec8 1d3d a0fa 8d3c c423 0a3d 5928 82bc
00000190: 7e31 c93c 9fea ae3b 161d 68bc 053d 6fbc
000001a0: e74a 47bd 7206 f43c d34d 0f3c 4a27 fabc
000001b0: 1ec9 60bc 4955 233d 023a 1bbd dc1b c03b
000001c0: 992c 98bc 857d 3d3d 08ae 643b e55e 05bd
000001d0: 2b9d 0cbd 1eb7 8c3b 4e89 d4bc c6d1 3bbd
000001e0: 7417 ff3c 3b9f 1dbd a1ea 973c acc5 86bc
000001f0: dffe 3dbd e0e3 e4bc 6a48 d5bc e66d 29bc
00000200: a2f9 1cbc 6e83 b1bc cc1a 983c fa1a 913b
00000210: 944c a3bc 3bb8 903c c4f7 c8bc 3cd4 6cbc
00000220: 1e43 4b3d fe1e 5a3d 505c ea3c a432 e2bb
00000230: 81a8 e8bc 5d7f 79bc ca05 5d3d b5df f6bc
00000240: 4d66 04bd 0010 883c 4851 b8bc e7c1 6c3c
00000250: 83ff edbc 9782 3ebd 77e1 273d 7166 0e3c
00000260: 3bd5 583c c04a 0b3d f682 0a3c 5320 38bc
00000270: 3089 ee3c 671d 063d d3e6 553c a5a9 0dbd
00000280: da05 cfbc c122 4fbd 74c4 7bbc 949d 4fbd
00000290: 588f a73c 0a0a b03b 0dc0 4dbd 6f42 cc3b
000002a0: 74fc 6abc 60e6 3fbc 06d4 c4bc 63c4 1abd
000002b0: b87a bdbb 71a6 9e3c d867 6a3a 9c2d 3abd
000002c0: ad0a 0abd 2e17 92bc bb06 d6bc 88dc f73b
000002d0: b63b 0c3d 0dd0 c93c 6168 bcbc 14ff b03b
000002e0: 22ea 063d 0696 d2bb b7ce 003d 3cb6 6f3c
000002f0: 7fd3 92bc b030 613c e799 ca3c 4f1f 593d
00000300: 755a f03c f28b 9bbc 493b 2b3d d5f9 db3c
00000310: 3b87 bdbc e06b 50bd 8c75 1dbc b1c1 99bc
00000320: abe3 6ebc 9a4c 9c3c 0a3d 183d d13b 3b3b
00000330: e149 36bc e77f 1a3d a046 c4bc 23fd aa3b
00000340: 2b3d 34bd 903a 19bd 09ea e5bb 1c4f ca3c
00000350: 30ec 053c 5102 3abd 6413 083d b690 04bc
00000360: 1a50 073d 4ccd 4f3d 033e ee3c f629 e03c
00000370: eaac 203d 4679 173d 3480 3ebd 33c6 ba3c
00000380: 8c1d 9cb9 ac7a 3cbc 7fbd 65bb c9b1 2ebd
00000390: 9f9a 0f3b 5117 f33c d597 f5b9 d76f 09bc
000003a0: ea90 51bc ad02 a23c e50d 9abc 96de 2cb9
000003b0: 19d5 963a 7736 5fbc dfc1 793c c827 00bc
000003c0: 978b 28bd f5d0 e23c 17d6 10bd 2495 143c
000003d0: 1e4c a53c ffa8 f2bc 669e 89bc 5e50 ef3b
000003e0: 7d59 afbc 8324 dabb 990f 2cbd 75a3 2f3d
000003f0: 9151 f83c 7898 053d b491 c7bc 8210 c6bb

base_model.model.bert.encoder.layer.1.attention.self.query.lora_B.weight f4 [384, 4]
0.0031804082 -0.0065687024 -0.004008556 -0.002763117 0.0017265839 -0.0014228912 -0.0019261714 -9.7170334e-05
-0.0007681952 -0.0013049729 0.0009763735 -0.0038519385 0.0043400945 -0.0028243128 -0.004672711 -0.0018902168
0.004803975 -0.0029856483 -0.0044975155 -0.0026890708 0.004937973 -0.0027931628 -0.0055291303 -0.0015875149
0.003113094 -0.0016977352 -0.0035054442 -0.00078840094 0.003648646 -0.0034336033 -0.0043866355 -0.00244137
0.000735007 -0.0021784517 -0.000787005 -0.0014092444 -0.00032614596 -0.0021292756 -3.401594e-05 -0.003444072
-0.001598671 0.0014026557 0.0017207102 0.0011127122 -0.0017413473 0.0032099718 0.0023616955 0.0011524077
-0.0016947986 0.0024713615 -0.00024553578 0.0029265003 -0.0029935653 0.004486994 0.0033214914 0.0033472884
0.0023903188 -0.0017897044 -0.0035001256 -0.0023259323 -0.00078200235 0.0024782864 0.0006237576 0.0045096534
-0.0023054304 -0.0020261018 0.0018740981 -0.0033599448 0.0020048488 -0.001964379 -0.002273947 -0.00050494313
0.00075414014 0.0018022178 0.0004738286 0.0015984667 -0.0004804001 0.0013294076 0.0009162525 0.0023217914
0.0037464506 -0.0060035074 -0.004400856 -0.0034836503 -0.0036257976 0.0041603926 0.0034686825 0.0033693928
0.0030932506 -0.0027621833 -0.003685731 -0.002606364 -0.0014993022 -0.00014781878 0.0020802969 -0.002994286
-0.0021218394 -0.0016207738 0.0019291253 -0.0019263328 -0.0037978461 0.0043987487 0.003960719 0.0017234703
0.001552569 0.0004259815 -0.0014676448 0.0023689007 0.0035689615 -0.004434707 -0.004234394 -0.0005222818
0.0045444295 -0.0013239185 -0.004973836 0.0002667807 -0.0028388808 0.003935029 0.005218211 0.002618191
-0.0026153743 0.002188815 0.0025789111 0.0014745184 -0.0007761266 -0.00096983934 0.000524576 -0.0019750285
-0.0021678102 -0.00432217 0.0017075968 -0.00287378 0.0020941934 0.0045961984 -0.0020218084 0.0030827415
0.0021057674 0.0034122563 -0.0019276674 0.0025206783 -0.0027585044 -9.6170676e-05 0.0032736957 -0.00095800485
-0.0004490834 0.0047309417 0.0008402014 0.0029981448 -4.6962552e-05 -0.0022260097 -4.4644744e-06 -0.0015525123
-0.0012303944 -0.00011659101 0.0013397114 -4.5473687e-05 -0.0016987147 -0.0027721091 0.0017123452 -0.0020320325
-0.00037808163 -0.0032987106 -7.842608e-05 -0.002464677 0.0017181484 0.0018013605 -0.0016565354 0.0029895727
0.0012336366 0.0049304054 -0.0011573293 0.003489409 -0.0013066761 -0.0012034056 0.0016026092 -0.00095440575
-0.0016226929 -0.0030353677 0.0015465694 -0.0019877697 0.0010728395 0.0057528284 -0.0006258218 0.004120409
0.0013660396 0.0025113998 -0.0012242388 0.0042463834 0.0020436 0.004020421 -0.0018975849 0.004373339
0.0015549664 0.0035946548 -0.001578056 0.0021930432 0.0015896246 0.003242193 -0.0011495047 0.0024357405
0.0013525203 0.0037102962 -0.0011915946 0.0022489347 0.0011842366 0.0047619757 -0.0013754138 0.0025550604
0.0019057768 0.0037138518 -0.0018141917 0.0032886057 0.0033698755 -0.0021074803 -0.0024856406 -0.0007944264
-0.0012008116 2.7613609e-05 -0.00027777752 0.000653588 -0.0009878075 -0.0023550242 0.00094071863 -0.0016513234
0.002885341 0.0015149091 -0.0033207033 0.0016687643 0.0022255266 0.003991997 -0.0019780372 0.0027084127
0.0018808773 -0.00061024155 -0.000627314 -0.0002257512 0.0034088718 -0.00063649856 -0.0034771205 0.00037252903
0.0018618793 0.001072638 -0.0020693117 0.0020008665 -0.0012480613 -0.002701528 0.0013347738 -0.0014212194
-0.0024214538 -0.0021860413 0.0038353207 -0.0033904235 -0.0017846453 -0.0032761602 0.0016943342 -0.0055935597
00000000: 656e 503b 453e d7bb 345a 83bb 6915 35bb
00000010: 8b4e e23a 4e80 baba 9677 fcba edc7 cbb8
00000020: b560 49ba a00b abba 51f3 7f3a ce70 7cbb
00000030: 5a37 8e3b 1b18 39bb 8a1d 99bb 27c1 f7ba
00000040: aa6a 9d3b deaa 43bb e55f 93bb 1f3b 30bb
00000050: b8ce a13b 7f0d 37bb b52d b5bb 2914 d0ba
00000060: 0d05 4c3b 8a86 deba 98bb 65bb b1ac 4eba
00000070: 1f1e 6f3b 4e06 61bb c4bd 8fbb 64ff 1fbb
00000080: 7cad 403a 5bc4 0ebb 034f 4eba 65b6 b8ba
00000090: 92fe aab9 518b 0bbb 56ac 0eb8 f1b5 61bb
000000a0: 7f8a d1ba 51d9 b73a 7489 e13a 6dd8 913a
000000b0: eb3d e4ba 645e 523b adc6 1a3b 630c 973a
000000c0: 0124 deba 91f6 213b 41bb 80b9 87ca 3f3b
000000d0: b12f 44bb a207 933b 61ad 593b 2e5e 5b3b
000000e0: e5a6 1c3b 8494 eaba 5d62 65bb ab6e 18bb
000000f0: 4aff 4cba bf6a 223b aa83 233a b7c5 933b
00000100: b416 17bb 59c8 04bb 4ca4 f53a 8532 5cbb
00000110: c863 033b d0bc 00bb 8006 15bb 295e 04ba
00000120: 7db1 453a 6538 ec3a 336c f839 a483 d13a
00000130: 36de fbb9 843f ae3a aa30 703a 3229 183b
00000140: 0387 753b 12b9 c4bb 0e35 90bb f44d 64bb
00000150: ca9e 6dbb e753 883b d652 633b 08d1 5c3b
00000160: 22b8 4a3b bf05 35bb 4e8c 71bb 88cf 2abb
00000170: 3c84 c4ba cdff 1ab9 9755 083b c83b 44bb
00000180: 8f0e 0bbb 2570 d4ba b4da fc3a 017d fcba
00000190: 49e5 78bb 6123 903b ebc8 813b 11e6 e13a
000001a0: 927f cb3a 4556 df39 fd5d c0ba 8f3f 1b3b
000001b0: 3de5 693b 0551 91bb acc0 8abb bde9 08ba
000001c0: 70e9 943b 5587 adba 8ffb a2bb b3de 8b39
000001d0: 840c 3abb 6af1 803b 87fd aa3b f595 2b3b
000001e0: b366 2bbb 3972 0f3b f302 293b a144 c13a
000001f0: f974 4bba d13c 7eba b383 093a 7b6f 01bb
00000200: d211 0ebb fda0 8dbb 71d1 df3a 0756 3cbb
00000210: bc3e 093b b59b 963b 5180 04bb d207 4a3b
00000220: ea00 0a3b 29a0 5f3b c9a9 fcba f731 253b
00000230: 06c8 34bb 3daf c9b8 808b 563b 9e22 7bba
00000240: f472 ebb9 0406 9b3b f640 5c3a 867c 443b
00000250: a8f9 44b8 3fe2 11bb 8bcd 95b6 ab7d cbba
00000260: 2f45 a1ba 5282 f4b8 4199 af3a 00bb 3eb8
00000270: 68a7 deba 46ac 35bb c570 e03a d92b 05bb
00000280: 4239 c6b9 2e2f 58bb ae78 a4b8 6b86 21bb
00000290: 7e33 e13a a11b ec3a 1b20 d9ba b5ec 433b
000002a0: fab1 a13a 3d8f a13b 87b1 97ba 92ae 643b
000002b0: c644 abba 97bb 9dba a40e d23a 1631 7aba
000002c0: 8ab0 d4ba 05ed 46bb 42b6 ca3a 3e45 02bb
000002d0: 859e 8c3a 3982 bc3b 310e 24ba 7f04 873b
000002e0: af0c b33a 4c96 243b a376 a0ba 3f25 8b3b
000002f0: ebed 053b bcbd 833b 62b8 f8ba 3a4e 8f3b
00000300: 04d0 cb3a 4d94 6b3b c6d6 ceba 29b9 0f3b
00000310: f35a d03a f97a 543b faaa 96ba f2a0 1f3b
00000320: 0d47 b13a 7128 733b 482f 9cba dd62 133b
00000330: 6338 9b3a 590a 9c3b 3b47 b4ba cd72 273b
00000340: 42cb f93a 1864 733b 2cca edba a685 573b
00000350: 21d9 5c3b a71d 0abb 21e6 22bb 0e41 50ba
00000360: 8d64 9dba c6a3 e737 aba2 91b9 8c55 2b3a
00000370: 5279 81ba c056 1abb 8f9a 763a 3871 d8ba
00000380: fd17 3d3b ea8f c63a 28a0 59bb 70ba da3a
00000390: 24da 113b 4ccf 823b f5a1 01bb a07f 313b
000003a0: c587 f63a 9ef8 1fba 5472 24ba a0b7 6cb9
000003b0: 6167 5f3b b2da 26ba 67e0 63bb 0050 c339
000003c0: 4d0a f43a c297 8c3a 4a9d 07bb f820 033b
000003d0: fd95 a3ba 1e0c 31bb 94f3 ae3a 3648 baba
000003e0: 41b1 1ebb b043 0fbb 015a 7b3b de31 5ebb
000003f0: c2ea e9ba d9b4 56bb 6c14 de3a 2e4a b7bb

base_model.model.bert.encoder.layer.1.attention.self.value.lora_A.weight f4 [4, 384]
0.03047789 0.025782418 -0.052069772 -0.05091489 -0.026179139 0.039329305 0.043995216 0.010038156
-0.0071671777 0.046140797 0.019458538 -0.054645766 -0.044448454 -0.020353664 0.037114732 -0.024131842
-0.054974984 0.037931003 -0.019625828 -0.025049169 0.03820798 0.012651026 0.013369 0.019881142
0.010994917 -0.03497319 -0.0014874102 0.017500259 -0.00029622918 -0.001031376 -0.007760622 -0.049719296
-0.015249772 -0.006468975 0.04055509 0.053640343 -0.007916716 -0.038245242 -0.012260529 -0.022990296
0.0026887644 -0.013881761 -0.005113317 0.04939946 -0.022921352 -0.014059849 -0.01171324 0.017226726
4.7155696e-05 -0.033841215 -0.023228806 0.04496146 -0.005530924 -0.0050197896 0.00073322427 -0.030757934
-0.012588155 -0.029525949 0.021022614 0.03734601 -0.04290033 0.046300564 0.018829927 -0.03443503
-0.02950832 0.030132163 0.045937106 0.041878734 0.0065064407 -0.04380709 0.05443236 -0.04681334
-0.0173897 -0.009741241 0.004503356 0.04276791 -0.02111202 -0.0019806882 0.032684423 -0.0061070095
0.051437873 0.012005172 0.040168285 0.049996253 -0.02727329 0.036885716 -0.012879781 0.025566233
0.02813514 0.041310996 -0.026058275 0.013226756 0.009025053 -0.005869026 0.031470537 0.027114037
0.039452545 -0.0022862516 0.046283495 -0.00659294 0.024533411 0.028221585 0.021482173 -0.008634272
-0.021994513 -0.0076025585 0.015256317 -0.007779981 0.047169626 0.015915731 0.011481504 0.024621645
-0.0032364016 -0.023933686 -0.041003052 0.0023473618 0.036963824 -0.010697835 0.0045302166 0.048504695
-0.008550907 0.056646697 -0.048597164 0.02362562 0.021228978 0.006597593 0.036683973 0.0042180577
0.022800652 -0.025205998 -0.008394843 0.042087805 -0.016606817 0.028210059 0.042285874 -0.037879497
0.011712003 0.04324322 -0.010416265 -0.0018924469 -0.026939694 0.017386721 -0.040799014 -0.05252114
0.012761161 0.0030489299 0.015148178 0.025311107 -0.015732413 0.0012164806 -0.0048022377 -0.018473295
0.040825732 -0.021083849 0.014637544 -0.0020510377 0.00754225 0.016794266 0.013878177 -0.024910733
-0.00014411338 -0.022987666 -0.035340205 0.0059031774 -0.020301051 -0.010855223 -0.0494676 0.012970963
-0.03281476 -0.045396723 -0.013546685 0.009540589 0.053243946 0.05145945 -0.014851137 6.112711e-05
0.014039049 -0.0070411195 -0.04375891 0.013486889 0.033284266 -0.029060462 -0.013733983 -0.002648718
0.04946103 0.021243047 0.031222908 0.016946139 0.032839943 -0.053486995 -0.0381194 -0.016397525
-0.016815078 0.006656524 0.008918201 0.0036189514 -0.013998516 0.030532632 0.026827816 0.02657259
0.022224113 -0.0011899322 -0.02836994 -0.046192262 -0.0071492475 0.04390064 -0.016617259 0.03090525
0.026103124 -0.017330704 -0.026129521 0.036237814 -0.0059691514 0.017334605 0.04916346 0.041052587
-3.3432298e-05 -0.0042845774 -0.03856613 0.027928157 -0.015027562 -0.00068440405 0.02814091 -0.027342
-0.04105558 0.0054262164 0.022456303 -0.016730655 5.1696337e-05 0.032243147 0.015242197 0.054557897
0.05124875 0.0059500877 -0.03800916 -0.0035124193 0.04561667 0.03877699 0.038729943 0.023044774
-0.047887713 0.032590773 0.039750732 -0.04877664 0.036446754 0.027318398 -0.019185774 0.03605091
0.026941674 0.034415856 -0.02363066 0.020464737 -0.038743805 0.0022232719 -0.008898606 0.016432151
00000000: c5ac f93c a635 d33c 1d47 55bd 228c 50bd
00000010: a275 d6bc c417 213d 5434 343d 1477 243c
00000020: a5da eabb 22fe 3c3d 8367 9f3c 3dd4 5fbd
00000030: 950f 36bd babc a6bc 9e05 183d 24b0 c5bc
00000040: 732d 61bd 8a5d 1b3d 58c6 a0bc ea33 cdbc
00000050: f97f 1c3d 4046 4f3c a609 5b3c c7dd a23c
00000060: 0624 343c 0c40 0fbd 34f5 c2ba b45c 8f3c
00000070: 354f 9bb9 3c2f 87ba d14c febb 76a6 4bbd
00000080: 2eda 79bc b2f9 d3bb 181d 263d fab5 5b3d
00000090: 1db5 01bc 0ba7 1cbd 63e0 48bc 2556 bcbc
000000a0: fb35 303b 5370 63bc 9d8d a7bb 1757 4a3d
000000b0: 8fc5 bbbc 485b 66bc e4e8 3fbc 101f 8d3c
000000c0: 0bc9 4538 169d 0abd 564a bebc 8229 383d
000000d0: c13c b5bb 0c7d a4bb d935 403a 10f8 fbbc
000000e0: 8d3e 4ebc 67e0 f1bc 9e37 ac3c 21f8 183d
000000f0: 42b8 2fbd a9a5 3d3d 3841 9a3c bf0b 0dbd
00000100: 6fbb f1bc bad7 f63c 8c28 3c3d 0989 2b3d
00000110: fb33 d53b 106f 33bd 77f4 5e3d 58bf 3fbd
00000120: d874 8ebc ba99 1fbc e390 933b 672d 2f3d
00000130: 1df3 acbc 6fce 01bb 1ae0 053d 4f1d c8bb
00000140: 85b0 523d 57b1 443c 8087 243d dfc8 4c3d
00000150: 3c6c dfbc 7a15 173d b805 53bc 4770 d13c
00000160: aa7b e63c b835 293d 2a78 d5bc 09b5 583c
00000170: d1dd 133c f550 c0bb 40e7 003d 421e de3c
00000180: fe98 213d f0d4 15bb c393 3d3d 9709 d8bb
00000190: 4bfa c83c f430 e73c 62fb af3c c376 0dbc
000001a0: d62d b4bc e21e f9bb a2f5 793c 36ef febb
000001b0: f034 413d b561 823c eb1c 3c3c 55b3 c93c
000001c0: cf19 54bb 9410 c4bc d1f2 27bd 32d6 193b
000001d0: 6167 173d f945 2fbc 3672 943b dcac 463d
000001e0: 1a19 0cbc 5e06 683d d20d 47bd 848a c13c
000001f0: 65e8 ad3c 9f30 d83b ef41 163d a237 8a3b
00000200: 6fc8 ba3c cf7c cebc 868a 09bc 4364 2c3d
00000210: 050b 88bc c818 e73c f433 2d3d 8827 1bbd
00000220: b3e3 3f3c cd1f 313d fba8 2abc fb0b f8ba
00000230: a2b0 dcbc 996e 8e3c de1c 27bd 6820 57bd
00000240: 3014 513c 8ed0 473b 1030 783c 3d59 cf3c
00000250: 43e1 80bc 5172 9f3a 175c 9dbb 4f55 97bc
00000260: e238 273d 09b8 acbc 4fd2 6f3c b46a 06bb
00000270: fb24 f73b 2194 893c 4b61 633c 9811 ccbc
00000280: 241d 17b9 a150 bcbc e4c0 10bd 716f c13b
00000290: 644e a6bc 1bda 31bc 8a9e 4abd 2984 543c
000002a0: c568 06bd eaf1 39bd eaf2 5dbc 2150 1c3c
000002b0: 5316 5a3d 25c7 523d 2f52 73bc 5e31 8038
000002c0: 0a04 663c 31b9 e6bb 8b3c 33bd 1df8 5c3c
000002d0: 1555 083d 3510 eebc 8004 61bc 1d96 2dbb
000002e0: a697 4a3d e605 ae3c 2fc7 ff3c a1d2 8a3c
000002f0: 2d83 063d 2e15 5bbd 1723 1cbd 1a54 86bc
00000300: c6bf 89bc f81e da3b a51d 123c ee2b 6d3b
00000310: 085a 65bc 921f fa3c 02c6 db3c c3ae d93c
00000320: 580f b63c 80f7 9bba 1468 e8bc 1934 3dbd
00000330: 3c44 eabb 28d1 333d eb20 88bc 022d fd3c
00000340: 38d6 d53c 1ff9 8dbc 940d d6bc 1a6e 143d
00000350: df98 c3bb 4d01 8e3c a05f 493d c226 283d
00000360: a839 0cb8 a465 8cbb 85f7 1dbd 97c9 e43c
00000370: 2a36 76bc 9469 33ba c487 e63c 54fc dfbc
00000380: e529 28bd 67ce b13b 48f6 b73c ba0e 89bc
00000390: 85d4 5838 6411 043d 68ba 793c 1a78 5f3d
000003a0: 36ea 513d f4f8 c23b 7eaf 1bbd 9e30 66bb
000003b0: 8cd8 3a3d 9fd4 1e3d 4aa3 1e3d 65c8 bc3c
000003c0: e825 44bd e77d 053d aad1 223d 04ca 47bd
000003d0: 3149 153d d5ca df3c 7c2b 9dbc 1eaa 133d
000003e0: c9b4 dc3c a4f7 0c3d 1695 c1bc aaa5 a73c
000003f0: d3b1 1ebd 50b4 113b 75cb 11bc b89c 863c
