lora_crossencoder_has_instruction_r_4 la_16 ld_0.3/checkpoint-387/adapter_model.safetensors (safetensors, 152508 bytes, 25 tensors)

base_model.model.bert.encoder.layer.0.attention.self.query.lora_A.weight f4 [4, 384]
0	0xbce01b1a	-0.027356673
1	0x3d4a2390	0.04935032
2	0x3ca73be9	0.02041431
3	0x3c9151de	0.017739233
4	0xbcaec5d3	-0.021334564
5	0xbb1acae2	-0.0023619463
6	0x3d2f4034	0.04278584
7	0x3c480024	0.012207065
8	0x3b762dec	0.0037563993
9	0xbb8aea38	-0.004239347
10	0x3ce399b6	0.027783256
11	0xbcbadd47	-0.022810591
12	0x3d33253f	0.043736693
13	0x3caa62de	0.020799097
14	0xbcd5f2d5	-0.026116768
15	0xbcdb21e9	-0.026749568
16	0xbd155545	-0.036458272
17	0x3d0ff521	0.035145883
18	0x3d31c487	0.043400314
19	0x3d2cce2c	0.04218881
20	0xbbc28a4e	-0.0059368974
21	0x3aaba236	0.0013094607
22	0xbc627fb3	-0.013824391
23	0x3cfed5f1	0.031107875
24	0xbc92f09f	-0.017937003
25	0xb9b6690e	-0.00034792017
26	0xbd3fcd73	-0.04682679
27	0x3c953064	0.018211551
28	0xb9488d74	-0.00019126182
29	0x3d512a02	0.051065452
30	0xbcc63398	-0.024194524
31	0x3d27edd5	0.0409983
32	0xbd4feed8	-0.05076489
33	0x3ccaba55	0.024747053
34	0x3cb4c3bf	0.022065995
35	0xbd526cb5	-0.051373202
36	0x3bd237d7	0.006415348
37	0xbca4e186	-0.02012707
38	0xbcec2e9d	-0.02883082
39	0xbd0a83d1	-0.033817116
40	0x3ca2c710	0.019870311
41	0x3cdccffb	0.026954642
42	0x3bc2c1ea	0.0059435265
43	0xbca62462	-0.02028102
44	0x3c9b2079	0.018936383
45	0xbcb75aa5	-0.02238209
46	0xbc018661	-0.007905574
47	0x3c246d45	0.0100358175
48	0xbd22f0b2	-0.039780326
49	0xbbaa7da7	-0.005202967
50	0x3c95cec2	0.018287066
51	0x3d3f2f32	0.04667587
52	0x3d3373cc	0.043811604
53	0xbc991f27	-0.018691612
54	0xbd10361f	-0.035207864
55	0xbd162260	-0.036653876
56	0x3ba8b62a	0.005148669
57	0xbd28efa3	-0.04124416
58	0xbbf32cbe	-0.007421105
59	0x3d32857e	0.04358434
60	0xbc2104ba	-0.009827787
61	0x3d1d1766	0.038352393
62	0x3d37585e	0.044762008
63	0xbcf69cd1	-0.030104073
64	0xbbee439d	-0.0072712437
65	0xbaa7a2e1	-0.001278963
66	0x3d19dc1a	0.03756342
67	0x3c2d41ae	0.010574741
68	0x3c9181e8	0.01776214
69	0xbd511fbf	-0.051055666
70	0xbc9080fc	-0.01763963
71	0x3cf318b7	0.02967487
72	0xbd2c4173	-0.042054605
73	0x3c8f04dd	0.017458374
74	0x3a64c2f5	0.00087265606
75	0xbcb835f0	-0.022486657
76	0x3d02f7d4	0.03197463
77	0xbd28fe3f	-0.041258093
78	0x3d4feb82	0.050761707
79	0x3c541454	0.0129443
80	0x38df5573	0.00010649385
81	0x3d199083	0.037491333
82	0xbbdf33a3	-0.0068115755
83	0x3d004bde	0.031322353
84	0xbd0c9c26	-0.034328602
85	0xbcf9cb9b	-0.030492594
86	0x3d03c7a5	0.032172818
87	0x3ca3e347	0.020005835
88	0xbd075b47	-0.033046033
89	0x3bf6c726	0.0075310646
90	0xbcc93a62	-0.024563972
91	0x3cf0aead	0.029380167
92	0x3cae8ad6	0.021306437
93	0xbce21e55	-0.027602354
94	0xbc3491bf	-0.011021077
95	0x3ac7b394	0.0015236014
96	0x3d37836a	0.04480306
97	0xba4d2006	-0.0007824901
98	0xbca94a86	-0.020665418
99	0x3d3ed96a	0.04659406
100	0x3b4f0c15	0.0031592895
101	0xbd35232a	-0.04422299
102	0xbc0b5c8f	-0.008505954
103	0xbd0b370e	-0.03398805
104	0x3cb79f94	0.02241496
105	0x3c1d35cc	0.009595346
106	0x3d39f523	0.045399796
107	0xbc43e17c	-0.011955615
108	0x3a2f873a	0.00066958705
109	0xbd5835dd	-0.052785743
110	0xbc30932e	-0.010777278
111	0x3d50fe60	0.05102384
112	0x3d427c84	0.04748203
113	0x3cd3312e	0.025780287
114	0xbcf7e07d	-0.030258412
115	0xbb9dfa26	-0.00482108
116	0x3a8738df	0.0010316632
117	0xbc14915a	-0.009067858
118	0xbccec038	-0.025238141
119	0xbbb544fc	-0.005531905
120	0x3bd0294b	0.0063525788
121	0x3d452ffc	0.048141465
122	0x3d1e0c71	0.038586084
123	0xbc1c7062	-0.0095482785
124	0xbd128b9c	-0.035777673
125	0x3bf8ef4e	0.0075968867
126	0x3cdabdb4	0.026701786
127	0x3c95fc62	0.018308822
128	0x3d3d2b33	0.046183776
129	0xbd0132b0	-0.03154248
130	0xb93d27c0	-0.00018039253
131	0xbd578f97	-0.052627172
132	0xbcbdfb69	-0.02319117
133	0x3c5288b8	0.012849979
134	0x3d5490e6	0.051896
135	0xbc86328b	-0.016381523
136	0x3cd6835b	0.026185682
137	0xbd18e8e3	-0.037331473
138	0x3c13e7c5	0.009027426
139	0xbd2f78de	-0.042839877
140	0xbd069b3f	-0.032862898
141	0xbd022590	-0.031774104
142	0xbd0fa5ca	-0.03507022
143	0x3d00a15f	0.031403895
144	0xbcff4ee3	-0.031165546
145	0x3c870524	0.016481943
146	0x3caa501a	0.020790149
147	0xbc112542	-0.008858981
148	0x3d23deab	0.040007275
149	0xbcf6d2d2	-0.030129824
150	0xb8cd6a6a	-9.794983e-05
151	0x3cb9d198	0.02268295
152	0x3cc42132	0.02394161
153	0x3d1c4155	0.038148243
154	0x3ac8acba	0.0015310266
155	0xbd50a5cf	-0.050939377
156	0xbd082769	-0.03324071
157	0xbd19c793	-0.037543844
158	0xbce19719	-0.02753787
159	0xbd1644bd	-0.036686648
160	0xbb32f525	-0.0027306762
161	0x3d166b8d	0.036723662
162	0x3aa4c79e	0.0012571698
163	0x3c95a9f4	0.018269517
164	0x3c822c55	0.01589028
165	0x3ae96d5d	0.0017809082
166	0x3d34cca6	0.04414048
167	0xbc25322d	-0.010082764
168	0x3d0de83f	0.034645315
169	0xbcf6071f	-0.030032692
170	0xbc864808	-0.016391769
171	0x3d08ddb2	0.03341455
172	0xbbbbd45d	-0.005732103
173	0x3c3fb6e6	0.011701321
174	0x3d35cf0f	0.04438692
175	0xbd4a44a9	-0.049381886
176	0x3ccd166d	0.025035108
177	0x3c3feb27	0.0117137795
178	0xba9ad10e	-0.0011811571
179	0xbc39b404	-0.011334423
180	0x3c81bb85	0.015836487
181	0xbc7b4a83	-0.015337589
182	0xb9d5c760	-0.00040775072
183	0x3be4805d	0.00697331
184	0xbcd84772	-0.026401255
185	0x3cee3db2	0.029082153
186	0x3a52618a	0.0008025399
187	0xbc5cc265	-0.013474082
188	0x3ce921ad	0.02845844
189	0x3bba35dd	0.0056826905
190	0xbc6450d4	-0.013935287
191	0x3d3891ac	0.0450608
192	0x3d1fc17d	0.039002884
193	0xbcadc1c9	-0.021210568
194	0x3cc427c4	0.023944743
195	0xbd4e9e11	-0.050443713
196	0x3d3add77	0.04562136
197	0xbc7705c3	-0.015077057
198	0x3c84f956	0.016232174
199	0x3a754c47	0.00093573745
200	0x3d0d762d	0.03453653
201	0xbc41efab	-0.011836926
202	0x3cce7ad5	0.025205055
203	0x3d3d6d74	0.04624696
204	0xbc699ddc	-0.014258828
205	0x3d34576a	0.044028677
206	0x3cb24340	0.021760583
207	0xbccb5b5b	-0.024823835
208	0xbc9b08b1	-0.018925043
209	0x3d186030	0.037201107
210	0x3d469ad9	0.048487518
211	0x3c893cdb	0.016752651
212	0xbc6a9cdd	-0.014319626
213	0x3cabcc68	0.020971492
214	0xbd49667c	-0.049170002
215	0xbd1cacc0	-0.038250685
216	0x3b1e8d14	0.0024192976
217	0x3d30cfce	0.043166928
218	0x3d40674e	0.04697352
219	0x3b440b57	0.0029913986
220	0xbacac917	-0.0015471306
221	0x3ca38ce4	0.019964643
222	0xbc77f4e7	-0.015134073
223	0xbd5409ac	-0.051767036
224	0xbcce354e	-0.025171902
225	0xbc9d6199	-0.019211577
226	0x3c98da32	0.018658731
227	0x3c6cba5e	0.01444873
228	0x3d231c09	0.03982166
229	0x3ca6b884	0.020351656
230	0xbd075196	-0.03303679
231	0x3cf68338	0.030091867
232	0xbca6bec0	-0.020354629
233	0x3a834c15	0.0010017181
234	0xbd40a104	-0.047028556
235	0x3cd1600b	0.025558492
236	0xbd517319	-0.051135156
237	0x3d47dd18	0.048794836
238	0xbd36a1e0	-0.04458797
239	0x3c8f0a35	0.017460922
240	0xbc82ba79	-0.015958058
241	0x3c170404	0.009217266
242	0x3d1bb165	0.038010973
243	0xbd19975a	-0.037497856
244	0x3d4a3a20	0.04937184
245	0xbd45224d	-0.048128415
246	0x3d40270b	0.046912234
247	0x3c6b5bfd	0.014365193
248	0x3c096d1e	0.008387832
249	0xbcf613b4	-0.030038692
250	0xbd168fa4	-0.03675808
251	0x3d01a1a5	0.031648297
252	0xba5231f0	-0.00080183055
253	0x3cb00a19	0.02148919
254	0x3cdd01ad	0.026978338
255	0x3cb10b7f	0.021611927

base_model.model.bert.encoder.layer.0.attention.self.query.lora_B.weight f4 [384, 4]
0	0x3855c906	5.0970375e-05
1	0xba1fd1a8	-0.000609661
2	0x3aa31062	0.0012440796
3	0xba0205a6	-0.0004959948
4	0x3b55b229	0.0032607412
5	0x38908957	6.8920366e-05
6	0x3a9e065a	0.0012056336
7	0x3b13ab7a	0.0022532628
8	0xba9b0743	-0.0011827726
9	0xbadc8e3c	-0.0016827057
10	0xb9e28940	-0.00043208338
11	0xbb09febd	-0.0021056377
12	0xbb13bc24	-0.002254256
13	0x39ef541c	0.000456483
14	0x3ad06a48	0.0015900815
15	0xbaee4523	-0.0018178563
16	0x390b6448	0.0001329343
17	0x3b317464	0.002707743
18	0xbb14529b	-0.0022632245
19	0x3ac7c749	0.0015241887
20	0x3b397b5c	0.0028302288
21	0x3954c9e1	0.00020293101
22	0x39e23128	0.00043142703
23	0x3b100c8c	0.0021980135
24	0x3b0f997a	0.0021911548
25	0x3b437ecf	0.0029830222
26	0xbb3499fe	-0.0027557607
27	0x3b115c44	0.0022180239
28	0x3a7a4782	0.00095473987
29	0x3b26b9da	0.0025440366
30	0x3a9c802e	0.0011940056
31	0x3a496367	0.00076823536
32	0x3ab3f837	0.001373059
33	0x39b9db67	0.00035449417
34	0xbab56e6d	-0.0013842114
35	0x3a8e004c	0.0010833829
36	0xba505bb2	-0.0007948234
37	0xba3708a3	-0.0006982183
38	0x3aca1a18	0.0015419153
39	0xba3e8917	-0.0007268353
40	0x38f9f282	0.00011918416
41	0x3b03ca9a	0.0020109774
42	0xbb29f707	-0.0025934593
43	0x3aab8999	0.0013087272
44	0x3b10a43e	0.0022070552
45	0x3a5af01d	0.00083518197
46	0xbab9f1ac	-0.0014186404
47	0x3aeff82b	0.0018308213
48	0x3b4987db	0.0030751142
49	0x3b1301e0	0.0022431538
50	0xb9ead42d	-0.0004479004
51	0x3b3897ba	0.0028166608
52	0x3b0d7ae7	0.0021588148
53	0x3a0c8713	0.0005360704
54	0x3ac383f6	0.0014916647
55	0x3a8c98be	0.0010726673
56	0x3ad6c3af	0.0016385223
57	0x3a4d8ff7	0.0007841582
58	0x3a00d17d	0.00049140287
59	0x3ac32071	0.0014886988
60	0x39f6e769	0.0004709319
61	0x3ab4dd55	0.0013798872
62	0x395027fb	0.0001985132
63	0x3a32827b	0.0006809604
64	0x3a2b789c	0.00065411045
65	0x3b1719c6	0.0023056134
66	0x3a2aefea	0.00065207353
67	0x3a65aa34	0.0008761019
68	0x3b4799ec	0.0030456735
69	0xba5f5448	-0.0008519334
70	0x3ae722ae	0.0017634237
71	0x3ac5f95b	0.0015104221
72	0xba960814	-0.0011446499
73	0x3a0ff2bb	0.0005491187
74	0x3a3e4e02	0.0007259549
75	0xba89de37	-0.0010518496
76	0x39b8da16	0.00035257702
77	0xb9cc8454	-0.00039008504
78	0xba6b7786	-0.0008982349
79	0x3a33978c	0.00068508903
80	0xbaf75c7f	-0.001887217
81	0xbaaec435	-0.0013333621
82	0xba41488f	-0.0007373178
83	0xbac43f76	-0.0014972526
84	0x38e00a3a	0.00010683057
85	0x3a8bd1d9	0.0010667398
86	0x3a919f39	0.0011110074
87	0x3a1a9668	0.0005897046
88	0x3ab3cb1c	0.0013717148
89	0x3a598bfb	0.0008298752
90	0xbaac62d8	-0.0013152016
91	0x3a49679f	0.0007682982
92	0x3b248859	0.0025105684
93	0xba8a11d1	-0.0010533874
94	0xb72e78bc	-1.0399319e-05
95	0x3b08683f	0.0020814089
96	0xbaee16b3	-0.0018164724
97	0xba9e020c	-0.0012055053
98	0x3b13cb21	0.0022551494
99	0xbaaa531c	-0.0012994739
100	0xbb4d7aab	-0.0031353633
101	0xba554a72	-0.00081363984
102	0x3b119001	0.0022211077
103	0xbb237bd0	-0.0024945624
104	0xbb0c18ad	-0.0021377013
105	0xba6e5124	-0.00090910704
106	0x3a354b85	0.00069158553
107	0xbad1451e	-0.0015966033
108	0x3b2abdd8	0.0026053097
109	0x3ac1f3a7	0.0014797346
110	0x37c42f2e	2.338699e-05
111	0x3b07d15f	0.002072416
112	0x3af8f7df	0.001899477
113	0x39d75a81	0.00041075426
114	0x3a654011	0.00087452034
115	0x3acdc283	0.0015698228
116	0xbb06fe1c	-0.0020598238
117	0x39f12d58	0.00046000886
118	0xbaca6342	-0.0015440958
119	0xba4df2c7	-0.0007856306
120	0x3b2f3df9	0.002673982
121	0xb7db54c7	-2.6146312e-05
122	0x3a838811	0.0010035058
123	0x3b14c2f8	0.0022699218
124	0xb9af9518	-0.00033489685
125	0xb9cbf1af	-0.00038899246
126	0xba80eea3	-0.0009836744
127	0xba6d1b1b	-0.00090448715
128	0x39d44808	0.00040489458
129	0xbacd594b	-0.001566687
130	0x3b336c67	0.0027377845
131	0xba712f0e	-0.0009200432
132	0xba84aa41	-0.001012154
133	0x3aac6b04	0.0013154452
134	0xbb326fa7	-0.0027227195
135	0x390178e4	0.00012347434
136	0x3a16c433	0.0005751282
137	0xba4759ed	-0.00076046475
138	0x3afd955e	0.0019346883
139	0xb910b845	-0.00013801556
140	0x3912c6ba	0.00013997676
141	0xbb025feb	-0.0019893597
142	0x3b40cce2	0.0029418995
143	0xbaa4a8e8	-0.0012562545
144	0x3757b904	1.2858076e-05
145	0x3adaa803	0.0016682151
146	0xbb35795b	-0.0027690742
147	0x3aac1c87	0.001313106
148	0xba35254d	-0.00069101603
149	0x3ae178fc	0.0017202194
150	0xbb439c7f	-0.0029847918
151	0x3a5464ae	0.00081021606
152	0x3a284bbb	0.0006419976
153	0xbaba7782	-0.001422629
154	0x3b2fd2af	0.0026828458
155	0xba2c801c	-0.0006580369
156	0xba07dcbd	-0.0005182734
157	0xba689f79	-0.0008873861
158	0x3b098b45	0.0020987552
159	0xba99b6f2	-0.0011727496
160	0x3a807d4a	0.0009802964
161	0xbaa2da51	-0.0012424682
162	0x3b2cb6ef	0.0026354154
163	0xb9b023b2	-0.0003359593
164	0xba0fea8e	-0.00054899685
165	0x3a921ff8	0.0011148443
166	0xbb1b2693	-0.0023674115
167	0x3996dbb9	0.00028773936
168	0x3997adef	0.00028930555
169	0x3acb2111	0.0015497525
170	0xbb3b87ed	-0.0028614954
171	0x3ab87c08	0.001407505
172	0x3acf6eb7	0.0015825842
173	0xbabbd3b1	-0.0014330057
174	0x3b39be98	0.0028342362
175	0x3932c2bf	0.00017047951
176	0xb924b14a	-0.00015706304
177	0x3a83f4fc	0.0010067518
178	0xbb1d4e47	-0.0024002956
179	0x3a2b038c	0.0006523661
180	0x3a5cefc0	0.00084280595
181	0xbacece1d	-0.0015777979
182	0x3b3faf33	0.0029248714
183	0xba2a5c97	-0.00064987823
184	0x3aca624f	0.0015440675
185	0x3a0a2bda	0.00052708166
186	0xbaebdf66	-0.0017995655
187	0x3a678bc9	0.00088327803
188	0x3a06a2e9	0.000513597
189	0xbaaf8527	-0.0013391123
190	0x3b2bf9d4	0.0026241438
191	0xba37b121	-0.000700729
192	0x3b1732c2	0.0023071025
193	0xbaaba4ae	-0.0013095343
194	0x38b3e814	8.578613e-05
195	0xb8c5b0b5	-9.426606e-05
196	0x3892520a	6.9771035e-05
197	0xbac53059	-0.0015044316
198	0x3b2d3d46	0.0026434227
199	0xba88a517	-0.0010425177
200	0xbac07b52	-0.001468519
201	0x3a5c286b	0.0008398357
202	0xbafcea63	-0.0019295927
203	0xb98a69fc	-0.00026400376
204	0x3b034e61	0.002003573
205	0xbad7ef29	-0.0016474474
206	0x3b4fadff	0.0031689403
207	0x3902c261	0.00012470178
208	0xb769ea0d	-1.3942376e-05
209	0x3aa52da0	0.0012602098
210	0xbb272569	-0.0025504476
211	0x3a5969d8	0.0008293665
212	0xb912f2a8	-0.00014014042
213	0x3a8b536f	0.0010629724
214	0xbb1535fb	-0.002276777
215	0x3a3b1f72	0.00071381696
216	0x3a517d57	0.00079913944
217	0x3ade388d	0.0016954109
218	0xba621c19	-0.00086254027
219	0x3aedc353	0.0018139876
220	0x3a537fbd	0.0008068046
221	0xbaaf4262	-0.0013371224
222	0x3b2acafa	0.0026060925
223	0xba025ee7	-0.0004973248
224	0x3a64cae6	0.0008727744
225	0xbac51949	-0.0015037443
226	0x3b290bfb	0.0025794494
227	0xb9826803	-0.00024873027
228	0x39c1f253	0.00036992374
229	0x3a5141d3	0.0007982526
230	0xbb041fb7	-0.0020160505
231	0x3a64e30d	0.0008731343
232	0x39c656b8	0.00037830113
233	0xbaacef44	-0.0013193865
234	0x3b234af2	0.0024916497
235	0xba37b3e4	-0.0007007702
236	0x3a45e7ff	0.0007549524
237	0xbad51ca9	-0.0016259152
238	0x3b36343b	0.0027802128
239	0xba1065d9	-0.00055083405
240	0xbb4e3ff0	-0.0031471215
241	0xba3d43dd	-0.000721989
242	0x3abac79f	0.0014250166
243	0xbb086ac8	-0.00208156
244	0xbaab4fad	-0.001307001
245	0xbace8ea6	-0.0015759065
246	0x3b242e45	0.0025051993
247	0xbab00f2e	-0.0013432258
248	0xba134ccd	-0.0005619049
249	0xbabc799e	-0.0014379506
250	0x3b200230	0.0024415366
251	0xbaa24fce	-0.0012383403
252	0x395f25eb	0.00021281063
253	0xbac561d2	-0.001505906
254	0x3b31cf17	0.0027131492
255	0xb9fd6fe2	-0.0004833928

base_model.model.bert.encoder.layer.0.attention.self.value.lora_A.weight f4 [4, 384]
0	0x3d213302	0.039355285
1	0xbd589c84	-0.05288364
2	0xbcfdc413	-0.030977285
3	0x3cd91c2f	0.026502697
4	0x3d2b0b01	0.04175854
5	0xbd319cee	-0.04336255
6	0xbd03f683	-0.032217514
7	0x3c7dec38	0.0154982135
8	0x3d3babf3	0.04581828
9	0x3b721e5e	0.003694437
10	0x3b9bbeaa	0.0047529535
11	0xbc2c107f	-0.01050198
12	0xbc73f5da	-0.014890159
13	0xbd001767	-0.03127232
14	0xbd288ddf	-0.041150924
15	0x3cc3dc82	0.023908857
16	0xbcff7710	-0.031184703
17	0xbd1311cf	-0.035905655
18	0xbad0b0b6	-0.0015921805
19	0xbbb77289	-0.0055983705
20	0x3d0b1b18	0.033961385
21	0xbca48884	-0.020084627
22	0x3ccacb2c	0.024755083
23	0x3ce53f87	0.027984394
24	0xbcc03822	-0.023464266
25	0xbd22ae49	-0.039716993
26	0xbc6162ee	-0.013756497
27	0xbc38bfae	-0.011276169
28	0xbc9d4949	-0.019199984
29	0x3bae782d	0.0053243847
30	0x3cb3e112	0.021957908
31	0x3c79102d	0.0152016105
32	0x3d3ad390	0.045611918
33	0x3d51c72e	0.051215343
34	0xbd27ee54	-0.04099877
35	0xbc8dc913	-0.017307794
36	0x3c6049af	0.013689443
37	0x3ce456c0	0.027873397
38	0xbd534988	-0.051583797
39	0x3cb583cb	0.02215757
40	0xbba43775	-0.005011494
41	0x3b1af0f5	0.0023642157
42	0x3ce5b8c7	0.02804221
43	0x3d127b74	0.035762265
44	0x3b593ce8	0.0033147875
45	0xbcfbdb7a	-0.030744303
46	0x3cdf9fe3	0.02729792
47	0xbd0ff09a	-0.035141565
48	0xbb38d0f3	-0.0028200715
49	0x3baba367	0.005237985
50	0xbabd8573	-0.0014459327
51	0x3c3375df	0.010953396
52	0x3bc5691f	0.0060244943
53	0x3d067f02	0.032835968
54	0xbd3287a4	-0.04358639
55	0x3cca846f	0.024721352
56	0x3cddb09b	0.027061751
57	0x3cd7112f	0.026253311
58	0x3d588562	0.05286158
59	0x3cabe1ec	0.020981751
60	0x3c8854fc	0.016642086
61	0x3cf0c820	0.029392302
62	0x3c31f8fc	0.010862585
63	0x3c570521	0.013123781
64	0x3d098420	0.03357327
65	0xbd1056a9	-0.035238896
66	0xbd48bf2a	-0.049010433
67	0xbcadbbd1	-0.021207722
68	0x3ce352f2	0.027749512
69	0xbd23f9a2	-0.04003299
70	0x3d2629c1	0.040567163
71	0xbc74d07a	-0.014942283
72	0xbd307966	-0.043084525
73	0xbbc37230	-0.00596454
74	0xbd0cf73a	-0.03441546
75	0xbd2ddba9	-0.042445812
76	0xbd3892c3	-0.045061838
77	0x3cda6252	0.02665821
78	0x3ce67dde	0.02813619
79	0x3a233cf5	0.000622704
80	0x3d108021	0.035278443
81	0x3d1f51df	0.038896438
82	0xbd38fe64	-0.04516448
83	0x3d57b05c	0.052658424
84	0xbcfb020d	-0.030640626
85	0x3cf83dd0	0.030302912
86	0x3c792301	0.0152060995
87	0xbca5c454	-0.020235218
88	0xbd079421	-0.03310025
89	0x3c16f404	0.009213451
90	0xbd4c7615	-0.0499173
91	0xbc401d69	-0.011725762
92	0xbb957201	-0.0045607095
93	0x3d11d2ae	0.03560131
94	0x3d2c6445	0.042087812
95	0xbcf27d8f	-0.029600887
96	0x3bb54a3f	0.0055325325
97	0x3c878492	0.016542707
98	0xbd0b1c82	-0.033962734
99	0x3cd66e34	0.026175596
100	0x3c95a558	0.018267319
101	0x3bf36179	0.007427391
102	0xbcfe38bb	-0.03103291
103	0xbca53208	-0.020165458
104	0xbb92836c	-0.004471233
105	0x3d4c3d60	0.04986322
106	0xb95af78b	-0.00020882317
107	0xbcc32296	-0.023820203
108	0x3cf8d7eb	0.030376395
109	0x3d3b3363	0.045703303
110	0xbcf1b276	-0.029504042
111	0xbc28ca5f	-0.010302155
112	0xbcc0ba1c	-0.023526244
113	0x3d604d99	0.054761503
114	0xbcd01e96	-0.02540521
115	0x3d33fc3f	0.043941732
116	0x3b8e1011	0.0043354114
117	0xbd1d9b8b	-0.038478415
118	0xbcd18210	-0.025574714
119	0x3d37c547	0.044865873
120	0xbce3c4bf	-0.027803777
121	0xbd4fc34c	-0.05072336
122	0xbcf829e2	-0.030293409
123	0xbd2f91d0	-0.042863667
124	0x3cf335fe	0.029688831
125	0x3c59ee80	0.013301492
126	0xbc4dae6e	-0.012553794
127	0x3d58fe03	0.05297662
128	0x3ce9b76d	0.028529847
129	0xbd1d2fa7	-0.038375523
130	0xbc78a9cc	-0.0151772015
131	0x3d21b315	0.039477427
132	0xbc41e90e	-0.01183535
133	0x3c4e0803	0.012575152
134	0x3d0b9de5	0.034086127
135	0xbd328fd9	-0.043594215
136	0x3ccab8e1	0.02474636
137	0xbc998417	-0.018739743
138	0x3d15b990	0.03655392
139	0xbd04c9a0	-0.032418847
140	0x3c687300	0.014187574
141	0xbd11d02b	-0.035598915
142	0xbd1a90b2	-0.03773565
143	0xbce4f930	-0.027950853
144	0x3bd7eb29	0.0065893126
145	0x3b66f649	0.0035242012
146	0xbc9ac2e8	-0.018891767
147	0xbd0fbd5e	-0.035092704
148	0x3ca556fe	0.020183083
149	0x3c5f9027	0.013645208
150	0x3d1c0423	0.038089883
151	0x3d1acca6	0.037792824
152	0xbc0c2fcf	-0.00855632
153	0x3c52e649	0.012872287
154	0xbd1e8761	-0.038703326
155	0xbcd3597f	-0.025799511
156	0x3d1e3ae2	0.038630374
157	0xbd213ef7	-0.03936669
158	0x3c8651a8	0.016396359
159	0x3b2f6af2	0.0026766625
160	0x3d0c62ce	0.034273915
161	0x3c0f7a67	0.00875721
162	0xbc149459	-0.009068572
163	0x3d2b553e	0.04182934
164	0xbd659863	-0.05605353
165	0x3d2401c7	0.040040758
166	0xbbd7bea6	-0.0065840064
167	0xbc43077c	-0.01190364
168	0xbd20134c	-0.039080903
169	0x3d03a279	0.032137368
170	0xbc019b50	-0.007910565
171	0xbcd91222	-0.026497904
172	0x3d41c9c7	0.04731157
173	0x3d4edc80	0.050503254
174	0xbb6927d3	-0.0035576716
175	0x3d00ea94	0.03147371
176	0x3c91db61	0.017804803
177	0xbd00ddfd	-0.031461705
178	0x3bdb0bce	0.006684757
179	0xbd17ba96	-0.037043177
180	0xbcacedd8	-0.021109506
181	0x3bbb79d9	0.0057213125
182	0x3c7af632	0.015317487
183	0x3d4b267e	0.049597256
184	0xbcf7f6e6	-0.030269098
185	0xbd2fcdbc	-0.042920813
186	0x3d56ee29	0.05247322
187	0xbc717f35	-0.014739801
188	0xbbf61c73	-0.0075107156
189	0x3d4b3c63	0.049618136
190	0xbcf7e98b	-0.03026273
191	0x3d1cee9b	0.03831349
192	0xbd59429e	-0.053042047
193	0x3a047124	0.00050522597
194	0xbc75d94e	-0.015005423
195	0x3c626c16	0.013819715
196	0x3d0f3c4a	0.034969606
197	0xbc882b09	-0.016622083
198	0xbcc571bb	-0.024102082
199	0x3d276010	0.040863097
200	0xbcc91569	-0.024546342
201	0xbd34f535	-0.04417916
202	0x3d2fb7d9	0.04289994
203	0x3d228d6f	0.039685663
204	0x3d5a94b0	0.053364456
205	0xbc7688ce	-0.015047265
206	0xbcf60372	-0.03003094
207	0x3d07cd9d	0.033155072
208	0xbc3619a2	-0.01111451
209	0xbcc661c5	-0.024216542
210	0xbd1c2ec4	-0.038130537
211	0x3d2677ac	0.04064147
212	0xbd3ccbbe	-0.04609274
213	0xbca1054d	-0.019655848
214	0xbca480c7	-0.020080937
215	0x3c08d853	0.008352357
216	0x3d56757b	0.05235813
217	0xbcb64d76	-0.022253733
218	0x3c4fdfc6	0.012687629
219	0xbcf7b0c9	-0.030235665
220	0x3c044dbf	0.008075177
221	0xbd5b23d9	-0.053500984
222	0x3d2a45cc	0.04157047
223	0x3d3aa1f8	0.04556462
224	0x3b0be9f1	0.0021349157
225	0x3b99d98f	0.0046951245
226	0x3c04f802	0.00811577
227	0x3d007a0f	0.031366404
228	0xbd394c3b	-0.045238715
229	0xbc5036dd	-0.012708393
230	0x3cdf270a	0.027240295
231	0xbcf4789b	-0.029842665
232	0xbbcf380f	-0.0063238214
233	0xbd2505d1	-0.04028875
234	0xbd0173b5	-0.031604487
235	0xbc804c54	-0.015661396
236	0xbd6511b3	-0.055925082
237	0x3bd261ca	0.006420349
238	0x3d0eaa23	0.034830224
239	0xba2627b2	-0.00063383125
240	0xbbb6602e	-0.0055656647
241	0x3d2cb778	0.042167157
242	0x3c44af7e	0.012004731
243	0xbc0005ab	-0.007813851
244	0xbcd664b2	-0.026171062
245	0x3cf903fc	0.030397408
246	0xbcb6e3f3	-0.022325492
247	0x3bef72f5	0.007307405
248	0xbc578b1c	-0.013155725
249	0xbce68311	-0.02813867
250	0x3c81c801	0.01584244
251	0x3ac2c8f9	0.001486092
252	0xbbe03f62	-0.0068434933
253	0x3d50c19a	0.050965883
254	0xbd15e5c5	-0.03659608
255	0xbc8a5137	-0.01688443

base_model.model.bert.encoder.layer.0.attention.self.value.lora_B.weight f4 [384, 4]
0	0xba23d232	-0.0006249278
1	0xba9cd0ac	-0.0011964045
2	0x3aebcf11	0.0017990788
3	0x3aa01088	0.0012211958
4	0x3b275cd3	0.0025537505
5	0xb99b9bba	-0.0002967993
6	0xb9b07948	-0.00033659698
7	0xbb1bb22c	-0.0023757322
8	0x3bbe618d	0.005809969
9	0x3a419f3f	0.0007386095
10	0xbaba83a9	-0.0014229912
11	0xbba94c92	-0.0051665986
12	0x3b4ffacd	0.0031735182
13	0x3a9206f8	0.0011140993
14	0xbade9dde	-0.0016984304
15	0xbb421d88	-0.0029619653
16	0xb9c3949f	-0.0003730403
17	0x3b991716	0.0046719415
18	0xbb4fdc74	-0.0031717094
19	0x3866d316	5.5032862e-05
20	0xb9cb52e8	-0.00038780947
21	0x3b1d7bd7	0.0024030113
22	0xbba5b215	-0.0050566294
23	0x38ca25a5	9.6391224e-05
24	0xba8232d8	-0.0009933366
25	0x37166dac	8.966232e-06
26	0x398333f3	0.00025024972
27	0x3a7d3113	0.0009658497
28	0xbb7b4139	-0.0038338436
29	0x3b198c2e	0.00234295
30	0xbb0f8f05	-0.0021905315
31	0x3b79e999	0.003813362
32	0x3b2db42d	0.0026505098
33	0xbb994f9b	-0.004678679
34	0x3b9726fe	0.0046128025
35	0xbb129846	-0.0022368594
36	0xba44a0bd	-0.00075007585
37	0xbb1fb2e0	-0.0024368092
38	0x3b36fa14	0.0027920054
39	0x3aa9afa0	0.0012946017
40	0xb8fffca2	-0.00012206404
41	0xbb5b6b13	-0.003348057
42	0x3b3fbfb5	0.0029258553
43	0x3a7b3312	0.00095825
44	0xba862240	-0.0010233596
45	0xbb351d9d	-0.002763606
46	0x3b07cfc0	0.0020723194
47	0x3ab1d027	0.0013566063
48	0x3b197033	0.0023412823
49	0xbb325801	-0.00272131
50	0xb9cf7bb1	-0.00039574274
51	0xbb10b69c	-0.00220815
52	0x3b0e462d	0.0021709308
53	0xba2c9309	-0.0006583189
54	0x395f2603	0.00021281098
55	0xbb126e00	-0.0022343397
56	0xbb9d80d1	-0.004806616
57	0x3b181665	0.0023206708
58	0xbac9d8d9	-0.0015399709
59	0x3b99ab4e	0.0046896106
60	0xba836cf7	-0.0010026981
61	0xb9ae8cba	-0.00033292716
62	0x3a055539	0.00050862465
63	0x3a5f17ae	0.00085103035
64	0xbabec789	-0.0014555316
65	0x3b1663b0	0.0022947602
66	0xbb29d507	-0.0025914328
67	0x3ab78c32	0.0014003573
68	0xba14bfa7	-0.00056743104
69	0xbab4f690	-0.0013806392
70	0x3aa99fe5	0.0012941329
71	0x3a3d4f4e	0.0007221595
72	0x3b93bc0c	0.004508501
73	0x3b11aa0b	0.0022226598
74	0xbb36d7c5	-0.0027899605
75	0xbb9c2578	-0.004765209
76	0x3b65756f	0.0035012623
77	0xbaf0bddb	-0.0018367128
78	0x3a824680	0.0009939224
79	0xbb990b77	-0.004670556
80	0x3b1feebb	0.002440377
81	0x3abcba96	0.0014398869
82	0xbae6ffad	-0.0017623805
83	0xbb54f3df	-0.0032493991
84	0x3b60096e	0.0034185308
85	0xbb9e8725	-0.004837888
86	0x3b49b68d	0.0030778975
87	0xbb4bf5ef	-0.003112193
88	0x3b0253a7	0.0019886286
89	0x39195fc8	0.00014626898
90	0xba3525fd	-0.0006910263
91	0xbb37f8bd	-0.0028071844
92	0xbbbc7b50	-0.0057520047
93	0x3ba9dfea	0.0051841633
94	0xbb470a16	-0.0030371002
95	0x3bc51195	0.006014059
96	0xbbb322c1	-0.0054667895
97	0x3b978e16	0.0046250923
98	0xbb897a00	-0.0041954517
99	0x3ae9bbbe	0.0017832441
100	0x3babdab7	0.0052445787
101	0xbbd63523	-0.006537096
102	0x3ba548d5	0.0050440826
103	0xbbac9b81	-0.005267561
104	0x3b3575fd	0.0027688735
105	0xbb2b11b9	-0.0026103093
106	0x3b268c9e	0.0025413404
107	0xbb418a73	-0.0029531985
108	0x3a2b55da	0.0006535925
109	0x3993cb40	0.00028189458
110	0xba50db10	-0.0007967213
111	0xba511289	-0.0007975479
112	0x39a1cb6a	0.00030859868
113	0xb8b08a8f	-8.4181425e-05
114	0x39147207	0.00014156858
115	0x3a99bb0d	0.0011728719
116	0xba9cc9f2	-0.001196204
117	0x3b4b01b7	0.0030976364
118	0xbb2e7204	-0.0026618252
119	0xb95b0f92	-0.00020891268
120	0x3b95e4d4	0.0045743976
121	0xbbb75c4a	-0.0055957185
122	0x3a9798a5	0.0011565877
123	0xbb9c60ab	-0.004772266
124	0x39a16dcb	0.00030790115
125	0xbb1f2463	-0.0024283163
126	0x3b512a80	0.00319162
127	0x39fba894	0.0004800005
128	0xbb8c6504	-0.004284503
129	0x3b7444c6	0.0037272437
130	0xbb6cebc3	-0.0036151267
131	0x3b9e9975	0.004840071
132	0x3b8e9c5e	0.0043521365
133	0xbbb47055	-0.005506555
134	0x3b85d14e	0.004083789
135	0xbb6c3213	-0.0036040589
136	0x3b8d2f2b	0.0043086014
137	0xbbcfb40a	-0.006338601
138	0x3baa3bc9	0.005195115
139	0xbb7218ad	-0.0036940977
140	0x3b63d64f	0.003476519
141	0xbb68d7e9	-0.0035529083
142	0x3b4947da	0.0030712993
143	0xbb724526	-0.0036967485
144	0x3a49d264	0.0007698892
145	0xbae5d375	-0.0017534333
146	0x3b07983d	0.0020690106
147	0x3a0396a9	0.00050197035
148	0x3b9136c0	0.0044315755
149	0xbb90be53	-0.0044172197
150	0x3b827535	0.0039812573
151	0xbb9c2b8a	-0.0047659324
152	0x3ab52340	0.001381971
153	0x3ac95a81	0.0015362055
154	0xbab3026e	-0.001365734
155	0xbaccadb5	-0.0015615734
156	0xbab6a4c5	-0.0013934603
157	0x3ac5b356	0.0015083354
158	0xbb00f2c1	-0.0019675943
159	0x3abcbd2f	0.0014399643
160	0xb9fa7f4e	-0.00047778565
161	0x38a4cec2	7.858641e-05
162	0xb8886a1f	-6.504752e-05
163	0x3a4ef0ef	0.0007894178
164	0xbb826a0d	-0.0039799274
165	0x3bd18cf9	0.006394979
166	0xbbc785d1	-0.00608895
167	0x3b6f5f0a	0.0036525154
168	0xbbb9aa69	-0.0056660664
169	0x3bc4e80a	0.0060091065
170	0xbbd4df35	-0.006496335
171	0x3bc6ac3d	0.006063013
172	0xba9d3b21	-0.0011995771
173	0x3a770f95	0.0009424624
174	0xba67eb3a	-0.0008847002
175	0x3aac8520	0.0013162233
176	0xbb58b989	-0.0033069572
177	0x3b2ecfef	0.002667423
178	0xbb262fbe	-0.0025358046
179	0x3b875098	0.0041294806
180	0xbb4fd3fc	-0.0031712046
181	0x3af6c19b	0.001882601
182	0xba5d79ec	-0.0008448649
183	0x3b8ff5ba	0.0043933066
184	0xba291822	-0.00064504344
185	0x393f7c88	0.00018261571
186	0x3a04a625	0.0005060158
187	0x3a859858	0.0010192497
188	0xbba9de76	-0.00518399
189	0x3bc338bd	0.0059576915
190	0xbb912622	-0.0044295946
191	0x3bacc6d6	0.0052727265
192	0xbb48e525	-0.003065416
193	0x3a9bd59d	0.0011889223
194	0x3939fbd4	0.00017736788
195	0x3b6936d1	0.0035585652
196	0x3bc998cc	0.006152248
197	0xbb7832aa	-0.0037871995
198	0x3b3a7dfe	0.0028456445
199	0xbb970553	-0.004608789
200	0xbb6d13bc	-0.0036175093
201	0x3b3132d6	0.0027038357
202	0xbb2541fc	-0.0025216332
203	0x3b957b17	0.0045617926
204	0x3b82ffcb	0.003997778
205	0xbb40d327	-0.0029422732
206	0x3b30b0ea	0.0026960918
207	0xbadfc404	-0.0017071967
208	0x3a646562	0.0008712617
209	0xba36c668	-0.0006972314
210	0x39d1a35b	0.00039985296
211	0xba8b81ee	-0.001064358
212	0x3bc1b9fa	0.0059120627
213	0xbb518883	-0.0031972236
214	0x3b03a817	0.0020089203
215	0xbbe378af	-0.006941877
216	0xbb844d80	-0.004037559
217	0x3b6fa36d	0.0036565915
218	0xbb4e9a80	-0.0031525195
219	0x3b960c3a	0.0045790942
220	0x3b9b5809	0.004740719
221	0xbb73a1ac	-0.0037175221
222	0x3b53c02a	0.0032310584
223	0xbbb8efae	-0.0056438064
224	0xbb694bff	-0.0035598276
225	0x3b3e44d3	0.0029032722
226	0xbb13bd5c	-0.0022543287
227	0x3b836dad	0.004010877
228	0xba705d0f	-0.000916914
229	0x39df4e65	0.00042592283
230	0x38f0b654	0.00011478053
231	0x3aa4c24f	0.0012570116
232	0xbb717089	-0.0036840758
233	0x3af3104e	0.0018544288
234	0xbac481d3	-0.0014992304
235	0x3ba89041	0.0051441495
236	0x3b372da0	0.0027950779
237	0xbb448720	-0.0029987767
238	0x3b139435	0.0022518758
239	0xbb4034bc	-0.0029328307
240	0x3ac57c41	0.0015066938
241	0xba9a7543	-0.0011784214
242	0x3a8ff973	0.0010984376
243	0xbae5f41c	-0.0017544064
244	0xbb274ecc	-0.0025529144
245	0x3a06aaa8	0.0005137124
246	0x39f3c2ce	0.00046493713
247	0x3bb160f5	0.0054131695
248	0x3a261354	0.00063352776
249	0xb9b1e70f	-0.00033932223
250	0xbad0465a	-0.0015890107
251	0xba311359	-0.0006754897
252	0x3bbb46fb	0.0057152486
253	0xbb9e55fe	-0.0048320284
254	0x3b7b20a4	0.0038319016
255	0xbbc692a9	-0.0060599637

base_model.model.bert.encoder.layer.1.attention.self.query.lora_A.weight f4 [4, 384]
0	0xbc8c7b2e	-0.01714858
1	0x3ba29b7d	0.0049623833
2	0x3d118f6d	0.035537172
3	0x3d0e51a8	0.034745842
4	0x3c1a3468	0.009411909
5	0x3b98720a	0.0046522664
6	0xbcadb6da	-0.021205354
7	0x3d3b95ae	0.045797043
8	0xbc78979d	-0.015172866
9	0xbc45f2ce	-0.012081815
10	0xbd45e817	-0.04831704
11	0xbd57d8ca	-0.05269698
12	0xbd48ee47	-0.049055364
13	0xbc8c17e4	-0.017101236
14	0xbc8da911	-0.017292531
15	0xbb4dccfa	-0.0031402693
16	0x3d26804d	0.0406497
17	0x3c63ca5f	0.0139032295
18	0xbc468c84	-0.0121184625
19	0x3d4d5915	0.050133783
20	0x3b2c7b12	0.0026318473
21	0xbd176632	-0.036962695
22	0xbc3c3270	-0.011486635
23	0x3d069523	0.03285707
24	0xbd22fdc4	-0.03979279
25	0x3b9c4366	0.0047687767
26	0x3d4530b6	0.048142157
27	0xba1d722b	-0.0006006087
28	0x3d3e59e0	0.04647243
29	0x3c4e2423	0.012581858
30	0x3b24d705	0.0025152576
31	0x3c430031	0.011901901
32	0xbd300376	-0.04297205
33	0x3d4d673e	0.050147288
34	0x3cbfe310	0.023423702
35	0x3d124a5f	0.035715457
36	0xbd243584	-0.0400901
37	0x3c421e9e	0.01184812
38	0x3cf10a48	0.029423848
39	0xbd3bff3a	-0.0458977
40	0x3d4716bb	0.04860566
41	0xbd0328ee	-0.032021455
42	0xbd388beb	-0.04505531
43	0x3d30e973	0.043191385
44	0xbd21085b	-0.03931461
45	0xbd27e0f5	-0.04098602
46	0xbc7abe3e	-0.015304146
47	0xbd209f9e	-0.039214723
48	0xbcffc8c2	-0.031223658
49	0x3bbe0f4e	0.0058001643
50	0xbd2d5f9e	-0.042327516
51	0xbd088f7a	-0.033339955
52	0xbd169433	-0.036762428
53	0x3cf4ee1b	0.029898694
54	0xbbc3383f	-0.005957633
55	0x3cc10abb	0.023564687
56	0xbc595948	-0.013265915
57	0x3c42df20	0.011894017
58	0xbd2aca7f	-0.04169702
59	0x3ca3acaa	0.019979794
60	0xbc0643e1	-0.0081948945
61	0x3d02b7f0	0.031913698
62	0xbc48e967	-0.012262679
63	0xbd28e4cf	-0.041233834
64	0x3d2f1b20	0.042750478
65	0x3cb6f077	0.02233146
66	0xbcec074e	-0.028812077
67	0xbd46ebbb	-0.048564654
68	0xbcc16555	-0.02360789
69	0xbb4a0fad	-0.0030832097
70	0xbb81fecb	-0.0039671413
71	0x3c4056fe	0.011739491
72	0x3d2c3a30	0.04204768
73	0x3ceb4268	0.028718188
74	0x3c59a35e	0.013283579
75	0x3ce33904	0.027737148
76	0x3c6a0f7a	0.014285916
77	0xbba7f48b	-0.0051255873
78	0xbcc5be6a	-0.024138648
79	0xbc6d8286	-0.014496451
80	0x3ce82d9f	0.028342066
81	0x3a541077	0.00080896117
82	0xbbe9c6aa	-0.0071342783
83	0x3cc4e3da	0.02403443
84	0x3ccffd71	0.025389405
85	0xbcc3037b	-0.02380537
86	0x3cfd45f7	0.03091715
87	0x3ba5358e	0.0050417846
88	0xbbbd2524	-0.00577225
89	0x3cc2bb2c	0.023770891
90	0xbd22f282	-0.039782055
91	0xbbec4efb	-0.0072115636
92	0x3c0288b3	0.007967162
93	0xbd15d91b	-0.036584
94	0xbc4bf8e4	-0.012449477
95	0xbce36df6	-0.027762394
96	0x3d2e9652	0.042623825
97	0x3d12e088	0.03585866
98	0xbd122141	-0.035676245
99	0x3c8c7260	0.017144382
100	0x3d116e6d	0.0355057
101	0x3d3c2782	0.045936115
102	0x3d1fd2ec	0.03901951
103	0x3cb2b620	0.02181536
104	0xbc8fad40	-0.017538667
105	0x3c8e6e9f	0.017386733
106	0x3cfb0459	0.030641722
107	0xbc941416	-0.018075984
108	0xbb71309f	-0.0036802662
109	0xbc12df32	-0.008964347
110	0xbbef2bb1	-0.0072989096
111	0xbc0e4dbf	-0.008685528
112	0xbd22fe7f	-0.039793488
113	0x3ca02fbd	0.019554013
114	0xbb2eecb6	-0.0026691384
115	0xbd22e9d5	-0.03977378
116	0x3d1513e4	0.036395922
117	0x3d11541b	0.0354806
118	0xbceb3231	-0.028710457
119	0x3d2ff690	0.04295975
120	0xbc1a5246	-0.00941903
121	0x3d3c841c	0.046024427
122	0x3d0b1151	0.03395206
123	0x3cb490b4	0.022041656
124	0xbcff9516	-0.03119902
125	0x3c5e2c12	0.013560312
126	0xbb915f39	-0.0044364003
127	0x3cf4b583	0.029871708
128	0xbb30eea4	-0.002699771
129	0x3d3dc95c	0.04633461
130	0xbc6d3a9b	-0.014479305
131	0xbcab1c2f	-0.020887462
132	0x3cad2597	0.021136088
133	0x3cf85832	0.030315492
134	0xbc834ea8	-0.016028717
135	0xbba757e0	-0.005106911
136	0x3d04d22a	0.03242699
137	0xbd3d84bc	-0.046269163
138	0xbc75c7c6	-0.015001243
139	0xbca9797b	-0.02068781
140	0xbcb78c71	-0.022405835
141	0x3b3dcf11	0.0028962533
142	0xbcb240e0	-0.02175945
143	0xbd4b9a2c	-0.049707577
144	0x3d3ac5e2	0.045598872
145	0xbb91158d	-0.004427618
146	0x3cba2ed3	0.022727406
147	0xbd0e6c89	-0.034771476
148	0x3d17ba6e	0.037043028
149	0xbd2f1ebe	-0.042753927
150	0xbd586a58	-0.052835792
151	0xbc0f90c3	-0.008762541
152	0x3ca9b0f3	0.020714259
153	0x3bff2952	0.007786908
154	0xbc839f8d	-0.01606729
155	0x3c21fb7e	0.009886621
156	0xbd39d98e	-0.045373492
157	0xbc7fcee5	-0.015613292
158	0xbbd5799b	-0.0065147406
159	0xbd4bc0e3	-0.049744498
160	0xbca11df1	-0.019667597
161	0x3ce804a5	0.028322527
162	0x3d02d448	0.03194073
163	0xbcbd3bc0	-0.02309978
164	0x3cb7341f	0.02236372
165	0x3c96bd22	0.018400732
166	0xbd1311c1	-0.035905603
167	0x3c5c1a61	0.013434024
168	0xbcf5eb1d	-0.030019337
169	0x3cb6bbac	0.022306286
170	0x3d2a2450	0.041538537
171	0x3c39a92d	0.011331839
172	0xbc4ba6d1	-0.012429909
173	0xbc61f2cc	-0.013790797
174	0x3bef5043	0.007303269
175	0xbccd1828	-0.025035933
176	0x3d13d838	0.036094874
177	0xbc099442	-0.008397164
178	0x3c2d4048	0.010574408
179	0xbc9da65c	-0.019244365
180	0x3d49975c	0.049216613
181	0xbc1dbe26	-0.009627854
182	0xbd059ed3	-0.03262217
183	0x3c0fa514	0.008767385
184	0x3d3351c1	0.04377914
185	0xbc06717a	-0.008205766
186	0xbd138eaf	-0.036024746
187	0xbd1c2d1c	-0.038128957
188	0x3a9da103	0.0012026135
189	0x3d234cbc	0.0398681
190	0x3d5aea6c	0.05344622
191	0x3af8a62e	0.0018970424
192	0x3d4fe19f	0.05075228
193	0x3a942523	0.0011302572
194	0xbd32fe11	-0.043699328
195	0xbc61065d	-0.013734427
196	0xbd001f3a	-0.03127978
197	0x3c8dc080	0.017303705
198	0x3cf54cf9	0.02994393
199	0xbd156c9e	-0.03648054
200	0xb98c12e5	-0.00026716958
201	0x3c54c37c	0.01298606
202	0x3d415163	0.047196757
203	0xbcde65da	-0.027148176
204	0x3c65c802	0.014024736
205	0x3d071a0d	0.03298383
206	0xbd4a2eec	-0.049361154
207	0x3d080f58	0.033217758
208	0xbc82c83d	-0.015964622
209	0xbd3a5c26	-0.045498036
210	0xbb973da0	-0.0046155006
211	0x3d3f0e7c	0.046644673
212	0x3d1e8777	0.038703408
213	0x3d2c1277	0.042009797
214	0x3c9f5fe1	0.019454898
215	0x3d216f20	0.039412618
216	0x3d18b0ec	0.0372781
217	0xbd4b513c	-0.049638018
218	0xbd0a4d44	-0.033765092
219	0x3cb68196	0.022278588
220	0x3d3b612c	0.045746967
221	0x3d141b2b	0.036158722
222	0x3c0b3851	0.008497314
223	0x3c39177c	0.011297103
224	0x3bb20dd9	0.0054337797
225	0xbbda13d8	-0.0066551976
226	0x3d2a5cb4	0.041592315
227	0xbc982546	-0.01857246
228	0xbc8a28ac	-0.016865097
229	0x3d25599f	0.040368672
230	0xbd1f0d76	-0.038831197
231	0x3cd25b44	0.025678284
232	0xbd421fce	-0.047393613
233	0x3c3bd3e2	0.011464091
234	0x3c4615da	0.012090171
235	0x3d2c7e33	0.04211254
236	0x3cbb5e51	0.022872122
237	0xbcce5fb3	-0.025192117
238	0xbd309026	-0.04310622
239	0x3d2c08c0	0.042000532
240	0xbaaf965b	-0.001339625
241	0x3c7dff39	0.015502744
242	0xbccae3d4	-0.02476684
243	0xbb75091a	-0.0037389458
244	0x3cb803ce	0.022462752
245	0x3cff1398	0.031137273
246	0x3c1a462c	0.009416144
247	0x3d27e257	0.04098734
248	0x3b9d334c	0.004797375
249	0xbd4d33de	-0.050098293
250	0xbd3761fb	-0.044771176
251	0x3d0bdc4c	0.03414564
252	0x3d56c864	0.0524372
253	0x3d2acfd5	0.04170211
254	0x3d2408ee	0.04004758
255	0xbb8cf118	-0.0043012016

base_model.model.bert.encoder.layer.1.attention.self.query.lora_B.weight f4 [384, 4]
0	0x3a7f34f4	0.00097353687
1	0xba501cd6	-0.0007938867
2	0x3a8989a6	0.0010493293
3	0x3a4884ff	0.00076492125
4	0x3a30ebda	0.0006749012
5	0xba174851	-0.0005770969
6	0x3ae15e45	0.0017194232
7	0x3b15c1f8	0.002285121
8	0xbb0e1fcc	-0.0021686433
9	0xba9fccab	-0.0012191733
10	0x38f4791a	0.000116573836
11	0xbb2b15aa	-0.0026105442
12	0x3acb260d	0.0015499011
13	0xb9a9449a	-0.00032285304
14	0xba27cc30	-0.0006400971
15	0x3aa66d57	0.0012697381
16	0x39da3d49	0.0004162586
17	0xbaa8ef44	-0.001288869
18	0x393fe9de	0.00018302302
19	0xba51c333	-0.0008001804
20	0x3b07f54b	0.0020745571
21	0xb9e55fee	-0.00043749757
22	0xba7a7b85	-0.0009555149
23	0x3acaca65	0.0015471695
24	0x3b15e666	0.0022872924
25	0x3a04c075	0.0005064079
26	0xba0154c1	-0.0004933589
27	0x3b1871e5	0.0023261246
28	0x3a9fbbf3	0.001218675
29	0xba1246a4	-0.0005579984
30	0xb924a26d	-0.00015700767
31	0x3a473b1f	0.0007600057
32	0x3a7e1ecd	0.0009693921
33	0xb991d811	-0.00027817537
34	0xb9dc73ed	-0.0004204804
35	0x3a3cf69c	0.00072083785
36	0xbb6dd54f	-0.0036290472
37	0xbae1c484	-0.0017224704
38	0x3a3e45dc	0.00072583347
39	0xbb931af5	-0.0044892975
40	0xbb1aecd7	-0.0023639703
41	0xb8fc0ef5	-0.00012019082
42	0x3aacb640	0.0013176873
43	0xbafadf18	-0.0019139973
44	0xba7a235e	-0.0009542013
45	0x3af02c3d	0.0018323731
46	0xbaf8c9e2	-0.0018981064
47	0xbab0d825	-0.001349215
48	0x3af891ea	0.0018964384
49	0x3ace7f53	0.0015754498
50	0xba3b0c56	-0.0007135322
51	0x3a4a4de1	0.00077172933
52	0xba0e9d22	-0.0005440285
53	0x3b2cdad2	0.0026375544
54	0xbb3952e9	-0.0028278178
55	0xba2cbd2e	-0.0006589469
56	0x3b1266c3	0.0022339083
57	0xb9f0289f	-0.00045806632
58	0xba9e2f02	-0.0012068453
59	0x3a8c0055	0.0010681251
60	0x3a8331ff	0.0010009407
61	0x3ac45ba3	0.0014980923
62	0x37fffaf1	3.0515223e-05
63	0x3b0d74ca	0.0021584504
64	0xbb2e475d	-0.0026592829
65	0xbb24e7ce	-0.002516258
66	0x3b3e3ab1	0.0029026682
67	0xbb508cb7	-0.0031822154
68	0x3aa2bb75	0.0012415486
69	0x3a7b251e	0.0009580421
70	0x39f5c9d6	0.0004688042
71	0x3b098c6e	0.0020988244
72	0x3a129c50	0.00055927504
73	0x3a0b7caa	0.00053210056
74	0x39b3e37a	0.00034311024
75	0x3b107275	0.0022040878
76	0x3b51366c	0.0031923307
77	0x3ad024c8	0.0015880102
78	0xbb3ecc52	-0.0029113484
79	0x3b48048e	0.0030520293
80	0x3a60a5d3	0.00085696316
81	0xbaf2c0a3	-0.0018520545
82	0x3aa66eab	0.0012697777
83	0x39961fc4	0.00028633897
84	0xba8af0bb	-0.0010600308
85	0x3b4ae93e	0.0030961777
86	0xba2bdb9a	-0.00065558555
87	0x3acc0df7	0.0015568127
88	0x3a6f33f4	0.0009124868
89	0xba85b927	-0.0010202274
90	0xb95d4e01	-0.00021105261
91	0xb9111c6e	-0.00013838868
92	0xbb1665ae	-0.002294879
93	0xbb5613bf	-0.0032665578
94	0x3a9b604e	0.0011854263
95	0xbb5c9806	-0.003365995
96	0xbb123bd4	-0.0022313492
97	0xbb0bcb65	-0.002133095
98	0x3b0c26ea	0.00213855
99	0xbb3d09fd	-0.0028845065
100	0xbad87ad3	-0.0016516097
101	0x39c38a67	0.00037296416
102	0xb94a9cba	-0.00019322606
103	0xbaef372d	-0.0018250697
104	0x3b2b0f8b	0.0026101794
105	0x3a7b1294	0.00095776585
106	0x3787214d	1.6108761e-05
107	0x3b4922c3	0.0030690886
108	0x3b075f7f	0.0020656285
109	0x39930583	0.0002804213
110	0xba99df48	-0.0011739517
111	0x3ab1d930	0.0013568755
112	0x3b26c129	0.0025444722
113	0x39b531ad	0.00034560022
114	0xbafb8965	-0.0019190727
115	0x3afaf682	0.0019146951
116	0xba60b5f3	-0.00085720344
117	0x3aabd5b8	0.0013109958
118	0xb897d852	-7.240534e-05
119	0x39cc8b02	0.0003901348
120	0xba910bad	-0.0011066102
121	0x39dc0753	0.00041967127
122	0x39f3ed60	0.0004652543
123	0xbab2fa0a	-0.001365484
124	0xba736dff	-0.0009286105
125	0xb800fc43	-3.0752515e-05
126	0xb99c640f	-0.00029829188
127	0xbaf9bf06	-0.0019054122
128	0xbb1f5a72	-0.0024315384
129	0xbb3a45be	-0.0028422917
130	0x3b545417	0.0032398754
131	0xbb227e6c	-0.0024794592
132	0x3ac4abb3	0.0015004784
133	0x3b4e3f27	0.0031470747
134	0xbb30f63f	-0.0027002243
135	0x3b203a05	0.0024448645
136	0x3b1e24a7	0.0024130733
137	0x3b11a819	0.0022225438
138	0xbb4c2793	-0.0031151518
139	0x3b24dae2	0.0025154878
140	0xbb1eabe9	-0.0024211353
141	0xba42ddf6	-0.00074335875
142	0x3b0c23b5	0.0021383588
143	0xbb049e97	-0.0020236128
144	0x3a5a1e55	0.000832056
145	0x3b2ea429	0.002664814
146	0xbaef6d9a	-0.0018266917
147	0x3acfdba8	0.0015858309
148	0x393774de	0.00017495776
149	0xbab45530	-0.0013758298
150	0x3a45fe2d	0.0007552829
151	0xba066257	-0.0005126348
152	0xbacce1c6	-0.001563125
153	0xb900f620	-0.0001229872
154	0x3ac73f79	0.0015201411
155	0xba988b77	-0.0011638243
156	0xbb139b96	-0.0022523156
157	0xbafdf8b1	-0.0019376484
158	0x3b37c569	0.002804125
159	0xbb0a7f39	-0.002113296
160	0xbb1435f5	-0.0022615169
161	0xbad4f64b	-0.0016247717
162	0x3b4febbe	0.0031726207
163	0xbaf430dd	-0.0018630285
164	0x3b25e93b	0.0025316018
165	0x3b32a0b0	0.0027256422
166	0xbaf6afc7	-0.0018820696
167	0x3b191f49	0.0023364595
168	0x3ac002a1	0.0014649221
169	0x3b562825	0.0032677737
170	0xbb380ff8	-0.002808569
171	0x3b21ab8b	0.0024668898
172	0xba9da682	-0.0012027773
173	0xba81101b	-0.0009846719
174	0x3ab0d03d	0.0013489794
175	0xbab07757	-0.00134633
176	0xbb09ddae	-0.0021036672
177	0xbafb5a39	-0.0019176669
178	0x3b316b8f	0.0027072167
179	0xbb08962a	-0.0020841458
180	0x3b099b0d	0.0020996958
181	0x3b602d5e	0.0034206728
182	0xbb70c87f	-0.0036740599
183	0x3b340337	0.0027467737
184	0xba544e4c	-0.00080988253
185	0x3b14fa2d	0.0022732124
186	0xbb224a59	-0.0024763553
187	0x3ad226ca	0.0016033289
188	0x3b338750	0.0027393885
189	0x3b6b1785	0.0035872173
190	0xbb40d99c	-0.002942658
191	0x3b4f9e40	0.0031680018
192	0x3b068749	0.0020527414
193	0x3b110b43	0.0022131957
194	0xbb405be7	-0.0029351653
195	0x3b0a6cbb	0.0021121937
196	0x3b091e46	0.0020922585
197	0x3afde8b9	0.0019371725
198	0xbb4b7d85	-0.0031050157
199	0x3b0caeb5	0.0021466438
200	0x3b0235c3	0.001986847
201	0x3b138de7	0.0022515
202	0xbb4d131a	-0.0031291903
203	0x3b072457	0.0020621025
204	0x3ae00368	0.0017090859
205	0x3b435f4d	0.0029811442
206	0xbb469f15	-0.0030307223
207	0x3b06cd74	0.0020569237
208	0x3b1d3bad	0.0023991868
209	0x3b4c07e4	0.0031132633
210	0xbb5d347b	-0.0033753205
211	0x3b30af26	0.0026959865
212	0x3b0b2e91	0.0021237473
213	0xb9f72cf8	-0.00047145016
214	0xba6b3740	-0.00089727715
215	0x3a685ea9	0.0008864203
216	0xbaeae748	-0.001792171
217	0xb6a5b949	-4.938953e-06
218	0x3ae64396	0.001756775
219	0xba9d1982	-0.0011985751
220	0xbb02efa2	-0.0019979258
221	0xbae0b1fa	-0.0017142885
222	0x3b3cda16	0.0028816513
223	0xbaf8e3b7	-0.0018988763
224	0x3b20fe1d	0.0024565526
225	0x3ac9e9be	0.0015404744
226	0xbb338b80	-0.002739638
227	0x3b0a58b5	0.0021110002
228	0x3b14663e	0.002264395
229	0x3b1920e2	0.0023365547
230	0xbb36e01c	-0.0027904576
231	0x3b1197d1	0.0022215734
232	0x3b056792	0.0020355922
233	0x38208e07	3.8279246e-05
234	0xbaa2c8d1	-0.0012419467
235	0x3aabcaa4	0.0013106656
236	0x3ae524f9	0.0017482332
237	0x39aa34e9	0.00032464348
238	0xbaabf16e	-0.0013118216
239	0x3acea5d7	0.0015765977
240	0xba9fceac	-0.001219233
241	0x3ab64d79	0.0013908587
242	0xb9a9e401	-0.00032404068
243	0x3a314d74	0.00067635556
244	0xbae4b9d4	-0.0017450401
245	0xbadaa04f	-0.0016679856
246	0x3b257364	0.002524578
247	0xbadd4146	-0.0016880415
248	0xbab1ee39	-0.0013575024
249	0xbb4c3082	-0.0031156843
250	0x3a2c35b1	0.000656928
251	0xbb2d2223	-0.0026418052
252	0x3a320dd3	0.0006792221
253	0xbb450fa5	-0.003006914
254	0x3abb4d29	0.0014289963
255	0xbaadab0c	-0.0013249828

base_model.model.bert.encoder.layer.1.attention.self.value.lora_A.weight f4 [4, 384]
0	0xbd507b84	-0.050899044
1	0x3d3cace6	0.046063326
2	0x3c33bbf6	0.010970106
3	0x3d067cfc	0.03283404
4	0xbcabaf4a	-0.020957608
5	0x3c1a9e2a	0.009437123
6	0x3c4f0235	0.012634804
7	0xbd51a9e6	-0.05118742
8	0xbca5af1c	-0.0202251
9	0x3d1d9c5f	0.038479205
10	0xbd17e69c	-0.03708516
11	0x3c8ed912	0.017437492
12	0x3d2f4bbf	0.042796846
13	0xbba6e388	-0.005093042
14	0x3d0cd473	0.034382295
15	0xbd14e491	-0.03635079
16	0x3aeb78d3	0.0017965086
17	0xbc781af1	-0.015143142
18	0xbcb785b0	-0.022402614
19	0xbc5925cc	-0.01325364
20	0xbcfb09fe	-0.030644413
21	0x3cb74a5e	0.022374328
22	0xbd28845d	-0.041141856
23	0x3d414349	0.04718331
24	0xbb91f422	-0.0044541517
25	0x3c9f5e8b	0.019454261
26	0xbd42f149	-0.04759339
27	0x3d2457bb	0.04012273
28	0xbcccf0bc	-0.025017135
29	0x3d306753	0.043067288
30	0x3d14403b	0.036194067
31	0x3c13009e	0.008972315
32	0x3cb7ce42	0.022437219
33	0x3d14ab6e	0.0362963
34	0xbca91212	-0.0206385
35	0xbd24d798	-0.04024467
36	0xbc700d70	-0.014651641
37	0x3cb4e1a1	0.022080244
38	0xbd0ccdb8	-0.034375876
39	0x3d3cebcc	0.04612331
40	0xbcf17e47	-0.029479159
41	0x3ce36dd7	0.027762337
42	0x3ce85afa	0.028363694
43	0x3d4f3c64	0.050594702
44	0x3b298998	0.0025869366
45	0xbd185d48	-0.037198335
46	0x3d2a498e	0.041574053
47	0x3d3068dc	0.04306875
48	0xbcc823fc	-0.024431221
49	0x3cd6a8d3	0.026203549
50	0xbd0602b1	-0.03271741
51	0x3d4101d2	0.047120877
52	0x3d2674ee	0.040638857
53	0x3c1bf9d3	0.009520012
54	0x36627f99	3.3750896e-06
55	0x3cb512aa	0.022103626
56	0x3cb0385b	0.021511247
57	0x3a039a1e	0.00050202187
58	0xbd034333	-0.032046508
59	0x3d649383	0.05580474
60	0x3d2e6604	0.04257776
61	0x3b94955c	0.0045344066
62	0x3d13b133	0.036057662
63	0xbc98befb	-0.018645754
64	0x3b8ecb3e	0.0043577245
65	0xbcf8b658	-0.030360386
66	0xbd5ad1cf	-0.053422745
67	0x3d414cc6	0.047192357
68	0x3d3bbf72	0.045836873
69	0xbcce0cdd	-0.025152618
70	0x3b91c72e	0.004448793
71	0x3c90a3be	0.017656203
72	0xbccaa76a	-0.024738032
73	0x3ca4d08a	0.02011897
74	0x3cc6c68c	0.024264596
75	0x3b49cd11	0.0030792395
76	0x3c3ceaf9	0.011530631
77	0x3d3aa5fa	0.045568444
78	0x3ac4564b	0.0014979331
79	0x3cba39ed	0.0227327
80	0x3d0110a2	0.031510003
81	0x3d412b22	0.047160275
82	0xbc8058e1	-0.01566738
83	0x3a911bd8	0.001107092
84	0xbd42af13	-0.047530245
85	0x3d573327	0.052539017
86	0xbca51b82	-0.020154718
87	0xbd2a0398	-0.041507334
88	0x3b24e337	0.0025159845
89	0xbc22c02c	-0.009933513
90	0xbc9f2dac	-0.019430958
91	0x3d30c69d	0.043158162
92	0x3d09d570	0.033650815
93	0xbc23491b	-0.00996616
94	0xbca9b00c	-0.020713829
95	0x3c78e811	0.015192048
96	0x3ca36e76	0.019950133
97	0x3d2a6f0d	0.041609813
98	0x3caae9b3	0.02086339
99	0x3d26bbcf	0.040706452
100	0x3cad7d68	0.021177962
101	0x3c43f5a3	0.01196042
102	0x3cdaa157	0.026688261
103	0x3d542c38	0.051799983
104	0x3d17b3d7	0.037036743
105	0x3d6098e1	0.054833297
106	0xbcf4b709	-0.029872434
107	0xbccd79df	-0.025082527
108	0x3cbc577d	0.022990936
109	0xbbc0cece	-0.005884028
110	0xbcd15ed3	-0.025557911
111	0xbc19d6d7	-0.009389601
112	0xbb3be973	-0.0028673082
113	0xbc9dbfe4	-0.01925654
114	0xbaedccb6	-0.0018142674
115	0xbd03e306	-0.03219893
116	0xbc5e380d	-0.013563168
117	0x3d395025	0.045242447
118	0xbd3ad659	-0.045614574
119	0x3c7afcdd	0.015319076
120	0x3cae6012	0.021286044
121	0x3c907a71	0.01763651
122	0x3a9ccbc4	0.0011962582
123	0xbc5be45a	-0.0134211425
124	0xbc3f3ac1	-0.011671723
125	0x3cff19e1	0.03114027
126	0xbcf8f50f	-0.03039029
127	0x3ce1a195	0.027542869
128	0x3c8d4f4b	0.017249724
129	0xbd0ff7a3	-0.035148274
130	0xbcf4d188	-0.029885069
131	0x3bee15ed	0.0072657974
132	0xbc31ab18	-0.010844015
133	0x3d350724	0.044196263
134	0x3c0ea313	0.008705872
135	0x3cf8f67d	0.030390972
136	0xbce361cc	-0.027756594
137	0xbc9e2a72	-0.019307349
138	0xbc7ae0bc	-0.01531237
139	0x3ccb24a4	0.024797745
140	0xbcef7f9c	-0.029235654
141	0x3d3ffe65	0.04687347
142	0xbd15f2cd	-0.036608506
143	0x3d12e918	0.035866827
144	0x3d2760fc	0.040863976
145	0xba5a6e46	-0.0008332472
146	0x3d1bbddf	0.038022872
147	0xbc414d00	-0.011798143
148	0xbd20713c	-0.03917049
149	0xbc471280	-0.012150407
150	0xbc7fd439	-0.015614563
151	0xbc0f9e83	-0.0087658195
152	0x3cba2f4b	0.02272763
153	0x3b77a592	0.0037787897
154	0xbce525fa	-0.02797221
155	0x3cb58625	0.022158692
156	0x3c8e1e9d	0.017348582
157	0x3c2b542d	0.010457081
158	0x3d4437b2	0.047904678
159	0x3d3dfb1b	0.04638205
160	0xbbf46383	-0.007458152
161	0x3c98e189	0.018662231
162	0x3b9f1dfb	0.004855869
163	0x3d4cbaf9	0.049983
164	0xbaf37319	-0.001857373
165	0xbcee2b62	-0.02907342
166	0x3d332af6	0.043742143
167	0x3d0d4dd9	0.03449807
168	0x3c4752ed	0.012165767
169	0xbb1de388	-0.0024091918
170	0xbc834b01	-0.016026976
171	0xbd341f55	-0.043975193
172	0x3c127ae7	0.008940435
173	0x3d4806d7	0.048834648
174	0x3d631439	0.055439208
175	0xbbd263f8	-0.0064206086
176	0x3d411ff2	0.047149606
177	0x3d2cc6e8	0.04218188
178	0xbc5e2328	-0.013558187
179	0x3a34c6a0	0.00068960525
180	0xbc6838fa	-0.0141737405
181	0xbd5d04fd	-0.053959835
182	0x3c804e10	0.015662223
183	0x3d1dee74	0.038557485
184	0x3ba12721	0.0049179946
185	0x3c2b8009	0.010467538
186	0xbd2203e3	-0.039554488
187	0x3d4208fc	0.04737185
188	0xbc8e3d21	-0.017363133
189	0x3cf7b4ff	0.030237673
190	0x3c2cab12	0.010538833
191	0xbc92af19	-0.017905759
192	0xbc372369	-0.011177876
193	0xbc854c46	-0.016271722
194	0xbc391af5	-0.011297931
195	0x3ceb1d35	0.02870045
196	0x3b1049a4	0.002201655
197	0x3cf1d85a	0.02952211
198	0x3bf0a5b7	0.0073439735
199	0x3d0b9a2c	0.034082577
200	0x3d491878	0.0490956
201	0x3ae414b8	0.0017401194
202	0x3d37b066	0.04484596
203	0x3cc6d9a5	0.024273703
204	0x3c14f343	0.009091201
205	0x3cbeb29a	0.023278523
206	0x3c40a913	0.01175906
207	0x3bb61c5a	0.005557579
208	0x3d381561	0.044942264
209	0x398cde4b	0.00026868502
210	0xbd15a94f	-0.03653842
211	0x3d3fdb92	0.046840258
212	0x3d1ee757	0.03879484
213	0x3bbea930	0.0058185086
214	0xbd33a771	-0.043860856
215	0x3a9d5999	0.0012004852
216	0xbd2732b1	-0.040819827
217	0x3d239b98	0.039943308
218	0x3d3c7a75	0.04601522
219	0x3d0d22b2	0.034456916
220	0x3c08755b	0.008328761
221	0xbd11797b	-0.035516243
222	0x3a807f55	0.0009803573
223	0xbcbd4b4e	-0.023107197
224	0x3c378252	0.011200504
225	0x3d32b4b2	0.043629356
226	0x3b837f13	0.004012951
227	0xbd56d986	-0.05245354
228	0x3b551578	0.0032514017
229	0x3bdec7fb	0.006798742
230	0xbc42b341	-0.011883558
231	0x3c8169de	0.015797552
232	0xbbec476c	-0.0072106626
233	0x3c8e9fc6	0.01741017
234	0xba044645	-0.00050458714
235	0x3d1d32de	0.03837859
236	0xbc90aec7	-0.017661465
237	0xbd222e83	-0.03959514
238	0x3d23d9db	0.040002685
239	0xbc85bc84	-0.016325243
240	0x3c5ce355	0.013481935
241	0x3ced37c7	0.02895726
242	0xbd5a6c4b	-0.053325932
243	0xbd1fcc19	-0.039013002
244	0xbd0757df	-0.033042785
245	0x3b1e246c	0.0024130596
246	0x3cd4d4bf	0.025980351
247	0xbb78b16e	-0.0037947553
248	0x3d29bc72	0.04143948
249	0x3d44c2d1	0.048037354
250	0x3d09601d	0.033538926
251	0xbc68cf8f	-0.014209642
252	0xbd1252ea	-0.035723604
253	0x3d257778	0.040397137
254	0xbcd7be30	-0.026335806
255	0xbd02df71	-0.03195137
