lora_crossencoder_has_instruction_r_8 la_16 ld_0.3/checkpoint-3096/adapter_model.safetensors (safetensors, 299980 bytes, 25 tensors)

base_model.model.bert.encoder.layer.0.attention.self.query.lora_A.weight f4 [8, 384]
0	0x3cfeb6c5	0.03109301
1	0xbcac903d	-0.021064872
2	0xbb215dd3	-0.0024622574
3	0xbc2939c0	-0.01032871
4	0xbc22f111	-0.00994517
5	0x3c1161a1	0.008873374
6	0x3d13d0e7	0.036087897
7	0x3b3e49e0	0.0029035732
8	0x3d0e0a15	0.034677584
9	0xbd5e9205	-0.054338474
10	0x3cb03ce9	0.02151342
11	0x3c98f28d	0.018670345
12	0xbbb21872	-0.005435043
13	0xbc8126c4	-0.015765555
14	0xbd0f05cb	-0.034917634
15	0xbca7a1b4	-0.020462848
16	0x3d114232	0.03546352
17	0xbcb8e89a	-0.02257185
18	0xbcb8a5a7	-0.022539927
19	0xbc721afe	-0.014776943
20	0xbb96c438	-0.004601028
21	0x3ce67c05	0.028135309
22	0xbd1a71e7	-0.037706282
23	0x3cb44268	0.022004321
24	0xb6a8f7b0	-5.035625e-06
25	0xbc9e86fa	-0.019351471
26	0x3b4cd2ea	0.0031253644
27	0xbc9db39a	-0.01925068
28	0x3d45229f	0.04812872
29	0xb9f6fe29	-0.0004711014
30	0xbcd3e8d4	-0.025867857
31	0x3cdf4be4	0.027257867
32	0x3c550e73	0.013003933
33	0xbd2b26f8	-0.04178521
34	0xbcdc22de	-0.026872095
35	0x3c2e3b30	0.010634229
36	0x3cb250b9	0.021767007
37	0xbd416c8b	-0.047222655
38	0x3d407766	0.046988867
39	0x3c84d1e8	0.016213372
40	0x3b2e1323	0.00265617
41	0xbc9958b0	-0.018719047
42	0xbc4014dd	-0.011723724
43	0xbcd3285f	-0.025776086
44	0x3d198fd1	0.03749067
45	0xbcb2069a	-0.021731663
46	0x37ec2bd1	2.8153796e-05
47	0x3c8ba1be	0.017044898
48	0x3d465bc0	0.048427343
49	0xbcd664f2	-0.026171181
50	0x3cc0b1c5	0.023522267
51	0x3d03bca9	0.032162342
52	0xbce185af	-0.027529566
53	0x3cbbeda0	0.022940457
54	0x3d5b5c06	0.053554557
55	0x3c8c2fa1	0.017112555
56	0xbd2fee73	-0.042952012
57	0xbd1e3983	-0.038629066
58	0xbd1bc689	-0.038031135
59	0x3cd12614	0.025530852
60	0xbceff71c	-0.029292636
61	0xbb242a47	-0.0025049613
62	0x3d5797b2	0.052634902
63	0xbc6fd7fc	-0.014638897
64	0xbccdf40c	-0.025140785
65	0xbcad29c2	-0.021138076
66	0x3d54f3b7	0.051990237
67	0x3be3887b	0.00694376
68	0xbd33ec67	-0.043926623
69	0x3d1e8a02	0.038705833
70	0x3d51a825	0.051185746
71	0xbd1bfb3e	-0.0380814
72	0xbd504bba	-0.05085347
73	0xbcbd265c	-0.02308958
74	0x3c0fe572	0.008782731
75	0x3d1efa4e	0.038812928
76	0xbcea0849	-0.028568404
77	0xbc9500c7	-0.018188847
78	0xbd44cf42	-0.04804922
79	0xbd29cd05	-0.041455287
80	0x3d3a0db7	0.045423236
81	0x3ceb729d	0.028741175
82	0x3d3367f7	0.04380032
83	0x3bda3fc5	0.006660434
84	0xbd04d963	-0.03243388
85	0xbd340eda	-0.043959476
86	0x3d338cdb	0.043835502
87	0x3d0c06bf	0.03418612
88	0xbd00d99c	-0.03145753
89	0xbd4ede27	-0.05050483
90	0x3bf0e8b2	0.007351958
91	0x3cfb4045	0.030670295
92	0xbd117112	-0.035508223
93	0x391d3a93	0.00014994507
94	0x3ce4d5bb	0.027933946
95	0xbc11fd21	-0.008910448
96	0x3cb433b8	0.021997318
97	0x3c567a3d	0.013090667
98	0x3d17c983	0.03705741
99	0xbd2d402f	-0.04229754
100	0x3c126234	0.008934546
101	0x3b95b8e6	0.0045691608
102	0xbd401590	-0.046895564
103	0xbbd28fe7	-0.006425846
104	0xbcb713c2	-0.022348288
105	0x3d3c9d71	0.046048585
106	0x3b17a52e	0.0023139226
107	0x3d3d463e	0.046209566
108	0x3cc49100	0.023994923
109	0x3bd6e27f	0.006557762
110	0x3d0a12fc	0.03370951
111	0x3b6374cd	0.003470707
112	0x3ca1b421	0.019739212
113	0x3d38e05d	0.045135844
114	0xbd19c1b3	-0.03753824
115	0xbc32d367	-0.01091466
116	0x3d0ce001	0.034393314
117	0x3cc760e1	0.024338188
118	0x3d3e0d6e	0.046399526
119	0xbd06e703	-0.032935154
120	0xbd0c1d32	-0.03420753
121	0xbc8189eb	-0.015812835
122	0xbcbf4e77	-0.023352845
123	0xbcd3802c	-0.025817953
124	0xbd1489a7	-0.036264088
125	0x3c3bfe41	0.011474193
126	0xbd25941c	-0.04042445
127	0x3ca99d5c	0.020704918
128	0xbd045ef4	-0.032317117
129	0xbc9f9d7a	-0.01948427
130	0xbd396368	-0.045260817
131	0xbc0f80bc	-0.00875872
132	0x3c9fa59b	0.019488147
133	0x3c74b40f	0.014935507
134	0xbcc4b582	-0.02401233
135	0x3bf526cc	0.0074814316
136	0xbd42fd6c	-0.047604963
137	0x3d26b748	0.040702134
138	0xbd37bce4	-0.044857875
139	0xbd49108a	-0.04908804
140	0x3d3a3586	0.0454612
141	0x3c894f6b	0.016761502
142	0xbc88824d	-0.016663695
143	0xbc078b6e	-0.008272989
144	0xbc49246c	-0.01227675
145	0xbd0bf420	-0.034168363
146	0xbc6eeda0	-0.014583021
147	0x3d0009d0	0.031259358
148	0x3c8b5f0d	0.017013097
149	0xbc8cbe98	-0.017180726
150	0x3cda14e6	0.026621293
151	0x3b585c44	0.003301398
152	0x3c1a57b3	0.009420323
153	0x3cf14158	0.029450104
154	0xbcd04f34	-0.025428392
155	0x3d32f9f7	0.043695416
156	0x3c3cb910	0.011518732
157	0xbd4d8b3e	-0.05018162
158	0x3d300a28	0.042978436
159	0x3ccbc2c2	0.024873141
160	0x3d05d05b	0.032669406
161	0xbc04ac68	-0.0080977455
162	0xba4ed50b	-0.0007890022
163	0x3cd44fa9	0.025916891
164	0xbb335dce	-0.0027369144
165	0x3cf02c9c	0.029318146
166	0x3d26515a	0.040604927
167	0x3ccdeaa1	0.025136294
168	0x3d556fde	0.052108638
169	0x3d0961c3	0.0335405
170	0x3d38d360	0.045123458
171	0x3d4b400a	0.04962162
172	0x3bc5d802	0.006037713
173	0x3c750b5e	0.014956323
174	0x3bf66631	0.0075195064
175	0x3d183934	0.03716393
176	0x3cca2980	0.024677992
177	0x3d3d09ae	0.04615181
178	0xbc2b4579	-0.010453575
179	0xbc3e8d9b	-0.011630441
180	0x3d4fb555	0.05071004
181	0x3cc66cf2	0.024221871
182	0x3d3edd2a	0.046597637
183	0x3cf6a619	0.030108498
184	0xbd171a3e	-0.03689026
185	0x3ccc2dce	0.024924185
186	0xbc656614	-0.014001388
187	0xbca4b895	-0.020107547
188	0x3cc83861	0.024440946
189	0xbd009cc5	-0.031399507
190	0xbc59b340	-0.013287365
191	0x3c673404	0.014111523
192	0x3b39a051	0.0028324316
193	0xbc1f78af	-0.009733363
194	0xbb1edb4a	-0.0024239593
195	0xbd4ccf5a	-0.050002433
196	0xbcdb00c0	-0.026733756
197	0x3b1e3f53	0.002414663
198	0xbd5af666	-0.05345764
199	0xbbc011a6	-0.005861479
200	0xbd47e2cb	-0.04880027
201	0x3c1fd81f	0.009756117
202	0xbc3dc40c	-0.011582386
203	0x3d05e3d2	0.03268797
204	0xbb9c6a7d	-0.0047734366
205	0xbc3882a1	-0.011261613
206	0x3d33f303	0.043932926
207	0x3d364fe8	0.0445098
208	0xbd2c8c92	-0.042126246
209	0xbd00c449	-0.031437192
210	0x3d1bce71	0.038038675
211	0x3cd500df	0.026001392
212	0xbc9a47f9	-0.018833147
213	0x3c997d3e	0.018736478
214	0x3c98305f	0.018577753
215	0xbbbf4957	-0.0058376
216	0xbc074aa6	-0.008257544
217	0x3b6f5ac9	0.0036522618
218	0xbc1ef3e2	-0.009701701
219	0xbcbb88f4	-0.022892453
220	0xbc131f40	-0.008979619
221	0xbd079329	-0.033099327
222	0xbcd9da34	-0.026593305
223	0xbc484765	-0.012224053
224	0xbc19414e	-0.009353949
225	0xbb629ff8	-0.0034580212
226	0x3d45b69b	0.04826985
227	0xbd4340ba	-0.04766915
228	0x3a9477b3	0.0011327177
229	0x3d5ce456	0.053928696
230	0x3c2a90e7	0.010410524
231	0xbca9e5a6	-0.020739388
232	0xbc1bb593	-0.00950374
233	0x3c7c0a1b	0.015383269
234	0xbd4d4e35	-0.050123412
235	0x3d0b3cec	0.033993647
236	0xbd31c4ad	-0.043400455
237	0xbd006203	-0.03134347
238	0xbd40cc49	-0.04706982
239	0xbc97b5bc	-0.018519275
240	0x3c3ad1d0	0.011402562
241	0xbd334cf7	-0.04377457
242	0xbca469ab	-0.020069918
243	0x3cd70c7f	0.026251076
244	0xbc07c688	-0.00828708
245	0x3b91fb5e	0.004455014
246	0x3c916cf5	0.01775215
247	0x3d418562	0.047246344
248	0x3b2b1899	0.002610719
249	0x3c17bdbb	0.009261544
250	0xbd112aab	-0.035441082
251	0x3beb9c64	0.007190274
252	0x3d45e13a	0.048310496
253	0x3cdb09ae	0.026738014
254	0x3cf9efef	0.030509917
255	0x3c1e10ba	0.009647543

base_model.model.bert.encoder.layer.0.attention.self.query.lora_B.weight f4 [384, 8]
0	0x3b03d2e6	0.002011472
1	0x3ab38e9f	0.0013699121
2	0xbb944f84	-0.0045260806
3	0xbb33047f	-0.0027315912
4	0x3b67652a	0.0035308101
5	0xbb4742b9	-0.003040476
6	0x3aaf78bf	0.0013387426
7	0x3b364b32	0.0027815816
8	0x3a95173f	0.0011374726
9	0x3b4aa864	0.0030923123
10	0xbb8822ae	-0.0041545248
11	0xbb3ae1e8	-0.0028515998
12	0x3bc9ea8e	0.0061619943
13	0xbb06a0d8	-0.0020542648
14	0xb85ea8e1	-5.3086205e-05
15	0x3b824b61	0.003976271
16	0xbb495e18	-0.003072625
17	0x3a8e1503	0.0010840002
18	0x3bab606a	0.0052299993
19	0x3ba1a4cb	0.004932975
20	0xbb375c72	-0.0027978686
21	0x3b793443	0.0038025535
22	0xbb443db7	-0.0029944011
23	0xbb326bae	-0.0027224827
24	0x3b1f9f45	0.0024356407
25	0x3b2ea968	0.0026651267
26	0xbab0f2bb	-0.0013500074
27	0x3ae06f3b	0.0017122993
28	0xbaef034a	-0.0018235233
29	0xb9f481f7	-0.00046636138
30	0x3b773db0	0.0037725978
31	0x3b04264d	0.002016443
32	0xbb3e2926	-0.0029016226
33	0xbb2ed0ee	-0.0026674825
34	0x3a9a9862	0.0011794681
35	0x3b637d33	0.0034712076
36	0xbb486471	-0.0030577446
37	0x3b0f5683	0.0021871633
38	0xbaa007b7	-0.001220933
39	0xbb0900a1	-0.0020904916
40	0x3a8c7093	0.0010714702
41	0x3acade5c	0.0015477645
42	0xbb3fe591	-0.002928112
43	0xbb160e3b	-0.0022896666
44	0x3b765ca3	0.0037591837
45	0xbaebc253	-0.001798699
46	0x3a6f8b92	0.0009137924
47	0x3b1171fb	0.0022193182
48	0xbb8b3e07	-0.0042493376
49	0xbb0c58bf	-0.0021415201
50	0xbb0819fd	-0.0020767443
51	0xbaa25faa	-0.0012388129
52	0x3b0ced5b	0.002150378
53	0x3aa258a3	0.0012386035
54	0xbb6d676e	-0.003622498
55	0x3a124ade	0.0005580614
56	0x3b42db74	0.0029732855
57	0xb99eb371	-0.00030269803
58	0xbba59ebc	-0.005054323
59	0xbaed787c	-0.0018117572
60	0x3b5e3893	0.0033908233
61	0xbb50fe9d	-0.0031890043
62	0x3a910fd6	0.0011067342
63	0x3b59544e	0.0033161822
64	0xbad58bce	-0.0016292275
65	0xbb19ef46	-0.0023488565
66	0x3b3f6089	0.0029201827
67	0x3b25cb02	0.0025298004
68	0xbb7e2331	-0.00387783
69	0x3b11840b	0.0022203948
70	0xbaa55d78	-0.0012616357
71	0xbb2f86e1	-0.0026783275
72	0x3b5967ea	0.003317351
73	0x3b8213ef	0.0039696614
74	0xbbe09918	-0.0068541877
75	0xbba7e65e	-0.0051238975
76	0x3baad2ad	0.005213103
77	0xbb8a450f	-0.004219658
78	0x3b8a7ee4	0.0042265523
79	0x3bad45ac	0.0052878466
80	0xbb17b6f6	-0.0023149825
81	0xbb52ad01	-0.0032146575
82	0x3b914012	0.0044326866
83	0x3b8d6494	0.0043149684
84	0xbbb66aab	-0.005566915
85	0x3b4db563	0.0031388632
86	0xbb1ce9ab	-0.0023942988
87	0xbb9ef71e	-0.004851236
88	0xbafbf901	-0.0019223989
89	0xbb3dfe6c	-0.0028990759
90	0x3a977c9a	0.001155752
91	0x399f7457	0.00030413523
92	0xbacac432	-0.0015469848
93	0x3b00a5ea	0.0019630142
94	0xbb17ccf0	-0.0023162924
95	0xbab4abfb	-0.0013784164
96	0xb9a668d1	-0.00031740082
97	0xbb242185	-0.0025044393
98	0xbb75f192	-0.003752802
99	0xbb4c73e1	-0.0031197
100	0x3b9e2350	0.004825987
101	0xb958fb97	-0.0002069309
102	0xbabedfc4	-0.0014562537
103	0x3b60ac99	0.0034282564
104	0x3b7f03b3	0.0038912117
105	0x3b0bfbb3	0.0021359741
106	0xbbfd7a22	-0.0077355066
107	0xbbcfe142	-0.0063439915
108	0x3bd62a7b	0.006535826
109	0xbba1a18d	-0.0049325884
110	0x3b72550e	0.0036976966
111	0x3bd4d33e	0.0064949086
112	0x39f00a57	0.0004578407
113	0x3ad14369	0.0015965524
114	0xbb2cdfed	-0.0026378587
115	0xba909b50	-0.0011032615
116	0x3b6c2da0	0.0036037937
117	0xba999216	-0.0011716511
118	0x39994f62	0.0002924158
119	0x3b088587	0.0020831542
120	0xba632181	-0.0008664355
121	0x3a801755	0.0009772578
122	0x39dc57b3	0.0004202701
123	0x3ac41e19	0.0014962583
124	0x3a13bd08	0.0005635773
125	0x3a094f6b	0.00052379695
126	0xba8fd6c8	-0.0010974044
127	0xb98f518f	-0.0002733585
128	0x3a939dcf	0.0011262241
129	0x3a4228d4	0.00074065966
130	0xbb47d930	-0.0030494444
131	0xbad31532	-0.0016104339
132	0x3b2beaa0	0.0026232377
133	0xbb17e3ea	-0.002317662
134	0x39603ab8	0.00021384179
135	0x3acd2aa6	0.0015652969
136	0x3ac3f290	0.0014949609
137	0x3aee9f64	0.0018205461
138	0xbb0faf1b	-0.002192444
139	0xbaecb172	-0.0018058254
140	0x3b5d8aa5	0.0033804562
141	0xbafa4b2f	-0.0019095893
142	0x3ab87560	0.0014073066
143	0x3b050d69	0.0020302183
144	0xba9afeae	-0.0011825168
145	0x3b003a73	0.0019566088
146	0x3b0acb52	0.0021178317
147	0x3b4c4c7d	0.003117352
148	0xba45c8b8	-0.0007544863
149	0x3a427f0f	0.0007419446
150	0xb89d8b69	-7.5123105e-05
151	0xbac10b33	-0.0014728069
152	0xbb37a2b7	-0.002802057
153	0xbb78945f	-0.0037930233
154	0x3b95baa0	0.0045693666
155	0x3b2cd83d	0.0026374005
156	0xbb3eb025	-0.002909669
157	0x3b74f94a	0.0037380033
158	0xbb8b3f12	-0.004249462
159	0xbb70b134	-0.0036726715
160	0xbb158d0a	-0.0022819662
161	0xba97c73c	-0.0011579762
162	0x3bc64efb	0.0060518957
163	0x3b8ffd37	0.0043941992
164	0xbbc37361	-0.005964682
165	0x3b54c383	0.0032465167
166	0xbac86a54	-0.0015290477
167	0xbb8cde5a	-0.0042989673
168	0x3b07a3c0	0.0020696968
169	0x3b1ba341	0.002374843
170	0xbb7a36fe	-0.003817975
171	0xbb204d86	-0.002446027
172	0x3b43f4be	0.0029900516
173	0xbb30a684	-0.002695472
174	0x3b6a7c4f	0.003577966
175	0x3b331283	0.0027324266
176	0xb897916b	-7.227327e-05
177	0xbb2a3ecc	-0.0025977371
178	0xba47b712	-0.0007618527
179	0xb993f136	-0.0002821774
180	0xb9cd3886	-0.0003914276
181	0x3a58bfad	0.0008268308
182	0xba9d9786	-0.0012023307
183	0xbab56380	-0.0013838857
184	0x3a011d6f	0.00049253454
185	0xba5690a4	-0.0008185005
186	0xbb00b2e8	-0.0019637886
187	0xbb3aebed	-0.002852197
188	0x3b45dfb0	0.0030193143
189	0xb9c63ece	-0.00037812296
190	0xbaa5014a	-0.0012588885
191	0x3aee6576	0.0018188197
192	0x3b86c1b3	0.004112446
193	0x3b7c4877	0.003849534
194	0xbb88b1fc	-0.004171608
195	0xbb693af1	-0.003558811
196	0x3b85ca4d	0.004082954
197	0xbb823520	-0.003973618
198	0x3b4816c5	0.003053115
199	0x3b7d8446	0.0038683577
200	0x3b50b0ea	0.003184373
201	0x3b444494	0.0029948102
202	0xbbad8814	-0.005295763
203	0xbb7cc831	-0.0038571472
204	0x3ab7d32d	0.0014024727
205	0xbb5d060d	-0.003372553
206	0x3b66da22	0.0035225232
207	0x3b87aaeb	0.004140248
208	0x3b18349c	0.0023224717
209	0x3acab27b	0.0015464568
210	0xb9caa6da	-0.00038652756
211	0xba8fd35f	-0.0010973028
212	0xbb02b195	-0.0019942273
213	0xbb34da77	-0.0027596036
214	0x3b43207e	0.0029774006
215	0x38cf393d	9.8811906e-05
216	0xba6544bf	-0.00087459007
217	0xba818214	-0.0009880685
218	0xbb18a893	-0.0023293837
219	0xba9ac15a	-0.0011806891
220	0x3b5067af	0.0031800081
221	0xbabc61e4	-0.0014372435
222	0xba8babd9	-0.0010656073
223	0x3afbcec6	0.0019211404
224	0x3a2c54aa	0.0006573895
225	0x3b015bf3	0.0019738644
226	0xbad49517	-0.0016218749
227	0xbab9859f	-0.0014154202
228	0x3b71fa72	0.0036922959
229	0xbaafd0f7	-0.0013413717
230	0x39ddc89f	0.0004230188
231	0x3ac745c4	0.0015203287
232	0xbb8722fa	-0.0041240426
233	0xbb980f7d	-0.004640518
234	0x3bbf7639	0.0058429507
235	0x3bb5bb95	0.005546043
236	0xbbb789fa	-0.005601165
237	0x3ba38419	0.0049901125
238	0xbb859e4d	-0.004077709
239	0xbbb305f4	-0.005463356
240	0x3a668b1c	0.00087945326
241	0x3ab21f42	0.0013589638
242	0xbb8f5829	-0.004374523
243	0xbb2aaac4	-0.0026041726
244	0x3ba8b098	0.0051480047
245	0xbae89417	-0.001774433
246	0xba88baa9	-0.0010431606
247	0x3b59e57e	0.003324836
248	0xbaec8c9b	-0.0018047275
249	0xbaf57a56	-0.0018728476
250	0x3b82f6b5	0.003996695
251	0x3b41faaf	0.0029598882
252	0xbb6cba51	-0.0036121795
253	0x3b0dadd4	0.0021618502
254	0xbb05fa0b	-0.0020443227
255	0xbb66b528	-0.0035203192

base_model.model.bert.encoder.layer.0.attention.self.value.lora_A.weight f4 [8, 384]
0	0xbcab2074	-0.020889498
1	0x3895d049	7.14367e-05
2	0xbbebad77	-0.0071923095
3	0xbd4ef92a	-0.05053059
4	0x3b87d52d	0.0041452856
5	0xbd247e7a	-0.04015968
6	0x3c3f053a	0.011658961
7	0xbc36135c	-0.011113014
8	0x3d2091c6	0.03920152
9	0x3bcf0889	0.006318156
10	0x3c9e2b5e	0.019307788
11	0x3d68296d	0.05668013
12	0x3ca6e2ec	0.020371877
13	0xbd5407ff	-0.05176544
14	0xbcb7e8e3	-0.022449916
15	0xbd24f62b	-0.040273827
16	0x3cbeddd3	0.023299133
17	0xbd20adf6	-0.039228402
18	0x3d0c2fff	0.03422546
19	0x3c3a2fd1	0.011363939
20	0x3c9605e4	0.018313356
21	0xbc830039	-0.015991317
22	0x3c19070d	0.00934006
23	0xbd08cdd2	-0.03339941
24	0x3d068301	0.03283978
25	0xbce811d7	-0.02832882
26	0x3cf5ad6e	0.029989924
27	0x3d5f7fcd	0.05456524
28	0xbcae6347	-0.021287574
29	0x3c11ea72	0.008905994
30	0x3d25a018	0.04043588
31	0x3c713331	0.014721678
32	0x3abd5a61	0.0014446491
33	0x3d3856d9	0.0450047
34	0xba0ff584	-0.0005491602
35	0xbcc70556	-0.024294537
36	0xbc869c99	-0.016432093
37	0x3d1707e4	0.03687276
38	0xbd33f5d3	-0.043935608
39	0xbd1d2590	-0.0383659
40	0x3c54eff5	0.012996663
41	0xb91f3db2	-0.00015186405
42	0xbd01e8f8	-0.031716317
43	0x3b46b021	0.0030317383
44	0x3aae4631	0.0013296065
45	0x3c9622e1	0.018327178
46	0x3d17d126	0.037064694
47	0x3c565449	0.013081619
48	0xbcf650f6	-0.030067902
49	0x3c66c16d	0.014084202
50	0xbd06ddda	-0.032926418
51	0xbb1d8824	-0.0024037445
52	0xbd18859d	-0.0372368
53	0xbd18c877	-0.037300553
54	0xbd03078a	-0.03198961
55	0x3d172ede	0.03690993
56	0x3a58bf5f	0.00082682626
57	0x3c08d12d	0.008350653
58	0x3c84a54e	0.016192105
59	0x3c45773a	0.012052352
60	0xbb2e765f	-0.0026620848
61	0xbd66934b	-0.056292813
62	0xbc6e85a5	-0.0145582305
63	0x3d0b6684	0.034033313
64	0xbc8f4dc4	-0.017493136
65	0xbd2514ae	-0.040302925
66	0xbd53335c	-0.051562652
67	0xbca32ba6	-0.019918274
68	0xbcf5e6f1	-0.030017348
69	0xbbdf6703	-0.0068177
70	0x3cb797a2	0.022411171
71	0xbca31e75	-0.019911984
72	0xbbf0ef53	-0.0073527484
73	0x3ced3b61	0.028958978
74	0x3c824eb4	0.01590667
75	0xbcc83068	-0.024437144
76	0xbcd6156a	-0.026133258
77	0xbc22731a	-0.009915138
78	0xbae5e7f1	-0.0017540437
79	0x3d2c2aac	0.042032883
80	0xbb10a60b	-0.0022071626
81	0xbb809a8b	-0.003924673
82	0xbce1cba4	-0.027562924
83	0x3cde5271	0.02713892
84	0xbb77f121	-0.0037832933
85	0x3d07cfb3	0.03315706
86	0xbcbc91a0	-0.023018658
87	0xbc9da2f0	-0.019242734
88	0x3d57b78f	0.05266529
89	0x3d22c0ae	0.039734535
90	0x3bbbeca1	0.0057349955
91	0xbc9b12ad	-0.018929804
92	0x3cd9fd2d	0.026609981
93	0xbbef2906	-0.0072985915
94	0x3d199a2f	0.037500557
95	0x3d0adef3	0.033904027
96	0xbb54d5ab	-0.003247599
97	0xbcd7b4cb	-0.026331326
98	0x3d1fe502	0.03903676
99	0x3d144577	0.03619906
100	0xbd2c94e7	-0.04213419
101	0xbc5f1d1d	-0.013617781
102	0xbd1d2e93	-0.038374495
103	0xbc1621ea	-0.009163359
104	0x3befccc3	0.0073181107
105	0xbcfbb57c	-0.030726187
106	0x389d3111	7.495483e-05
107	0x3d2f3893	0.042778563
108	0xbd36bad7	-0.044611778
109	0x3d72c21c	0.05926715
110	0x3d3d0c01	0.046154026
111	0x3d16f217	0.03685197
112	0x3c8d4e98	0.01724939
113	0xbcbac72b	-0.022800049
114	0x3c7d91c8	0.0154766515
115	0xbd02ed98	-0.03196487
116	0x3d2723f2	0.040805764
117	0xbd0b4733	-0.034003448
118	0xbd4b62f7	-0.049654927
119	0xbc99eead	-0.018790567
120	0xbcbadd86	-0.022810709
121	0xbd445e19	-0.0479413
122	0x3d24c9b3	0.040231418
123	0x3c451fd3	0.012031513
124	0xbd1bc036	-0.038025104
125	0x3c067533	0.008206653
126	0xbc143501	-0.00904584
127	0xbcfbef9b	-0.030753901
128	0x3c6c1670	0.014409646
129	0xbd782bb2	-0.060588546
130	0x3cbbf272	0.022942755
131	0xbc562539	-0.013070398
132	0xbccf4f81	-0.025306465
133	0x3cc0d336	0.023538213
134	0x3d1534e1	0.036427382
135	0x3cfbbc74	0.03072951
136	0xbcc2d3a6	-0.023782562
137	0xbd2937b3	-0.041312885
138	0x3baba6d2	0.0052383924
139	0x3c9de225	0.019272873
140	0x3cc6626b	0.024216851
141	0xbb9b4e73	-0.0047395765
142	0x3c82d392	0.015970025
143	0x3d0d02e0	0.03442657
144	0xbc0d75aa	-0.00863401
145	0xbd247089	-0.040146384
146	0xbbfca494	-0.007710049
147	0xbd4324a7	-0.047642376
148	0x3c8950ee	0.016762223
149	0x3d496d69	0.049176607
150	0x3d1ce005	0.03829958
151	0xbd0e34df	-0.03471839
152	0xbd478aca	-0.048716344
153	0x3cec8ab3	0.02887473
154	0xbbace86c	-0.0052767303
155	0x3d2a274e	0.04154139
156	0x3d699363	0.057025325
157	0x3cfc8d72	0.030829165
158	0xbc9bb7d4	-0.019008555
159	0x3c0b697f	0.008509039
160	0x3ce7a0ee	0.02827498
161	0xbd0efef4	-0.03491111
162	0xbcec70eb	-0.028862437
163	0xbc20d6e0	-0.009816855
164	0xbd5e27f5	-0.054237325
165	0x3c2e0b7a	0.010622853
166	0x3c99822d	0.01873883
167	0x3d2e0a5c	0.04249035
168	0xbd79646f	-0.060886797
169	0x3c87a3e2	0.016557638
170	0x3b42aa76	0.0029703653
171	0x3cba8e5a	0.022772957
172	0x3d547105	0.051865596
173	0xbd0ae1c6	-0.03390672
174	0x3cbe4caf	0.023229925
175	0x3d49c8f9	0.049263928
176	0xbd6c339e	-0.057666413
177	0x3a1c20ff	0.00059558445
178	0xb9c33f87	-0.0003724063
179	0xbb5fc332	-0.0034143445
180	0xbc3a674c	-0.011377167
181	0x3ca14af4	0.01968906
182	0x3d05b3d3	0.032642197
183	0x3d5ef677	0.054434266
184	0xbca2d995	-0.019879142
185	0xbbfcdc4b	-0.0077166907
186	0xbbc14c10	-0.00589896
187	0x3d337a74	0.043817952
188	0x3cad4b56	0.021154087
189	0x3d0e3ff4	0.03472896
190	0xbcc281cc	-0.023743533
191	0xbd35c605	-0.0443783
192	0x3cbf8ce5	0.023382613
193	0x3d032639	0.032018874
194	0x3c0cb361	0.008587689
195	0x3c990992	0.018681321
196	0xbd3aa4e9	-0.045567427
197	0x3ca23a35	0.019803146
198	0xbbd7cff5	-0.0065860697
199	0x3d0ca70c	0.034338996
200	0xbc840238	-0.01611434
201	0x3c2b89ce	0.010469867
202	0xbbc1e044	-0.005916627
203	0xbce34d59	-0.027746843
204	0x3c622edd	0.013805118
205	0xbca20c19	-0.01978116
206	0xbcb95e40	-0.02262795
207	0x3d502841	0.05081964
208	0x3c72c16f	0.014816626
209	0x3cf3b436	0.029749017
210	0xbd4e065a	-0.050299026
211	0xbcd9bbc1	-0.026578786
212	0x3c80abeb	0.015706977
213	0xbd1964c7	-0.037449624
214	0xbcff8030	-0.031189054
215	0xbd18f5b6	-0.037343703
216	0xbcf17d39	-0.029478656
217	0xbd1f00bb	-0.038819056
218	0xbc522078	-0.012825124
219	0x3ca5a53e	0.020220395
220	0xbce78f55	-0.028266588
221	0x3ce9435f	0.028474508
222	0x3cee6ade	0.029103693
223	0x3d33da6d	0.04390948
224	0x3cb3057d	0.021853203
225	0xbd013a91	-0.031549994
226	0xbc4cd142	-0.012501063
227	0xbc8b21aa	-0.016983826
228	0xbd12263b	-0.03568099
229	0xbd6e04e3	-0.05811013
230	0x3d5ba2fb	0.053622227
231	0x3d3361dc	0.043794498
232	0xbb87f558	-0.0041491203
233	0xbc84646a	-0.016161162
234	0xbd1418ef	-0.03615659
235	0x3a26e2a9	0.00063661725
236	0x399344aa	0.00028089184
237	0x3c32ed7f	0.010920881
238	0xbd541b6a	-0.051783957
239	0xbd5179ea	-0.051141657
240	0x3c5c0956	0.01342996
241	0x3d3ac13a	0.04559443
242	0xbd44c639	-0.048040602
243	0xbc74ca84	-0.014940862
244	0xbc94cb04	-0.018163212
245	0xbc181a99	-0.009283685
246	0xbbe9ef53	-0.0071391254
247	0xbcb1ae2b	-0.021689495
248	0x3a73d725	0.00093017734
249	0xbd1dd697	-0.038534727
250	0x3cc17193	0.023613727
251	0x3d1468da	0.036232807
252	0x3ceda266	0.029008102
253	0x3d5d4b42	0.05402685
254	0x3d2fc93f	0.042916533
255	0xbd262ed0	-0.040571988

base_model.model.bert.encoder.layer.0.attention.self.value.lora_B.weight f4 [384, 8]
0	0xb975556f	-0.00023396847
1	0xba82d596	-0.0009981866
2	0x3a286a50	0.0006424533
3	0xba2365c7	-0.00062331225
4	0x39219a92	0.00015411738
5	0xb9f40896	-0.00046545704
6	0xba4d6702	-0.0007835479
7	0x38333d4f	4.2734024e-05
8	0x3b2bcbff	0.002621412
9	0xbaad9346	-0.0013242743
10	0x3b152b22	0.0022761305
11	0x3b7ff41e	0.0039055417
12	0xbac25dd2	-0.0014828986
13	0x3b8d618b	0.0043146065
14	0x3b58ea1a	0.003309852
15	0xbbac065b	-0.005249781
16	0x3ba207c4	0.0049447734
17	0xba576518	-0.0008216663
18	0x3b36867d	0.0027851157
19	0x3c1f5bc4	0.0097264685
20	0xbb8ffb16	-0.0043939454
21	0x3c2581d7	0.010101757
22	0x3c1021e5	0.008797144
23	0xbc00fa6e	-0.007872207
24	0x39ecd257	0.00045170143
25	0x39c04761	0.00036674275
26	0x3a017022	0.00049376686
27	0x3b969fbb	0.004596678
28	0xba82d038	-0.0009980267
29	0x3b96d9e4	0.0046036113
30	0x3b8d2499	0.0043073413
31	0xbba69878	-0.0050840937
32	0xbb88bf52	-0.004173198
33	0x3b9e948e	0.0048394864
34	0xbbc75e17	-0.0060842144
35	0xbad39b01	-0.0016144217
36	0x3b99a793	0.004689166
37	0xbab18ddf	-0.0013546309
38	0xbaaa2d2e	-0.0012983435
39	0x3af38614	0.0018579387
40	0xbaf46708	-0.0018646428
41	0x3b50cfe4	0.0031862194
42	0xbacce50d	-0.0015632227
43	0x39e0a218	0.0004284538
44	0x3af1aef2	0.0018438979
45	0x3a3dd3c4	0.00072413334
46	0x3a2025b8	0.0006109136
47	0xb9dcdd2f	-0.00042126465
48	0xba8ca688	-0.0010730783
49	0x3b4a7d4a	0.0030897432
50	0xbb351648	-0.002763169
51	0xbb7fa396	-0.0039007417
52	0x3a8c9721	0.0010726192
53	0xbb8a2d70	-0.0042168424
54	0xbb68a95c	-0.0035501337
55	0x3b8f3fd4	0.0043716226
56	0xbbb04ee2	-0.0053804973
57	0x3b5dd76d	0.0033850328
58	0xbb7b82db	-0.0038377556
59	0xbba5f124	-0.0050641466
60	0x3b8d1564	0.0043055285
61	0xbba8c1cb	-0.005150055
62	0xbb956398	-0.0045589916
63	0x3b7d42cd	0.0038644553
64	0x3b544352	0.003238876
65	0xbb8ed4c6	-0.0043588607
66	0x3b804035	0.003913904
67	0x3aecd569	0.0018068972
68	0xbb83806e	-0.0040131127
69	0x3acd7733	0.0015675783
70	0x3ac3fbcc	0.0014952361
71	0xbb3c53bd	-0.0028736435
72	0xbb0878fa	-0.002082406
73	0xba85b8a2	-0.001020212
74	0x39991c4d	0.0002920352
75	0xbac9cd6c	-0.0015396303
76	0x3b0f4943	0.0021863736
77	0xbaaf6e26	-0.0013384267
78	0xbae0d04d	-0.0017151922
79	0x3a6d3be9	0.000904976
80	0x3b6790a5	0.0035334018
81	0xbb2adf65	-0.0026073095
82	0x3b348bff	0.0027549264
83	0xbae291b8	-0.0017285859
84	0xbb70cd5c	-0.0036743497
85	0xbb131358	-0.002244195
86	0xbaf70681	-0.0018846543
87	0x3ac6c7df	0.0015165767
88	0x3a049972	0.00050582655
89	0xbb178bb5	-0.0023124043
90	0x3a923493	0.0011154584
91	0xbb087f67	-0.002082789
92	0xba63b492	-0.000868627
93	0xbb249251	-0.0025111625
94	0xbb088fc4	-0.0020837644
95	0x3b0e9e22	0.0021761735
96	0x3b1e5b31	0.002416324
97	0xbb5e039d	-0.0033876665
98	0x3b9939e4	0.0046760906
99	0x3b710df7	0.0036782005
100	0xbb91bff1	-0.00444793
101	0x3b854685	0.0040672445
102	0x3b59cccc	0.003323364
103	0xbb9125e1	-0.0044295643
104	0x3b8d9de2	0.0043217996
105	0xbb49ac53	-0.003077288
106	0x3b83b2af	0.0040191035
107	0x3bfb748a	0.0076738046
108	0xbb975ac3	-0.004618974
109	0x3c02d69e	0.007985739
110	0x3bed8360	0.007248327
111	0xbc100b75	-0.008791794
112	0xbb9889ac	-0.0046550836
113	0x3b2e0447	0.0026552842
114	0xbb5e2a68	-0.0033899788
115	0xbba2b130	-0.00496497
116	0x3b9c3b57	0.004767816
117	0xbb9da056	-0.0048103733
118	0xbb999041	-0.004686386
119	0x3baa1fe1	0.0051917885
120	0xbb29efeb	-0.0025930356
121	0x3aeb5386	0.0017953969
122	0xbb291a91	-0.0025803188
123	0xbb82c83c	-0.003991155
124	0x3b0f8abe	0.0021902765
125	0xbb84ffab	-0.0040587983
126	0xbb6d4960	-0.0036207065
127	0x3b83bde5	0.00402044
128	0xbb7a5d5b	-0.0038202617
129	0x3b63f6d6	0.0034784577
130	0xbb563ebc	-0.0032691201
131	0xbb49adbf	-0.0030773727
132	0x3b6a1036	0.003571523
133	0xbb607fb7	-0.0034255811
134	0xbb2fa202	-0.0026799445
135	0x3b523deb	0.0032080363
136	0x3b84ea01	0.0040562158
137	0xbb241527	-0.0025037022
138	0x3b418b8c	0.002953264
139	0x3abb2654	0.001427839
140	0xbb872e2b	-0.0041253767
141	0x3a62b38f	0.0008647972
142	0x3aa5e1dd	0.0012655813
143	0xba6e5e2c	-0.0009093012
144	0xbab756e6	-0.001398769
145	0x3b43c115	0.0029869725
146	0xbb1f6faf	-0.0024328043
147	0x3b80f820	0.003935829
148	0x3aee454e	0.0018178613
149	0x3b82851c	0.003983153
150	0x3b76b0e1	0.003764205
151	0xbb647deb	-0.0034865092
152	0x3bac626f	0.0052607576
153	0xbb24bac1	-0.0025135728
154	0x3b743b3f	0.0037266759
155	0x3bc16b4d	0.005902684
156	0xbba342c1	-0.004982323
157	0x3bd4099d	0.0064708726
158	0x3bc118ab	0.005892833
159	0xbbb3de02	-0.005489112
160	0x388a5e95	6.59797e-05
161	0x3a4e371d	0.0007866489
162	0xb99c8720	-0.00029855315
163	0x3b6b7bd1	0.0035931955
164	0xb950c638	-0.00019910268
165	0x3b821041	0.003969223
166	0x3b7dd76e	0.0038733142
167	0xbb67323a	-0.003527774
168	0x3c2d4c68	0.010577299
169	0xbc17aeef	-0.009258016
170	0x3c2aca0e	0.01042415
171	0x3c15ae24	0.009135757
172	0xbc283795	-0.010267158
173	0x3c228375	0.009919037
174	0x3c0a6160	0.008446068
175	0xbc215b24	-0.00984839
176	0x398e92e2	0.00027193787
177	0x3aa57c61	0.0012625569
178	0xb91a0316	-0.00014687734
179	0x3b28c8f6	0.0025754548
180	0xb838a89a	-4.402604e-05
181	0x3b3a116f	0.002839174
182	0x3b411a11	0.0029465
183	0xbaee35e9	-0.0018174025
184	0xbc0a5ec9	-0.00844545
185	0x3be8ccec	0.0071045067
186	0xbc0232c7	-0.007946677
187	0xbc099d54	-0.008399326
188	0x3c113fce	0.00886531
189	0xbc0f73d3	-0.008755642
190	0xbc024478	-0.007950895
191	0x3c150f05	0.009097819
192	0xbbda0d8b	-0.0066544465
193	0x3bb1570b	0.0054119877
194	0xbbbb2e5b	-0.005712313
195	0xbbc91655	-0.0061366954
196	0x3bd9730f	0.0066360305
197	0xbba29427	-0.004961509
198	0xbb8a0972	-0.0042125518
199	0x3bd04bea	0.006356706
200	0x3c5154cd	0.012776566
201	0xbc517539	-0.012784296
202	0x3c499449	0.01230342
203	0x3c3f2719	0.011667036
204	0xbc547192	-0.01296653
205	0x3c4a02ff	0.012329816
206	0x3c30e00d	0.010795605
207	0xbc4e8c87	-0.0126067465
208	0x3b710777	0.003677813
209	0xbb5aba3c	-0.0033375164
210	0x3b6bd2b3	0.003598374
211	0x3b909edf	0.00441347
212	0xbb6e3ce2	-0.0036352207
213	0x3b9d69f4	0.0048038904
214	0x3b8b18b4	0.004244888
215	0xbb96867c	-0.0045936685
216	0x39119bd1	0.00013886324
217	0x3a4b342a	0.00077516085
218	0x39611f46	0.00021469322
219	0x3aab9dc0	0.0013093278
220	0x37ae5488	2.078178e-05
221	0x3ac89ef4	0.0015306161
222	0x3ab43150	0.0013747606
223	0xbaa6bb80	-0.0012720674
224	0x39927345	0.00027933173
225	0xb93c9192	-0.00017983306
226	0x3a04d484	0.00050670677
227	0x3ab1e897	0.0013573345
228	0xb9b5e4d0	-0.0003469349
229	0x3ab4a859	0.0013783082
230	0x3a91705a	0.0011096105
231	0xbaa9b051	-0.0012946223
232	0xbbb34e2e	-0.005471966
233	0x3b929619	0.0044734594
234	0xbb9e1163	-0.00482385
235	0xbb32dcf4	-0.0027292343
236	0x3bba8246	0.0056917993
237	0xbaf6aec2	-0.0018820392
238	0xbaf41e13	-0.0018624685
239	0x3b5a19f1	0.0033279622
240	0x3c375173	0.011188853
241	0xbbe86234	-0.007091785
242	0x3c354579	0.011063927
243	0x3c2203f9	0.0098886425
244	0xbc40ccf8	-0.011767618
245	0x3c2e8817	0.010652564
246	0x3c144225	0.009048973
247	0xbc2aad1c	-0.010417249
248	0x3bbbca01	0.005730868
249	0xbbf2d86c	-0.0074110534
250	0x3bd8c0a2	0.0066147605
251	0x3bad6049	0.005291019
252	0xbbc728d0	-0.0060778633
253	0x3bb05a38	0.0053818487
254	0x3b9e9996	0.004840086
255	0xbbc82a25	-0.0061085396

base_model.model.bert.encoder.layer.1.attention.self.query.lora_A.weight f4 [8, 384]
0	0xbc1d20af	-0.009590312
1	0xbbf5638d	-0.007488674
2	0x3ce5af04	0.028037556
3	0x3c3f7766	0.011686182
4	0xbd3288e1	-0.04358757
5	0x3cc3dfa3	0.02391035
6	0xbd161be3	-0.03664769
7	0xbd508e6d	-0.050917078
8	0x3d214e53	0.039381336
9	0xbabd3e58	-0.0014438136
10	0xbc9e970d	-0.019359136
11	0xbc8e33cd	-0.017358685
12	0xbd35ed27	-0.04441562
13	0xbd1398e1	-0.03603447
14	0x3cb89970	0.022534102
15	0x3d2f7adf	0.04284179
16	0x3ca9bf5e	0.020721134
17	0xbc123b48	-0.008925267
18	0x3c342a50	0.010996416
19	0xbd16144f	-0.03664046
20	0xbd249c55	-0.040188152
21	0x3cdc281a	0.02687459
22	0xbcc8990d	-0.024487043
23	0xbd162504	-0.036656395
24	0xbc18eb9c	-0.009333517
25	0xbd2aa08b	-0.041657012
26	0xbbcbe3af	-0.0062222104
27	0xbd007dcd	-0.031369973
28	0xbc54e042	-0.01299292
29	0xbd375702	-0.04476071
30	0x3a87f1b2	0.0010371713
31	0xbcb1d5b4	-0.021708347
32	0x3cd32886	0.025776159
33	0xbd193f02	-0.037413605
34	0xbd1b5032	-0.037918277
35	0x3cfec52c	0.031099878
36	0xbbe8b4d2	-0.0071016336
37	0x3d233c6b	0.03985254
38	0xbc13340e	-0.008984579
39	0x3d4cafc0	0.049972296
40	0xbc803472	-0.015650008
41	0xbadf4d48	-0.0017036581
42	0x3ca09a92	0.019604955
43	0x3ca709cc	0.020390414
44	0x3ab24273	0.0013600126
45	0x3cbb6d5b	0.022879293
46	0x3c40e283	0.011772755
47	0xbcf8aa80	-0.030354738
48	0x3c34dac7	0.011038489
49	0x3d0c0118	0.03418073
50	0x3cc098b0	0.023510307
51	0x3d25b712	0.040457793
52	0x3d17b1a3	0.037034642
53	0x3ba34c24	0.004983442
54	0xbd4660d6	-0.048432194
55	0xbd36ff91	-0.04467732
56	0xbc82010b	-0.015869638
57	0x3d44c09f	0.04803526
58	0xbc5d093c	-0.013490971
59	0x3c8de815	0.01732258
60	0xbd347c12	-0.044063635
61	0x3c226bfa	0.009913439
62	0x3cc87c1a	0.024473239
63	0xbd428623	-0.047491204
64	0x3d1449fb	0.036203366
65	0x3d28382e	0.041069202
66	0xbd11f84a	-0.035637178
67	0x3cb22752	0.021747265
68	0xbbb177f0	-0.005415909
69	0xbc6e8a6d	-0.01455937
70	0x3cfca391	0.030839713
71	0xbb72f750	-0.003707368
72	0x3ce320af	0.027725546
73	0x3d185cb5	0.037197787
74	0x3c9d2940	0.019184709
75	0x3ca5ed0b	0.020254632
76	0x3d2ca038	0.042144984
77	0x3d404900	0.04694462
78	0x3d435791	0.04769093
79	0x3d4104f7	0.047123875
80	0x3c9d4718	0.01919894
81	0xbd458e6e	-0.048231535
82	0xbd18a944	-0.0372708
83	0xbd2804fe	-0.041020386
84	0x3c201c74	0.009772409
85	0xbce4a721	-0.027911725
86	0xbc5425be	-0.012948452
87	0xbc84c680	-0.016207933
88	0x3c8fbc88	0.017545953
89	0x3d39b55a	0.045338966
90	0xbd208ebf	-0.039198633
91	0xbd0bcdb0	-0.034131706
92	0xbd1e330e	-0.03862291
93	0x3cace691	0.021106036
94	0xbc0d577b	-0.008626814
95	0xbc5e2244	-0.013557974
96	0x3d337bed	0.043819357
97	0x3d4be964	0.049783126
98	0xbaeb95b2	-0.001797369
99	0xbd0fa917	-0.035073366
100	0x3d008f97	0.031386938
101	0xbd131a19	-0.03591356
102	0x3c2305c2	0.009950103
103	0x3c4ed985	0.012625103
104	0x3c207caa	0.009795347
105	0x3d2b971a	0.04189215
106	0x3d2b7b22	0.041865475
107	0x3d4617bb	0.048362475
108	0xbc96b25c	-0.018395595
109	0xbd23d711	-0.040000025
110	0x3cd8337c	0.026391737
111	0x3d3f827b	0.046755295
112	0x3d16fed4	0.036864117
113	0x3c16bfdc	0.009201016
114	0xbc3087ce	-0.010774566
115	0xbc2401e3	-0.010010215
116	0xbd3f7cb8	-0.0467498
117	0x3c87ca92	0.016576085
118	0x3d5526cf	0.052038964
119	0xbd206753	-0.039161038
120	0xbc305912	-0.0107634235
121	0xbd17e5b5	-0.0370843
122	0x3ca57e9b	0.020201972
123	0x3cefc8f1	0.029270621
124	0x3c924294	0.017854013
125	0x3cb7ff08	0.022460476
126	0x3b9c2043	0.004764588
127	0x3c42c48e	0.011887683
128	0x3cc1074f	0.023563055
129	0x3cb9852d	0.022646511
130	0xbd2d7cb9	-0.042355273
131	0x3d283484	0.041065708
132	0xbc19dde5	-0.009391283
133	0x3c81fd50	0.01586786
134	0xbaa2abc9	-0.0012410815
135	0x3b1526bc	0.0022758683
136	0x3cffc903	0.03122378
137	0x3cf552d5	0.029946724
138	0xbcc87a47	-0.024472369
139	0x3d303bed	0.0430259
140	0x3ce08ddb	0.027411392
141	0xbccee2f2	-0.0252547
142	0xbb8e70fd	-0.0043469653
143	0x3d3589fd	0.04432105
144	0x3d0d752a	0.034535564
145	0x3d1274c9	0.035755906
146	0xbd0513c7	-0.032489564
147	0x3cce961e	0.025218066
148	0xbbd16630	-0.0063903555
149	0xbd46cd74	-0.04853578
150	0x3c32a714	0.010904092
151	0x3cdb33e6	0.026758146
152	0xbd0c1183	-0.034196388
153	0xbc45a8ce	-0.012064172
154	0xbc6f9167	-0.014622069
155	0x3c4afde1	0.012389631
156	0x3cd429b7	0.025898797
157	0xbcdbd015	-0.02683262
158	0x3c9d458e	0.019198205
159	0xbc85c469	-0.016329007
160	0x3b9b5f60	0.004741594
161	0xbc45e803	-0.012079242
162	0x3ce2c63b	0.027682414
163	0x3ca54516	0.020174544
164	0xbd544592	-0.05182416
165	0x3d184806	0.037178062
166	0x3c310d94	0.01080646
167	0xbd1f4adc	-0.03888975
168	0xbc3fbbf0	-0.011702523
169	0xbc943ca6	-0.018095326
170	0x3cf0362a	0.029322702
171	0xbc007a08	-0.0078415945
172	0x3b57fdcb	0.003295767
173	0x3d10c229	0.035341416
174	0xbd05425e	-0.032533996
175	0xbd36d6b2	-0.044638343
176	0x3d1f16c1	0.03884006
177	0x3d05647b	0.03256653
178	0x3c513f3c	0.012771424
179	0xba7d0f45	-0.00096534594
180	0xbccb0283	-0.024781471
181	0xbc6e00df	-0.014526575
182	0x3c89018c	0.01672437
183	0xbae61aef	-0.0017555634
184	0xbb98f321	-0.004667655
185	0xbc914815	-0.017734567
186	0xbc935c73	-0.01798842
187	0xbc63a979	-0.013895386
188	0xbc8fd91c	-0.01755958
189	0x3cc381ef	0.023865668
190	0x3c2656ec	0.01015256
191	0xbc7737e5	-0.01508901
192	0x3d23d8ac	0.040001556
193	0xbca3a9a9	-0.019978361
194	0x3c87f5fe	0.01659679
195	0x3cf4dd39	0.029890643
196	0x3c3bd65e	0.011464683
197	0x3cd5d3c8	0.026101962
198	0xbd204a01	-0.039133076
199	0x3b3770ab	0.002799074
200	0x3ca6c4e5	0.020357559
201	0xbd38e102	-0.04513646
202	0x3cdabd82	0.026701692
203	0xbd3feca1	-0.046856526
204	0xbc895de9	-0.016768413
205	0xbd56b5b6	-0.052419387
206	0x3c38b719	0.011274123
207	0x3cbd3ea3	0.023101157
208	0xb94d19f6	-0.00019559995
209	0xbce01b7d	-0.027356857
210	0xbd2c4872	-0.042061277
211	0x3d29ecc1	0.04148555
212	0xbaafa5de	-0.0013400873
213	0xbc72b759	-0.014814221
214	0xbbc15535	-0.00590005
215	0x3c238548	0.009980507
216	0x3cbf4b6a	0.02335139
217	0xbbd9a7e6	-0.0066423295
218	0xbc642fab	-0.013927381
219	0xbb5dc189	-0.003383728
220	0xbbf825a4	-0.0075728465
221	0xbc48ed6e	-0.012263639
222	0x3d0e7425	0.034778733
223	0xbcda6e6a	-0.026663978
224	0xbc5a8604	-0.013337616
225	0xbbd1d2c0	-0.006403297
226	0x3cca37f9	0.024684893
227	0x38c89223	9.563963e-05
228	0x3d4d88b6	0.050179206
229	0xbd43ab0a	-0.047770537
230	0x3d5c2545	0.05374648
231	0x3b914b3e	0.0044340184
232	0x3d1a8e3f	0.037733313
233	0xbaaa37e3	-0.0012986626
234	0x3c93dcc2	0.018049601
235	0xbd0dc1a0	-0.034608483
236	0x3beda108	0.0072518624
237	0xbd113565	-0.03545131
238	0xbb07e3ae	-0.0020735073
239	0x3cf10ebb	0.02942597
240	0xbc7919c4	-0.015203897
241	0x3c561f91	0.013069049
242	0x3d16305d	0.036667217
243	0xbd18e6f4	-0.03732963
244	0xbd467659	-0.04845271
245	0xbd411bc2	-0.047145613
246	0x3cb9aa7d	0.022664303
247	0xbcb67605	-0.022273073
248	0xbc5adfd4	-0.013359029
249	0xbceffc55	-0.029295126
250	0x3d08c783	0.033393394
251	0xbcf66297	-0.030076308
252	0x3d0d8953	0.03455479
253	0xbd1ec125	-0.038758416
254	0x3cdf3d47	0.027250899
255	0x3d1284c5	0.03577115

base_model.model.bert.encoder.layer.1.attention.self.query.lora_B.weight f4 [384, 8]
0	0xbadddc2f	-0.0016926582
1	0x3b9da93f	0.0048114355
2	0x3a9ee976	0.001212402
3	0xbb8889e1	-0.004166827
4	0x3a3136e1	0.0006760192
5	0x3ae15656	0.0017191868
6	0xbbc54906	-0.006020668
7	0xbbb14333	-0.005409622
8	0xbaae4a1b	-0.0013297232
9	0x3a98e892	0.0011665991
10	0xbab73a02	-0.001397908
11	0xb9a8b44f	-0.00032177797
12	0xb9c29bc5	-0.0003711862
13	0xba0fb85f	-0.00054824905
14	0xbb1d1f3e	-0.002397492
15	0xba807439	-0.0009800262
16	0x3b114a2b	0.0022169452
17	0x3a76bcbe	0.000941228
18	0x3b8b4122	0.004249708
19	0xba855513	-0.0010172449
20	0xbb07eeb7	-0.002074165
21	0x3b861817	0.004092227
22	0xba9a4cfb	-0.001177221
23	0xba646020	-0.00087118335
24	0xbb0136a7	-0.0019716413
25	0x3b0f505c	0.0021867966
26	0x3adafd89	0.001670764
27	0xbae9baa2	-0.001783211
28	0x394ff66c	0.00019832858
29	0x3aa1f4d6	0.0012356292
30	0xbb4f09d0	-0.0031591542
31	0xbae602e7	-0.0017548472
32	0xba70a348	-0.0009179604
33	0x3b430342	0.002975658
34	0x3b4b94fa	0.0031064139
35	0xbb3ada2d	-0.002851139
36	0x3a1147b6	0.0005541997
37	0x3b22d109	0.0024843833
38	0xbb3d3dd8	-0.0028875973
39	0xbb45dc5b	-0.0030191157
40	0xbb376663	-0.0027984611
41	0x3b177163	0.0023108355
42	0x3ac637d9	0.0015122845
43	0xbade7156	-0.0016971033
44	0x3a272acb	0.0006376921
45	0x3a8c57f9	0.001070737
46	0xbb5ed6a1	-0.003400244
47	0xbac9f774	-0.001540883
48	0xbb27a095	-0.0025577892
49	0x3aa5a4ad	0.0012637578
50	0x399c63f5	0.00029829112
51	0xba679335	-0.0008833886
52	0x3a923c30	0.0011156853
53	0x39db3a04	0.0004181416
54	0xbb63a463	-0.0034735433
55	0xba1ba2d7	-0.0005937046
56	0xbafde7e8	-0.0019371482
57	0x3b27569c	0.00255338
58	0x3aeedf76	0.0018224556
59	0xbb1a1d5e	-0.002351604
60	0x399677b0	0.00028699404
61	0x3a81a8f0	0.0009892266
62	0xbb50ecca	-0.0031879419
63	0xbb0f9312	-0.002190773
64	0x3a7936a9	0.0009506741
65	0x3af8f4e1	0.0018993878
66	0x3b65bdbf	0.0035055724
67	0xbac1f406	-0.0014797456
68	0xbad950f1	-0.0016579909
69	0x3b301dd5	0.002687325
70	0xbb2ab66c	-0.0026048673
71	0xbae97650	-0.0017811749
72	0x3b87d43c	0.0041451734
73	0x3b5822f4	0.0032979818
74	0x3bd2f7ac	0.006438216
75	0xbb99475d	-0.0046776966
76	0xbac10587	-0.0014726379
77	0x3b76962b	0.0037626128
78	0xbab39780	-0.0013701767
79	0xbb4f5786	-0.0031637861
80	0x3b3f5f0e	0.0029200944
81	0xbaa50907	-0.0012591191
82	0xbb315dd1	-0.0027063976
83	0x3a2140a7	0.00061512965
84	0x3a4934f4	0.0007675432
85	0xba2fc5aa	-0.00067051745
86	0x3b0109c2	0.0019689654
87	0x3a3bacf1	0.0007159254
88	0x3ab62dbe	0.001389913
89	0xbb380d34	-0.0028084042
90	0xb8843e74	-6.305883e-05
91	0x3a76b65a	0.0009411328
92	0xb9d2db47	-0.00040217696
93	0xba8eae96	-0.0010885771
94	0x3b9414d8	0.0045190863
95	0x3b2a4734	0.0025982382
96	0xbb506792	-0.0031800014
97	0xbb35b44c	-0.0027725874
98	0xbb87a3a4	-0.0041393805
99	0x3aeec464	0.0018216488
100	0x3b074cd1	0.0020645151
101	0xbb6edc4d	-0.0036447227
102	0x3b35f5f2	0.0027765003
103	0x3b292859	0.0025811403
104	0x3a5879ad	0.0008257877
105	0xbb9a9fd8	-0.004718762
106	0xbab6cd18	-0.0013946621
107	0x3b60e6d4	0.0034317272
108	0x3a5d5a9d	0.00084439834
109	0xbb0a83c4	-0.0021135667
110	0x3bad02d4	0.005279878
111	0x3b864eb3	0.004098737
112	0xbb1453f7	-0.0022633055
113	0x3a64272b	0.0008703346
114	0x3b1ee221	0.002424367
115	0xba3e2993	-0.000725412
116	0xba6728f9	-0.0008818056
117	0x3a6bb915	0.0008992118
118	0xbb2cb641	-0.002635375
119	0xba396146	-0.0007071685
120	0xbaf4f140	-0.0018687621
121	0xbb249dc8	-0.002511846
122	0xbb97a4e7	-0.004627812
123	0x3b1f7eac	0.0024336977
124	0x3aadee57	0.0013269883
125	0xbb9b0dce	-0.0047318703
126	0x3b3970cf	0.0028296
127	0x3b17ea0d	0.0023180277
128	0x3b5b97f2	0.0033507315
129	0x3b879db2	0.004138672
130	0x3b604b47	0.0034224556
131	0xbb18216a	-0.0023213276
132	0xbb1d44b5	-0.0023997251
133	0x3b6a1df8	0.003572343
134	0xbb4c500d	-0.0031175644
135	0xbb4d67f4	-0.0031342478
136	0xbb106b6a	-0.002203668
137	0x39d94856	0.0004144336
138	0xb9a5569b	-0.00031535779
139	0x3ab02eea	0.0013441716
140	0x39c2ef71	0.0003718096
141	0xba279281	-0.0006392375
142	0xbb36e8e8	-0.002790982
143	0x39055e63	0.0001271903
144	0xbb202877	-0.0024438181
145	0xbb198394	-0.0023424374
146	0xbb3ac1af	-0.0028496792
147	0x3b706f6b	0.0036687504
148	0xba26b175	-0.00063588406
149	0xbaa5b0ec	-0.0012641228
150	0x3a4e2919	0.00078644004
151	0x3b3089e2	0.0026937653
152	0xbb305ed2	-0.0026911986
153	0xba86b9bc	-0.0010278742
154	0x3a9cc4fc	0.0011960561
155	0x3ab799f9	0.001400768
156	0xba7f96df	-0.00097499596
157	0xba0f5b0c	-0.0005468584
158	0x396f3d74	0.00022815709
159	0x3ad3ac90	0.001614945
160	0xbaa721c8	-0.0012751156
161	0x3b8cab3e	0.0042928746
162	0x3b16bd47	0.0023001002
163	0xbb85dff9	-0.0040855375
164	0x375c3bcd	1.3126945e-05
165	0x3b193b81	0.0023381414
166	0xbbd3605a	-0.006450695
167	0xbb82d9d7	-0.0039932537
168	0xbab32f9e	-0.0013670807
169	0xbb33a82d	-0.0027413473
170	0xbb22d373	-0.0024845272
171	0x3b54d0fd	0.00324732
172	0xbac57037	-0.001506335
173	0xbb85cce2	-0.004083262
174	0x3b9e387e	0.0048285117
175	0x3b62a4af	0.0034583022
176	0xba55ac78	-0.0008151005
177	0x3b21b1eb	0.0024672698
178	0x3b66b688	0.0035204012
179	0xbb069e03	-0.002054096
180	0xbac08197	-0.0014687058
181	0x3b0bc13a	0.0021324889
182	0xbb23cfc5	-0.0024995666
183	0xbb19a02d	-0.002344142
184	0x3b211b76	0.0024583018
185	0x3b5c2cf9	0.0033596142
186	0x3b4aa0db	0.0030918631
187	0xbb5559b1	-0.003255468
188	0xbac6ba8f	-0.00151618
189	0x3b37be50	0.002803702
190	0xb923cc59	-0.00015621017
191	0xbad24824	-0.0016043228
192	0x3b37bea1	0.0028037208
193	0x3ad7a27e	0.0016451625
194	0x3adb9f32	0.0016755818
195	0xbb18b140	-0.0023299009
196	0xba1cc6ff	-0.00059805805
197	0x3b0eda30	0.002179753
198	0x3944e7e7	0.00018778407
199	0xbb553e0f	-0.003253821
200	0x3b191be9	0.0023362583
201	0xbb094016	-0.002094274
202	0xba27ff00	-0.00064085424
203	0x3aadb2f8	0.0013252189
204	0xba6f09d3	-0.00091185904
205	0xba359240	-0.0006926395
206	0x3ba851d6	0.0051367087
207	0x3ac08d4a	0.0014690545
208	0xbb1e9efe	-0.0024203653
209	0xba89f6b8	-0.0010525798
210	0xbb80eab9	-0.003934231
211	0x3ac17737	0.001476026
212	0x3aebfac2	0.0018003809
213	0xbb6f8a2a	-0.0036550858
214	0x39942740	0.00028258003
215	0x3a584a20	0.00082507916
216	0xbb4d5c7f	-0.003133565
217	0x3b248182	0.0025101607
218	0xb9d0d95f	-0.00039834806
219	0xbb307283	-0.0026923723
220	0x3b15b0bb	0.0022840935
221	0xbaae7088	-0.0013308683
222	0xbaec15ac	-0.001801183
223	0xbb8070bc	-0.003919689
224	0xbb705d82	-0.0036676829
225	0x399c0e12	0.00029765122
226	0xb99bd234	-0.00029720517
227	0x39f4e264	0.0004670798
228	0x3b003102	0.001956046
229	0xba34d777	-0.0006898562
230	0xbab889af	-0.0014079119
231	0x3926e6cd	0.00015916974
232	0x3ac1ae93	0.0014776759
233	0xbb1817c9	-0.0023207536
234	0xbad6eb7e	-0.0016397086
235	0x3b267ecf	0.0025405174
236	0xb9f87454	-0.00047388917
237	0xbafad45e	-0.0019136777
238	0x3b4b49b5	0.0031019275
239	0x3b36183f	0.0027785448
240	0x3a9eb5d2	0.001210863
241	0xbae91fa1	-0.0017785915
242	0xbabd63f7	-0.0014449348
243	0x3a830e50	0.0009998772
244	0x39d14842	0.00039917423
245	0xbaba4eec	-0.0014214194
246	0x3b53873d	0.0032276653
247	0x3a753104	0.0009353312
248	0x3af072d3	0.0018344767
249	0x3a92cbd4	0.0011199662
250	0x3b8a1124	0.004213469
251	0xbaa82545	-0.001282849
252	0xbaabfc32	-0.0013121425
253	0x3b65fac7	0.0035092102
254	0xba41b5cd	-0.0007389456
255	0xbaaaec11	-0.0013040324

base_model.model.bert.encoder.layer.1.attention.self.value.lora_A.weight f4 [8, 384]
0	0xbc369c18	-0.011145614
1	0x3bd8c334	0.006615067
2	0xbd591c6c	-0.05300562
3	0x3d090c1a	0.033458807
4	0xbcda6dde	-0.026663717
5	0x3c3484ce	0.011017991
6	0xbc42448d	-0.011857164
7	0x3cce8b6c	0.025212966
8	0xbc96f74e	-0.018428471
9	0x3ceb938b	0.028756877
10	0xbbc5947b	-0.006029663
11	0x3bb4974b	0.0055111996
12	0xbc1a6920	-0.009424478
13	0x3c64c360	0.013962597
14	0xbc9fe894	-0.019520082
15	0xbd00f4a2	-0.0314833
16	0xbd31567b	-0.043295365
17	0x3cae7565	0.021296212
18	0xbb3e1612	-0.0029004854
19	0xbd6e287c	-0.058144078
20	0xbc4a4cbe	-0.012347398
21	0xbb025b10	-0.0019890703
22	0x3c84d38c	0.016214155
23	0x3cba8a70	0.02277109
24	0x3ce34ab1	0.027745577
25	0x3d02631c	0.0318328
26	0x3c14e3c6	0.009087509
27	0x3d371fd3	0.044708084
28	0xbd099114	-0.033585623
29	0x3cc8a75e	0.02449387
30	0x3c490936	0.012270262
31	0xbcbbbfe6	-0.022918653
32	0x3c2da549	0.010598489
33	0x3cb571e5	0.022149036
34	0x3cc7e882	0.02440286
35	0xbd254b02	-0.040354736
36	0xbc8b0f93	-0.0169752
37	0x3c855d8f	0.016279964
38	0xbcf7d507	-0.030252947
39	0x3d456951	0.04819614
40	0x3d0be184	0.034150615
41	0xbcef4f16	-0.029212516
42	0x3cfd42cf	0.030915646
43	0x3b99a620	0.004688993
44	0x3d6144ae	0.05499714
45	0x3c72316a	0.014782289
46	0xbca6956e	-0.020334926
47	0x3c5727c5	0.01313204
48	0xbd3b4f49	-0.04572991
49	0xbd35d002	-0.044387825
50	0x3ba89d9e	0.0051457426
51	0x3d619474	0.055073217
52	0x3ba834a2	0.0051332274
53	0x3d2f561f	0.04280674
54	0x3c98c756	0.018649738
55	0x3d297651	0.0413726
56	0x3d042387	0.032260444
57	0xbd46c8cc	-0.04853134
58	0x3d5caaca	0.053873815
59	0x3cf6e50e	0.030138519
60	0x39cc8f47	0.00039016662
61	0x3addcb82	0.0016921612
62	0x3d16422e	0.036684208
63	0x3c78b870	0.015180692
64	0xbd3e6a87	-0.04648831
65	0x3ce9e82e	0.028553095
66	0x3d015d21	0.031582955
67	0xbce4092f	-0.02783641
68	0x3c4985a0	0.012299925
69	0xbcd119ee	-0.02552506
70	0xbcaad4b2	-0.020853374
71	0x3d3faeac	0.04679744
72	0x3cd60c06	0.02612878
73	0xbcec220c	-0.028824829
74	0x3d36fcba	0.044674613
75	0x3c5e4a31	0.013567493
76	0xbd2f1740	-0.042746782
77	0xbcf3e13a	-0.029770482
78	0xbd2e1bef	-0.04250711
79	0xbbdaa205	-0.0066721463
80	0x3af2b952	0.0018518365
81	0xbd56b47b	-0.052418213
82	0xbd6d5bb6	-0.05794879
83	0x3d6cc5a4	0.057805672
84	0x3d231308	0.03981307
85	0xbccd85bd	-0.025088185
86	0x3cd57fec	0.026061974
87	0xbd1bc35e	-0.038028114
88	0xbbf652a8	-0.0075171776
89	0x3a3f982c	0.0007308747
90	0xbb66b89e	-0.0035205255
91	0x3c9dfaec	0.019284688
92	0xbd58eac2	-0.052958257
93	0xbc682fe3	-0.014171573
94	0xbcbd1084	-0.023079164
95	0x3c174d1d	0.009234694
96	0xbc91fca0	-0.017820656
97	0x3c98eea3	0.018668478
98	0xbc620a87	-0.013796455
99	0x3c8b0756	0.016971271
100	0x3cd0eb8b	0.02550294
101	0xbc869132	-0.016426656
102	0x3d09a6dd	0.0336064
103	0x3c2f3c30	0.010695502
104	0xbca40fa6	-0.020026993
105	0x3d532284	0.05154659
106	0x3c480c6a	0.012209991
107	0xbd3e0245	-0.046388883
108	0xbcf6ae95	-0.030112544
109	0x3cc68318	0.024232432
110	0xbc8cf36a	-0.017205913
111	0x3d0d293e	0.03446316
112	0x3cc1e664	0.02366943
113	0xbbd3d02e	-0.006464026
114	0xbd148348	-0.036258012
115	0xbd13b981	-0.036065582
116	0xbcc73aa8	-0.024319962
117	0x3b8ced6b	0.0043007634
118	0xbca482f8	-0.020081982
119	0xbd382ec2	-0.044966467
120	0xbd07a022	-0.0331117
121	0x3b0292b4	0.0019923868
122	0xbd2bdad0	-0.041956723
123	0xbd5852c5	-0.05281331
124	0x3cfa859c	0.030581288
125	0xbb982c58	-0.004643958
126	0xbc116081	-0.008873106
127	0xbbe2e5df	-0.0069243754
128	0xbd1ba43a	-0.037998416
129	0x3cb7171f	0.022349892
130	0xbc831695	-0.016001979
131	0xbd1d0b09	-0.038340602
132	0xbc3b1749	-0.011419126
133	0x3d028dfd	0.03187369
134	0x3d68cdc6	0.056836866
135	0x3cedac60	0.029012859
136	0xbcd13a25	-0.02554042
137	0xbb96d34b	-0.004602825
138	0x3ca98fb5	0.020698408
139	0x3c482c9c	0.012217667
140	0xbc21ec54	-0.009883005
141	0x3c63fb9c	0.013914969
142	0xbcc2ee0e	-0.023795154
143	0xbd28bdd8	-0.041196674
144	0xbb26f82c	-0.0025477512
145	0xbd17cb73	-0.03705926
146	0xbd292717	-0.041297045
147	0xbbb1f35f	-0.0054306234
148	0x3d4e2359	0.05032668
149	0xbd37c167	-0.044862177
150	0x3cd91376	0.026498538
151	0x3c07bc60	0.008284658
152	0xbcbd13bc	-0.0230807
153	0xbc55d659	-0.013051593
154	0x3c9e3063	0.019310182
155	0x3d30d931	0.04317588
156	0x3d5e3dcc	0.054258153
157	0xbbbe942c	-0.0058160033
158	0x3d46a601	0.048498157
159	0x3d337c53	0.043819737
160	0x3d189c23	0.03725828
161	0xbd552619	-0.052038286
162	0x3d2f1e42	0.042753465
163	0xbb8b45b0	-0.0042502508
164	0x3c99608b	0.018722793
165	0xbd691d14	-0.056912497
166	0xbb7a55b2	-0.003819805
167	0x3c8e706c	0.017387591
168	0x3d303f9e	0.04302942
169	0x3d5ebb47	0.05437782
170	0x3ced534f	0.028970389
171	0xbb856d64	-0.0040718783
172	0xbcf34240	-0.029694676
173	0x3d5966b2	0.053076454
174	0xbcff4a56	-0.031163376
175	0x3be86b2e	0.007092855
176	0xbcb14b7d	-0.02164244
177	0xbd461b01	-0.048365597
178	0x3d09f4d2	0.033680744
179	0x3cfdc560	0.030977905
180	0x3d27a0ef	0.040924963
181	0x3c25ab9f	0.010111718
182	0x3cf0202e	0.02931222
183	0x3d022716	0.031775557
184	0x3d2bf6b9	0.04198334
185	0x3c3590e3	0.011081907
186	0x3d1a8cdd	0.037731994
187	0x3c928595	0.017885963
188	0x3d1f7c5c	0.038936958
189	0xbc565308	-0.01308132
190	0xbd55a31a	-0.0521575
191	0xbce62f17	-0.028098626
192	0xbd6f8aaa	-0.05848185
193	0x3d15be4e	0.03655844
194	0xbc93f39c	-0.018060498
195	0xbce9f6c1	-0.028560044
196	0x3c17c82d	0.009264034
197	0x3d1cf190	0.03831631
198	0x3c9ac792	0.01889399
199	0xbce64ee2	-0.028113786
200	0xba56e7e6	-0.00081980077
201	0xbc924396	-0.017854493
202	0x3d0442b4	0.032290176
203	0xbc254fb1	-0.010089801
204	0xbd0e4246	-0.034731172
205	0xbd461976	-0.048364125
206	0xbd020377	-0.031741586
207	0xbb553dfa	-0.0032538162
208	0x3c6eccaa	0.014575163
209	0x3d3d62cc	0.0462368
210	0xbd3381d0	-0.04382497
211	0x3cc046e2	0.0234713
212	0xbd180e8d	-0.03712325
213	0xbcc69d7d	-0.024245018
214	0xbd112439	-0.035434935
215	0xbd1e2665	-0.038610835
216	0xbd1ffede	-0.03906142
217	0xbcf0cfb8	-0.029395923
218	0xbce3df1e	-0.027816352
219	0x3c6cb03d	0.014446315
220	0xbcb3d47c	-0.021951906
221	0xbccfe7a1	-0.025379004
222	0xbc591b16	-0.013251087
223	0x3d3d4a41	0.046213392
224	0xbd2d9f85	-0.042388458
225	0x3ce91c34	0.028455831
226	0xbc89ad4e	-0.01680627
227	0xbd304848	-0.043037683
228	0x3b7aaa73	0.0038248568
229	0xbd2da407	-0.042392757
230	0x3cda4778	0.026645407
231	0xbd045b9b	-0.032313924
232	0x3ce50ca8	0.027960137
233	0xbcae1751	-0.021251353
234	0x3cb80cb2	0.022466991
235	0x3d5d0857	0.05396303
236	0xbd1fc463	-0.03900565
237	0x3d654557	0.05597433
238	0xbd14185d	-0.036156047
239	0xbc6d8ea7	-0.014499343
240	0x3d6efea4	0.058348313
241	0x3d11e214	0.035615996
242	0xbd2a9838	-0.041649073
243	0x3d28086f	0.041023668
244	0x3cb318b4	0.021862365
245	0xbcd1c892	-0.025608335
246	0x3cae036c	0.021241866
247	0xbce197b2	-0.027538154
248	0x3d60070b	0.054694217
249	0x3c362ae6	0.011118626
250	0xbc49648c	-0.012292039
251	0x3cd2f8be	0.025753375
252	0xbcbcccd1	-0.023046883
253	0x3d63d057	0.05561861
254	0xbc5f288a	-0.013620505
255	0xbd00dfb4	-0.03146334
