lora_crossencoder_no_instruction_21/checkpoint-6224/adapter_model.safetensors (safetensors, 594924 bytes, 25 tensors)

base_model.model.bert.encoder.layer.0.attention.self.query.lora_A.weight f4 [16, 384]
00000000: 2024 50bd 4a84 36bd 52ff dcbb 1588 213d
00000010: a273 313d 27c2 22bd ed06 b33a 367b 51bd
00000020: 79a4 dcbc 0649 fbbc 7f89 95bc 9bc5 043c
00000030: 1907 8dbc 4103 5f3b 56de 413d 01d8 283d
00000040: 9238 1cbd 45fe 2fbd 14c6 a5bc 1568 e7bc
00000050: 3f70 173d 0265 3e3d cd82 1f3d fec4 133d
00000060: 103b 1e3d 04e9 a93c a22a ac3b 66c1 9e3a
00000070: 8b41 42bd 132b fc3c f432 f83c 06e4 06bd
00000080: 9b4a efbb a755 753a c638 e1bc 536d 58bc
00000090: ce4b 8f3c 7d53 cabc 4dce 3c3d e279 20bd
000000a0: 7692 33bb 2e12 b4bb 101e 493d 7cce 333d
000000b0: 0422 f63c 582c fd3b 81d4 963c 8f75 c13c
000000c0: a2a6 d0bc 906c 4b3d a6f9 04bd ca78 623d
000000d0: 7657 313d 00c9 fc3c e162 c2bc dc3f 61bc
000000e0: 61c4 333d 7f62 42bc 22b9 393d 8bc1 473d
000000f0: 6393 e13c b291 f53c fdd5 4dbd 433b 06bd
00000100: 0c53 463d e0d8 8d3c 2fc8 56bd 1ead 38bd
00000110: 4bd5 8d3c ee3f db3c a4ae 353d 0479 1e3d
00000120: de4e 3ebd 0e3a ccbc 3585 ccbb 0b3a 57bd
00000130: abef efbc 250b 133d 6769 9b3c 3961 223d
00000140: e193 23bd d526 33bd 89ac c03c 43f5 3bbd
00000150: 7fe5 f33c b7b5 cabc 70f1 fc3b 1707 12bd
00000160: 67c9 fcbc 4ef2 33bd e3d0 8b3c 8fdc ec3c
00000170: 635c 53bd 8585 463d f505 a03c e761 2ebd
00000180: 7778 7a3c a8ed 18bd 8d72 5bbc b9e5 0f3c
00000190: 98f9 78ba f43c 403c a71e 663c af02 bebc
000001a0: 815f cfbc 8f82 0c3d bc62 273c 08c0 b93b
000001b0: 5883 77bc cf68 343d 518e 85b9 5d9e d7bc
000001c0: d648 473d 1ff9 11bc 7c2e 9cbc fd95 44bc
000001d0: 68e3 3a3d eb3b 32bd 31da 5dbd 36f9 b43b
000001e0: b535 02bd 05dc b1bb 482f 0d3c 1717 26bd
000001f0: bbcf 91bc ffd8 b0bc 4b9e c239 b431 4ebc
00000200: 7ea8 093d 9d65 2a3d 3381 83bc 2b6a 41bc
00000210: 6beb 04bd 5703 353d 364a 113d 6ba8 f7bb
00000220: 6115 0e3d adc1 ddbc 71bf df3c 7b5b f83b
00000230: caf8 143d d900 20bd 036b 423d 628a 02bc
00000240: 6ed7 1f3d 3261 38bd b725 673b 608e 0d3d
00000250: 0080 02bd dcc3 403d 637e 33bd aad8 8bbb
00000260: 5dda 673b 4ccd 4b3c 390b 3cbc 0980 3a3d
00000270: bfef ee3c a482 3c3d d7be 903b 76d2 30bd
00000280: bbd5 fcbc 494d 253d 1d47 053d f802 a23c
00000290: dba2 1ebd f05b 1cbd 732c 4bbd b8e8 af39
000002a0: e783 50bd 224a 413d 789f 9b3c 01d9 f63c
000002b0: 1cf6 14bc 4658 2d3d 0a3d 06bd ed70 9e3c
000002c0: 6d88 2bbd 2d66 3f3d 74f4 e43b 24ce 35bc
000002d0: c2c9 c6bb f6df fabc 714c 13bc 53ce da3c
000002e0: 7b88 0e3c 73d3 af3c a284 b4bc e5e1 d1bc
000002f0: aba2 653b c395 acbc 9360 fabc ac77 eebc
00000300: 1f82 ae3c 651b 903c 5bf6 49bd 6a60 e33b
00000310: 9795 9c3c 3a5d 213d 7014 013d dcb3 0e3c
00000320: 0259 a13c 8d7f 2637 629f bbbc 534a 0a3d
00000330: 8217 f5bb 0456 893c 93bd ae3c 01ff d9bc
00000340: d39a 133d 11b6 47bc 4c58 013b 0691 ec3b
00000350: 5e15 153d 9c24 0f3d e31a fa3c bc67 e63c
00000360: 26c1 05bd 710d 23bd 1554 e9bc 2483 2cbc
00000370: 5f4a 08bd 4d2a 123c 896d 4abd 1b4b 393d
00000380: 00ab 723c 038d 45bd 2362 d8bc 90e4 313d
00000390: 4f6a b43c 7817 223d 9508 383d 7acc 353d
000003a0: 5d8e d23c 693b 32bd 8bcc 083d 2b7b ea3c
000003b0: 0e5f 86bc ee14 223b 5373 8a3c 52ac 003d
000003c0: 25d0 f0bc bae1 eb3c 69ae 953c 3ed3 17bc
000003d0: 2391 a83c cfc3 ca3a cd48 113d 791f 013d
000003e0: b5cd e8bc 2cf4 18bd 87bf 2dbb 4a00 03bc
000003f0: 2ec9 b93c fcb2 a63c 6964 923b a0d9 aebc
-0.0508157 -0.044559754 -0.0067443037 0.03943642 0.043323167 -0.03973594 0.001365868 -0.051142894
-0.026933895 -0.030674469 -0.01825404 0.008103753 -0.017215298 0.003402904 0.047331177 0.041221622
-0.038139887 -0.0429671 -0.020236053 -0.028247872 0.03697228 0.046483047 0.0389431 0.03607654
0.038630545 0.020740993 0.0052541057 0.0012112081 -0.047425788 0.030782258 0.030297734 -0.032932304
-0.007302595 0.00093587715 -0.027492892 -0.013209659 0.017492201 -0.024698013 0.04609518 -0.039178737
-0.002740053 -0.0054953313 0.049100935 0.04389809 0.030045517 0.0077262335 0.018411877 0.023615627
-0.025470082 0.04966408 -0.032464646 0.055290975 0.0432963 0.030857563 -0.02372879 -0.013748135
0.043888453 -0.011864304 0.045342572 0.04876856 0.0275361 0.0299767 -0.050252903 -0.03277136
0.048419043 0.017315328 -0.052437004 -0.045086972 0.01731362 0.026763882 0.044356003 0.03868963
-0.046461932 -0.024930026 -0.0062414655 -0.05254559 -0.029289087 0.0358993 0.018971158 0.0396435
-0.03993595 -0.043738205 0.023519771 -0.045888197 0.029772518 -0.024744852 0.0077192113 -0.035651293
-0.030857755 -0.04393225 0.017067378 0.028913764 -0.05160178 0.048467178 0.01953409 -0.042573836
0.01528751 -0.03733602 -0.01339401 0.0087827975 -0.00094976416 0.011733282 0.014045394 -0.023194639
-0.025314094 0.034304198 0.010216411 0.005668644 -0.015106998 0.044045266 -0.0002547377 -0.02632063
0.048653446 -0.008909493 -0.019065134 -0.011998651 0.045627028 -0.043514173 -0.05416316 0.0055228723
-0.0317895 -0.0054278397 0.00861723 -0.040549364 -0.017799249 -0.021587847 0.000371205 -0.012585092
0.033607952 0.041600812 -0.016052818 -0.011805098 -0.032451075 0.04419264 0.035471164 -0.007557919
0.034688357 -0.02706989 0.027312966 0.0075792647 0.036370076 -0.03906331 0.047465336 -0.007967563
0.03902381 -0.045014568 0.0035270283 0.034559608 -0.03186035 0.047061786 -0.043821704 -0.0042677717
0.0035377957 0.012439083 -0.011477285 0.04553226 0.029167054 0.046023026 0.004417281 -0.04316946
-0.030863633 0.040356908 0.032538522 0.019776806 -0.03872953 -0.038173616 -0.049602937 0.0003355199
-0.050907042 0.04718984 0.018996939 0.030132772 -0.00909188 0.042320512 -0.032773055 0.019340957
-0.041878153 0.0467283 0.006987149 -0.011096511 -0.006066532 -0.030624371 -0.008990393 0.026709711
0.008699532 0.021463132 -0.0220359 -0.02562041 0.0035039585 -0.021067506 -0.030563628 -0.029109798
0.021302281 0.017591188 -0.04930721 0.0069389837 0.019114299 0.03939555 0.03151363 0.008709874
0.019695763 9.924069e-06 -0.022903148 0.033762287 -0.007479609 0.016764648 0.02133063 -0.026610853
0.036036324 -0.012189404 0.0019736467 0.0072194366 0.03639733 0.034947023 0.030530399 0.028125636
-0.032654904 -0.03980774 -0.028482476 -0.010529313 -0.03327405 0.008921218 -0.049420867 0.04523764
0.014811277 -0.048230182 -0.026413983 0.043430865 0.022023348 0.039573163 0.04493006 0.044384457
0.02570265 -0.04351369 0.033398192 0.028623184 -0.016402747 0.0024731713 0.016900694 0.031414337
-0.029396126 0.028794158 0.018271642 -0.009266673 0.02057702 0.0015469732 0.03546982 0.031524155
-0.028418401 -0.037342235 -0.0026511864 -0.007995674 0.022678938 0.020349018 0.004467536 -0.021344006

base_model.model.bert.encoder.layer.0.attention.self.query.lora_B.weight f4 [384, 16]
00000000: 446d 99bb 4ecb fd3a dee6 673b 5237 2139
00000010: 8dc0 76bb 347e 743a 9356 823b 0bec 9d3b
00000020: 4b08 b0bb fa22 5a3b 3056 c83a 306d 043b
00000030: 7fa0 a83b ad17 903b 18b8 af3a 9e2b 9d3b
00000040: 9804 02bb 8e26 833a 5f64 a73a d81b 34bb
00000050: 93b7 c8ba 1a0f df3a 9e82 213b c227 253b
00000060: 1e79 08bb fc32 ca3a e25f d3b8 72d5 0b3b
00000070: 37dd 043b ef09 f43a 41ad 523b d51e 093b
00000080: 0ebe 593b 8c55 d9b9 367b bcb9 8171 653b
00000090: 7cab bb3a 1343 3cbb faef 54bb 22d1 78bb
000000a0: fadd 813b a68f fb39 f46d 27bb 0977 86bb
000000b0: 489c 42bb a95e 57bb e6d2 55bb 2adf 59bb
000000c0: 797e 653b b7a4 91ba c78e 05bb f80b 6139
000000d0: c075 543b 89b3 e7b9 e2e6 84bb a562 72bb
000000e0: 39e9 1a3b ceb8 7ebb b45d 0d3b b9d1 0c3b
000000f0: 47af 21bb 6e99 4fba b6df 9639 0ae6 7abb
00000100: 53e9 e43a 9c75 273b 8ee6 383b 0b6d 343b
00000110: 09b8 d13a a096 5bbb fc79 eaba e5a6 caba
00000120: 69d9 0f3b 2f86 483b 9ebd 77bb 8462 2fbb
00000130: 4153 e239 2dd5 01bb 6d87 21bb 1a5b 89ba
00000140: 9b52 1fbb e6d4 cb3a 2995 eb3a 3ff2 6cba
00000150: b26e 0abb 22f7 083a 1d1e 463b 70e7 533b
00000160: 4ee9 20bb 3049 4a3b 1967 8bb9 dad8 a23a
00000170: 39d7 1b3b a879 2d3b e5e6 b73a 3066 3d3b
00000180: 0cc6 faba db42 5839 0d66 fa39 7afb f2ba
00000190: 21fe 8538 c70c d03a 6b9f 593b a5bf 303b
000001a0: 7a57 09bb 1fe2 3f3a 632a 4a3a d605 213b
000001b0: 773b c33a 4be5 003b d517 cc3a 249b 263b
000001c0: 73fd ecba c953 113b 67d7 e13a cb60 363b
000001d0: 11e6 22ba c188 bdba 3223 043b 6483 af3a
000001e0: 2533 53ba 0764 f338 7c23 353a e4d5 ffb9
000001f0: b769 453b b8ce 043a 7dcf 66ba 6d32 3d3b
00000200: a23b 2a3b 1163 0ebb 9716 30bb 8085 4eba
00000210: 0ce3 1e3b 0a33 483a 9686 24bb 592a 2fbb
00000220: 035c 423b 0a28 1ebb aac8 ea39 bd8f a8b9
00000230: d04f 3ebb bc37 e3ba 2d6a 8bba b8fb 1ebb
00000240: a8cc 75bb 9a46 163b b506 273b 0f86 843a
00000250: 9e5b 4abb fbb3 8338 9b24 533b 9fd2 7a3b
00000260: 509b 67bb c2b0 933a de2a 7cb8 9204 cb3a
00000270: ea1d 953b b51b 473b cca6 5d3a 59e4 8b3b
00000280: 7bcd 5a3b 9291 2c39 dc3a 1fba 54b1 3e3b
00000290: 79f6 513b 9fc3 2cbb a370 81bb 645a 78bb
000002a0: fc63 803b 6ce6 08bb c11a 38ba f901 41bb
000002b0: eeef 50bb 0c98 57bb 49a3 5cbb 9e0d 63bb
000002c0: 93aa 043b cdef 4f3a 3faa 823a 2abd 363b
000002d0: 5989 ea3a 1ec0 3ebb 9c39 17bb fc5b 28bb
000002e0: a77b 203b 028e 123a e980 02bb d0bb 27bb
000002f0: d89d feba 3941 40bb d0d9 39bb 014b 1ebb
00000300: 3cd9 8abb 73bf 1d3b 49c9 393b 99ae 2a3b
00000310: ef82 23bb 6f2e 0bbb 6965 803b f02b 8c3b
00000320: 0f3d 92bb 98eb 3e3b acc0 1c3a 33f5 c03a
00000330: e9dd 933b b174 b13a a93e d9ba d22a 8a3b
00000340: 618c 11bb fb0a 6d3a 48c6 f539 4018 36bb
00000350: d4a2 cbba 901b b53a 4e11 3a3b 493b 393b
00000360: a5cd 38bb d745 08b9 0cce 6ab8 eaac 643b
00000370: 8def 0f3b 18d4 2b3b 1d60 2b3b 2f47 2b3b
00000380: c0cf bfba 28a2 603b 81ee 493b da61 d53a
00000390: d432 d2ba 5a31 f7ba 9ee1 f83a 593a 033b
000003a0: 91b0 d1ba 7d99 353b 6dd2 d9ba bf5e 38b9
000003b0: 8e33 213b a38f 813a 0ba2 82b9 1b56 f23a
000003c0: 961d 40b9 10b2 003b 1b9c 973a 5bbd 1a39
000003d0: 71c4 053b 0927 edba 2474 b13a 8a87 7c3a
000003e0: f1e6 6fb9 667e c739 448e 88ba 9e99 1e3a
000003f0: 0161 d739 b68d 9239 a070 b539 5c85 be39
-0.004682215 0.0019362958 0.003538541 0.00015374765 -0.003765139 0.0009326667 0.0039776056 0.0048193983
-0.0053720823 0.0033285008 0.0015284475 0.0020206682 0.0051460858 0.0043973536 0.0013406305 0.0047964593
-0.0019839164 0.0010005997 0.0012771002 -0.0027482416 -0.0015313498 0.001701805 0.0024644504 0.00252007
-0.0020824145 0.0015426571 -0.000100791236 0.002133694 0.0020273456 0.0018618683 0.0032146724 0.0020922918
0.0033224854 -0.00041453203 -0.00035949954 0.003501028 0.0014318074 -0.0028726503 -0.003249167 -0.003796645
0.0039632292 0.00047981477 -0.0025547715 -0.0041035456 -0.0029695202 -0.0032862818 -0.0032626926 -0.0033244588
0.003501801 -0.0011111711 -0.0020379291 0.00021462131 0.0032418817 -0.00044193518 -0.0040558437 -0.0036985066
0.0023637547 -0.0038867476 0.0021570744 0.002148731 -0.0024671124 -0.0007919286 0.00028776907 -0.0038284087
0.0017464556 0.0025552278 0.0028213593 0.0027530815 0.0016000281 -0.0033506528 -0.0017889137 -0.0015461115
0.0021949655 0.0030597558 -0.003780223 -0.00267616 0.00043168108 -0.00198109 -0.002464737 -0.0010479421
-0.0024310711 0.001555112 0.001797353 -0.0009038783 -0.0021123108 0.0005224814 0.0030230351 0.0032333992
-0.0024553123 0.0030866377 -0.0002658896 0.0012424246 0.0023779406 0.0026470218 0.0014030604 0.002890002
-0.0019132509 0.00020624271 0.0004775975 -0.0018538081 6.3892694e-05 0.0015872949 0.0033206593 0.0026969698
-0.002095668 0.00073197664 0.00077120046 0.002457013 0.0014895041 0.001966792 0.0015571067 0.002542206
-0.0018080905 0.0022175184 0.0017230333 0.002782869 -0.0006214092 -0.0014460312 0.002016258 0.0013390598
-0.00080566324 0.000116057745 0.00069098896 -0.0004879675 0.0030122825 0.0005066204 -0.0008804722 0.0028869167
0.0025975485 -0.0021726529 -0.0026868933 -0.00078781694 0.0024244217 0.0007637 -0.0025104634 -0.0026728122
0.0029656894 -0.0024132752 0.00044781464 -0.0003215055 -0.0029039271 -0.0017335336 -0.0010636501 -0.0024258923
-0.0037506018 0.0022930265 0.0025486175 0.0010110753 -0.0030877362 6.280091e-05 0.0032217863 0.0038272513
-0.0035340376 0.0011267888 -6.0121405e-05 0.0015489033 0.004550685 0.0030381505 0.00084553356 0.0042691645
0.0033386636 0.00016457427 -0.00060741394 0.0029097395 0.0032037778 -0.0026361716 -0.003950195 -0.0037895674
0.003918169 -0.0020889295 -0.00070230296 -0.0029450639 -0.003188129 -0.0032897023 -0.0033666661 -0.0034645568
0.0020243272 0.00079321564 0.000996895 0.0027883747 0.0017893716 -0.002910621 -0.002307511 -0.0025689593
0.0024487765 0.0005590619 -0.0019913262 -0.0025594123 -0.0019425703 -0.002933575 -0.0028358586 -0.0024153593
-0.004237322 0.0024070411 0.0028348735 0.002604401 -0.0024949869 -0.0021237393 0.003918339 0.0042776987
-0.004462845 0.0029132124 0.0005979638 0.0014721513 0.0045125377 0.0013538805 -0.001657446 0.0042165304
-0.0022208916 0.0009042469 0.00046877773 -0.002778545 -0.0015536197 0.0013817418 0.0028391662 0.0028264096
-0.0028198746 -0.00012995988 -5.5981844e-05 0.0034893104 0.0021962852 0.0026218947 0.0026149817 0.0026134958
-0.0014634058 0.003427634 0.0030812325 0.0016279772 -0.0016036876 -0.0018859312 0.0018988138 0.0020023792
-0.0015998055 0.0027709894 -0.0016618498 -0.00017582903 0.002459738 0.0009884726 -0.00024916264 0.0018488796
-0.00018321568 0.0019637384 0.0011566909 0.00014757125 0.0020411278 -0.0018093298 0.0013538641 0.0009633234
-0.00022878849 0.00038050412 -0.0010418375 0.00060501124 0.0004108027 0.00027952873 0.00034606922 0.00036338985

base_model.model.bert.encoder.layer.0.attention.self.value.lora_A.weight f4 [16, 384]
00000000: 8d01 09bd 7419 31bc a98a fc3c 5641 81bc
00000010: 781b a73b 1f24 3a3c a4a8 2cbd ad63 c0bc
00000020: a0cb b0ba 81de 8637 6d3e 70bd 97fe 733c
00000030: 8938 903c 2c5b 85bc 9eb7 963c d65e f1bc
00000040: eb23 293d 5e04 74bc 789c 223d b6a0 e53c
00000050: 1686 eebc 4d66 e3bb f705 d4bc 982f 2bbd
00000060: 8a49 aa3a 6cd2 36bc d630 a93c e49a 85bb
00000070: c952 b6bc dfe7 6f3d de81 0e3d 289c d63c
00000080: 175c dbbb 6620 663d 34ed 51bd d4b0 8f3b
00000090: 1705 2e3b 3bec be3c bd44 e5bc 2125 43bd
000000a0: c3a6 63bd aa8e 73bc 3f9e b1bc 5d69 11bd
000000b0: 73c2 46bd cc2e 31bd 7b92 d6bc f051 523d
000000c0: 4d23 0abd d849 16bd 69cf d3bb c272 5b3d
000000d0: e6cb 6dbd badf 1e3d 593f ebbc 904f cb3c
000000e0: 41b8 343d db48 1abd 32a4 52bc 9304 383d
000000f0: 6d90 cf3c aad5 673c 9204 8a3c 087d 4a3d
00000100: 2b9c 23bd 499d 053d acf2 f93c 0d87 673b
00000110: 71f9 1d3d 6e05 f7bc 1da4 f9bc 3361 91bc
00000120: a4ba 55bd a257 22bd 34c7 863c 8c0e d33c
00000130: cb82 c63c 6444 02bd 2473 73bb a9e7 813c
00000140: feb4 08bd 11be 47bc fd6e 2f3c e97b ab3c
00000150: 2323 1d3d a97d 5e3c 447b 533d 673c 3f3d
00000160: ddd9 8bb8 3ab0 ae3c 3a53 e2ba 712c 0bbc
00000170: 606c 6bbd f685 b43c 2f00 0c3d 0ae4 933c
00000180: 095b 343d 159f 3b3d 0b06 413d 5abe 2b3c
00000190: 6913 953c f6bf 1dbc 7582 80bb d8ff 02bd
000001a0: 0fc7 103d e78a 5c3d b716 f43c cd0a dcbc
000001b0: 720c 233d 0134 f0bc f9b9 293d 1425 eb3b
000001c0: b92b 46bd a115 26bd da22 f63c bdf9 603b
000001d0: eec3 45bd 5f52 bb3c 5fac 30bd 3461 03bd
000001e0: d959 87bb f7c9 c63c 8058 6d3b 2a5f e7ba
000001f0: aca0 f33c 1d62 ec3c 8c1f 5ebc 2498 213d
00000200: 9cb9 42bc 5a5a 1f3c d298 de3c 297e c2bc
00000210: 5ec4 1ebd a1b6 6dbc 5514 c6bc e921 203d
00000220: ce46 0c3d fdae 89bc c69d 373d 8c25 ccbc
00000230: e0aa 2a3d ef7e a1bc 8ae1 40bd 4f31 9d3c
00000240: 7880 b03c 4ae6 2a3d 6c0c 0fbc 15a5 e83c
00000250: 6a60 f03c 0d13 2fbc 5952 1ebd aacd 173d
00000260: c375 0abd 46d8 e3bb 9741 633c 45d6 77bc
00000270: 5d6b 6b3c 64f9 3c39 725b 6e3d 4e04 adbc
00000280: 35af 9f3c 3584 383b 8cd9 143c 2523 803c
00000290: 7329 59bd fd6c 9fbc cea1 40bc 5aa5 883c
000002a0: 36fb ecbb c6a1 523d 8f6c 5bbd 9801 163d
000002b0: 7d92 28bd d486 293d b09a 3abd 8159 d93c
000002c0: ecb7 22bd 5fa8 1d3d 0dfe 713c 69fc 5bbd
000002d0: 07c3 9dbc e646 01bc 5dbb 82bc af37 57bb
000002e0: 6773 4c3c 46c9 1fbc 6905 133c 5e6c b73c
000002f0: f7d4 fdbb 549c 413d aa22 b6bc 5157 153d
00000300: c3cb 0dbd 7faa f3bc 2edb 26bd 7c23 8f3c
00000310: e784 2d3d 38a9 e1bc 7d4a 193d 7bc4 b53c
00000320: e922 0e3d ca7a 7dbb 906c a6bc 3e42 113d
00000330: e395 833b 3369 2d3b cbe9 84bc 4e29 bcbb
00000340: 870e 27bc 7d21 153d e569 65bc 00ea fc3c
00000350: ef07 49bd 304a 3cbd 3dfe df3b 07d5 ba3c
00000360: 4b1f 293c ed57 23bd cfa0 2bbd 73e6 d8bc
00000370: b7b7 5a3d e30d 81bc 952d f5bc 5ad9 153d
00000380: f48c 223d 3757 0b3d 9578 18bd c151 6abd
00000390: 54c2 843c c2aa 08bd 23bc 403d 8d9f 423d
000003a0: e785 15bd 1e99 a33c 3145 853c ea46 453d
000003b0: 1169 303d 1b87 9b3c 0d27 cfbc b002 fdbc
000003c0: 46f1 c9bc 552b 8f3c 4e66 a8bc 6abc 23bd
000003d0: c408 2f3d 40a3 90bb 9258 eb3c 7da1 c5bc
000003e0: 0a7e 9dba 1aaa 073d 7ff9 393b f37c 9cbc
000003f0: 8ff8 2bbd d2b1 903c 1b79 623c 92f9 063d
-0.033448745 -0.010809291 0.030827837 -0.015778225 0.00509971 0.011361151 -0.042153016 -0.02348503
-0.0013488419 1.6077656e-05 -0.058653284 0.014892242 0.017605083 -0.016278826 0.018398102 -0.029464167
0.04129402 -0.014893619 0.0397 0.028030735 -0.029116672 -0.0069396854 -0.02588175 -0.041793436
0.0012991887 -0.011158567 0.02065317 -0.0040773023 -0.022256272 0.05857074 0.03479182 0.026197508
-0.0066943276 0.05618324 -0.051251605 0.004385093 0.0026553327 0.023306003 -0.027986879 -0.04764283
-0.05557896 -0.014865557 -0.021681903 -0.035500873 -0.048525285 -0.04325752 -0.026192894 0.051347673
-0.03372507 -0.036691517 -0.006463934 0.05357624 -0.05805578 0.03878758 -0.02871673 0.024818212
0.04412103 -0.037667137 -0.01285653 0.044926237 0.025337422 0.014150063 0.016847882 0.049435645
-0.039943855 0.032620702 0.030511223 0.00353283 0.038567964 -0.030153956 -0.030473763 -0.017746544
-0.052179947 -0.039634354 0.01645241 0.025763772 0.024232289 -0.031803504 -0.0037147487 0.015857534
-0.033375733 -0.012191311 0.010707614 0.020933108 0.038363587 0.013579764 0.051631227 0.046688464
-6.668617e-05 0.021324266 -0.0017267235 -0.008494482 -0.0574764 0.022036534 0.034179863 0.018053073
0.04403213 0.04580601 0.047124904 0.010482395 0.018197732 -0.009628287 -0.0039218017 -0.031982273
0.035346087 0.053843405 0.029795988 -0.026860619 0.03980679 -0.029321672 0.041437123 0.007176051
-0.04838154 -0.04054797 0.030045915 0.0034328543 -0.048282556 0.022866426 -0.043133136 -0.032075122
-0.0041305837 0.024266226 0.003621608 -0.0017652262 0.0297397 0.028855378 -0.013557326 0.039451733
-0.011885073 0.009726131 0.02717248 -0.023741798 -0.03876149 -0.014508874 -0.024179617 0.03909484
0.034247212 -0.016807074 0.0448282 -0.024920247 0.041666865 -0.019713847 -0.04709009 0.019188551
0.021545634 0.041723527 -0.008730989 0.02839903 0.029342849 -0.010685694 -0.03865275 0.03706137
-0.033803713 -0.006953272 0.013870618 -0.015126769 0.014368859 0.00018021982 0.058192678 -0.021120217
0.019492725 0.0028154973 0.00908507 0.015641758 -0.053018045 -0.01946115 -0.011757327 0.016680408
-0.007232095 0.05142381 -0.053570326 0.036622614 -0.041155327 0.041388348 -0.045557678 0.026531937
-0.039726183 0.03849065 0.014770043 -0.053707514 -0.019258035 -0.007890439 -0.015958482 -0.0032839586
0.012478686 -0.009752577 0.008973458 0.02239054 -0.0077463347 0.047268227 -0.022233326 0.036460225
-0.03461815 -0.029744385 -0.04073637 0.017472975 0.042363074 -0.02754651 0.037424553 0.022188416
0.03470126 -0.0038677924 -0.020315439 0.035463564 0.0040156706 0.0026460409 -0.016224762 -0.0057422286
-0.010196335 0.03640889 -0.014002298 0.030873299 -0.04907983 -0.04596919 0.0068357275 0.022806657
0.010322402 -0.039878774 -0.041901406 -0.026477074 0.05339786 -0.015753692 -0.029928962 0.036584236
0.039685205 0.03401872 -0.03722437 -0.057206873 0.016205944 -0.033365972 0.04705442 0.04751544
-0.036504652 0.019970473 0.016268345 0.048163332 0.04306895 0.018985322 -0.025287176 -0.03088507
-0.024651181 0.017476717 -0.020556595 -0.039974608 0.04273297 -0.004413992 0.028728757 -0.024124855
-0.0012015712 0.033121206 0.002837747 -0.01910255 -0.04198509 0.017662916 0.013822819 0.032952853

base_model.model.bert.encoder.layer.0.attention.self.value.lora_B.weight f4 [384, 16]
00000000: dcd4 8c3b 86cd 25bb 7fd9 78bb 509d 9eba
00000010: 87c2 1f3b 95ed a5bb db13 a8bb 0ce1 aabb
00000020: 5680 79bb 60c0 84bb cf31 95bb 558a 9abb
00000030: be6d 50bb 5777 923b 6ad3 6c3b 55e1 013b
00000040: cd98 0a3b dc69 8fbb 448e 9abb 9aab 7ebb
00000050: 2538 8b3b 3cff 28bb e343 53bb e065 99bb
00000060: 53df 9dbb b7e2 27bb a500 4dbb 973e 99bb
00000070: 37ee 96bb bd1b a53b 9d2d 9a3b d5e6 773b
00000080: 4e99 d7ba b3d6 07bb bb69 1ab9 2b4f ddba
00000090: cfaf 1b3b 91f5 cb3a cb52 c43a 8df5 c13a
000000a0: 352d 923a dc21 d03a 43cc af3a f1c0 cf3a
000000b0: ac71 41bb ddf0 03bb 64d0 3a3b 7e9a e23a
000000c0: f76a d13b aa43 71bb 8f3d a7bb 355d feba
000000d0: 1ce1 713b fc85 d8bb 57c0 d5bb 995c c7bb
000000e0: 82b7 b3bb 169a c7bb 3bc2 d4bb 9690 c2bb
000000f0: da90 89bb 8d0e ad3b 6982 733b 1360 1e3b
00000100: f760 88bb db56 adb9 4b90 8439 5577 28ba
00000110: 6748 1138 fad4 433b d3b8 043b db62 b339
00000120: 029f b839 8383 8e3b e771 6e3a 8ae8 9639
00000130: e725 c938 af75 a9b9 3ab2 3d39 c7c8 153a
00000140: f70a 9b3a 682f ccba 5943 91ba 5893 36bb
00000150: 21e4 9a3a cfa5 79ba fde4 7dba de5d c4ba
00000160: 7da6 46ba 1d09 88ba 6928 2eba 0112 baba
00000170: f695 a8ba d850 c33a 6ae5 f53a 3064 1b3b
00000180: 048d c0bb ac01 ab3b a9bc b93b cb4d 903b
00000190: 58e8 97bb d86e ee3b acd9 e33b 19e4 ee3b
000001a0: 40eb bb3b 2bb2 b13b e0ac df3b dc07 e23b
000001b0: 57c4 a83b c2f2 cabb b725 b3bb 4ffa 95bb
000001c0: 317e 9b3a fcfa aa3a bee6 48ba 1c51 883a
000001d0: 5ee0 8fba 3e51 a8b9 2b43 48ba e3a4 27ba
000001e0: f34b bbb9 1a5e 26ba bec8 a8b9 1f3b e9b9
000001f0: 37aa 913a f587 be3a caad f436 8437 0dba
00000200: 9481 95ba e0cc 933b 98bd 083b d61d a03b
00000210: e7e1 98bb 3f10 933a 2453 963a 8a43 f03a
00000220: 6896 183b 59f9 983a 8fb6 973a 2b4b f93a
00000230: f84e a03b 775e f0ba 32e3 adbb 0dc4 a4bb
00000240: d351 8dba 5258 913a 6fd1 8a3a 4c68 8e3a
00000250: 35e4 cfba a59f 313a 5d18 383a a96f 273a
00000260: 30d6 b43a d5d5 2e3a af0d 883a 1838 523a
00000270: eaf0 a23a 1f31 b5ba 264e 05ba 197a 6cba
00000280: aa9b 323b c54a 8f3a 9316 963a 7ff3 9a3a
00000290: 1e7d 57ba 88f2 0abb 9a53 15bb f2c5 a5ba
000002a0: 7194 7d3a c9ca 19bb 325c 25bb ccf5 f8ba
000002b0: 1cb5 983a 4440 1aba 523f d1ba e8f4 c3ba
000002c0: caf5 c438 962a 8d3b cc21 763b aed8 a03b
000002d0: 88f4 84bb 80e0 0b3b ce35 273b 32e7 8c3b
000002e0: f88c 823b 03b6 0aba f0cf 2a3b e7e7 873b
000002f0: 7a20 913b 06f1 83bb aa82 a1bb e42a 97bb
00000300: 9a3b a23b 37e2 6ebb f58a 87bb 7f58 65bb
00000310: aa34 7f3b 95cc 91bb 6381 91bb 714f 98bb
00000320: e159 92bb 043c a0bb becc 95bb b612 99bb
00000330: 72b4 8dbb c242 8c3b 3b41 933b fb10 5a3b
00000340: 022f fc3b dc5c babb 893e d8bb 0c0d 06bb
00000350: 718f a03b d8e1 f7bb bb8d f7bb 1752 e6bb
00000360: 76b0 d6bb a9e9 f7bb 9a30 e5bb 841b 01bc
00000370: 2751 99bb 0a2f f03b 180a b03b c3d7 573b
00000380: 5dbf b2bb 26bd ae3a 0b2b 043b 0e9d b0b7
00000390: d378 1cbb 623f 823b e958 9a3b 52d4 7c3a
000003a0: b478 643b 0107 b03b 9a03 8c3b 52ac f63a
000003b0: 2af8 1c3a 41f8 0ebb 068d b339 3c60 be39
000003c0: de94 1a3b b2f1 15bb d5fc 30bb 4335 1abb
000003d0: 61b4 eb3a 4bad feba d9fb ffba 301a 34bb
000003e0: 861c 3abb 5cdf 05bb 9cd7 fbba 81a7 32bb
000003f0: 1fea 31bb 7d85 4d3b 2508 653b 1a5e 213b
0.0042978358 -0.0025299503 -0.0037971435 -0.0012101326 0.0024377422 -0.0050637224 -0.00512932 -0.005214816
-0.003807088 -0.004051253 -0.004553057 -0.0047161975 -0.0031803693 0.004469793 0.0036136755 0.0019818146
0.0021148205 -0.004376633 -0.0047166664 -0.0038859607 0.0042486363 -0.0025786897 -0.0032236509 -0.004681334
-0.004817882 -0.002561731 -0.0031280902 -0.0046766507 -0.004606034 0.005038707 0.0047051446 0.0037826796
-0.0016448887 -0.0020727336 -0.00014725972 -0.0016884556 0.0023755913 0.0015560855 0.0014978288 0.0014797911
0.0011152389 0.0015879232 0.0013412315 0.0015850348 -0.0029517217 -0.002013258 0.0028505558 0.0017288474
0.006390925 -0.0036814013 -0.005103774 -0.001940644 0.0036907857 -0.006607769 -0.006523173 -0.0060840365
-0.0054845223 -0.0060913665 -0.0064928806 -0.005937646 -0.004198176 0.0052812756 0.0037156588 0.0024166151
-0.0041619497 -0.00033061844 0.0002528451 -0.0006426473 3.4638124e-05 0.0029881583 0.0020251765 0.00034215194
0.00035213685 0.0043491735 0.0009095952 0.00028783485 9.591487e-05 -0.00032321873 0.00018090839 0.0005713817
0.0011828829 -0.0015578093 -0.0011082693 -0.002785882 0.0011817255 -0.00095233036 -0.0009685306 -0.0014981588
-0.0007577909 -0.0010378693 -0.0006643595 -0.0014196039 -0.0012862075 0.0014901413 0.0018760387 0.002371084
-0.0058761854 0.005218705 0.005668242 0.004403805 -0.004635852 0.007276397 0.0069534387 0.007290375
0.005734831 0.0054228506 0.006826028 0.0068979096 0.0051503587 -0.00619349 -0.0054671424 -0.0045769583
0.001186317 0.001304477 -0.0007663778 0.0010400149 -0.0010976901 -0.00032103987 -0.00076394033 -0.00063951145
-0.00035724006 -0.00063464197 -0.00032193022 -0.00044485272 0.001111335 0.0014536368 7.2919984e-06 -0.00053869956
-0.0011406415 0.004510507 0.002086496 0.004886369 -0.0046656015 0.0011220052 0.001146887 0.0018330675
0.0023283008 0.0011670991 0.0011574792 0.0019019594 0.0048922263 -0.00183387 -0.005306625 -0.005028254
-0.0010781832 0.0011088944 0.001059098 0.0010864823 -0.0015860858 0.0006775803 0.00070226734 0.0006387183
0.0013796743 0.00066694367 0.0010380055 0.0008019223 0.0012431417 -0.0013823843 -0.00050851924 -0.00090208795
0.0027253428 0.0010932317 0.001145082 0.0011821835 -0.0008220243 -0.0021201689 -0.0022785426 -0.0012647493
0.00096733036 -0.0023466817 -0.0025231955 -0.0018994152 0.0011650654 -0.000588421 -0.0015964305 -0.0014950307
9.39179e-05 0.004308055 0.0037556766 0.0049086427 -0.0040574707 0.002134353 0.0025514248 0.0043000216
0.00398409 -0.0005291404 0.0026063882 0.004147518 0.0044289203 -0.004026535 -0.0049289064 -0.0046132673
0.0049509527 -0.0036450753 -0.004136438 -0.0034995375 0.0038941302 -0.004449437 -0.004440473 -0.004648142
-0.004466281 -0.004889967 -0.0045715263 -0.00467142 -0.0043244893 0.004280419 0.00449386 0.0033274281
0.0076960335 -0.005687339 -0.0065992516 -0.0020454554 0.004899912 -0.0075647645 -0.0075547374 -0.007028829
-0.0065517975 -0.0075656963 -0.006994319 -0.007880095 -0.0046788636 0.0073298262 0.005372297 0.0032935
-0.005454941 0.0013331517 0.0020167257 -2.105397e-05 -0.0023875728 0.003974841 0.004710306 0.00096446753
0.0034861984 0.0053719287 0.0042728903 0.0018819666 0.0005987907 -0.0021815451 0.0003424661 0.00036311324
0.0023587267 -0.0022879657 -0.0027006168 -0.0023530282 0.0017982834 -0.0019430307 -0.0019530013 -0.002748143
-0.002839835 -0.0020427322 -0.0019214037 -0.0027260485 -0.0027147604 0.0031360083 0.0034947481 0.002462274

base_model.model.bert.encoder.layer.1.attention.self.query.lora_A.weight f4 [16, 384]
00000000: 3b39 3dbd 268b 1fbd 0ea1 e1bc 6eca 78bb
00000010: 416c ddbc c4b4 b93b a409 3b3d b3bb 43bc
00000020: d24a 6aba 36ad 25b9 e931 1a3d 5e91 f0bc
00000030: 4260 023d 733f 04bd 8c13 87bc b94b 68bc
00000040: f609 84bc 169a 38bd 97e8 3bbc 067e 603c
00000050: 705d 583b 13f3 30bc 6fe2 113d d511 6dbb
00000060: 6533 3ebd febf 44bc 19d5 0fbd 4956 48bc
00000070: e3ae 303c a6db 563c a0c8 9ebc 6288 f5bc
00000080: a98d 21bc 1a32 1abd 46a3 cb3b e794 743c
00000090: d092 2bbd befc e43c f178 e63c 18d2 47bc
000000a0: 39a9 7e3b b900 383d 6b7f 99ba 5c5c 1bbd
000000b0: 5971 33bd e669 09bd 748a 9fb9 0aca 99bb
000000c0: b4a6 ae3c 0426 07bd eb36 043d 0740 023d
000000d0: 83ab 18bd 0c1d 3cbc 0416 503d 94bf 2ebd
000000e0: 37ca 093c 3ba3 2dbc a249 243c 2bef 2ebd
000000f0: 00dc 2b3d 29b1 32bd 245f c13c de91 99bc
00000100: 8802 2f3d 38ce 04bd 37f5 92bc bebe 353b
00000110: 06d6 d4bc 6056 d2bc 30d2 26bb 2da3 453d
00000120: 2e86 cebc 5c8b 2c3d 15a5 2b3c c888 0cbd
00000130: c4f3 d23c 5b43 393d 8371 2c3d 1c8f c4bc
00000140: cb46 c33c fad4 f0bc 6789 19bd d1f3 28bc
00000150: 86ac 463d 9062 c43b 7a18 53bd 732e 0dbd
00000160: a52d c63c 22f1 9d3c b199 0b3d fca8 f13b
00000170: b28c 80bc afe7 54bb a758 abbc 5d44 d33c
00000180: d732 2f3d 85cb ab3c f491 0f3c 330f 053d
00000190: 33d3 e8bc 063f e93c 4641 463d 99a7 1e3d
000001a0: d306 27bd 0b14 2bbd fcf2 3ebc ffcb ad3c
000001b0: d15a dfbc ac28 b13c ea0a 103d b2c1 d83c
000001c0: c491 bfbb 61d4 e8bc 6d96 083d 3ac7 28bd
000001d0: e703 a9bc 0f0a 02bc 5e45 f33c 7331 473d
000001e0: ba4e 9d3b bf78 1e39 0e78 463d e508 d0ba
000001f0: 51ec 3a3c 58ae 0e3d bfdd 503d 2e26 493d
00000200: ac97 29bc 73ac 0b3d 381a aa3b a3a2 72ba
00000210: 6c02 663d f526 153d 34c0 31bd 2a82 03bd
00000220: c088 f83c dda6 0b3d dbac 36bd 9a1c 383d
00000230: 7bda 8a3c 2f7a 333d 1777 d7bc fa6d 193d
00000240: f60c 733c c03c 2abd b9e6 413d db08 003d
00000250: b877 243c 10ba 253d 16af 123d ae05 5d3d
00000260: f1dd bf3c b7e0 1bbd 63a9 0d3d eaba 3aba
00000270: 65fc 08bb fd81 37bd 5015 a7bc ccda 4bbb
00000280: e185 12bd 4b24 1d3d 7308 7dbc 0eb8 4a3d
00000290: d993 d0bc 060e 4f3d 2c3a 8e3c 658f e23c
000002a0: 20a5 86bb 3e15 c0bc 4ff3 0d3d e693 0c3d
000002b0: aae5 123c 10c6 c5bc 99eb 1a3d 8714 a2bc
000002c0: 612c dfbc a055 313d 8fde 2f3c d321 4f3c
000002d0: 8a40 df3c b0f2 dd3c 2ede fc3a 6bb8 0e3c
000002e0: 3992 bfbc c372 dcbc 1778 50bd 39db 34bb
000002f0: 79c1 64ba 1248 d9bb bbe9 04bc 27bb fe3c
00000300: 1b95 9ebb a832 273d efce 073d 36e4 4b3d
00000310: 6d19 cf3c 02df 41bd 2535 b33c 7651 ffbc
00000320: 954d b73c b63b 29bc 917a 913c 9d1d 2b3d
00000330: 3b17 14bd 917c b7bc 5677 3b3d 10d1 383b
00000340: 61dc dbbc 298d 9f3a 0705 563d 56e0 24bc
00000350: 4cdd 2aba 5f22 59bc 7b97 68bb 7f4b 153d
00000360: 8c26 87bc e7d4 7f3b 71a7 313d a495 1ebb
00000370: 783a 193d be3c fe3c b601 fa3c 07c5 f9ba
00000380: 9b27 b73c f983 203c cc17 ff3c 5db7 083d
00000390: 8669 ef3c 3238 f23b 0f7e 2dbd a7c2 393d
000003a0: 4ebc 463d c9c7 40bd 06c2 14bb b3ce a4bc
000003b0: 271d 08bd d83b 093d a50b 413d cec7 3f3b
000003c0: 1ce6 813c e665 92bb 5668 253b 31e4 32bd
000003d0: b309 0a3d b76a 84bc a241 efbb 9c37 013d
000003e0: 721b 0e3c b25c 273d e316 10bd 0474 0d3c
000003f0: 6ad5 a5bc a7e5 50bc a36f 813c a883 30bd
-0.046197157 -0.03895106 -0.027542617 -0.0037962454 -0.027029159 0.005667301 0.04566349 -0.011946606
-0.00089375407 -0.00015800152 0.037645254 -0.029366191 0.03183008 -0.032287072 -0.016488813 -0.01417821
-0.016118031 -0.045068823 -0.011469028 0.013701921 0.0033014677 -0.010800141 0.035616335 -0.0036173959
-0.046435732 -0.012008665 -0.035115335 -0.012227603 0.010783884 0.013113892 -0.019382775 -0.029972259
-0.009860435 -0.037645437 0.006214532 0.014928079 -0.04188806 0.027952548 0.028133841 -0.012196086
0.0038858189 0.044922564 -0.0011710947 -0.037929878 -0.04380927 -0.03354826 -0.0003043 -0.0046932744
0.021319725 -0.03299524 0.032278936 0.031799342 -0.03727294 -0.011481535 0.050802246 -0.042663172
0.008410028 -0.010597999 0.010027321 -0.042708557 0.041957855 -0.043625984 0.023604937 -0.018746313
0.042727023 -0.032423228 -0.017939193 0.00277321 -0.02598096 -0.025675952 -0.0025454871 0.04825132
-0.025210466 0.04212509 0.01047637 -0.034310132 0.025751002 0.04523025 0.04210044 -0.023994021
0.023837468 -0.02939843 -0.037484553 -0.010312037 0.048504375 0.005993195 -0.051537015 -0.034468126
0.024191687 0.01928002 0.03408212 0.007374881 -0.015692089 -0.0032486727 -0.020916296 0.025789434
0.042773094 0.02097107 0.008762825 0.0324852 -0.02842102 0.028472435 0.048402093 0.038734052
-0.040777992 -0.04176716 -0.011654612 0.021215437 -0.027264984 0.02162584 0.03516666 0.026459549
-0.005846234 -0.028421583 0.033346582 -0.041205622 -0.020631744 -0.0079369685 0.029696163 0.048631143
0.0048006447 0.00015113036 0.048454337 -0.0015871791 0.011408881 0.034834236 0.050992724 0.049108677
-0.010351103 0.034100007 0.005191114 -0.0009255802 0.056154653 0.036414105 -0.04339619 -0.032106556
0.030338645 0.03409468 -0.04459844 0.04494915 0.016949883 0.043817695 -0.026301904 0.037458397
0.014834633 -0.041561842 0.047339175 0.031258445 0.010038309 0.040460646 0.035811506 0.053960495
0.02342126 -0.0380561 0.034585368 -0.0007123189 -0.0020902392 -0.0448017 -0.020395905 -0.0031105755
-0.035772208 0.03836469 -0.015443909 0.049491934 -0.025461124 0.050550483 0.017361723 0.027656266
-0.00410904 -0.023447629 0.034655865 0.034320734 0.008965889 -0.024142295 0.03782234 -0.019785179
-0.027242841 0.04329455 0.010734214 0.012642342 0.027252454 0.027093261 0.0019292289 0.008710961
-0.023385154 -0.026910191 -0.050895777 -0.0027596487 -0.00087263394 -0.006630906 -0.008112366 0.0310951
-0.004839552 0.040819794 0.03315633 0.049778186 0.025280679 -0.047331817 0.021875927 -0.031166773
0.022375861 -0.010329178 0.01775864 0.04177629 -0.036154967 -0.022398265 0.045768104 0.0028200783
-0.026838483 0.0012172806 0.05225089 -0.0100632515 -0.0006517961 -0.013252824 -0.003549068 0.03644895
-0.016497873 0.0039036812 0.043372575 -0.002419808 0.037409276 0.031034824 0.030518394 -0.0019055911
0.022357753 0.00979709 0.031139277 0.033377994 0.029225122 0.007391953 -0.042356547 0.04535165
0.048519425 -0.04706553 -0.0022698655 -0.020118093 -0.033230927 0.033504337 0.047130246 0.002926338
0.015856795 -0.0044677136 0.002523919 -0.04367465 0.033700656 -0.016164167 -0.007301525 0.031547174
0.008673536 0.040859886 -0.035178076 0.008633617 -0.020243365 -0.012750066 0.015800303 -0.043094307

base_model.model.bert.encoder.layer.1.attention.self.query.lora_B.weight f4 [384, 16]
00000000: 4302 5ab9 c30e deba 712a 033b 90a0 693b
00000010: 630f fa36 e4ef f6ba 8b37 c63a 3bb2 5fba
00000020: 1242 953a fe52 9eba 2140 d73a ea56 693b
00000030: 9683 163a 683a 87bb 7676 6c39 46a0 a3ba
00000040: bda7 40bb e191 33bb 7aa2 01ba 9abc 173b
00000050: 509d c4ba 72ce 2dbb 7667 1e3a 22e0 31bb
00000060: 3ec6 e0b9 39c8 46ba f8f9 033b 2bb6 0e3b
00000070: ec9d 413b f39b dbba 63bd 3cb7 426f 09bb
00000080: 3dea b7b9 0a12 47ba 8405 f33a c49f 3e3a
00000090: 8fbe acb7 c503 c9b9 a993 ec3a 9133 82ba
000000a0: c443 5c3a 0c1a 9abb df5b 2e3a 0971 0a3a
000000b0: 20f8 9739 79bb 40ba f34e 13bb 143f 7ab9
000000c0: fa51 21ba cb7d f4ba 3771 963a b0b3 5d3b
000000d0: 7e27 f4b9 7b69 71bb cb05 4c3a 0342 a5ba
000000e0: 18b0 a43a 4879 d6ba 8043 d13a 4fb7 733b
000000f0: 5c6f a73a f599 04bb 363e 2cba ad19 a5ba
00000100: 21ab 47bb aad4 ecbb ce93 973b 8ba0 d63b
00000110: ad40 a13a 609e ebbb 690a 893b 3fb3 cbbb
00000120: d282 0a3a 4526 45bb d411 dd3b 5307 e83b
00000130: 3068 dc3b 6bb7 eabb 1def c63a 53bc e3bb
00000140: 04d1 acba 1b82 8abb 6c5d f43a dafd bc3b
00000150: 9801 8ab9 d9e1 bfbb 0fbf 973a a6eb 0bbb
00000160: 0eb8 013b 15bb f3ba 5847 983b 44e4 d03b
00000170: 1771 4d3b 0fff cabb f462 40ba 64b2 40bb
00000180: 6910 61b7 71d6 12b9 5746 013b 5c39 7cb9
00000190: fab1 433a 0d5c 79b9 ffda 823a 5a95 9bb9
000001a0: a400 6d3a ea9b 26ba 4682 1639 9e70 ac39
000001b0: f9f0 9eb9 d6ab cfb8 acd2 4db8 3ed3 4739
000001c0: 71e9 beb8 79f4 0dba 8375 8fb8 cf07 213a
000001d0: 5b4c 4aba 26a9 39bb d35c 90b9 9cd3 bfb8
000001e0: 4c7b 283a 12f3 5fba c2e5 9e39 c718 f33a
000001f0: 8331 8b39 02f0 29b9 74c0 cfba ec4c b6b8
00000200: fc91 3bb8 a9f4 d1ba d18e 403b 8422 a03a
00000210: 605b 283a 1ec5 6bba 25fd 1c3b 19c6 51ba
00000220: 5c11 b139 9d51 a2bb 1cde a33a fd39 043b
00000230: 1fb9 2c3a 89c1 a0ba 265f 59ba 0359 8bba
00000240: b447 f9b7 2928 adba 28d8 d13a 8889 643a
00000250: 8cd0 8439 cd1c e1b9 6ed2 103b 7375 cbb9
00000260: 6e4b ce3a 754b baba 1bb9 083b e98b 053b
00000270: f7f9 953a 3b74 5cba f56d a139 8cb0 d0ba
00000280: be84 5b3a b08e 3a3b 3b29 db38 fa30 82bb
00000290: 7ec6 c23a 94f0 823b de5a 873a e69b 8d3a
000002a0: 468d fbba a51c 8e3a 0e89 6ebb 655e 8abb
000002b0: b7d9 3dbb ac25 9d3b e638 923b f4fa 0a3b
000002c0: c734 a4b8 094c 463a 4dab 2fba af44 dab9
000002d0: 8366 033a 7429 273b db16 cdb9 e954 093a
000002e0: 1a86 a3ba 4d44 83b8 89ad 78ba b196 d9ba
000002f0: b8ac b0b9 b9e5 4e3b e9c2 1cb9 13b3 fb39
00000300: 88ef 6db7 c568 c53a 249a c4bb 626d 09bb
00000310: 3dcb 8cbb 2a44 3d3a 4ae4 cabb 813c 973a
00000320: 2886 d43a c9d1 5b3b 2a32 e2ba 81cd 1cbb
00000330: d508 8cba 6d97 c63a 9859 21bb 7d77 1d3b
00000340: 98e0 873b 08f3 8e3b 7d98 8b3a f684 5fbb
00000350: bbb3 673b 65c7 643b 568c 7aba 4978 813b
00000360: 74fd eeba a570 ea3a f7fa 55bb dcc6 57bb
00000370: db4f 82bb 74dc 403b 436e 1439 9fac 8b3b
00000380: 971a e939 474a adb8 3ac1 c739 20a5 ecb9
00000390: 79e7 dab9 8832 413a fd40 44b8 1635 c839
000003a0: 0d66 543a 5466 cdba 3034 36ba ec17 0a3a
000003b0: 2f35 15ba f29c 063a 0b08 dfba 4033 783a
000003c0: ac13 ac3b bd9f be3b 2437 b2bb 771d d0bb
000003d0: 8629 3e3a 925c dc3b 03dd a3bb f519 a63b
000003e0: b130 54bb 0b1b 893b 8e4e d2bb bc39 d3bb
000003f0: 5870 c0bb 8148 ec3b 8cfc a13a 4c94 d83b
-0.00020790943 -0.0016941655 0.002001431 0.0035648681 7.452372e-06 -0.0018839804 0.0015122754 -0.00085333333
0.0011387488 -0.0012079177 0.001642231 0.0035604783 0.0005741654 -0.0041268356 0.00022550844 -0.0012483678
-0.0029396855 -0.0027400183 -0.00049451704 0.0023153187 -0.0015000496 -0.0026520756 0.00060426386 -0.002714165
-0.0004287231 -0.0007582936 0.0020138007 0.002177606 0.0029543592 -0.001675485 -1.1249768e-05 -0.0020970856
-0.00035079 -0.00075939356 0.0018541072 0.0007271732 -2.0592734e-05 -0.00038340516 0.0018049377 -0.0009933581
0.0008402432 -0.004702812 0.0006651263 0.0005281126 0.00028985832 -0.00073521544 -0.0022477477 -0.00023865356
-0.0006153878 -0.0018653212 0.0011477832 0.0033829026 -0.0004656873 -0.0036836553 0.00077828456 -0.0012608174
0.0012564687 -0.0016363049 0.0015965551 0.0037188118 0.0012774277 -0.0020233367 -0.00065705494 -0.0012596153
-0.003046699 -0.0072275 0.004625774 0.0065499 0.00123026 -0.0071905106 0.004182149 -0.006216436
0.0005283776 -0.0030082625 0.00674651 0.0070809512 0.0067262873 -0.0071629784 0.0015177462 -0.00694994
-0.001318485 -0.0042269356 0.0018643565 0.005767566 -0.000263226 -0.0058557806 0.0011577326 -0.0021350174
0.0019793543 -0.0018595184 0.0046471767 0.0063748676 0.0031347924 -0.006194956 -0.0007338964 -0.0029403204
-1.3414866e-05 -0.0001400353 0.0019725764 -0.00024053961 0.000746518 -0.00023780782 0.0009983479 -0.0002967518
0.0009040928 -0.00063556305 0.00014353645 0.00032890303 -0.00030315647 -9.902536e-05 -4.9072012e-05 0.00019056813
-9.103388e-05 -0.00054151524 -6.8406596e-05 0.0006142826 -0.00077170663 -0.002832958 -0.0002753498 -9.147005e-05
0.0006427064 -0.0008542995 0.0003030729 0.0018546813 0.00026549035 -0.00016206506 -0.0015850202 -8.692764e-05
-4.4720233e-05 -0.0016018349 0.0029382 0.0012217318 0.00064223073 -0.00089939113 0.0023954597 -0.0008002236
0.00033773005 -0.0049535767 0.0012502107 0.0020176165 0.00065888645 -0.0012264709 -0.0008292071 -0.0010631386
-2.9716502e-05 -0.0013210821 0.0016009854 0.00087180035 0.00025332381 -0.00042936802 0.0022098082 -0.00038806684
0.0015739033 -0.0014213162 0.0020862285 0.0020377582 0.0011442293 -0.00084096537 0.00030790237 -0.0015921756
0.0008373967 0.0028466396 0.000104504135 -0.0039731236 0.0014860181 0.0039959643 0.0010326763 0.0010803908
-0.0019191883 0.0010842277 -0.003639761 -0.0042226785 -0.002896888 0.0047957506 0.004462349 0.0021206709
-7.82996e-05 0.00075644307 -0.0006701246 -0.00041631373 0.0005012529 0.0025506886 -0.00039117676 0.0005238788
-0.0012475878 -6.259289e-05 -0.0009486308 -0.0016600696 -0.0003369802 0.003157003 -0.00014949929 0.0004800787
-1.4182071e-05 0.0015061131 -0.0059998203 -0.0020969738 -0.004296689 0.0007219935 -0.006191765 0.0011538417
0.0016214298 0.003354179 -0.0017257382 -0.00239262 -0.0010683784 0.001515133 -0.0024620052 0.002402752
0.0041466467 0.0043624677 0.0010650303 -0.003410635 0.003535493 0.0034908887 -0.0009557655 0.0039511067
-0.0018233494 0.0017886354 -0.0032650807 -0.0032924926 -0.0039768047 0.0029428275 0.00014155456 0.0042625214
0.00044461034 -8.263118e-05 0.00038100203 -0.00045136455 -0.0004175266 0.00073698955 -4.6790567e-05 0.00038186525
0.0008102365 -0.0015670755 -0.00069505256 0.0005267847 -0.0005691824 0.0005135081 -0.0017015947 0.0009468086
0.0052513685 0.005817382 -0.005438702 -0.0063511687 0.0007254112 0.0067249024 -0.005000712 0.0050690123
-0.0032377655 0.004184132 -0.006418056 -0.0064460915 -0.0058727674 0.0072107916 0.001235859 0.0066094752

base_model.model.bert.encoder.layer.1.attention.self.value.lora_A.weight f4 [16, 384]
00000000: 4bc1 43bd 0af2 1cbd 0260 2c3c dbef 0d3d
00000010: 51e8 403d 3eca a03c 1313 1f3c 4959 133d
00000020: d0fc f43c 6465 563d 15bd 89bc ae83 a2bb
00000030: ed0b 1f3d f8de 7bbc afff 2e3b f173 13bd
00000040: ca88 a53b f9b5 3f3c f9d8 ab3c 6cc6 f9bc
00000050: 0cbe 02bc f5ec 1cbd 16ce 3cba 8d79 4bbd
00000060: 8e19 3ebd f86f 90bc 775b 473c 9826 09bd
00000070: 6164 afbb 99f1 2cbd a81b a13b 10be 41bc
00000080: 742d 22bc 7342 eb3c f137 083a 3027 dc3c
00000090: 2998 e7bc 0fc7 023d 4df7 213d c41b 033d
000000a0: be01 893c f802 2bbd 4fba 023d c28b d43c
000000b0: 0d40 7f3c 51f2 b6bb 4bd1 be3c 0d0c d2bc
000000c0: 6619 133d cfae 75bb 361d 51bd c212 20bd
000000d0: e4ee b93c 0e79 a8bc 207a 06bd 0517 92bc
000000e0: fdbb 303d 65c6 a93c c70a ea3c ff01 e93c
000000f0: 59af 6dbc 5c1d 8a3c 0b78 6b3c 8705 303c
00000100: 5cb0 04bd 8d51 55bd 6f27 c8bc d1c3 18bc
00000110: 2eab e1bc 5780 6a3d 31d8 393b 860d 9a3c
00000120: fb90 203d 5e01 8c3c f50d 8b3c 3869 3d3a
00000130: 76f9 48bd eeed 243d b3b7 bd3c 281a 83ba
00000140: 43d2 1fbc 095a 04bd 9b27 ed3c 83e7 babc
00000150: ba1e aabc 00b3 523d 2d3e b33b 6ac4 6d3b
00000160: 83f9 1c3b e1d8 1cbd c885 66bd e591 263d
00000170: 8f4f d0bc 85df d03c 2312 97bc e7fe 2cbd
00000180: 3e38 063d fbb5 7dbc da3f 163d 2016 09bc
00000190: 8b22 b3bc 87b4 21bd 788f 573d 8960 cdbc
000001a0: fb53 09bd f63e 4e3c fdf6 cabc 7f31 2fbd
000001b0: ae87 fa3c 7165 2bbc 9096 0f3d a8ec 3a3d
000001c0: d72b eabc 44a7 d0bc 2c6a a1bc b921 13bd
000001d0: 7f49 133b 4979 6d3d df1a f03c 9b60 ee3b
000001e0: eff6 07bc 80c7 f33c af93 54bd 2084 2cbc
000001f0: a4e7 083c fce1 b33c fdfb 1e3d c5b8 00bd
00000200: bb33 c9bc a166 e83c 8c0c 8e3c 1034 a03c
00000210: 5598 43bb a48f ac3c f889 e8bc 3a98 6b3d
00000220: 761c d13c 782d 243d 1804 3abc 01b5 1c3c
00000230: 85b9 19bc d145 18bc 9f15 68bc 1c37 293b
00000240: 4be4 2cbc ff1d ffbb 8108 0dbd d3a1 c0b9
00000250: 5ee2 c4bc 5d2e f6bc fec2 3a3d 2680 183d
00000260: 7079 4f3c 9260 16bc 25dc adba 4f8b af3c
00000270: a184 ccbb 0550 453d ddde c3bc c374 01bc
00000280: 94e9 c13c 3231 143d e095 2abd 1699 043c
00000290: 3265 ca3c c6ac 123d b3d6 8fbb bd72 073c
000002a0: d710 663d 47ef 413d 0ad3 0b3c 95fb eebc
000002b0: 738f de3b bf17 2cbd 108c 3d3d 997c 16bc
000002c0: a2fd 09bd 62d3 133d 94db 0a3d f78d a0bc
000002d0: da98 2bbd 7320 e73c cb6f f7bc 709b 523d
000002e0: d8a0 113d ad95 3a3d 2b02 cbbc 4193 623d
000002f0: d220 7ebc de97 543d 75fb 3f3c c57d 20ba
00000300: f17b b0bc f604 abbc 7722 323d 14c7 00bb
00000310: 9514 833c a1a6 a63b e01e f93c bd13 5fbc
00000320: f294 343c 3ad0 4d3d fd83 e23c 3a16 4abd
00000330: 9e3f cb3c 82c5 113d 80d2 093d bf8b b5bc
00000340: 5c64 153d 5717 243d 780b d4bc 5cd7 acba
00000350: b721 3cbd 4a4b aabc 697a 013d 4e19 69bd
00000360: 17e0 643c 3104 9b3c 8fb3 88bb a508 813b
00000370: 84b2 f03b 1176 efbc a5d8 d03c 9617 48bb
00000380: a7d8 413d ad8d ca3c 6b2e cc3c c7e7 c0bc
00000390: 68e2 913c 9984 9d3b b27c 27bd 3df9 edbc
000003a0: de14 493d 61fe f03c 931f c2bc b7fa 373d
000003b0: ae4b 263d 98e2 d3bc 9a06 fd3b 0518 233d
000003c0: f518 3eba 3213 cc3c 5b7d bd3c 945d ed3c
000003d0: 882a 883c 4d7c d53b a514 41bd 9095 72bc
000003e0: d6e0 a3bc b795 323d 8361 d53c d253 f73c
000003f0: 6647 34bd c948 19bc 7a01 01bc e7c5 8fbc
-0.04779176 -0.038316764 0.010520937 0.034652572 0.047096554 0.019627687 0.0097091375 0.03597382
0.029905707 0.052342787 -0.016813794 -0.004959545 0.038829733 -0.015372984 0.0026702692 -0.035999242
0.005051707 0.0117011005 0.020977484 -0.030490123 -0.007979881 -0.038311917 -0.000720234 -0.049676467
-0.04641109 -0.017631516 0.012167803 -0.03348407 -0.0053525423 -0.042222593 0.004916627 -0.0118251
-0.009898532 0.028718209 0.0005196324 0.026874155 -0.028270798 0.03192812 0.039542485 0.0320089
0.016724464 -0.041750878 0.03191596 0.025945548 0.015579236 -0.0055830856 0.023293158 -0.025640512
0.035912894 -0.0037488227 -0.05105325 -0.03908039 0.02269692 -0.020565536 -0.03283131 -0.017833242
0.04314803 0.020724485 0.028569592 0.028443335 -0.014507138 0.016859703 0.014371882 0.010743505
-0.032394752 -0.052079726 -0.024432866 -0.00932403 -0.027547445 0.0572513 0.002835762 0.018805277
0.039200764 0.017090496 0.016974429 0.00072254566 -0.04906603 0.04026597 0.023158884 -0.0010002302
-0.00975472 -0.032312427 0.02894955 -0.022815472 -0.020766605 0.05144024 0.0054700584 0.0036280402
0.0023952432 -0.03829277 -0.056279927 0.04066648 -0.025428561 0.025497207 -0.018441265 -0.04223528
0.03276848 -0.015485282 0.036681987 -0.008367091 -0.021867057 -0.039478805 0.052627057 -0.025070446
-0.033527356 0.012588253 -0.024775976 -0.042771813 0.030582275 -0.010461197 0.035055697 0.04563585
-0.028585358 -0.025470383 -0.019703947 -0.035920832 0.0022474227 0.057976995 0.029309688 0.0072747
-0.00829862 0.029758215 -0.051898655 -0.010529548 0.008356009 0.021958344 0.038814534 -0.03142621
-0.0245608 0.02836925 0.017339967 0.019556075 -0.0029845436 0.021064587 -0.028386101 0.05751822
0.025526267 0.040082425 -0.011353515 0.009564639 -0.00938261 -0.009293989 -0.014165311 0.0025820201
-0.010552476 -0.0077855582 -0.034431938 -0.00036741662 -0.024033722 -0.030051405 0.045596115 0.037231587
0.01266323 -0.009178298 -0.0013264461 0.021428732 -0.0062413965 0.048172016 -0.02390998 -0.007901373
0.023670949 0.03617973 -0.04164684 0.008093139 0.024706457 0.0358093 -0.004389608 0.008267102
0.056168403 0.047347333 0.008534202 -0.029172698 0.006792003 -0.042014834 0.046276152 -0.00918498
-0.03368915 0.036090262 0.033900812 -0.019598944 -0.041893817 0.028213715 -0.030204674 0.051417768
0.035553783 0.0455529 -0.024781307 0.055316214 -0.015510755 0.051902644 0.011717667 -0.0006122257
-0.021543475 -0.020876389 0.0434899 -0.001964991 0.016001025 0.0050857817 0.03041023 -0.013615546
0.011021839 0.05024741 0.027650828 -0.049337603 0.024810608 0.03558875 0.033648014 -0.022161363
0.036472663 0.04006132 -0.025884375 -0.0013186741 -0.04593059 -0.020787854 0.03161088 -0.056908898
0.013969443 0.018922897 -0.0041717957 0.003937798 0.0073454995 -0.029231103 0.02549393 -0.0030531636
0.047325756 0.02472576 0.024924478 -0.02354802 0.017808154 0.0048070666 -0.040890403 -0.02904951
0.049092166 0.029418172 -0.023696696 0.044916835 0.040599518 -0.025864884 0.0077217342 0.03981783
-0.00072516437 0.024911497 0.023131063 0.028975286 0.016621843 0.006515062 -0.04713883 -0.014806166
-0.020004671 0.04359981 0.026047474 0.030191336 -0.044013403 -0.009355732 -0.007873887 -0.017550422
