lora_crossencoder_has_instruction_r_8 la_16 ld_0.1/checkpoint-3483/adapter_model.safetensors (safetensors, 299980 bytes, 25 tensors)

base_model.model.bert.encoder.layer.0.attention.self.query.lora_A.weight f4 [8, 384]
0.023063404 0.0083937915 -0.03563534 -0.044595473 0.0041698166 0.009718676 0.024610871 -0.029388119
-0.029973732 0.019999014 0.040193003 0.036736514 -0.028162327 -0.04475858 0.023164896 -0.0023718488
0.001618067 -0.02529962 -0.036613714 0.016528774 0.015525744 -0.047594894 -0.0030058902 -0.027457647
-0.009351743 -0.03836766 -0.039707743 -0.033884563 0.036928575 0.015960213 -0.04784031 0.04610049
0.021872984 -0.03657011 0.031706847 -0.004838388 -0.036053836 0.009342441 -0.00089444447 0.02462096
-0.02633076 -0.041936077 0.04063811 -0.020116946 0.006382038 -0.03220078 -0.040387765 -0.011615087
0.043456107 -0.033962544 0.017071266 0.0348397 -0.01369325 0.01608986 -0.043710764 0.05082046
-0.0427665 0.010429486 0.0017554592 -0.010843747 0.030522667 0.032015096 -0.037314795 -0.035533603
-0.0044789077 0.044150546 0.04587699 -0.026062153 -0.03473993 -0.024154058 0.055853963 -0.038446218
0.0046482706 -0.04992013 -0.036961764 0.041667923 0.03965574 0.018651033 0.00032797616 -0.043096285
0.00014066555 0.04614872 0.02953678 -0.025860576 -0.019131584 0.0021982319 -0.03983086 -0.042007655
0.02545424 -0.012601866 0.045925144 -0.044542972 0.04807411 -0.055385042 0.020195939 -0.016067559
0.026230177 -0.044577047 -0.0043627406 0.018564092 0.029495513 -0.024602057 -0.023009343 -0.025327701
0.04651087 -0.04556328 0.016545746 0.024221279 0.015550123 -0.040786117 -0.018112002 -0.009489409
-0.0015491544 0.042009637 0.006835551 -0.031763174 -0.032579698 -0.028075773 0.030204285 0.009190734
0.02309902 -0.01989089 0.050822992 -0.0064078677 -0.04746372 -0.038772624 -0.029232671 -0.027602425
0.0061062817 -0.0063160094 0.04041787 0.030437771 0.030434465 0.03448968 -0.057752483 0.034622137
0.01849328 -0.015838915 0.0033847713 0.03657843 -0.018095082 0.028329542 -0.03068131 -0.021835275
0.025520302 -0.022473658 -0.038024202 -0.039842907 0.035971474 -0.017932028 0.028345397 -0.04547571
0.0004869018 -0.0034223741 -0.019609299 -0.034111634 -0.052632157 0.030545872 0.03889565 -0.04377091
-0.033501986 0.05397394 0.02256327 -0.0039936076 0.014118669 0.016120376 -0.030549265 -0.03147266
4.424501e-05 0.037730906 0.03785496 0.017393073 -0.054747343 -0.0006243237 0.056900017 -0.044476423
-0.021107737 -0.008184228 -0.005249421 0.052623507 0.043384887 -0.0166148 -0.03403371 -0.024124308
0.021035234 0.029906778 -0.04586254 -0.035663642 -0.042244557 -0.026396256 -0.029967695 -0.021208836
0.023972323 0.037375465 0.040596955 -0.055863556 0.051448345 -0.01224358 -0.029888678 -0.03758074
0.030297799 0.040605832 0.0010815673 -0.0032184068 -0.032578565 -0.0016130378 -0.029939089 0.016407585
-0.014499706 0.012537093 -0.032174353 -0.051058035 0.0572369 -0.018647535 0.019054273 -0.034242004
0.007800584 -0.0002359234 0.026237782 0.04667602 0.011231618 -0.043389626 -0.011197718 0.04254448
-0.02703468 0.02940387 0.0015403756 -0.021451022 0.024184141 0.035216734 0.010455781 0.004973289
-0.040181976 0.027493838 0.041445073 0.036562793 0.019025562 -0.052003115 -0.03934033 0.001408165
-0.021975392 0.011556282 0.006154153 -0.01292203 0.051884297 0.016052848 0.042632915 -0.053547204
-0.057615463 0.0179859 0.037751473 0.043820728 0.01812979 0.025993995 -0.046684638 0.045554705
00000000: 77ef bc3c 1d86 093c 5df6 11bd bea9 36bd
00000010: f5a2 883b 153b 1f3c bd9c c93c 5abf f0bc
00000020: 798b f5bc f9d4 a33c 6ba1 243d 0779 163d
00000030: aeb4 e6bc c654 37bd 4fc4 bd3c 0571 1bbb
00000040: 5215 d43a 2641 cfbc 43f8 15bd 5a67 873c
00000050: b15f 7e3c ddf2 42bd 78fe 44bb dcee e0bc
00000060: 0e38 19bc 6827 1dbd 96a4 22bd 8aca 0abd
00000070: 6b42 173d febe 823c 33f4 43bd ded3 3c3d
00000080: f92e b33c 8aca 15bd 0adf 013d 578b 9ebb
00000090: 30ad 13bd 0a11 193c 2779 6aba e5b1 c93c
000000a0: 9bb3 d7bc 2ac5 2bbd 2674 263d 4bcc a4bc
000000b0: 6a20 d13b f7e4 03bd a46d 25bd 354d 3ebc
000000c0: 08ff 313d 4f1c 0bbd 0ad9 8b3c 13b4 0e3d
000000d0: a759 60bc e2ce 833c 0f0a 33bd 1d29 503d
000000e0: ed2b 2fbd 6fe0 2a3c 7017 e63a f9a9 31bc
000000f0: ac0a fa3c 4322 033d 66d7 18bd af8b 11bd
00000100: cdc3 92bb 34d7 343d 83e9 3b3d 4c80 d5bc
00000110: 754b 0ebd bbde c5bc 20c7 643d c879 1dbd
00000120: 8550 983b 0d79 4cbd 3865 17bd fcab 2a3d
00000130: 0f6e 223d 0dca 983c 37f4 ab39 bb85 30bd
00000140: 9f7f 1339 7106 3d3d 1ef7 f13c 8fd9 d3bc
00000150: d7b9 9cbc 3610 103b af25 23bd 3810 2cbd
00000160: 6985 d03c 0f78 4ebc 011c 3c3d b172 36bd
00000170: 5ce9 443d 6ddb 62bd f471 a53c 1da0 83bc
00000180: abe0 d63c 6c96 36bd 52f5 8ebb b913 983c
00000190: 93a0 f13c 418a c9bc 177e bcbc 0a7c cfbc
000001a0: 2f82 3e3d 90a0 3abd f28a 873c b46b c63c
000001b0: f1c5 7e3c 580f 27bd 9f5f 94bc 7779 1bbc
000001c0: ff0c cbba 4c12 2c3d c2fc df3b 1a1a 02bd
000001d0: 4a72 05bd 2aff e5bc fa6e f73c bb94 163c
000001e0: 283a bd3c 38f2 a2bc c52b 503d 17f9 d1bb
000001f0: 5169 42bd 0bd0 1ebd 5b79 efbc 7b1e e2bc
00000200: 3417 c83b 87f6 cebb 358d 253d a258 f93c
00000210: b351 f93c 0d45 0d3d de8d 6cbd f1cf 0d3d
00000220: 387f 973c 9dc0 81bc 0ad3 5d3b 44d3 153d
00000230: 233c 94bc 5b13 e83c 5f57 fbbc e4df b2bc
00000240: f40f d13c ad1a b8bc 44bf 1bbd 5132 23bd
00000250: d356 133d 30e6 92bc 9b34 e83c bd44 3abd
00000260: da46 ff39 e949 60bb aea3 a0bc a4b8 0bbd
00000270: d194 57bd 563b fa3c 0c51 1f3d 2049 33bd
00000280: 6139 09bd c713 5d3d 9bd6 b83c cfdc 82bb
00000290: fd51 673c e10e 843c 7442 fabc 7ae9 00bd
000002a0: b893 3938 b98b 1a3d cd0d 1b3d eb7b 8e3c
000002b0: c03e 60bd a7a9 23ba fe0f 693d e92c 36bd
000002c0: 22ea acbc 2417 06bc 5603 acbb bf8b 573d
000002d0: 5ab4 313d c31b 88bc ee66 0bbd 57a0 c5bc
000002e0: 1552 ac3c 0fff f43c 5cda 3bbd 0a14 12bd
000002f0: a108 2dbd f63c d8bc d07e f5bc 27be adbc
00000300: 9b61 c43c 0417 193d fe48 263d 2fd1 64bd
00000310: 80bb 523d 4c99 48bc 1ad9 f4bc 43ee 19bd
00000320: 1733 f83c 4d52 263d 60c3 8d3a e8eb 52bb
00000330: 1a71 05bd 916c d3ba d242 f5bc 3369 863c
00000340: 2d90 6dbc 6168 4d3c 41c9 03bd 3b22 51bd
00000350: 3d71 6a3d b7c2 98bc b517 9c3c 5841 0cbd
00000360: 0b9c ff3b 3562 77b9 9ef0 d63c 5b2f 3f3d
00000370: d204 383c 52b9 31bd a276 37bc 1f43 2e3d
00000380: d577 ddbc 63e0 f03c 6ee6 c93a 0eba afbc
00000390: d21d c63c 6c3f 103d b94e 2b3c f9f6 a23b
000003a0: db95 24bd c23a e13c 4fc2 293d dec2 153d
000003b0: 7fdb 9b3c 3801 55bd 5323 21bd 2d92 b83a
000003c0: bd05 b4bc 8f56 3d3c c7a8 c93b ecb6 53bc
000003d0: a184 543d 4381 833c da9f 2e3d 5054 5bbd
000003e0: 31fe 6bbd 2b57 933c 4aa1 1a3d 5d7d 333d
000003f0: ed84 943c 5cf1 d43c 6438 3fbd 9297 3a3d

base_model.model.bert.encoder.layer.0.attention.self.query.lora_B.weight f4 [384, 8]
0.0024686167 0.0017540803 0.0039959825 -0.0024976223 0.003259512 -0.0034220743 -0.0029216 -0.0027022255
0.004701063 -0.0019161854 0.0019327896 -0.0036478327 0.0029171861 -0.004137784 -0.0022983889 -0.0036678854
-0.0028853584 0.0010889596 -0.0042185434 0.003309477 -0.003277005 0.0031772058 0.003957614 0.0033196895
-0.0033901883 -0.00061211316 -0.0022087654 -0.000533953 -0.0016511987 -0.002095335 -0.00073644443 0.00034449584
-0.0010752126 -0.0030173243 -0.0018006545 0.0014661768 -0.0019086255 0.00074466196 0.002324193 0.0016403276
0.003709984 0.00063769956 0.0024327226 -0.0031309156 0.0019689007 -0.0025857638 -0.0027151506 -0.002659635
0.0028212974 -0.002457022 -0.00046674744 -0.0018466692 0.00095018256 -0.0018872065 -0.0015544954 -0.0013083733
0.00325589 -0.002303089 0.0034255541 -0.0024645254 0.0025034393 -0.0038191825 -0.0032471158 -0.001715572
-0.0016933843 -0.0021705618 -0.002970676 0.0025304917 -0.0021893098 0.003024132 0.002132999 0.0028431483
0.0026404827 0.002458441 0.0046897973 -0.005653148 0.0036276295 -0.005191245 -0.0059165326 -0.0042171683
-0.003873879 -0.0017486445 -0.0031205774 0.0047164154 -0.004489789 0.004765762 0.0032698966 0.0052116583
0.0018855346 -0.0031613428 -0.0018038639 0.0011405516 -0.0007110698 0.001042104 0.0017191523 0.0006232958
0.005442811 -0.0030581965 0.0019877388 -0.0043416484 0.0048985486 -0.0056881364 -0.001533593 -0.0048641227
0.004495773 -0.0012453538 0.004360304 -0.0068743685 0.00497206 -0.00544387 -0.006559652 -0.0055166357
0.0017981735 -0.0014102283 0.00047520405 -0.0015500793 0.0012674012 -0.0021987031 -0.00092183985 -0.0013286939
-0.0012548332 -0.00036284086 -0.0014936387 0.00079423655 -0.0009187811 -0.00019130894 0.0010149141 0.000627284
0.0020186976 -0.00019941137 0.0022293478 -0.0016748131 0.0017007786 -0.0024718894 -0.002122464 -0.001119
0.0039193477 0.0014583545 0.0023325158 -0.0025009417 0.0022093048 -0.002729309 -0.0019274001 -0.0028878113
-0.0028484345 -0.0012006615 -0.0037456683 0.0020890844 -0.0015755151 0.0017333751 0.001548191 0.0025198525
0.00020579975 -0.00045221092 -0.002411257 0.0030497527 -0.0014137167 0.0028293019 0.00327637 0.0013844589
-0.0045155366 0.0022218956 -0.00369751 0.00489879 -0.0034218905 0.0044967034 0.004395703 0.004082727
0.001063854 0.0005935041 0.0023949326 -0.0024849626 0.0018921377 -0.0028677778 -0.00277544 -0.0016918657
0.0028476806 -0.0025960014 -0.00094970735 0.0017629195 0.00047126575 0.0014076843 0.0013473856 0.00064779504
0.00418398 -0.0014507008 0.001235964 -0.002317938 0.0019744302 -0.0017180989 -0.0016469448 -0.0023590042
0.0011671999 0.004078217 0.0051200963 -0.0034631025 0.0038024813 -0.004635418 -0.0035758482 -0.0039564804
-0.0006519326 0.0024542164 0.0038828722 -0.0037707472 0.002662876 -0.004010889 -0.0043667783 -0.0030018087
-0.004446635 0.00081890344 -0.00035624715 0.0022894386 -0.00095710467 0.00320089 0.0010113377 0.0028272378
0.004028097 -0.0020579698 -0.0007977053 -0.0034629786 0.0028263829 -0.0037080224 -0.0026743163 -0.0031455471
0.0019822842 0.0003970909 0.00085672154 -0.0013741663 0.0011191757 -0.0018583626 -0.00079397636 -0.0017472832
-0.0058257836 -0.00033788613 -0.006221023 0.0066274693 -0.0052814474 0.006055416 0.006151816 0.006178409
0.0038177206 -8.64329e-05 0.0017737215 -0.0029834697 0.0021547962 -0.0035249153 -0.002274781 -0.002785629
-0.002259007 -0.00077993306 -0.002855524 0.0030533595 -0.0024185933 0.0036393749 0.002581864 0.002721463
00000000: 84c8 213b 2be9 e53a bbf0 823b 26af 23bb
00000010: 899d 553b e144 60bb 5078 3fbb d217 31bb
00000020: 600b 9a3b 8328 fbba a855 fd3a 7a10 6fbb
00000030: 432e 3f3b 3f96 87bb 91a0 16bb e860 70bb
00000040: 4818 3dbb 6cbb 8e3a b53b 8abb cfe3 583b
00000050: 05c3 56bb ab38 503b dfae 813b 268f 593b
00000060: ec2d 5ebb 3876 20ba efc0 10bb fbf8 0bba
00000070: 096d d8ba e351 09bb f30d 41ba 739d b439
00000080: 26ee 8cba 4dbe 45bb f003 ecba bb2c c03a
00000090: d82a faba 6b35 433a 7d51 183b 4300 d73a
000000a0: 3423 733b 4b2b 273a 506e 1f3b 0c30 4dbb
000000b0: ac08 013b eb75 29bb abf0 31bb 454d 2ebb
000000c0: 84e5 383b fd05 21bb c8b5 f4b9 f00b f2ba
000000d0: ac15 793a 245c f7ba 36c0 cbba b97d abba
000000e0: c560 553b 6cef 16bb 437f 603b e083 21bb
000000f0: be10 243b 404b 7abb 90cd 54bb 0bdd e0ba
00000100: 8cf4 ddba fc3f 0ebb acaf 42bb 9bd6 253b
00000110: 867a 0fbb 8430 463b c9c9 0b3b 1d54 3a3b
00000120: f30b 2d3b cc1d 213b dfac 993b 0b3e b9bb
00000130: 86bd 6d3b 521b aabb 79df c1bb 2c30 8abb
00000140: e8e0 7dbb c632 e5ba 9a82 4cbb 298c 9a3b
00000150: 141f 93bb 1c2a 9c3b c34b 563b 8fc6 aa3b
00000160: 0b24 f73a 882e 4fbb a16f ecba 907e 953a
00000170: 1667 3aba 3597 883a 2e55 e13a ac64 233a
00000180: 9c59 b23b 066c 48bb b944 023b 6344 8ebb
00000190: 0184 a03b 8c63 babb d802 c9ba 3863 9fbb
000001a0: 4751 933b 243b a3ba e2e0 8e3b 6242 e1bb
000001b0: aaec a23b 7e62 b2bb 59f2 d6bb e5c4 b4bb
000001c0: b1b0 eb3a 69d7 b8ba cf24 f939 082c cbba
000001d0: ed1e a63a 1e18 10bb a0a7 71ba 9227 aeba
000001e0: 3779 a4ba ad3b beb9 33c6 c3ba 5034 503a
000001f0: 5bda 70ba 1a9a 48b9 de06 853a 5170 243a
00000200: 204c 043b 1519 51b9 401a 123b 6785 dbba
00000210: a9ec de3a 6cff 21bb 0919 0bbb 69ab 92ba
00000220: df6d 803b 4226 bf3a 1fdd 183b d7e6 23bb
00000230: fcc9 103b 35de 32bb d1a0 fcba 6f41 3dbb
00000240: cdac 3abb 845f 9dba e379 75bb 05e9 083b
00000250: 8481 ceba 6b32 e33a abec ca3a 1c24 253b
00000260: f3cb 5739 b916 edb9 2e06 1ebb 5cde 473b
00000270: 764c b9ba cf6b 393b 5eb8 563b bb76 b53a
00000280: 11f7 93bb 399d 113b ed51 72bb 0786 a03b
00000290: cc41 60bb 1559 933b d409 903b 65c8 853b
000002a0: 0471 8b3a 6395 1b3a 4df4 1c3b c1da 22bb
000002b0: 9b01 f83a 54f1 3bbb 28e4 35bb 98c1 ddba
000002c0: 27a0 3a3b ad21 2abb c8f5 78ba c311 e73a
000002d0: 3814 f739 0c82 b83a c29a b03a cad0 293a
000002e0: c519 893b 7125 beba 1200 a23a 8ce8 17bb
000002f0: 7165 013b d531 e1ba 4cde d7ba 8699 1abb
00000300: bbfc 983a 90a2 853b 7bc6 a73b 38f5 62bb
00000310: 0d33 793b b4e4 97bb c758 6abb 5da5 81bb
00000320: 75e6 2aba ebd6 203b c977 7e3b a41e 77bb
00000330: a583 2e3b c76d 83bb 3117 8fbb feb9 44bb
00000340: 14b5 91bb aeab 563a afc6 bab9 680a 163b
00000350: 35e6 7aba 06c6 513b dd8e 843a 2e49 393b
00000360: 20fe 833b 01df 06bb 191d 51ba 24f3 62bb
00000370: d63a 393b 4b02 73bb 9543 2fbb 8625 4ebb
00000380: 36e9 013b a330 d039 9c95 603a 5f1d b4ba
00000390: 4eb1 923a 4d94 f3ba da22 50ba 1805 e5ba
000003a0: 37e6 bebb 4f26 b1b9 b9d9 cbbb 3e2b d93b
000003b0: fe0f adbb 836c c63b 2c95 c93b 4074 ca3b
000003c0: b932 7a3b 4f43 b5b8 387c e83a 5186 43bb
000003d0: 7b37 0d3b 4402 67bb 7e14 15bb 198f 36bb
000003e0: d90b 14bb 6c74 4cba be23 3bbb df1a 483b
000003f0: 4381 1ebb 9482 6e3b 7d34 293b 935a 323b

base_model.model.bert.encoder.layer.0.attention.self.value.lora_A.weight f4 [8, 384]
-0.03371546 -0.026270168 0.03151917 -0.0076584294 0.027721561 -0.008149996 -0.003916667 -0.060030963
-0.04361692 0.019580444 -0.040497195 0.036210075 0.0065060905 -0.03458559 0.04437361 -0.018329943
0.008784695 -0.043803375 -0.05321508 -0.019609487 0.04525426 -0.011238556 0.050043005 0.0012739474
0.04715798 -0.040190466 0.046502978 -0.04439955 0.019100597 0.03012905 -0.022233015 -0.0033941143
0.008190794 0.054516956 -0.02542736 -0.024186086 -0.02324896 -0.03877881 -0.034649603 -0.054473355
-0.035967227 0.0041306317 -0.03774241 -0.013585336 0.02307415 0.004457522 0.010253846 -0.009970583
-0.008332027 0.045321066 -0.03154174 0.027058609 -0.0523754 -0.03891589 -0.01644835 -0.008866556
-0.02178981 0.04195538 0.019348314 0.0020231963 0.041674074 -0.016147291 -0.024243508 0.018175524
-0.02391183 0.055081155 -0.038838893 -0.034387108 0.002016764 0.053347033 -0.030003471 0.037858967
0.013565885 -0.0016566644 0.028268222 -0.037059996 0.02474106 0.007502915 -0.016575525 -0.020599764
0.03157699 -0.0036503628 -0.045053363 0.052812055 0.0019045089 -0.0354715 0.006721872 0.013277267
-0.03786202 0.050627057 -0.0022369833 0.0034306285 0.03940946 0.035508733 -0.015634857 0.036594458
-0.03667953 -0.034848034 -0.03281991 0.01816232 -0.04568654 0.042217836 -0.041834302 -0.0105443895
0.012403466 0.023440555 0.035151865 -0.029842604 0.014824583 0.033514485 0.029803347 0.04540413
-0.009060419 0.039054457 -0.01537985 0.042071972 -0.028643059 -0.042449716 0.02178645 0.01999051
0.042768992 0.0069179097 0.010674285 -0.04905614 0.02730878 -0.03609063 -0.03305156 -0.0034925644
-0.039063945 -0.009754991 0.038977392 -0.010586515 -0.019786863 -0.035130832 -0.031847354 0.038352717
-0.0038223187 -0.02142308 0.04261695 -0.030640151 -0.017268192 0.038937777 -0.03739679 -0.0005100888
-0.022382863 -0.0060290354 0.040775076 -0.01075558 0.020327996 0.0449818 0.016006147 0.05368113
-0.009357751 -0.021188969 0.016424181 0.044263043 -0.009525837 0.059462957 -0.011423564 0.01030621
0.048351 0.02364774 -0.029858602 -0.043227326 -0.05495522 -0.04854791 0.02510661 0.00035323596
-0.0024449436 -0.03150262 0.0062446506 -0.03910054 0.016810508 -0.0007956928 -0.0472491 0.053063992
-0.06123721 0.032323726 0.037528675 0.036933653 0.019315172 -0.051606603 -0.014992638 0.04065867
0.03741478 -0.041501705 0.014940746 0.038446758 -0.027144535 0.02077861 0.015574536 -0.058745783
-0.0036813354 0.009922516 -0.010938628 -0.01716219 -0.03365617 0.038392436 0.0040116697 -0.027679982
0.037156638 0.01365318 0.012969311 0.023888487 0.031400915 -0.009707352 0.0121059995 0.057459168
0.021168647 -0.04038285 -0.030571923 0.03967817 -0.0044885813 -0.018830212 -0.0068900865 -0.01935482
0.009176878 -0.010858002 0.0046157357 -0.055425115 0.04187559 -0.036478586 0.040987354 0.023557177
-0.036135085 0.026812512 -0.038274847 -0.015123986 0.023101375 0.01643987 0.023060247 0.00064939837
0.029965358 0.035072826 0.052917797 -0.010222393 0.0059777168 -0.00016981349 0.0429982 0.039489605
-0.030152207 0.011495184 -0.034398682 0.032172225 0.016806563 0.026370507 0.018761784 -0.04708043
0.01490871 -0.019975126 -0.027049562 0.052882202 0.0019455864 0.010443462 -0.027095169 0.04043254
00000000: 3919 0abd 8934 d7bc 3f1a 013d 90f3 fabb
00000010: 5418 e33c 9087 05bc 6257 80bb 07e3 75bd
00000020: a8a7 32bd 2b67 a03c 63e0 25bd 0451 143d
00000030: 0b31 d53b 9fa9 0dbd 1ac1 353d ad28 96bc
00000040: aeed 0f3c 2b6b 33bd 0ef8 59bd 13a4 a0bc
00000050: 885c 393d ec21 38bc e5f9 4c3d 95fa a63a
00000060: ba28 413d c29e 24bd e879 3e3d 4ddc 35bd
00000070: db78 9c3c 33d1 f63c 0322 b6bc ca6f 5ebb
00000080: ae32 063c 2c4d 5f3d 0a4d d0bc e621 c6bc
00000090: 9a74 bebc 88d6 1ebd beec 0dbd 741f 5fbd
000000a0: 5f52 13bd 405a 873b c997 1abd 0795 5ebc
000000b0: 0006 bd3c 6810 923b bfff 273c a85b 23bc
000000c0: 0e83 08bc 95a2 393d e931 01bd 04aa dd3c
000000d0: 9687 56bd 4566 1fbd b1be 86bc 0845 11bc
000000e0: 8b80 b2bc 68d9 2b3d 5b80 9e3c 9a97 043b
000000f0: 6fb2 2a3d 5347 84bc 529a c6bc d6e4 943c
00000100: bee2 c3bc c79c 613d 8815 1fbd 7fd9 0cbd
00000110: af2b 043b 6b82 5a3d d7c9 f5bc 0112 1b3d
00000120: 7243 5e3c 6f24 d9ba c292 e73c 39cc 17bd
00000130: c3ad ca3c 03db f53b 65c9 87bc d6c0 a8bc
00000140: e056 013d ed3a 6fbb e089 38bd 7451 583d
00000150: b7a0 f93a 904a 11bd 2643 dc3b e588 593c
00000160: 3515 1bbd 515e 4f3d 5a9a 12bb 65d4 603b
00000170: d06b 213d 9b71 113d ac14 80bc 12e4 153d
00000180: 463d 16bd d0bc 0ebd 2c6e 06bd 25c9 943c
00000190: cf21 3bbd 9cec 2c3d 725a 2bbd 60c2 2cbc
000001a0: e837 4b3c 6806 c03c 67fb 0f3d 7a78 f4bc
000001b0: cfe2 723c 7c46 093d 2626 f43c aef9 393d
000001c0: 2772 14bc 91f7 1f3d c4fb 7bbc a953 2c3d
000001d0: d9a4 eabc c1df 2dbd 7f79 b23c 23c3 a33c
000001e0: 8a2e 2f3d a2af e23b 32e3 2e3c 17ef 48bd
000001f0: aab6 df3c c5d3 13bd 1361 07bd 82e3 64bb
00000200: 8401 20bd 66d3 1fbc c2a6 1f3d 1073 2dbc
00000210: 0f18 a2bc 59e5 0fbd 5f72 02bd bd17 1d3d
00000220: de7f 7abb 747f afbc 1c8f 2e3d 0e01 fbbc
00000230: 0676 8dbc 387d 1f3d 602d 19bd 7bb7 05ba
00000240: 445c b7bc 378f c5bb c403 273d 2c38 30bc
00000250: e686 a63c d63e 383d 531f 833c bfe0 5b3d
00000260: 4151 19bc 7d94 adbc 018c 863c 2a4d 353d
00000270: 4212 1cbc 6e8f 733d e629 3bbc 61db 283c
00000280: b30b 463d e8b8 c13c 079a f4bc 230f 31bd
00000290: ba18 61bd 2cda 46bd 61ac cd3c 8732 b939
000002a0: 593b 20bb e408 01bd ed9f cc3b e327 20bd
000002b0: 31b6 893c 0a96 50ba 4688 41bd a159 593d
000002c0: ded3 7abd e265 043d abb7 193d be47 173d
000002d0: da3a 9e3c 7261 53bd aea3 75bc b589 263d
000002e0: 3e40 193d b1fd 29bd 08ca 743c 597a 1d3d
000002f0: 375e debc e737 aa3c 572c 7f3c 6b9f 70bd
00000300: 8f42 71bb 0c92 223c ee37 33bc b997 8cbc
00000310: 0ddb 09bd 6341 1d3d 5374 833b 21c1 e2bc
00000320: 8f31 183d 96b1 5f3c 3c7d 543c cab1 c33c
00000330: 3f9e 003d 960b 1fbc 3e58 463c 4e5a 6b3d
00000340: df69 ad3c 7d68 25bd f871 fabc 9485 223d
00000350: f314 93bb d141 9abc 3cc6 e1bb 008e 9ebc
00000360: 9e5a 163c c3e5 31bc 993f 973b 7205 63bd
00000370: bd85 2b3d 926a 15bd 5be2 273d fbfa c03c
00000380: 6202 14bd eaa5 db3c 16c6 1cbd 98ca 77bc
00000390: 183f bd3c e8ac 863c d8e8 bc3c 633c 2a3a
000003a0: e979 f53c 86a8 0f3d 55c0 583d d37b 27bc
000003b0: b9e0 c33b f60f 32b9 e11e 303d dabf 213d
000003c0: c301 f7bc 4c56 3c3c a2e5 0cbd 06c7 033d
000003d0: ebad 893c f606 d83c 50b2 993c 69d7 40bd
000003e0: a943 743c e0a2 a3bc 0b97 ddbc 029b 583d
000003f0: 0c03 ff3a 0e1b 2b3c b0f6 ddbc 979c 253d

base_model.model.bert.encoder.layer.0.attention.self.value.lora_B.weight f4 [384, 8]
0.0031432766 -0.0021581368 0.0039850986 0.0017587434 0.002076486 -0.00012279686 -0.0022926193 0.003513552
0.0036218616 -0.004049228 0.0019271071 0.0062140725 0.0037793287 0.0050389133 0.0012503618 0.004676214
0.00069429673 -0.0026996974 -0.00069325906 0.0043962873 0.001930242 0.008237254 0.0033625541 0.0013416491
0.00040334288 -0.0009982511 -0.0011869123 0.0026579183 0.0012300151 0.0055050566 0.0029642214 0.00068562856
-0.005897757 0.0076179 -0.0033347735 -0.0039204583 -0.0058002467 -0.0024783977 0.0008911159 -0.0069415653
-0.0031806477 0.0022323597 -0.0053104623 -0.00082187797 -0.0017564626 -0.0002303339 0.004988563 -0.0013015368
-0.0027068388 0.0014689118 -0.0025525328 -0.0026778516 -0.0008642946 -0.0027241302 -0.0015557082 -0.0030942208
-0.0035635158 0.0039429413 -0.0026866142 -0.0043152585 -0.0035742156 -0.005976184 0.00038049408 -0.003304716
0.0050911093 -0.005530958 0.0038394872 0.004128173 0.0050893603 0.0031141501 -0.0016544812 0.0046668625
0.0030657183 -0.0012974782 0.0035976642 -0.00080901495 0.00016559687 -0.0016229305 -0.0021907084 0.002614199
0.0029411463 -0.0035427297 0.0024826233 0.001650518 0.0037480732 -0.0012701876 -0.002966555 0.0024238236
4.2075433e-05 -0.00047178855 0.00010623618 -0.003068774 -0.0014281415 -0.0036864677 -0.0032763311 -0.00054475
0.0044823135 -0.0037431363 0.0016840749 0.003805342 0.0042332183 0.003536007 0.0009761442 0.0052066525
0.0036049807 -0.004442832 0.002678967 0.005320704 0.0038349119 0.007107567 0.0009371647 0.0040145176
-0.0014049049 0.002498325 0.0004926595 -0.0041095107 -0.002711201 -0.004287872 -0.0008881346 -0.0014633657
-0.0013354551 0.0014133916 -0.0007692301 -0.0010514591 -0.0010532209 -0.002785324 -0.0015601985 -0.0016709137
-0.003411836 0.003477707 -0.0039718407 -0.0030180623 -0.0027404667 -0.003249914 0.003197459 -0.0028427516
0.00065945496 -0.0009480901 0.0008736807 0.001219865 0.0012595244 -0.0009865713 -0.0013097116 0.00023268438
-0.004278994 0.0040049586 -0.0049655787 -0.0028333655 -0.003944418 0.002767207 0.0035003617 -0.0044614887
0.0010800504 -0.002945425 -0.0010935861 0.0035496282 0.0022517138 0.0071122963 0.0054578376 0.0015663245
-0.0016973244 0.0016540524 -0.0021837032 -0.0019957186 -0.0016745913 0.0022594423 0.002765149 -0.002063209
0.010674722 -0.011614823 0.007630923 0.010632212 0.010221939 0.009705108 0.0027696937 0.01119206
-0.0026131251 0.002045518 -0.0037528435 -0.00065288984 -0.0016683138 0.0008843014 0.0034978886 -0.0017415382
-0.0068819327 0.008140162 -0.0008612532 -0.007896144 -0.0073590195 -0.00866402 -0.0049105575 -0.0071067195
-0.005260643 0.0060524764 -0.005214818 -0.0061678 -0.005391373 -0.0018435717 0.004294473 -0.005010627
0.011922442 -0.0124278115 0.008490199 0.011403835 0.010926726 0.0114773 0.0025692745 0.011370898
0.0043661143 -0.0049455767 0.004239241 0.005520791 0.0043858946 0.0062577445 4.2999804e-05 0.0048331907
-0.00037828085 -0.000117080126 -0.0041230535 0.0011304436 0.0003607255 0.0012585327 0.005714604 0.0008473278
-0.00093160337 0.00096714357 -0.00047637438 -0.00082602457 -0.00087328686 -0.0035518543 -0.00088706956 -0.00036621527
-0.0035261167 0.0036714696 -0.003478518 -0.0043758755 -0.0037265762 0.0005909141 0.0030458665 -0.0029999984
0.00795174 -0.01011359 0.0024451078 0.010752141 0.01006327 0.011224354 0.005254694 0.010602801
0.0069116866 -0.005670529 0.009129237 0.0045048227 0.0051373728 0.0027060704 -0.003198645 0.0063881646
00000000: 6eff 4d3b 876f 0dbb 6e95 823b a385 e63a
00000010: a715 083b 08c3 00b9 c53f 16bb 9f43 663b
00000020: c15c 6d3b 63af 84bb fc96 fc3a 6b9f cb3b
00000030: 9dae 773b 781d a53b 2ee3 a33a ed3a 993b
00000040: 7701 363a 68ed 30bb d4bb 35ba bb0e 903b
00000050: 2d00 fd3a 8cf5 063c 4c5e 5c3b 46da af3a
00000060: c477 d339 c0d7 82ba 2b92 9bba 7830 2e3b
00000070: 7538 a13a c363 b43b 6243 423b c1bb 333a
00000080: f941 c1bb 949f f93b 378c 5abb 3077 80bb
00000090: ff0f bebb 9d6c 22bb c799 693a 1276 e3bb
000000a0: 6a72 50bb c84c 123b 6303 aebb 4c73 57ba
000000b0: 1b39 e6ba c985 71b9 1977 a33b 5498 aaba
000000c0: 3865 31bb 8088 c03a 6548 27bb e57e 2fbb
000000d0: d491 62ba 5287 32bb e8e8 cbba 69c8 4abb
000000e0: e089 69bb ca33 813b e811 30bb 0367 8dbb
000000f0: 633d 6abb ddd3 c3bb 0d7d c739 ef93 58bb
00000100: 52d3 a63b 0a3d b5bb e89f 7b3b a045 873b
00000110: a6c4 a63b c516 4c3b 2ddb d8ba 7bec 983b
00000120: 38ea 483b 2510 aaba cac6 6b3b 1314 54ba
00000130: 12a4 2d39 83b8 d4ba fd91 0fbb fb52 2b3b
00000140: 3fc0 403b 242d 68bb 82b3 223b 3256 d83a
00000150: 3ca2 753b 6c7c a6ba 896a 42bb 03d9 1e3b
00000160: 277a 3038 635a f7b9 1dcb de38 7c1d 49bb
00000170: 7a30 bbba aa98 71bb b7b7 56bb 8ecd 0eba
00000180: 5fe0 923b 684f 75bb 2dbc dc3a 0b63 793b
00000190: cfb6 8a3b 5abc 673b eee3 7f3a 919c aa3b
000001a0: 8a41 6c3b 2d95 91bb 9c91 2f3b 4d59 ae3b
000001b0: 2553 7b3b 98e6 e83b 0fac 753a 378c 833b
000001c0: c924 b8ba f0ba 233b d225 013a 13a9 86bb
000001d0: 68ae 31bb 4781 8cbb b4d1 68ba 68ce bfba
000001e0: 700a afba 8d41 b93a 28a6 49ba 1dd1 89ba
000001f0: 3b0c 8aba fb89 36bb 937f ccba 8f02 dbba
00000200: 1c99 5fbb 3eea 633b 3726 82bb afca 45bb
00000210: 6799 33bb 82fc 54bb 768c 513b 754d 3abb
00000220: 46df 2c3a 4089 78ba b807 653a e1e3 9f3a
00000230: a016 a53a d74f 81ba a1aa abba bdfc 7339
00000240: ce36 8cbb 073c 833b 4bb6 a2bb fcaf 39bb
00000250: 2d40 81bb 085a 353b 5366 653b ae31 92bb
00000260: 7a90 8d3a 0808 41bb a956 8fba e1a0 683b
00000270: 7d91 133b 440e e93b a9d7 b23b 214d cd3a
00000280: c278 deba cacc d83a 761c 0fbb 9aca 02bb
00000290: f67d dbba 2713 143b 8137 353b e736 07bb
000002a0: 07e5 2e3c 194c 3ebc d20c fa3b bb32 2e3c
000002b0: eb79 273c 2c02 1f3c c083 353b e75e 373c
000002c0: f740 2bbb 190e 063b 44f2 75bb b226 2bba
000002d0: 52ab daba 76d0 673a d53c 653b 5344 e4ba
000002e0: d681 e1bb 505e 053c b9c5 61ba d45e 01bc
000002f0: ee23 f1bb 89f3 0dbc bee8 a0bb 7cdf e8bb
00000300: 7961 acbb da53 c63b 10e1 aabb 421b cabb
00000310: 1daa b0bb 00a4 f1ba a7b8 8c3b 3030 a4bb
00000320: 5956 433c 059e 4bbc 7a1a 0b3c 27d7 3a3c
00000330: 0306 333c 490b 3c3c 4661 283b 014d 3a3c
00000340: 9f11 8f3b 810e a2bb 55e9 8a3b c0e7 b43b
00000350: 8db7 8f3b c40d cd3b b05a 3438 be5f 9e3b
00000360: ff53 c6b9 ea88 f5b8 ae1a 87bb 652b 943a
00000370: c21f bd39 5af5 a43a 9341 bb3b 351f 5e3a
00000380: d836 74ba e887 7d3a e3c1 f9b9 9289 58ba
00000390: 4aed 64ba 3ac6 68bb 3b8a 68ba 9500 c0b9
000003a0: 6c16 67bb 0a9d 703b d9f7 63bb 8163 8fbb
000003b0: 9339 74bb 93e7 1a3a 299d 473b 9f9b 44bb
000003c0: 0448 023c 79b3 25bc 1a3e 203b bf29 303c
000003d0: 6ae0 243c 5ae6 373c 912f ac3b 5fb7 2d3c
000003e0: 6e7b e23b d8cf b9bb cc92 153c 319d 933b
000003f0: 6857 a83b 5458 313b 5ca0 51bb cf53 d13b

base_model.model.bert.encoder.layer.1.attention.self.query.lora_A.weight f4 [8, 384]
-0.035566635 -0.009791909 0.0034293362 -0.05580327 -0.0032158648 0.040340282 0.02325121 0.0038485457
-0.013452863 -0.049482543 0.0282565 0.027007636 -0.003722995 -0.033345986 -0.004596931 -0.010051422
0.015944472 -0.014720634 -0.035385247 -0.040263016 -0.0023301926 0.0031674816 -0.024850572 -0.028435137
-0.032190062 -0.027051944 0.012574198 0.0079542985 -0.0070661632 0.02322538 -0.027934829 0.0061741346
-0.024743477 -0.014200936 -0.013454886 0.03309449 0.024940629 -0.006685279 0.04582587 -0.02288908
0.010283944 -0.017495072 -0.0035913745 0.044218846 -0.032929014 -0.04671466 -0.042948 0.052157886
-0.007814518 -0.041508395 0.017549517 0.0021475 -0.03481569 0.012103488 0.031792805 -0.047809076
-0.045347862 -0.016598176 0.02027404 0.02530396 0.008287465 0.024000203 0.005957515 -0.015730334
0.007447774 -0.010116516 0.002764938 -0.026905475 0.0070205256 -0.023037517 -0.045146566 -0.020382812
-0.021363596 0.04295644 -0.052494533 0.0016628462 0.026057271 -0.040592514 0.030912068 0.016502552
0.02780253 -0.01764825 -0.043884106 -0.0028521765 -0.03092765 0.028328732 -0.05411652 0.039974533
-0.005132113 -0.0031567523 -0.0019235915 -0.004135169 -0.028978042 0.026319578 -0.034735423 0.04269031
-0.04330318 -0.032056842 0.021601828 -0.0178722 0.035108507 0.034052987 -0.007045391 0.0177774
-0.020462569 -0.027807312 -0.05160466 0.04564172 0.05422118 -0.0226214 -0.040236365 -0.03915217
-0.043348547 -0.012402235 0.043913785 0.023352418 0.032020986 0.012808441 -0.008669994 0.038564753
-0.006293593 0.055106495 0.044397842 0.04203939 0.049872942 0.028930962 0.030848438 0.038132284
0.02662554 0.0148561075 -0.0070244283 -0.009351658 -0.038108557 -0.039727524 -0.053975347 -0.023470374
-0.0306964 0.0015128701 0.020939685 0.042304218 0.028205939 0.022659602 0.030389644 0.024735685
0.029211361 -0.051048648 0.049958974 0.03806856 0.043128766 0.03827209 -0.02198831 -0.04143146
0.04622069 -0.019265326 0.0037653048 0.013878895 -0.04578396 -0.054485705 0.03293163 0.011332613
0.032726914 -0.02684249 -0.009222514 0.0060630306 -0.04192301 -0.010102878 -0.004884574 -0.036615305
0.019945666 -0.006923887 -0.04236096 -0.004900595 -0.020784186 0.009537021 0.004151073 0.009154503
0.0023986844 0.018682951 0.017417017 -0.04543834 -0.007343494 0.035373226 -0.002399744 -0.0057821875
0.014606048 -0.04218837 0.025470486 0.0139754815 -0.0029693523 0.04398414 0.02833935 -0.014225145
-0.017979633 0.043196194 -0.025107702 -0.0016100818 0.011005624 -0.054698985 -0.055200767 -0.026369106
-0.0058909003 -0.014793276 -0.047468137 0.043190356 -0.006244099 -0.039024398 -0.02858756 -0.015774993
0.046393804 -0.022502165 -0.015383805 -0.017712362 0.045395527 -0.016825005 0.046346508 -0.030579038
0.044312503 -0.020340027 0.0016977923 -0.047480553 -0.01589188 -0.00022230449 -0.036045425 -0.022630796
-0.04589808 0.036525823 0.029203553 0.027676577 -0.002752229 0.013984416 0.033652257 -0.016646795
0.037609614 0.049825553 0.030170541 -0.037713774 0.0040394794 0.020593012 -0.031374026 0.0080897575
-0.054403868 0.002984894 -0.007995212 0.01621697 0.035905607 0.025019065 0.036771607 0.031773955
0.017686512 0.008916899 -0.05494249 0.027458975 -0.010240325 -0.057426553 -0.04303449 0.014407493
00000000: 52ae 11bd 3e6e 20bc b7be 603b f891 64bd
00000010: 42c1 52bb da3b 253d 5279 be3c e237 7c3b
00000020: 6669 5cbc 35ae 4abd 2d7a e73c 1e3f dd3c
00000030: 7efd 73bb cd95 08bd daa1 96bb b8ae 24bc
00000040: fb9d 823c d02e 71bc 1ff0 10bd d5ea 24bd
00000050: 25b6 18bb 8695 4f3b 6d93 cbbc cef0 e8bc
00000060: bad9 03bd 0a9c ddbc 0204 4e3c bf52 023c
00000070: 468b e7bb 2743 be3c 95d7 e4bc 6550 ca3b
00000080: d5b2 cabc 0bab 68bc e271 5cbc 178e 073d
00000090: 4a50 cc3c 2f10 dbbb e8b3 3b3d e181 bbbc
000000a0: fd7d 283c d351 8fbc 445d 6bbb d21e 353d
000000b0: 93e0 06bd df57 3fbd 3eea 2fbd 82a3 553d
000000c0: 7708 00bc b504 2abd 01c4 8f3c 12bd 0c3b
000000d0: e69a 0ebd b54d 463c 2c39 023d 73d3 43bd
000000e0: aebe 39bd e6f8 87bc be15 a63c 404a cf3c
000000f0: 26c8 073c 139c c43c 4237 c33b e7dc 80bc
00000100: 750c f43b bebf 25bc f633 353b df68 dcbc
00000110: 700c e63b 2db9 bcbc 9beb 38bd dbf9 a6bc
00000120: b502 afbc 18f3 2f3d 8204 57bd dcf3 d93a
00000130: 0f76 d53c 5644 26bd 4e3b fd3c 5c30 873c
00000140: 22c2 e33c 1093 90bc d2bf 33bd 95eb 3abb
00000150: fc5b fdbc a811 e83c 49a9 5dbd 56bc 233d
00000160: 492b a8bb 84e1 4ebb 0521 fcba 5080 87bb
00000170: 5c63 edbc 289c d73c bb46 0ebd 09dc 2e3d
00000180: ad5e 31bd 094e 03bd 51f6 b03c b868 92bc
00000190: f0cd 0f3d 257b 0b3d 06dd e6bb e9a1 913c
000001a0: 1ea1 a7bc 29cc e3bc 685f 53bd d0f2 3a3d
000001b0: 0717 5e3d 8450 b9bc e3ce 24bd 075e 20bd
000001c0: 3f8e 31bd be32 4bbc f1de 333d 924d bf3c
000001d0: 7028 033d 7fda 513c 970c 0ebc 13f6 1d3d
000001e0: 7c3a cebb 59b7 613d 83da 353d 7f31 2c3d
000001f0: 9247 4c3d a000 ed3c ddb5 fc3c 9930 1c3d
00000200: ce1d da3c 0867 733c 2d2d e6bb b237 19bc
00000210: b817 1cbd 54b9 22bd 4115 5dbd f144 c0bc
00000220: 0477 fbbc 7f4b c63a b489 ab3c 3047 2d3d
00000230: 2410 e73c a1a0 b93c b4f3 f83c 7ea2 ca3c
00000240: aa4c ef3c 6318 51bd c8a1 4c3d c7ed 1b3d
00000250: caa7 303d 32c3 1c3d d420 b4bc 09b4 29bd
00000260: e851 3d3d 51d2 9dbc 55c3 763b 4e64 633c
00000270: f687 3bbd 672c 5fbd 51e3 063d 6dac 393c
00000280: a80c 063d c8e4 dbbc 071a 17bc 63ac c63b
00000290: 76b7 2bbd 8b86 25bc c70e a0bb eef9 15bd
000002a0: 1865 a33c c6e1 e2bb b082 2dbd 2c95 a0bb
000002b0: 9943 aabc 2a41 1c3c b905 883b c5fc 153c
000002c0: 3f33 1d3b fd0c 993c 22ae 8e3c 8e1d 3abd
000002d0: b1a1 f0bb 84e3 103d 0645 1dbb 8178 bdbb
000002e0: 354e 6f3c b6cd 2cbd 7ba7 d03c 6bf9 643c
000002f0: 7799 42bb b728 343d ed27 e83c 9510 69bc
00000300: 064a 93bc 7eee 303d abae cdbc 6109 d3ba
00000310: ef50 343c 0b0c 60bd 331a 62bd 0604 d8bc
00000320: 7408 c1bb 7f5f 72bc f36d 42bd 5fe8 303d
00000330: 4c9b ccbb 0cd8 1fbd 7530 eabc 8f3a 81bc
00000340: 6e07 3e3d 7656 b8bc 5b0c 7cbc 8419 91bc
00000350: a9f0 393d 98d4 89bc d6d5 3d3d e480 fabc
00000360: 0781 353d 21a0 a6bc 7588 de3a f87a 42bd
00000370: b02f 82bc 681a 69b9 5ea4 13bd 3864 b9bc
00000380: a0ff 3bbd 1a9c 153d 4a3c ef3c fdb9 e23c
00000390: be5e 34bb e41e 653c f3d6 093d dc5e 88bc
000003a0: 8a0c 1a3d e115 4c3d 3628 f73c c279 1abd
000003b0: 9c5d 843b adb2 a83c 0d82 00bd e78a 043c
000003c0: 97d6 5ebd 369e 433b 5afe 02bc 73d9 843c
000003d0: c211 133d c8f4 cc3c d39d 163d 6825 023d
000003e0: 4ee3 903c 2f18 123c 600b 61bd a5f1 e03c
000003f0: 09c7 27bc 1b38 6bbd ef44 30bd 680d 6c3c

base_model.model.bert.encoder.layer.1.attention.self.query.lora_B.weight f4 [384, 8]
-0.002497012 0.00014478732 -0.0062156543 0.0011101279 -0.0037239462 0.0069007557 0.004059458 0.0029515303
6.8769325e-05 -0.0009156245 -0.0019598727 -0.0009937434 -0.0012158838 0.0026969214 0.0016728682 0.0016796312
-0.0016640608 0.0031204491 -0.00017337108 0.003884704 0.0009950314 0.0007919827 -0.0009984714 0.0014334104
-0.0007859773 -0.00047055513 -0.002119871 0.0012368688 -0.003339732 0.003634386 0.004771811 0.0015220576
-0.0021747912 0.00064048625 -0.0023833541 0.0026790984 -0.0039496617 0.0022866009 0.0031959729 0.0021853594
-0.00059409847 -0.00089819566 -0.00221141 0.0014303491 -0.0043011396 0.0033974056 0.005843802 0.0015767054
-9.6634874e-05 -0.00080566073 -0.003276291 0.0003681094 -0.0030782737 0.0043313093 0.0038672665 0.0014131508
-0.00094360986 -0.00012765532 -0.0024967587 0.00088098034 -0.002998658 0.004271058 0.0039027578 0.0015151082
-0.0012562469 0.0007493337 -0.0015222447 0.003400604 -0.00069934677 0.002007616 0.0018685594 0.0017063092
-0.0031020443 0.0051993723 -0.0011044081 0.0038313926 -0.00011910623 0.0009986851 -0.00041598448 0.002391558
-0.00034970196 0.0011682359 -2.0050488e-06 -0.0022984196 0.0010371892 -0.0025735786 -0.0009158221 -0.00036330882
0.0010508257 5.9698377e-05 0.0031763848 -1.3442995e-05 0.002374755 -0.003652456 -0.0026657123 -0.0017099989
0.001972925 -0.0022191592 0.0020989974 -0.004525441 -0.0012455203 -0.0018166756 -0.0006009197 -0.0023257395
0.0031852857 -0.0007879206 0.004578902 -0.0023021642 0.002555445 -0.005518286 -0.003033061 -0.003671477
-0.00047795768 -0.0012088619 -0.0010242704 0.00051050365 -0.0014374064 0.0026388878 0.002163471 0.00093557563
0.002879413 -0.0031871123 0.0018229577 -0.0041210675 0.00066426257 -0.002312075 -0.00067912595 -0.003517359
-0.0038563109 0.0035167723 -0.0026254095 0.0026726786 0.00081208185 0.0031304017 -0.00096637476 0.0033648065
0.00167019 -0.0010835764 -0.0018758054 -0.000846382 -0.0016857337 0.0037496989 0.0019017027 0.00023935123
0.0017809117 -0.0026110406 0.00020670932 -0.00027249797 0.0013096309 0.00012278817 -0.00012148111 -0.00059083966
0.0023718022 -0.0023318694 0.00166056 0.0010757477 0.0004927633 0.00081349426 -0.00074387813 -0.0009598545
-0.00240496 0.00016817902 -0.005509539 0.0016732003 -0.0035858115 0.0056152726 0.0041950825 0.003129668
0.0048929085 -0.0010551149 0.004620477 -0.004154796 0.0036700186 -0.0026002168 -0.0039693415 -0.0033356464
-0.0015418867 0.00055091106 -0.001635598 0.002663068 -0.0026378257 0.0020325768 0.0022639146 0.0017075756
-0.0038661556 0.002246815 0.00038519446 0.0031233015 0.0015204442 -0.0009775802 -0.0017596233 0.003136081
-0.0036566465 0.0024404954 -0.00042521756 0.001929044 0.000949312 -0.0016508448 -0.0013446473 0.0016917189
0.00032815317 0.0008359088 0.0040781507 -0.0002865545 0.0031207483 -0.004673865 -0.003613108 -0.0013992037
0.0014640447 -0.0026257345 -0.0003740789 -0.003997541 -0.0011758611 0.00032349708 0.0013031572 -0.0010204802
-0.00048547634 -0.001107138 -0.003718788 -0.0009365048 -0.00460115 0.0027456167 0.004256159 0.0009745539
0.0009425814 -0.0020372167 -0.00025463858 8.852588e-06 -0.0037825787 0.00088544685 0.0049371966 -0.00031911477
0.0020007414 -0.000639138 0.0028131926 -0.0012501648 0.0045429864 -0.0032291012 -0.0046108994 -0.0017815698
0.0004160066 0.00030058614 0.0023869951 -0.0013615534 0.0013201312 -0.0033588877 -0.0025897175 -0.001240861
-0.0010609579 0.0028440107 9.639639e-05 0.0029120229 0.0004082449 0.00042237894 -0.00074818067 0.0005479424
00000000: e9a4 23bb 0dd2 1739 b0ac cbbb b681 913a
00000010: 730d 74bb bc1f e23b 3405 853b 766e 413b
00000020: 4038 9038 8506 70ba 3571 00bb 7f40 82ba
00000030: 4a5e 9fba d5be 303b 2444 db3a 1227 dc3a
00000040: 9d1c daba 7380 4c3b f2ca 35b9 8596 7e3b
00000050: b76b 823a 0f9d 4f3a 24df 82ba 46e1 bb3a
00000060: 0b0a 4eba d7b4 f6b9 89ed 0abb 6e1e a23a
00000070: 68df 5abb e12e 6e3b da5c 9c3b c77f c73a
00000080: f186 0ebb 4ee6 273a 0c32 1cbb d093 2f3b
00000090: 2a6c 81bb ccda 153b 8773 513b 3f38 0f3b
000000a0: 46bd 1bba e474 6bba 4eed 10bb 8d7a bb3a
000000b0: 93f0 8cbb 02a7 5e3b 5d7d bf3b 74a9 ce3a
000000c0: 74a8 cab8 fa32 53ba 0bb7 56bb cffe c039
000000d0: ddbc 49bb a8ed 8d3b f771 7d3b 7939 b93a
000000e0: 965c 77ba 37db 05b9 a9a0 23bb 97f1 663a
000000f0: 2285 44bb 3bf4 8b3b 69c5 7f3b 9896 c63a
00000100: a7a8 a4ba ef6e 443a 0e86 c7ba abdc 5e3b
00000110: 5e54 37ba 3592 033b 73ea f43a 3ca6 df3a
00000120: ab4b 4bbb 7f5f aa3b c9c1 90ba 1a18 7b3b
00000130: acc8 f9b8 50e6 823a 7e18 dab9 afbb 1c3b
00000140: 3458 b7b9 7e1f 993a 7a8e 06b6 15a1 16bb
00000150: 4bf2 873a 7ca9 28bb c813 70ba 7c7a beb9
00000160: dcbb 893a a564 7a38 e52a 503b 3989 61b7
00000170: c7a1 1b3b 0b5e 6fbb 3bb3 2ebb 0b22 e0ba
00000180: 304c 013b 506f 11bb 558f 093b 274a 94bb
00000190: ba40 a3ba 851d eeba 0a87 1dba 6f6b 18bb
000001a0: 3ac0 503b 758c 4eba 9d0a 963b e8df 16bb
000001b0: 4179 273b bdd2 b4bb 52c6 46bb 2a9d 70bb
000001c0: 6596 fab9 ad72 9eba d040 86ba 52d3 053a
000001d0: 5b67 bcba 31f1 2c3b 05c9 0d3b 6b41 753a
000001e0: 89b4 3c3b dfde 50bb 4ff0 ee3a 050a 87bb
000001f0: e821 2e3a 2f86 17bb 5f07 32ba 7e83 66bb
00000200: 29ba 7cbb a679 663b 100f 2cbb 1b28 2f3b
00000210: e4e1 543a 6d27 4d3b 5054 7dba 1684 5c3b
00000220: 47ea da3a ca06 8eba 96dd f5ba bcdf 5dba
00000230: d6f3 dcba 82bd 753b 8e42 f93a 5bfa 7a39
00000240: 7b6d e93a fe1d 2bbb 1cc0 5839 0fde 8eb9
00000250: eca7 ab3a b3c0 0039 adc3 feb8 94e2 1aba
00000260: 3d70 1b3b 47d2 18bb 26a7 d93a 1a00 8d3a
00000270: c92c 013a ad40 553a d100 43ba bf9e 7bba
00000280: 899c 1dbb 3659 3039 5d89 b4bb 494f db3a
00000290: efff 6abb 5200 b83b e776 893b 1e1b 4d3b
000002a0: b154 a03b c84b 8aba 5f67 973b f424 88bb
000002b0: b284 703b 6668 2abb 4011 82bb dc9a 5abb
000002c0: 2219 caba 046b 103a 9061 d6ba de86 2e3b
000002d0: 5fdf 2cbb fb34 053b 2f5e 143b bbd0 df3a
000002e0: 545f 7dbb 4d3f 133b edf3 c939 4eb0 4c3b
000002f0: a449 c73a 2622 80ba 29a3 e6ba b586 4d3b
00000300: 59a4 6fbb b8f0 1f3b bcef deb9 fad7 fc3a
00000310: 40db 783a 2961 d8ba e03e b0ba abbc dd3a
00000320: f90b ac39 e420 5b3a 02a2 853b b23c 96b9
00000330: 7885 4c3b 3927 99bb e5c9 6cbb 7c65 b7ba
00000340: 30e5 bf3a 8414 2cbb 0520 c4b9 cefd 82bb
00000350: 5a1f 9aba 0b9b a939 b3ce aa3a a2c1 85ba
00000360: 8887 feb9 631d 91ba e9b6 73bb c67f 75ba
00000370: 3ec5 96bb ceef 333b 4077 8b3b 3579 7f3a
00000380: 9117 773a d382 05bb 0381 85b9 9385 1437
00000390: 24e5 77bb 551d 683a 35c8 a13b dc4e a7b9
000003a0: df1e 033b d38b 27ba 8a5d 383b 92dc a3ba
000003b0: 55dd 943b 549f 53bb 0717 97bb 9083 e9ba
000003c0: 761b da39 fd97 9d39 226f 1c3b 2776 b2ba
000003d0: 4108 ad3a c920 5cbb 40b8 29bb 63a4 a2ba
000003e0: d70f 8bba 9562 3a3b 6b28 ca38 a3d7 3e3b
000003f0: b409 d639 be72 dd39 8e21 44ba cba3 0f3a

base_model.model.bert.encoder.layer.1.attention.self.value.lora_A.weight f4 [8, 384]
-0.032353748 -0.044504445 0.003919648 -0.009061613 0.0004659888 -0.043180645 -0.030559514 -0.03520287
-0.011155472 -0.037970718 0.012889172 -0.049250573 0.014234111 0.013771035 0.0029412853 -0.01606548
0.04329523 -0.021271626 0.011675178 -0.03282359 0.018169884 0.028690275 -0.038480643 -0.030177774
0.036026813 0.009737896 -0.041200407 0.00849614 -0.034221407 0.015353045 0.0378817 0.018871015
0.025939373 0.031611558 -0.03655078 0.012316141 0.020674204 0.0038984332 0.030961687 0.03421148
0.035251353 -0.040868722 0.039220862 0.02024541 -0.052142486 0.010489237 -0.032092787 0.018308096
-0.0003974718 -0.0051107947 -0.0020992677 0.010548961 0.036823582 -0.028422615 0.008986241 0.004956433
0.011019082 0.0021918465 0.0036486918 -0.033567443 -0.030999668 -0.0038527935 -0.024332339 -0.036339507
0.053104743 -0.007019848 0.02134265 -0.025324473 -0.011850328 -0.023526317 -0.030432602 0.027095834
0.04502798 0.040794108 0.015952967 -0.0133686 0.037422016 -0.013116502 0.037791774 0.00096514
-0.023270316 0.05683947 0.04408376 -0.048484206 -0.04545274 -0.0044331225 0.017727662 -0.014001976
0.042793114 -0.013588627 0.045052063 -0.03590604 -0.0130098 0.030695839 0.013643837 -0.02935517
0.0436187 -0.04893228 -0.0012510896 -0.022459451 0.029955823 0.032824844 -0.037139323 -0.005525048
-0.041945204 -0.025647486 0.041261423 0.04207846 -0.0045745457 -0.0427365 -0.038760543 -0.017325647
0.009116007 0.0050487495 -0.0028061022 0.033609264 -0.017729899 -0.022284916 0.042320278 -0.031535506
-0.054218635 -0.020114636 0.031270873 -0.035359446 -0.03002848 -0.02189622 -0.016334664 -0.043132666
0.0074787405 -0.036550857 -0.0076496536 0.021567913 0.052882094 -0.024848519 -0.032262802 -0.052168164
0.00013639063 -0.037394773 -0.041948743 -0.021582741 0.04418664 0.0062599317 -0.031658653 -0.006385104
0.022468753 -0.00438386 0.035378486 -0.034749217 -0.019883445 0.055343688 -0.03017286 0.014667055
-0.01664709 0.019161528 0.023490973 0.0062721735 -0.054365203 0.019489534 0.03946532 0.0049456786
0.010759559 0.03835639 -0.027969358 0.034081757 -0.028369682 -0.019832065 0.056928646 0.0188146
-0.0104514025 -0.041766245 0.04617434 0.0002783758 0.011090078 -0.015899004 0.007945978 0.024829606
0.043463748 -0.028904468 -0.0019547385 -0.011726046 0.013843016 0.034012735 -0.030981751 0.041106164
-0.01845492 0.009016508 -0.0022102057 0.042443473 0.020292243 -0.016698372 -0.0005010433 0.021277517
-0.0065876744 0.030031065 -0.022819469 -0.010358775 0.046174224 0.05135456 0.034478936 -0.001720058
0.029742183 0.012766186 -0.0037050543 -0.018399853 -0.010378197 -0.031437322 0.021049708 -0.021506054
-0.028160913 0.03027751 -0.02515032 -0.007580379 0.042607006 0.013537091 0.021909554 -0.02370273
-0.046537437 -0.02628721 -0.042459212 -0.043644287 -0.053517368 0.016979236 -0.005780278 0.031937584
-0.00029993756 0.03217082 -0.049440622 0.023979163 -0.042555306 0.03581295 0.010532648 -0.047812477
0.045274213 0.037730545 0.006177389 -0.05814914 0.04193422 -0.030366471 0.039364766 -0.0408179
-0.01922225 0.008844927 -0.026566133 0.056944005 -0.022340968 -0.027529635 -0.023492215 -0.031009115
0.029616563 -0.01387073 0.020200921 -0.038446687 -0.046189886 -0.03364791 -0.028777286 -0.035359755
00000000: 5d85 04bd 4b4a 36bd 6470 803b 2977 14bc
00000010: f54f f439 30de 30bd f257 fabc e230 10bd
00000020: 71c5 36bc 2f87 1bbd 1b2d 533c f8ba 49bd
00000030: 3036 693c e89f 613c 94c2 403b c19b 83bc
00000040: 5756 313d d541 aebc 3f49 3f3c 0772 06bd
00000050: 02d9 943c de07 eb3c e19d 1dbd 6137 f7bc
00000060: da90 133d b28b 1f3c c2c1 28bd 6533 0b3c
00000070: bf2b 0cbd 578b 7b3c d729 1b3d 6397 9a3c
00000080: cf7e d43c 1f7b 013d 45b6 15bd a4c9 493c
00000090: f35c a93c db7c 7f3b 5da3 fd3c 5621 0c3d
000000a0: b963 103d f665 27bd 0ea6 203d b4d9 a53c
000000b0: 5c93 55bd 0cdb 2b3c ba73 03bd dcfa 953c
000000c0: c363 d0b9 7478 a7bb de93 09bb 8dd5 2c3c
000000d0: 53d4 163d 8bd6 e8bc 073b 133c 9369 a23b
000000e0: 6189 343c 15a5 0f3b e41e 6f3b 047e 09bd
000000f0: 04f3 fdbc 267f 7cbb 9d54 c7bc bcd8 14bd
00000100: 5c84 593d c106 e6bb c8d6 ae3c 4575 cfbc
00000110: e127 42bc 43ba c0bc cb4d f9bc 15f8 dd3c
00000120: 426f 383d b917 273d ccaf 823c f907 5bbc
00000130: d447 193d 99e6 56bc 8ccb 1a3d 7301 7d3a
00000140: 64a1 bebc 81d0 683d 2c91 343d 6097 46bd
00000150: a72c 3abd ba43 91bb 9a39 913c 8b68 65bc
00000160: d547 2f3d d5a2 5ebc 8388 383d 3612 13bd
00000170: 0e27 55bc d775 fb3c 668a 5f3c 417a f0bc
00000180: 86a9 323d 376d 48bd 9afb a3ba e2fc b7bc
00000190: ea65 f53c 5873 063d 671f 18bd 760b b5bb
000001a0: bcce 2bbd ad1a d2bc bd01 293d 775a 2c3d
000001b0: 12e6 95bb 780c 2fbd 60c3 1ebd 84ee 8dbc
000001c0: 4e5b 153c fb6f a53b 95e6 37bb dea9 093d
000001d0: 4b3e 91bc db8e b6bc 0758 2d3d 602b 01bd
000001e0: 5c14 5ebd 73c7 a4bc e315 003d 11d5 10bd
000001f0: 49fe f5bc b45f b3bc 46d0 85bc e1ab 30bd
00000200: 3910 f53b 5ab6 15bd f2a9 fabb 31af b03c
00000210: e59a 583d 1f8f cbbc 0026 04bd 49ae 55bd
00000220: 1504 0f39 432b 19bd 72d2 2bbd 4ace b0bc
00000230: 0dfd 343d 1d20 cd3b 81ac 01bd 223a d1bb
00000240: 6410 b83c 7ca6 8fbb 08e9 103d 3255 0ebd
00000250: 9be2 a2bc 10b0 623d 132d f7bc 164e 703c
00000260: 7a5f 88bc a3f8 9c3c 2470 c03c ce86 cd3b
00000270: 0cae 5ebd 84a8 9f3c 63a6 213d 5c0f a23b
00000280: dd48 303c 971b 1d3d ff1f e5bc 5099 0b3d
00000290: 8967 e8bc db76 a2bc 032e 693d 1321 9a3c
000002a0: 5c3c 2bbc 1513 2bbd 4e21 3d3d f8f2 9139
000002b0: 29b3 353c a13e 82bc d92f 023c 7567 cb3c
000002c0: 0b07 323d 10c9 ecbc 121b 00bb 9a1e 40bc
000002d0: d1cd 623c f050 0b3d 71cd fdbc f05e 283d
000002e0: c62e 97bc fab9 133c 19d9 10bb 35d9 2d3d
000002f0: eb3b a63c 06cb 88bc 7258 03ba 304e ae3c
00000300: 6bdd d7bb b503 f63c e5ef babc dab7 29bc
00000310: 2f21 3d3d 2959 523d c939 0d3d 9273 e1ba
00000320: e1a5 f33c 4429 513c 7fd0 72bb 4abb 96bc
00000330: 5009 2abc 6cc4 00bd 7070 ac3c 772d b0bc
00000340: b7b1 e6bc 8a08 f83c 0b08 cebc d464 f8bb
00000350: af84 2e3d adca 5d3c aa7b b33c 3a2c c2bc
00000360: 0a9e 3ebd 4658 d7bc b6e9 2dbd 5ac4 32bd
00000370: 0735 5bbd 0a18 8b3c 7c68 bdbb fcd0 023d
00000380: f040 9db9 8dc5 033d 4082 4abd f36f c43c
00000390: 794e 2ebd 9ab0 123d 2191 2c3c 04d7 43bd
000003a0: 7471 393d 588b 1a3d b26b ca3b cb2d 6ebd
000003b0: 37c3 2b3d 1bc3 f8bc f33c 213d ac30 27bd
000003c0: fb77 9dbc 50ea 103c 38a1 d9bc 1e3e 693d
000003d0: 6804 b7bc d485 e1bc bf72 c0bc d406 febc
000003e0: 6f9e f23c 0f42 63bc 677c a53c 467a 1dbd
000003f0: 9b31 3dbd 64d2 09bd 58be ebbc 64d5 10bd
