lora_crossencoder_has_instruction_r_16 la_16 ld_0.3/checkpoint-3483/adapter_model.safetensors (safetensors, 594924 bytes, 25 tensors)

base_model.model.bert.encoder.layer.0.attention.self.query.lora_A.weight f4 [16, 384]
-0.039994724 0.05004833 -0.037274957 0.008387164 0.005337497 -0.022383854 0.0370973 -0.028168306
0.008359898 0.015990531 -0.009403961 -0.010998854 -0.03300059 -0.0042220913 -0.04514279 -0.049026944
0.0011550011 0.019321732 -0.026694074 0.044003874 -0.03473776 -0.048136417 0.021631131 -0.04795222
0.028725464 -0.04911177 -0.013380559 -0.03007051 -0.038056273 0.034688037 -0.0480719 0.02284898
0.031728785 -0.03640012 -0.0014791618 -0.023518063 0.042669926 -0.050818663 0.015786087 0.015909987
-0.039879084 0.0015493591 -0.012220239 0.029307125 0.033213247 0.034441885 -0.031006448 0.016757928
0.01573554 -0.04581982 0.026136383 0.026442664 0.011096286 0.04695467 0.022299446 0.015562714
-0.030664397 0.01810951 -0.008026875 -0.013570339 0.008113816 0.024039382 0.040971555 0.04789889
-0.016362565 -0.023388673 -0.02275185 -0.032723255 -0.048996057 0.0069913473 -0.0050722067 -0.025479062
-0.009330994 0.009517436 0.042398985 -0.045202155 -0.015880432 -0.035404563 -0.040964585 -0.017228268
0.005847945 -0.031743456 -0.025432253 -0.0019055521 -0.026548961 0.0021180022 -0.045522552 0.025042443
-0.047982626 -0.043888498 -0.02820567 0.02152354 0.019478094 0.014187991 0.036370203 -0.030438347
-0.03402811 -0.019941866 -0.00683247 -0.03717452 -0.04509448 0.011944119 -0.04943324 0.044921525
0.033456065 -0.03159227 -0.012918925 -0.006408446 -0.004222005 0.0075883926 -0.040749773 -0.00596367
0.044376098 -0.029897194 0.025685221 -0.00794133 -0.04598974 0.032226983 -0.048304614 -0.048420478
0.040316377 -0.048130777 0.025092859 0.05376021 -0.0068291742 -0.025402358 -0.0155597925 -0.040126245
0.0062422655 -0.035097994 0.016705176 0.0009684126 0.02972905 -0.031662513 0.038185988 0.01706166
-0.035187393 0.03096653 0.026051892 -0.051321037 -0.0042259316 0.01773901 0.037181873 0.04440973
-0.04589546 -0.028554078 -0.04041843 0.04588633 -0.028761664 -0.050348442 -0.023113206 0.0025047713
-0.008545815 -0.036423802 -0.01877139 -0.0059293522 0.010624745 -0.014008871 -0.020794 -0.008365582
0.046395358 0.036096975 -0.015948564 0.0277464 0.017500682 -0.039711054 0.03211761 -0.005165362
0.04548338 -0.025469292 0.055038426 0.0359716 -0.05085256 0.022571974 -0.03054857 0.042181388
0.021842018 -0.009278046 0.019383011 0.0013877215 0.017208371 0.03204286 -0.026416108 -0.037919004
0.009064038 0.043476265 -0.048013106 0.011743149 0.041029397 -0.03592738 0.05089088 0.02386033
0.016445866 -0.0042247795 0.032131054 -6.698264e-05 -0.013044828 -0.039568067 -0.02631774 -0.020042965
-0.03354251 -0.028160295 -0.055269346 0.00061528437 0.04295985 0.01822271 0.03357586 -0.034625717
0.014955438 -0.014822752 -0.020727009 -0.04364048 -0.0149862915 -0.032676943 -0.03642335 -0.01667431
0.037705664 -0.03078714 0.034680124 0.018496977 0.03637262 0.04513839 -0.001942834 0.01625579
0.041571137 0.034424253 -0.00247717 0.032286506 -0.014904048 0.02134537 0.034549452 -0.04222117
0.04110034 -0.03175404 0.021082275 0.038646594 0.045571644 -0.0380931 0.046950113 0.051422864
0.01670523 0.0009607125 -0.008690655 0.03671895 -0.029042726 -0.019004624 -0.013020767 0.01615105
0.04651297 0.0142932655 -0.05099982 0.02571768 0.023069613 -0.03482205 -0.049250204 -0.028902752
00000000: 82d1 23bd 7aff 4c3d a0ad 18bd 516a 093c
00000010: 2ce6 ae3b 585e b7bc 57f3 173d 38c1 e6bc
00000020: f4f7 083c 93fe 823c 1213 1abc 8a34 34bc
00000030: a02b 07bd 7859 8abb a5e7 38bd 7ad0 48bd
00000040: 6863 973a 9c48 9e3c 88ad dabc 683d 343d
00000050: 2e49 0ebd b12a 45bd c533 b13c 8c69 44bd
00000060: aa51 eb3c 6c29 49bd 223a 5bbc 6e56 f6bc
00000070: e5e0 1bbd 0b15 0e3d 0ae7 44bd c92d bb3c
00000080: 0bf6 013d 4b18 15bd 6fe0 c1ba f4a8 c0bc
00000090: a9c6 2e3d 3b27 50bd d351 813c a955 823c
000000a0: 4058 23bd dd13 cb3a 6637 48bc 7f15 f03c
000000b0: 9d0a 083d ef12 0d3d 3c01 febc ec47 893c
000000c0: d2e7 803c 90ad 3bbd f81b d63c 499e d83c
000000d0: 32cd 353c 8a53 403d 54ad b63c c1fa 7e3c
000000e0: e733 fbbc 655a 943c 2783 03bc 2156 5ebc
000000f0: d0ef 043c 3dee c43c cad1 273d a031 443d
00000100: c90a 86bc 9a99 bfbc 1662 babc d208 06bd
00000110: 17b0 48bd ac17 e53b c134 a6bb 77b9 d0bc
00000120: 07e1 18bc 05ef 1b3c 8faa 2d3d e525 39bd
00000130: ae17 82bc 6004 11bd 7bca 27bd 4c22 8dbc
00000140: 1ea0 bf3b 6d05 02bd 4d57 d0bc b8c3 f9ba
00000150: 357d d9bc 2ece 0a3b db75 3abd cf25 cd3c
00000160: 6e89 44bd 6dc4 33bd 940f e7bc 2352 b03c
00000170: 8690 9f3c bf74 683c ecf8 143d d759 f9bc
00000180: 0f61 0bbd 205d a3bc eae2 dfbb 4f44 18bd
00000190: fdb4 38bd 44b1 433c 827a 4abd a2ff 373d
000001a0: 3a09 093d e566 01bd e6a9 53bc f1fd d1bb
000001b0: bf58 8abb 0da8 f83b 3ce9 26bd e46a c3bb
000001c0: b6c3 353d f6ea f4bc d069 d23c 5a1c 02bc
000001d0: bd5f 3cbd 7100 043d 0fdb 45bd 8d54 46bd
000001e0: c922 253d c724 45bd 8a8f cd3c aa33 5c3d
000001f0: 44c7 dfbb 9b18 d0bc 80ee 7ebc 6b5b 24bd
00000200: eb8b cc3b eac2 0fbd 4bd9 883c 12dd 7d3a
00000210: 568a f33c 8db0 01bd e968 1c3d e5c4 8b3c
00000220: a820 10bd 85ad fd3c c76a d53c 0236 52bd
00000230: af79 8abb 6651 913c 054c 183d fae6 353d
00000240: e1fc 3bbd 3eea e9bc cc8d 25bd 4ef3 3b3d
00000250: 959d ebbc 2b3a 4ebd e857 bdbc 1727 243b
00000260: bf03 0cbc 2031 15bd 75c6 99bc 034b c2bb
00000270: 6913 2e3c 7785 65bc 2e58 aabc cb0f 09bc
00000280: 0f09 3e3d 6cda 133d 90a6 82bc 6b4c e33c
00000290: 975d 8f3c 0fa8 22bd c18d 033d 3242 a9bb
000002a0: c84c 3a3d faa4 d0bc f96f 613d f556 133d
000002b0: c64a 50bd dce8 b83c ff40 fabc 64c6 2c3d
000002c0: 08ee b23c f202 18bc 1fc9 9e3c 35e4 b53a
000002d0: 92f8 8c3c 603f 033d 9866 d8bc f550 1bbd
000002e0: 5581 143c 2b14 323d 64a9 44bd 5666 403c
000002f0: 710e 283d 9728 13bd f572 503d bd76 c33c
00000300: 7bb9 863c 0570 8abb da9b 033d 0879 8cb8
00000310: f9b9 55bc 2012 22bd 4d98 d7bc 2531 a4bc
00000320: df63 09bd 6bb0 e6bc 1c62 62bd 094b 213a
00000330: abf6 2f3d cb47 953c d786 093d b2d3 0dbd
00000340: a707 753c 21db 72bc b0cb a9bc 5cc0 32bd
00000350: 1089 75bc 42d8 05bd a730 15bd 9098 88bc
00000360: 4171 1a3d 5035 fcbc bf0c 0e3d f986 973c
00000370: 75fb 143d 08e3 383d b1a6 feba dd2a 853c
00000380: 7f46 2a3d 7200 0d3d 0458 22bb db3e 043d
00000390: 1c30 74bc 7cdc ae3c ba83 0d3d 1bf0 2cbd
000003a0: d558 283d 8610 02bd bcb4 ac3c e44b 1e3d
000003b0: 55a9 3a3d 8307 1cbd c34e 403d c8a0 523d
000003c0: 68d9 883c 53d8 7b3a 4063 0ebc 9c66 163d
000003d0: 03eb edbc 96af 9bbc 0e55 55bc 354f 843c
000003e0: 6284 3e3d 4d2e 6a3c 30e5 50bd e2ad d23c
000003f0: 7cfc bc3c 91a1 0ebd 95ba 49bd 77c5 ecbc

base_model.model.bert.encoder.layer.0.attention.self.query.lora_B.weight f4 [384, 16]
0.003455246 -0.0038259188 0.0032981765 -0.0034057896 -0.0035879295 -0.0040426417 -0.002826365 -8.09762e-05
-0.0035032805 0.0032803316 -0.0043227337 -0.002322106 -0.003024524 -0.0029121276 0.0031906716 0.0040751067
0.0032996885 -0.0025063204 -0.00047850044 -0.0032206872 -0.0051599666 -0.0033578072 0.00046256397 0.005420377
-0.0024218524 0.003466151 -0.0037310966 -0.00070341496 -0.0023616878 -0.0016787808 0.0016259246 0.0034128542
-0.003284286 0.0036402706 -0.0019622964 0.0046936874 0.0037880673 0.0045398637 -0.0005907401 -0.0015285189
0.002404971 -0.0022994815 0.0039797714 0.0018380154 0.0042302855 0.0015691766 -0.0026555324 -0.002880663
-0.001631719 -0.00088111823 -0.0019395862 0.00023270378 0.0012788356 0.0010964223 0.0007022316 -0.0031950623
0.0015561692 0.0015268371 0.0013877457 -0.0008066569 -0.00048342216 -0.0018409654 -0.00027615676 0.0007020923
-0.0018860007 0.0031505078 -0.004519752 0.0038950264 0.0017196812 0.0021517172 0.0035867703 0.0005421944
0.0027795054 -0.0023417596 0.001181527 0.002962558 0.0032053017 0.004683675 -0.0033504332 -0.0021438915
0.003341761 -0.001800072 0.00081489 -0.0025298756 -0.0036639958 -0.0025967606 -0.00047609973 0.0023205907
-0.0017538383 0.0023240957 -0.0024980882 -0.0011050877 -0.0024733196 -0.0006587438 0.0015579663 0.0023809413
0.002059685 0.0006930692 -0.003615756 -7.8695935e-05 -0.0027763739 -0.0012738605 0.0043254746 0.0028218818
-0.00050078024 -0.0019398595 -0.0015017523 0.0036658496 -0.0011301654 0.0038714358 -0.0015431626 0.0002951604
0.0037290307 -0.0037676273 0.0014606629 -0.0035961445 -0.0042235996 -0.0031441683 -8.285031e-05 0.0032466864
-0.0037645078 0.0014018648 -0.005045504 -0.002520966 -0.002929143 -0.0025273468 0.0027201727 0.0044521717
-0.0034749478 0.0025971138 -0.0016317669 0.0033188732 0.0032133735 0.003072489 0.0013785908 0.0010524887
0.0022519885 -0.002612785 0.0031994106 0.0014559223 0.0027010555 0.0020183474 -0.0021716184 -0.0028033229
0.006242953 -0.0053398297 0.0037044373 -0.0051545305 -0.0035461662 -0.004893642 -0.0037000128 -8.897076e-05
-0.0047919108 0.00535927 -0.0057247146 -0.0038838238 -0.0049376576 -0.0058971043 0.0038819264 0.0063676806
-0.004798385 0.004383166 -0.0025306016 0.0050102044 0.004868046 0.005259488 0.0024908816 9.1490576e-05
0.0047330637 -0.0034111347 0.0046254704 0.0028155136 0.0039710226 0.0041942773 -0.004188842 -0.0038986353
-0.0019430724 0.0013384438 -0.0007233043 0.0007209468 0.0015176603 0.00057515624 0.0015637602 0.0030641358
0.0012975207 -0.0013762402 0.0016284991 0.0015642489 0.0016192611 0.0011730702 -0.001985323 -0.0017490333
0.0049790083 -0.00013710865 -0.00013408103 -0.0033433025 -0.006073173 -0.0052223727 0.00085687666 0.0041765026
-0.0042835623 0.00050763524 -0.005403231 -0.0009603996 -0.00066459633 -0.0009951219 0.0010977207 0.0033826283
0.00609794 -0.006291007 0.0014058031 -0.0070869145 -0.0067831483 -0.0057475544 -1.4392078e-05 0.0036480026
-0.0052215206 0.005580328 -0.006910749 -0.003995836 -0.005732358 -0.0044817957 0.0043140124 0.006357324
0.0017304036 -0.0012083816 -0.0012749686 -0.0013271506 -0.0028097883 -0.0018528773 0.000981083 0.0042641475
-0.0009653384 0.0021105444 -0.002295795 0.00029829165 -0.0011407733 -0.00034388734 0.00050373544 0.0017825665
-0.0007021949 0.0009506727 -0.0025563936 0.0020487087 -0.00014572302 0.0006616531 0.0025087015 0.00048571758
0.0010420061 8.980771e-05 0.00021361731 0.0016865979 0.0007616919 0.0017984819 -0.0011662946 -0.0009176122
00000000: 6971 623b 44bc 7abb 3826 583b ab33 5fbb
00000010: 7823 6bbb 2378 84bb 893a 39bb c4d1 a9b8
00000020: 4b97 65bb d5fa 563b b8a5 8dbb 792e 18bb
00000030: 1837 46bb 65d9 3ebb 961a 513b 7988 853b
00000040: 963f 583b 1441 24bb 3edf fab9 2a12 53bb
00000050: f014 a9bb a80e 5cbb 4984 f239 6b9d b13b
00000060: f1b7 1ebb 5d28 633b 6a85 74bb 6165 38ba
00000070: 8cc6 1abb 890a dcba fa1c d53a 31aa 5f3b
00000080: 2d3d 57bb 9b91 6e3b df99 00bb 81cd 993b
00000090: 3941 783b 23c3 943b e6db 1aba 9558 c8ba
000000a0: b89c 1d3b e6b2 16bb be68 823b 90e9 f03a
000000b0: 359e 8a3b d4ac cd3a 7108 2ebb 81c9 3cbb
000000c0: 67df d5ba d8fa 66ba b739 feba f201 7439
000000d0: 9a9e a73a d4b5 8f3a f715 383a 4064 51bb
000000e0: 60f8 cb3a 2720 c83a 05e5 b53a d475 53ba
000000f0: d373 fdb9 8c4c f1ba 22c9 90b9 9e0c 383a
00000100: af33 f7ba c078 4e3b 6e1a 94bb b343 7f3b
00000110: ed66 e13a d303 0d3b 0510 6b3b 0d22 0e3a
00000120: 5d28 363b 3578 19bb 78dd 9a3a 7a27 423b
00000130: 0a10 523b 8379 993b f192 5bbb 8880 0cbb
00000140: 7201 5b3b 65f0 ebba 589e 553a 45cc 25bb
00000150: a61f 70bb 6a2e 2abb 069d f9b9 0d15 183b
00000160: 0ce1 e5ba db4f 183b f7b6 23bb 97d8 90ba
00000170: 6b17 22bb 8caf 2cba ad34 cc3a 9109 1c3b
00000180: c8fb 063b 16af 353a 52f6 6cbb 8f09 a5b8
00000190: d3f3 35bb aaf7 a6ba b6bc 8d3b 52ef 383b
000001a0: cb46 03ba e242 feba 72d6 c4ba c03e 703b
000001b0: 0f22 94ba eab7 7d3b f243 caba c2bf 9a39
000001c0: c162 743b 4cea 76bb b773 bf3a 4bad 6bbb
000001d0: 1f66 8abb 640e 4ebb ecbf adb8 5cc6 543b
000001e0: f6b5 76bb c7be b73a c154 a5bb cb36 25bb
000001f0: ddf6 3fbb d8a1 25bb ed44 323b 86e3 913b
00000200: f3bb 63bb 5734 2a3b 03e1 d5ba 7481 593b
00000210: 7697 523b d05b 493b d5b1 b43a a9f3 893a
00000220: 1996 133b 423b 2bbb 34ad 513b a5d4 be3a
00000230: 3104 313b 4046 043b b651 0ebb f4b7 37bb
00000240: af91 cc3b bdf9 aebb 25c6 723b 56e7 a8bb
00000250: cc66 68bb d85a a0bb ea7b 72bb d095 bab8
00000260: 7605 9dbb d19c af3b 6396 bbbb c087 7ebb
00000270: 13cc a1bb 7f3c c1bb eb67 7e3b faa7 d03b
00000280: c53b 9dbb a9a0 8f3b 73d8 25bb a42c a43b
00000290: 2184 9f3b c857 ac3b 0f3e 233b a1de bf38
000002a0: d117 9b3b 588d 5fbb 4291 973b 7b84 383b
000002b0: 5a1f 823b 2670 893b 8e42 89bb 3f80 7fbb
000002c0: b1ae feba b96e af3a 219c 3dba ecfd 3c3a
000002d0: 3bec c63a 15c6 163a 16f7 cc3a abcf 483b
000002e0: 9211 aa3a f562 b4ba 5d73 d53a 7c07 cd3a
000002f0: 633d d43a b4c1 993a 311c 02bb d23f e5ba
00000300: f326 a33b d3c4 0fb9 1a98 0cb9 4f1b 5bbb
00000310: 7801 c7bb 7020 abbb 05a0 603a 0bdb 883b
00000320: 205d 8cbb d312 053a 960d b1bb 53c3 7bba
00000330: 4e38 2eba c06e 82ba 65e1 8f3a 16af 5d3b
00000340: 3ad1 c73b cb24 cebb ed42 b83a 5939 e8bb
00000350: 2c45 debb fb55 bcbb 8175 71b7 5413 6f3b
00000360: 4a19 abbb 2fdb b63b 9073 e2bb 80ef 82bb
00000370: 81d6 bbbb 07dc 92bb 8f5c 8d3b 1951 d03b
00000380: b6ce e23a 8f62 9eba d91c a7ba c9f3 adba
00000390: 6d24 38bb 3fdc f2ba af97 803a 43ba 8b3b
000003a0: c30e 7dba 0f51 0a3b 0c75 16bb 0764 9c39
000003b0: 0086 95ba c74b b4b9 1d0d 043a 02a5 e93a
000003c0: 8113 38ba 9136 793a 2b89 27bb a143 063b
000003d0: 3acd 18b9 ca72 2d3a 0769 243b e9a7 fe39
000003e0: ec93 883a 2657 bc38 76fe 5f39 d610 dd3a
000003f0: 47ac 473a 0abb eb3a 5ade 98ba ea8b 70ba

base_model.model.bert.encoder.layer.0.attention.self.value.lora_A.weight f4 [16, 384]
0.010810954 -0.01498455 0.037675694 -0.022470493 -0.033231605 0.04263279 -0.04630367 -0.015596092
0.0040613627 0.02130328 0.009698105 -0.039118715 -0.04003284 -0.04987184 -0.010530809 0.05852966
-0.03395953 0.0331574 0.026792612 -0.05977498 0.012612963 0.03522067 0.0116291065 0.012585154
0.03860564 0.015928935 0.0042060846 0.013225781 -0.023938127 0.028657205 0.0031475683 0.04394818
0.04051294 0.0131275365 0.018909052 -0.012566904 0.0077556646 0.025490383 0.032655105 -0.03507114
-0.040609002 -0.026703278 0.047393255 -0.0040843375 0.007844958 0.019717244 -0.04779066 0.01352028
-0.008274157 -0.008366467 -0.03705429 0.04082789 -0.047353342 0.049740702 0.029534528 -0.03972795
0.03527464 0.0054391874 -0.033376127 -0.015401593 -0.02135658 -0.026192395 0.020396048 0.03700299
0.029753787 -0.031522457 -0.044893056 0.03913204 0.04312141 0.047711622 0.029225262 0.026374256
0.034177706 0.018071473 -0.00886315 -0.007513596 -2.4878225e-05 -0.010150308 -0.006495582 0.015930831
0.04417435 0.03584268 -0.043138433 -0.02302735 0.02486054 0.038060367 0.037007798 -0.018258886
0.056643594 -0.006306005 0.030235745 0.019857101 -0.02931538 0.02289116 -0.032488775 0.027856946
-0.036246207 -0.055163797 0.04287735 0.025469296 -0.02544537 0.0345567 0.032040257 -0.009897458
-0.05740204 0.047245108 -0.002773766 -0.015780367 -0.032147434 -0.008978408 0.04212004 0.037981186
-0.036059994 -0.037106987 0.037476875 -0.0057517276 -0.0057613165 -0.045491323 0.0036764238 -0.043722373
-0.00017734474 -0.03562675 0.01462301 -0.05997992 0.0063795834 0.021364318 -0.04162488 0.056662876
-0.041508887 -0.0220623 -0.022165725 0.023470495 -0.024427932 -0.016126476 0.060152493 0.05456557
0.058677614 -0.018594842 -0.026936358 0.005817317 -0.042095244 0.055067077 -0.058912616 0.005827497
-0.017158328 -0.039602317 -0.037732583 0.03738476 0.03234387 0.007957282 -0.019255249 0.026670918
-0.043068063 -0.0016898297 -0.026799763 0.01919193 0.042843655 0.020659115 -0.036970235 0.027592182
0.013775898 0.03109321 -0.0016487963 -0.029974613 -0.046735432 0.048833445 -0.038504258 0.051009744
-0.012399906 0.008825819 0.026746413 -0.042304758 0.05003875 -0.0070524383 -0.010559466 0.04634084
0.0035536275 -0.048716452 0.03068925 0.016558442 -0.010758252 0.0055553275 -0.0023560945 0.028997876
-0.009280952 -0.03659513 0.012944775 -0.040437616 -0.04874197 0.03888136 0.020419713 0.04192491
0.01590094 -0.02823729 0.040264785 0.051607054 0.020466939 -0.0046090903 0.053454943 0.03869295
0.01939894 0.03846308 0.0071406835 -0.01936444 -0.008203939 -0.00048854813 -0.02626446 0.023070209
0.040620465 -0.05647886 0.038680784 -0.018352587 -0.03000264 0.0006768661 0.022248821 0.04422881
0.021565031 -0.01188476 -0.05299976 0.023548987 0.041434523 -0.043126833 0.057945594 -0.044406023
-0.028282152 0.0506373 -0.023244044 0.016762396 -0.060325913 -0.052575596 0.046727046 0.036979903
-0.03938793 0.031982955 -0.030248083 0.015797377 0.032794185 0.025052965 -0.04728149 -0.024570432
-0.03684913 -0.022378867 -1.7258528e-05 0.038297266 0.026712324 0.020821832 -0.018629171 0.018012596
-0.0039235125 0.042331286 -0.013547937 0.010649547 0.0017952471 -0.012121027 0.023512587 -0.039416242
00000000: 6d20 313c c281 75bc d451 1a3d 0a14 b8bc
00000010: dd1d 08bd b89f 2e3d eba8 3dbd c086 7fbc
00000020: 2e15 853b 3784 ae3c cde4 1e3c f23a 20bd
00000030: 7af9 23bd 6a46 4cbd 6a89 2cbc ccbc 6f3d
00000040: 2619 0bbd 0ed0 073d 2e7c db3c 9cd6 74bd
00000050: 9aa6 4e3c 8d43 103d 0288 3e3c f631 4e3c
00000060: f320 1e3d 667d 823c 32d3 893b f2b0 583c
00000070: e419 c4bc 84c2 ea3c 6f47 4e3b 0203 343d
00000080: e6f0 253d e114 573c 28e7 9a3c 6ae5 4dbc
00000090: 3b23 fe3b 35d1 d03c 5cc1 053d c1a6 0fbd
000000a0: a055 26bd d5c0 dabc 6e1f 423d e8d5 85bb
000000b0: 2488 003c 0f86 a13c 24c0 43bd 2a84 5d3c
000000c0: 5490 07bc 8213 09bc 3dc6 17bd 253b 273d
000000d0: 94f5 41bd e8bc 4b3d 65f2 f13c c6b9 22bd
000000e0: 247c 103d 363b b23b 68b5 08bd f756 7cbc
000000f0: fff3 aebc 6f91 d6bc 9d15 a73c 7290 173d
00000100: 37be f33c b11d 01bd c8e1 37bd eb48 203d
00000110: 13a0 303d 436d 433d d169 ef3c d30e d83c
00000120: ecfd 0b3d a00a 943c bf36 11bc 9d34 f6bb
00000130: 95b1 d0b7 7a4d 26bc e4d8 d4bb 6081 823c
00000140: 2af0 343d c6cf 123d edb1 30bd daa3 bcbc
00000150: 55a8 cb3c 30e5 1b3d 7d95 173d a993 95bc
00000160: 1d03 683d 9ba2 cebb f4b0 f73c 5cab a23c
00000170: cf26 f0bc 3e86 bb3c f312 05bd 4034 e43c
00000180: e776 14bd 6ff3 61bd 29a0 2f3d fca4 d03c
00000190: cf72 d0bc 548b 0d3d a53c 033d f328 22bc
000001a0: 671e 6bbd 1684 413d 12c8 35bb d445 81bc
000001b0: 07ad 03bd 2c1a 13bc 1086 2c3d 2992 1b3d
000001c0: a5b3 13bd 7ffd 17bd 5a81 193d fd78 bcbb
000001d0: 6dc9 bcbb 1c55 3abd 28f0 703b 3b16 33bd
000001e0: 9ef5 39b9 5bed 11bd 5995 6f3c 81ad 75bd
000001f0: d30b d13b 3904 af3c da7e 2abd 5517 683d
00000200: 3905 2abd ffbb b4bc e594 b5bc 3245 c03c
00000210: 161d c8bc ac1b 84bc 7662 763d 2680 5f3d
00000220: f057 703d 3654 98bc a3a9 dcbc 319f be3b
00000230: 106c 2cbd 048e 613d 5b4e 71bd 97f4 be3b
00000240: 9f8f 8cbc 0a36 22bd 7b8d 1abd c320 193d
00000250: 017b 043d 425f 023c 2fbd 9dbc f87c da3c
00000260: 2368 30bd 477d ddba 2d8b dbbc 6538 9d3c
00000270: d47c 2f3d 4e3d a93c 1a6e 17bd 0009 e23c
00000280: 4eb4 613c 30b7 fe3c 6c1c d8ba 528d f5bc
00000290: a76d 3fbd 9405 483d a4b6 1dbd 98ef 503d
000002a0: fa28 4bbc 2b9a 103c 4b1b db3c c147 2dbd
000002b0: 6ff5 4c3d 2418 e7bb 9c01 2dbc e5cf 3d3d
000002c0: fae3 683b e78a 47bd 0668 fb3c 92a5 873c
000002d0: 6143 30bc 7709 b63b b568 1abb f48c ed3c
000002e0: 220f 18bc c6e4 15bd 5216 543c eaa1 25bd
000002f0: a9a5 47bd 1042 1f3d 3e47 a73c 74b9 2b3d
00000300: b042 823c e451 e7bc b0ec 243d eb61 533d
00000310: 48aa a73c da07 97bb 92f3 5a3d 807c 1e3d
00000320: 87ea 9e3c 768b 1d3d 65fc e93b 2da2 9ebc
00000330: d069 06bc e911 00ba 9128 d7bc bcfd bc3c
00000340: a561 263d 6156 67bd be6f 1e3d 2a58 96bc
00000350: 19c8 f5bc b76f 313a 2943 b63c 4529 353d
00000360: 26a9 b03c 4cb8 42bc 4716 59bd cee9 c03c
00000370: 3fb7 293d c3a5 30bd 5c58 6d3d 17e3 35bd
00000380: f9af e7bc 0f69 4f3d 4b6a bebc 4b51 893c
00000390: 4e18 77bd 8259 57bd dc64 3f3d 3d78 173d
000003a0: 3d55 21bd 8f00 033d d4ca f7bc 8069 813c
000003b0: 3253 063d e03b cd3c 3caa 41bd ee47 c9bc
000003c0: 1def 16bd e353 b7bc 68c6 90b7 98dd 1c3d
000003d0: ced3 da3c 8c92 aa3c 349c 98bc 278f 933c
000003e0: cf90 80bb 9263 2d3d 2bf8 5dbc 707b 2e3c
000003f0: 7f4e eb3a 4697 46bc 789d c03c ed72 21bd

base_model.model.bert.encoder.layer.0.attention.self.value.lora_B.weight f4 [384, 16]
0.0020123732 2.1315916e-05 -0.000986758 0.002562809 -0.0014591188 0.0014644577 -0.0023950038 -0.00040831207
0.0015436895 0.001772947 -0.0011458053 0.0007938138 -0.0009981331 -0.0017889128 -0.0013737335 0.0014741558
0.0026402797 -0.0032163146 -0.0016225058 0.0024364558 -0.0037677719 0.0016991061 -0.0026260891 -0.0034020587
0.0046608816 -0.0009439084 -0.0044241725 0.0023012718 0.003676234 0.0012999264 -0.0033634023 -0.002258757
0.0012093881 -0.0077830115 -0.0028472207 0.00087712274 -0.0017105166 0.0011886507 -0.0014378568 -0.007928299
0.0030165575 -0.0037139752 -0.0037311947 0.0033235708 0.00844991 0.0038507432 -0.0030520775 -0.005646273
0.00017682723 -0.0043094335 -0.0005783849 -0.0005261748 -0.0005035164 -0.00046943952 4.951561e-05 -0.0037015257
0.0008687846 -0.0026029616 -0.0020587712 0.0002173668 0.0044265576 0.0027637915 -0.00087005424 -0.0032232695
-0.0056629158 0.0017665545 0.0051389765 -0.005770641 0.0036185212 -0.0070128026 0.006669822 0.0011885706
-0.0036372745 -0.0002102258 0.0023594715 -0.0044793077 -0.0024207586 0.0008266338 0.0040230886 0.0009249173
-0.0017108609 0.0005622132 0.0021280106 -0.0034237523 0.0016017181 -0.003130733 0.0024363794 -0.00035385188
-0.0014959687 -0.0042849146 0.00072818145 -0.0019244336 8.4252606e-05 0.005267974 0.0017290396 -0.0009935742
-0.0028623734 0.0031477315 0.0011713196 -0.003444663 0.0021564388 -0.0021537822 0.0031783704 0.0036377085
-0.0019883644 0.0023256491 0.003927994 -0.0023005991 -0.0034570703 -0.0024843041 0.002027242 0.0029681642
-0.0035479553 0.0054080305 0.0043155793 -0.0039449264 0.0039182566 -0.0041082557 0.0037728741 0.0049867188
-0.0043444964 0.00033063075 0.004324061 -0.005056445 -0.0044192635 -8.127516e-05 0.0042271796 0.0033807023
0.003698817 -0.0020194727 -0.0034886268 0.0041566417 -0.003567295 0.0045019533 -0.0040317914 -0.0013348389
0.003544819 0.0020611857 -0.0026275357 0.0027124311 0.0015353119 -0.0026864244 -0.0035838997 -0.00054825784
0.001752526 0.0013556213 0.0005316784 0.00309779 -0.001231225 0.00091634225 -0.0025255072 0.0009781921
0.00061806035 0.0019555755 0.00022889375 -0.00083482085 -0.00040972664 -0.0016500327 -0.0012225136 0.0014557696
0.0029492222 0.0005132304 -0.0041930685 0.0026799021 -0.0034560678 0.0034380534 -0.002771009 0.0015173696
0.0034656124 0.0029768501 -0.0011166193 0.004166308 -0.0015176537 -0.003450307 -0.0035113262 0.0020778775
-0.0005076354 0.0023483227 0.00038802117 0.00059315655 0.0011664577 0.0018271664 -0.0009615618 0.002950576
-0.0018491088 0.0036207573 0.0023206377 -0.00084779924 -0.0030916107 -0.0039411425 0.0013433059 0.0029293604
0.004557551 -0.0034822596 -0.004731201 0.00498047 -0.0042002145 0.003020465 -0.0058457595 -0.00331599
0.0045745787 -0.0013616455 -0.0038848068 0.004252577 0.0043014903 0.001605405 -0.004832386 -0.002871297
0.004558737 -0.0065972526 -0.0054731583 0.0046958434 -0.004410322 0.0039013098 -0.004783272 -0.008269846
0.0058174976 -0.0020149674 -0.0062174867 0.0054691844 0.008421989 0.0019128578 -0.005583394 -0.0058342335
-0.0023844372 0.0045414707 0.004331346 -0.001647749 0.0029942375 -0.0025247023 0.0022770807 0.004047993
-0.0027120183 0.0007698561 0.004459109 -0.00493186 -0.0052233106 -0.0005056005 0.004029097 0.003526461
-0.002015358 0.0023176717 0.001350986 -0.0023846277 0.001795839 -0.001703423 0.002156736 0.0029904565
-0.002201663 0.002287661 0.001593516 -0.001473794 -0.002840339 -0.0023994634 0.0019535634 0.0026137466
00000000: 05e2 033b 95cf b237 1b56 81ba cdf4 273b
00000010: e73f bfba 0cf3 bf3a 7ff5 1cbb b812 d6b9
00000020: a055 ca3a 3b62 e83a d92e 96ba f117 503a
00000030: cad3 82ba f479 eaba d90e b4ba 7638 c13a
00000040: 8b08 2d3b cec8 52bb 43aa d4ba f2ac 1f3b
00000050: b9ec 76bb 8ab4 de3a 771a 2cbb 13f5 5ebb
00000060: 4fba 983b 9f70 77ba a6f8 90bb efd0 163b
00000070: f9ec 703b 4b62 aa3a 876c 5cbb a707 14bb
00000080: 5584 9e3a a208 ffbb 7098 3abb b6ee 653a
00000090: 6a33 e0ba 80cc 9b3a 7876 bcba b2e5 01bc
000000a0: 70b1 453b 2a66 73bb 0f87 74bb 44d0 593b
000000b0: 7e71 0a3c c05c 7c3b 5d05 48bb 5f04 b9bb
000000c0: b36a 3939 2636 8dbb c19e 17ba feee 09ba
000000d0: 6afe 03ba 1b1f f6b9 fbae 4f38 4c95 72bb
000000e0: 26bf 633a 7396 2abb 73ec 06bb f5ec 6339
000000f0: a80c 913b ba20 353b 5a14 64ba 7d3d 53bb
00000100: fb8f b9bb bc8b e73a dc64 a83b a517 bdbb
00000110: b624 6d3b a7cb e5bb 868e da3b d0c9 9b3a
00000120: 575f 6ebb 0f70 5cb9 5da1 1a3b 28c7 92bb
00000130: 97a5 1ebb 75b2 583a 1dd4 833b 2676 723a
00000140: f73e e0ba 7d61 133a 1876 0b3b 0861 60bb
00000150: bef0 d13a fc2c 4dbb aaab 1f3b 3285 b9b9
00000160: 6114 c4ba 7868 8cbb 6ee3 3e3a 473d fcba
00000170: c6b0 b038 f89e ac3b f1a0 e23a d13a 82ba
00000180: a896 3bbb 2c4a 4e3b f786 993a dbbf 61bb
00000190: 0a53 0d3b 7826 0dbb 354c 503b 9f66 6e3b
000001a0: 384f 02bb eb69 183b 67b6 803b a6c5 16bb
000001b0: 0490 62bb b5cf 22bb 7adb 043b 8885 423b
000001c0: d084 68bb d935 b13b b469 8d3b 7144 81bb
000001d0: b864 803b 8c9e 86bb 5342 773b a167 a33b
000001e0: 475c 8ebb 8258 ad39 dab0 8d3b 89b0 a5bb
000001f0: 78cf 90bb 4572 aab8 2784 8a3b c68e 5d3b
00000200: da67 723b 2159 04bb 72a1 64bb 7034 883b
00000210: 47c9 69bb 1f85 933b 1e1d 84bb c3f5 aeba
00000220: 3250 683b f514 073b bc32 2cbb 0bc3 313b
00000230: 853c c93a b90e 30bb dcdf 6abb f6b8 0fba
00000240: 04b5 e53a 1aaf b13a 5560 0b3a 4b04 4b3b
00000250: 0e61 a1ba b036 703a fb82 25bb ae36 803a
00000260: 5405 223a 1d29 003b 3303 7039 e1d7 5aba
00000270: 94d0 d6b9 e945 d8ba c03c a0ba 86cf be3a
00000280: bd47 413b 4f8a 063a 0266 89bb 4ca1 2f3b
00000290: 327f 62bb f750 613b d199 35bb 7ae2 c63a
000002a0: 541f 633b 4217 433b 875b 92ba 8685 883b
000002b0: 02ec c6ba 8c1e 62bb 471e 66bb 002d 083b
000002c0: d612 05ba 51e6 193b 526f cb39 107e 1b3a
000002d0: d3e3 983a 887d ef3a 5211 7cba 735e 413b
000002e0: cc5d f2ba 3a4a 6d3b d715 183b d83e 5eba
000002f0: 9f9c 4abb b324 81bb de11 b03a 83fa 3f3b
00000300: 8257 953b 9f36 64bb 3108 9bbb 3633 a33b
00000310: f4a1 89bb fef2 453b c98d bfbb 1551 59bb
00000320: 59e6 953b 3e79 b2ba 3e98 7ebb 3459 8b3b
00000330: 84f3 8c3b 746c d23a fe58 9ebb 5f2c 3cbb
00000340: 7561 953b c42d d8bb 2e58 b3bb 97df 993b
00000350: 7684 90bb 1ead 7f3b febc 9cbb 407e 07bc
00000360: b5a0 be3b 8b0d 04bb 0fbc cbbb d836 b33b
00000370: 62fc 093c dbb8 fa3a e7f4 b6bb 192d bfbb
00000380: 3844 1cbb 9ed0 943b f7ed 8d3b 48f9 d7ba
00000390: f83a 443b 7a75 25bb 133b 153b 07a5 843b
000003a0: 1ebc 31bb 2bd0 493a b81d 923b 719b a1bb
000003b0: 4e28 abbb 468a 04ba 8406 843b 331c 673b
000003c0: 1914 04bb 14e4 173b 9113 b13a 6a47 1cbb
000003d0: 5c62 eb3a 6445 dfba 0758 0d3b 89fb 433b
000003e0: c749 10bb 95ec 153b 86dd d03a 522c c1ba
000003f0: fb24 3abb 5140 1dbb 5b07 003b 644b 2b3b

base_model.model.bert.encoder.layer.1.attention.self.query.lora_A.weight f4 [16, 384]
-0.05080804 -0.020155273 0.047692273 0.026287127 -0.010164922 -0.05382407 -0.04670397 0.0036155658
-0.037740916 0.015183574 0.041823972 -0.0049788198 -0.009003778 0.045039665 -0.04432936 0.029945662
-0.011557235 0.013081411 -0.04787114 -0.030381473 -0.017453847 0.021704936 0.052161478 -0.03723339
0.0015982981 0.034254897 -0.013680162 0.050307352 -0.03758622 0.0020761697 -0.022673622 0.0013010248
0.023968695 0.046169322 0.03903546 0.026017893 -0.0155279245 -0.023253003 0.03961527 -0.046400532
-0.04480696 0.016309252 0.007457222 0.03933043 -0.0534973 0.01817927 0.00499246 -0.05253544
-0.04472603 -0.021416022 0.030325893 0.027227102 0.025344973 0.034615595 0.012719798 -0.01272429
-0.049995534 -0.023514502 -0.04445312 -0.04030467 -0.0037515068 -0.013880754 0.004768948 -0.0016479419
-0.041554723 -0.028365716 0.014016973 0.03195788 0.000624651 0.027119005 -0.027549189 -0.03880004
-0.041627552 0.002719414 -0.049202655 0.04592184 0.0068070474 -0.034991242 -0.031279277 -0.03697049
-0.013130693 0.02011738 0.041481763 -0.03795402 0.033609197 -0.017449806 0.03444852 -0.0072208988
-0.003763064 0.01927913 0.01908943 -0.04020202 -0.006284355 0.030862914 0.017242543 0.04118014
-0.019969285 0.032373775 0.03223497 -0.024857653 -0.039824992 0.04203604 0.014271082 0.0031549511
0.012348717 -0.041966077 -0.031455755 0.04450644 0.0027069212 0.019681608 -0.027778085 0.01141914
0.039847866 0.043820806 -0.03510457 -0.010641543 0.046304565 -0.0072024097 0.03253614 -0.05129679
-0.01027245 -0.042661738 -0.043134276 -0.02667506 0.022291193 0.03163677 -0.034133203 0.036158826
0.031340882 0.005861081 -0.039464537 0.023102574 0.03781938 -0.020893995 0.050890036 0.012593916
0.013074803 -0.0043210215 0.017796095 -0.023264457 -0.017570585 0.048032813 0.04652317 -0.03473839
0.0445738 0.014705057 -0.023114536 0.05212299 -0.048363682 -0.021228157 -0.027968306 -0.0035401434
-0.0505617 -0.013245446 -0.05151892 0.026105668 0.025544962 0.04731199 0.01357164 -0.025499102
0.032356586 -0.003977644 -0.049716245 0.032236114 0.016335733 -0.0032930702 0.0045021395 0.019240895
-0.018441236 -0.03209062 -0.008087114 0.039101522 0.001301313 0.050097626 -0.03799863 0.0005725051
0.0071356767 0.029876988 -0.0054603387 -0.028885743 0.0049804426 -0.006620806 -0.031320617 0.02846916
0.04466362 0.04045407 -0.040275905 0.008392566 0.03845637 0.028729344 -0.030216774 -0.045247078
0.013329896 -0.027683882 0.029736526 -0.038271777 -0.0035341014 -0.04259311 0.04134022 0.03740157
0.03337244 0.0056409976 0.006964208 -0.0225016 0.004027457 0.02135956 0.013830183 -0.03008999
-0.041782815 0.02030003 0.029716603 -0.047555577 0.0077344077 0.025586586 -0.020142488 -0.03472112
-0.0021319233 -0.05042227 -0.05095727 0.023022274 -0.027582988 0.043112114 0.03137395 -0.028302127
-0.036165822 -0.016330771 -0.0133913215 -0.012272849 -0.012401518 0.035092372 0.042641893 -0.028419327
-0.008018091 0.016138032 0.0267156 -0.020214487 0.03458976 -0.023707168 0.018397888 -0.03696014
0.014465849 -0.042818904 0.026902407 0.00014459588 -0.0053526913 0.04276833 -0.024239881 -0.03677541
-0.024265975 0.034474503 0.04010178 -0.047951654 -0.03284476 -0.042198803 -0.044461314 0.017517641
00000000: 171c 50bd ac1c a5bc f958 433d 1a58 d73c
00000010: c68a 26bc a176 5cbd a94c 3fbd 21f3 6c3b
00000020: 3896 1abd 86c4 783c 9d4f 2b3d 5e25 a3bb
00000030: 9584 13bc 837b 383d b492 35bd 9b50 f53c
00000040: 8f5a 3dbc 6a53 563c 8714 44bd 91e2 f8bc
00000050: 5ffb 8ebc 8dce b13c 46a7 553d 0a82 18bd
00000060: fc7d d13a dd4e 0c3d c222 60bc 150f 4e3d
00000070: 02f4 19bd 5910 083b 08be b9bc 2687 aa3a
00000080: ff59 c43c 0b1c 3d3d a6e3 1f3d 7a23 d53c
00000090: d668 7ebc 157d bebc 9f43 223d 7c0e 3ebd
000000a0: 8187 37bd fb9a 853c b65b f43b f218 213d
000000b0: fc1f 5bbd b1ec 943c ca97 a33b 672f 57bd
000000c0: a432 37bd a770 afbc 026e f83c 5f0b df3c
000000d0: 43a0 cf3c 15c9 0d3d b366 503c 8a79 50bc
000000e0: 1ec8 4cbd 7ca1 c0bc 7a14 36bd 8216 25bd
000000f0: d7db 75bb 1a6c 63bc d644 9c3b c1ff d7ba
00000100: 4935 2abd 385f e8bc 72a7 653c 44e6 023d
00000110: 9ebf 233a ad28 de3c d6ae e1bc caec 1ebd
00000120: a781 2abd 3238 323b b988 49bd 8a18 3c3d
00000130: a70d df3b fa52 0fbd b31e 00bd 5e6e 17bd
00000140: 1e22 57bc 34cd a43c c8e8 293d ad75 1bbd
00000150: cca9 093d e5f2 8ebc e419 0d3d 4a9d ecbb
00000160: bd9d 76bb 44ef 9d3c 7061 9c3c e0aa 24bd
00000170: feec cdbb 39d4 fc3c 3c40 8d3c 82ac 283d
00000180: a096 a3bc 5d9a 043d d108 043d 47a2 cbbc
00000190: 881f 23bd fc2d 2c3d 42d1 693c 4cc3 4e3b
000001a0: 4652 4a3c 9fe4 2bbd c0d7 00bd 634c 363d
000001b0: 9a66 313b 533b a13c de8e e3bc 5817 3b3c
000001c0: 8437 233d 727d 333d cfc9 0fbd de59 2ebc
000001d0: dba9 3d3d 3102 ecbb 9e44 053d 951c 52bd
000001e0: c74d 28bc 13be 2ebd 91ad 30bd a885 dabc
000001f0: 059c b63c 8f95 013d 42cf 0bbd 471b 143d
00000200: 4c5f 003d 500e c03b 91a5 21bd 9c41 bd3c
00000210: 7fe8 1a3d e229 abbc 1272 503d b656 4e3c
00000220: b337 563c 5b97 8dbb 1ec9 913c 1a95 bebc
00000230: 30f0 8fbc 0ebe 443d 148f 3e3d d849 0ebd
00000240: 0493 363d 7bed 703c b25a bdbc eb7e 553d
00000250: ff18 46bd ace6 adbc ca1d e5bc c001 68bb
00000260: c919 4fbd 6d03 59bc 8105 53bd 8edb d53c
00000270: ab43 d13c 38ca 413d 955b 5e3c 7ee3 d0bc
00000280: 5788 043d e556 82bb 43a3 4bbd 040a 043d
00000290: 84d2 853c 8dd0 57bb af86 933b 159f 9d3c
000002a0: 1312 97bc 7471 03bd d17f 04bc eb28 203d
000002b0: d290 aa3a 2b33 4d3d 74a4 1bbd 2b14 163a
000002c0: 65d2 e93b 96c0 f43c a4ec b2bb cba1 ecbc
000002d0: fb32 a33b 59f3 d8bb 0c4a 00bd 2838 e93c
000002e0: 33f1 363d 2bb3 253d 59f8 24bd f980 093c
000002f0: 6d84 1d3d cd59 eb3c 2b89 f7bc 0055 39bd
00000300: a365 5a3c 4fc9 e2bc 049a f33c dec2 1cbd
00000310: 629c 67bb 1d76 2ebd 5d54 293d 6332 193d
00000320: 8ab1 083d 1ed8 b83b 0334 e43b 4755 b8bc
00000330: c2f8 833b 3efa ae3c fe97 623c 487f f6bc
00000340: 7524 2bbd 404c a63c 3c70 f33c a3c9 42bd
00000350: ea70 fd3b f69a d13c dc01 a5bc bc37 0ebd
00000360: bdb7 0bbb 9587 4ebd 92b8 50bd 3599 bc3c
00000370: b8f5 e1bc 5496 303d f981 003d ddd9 e7bc
00000380: 9d22 14bd 1cc8 85bc 4667 5bbc 0f14 49bc
00000390: bd2f 4bbc 05bd 0f3d 44a9 2e3d a6cf e8bc
000003a0: 505e 03bc e833 843c adda da3c da98 a5bc
000003b0: fead 0d3d 8935 c2bc 2bb7 963c 8463 17bd
000003c0: 2b02 6d3c e062 2fbd 7062 dc3c a99e 1739
000003d0: a165 afbb d82d 2f3d b792 c6bc d0a1 16bd
000003e0: 70c9 c6bc 2335 0d3d c441 243d f468 44bd
000003f0: 3a88 06bd a7d8 2cbd 111d 36bd 2881 8f3c

base_model.model.bert.encoder.layer.1.attention.self.query.lora_B.weight f4 [384, 16]
-0.0026571674 0.0031835723 0.00029499904 0.005608931 0.006422502 -0.0011213747 0.006958704 -0.0020922148
-0.004645847 0.0056338334 0.004908651 -0.00651638 -0.0010062912 0.003779626 0.0044235317 -0.0025982615
-0.0019072401 0.0019398998 -0.00020842235 0.0003134266 0.0014201826 -0.0010006654 0.0015244521 -0.0016083367
-0.0015479182 0.0012092242 0.0013274376 -0.0013338447 0.001023347 0.0020144687 0.0013836414 2.955312e-07
0.0022319204 0.0008380015 0.0019689663 0.000712368 2.1049955e-05 0.0018579898 0.0020371908 -0.0009617565
0.0008168426 0.0004198018 0.00015390286 0.00049828814 -0.0043663015 -0.0018159753 -0.00039393667 -0.0037849005
-0.0021239473 0.00089528295 0.00055483053 0.001376196 0.0027443173 -0.0015039811 0.005060025 -0.00035516874
-0.0036347813 0.0013274115 0.0010296114 -0.0019246708 -0.0007945376 0.0032968393 0.0055812374 -0.0015980187
0.00015987344 0.0017140346 0.0024502196 0.0030345293 0.003152374 -0.0011152711 0.0045176423 -0.0019347218
-0.0036511498 0.0026414986 0.001993289 -0.003207044 -0.0023376015 0.0014434108 0.0043509537 -0.003383415
-0.002185654 0.0005497996 0.00026803068 0.0012783032 0.0027710241 -0.0020529656 0.0052301316 9.5659685e-05
-0.0042655366 0.0011606843 0.00079622166 -0.0021035238 -0.00065474113 0.003421279 0.0063092224 -0.0014963531
-0.0023608434 9.576647e-05 0.00049163145 -6.635199e-05 0.0019029162 -0.0022057844 0.004678157 0.00056708494
-0.0021503381 0.00011691112 7.374352e-05 -0.0005199771 0.00047708894 0.003249092 0.0045167683 -0.00070354005
-0.0026610505 0.0016276985 0.00023846325 0.0016718467 0.0033585934 -0.00082754577 0.0047612465 -0.0012760629
-0.004713994 0.0020882238 0.001913372 -0.0026005353 -0.00093865447 0.003660256 0.0044130245 -0.0015563798
0.00091029017 0.00064657896 0.0035649864 0.0015718774 0.0015342366 -0.000645152 0.0041969046 -0.0005330929
-0.0011494271 0.0006555785 0.0006377667 -0.0012980215 -0.001024042 -9.798632e-05 0.0028041503 -0.0018402254
0.0017647675 0.002040437 0.002786388 0.0027936315 0.0016728821 0.0039665704 0.0016582012 -0.0030237902
-0.00020607213 0.0022913083 0.0021106913 -0.0017302687 -0.0054986095 -0.0010658619 -4.398015e-05 -0.0045729163
0.0016181491 0.0003342863 -0.0010129156 -0.00040197512 -0.000816874 0.0026875734 -0.0036703176 -0.00083297165
0.0013207962 -0.00013480544 -5.9383317e-05 0.0003131154 7.5319927e-06 -0.0006162133 -0.0026507329 0.0006215693
0.0018262174 -0.0019117174 -0.00018901008 -0.001991006 -0.0026538493 0.0012905597 -0.003546665 0.00043902002
0.0025027464 -0.0020740204 -0.0022392322 0.002230256 -0.0003691525 -0.0023871406 -0.002308069 0.0009328934
-0.0030522444 -0.0014380061 -0.004477002 -0.0026567387 -0.002182712 -0.0021067336 -0.0046648225 0.0016159834
-0.00018245148 -0.0015964146 -0.0013405249 0.0011032793 0.0027888543 0.001969435 -0.002112372 0.0025643364
0.0023813352 -0.0047420617 -0.0017483878 -0.0033066233 -0.0039055562 0.00048920227 -0.004495155 0.0043763397
0.0028707609 -0.0035402447 -0.003843944 0.003468314 0.0018713066 -0.0029468394 -0.0028773993 0.003915356
-0.0018113639 5.051015e-05 0.0017308189 0.0007482417 0.001295102 -0.0030386606 0.0035892876 -4.3169468e-05
-0.0023668932 0.00041370638 -3.938193e-05 -0.0008957806 0.00016911281 0.0023844237 0.003023961 -0.002848903
-0.0020934015 -0.0013161827 -0.0025139253 -0.0024331212 -0.0017904394 -0.00085148064 -0.004478594 0.0023894985
0.00051689165 -0.0014243644 -0.0011943015 0.0012167931 0.004819684 0.00080313283 -0.0012921371 0.004457096
00000000: df23 2ebb 7ba3 503b 1aaa 9a39 20cb b73b
00000010: da73 d23b 17fb 92ba d705 e43b 8a1d 09bb
00000020: 303c 98bb 059c b83b c0d8 a03b 5b87 d5bb
00000030: 88e5 83ba 9ab3 773b 46f3 903b 9847 2abb
00000040: 5cfc f9ba 3c44 fe3a f38b 5ab9 6853 a439
00000050: 6c25 ba3a c228 83ba 20d0 c73a d3ce d2ba
00000060: 84e3 caba d57e 9e3a 6afd ad3a 67d4 aeba
00000070: d421 863a 2d05 043b 4d5b b53a 80a9 9e34
00000080: 6945 123b 54ad 5b3a c609 013b 35be 3a3a
00000090: 6f94 b037 cb87 f33a 6482 053b 631e 7cba
000000a0: 6121 563a d818 dc39 fc60 2139 8d9f 023a
000000b0: 3113 8fbb 0506 eeba 4989 ceb9 180c 78bb
000000c0: ec31 0bbb 6cb1 6a3a 0c72 113a 7a61 b43a
000000d0: 01da 333b 3b21 c5ba 91ce a53b f135 bab9
000000e0: 8335 6ebb 8afc ad3a 07f4 863a 3c45 fcba
000000f0: 8448 50ba c90f 583b d0e2 b63b 9c74 d1ba
00000100: b3a3 2739 75a9 e03a dd93 203b f4de 463b
00000110: 0f98 4e3b 4a2e 92ba bb08 943b 7e96 fdba
00000120: 2148 6fbb fe1c 2d3b d7a1 023b 452d 52bb
00000130: 7232 19bb d430 bd3a 7292 8e3b 49bc 5dbb
00000140: 303d 0fbb 6d20 103a 7886 8c39 bd8c a73a
00000150: 129a 353b 0c8b 06bb 8661 ab3b e79c c838
00000160: eac5 8bbb 1a22 983a 88b9 503a 46db 09bb
00000170: efa2 2bba 8937 603b 98bd ce3b 4721 c4ba
00000180: 61b8 1abb 3bd6 c838 d4e0 003a 7426 8bb8
00000190: 466b f93a ec8e 10bb 3a4b 993b 6da8 143a
000001a0: b0ec 0cbb 2e2e f538 c0a6 9a38 134f 08ba
000001b0: cb21 fa39 b8ee 543b 6601 943b c66d 38ba
000001c0: 0565 2ebb 8058 d53a fe0b 7a39 de21 db3a
000001d0: d91b 5c3b a8ef 58ba 3b04 9c3b 9141 a7ba
000001e0: d977 9abb 95da 083b 1cca fa3a be6d 2abb
000001f0: 0910 76ba e8e0 6f3b 229b 903b 71ff cbba
00000200: 8aa0 6e3a 2e7f 293a 8ca2 693b 7407 ce3a
00000210: 7018 c93a 6b1f 29ba 3086 893b 42bf 0bba
00000220: 60a8 96ba 21db 2b3a cc2f 273a 6022 aaba
00000230: 2639 86ba 017e cdb8 d6c5 373b b833 f1ba
00000240: c54f e73a dab8 053b d59b 363b 5c15 373b
00000250: 9c44 db3a 01fa 813b 0058 d93a c82a 46bb
00000260: 1115 58b9 c629 163b 8653 0a3b 2fca e2ba
00000270: ae2d b4bb 64b4 8bba 5477 38b8 67d8 95bb
00000280: 1318 d43a 2643 af39 cfc3 84ba 30c0 d2b9
00000290: 7c23 56ba 0022 303b b689 70bb c85b 5aba
000002a0: 911e ad3a 8f5a 0db9 5a12 79b8 a329 a439
000002b0: 53bb fc36 6089 21ba ebb7 2dbb cff0 223a
000002c0: b05d ef3a 9792 faba 0231 46b9 8a7b 02bb
000002d0: 34ec 2dbb ff27 a93a 2a6f 68bb 452c e639
000002e0: 1e05 243b 4aec 07bb 15c0 12bb 7d29 123b
000002f0: cf8a c1b9 9371 1cbb f942 17bb 6b8d 743a
00000300: 2a08 48bb 7a7b bcba d1b3 92bb ae1c 2ebb
00000310: d50b 0fbb 2011 0abb 5edb 98bb 68cf d33a
00000320: 7250 3fb9 c93e d1ba 8db4 afba e99b 903a
00000330: 36c5 363b a311 013b b96f 0abb 6d0e 283b
00000340: 2d10 1c3b 4c63 9bbb 292a e5ba efb3 58bb
00000350: 5cf4 7fbb cf3d 003a 184c 93bb 6667 8f3b
00000360: 6023 3c3b 7303 68bb aeea 7bbb a74c 633b
00000370: a146 f53a c31f 41bb c092 3cbb 634c 803b
00000380: 496b edba dcda 5338 a5dc e23a a725 443a
00000390: 69c0 a93a 4424 47bb 413a 6b3b dd10 35b8
000003a0: e11d 1bbb bbe6 d839 062e 25b8 d2d2 6aba
000003b0: e053 3139 fe43 1c3b a62d 463b a9b4 3abb
000003c0: 7331 09bb c383 acba abc0 24bb 0075 1fbb
000003d0: 2dad eaba e635 5fba 2bc1 92bb 2299 1c3b
000003e0: 0380 073a bdb1 baba 1c8a 9cba cd7c 9f3a
000003f0: 71ee 9d3b 5589 523a ed5c a9ba d50c 923b

base_model.model.bert.encoder.layer.1.attention.self.value.lora_A.weight f4 [16, 384]
-0.04367747 -0.050325546 0.010353404 -0.019153861 -0.038042493 0.053959325 -0.013468393 0.035614412
0.011178012 0.048899274 0.039352987 -0.04451343 0.021457236 -0.013174006 0.021339918 0.033796627
0.0011911677 0.04263106 0.00015238443 -0.038714442 -0.018704522 0.034373995 -0.011241886 -0.012000879
-0.024839658 -0.01895237 0.039504867 0.01169295 -0.012358324 0.050413944 0.019360565 0.005375556
-0.028790617 0.001180202 0.039212596 0.04415189 0.054117378 -0.05012449 -0.0019191309 -0.005941736
-0.048363324 0.026480086 0.0021741688 0.051553752 -0.01941697 -0.038328726 0.0429652 0.008723706
0.028747382 -0.042495668 -0.046631396 0.053550314 0.048776306 0.040586505 -0.005339464 -0.04933437
0.016804231 0.00673981 -0.040356472 -0.0007387805 0.042416528 -0.010206924 -0.012165313 -0.043829728
0.016001059 -0.036923382 0.0022314752 0.04157901 0.025994001 -0.0058808164 0.016979765 0.028055022
-0.034628924 0.032430146 0.007189304 0.02292321 -0.021258581 -0.04259184 0.02919408 0.008680899
0.012294384 0.017396634 -0.0057721967 0.0426772 0.036605176 -0.00676767 0.01594352 0.03841407
0.016933857 -0.032102093 -0.032950576 -0.0071009086 0.024034053 0.042573955 -0.031012239 -0.048423596
0.021618944 0.05068639 -0.024227584 0.049180858 -0.002783341 -0.0074473354 0.04347104 0.035298467
-0.04538741 0.021358818 -0.04916169 -0.009096571 -0.04604841 -0.030957285 -0.03990998 0.043920085
-0.029524563 0.031454664 -0.052214924 -0.041734997 -0.0107682 -0.02885911 -0.04585322 -0.048135687
0.04430072 0.03746426 0.006672025 0.004336587 -0.0537087 -0.03807676 0.015760845 0.033260416
0.009442304 0.036465455 0.040467493 -0.027001446 -0.03640795 0.00022996066 0.023758015 0.008553283
0.0068536815 -0.017576307 0.049950153 0.0067352606 0.02154226 0.032735415 -0.021855377 0.02150397
-0.041758806 -0.046294503 -0.048752934 -0.016612403 -0.003000031 0.0054632793 0.0044652014 -0.008008571
0.007932993 -0.015129963 0.04894727 -0.037688885 0.007952448 0.04541997 0.050960477 -0.028558357
-0.03335277 -0.034700166 0.017558038 -0.019272892 -0.016796524 0.017159523 -0.016521 -0.022536084
-0.013284134 -0.014872176 -0.054882467 -0.038257882 -0.018897116 -0.04087501 0.050621264 -0.0044747633
0.023109626 -0.012591952 0.031894244 -0.044232227 0.0004820909 0.028026538 0.025562951 0.0068267863
0.03207363 -0.0022447666 0.013859208 -0.0028054332 -0.008643582 -0.025831357 -0.051138084 0.018544702
-0.010050973 -0.040666346 0.04908646 -0.020198306 0.009452005 -0.030436374 -0.026569817 -0.033171106
-0.001995824 0.019813037 0.038876966 -0.056887113 0.038822126 -0.014403026 -0.0052124998 0.010589436
-0.042193536 0.00753747 0.043254178 0.004947789 -0.031410325 0.042866938 0.016862793 -0.004838815
0.014941876 0.021696625 -0.036051434 0.03637513 0.027360119 0.010134313 0.037305925 -0.025120813
-0.0048700552 0.04287874 -0.022029826 -0.026925405 0.030679198 0.026579594 -0.03629062 0.00801587
0.046110515 -0.04064276 0.03895577 -0.025146278 -0.043639313 0.018201765 -0.02180668 0.010233862
0.01215433 0.041829154 0.037772734 0.021933693 0.022145167 -0.02786497 -0.046465978 0.037871312
-0.0069705076 0.013071478 0.050065704 0.0037826323 -0.024086133 0.0134909 0.02628691 0.029025
00000000: 26e7 32bd 2922 4ebd 53a1 293c 8fe8 9cbc
00000010: 72d2 1bbd 7404 5d3d 89aa 5cbc 6be0 113d
00000020: fb23 373c 9b4a 483d 9930 213d b753 36bd
00000030: 16c7 af3c c9d7 57bc 0dd1 ae3c 556e 0a3d
00000040: f520 9c3a e89d 2e3d 62c9 1f39 0993 1ebd
00000050: 3a3a 99bc bfcb 0c3d e32f 38bc 569f 44bc
00000060: 8a7c cbbc 0042 9bbc dbcf 213d c993 3f3c
00000070: 917a 4abc da7e 4e3d 0c9a 9e3c 6f25 b03b
00000080: 4dda ebbc 02b1 9a3a 639d 203d 9dd8 343d
00000090: 2faa 5d3d 564f 4dbd 598b fbba e5b2 c2bb
000000a0: 9f18 46bd c4ec d83c 807c 0e3b 072a 533d
000000b0: 5610 9fbc 95fe 1cbd 47fc 2f3d e0ed 0e3c
000000c0: a17f eb3c f00f 2ebd 9000 3fbd 9357 5b3d
000000d0: aac9 473d 093e 263d acf6 aebb d612 4abd
000000e0: 07a9 893c a0d9 dc3b d44c 25bd b8aa 41ba
000000f0: f4bc 2d3d f13a 27bc 0551 47bc cd86 33bd
00000100: a714 833c f93c 17bd f13d 123b c14e 2a3d
00000110: 5ff1 d43c ddb3 c0bb 2619 8b3c a5d3 e53c
00000120: 0fd7 0dbd 79d5 043d 4194 eb3b 75c9 bb3c
00000130: 7a26 aebc c874 2ebd 6c28 ef3c 543a 0e3c
00000140: 626e 493c 6383 8e3c b224 bdbb 4ace 2e3d
00000150: 4fef 153d 55c3 ddbb fc9b 823c 1258 1d3d
00000160: dfb8 8a3c 7c7d 03bd 2ff7 06bd bdae e8bb
00000170: 10e3 c43c 0762 2e3d 610d febc d257 46bd
00000180: 361a b13c 889c 4f3d ed78 c6bc de71 493d
00000190: b768 36bb c708 f4bb b00e 323d 2095 103d
000001a0: 26e8 39bd b0f8 ae3c c55d 49bd c909 15bc
000001b0: 429d 3cbd 229a fdbc a678 23bd 8ce5 333d
000001c0: 7fdd f1bc 9bd6 003d 51df 55bd 51f2 2abd
000001d0: 1b6d 30bc f169 ecbc 96d0 3bbd ed29 45bd
000001e0: ac74 353d 2074 193d 01a1 da3b ee19 8e3b
000001f0: a7fd 5bbd 60f6 1bbd e31c 813c 133c 083d
00000200: e5b3 1a3c cd5c 153d 3ec1 253d 2332 ddbc
00000210: 8120 15bd 9821 7139 2ba0 c23c 1223 0c3c
00000220: d994 e03b 30fc 8fbc 8898 4c3d 76b3 dc3b
00000230: 6579 b03c 9215 063d 0c0a b3bc 1829 b03c
00000240: 480b 2bbd 4e9f 3dbd 28b1 47bd bc16 88bc
00000250: 2b9c 44bb 4f05 b33b d350 923b 6236 03bc
00000260: 62f9 013c aae3 77bc ef7c 483d a95f 1abd
00000270: fc4a 023c 4a0a 3a3d efbb 503d 37f3 e9bc
00000280: ea9c 08bd c321 0ebd e0d5 8f3c 2fe2 9dbc
00000290: dd98 89bc 2192 8c3c 0c57 87bc 989d b8bc
000002a0: b2a5 59bc 6daa 73bc 70cc 60bd 4cb4 1cbd
000002b0: 20ce 9abc 8e6c 27bd 3e58 4f3d 09a1 92bb
000002c0: 6650 bd3c 7a4e 4ebc 8aa3 023d da2c 35bd
000002d0: 25c1 fc39 e997 e53c 6569 d13c 3cb3 df3b
000002e0: a35f 033d ef1c 13bb bb11 633c 5cdb 37bb
000002f0: d09d 0dbc 489c d3bc 2b76 51bd 0feb 973c
00000300: d6ac 24bc c191 26bd e20e 493d eb76 a5bc
00000310: 95dc 1a3c b455 f9bc f2a8 d9bc 6dde 07bd
00000320: 5fcc 02bb f34e a23c 743d 1f3d 7602 69bd
00000330: f303 1f3d abfa 6bbc 9ecd aabb 507f 2d3c
00000340: 21d3 2cbd e2fc f63b 4b2b 313d 1021 a23b
00000350: 1da8 00bd 3e95 2f3d d723 8a3c ec8e 9ebb
00000360: c5ce 743c 1fbd b13c abaa 13bd 17fe 143d
00000370: 5422 e03c 640a 263c 19ce 183d 2aca cdbc
00000380: fc94 9fbb 9ea1 2f3d e577 b4bc ab92 dcbc
00000390: f152 fb3c 73bd d93c 79a5 14bd ff54 033c
000003a0: 61de 3c3d 0679 26bd 1690 1f3d 91ff cdbc
000003b0: 23bf 32bd de1b 953c eca3 b2bc eeab 273c
000003c0: f422 473c 0c55 2b3d 95b7 1a3d 4aae b33c
000003d0: c869 b53c 1445 e4bc 1c53 3ebd f31e 1b3d
000003e0: db68 e4bb c129 563c b211 4d3d 0ae6 773b
000003f0: 4850 c5bc f008 5d3c a557 d73c d6c5 ed3c
