lora_crossencoder_has_instruction_r_4 la_16 ld_0.1/checkpoint-3096/adapter_model.safetensors (safetensors, 152508 bytes, 25 tensors)

base_model.model.bert.encoder.layer.0.attention.self.query.lora_A.weight f4 [4, 384]
00000000: 56b6 bbbc 0540 093b 1cc5 0ebc e809 3d3b
00000010: 15f5 5bbc 639a a03c 86ee 233c 5f6f ac3c
00000020: 5ea7 593d a038 eabc e50e 053d 5954 91bc
00000030: c686 83bc 77f3 46bd b8d1 a5bc 0040 d2bb
00000040: 60e0 2a3d fcd4 af3b e3dd 59bc ebe3 5e3c
00000050: 80a9 04bc 8934 cabc 6c60 ab3c 72a6 083d
00000060: f709 34bd 4aa8 063b bd07 2fbd a41b 913c
00000070: c60e 1d3d 04f8 283d 3767 bcbc 6988 39bd
00000080: 68f3 28ba cf92 b83c 0f4e 53bd 1942 b8bc
00000090: 0009 993c 01da ce3c 3cb0 653c 7081 1b3d
000000a0: 76ce cfbc 9ef6 c43c ecda 21bd 4601 0f3d
000000b0: af69 10bd d79c 033c 661d 06bd 22d0 78bc
000000c0: 3e93 26bd 706c 94bc 1645 b83c d362 ef3c
000000d0: 1e44 efbc 162c 18bc b96d 55bd 24e8 ff3a
000000e0: 44c6 023d df9d d33c e8c6 2cbc d60a bdbb
000000f0: 094b ddbb 0b28 cb3c 311f c83c 8629 b03a
00000100: efdb 983c 2b28 303d eda2 4abc cd19 123d
00000110: 6d7c 553b 88a4 00bd b4fd 2fbd 2165 f23a
00000120: c7a2 22bd c875 06bc 18d3 bf3c 69c7 933c
00000130: cc8d 953c 5e57 21bd c3dd 003d df97 203c
00000140: b043 1c3d 7b8e a53b f36c b03c d94c bbbc
00000150: e7b5 51bd 24ed ba3c 3972 183c dd19 193d
00000160: 7752 503d 3d39 003c 24f8 2bbd 1011 fa3c
00000170: 9976 e73c d0e9 2f3d 0de8 1c3d e1ad 15bd
00000180: de14 b0bc 9963 b5bc 568b 4ebc adeb e5bb
00000190: 00c8 a13c aa15 d43c 6fb2 e8bc 9e44 a5bc
000001a0: 1854 d6bc 515b 943c 65e5 a4bc ccb1 6ebb
000001b0: dc65 37bb 7453 a93c 1b55 f23b 6173 4e3d
000001c0: 4905 b63c b140 cabb ed67 00bd 971a a73c
000001d0: eb1f 5abd afcc 49bd d959 1b3d ab09 53bd
000001e0: 4694 193c c811 12bc 7af3 813c 8b1c f6bc
000001f0: e38e 3dbd 7e56 48bc a397 b73c 8843 dd3c
00000200: d094 d03c 665e 393d 8136 893c fa9e 703c
00000210: 1a70 ccbc 91f9 e2bc 08ce 243c 758c 293d
00000220: 9a82 d0bc 0160 9d3c b92b 103d c484 3dbd
00000230: 2e3f d33b d20e 573d 435f 66bd febe db3c
00000240: b9f4 2c3d 9485 f5bb f6dc 2fbc 70d7 dc3c
00000250: f1b3 04bc f0ba 83bb 37d0 05bd 7b37 973c
00000260: 1274 173c 0727 8e3c 42cc 4cbd cdfe 63bc
00000270: 9bc7 08bd 2ad4 10bd f70e 753c 8d9d d4bc
00000280: 8c57 0cbd 8d72 97bb f3bb 883c e24f ff3b
00000290: 1767 8c3c 7808 b33c bb4a e93c b772 fd3c
000002a0: e685 193d 66df bb3c 6dba f9bc dfc5 adbb
000002b0: 2134 2cbc 0b72 d13c d9fc 0cbd 41fd 1bbc
000002c0: 1e49 37bd 2c76 39bc a19f 743b dd7b e33b
000002d0: de6f 34bd c174 6e3b 7b4a 923b 39e9 13bd
000002e0: 254b 02bd 78ef f3bc b637 3c3d 5e16 1dbd
000002f0: 57e0 513c 493b 303c f10a 40bd bdf7 cb3c
00000300: 98ef 1d3d e184 6abd 63b1 13bd 047b 40bc
00000310: c9ea fbbc 0f77 d13c bd1c ef3c a357 8cbc
00000320: d7c4 4f3d 26b3 1fbc 8fac f93c 225e b4bc
00000330: 3b7a 43bd 6750 e2bc 70a6 3c3d 622b 3d3c
00000340: cf1c 0ebc e2fe 46bd 96b4 303d dc41 0b3c
00000350: b945 2eba 73ce 583d 63f3 233d 8325 103d
00000360: f394 44bc e41e 403c 13e6 1cbd 5c79 38bd
00000370: 4159 173d ef61 a33b 895f 0d3d 0ca3 213d
00000380: fa75 8ab9 df1d c13b 201b 08bd 5ab7 4e3c
00000390: f2f0 5dbd 1480 9e3c 0438 ed3c ae15 423d
000003a0: 528c 21bd 9030 e53c 4b76 3fbd dc5b 4c3d
000003b0: b610 7a3c ee15 273d a7c6 573c 4af8 b4bc
000003c0: 15be 483c fedf 28bd 3207 293c 7cf5 1dbb
000003d0: 9ece 03bd 6e44 373d c72f 103d bb5b ebbc
000003e0: 68ee 44bb 90ae 0f3d 84fe 943c 46cd 06bd
000003f0: 5b09 0fbd cd1d 023d 018e 9bbc 18ae 9abb
-0.022914093 0.00209427 -0.008713987 0.0028845016 -0.013425131 0.019604867 0.010005599 0.0210492
0.05313813 -0.028591454 0.032484908 -0.017740415 -0.016055476 -0.04857203 -0.020241603 -0.006416321
0.041717887 0.005365966 -0.013297531 0.013604145 -0.008097053 -0.024683254 0.020920001 0.03336186
-0.043954816 0.0020547085 -0.04273199 0.017713375 0.038344167 0.04125215 -0.022998435 -0.045296106
-0.0006444962 0.022530941 -0.051588114 -0.022492455 0.01868105 0.025250437 0.014019068 0.037965238
-0.025367003 0.024043377 -0.03951542 0.034913324 -0.035257038 0.008032999 -0.03274288 -0.0151863415
-0.040667765 -0.018118113 0.02249388 0.029221928 -0.029207285 -0.009287855 -0.052106593 0.0019524139
0.031927362 0.025832115 -0.01054547 -0.005769114 -0.0067533297 0.024799367 0.024428936 0.0013440109
0.01865956 0.043007057 -0.012367946 0.035669137 0.0032575384 -0.03140691 -0.04296656 0.0018493274
-0.039706018 -0.008206792 0.023416087 0.018039422 0.01825609 -0.03938996 0.03146149 0.009801834
0.03815049 0.0050523854 0.021536326 -0.022863792 -0.051198866 0.022818156 0.009304577 0.03737818
0.050859895 0.007826147 -0.041984692 0.030525714 0.028254794 0.04294759 0.03830724 -0.036542777
-0.021494325 -0.022142218 -0.012606462 -0.00701662 0.019748688 0.025889236 -0.028405396 -0.02017432
-0.026163146 0.01810995 -0.020128915 -0.0036421893 -0.0027984297 0.020669676 0.0073953993 0.050403003
0.022219317 -0.0061722626 -0.03134911 0.020398421 -0.053253096 -0.049267467 0.037927482 -0.051522892
0.00937373 -0.008915372 0.015863169 -0.030042907 -0.046278846 -0.012227653 0.022411173 0.02700974
0.025461584 0.04525604 0.016749622 0.0146863405 -0.024955798 -0.027706893 0.010058887 0.041393716
-0.0254529 0.019210817 0.035197947 -0.046269193 0.0064467406 0.052504368 -0.056243192 0.02682447
0.042225573 -0.0074927304 -0.010733834 0.026958197 -0.008099542 -0.0040200874 -0.032669272 0.018459072
0.009243982 0.017352594 -0.049999483 -0.01391573 -0.033393484 -0.035358585 0.014957181 -0.025954032
-0.03426318 -0.00462181 0.016691184 0.007791505 0.017139 0.021854624 0.028478017 0.03093849
0.03748121 0.022933673 -0.030484403 -0.005303129 -0.010510475 0.025567075 -0.03442082 -0.00952083
-0.044747464 -0.011319678 0.0037326592 0.006942256 -0.044051997 0.0036385509 0.004464445 -0.03611109
-0.031809945 -0.029777274 0.045951568 -0.03835141 0.012809834 0.010756322 -0.046885435 0.024898404
0.038558573 -0.05725563 -0.03605784 -0.011748079 -0.030751603 0.025569467 0.029188508 -0.017131632
0.05072483 -0.009747302 0.03047779 -0.022017542 -0.04772399 -0.02762623 0.046057165 0.011545988
-0.008673861 -0.04858292 0.04314097 0.008499589 -0.0006647963 0.05293126 0.040027034 0.035192024
-0.011998403 0.011726115 -0.038305353 -0.045037612 0.036950354 0.00498604 0.034514938 0.039462134
-0.0002640931 0.0058934535 -0.033228993 0.012616957 -0.05418486 0.019348182 0.028957374 0.047383957
-0.03944046 0.027977258 -0.046743672 0.04989229 0.015262773 0.0407924 0.013169921 -0.02209105
0.01225235 -0.04122924 0.010316657 -0.002410262 -0.032179467 0.044742994 0.035201814 -0.028730264
-0.0030049328 0.035078585 0.018187769 -0.032910608 -0.03492103 0.0317667 -0.018988611 -0.0047204606

base_model.model.bert.encoder.layer.0.attention.self.query.lora_B.weight f4 [384, 4]
00000000: 3bf7 8bbb 26f0 84bb e21a 4bbb bb41 8c3b
00000010: b9c6 28bb 34b9 9abb 107a 18bb 13d0 743b
00000020: a2af 373b da92 7f3b 246e c53a 37c3 19bb
00000030: 2bc7 883a 261c 99b9 8a9d fdb8 484b 16bb
00000040: 6230 f13a 0815 743a 771d 7e3b cf79 c8ba
00000050: e9fc 0fbb 25a7 72bb 57c6 18bb 3daf 5c3b
00000060: 7a60 36b9 042d 3cbb 4c2b 533b 570f ef3a
00000070: 50bf 5bbb ae24 8abb fe3d c5ba 4cb5 513b
00000080: eee4 393b 8d3d 563b 9204 403b 81e9 53bb
00000090: 3e4c b9bb fd75 cfbb 7aa2 a3bb 5cce aa3b
000000a0: d157 883b 3484 ac3b 319f 603b 2d24 b2bb
000000b0: 6997 d13a f2c2 113b 16f6 f73a 7b00 a9ba
000000c0: b5da 69bb a5e1 e8bb 7d55 faba 9b7d df3b
000000d0: 20aa d1bb a514 f7bb b0d8 80bb 32ce bf3b
000000e0: 8736 d2ba 298d 44bb d562 81ba 12cd fc3a
000000f0: 56ad 8b3a 1f3c 6539 7ec1 f23a f9d1 5dba
00000100: dfbd 2dbb bffc 4cbb 0afb d6b9 88bf 1b3b
00000110: 2d1c 01bb 4d83 46bb 9a53 07bb 1a9b 4b3b
00000120: e536 373b bbdf ca3a 965c b23a 204c 61bb
00000130: 928c 623b f6ab 863b 68a5 1d3b 69a5 1abb
00000140: b2fa 863b 1792 bb3b e9f3 8e3b 951b 97bb
00000150: 33ac 37bb ed2b 5fbb e3f0 abba 1f5a fa3a
00000160: eb6f 073b b548 c03a e671 233b 8a13 c1ba
00000170: 4a8f 9bba 0e58 1abb c24e 1cbb 83fa 303b
00000180: 1246 5cbb d46f 67bb d581 66bb a8c8 5e3b
00000190: 47f1 a6bb ee79 84bb fd61 88bb 25ea 833b
000001a0: 4470 8138 9119 8f3a a8eb 5a3a cefa 1dbb
000001b0: 1c3b 9dba dc50 53bb 2d40 eaba 0d57 263b
000001c0: 877f 2cba d306 d4ba 35d6 40ba bdcf 9d3a
000001d0: 6b4a a83b 0a6b c13b ce98 eb3b d9ee c9bb
000001e0: 626e 2abb f399 8bbb e26d e2ba 2eeb 6a3b
000001f0: eabd 6f3b b0dd 723b 85f4 773b c260 67bb
00000200: cf03 28bb 243a 67bb 2777 2fbb 587a 673b
00000210: e7ec 2b3b 26c7 6c3b 5376 383b 1d77 9bbb
00000220: 0b38 06bb 7874 3dbb 84cb 05bb c192 4b3b
00000230: c59f 39bb 27b3 77bb 00b8 42bb a613 8f3b
00000240: 552d 243b 41ec 5b3b 2584 323b 4075 6abb
00000250: 57ba 373b 2712 743b 91ea 383b 3fe2 7dbb
00000260: 606f 22bb 6f4d 62bb ce94 25bb 307c 6e3b
00000270: 8ad7 d3ba 9862 12bb 0d9b b6ba 5481 023b
00000280: d8a4 15bb 48cd 55bb ec0a 12bb 4462 6c3b
00000290: 703d f93a aabd 213b 1b66 ff3a 5543 1ebb
000002a0: e9eb 0e3b b8ba 3c3b a840 123b fc21 45bb
000002b0: edde 34bb 6f52 82bb 2a45 32bb a08e 9d3b
000002c0: 9fc0 0c3b e1c6 2d3b 95c5 133b 0b0a 2ebb
000002d0: 4b78 3abb 2f11 82bb 3c3e 40bb d062 893b
000002e0: b2ba 4e3a 71e7 863a d827 213a dab6 f7b9
000002f0: f420 18bb 5789 51bb a5c1 16bb 3f99 533b
00000300: df58 48bb e95e 67bb 228b 7cbb d5b0 8a3b
00000310: d3eb 22bb 296f 5abb 0582 24bb 61c6 5a3b
00000320: 311d cc3a 0878 1b3b 82c2 a03a a507 4bbb
00000330: bdfc 64bb 2ff9 a2bb 8486 6dbb 1476 ae3b
00000340: 5afd 033b f841 323b ef59 093b 572a 37bb
00000350: 9742 d03a fe1d 143b 46d2 de3a 7538 2abb
00000360: 2ddd d93a 64bc 803a ebfb 0e3b 0e57 c0b9
00000370: cb52 1abb d82a 5cbb a6ac 18bb 952e 7b3b
00000380: a607 e8ba 869b 27bb 790a e3ba 70cd 5d3b
00000390: 5339 b83a 2a28 0b3b 2067 aa3a 997b eaba
000003a0: 8f0c 18bb f833 50bb 9be6 18bb 9114 503b
000003b0: 8ac8 2dbb 07f1 6abb e57c 2abb 41ba 653b
000003c0: adc4 22ba 3a7f 25ba 0ada b4b9 d190 c0b9
000003d0: acd7 11bb c98e 38bb 77db 0fbb 57fc 1a3b
000003e0: 5461 10bb e7af 3ebb 38cd 0fbb 439a 2f3b
000003f0: b128 27bb 6fff 41bb 8fca 35bb bf24 273b
-0.0042714155 -0.0040569482 -0.0030991365 0.0042802966 -0.0025753214 -0.004721785 -0.0023266114 0.0037355467
0.002802827 0.0038997442 0.0015062732 -0.0023462304 0.0010435333 -0.00029203406 -0.00012093324 -0.0022933055
0.001840126 0.0009310995 0.0038774887 -0.0015295091 -0.0021970815 -0.0037025895 -0.002331158 0.0033673786
-0.00017392813 -0.0028713355 0.0032221852 0.0018238825 -0.003353078 -0.0042157983 -0.0015048382 0.003199893
0.0028365212 0.0032690496 0.00292996 -0.0032335224 -0.0056548407 -0.006331204 -0.004993734 0.0052125882
0.004160859 0.0052647833 0.0034274573 -0.0054364414 0.0015990558 0.002224144 0.0018917944 -0.001289382
-0.0035683338 -0.007106977 -0.0019098964 0.0068203933 -0.0063984543 -0.007540303 -0.003932081 0.005853438
-0.0016037979 -0.0029991365 -0.0009871373 0.001928719 0.0010656517 0.00021861539 0.00185208 -0.00084617693
-0.0026510877 -0.0031278578 -0.000410043 0.0023765285 -0.0019700632 -0.0030290664 -0.0020649196 0.003106779
0.0027956304 0.0015478054 0.0013607915 -0.003437765 0.003456865 0.004109855 0.0024054889 -0.0023597127
0.0041192407 0.0057242024 0.0043625725 -0.0046114423 -0.0028026223 -0.0034053281 -0.0013118054 0.0019100345
0.0020666074 0.0014670106 0.0024939715 -0.0014730555 -0.0011868265 -0.002355102 -0.0023850654 0.0027004785
-0.00336111 -0.0035314457 -0.00351726 0.0033994112 -0.0050946805 -0.0040428555 -0.0041620717 0.004025715
6.1721104e-05 0.0010917654 0.00083511556 -0.002410579 -0.0011995765 -0.003224424 -0.0017871909 0.0025381476
-0.00065802824 -0.001617635 -0.0007356138 0.001204006 0.0051358244 0.0059026526 0.0071898466 -0.006162506
-0.0026005735 -0.0042602955 -0.0017275179 0.0035845744 0.0036581703 0.0037058406 0.0037834954 -0.0035305475
-0.0025637036 -0.0035282457 -0.0026773901 0.0035320725 0.0026233734 0.0036129444 0.0028146699 -0.004744424
-0.0020480182 -0.0028908532 -0.0020415494 0.0031062814 -0.002832399 -0.0037795992 -0.0029711723 0.004366356
0.0025051434 0.0033557566 0.0027239409 -0.0035775453 0.0028034651 0.0037242265 0.0028215984 -0.003873959
-0.0024785623 -0.0034531017 -0.0025265696 0.003638994 -0.0016162258 -0.0022336598 -0.0013931707 0.0019913511
-0.002283385 -0.0032623578 -0.0022284342 0.0036069313 0.0019015502 0.00246797 0.0019485386 -0.002414902
0.0021808094 0.0028797816 0.002231637 -0.003008007 -0.0027598694 -0.003977112 -0.002720187 0.004808262
0.0021477116 0.0026516246 0.0022548188 -0.002655628 -0.0028453048 -0.0039693336 -0.002933397 0.0041926876
0.0007886096 0.0010292364 0.00061476 -0.00047247746 -0.0023213 -0.003197273 -0.0023003605 0.0032287387
-0.003057055 -0.0035304374 -0.0038535078 0.004232506 -0.00248598 -0.0033330417 -0.0025101912 0.0033382403
0.0015572665 0.0023722667 0.0012264999 -0.0030979898 -0.0034940683 -0.0049735527 -0.0036243508 0.0053241346
0.0020140023 0.0027199965 0.0020958146 -0.002794882 0.0015888986 0.0022600885 0.0016999922 -0.0025973592
0.0016621702 0.000982177 0.0021817635 -0.00036685955 -0.0023547884 -0.0033594873 -0.0023296266 0.0038327326
-0.0017702475 -0.0025574877 -0.0017321847 0.0033844374 0.001405517 0.0021233656 0.0013000704 -0.0017889618
-0.0023200845 -0.0031769257 -0.002333081 0.003175054 -0.0026517236 -0.003584923 -0.0026014384 0.0035053643
-0.00062091165 -0.0006313209 -0.00034494727 -0.0003672899 -0.0022253795 -0.0028161278 -0.002195088 0.0023648941
-0.0022030668 -0.0029096545 -0.0021942388 0.0026794828 -0.0025506432 -0.0029601713 -0.0027739143 0.002550408

base_model.model.bert.encoder.layer.0.attention.self.value.lora_A.weight f4 [4, 384]
00000000: 4308 fc3a cc46 5a3d 073b 08bd c6b6 2f3d
00000010: f76e 66bc 7955 8c3b 8cf7 2fbc 4fb7 46bc
00000020: 56a0 fbbc b294 fd3b e13a 53bc 1541 9fbc
00000030: 0061 103d 08e5 17bd f16b 3c3d 3915 8bbc
00000040: dae6 293d 760c 04bc 69a1 d43b 6ec7 1c3d
00000050: 7523 99bc 25e9 76bc fc27 3e3c bc84 b33b
00000060: 9c72 db3c 2dfa 36bd d6d6 343d 9d01 d3bc
00000070: 85b4 72bb dcfe abbc 39c9 b33a 2bc6 c1bc
00000080: a528 34bd 9da3 b8bc f93d f5bc 94fc 8d3b
00000090: 00fd 0abd 9c0d 253d 8a27 5a3d b836 45bd
000000a0: f170 3c3d 340b 85bc e6d5 ebbc 822c 323c
000000b0: 4221 043d 02d1 1f3d fbd6 c53c c6cb 083d
000000c0: 8592 d9bb f055 7dbd a627 4dbc 2ebb 70b9
000000d0: e0c7 d63c e46c 5fbd 4fa5 233d 704d 413c
000000e0: 418d 083d e469 3cbb 0852 e43c d605 09bd
000000f0: 7aa7 ccbc 2cde 423d aa96 d5bc 5cbb a83c
00000100: 28f7 cbbc e7ff 1dbd ad11 633d 0365 8fbc
00000110: ee0d babb 2f13 b9bc 2a62 6a3d dc79 af3b
00000120: e728 343d 7187 233d 47b9 f93b d605 2c3d
00000130: d458 663c 9fd1 3ebd 2979 f9bc 3e3e 9abb
00000140: 3821 28bd ddc0 fe3c d189 ffbb 3163 153c
00000150: 0a24 62bc 9ee5 c03c 4514 bebc 35c1 63bd
00000160: 5955 a83c c9df 76bc e78c 023d 93a2 273d
00000170: 8519 f73b dea8 c5bc fe05 4abb ba21 6abc
00000180: c636 5dbb 06bf 3a3d 9907 3d3d 7ca7 e6b9
00000190: 6377 733d aedd 603c 168f f63c e35c 2dbd
000001a0: 93a5 763a 2c89 e1bb 6f7a 4fbd b45b 1c3d
000001b0: df9f 38bd 105b 42bd 1aba e9bc b9f5 f83c
000001c0: 325b cbbc 8f68 c4bc cde6 b33c c2ca 85bb
000001d0: 2403 083d 3c66 ebbc 734a b83c c16b 483d
000001e0: 7541 87ba 05a7 25bd 8883 1f3c f3f8 ffbb
000001f0: f07c e0bb de17 3bbd b0e8 b8ba d02d 41bd
00000200: cfa2 37bc b38d 6c3b 0df5 d93c d7e0 2f3d
00000210: 3aca 03bc 5d7d ccbb 9411 74bd b926 20bc
00000220: 9ba1 df3b 44c3 c93c bd6b 3fbd de44 b2bc
00000230: ddb4 83bc c5b4 b93c 81aa 20bd 2904 a7bb
00000240: 7f33 10bd 3e94 c83c 5293 863c 3316 e23b
00000250: b7b2 963c 3853 0abd f435 68bc 3701 aabc
00000260: 70ab 9a3b 3908 bc3c 20b5 353d 29f0 0cbd
00000270: 9cc5 1c3d a433 f5bc 3aa0 efbc 7990 6abd
00000280: 05da ecbc 7aff d83c 4355 3b3d 2eca d2bc
00000290: c444 1ebc 8588 093d 078a 0b3d 6287 39bd
000002a0: a3ab 253d 8280 d33c 67df 7cbb 61c0 eabc
000002b0: de1a b13c 3eff 4d3b 42ab 60bb fbe1 853c
000002c0: 21af 043d e39d 8fbc 2bcb 49bd 3498 adbc
000002d0: 3c2d ae3c e0ec 64bc ecef e63c 61a5 0e3d
000002e0: 77e9 113d 61d2 08bd 8eef 7abd a4a0 1c3d
000002f0: b1ca 1ebd 3e0f b9bc 038e 5d3d 05b0 a6bc
00000300: 07f3 283d 2bb0 303d cf57 16bc bc05 00bd
00000310: 3ade 4d3c 5605 353d ea09 313d 991c 423c
00000320: abea 4ebc 6723 2bbd 7711 bbbc 374d d23c
00000330: 0369 83bc 3302 dfbc cdae 5d3d db82 5bbd
00000340: fa21 5fbc 0b51 99bc 651b c5bc 1a9d 023d
00000350: d230 363d 5508 39bd e929 04bc 229e d9bc
00000360: b230 f23b 4eac c13b 6f29 35bd c70e 25bc
00000370: 65c4 edbc 4994 913c 7332 95bc 43f3 1c3c
00000380: cd37 9b3c 4d66 95bc fe1c 1e3d 079a a23b
00000390: 108a 14bd 3c55 513d 3bad d6ba 4234 13bc
000003a0: 1ce9 553d 4b85 ebbc 258d 01bd fdcd 853c
000003b0: 5a75 5a3d d50a d63c c164 01bd c3a3 453d
000003c0: 7317 0e3c 50b1 483c f1cf 83bb 343c 1dbc
000003d0: b86e 083d af44 c3bb 1f69 1e3c 305c eabc
000003e0: 4626 2a3d 458d a4bc 3d4d 7cbc 9263 08bc
000003f0: c13a 13bd 387c 61bc 0526 d73c 431c fc3c
0.0019228536 0.053290173 -0.033259418 0.042898916 -0.014064542 0.00428265 -0.010740172 -0.012128665
-0.030716103 0.007738673 -0.012892456 -0.019440213 0.035248756 -0.037083656 0.04600138 -0.016977893
0.041479923 -0.008059612 0.006488968 0.03827613 -0.018693665 -0.015070234 0.011606213 0.0054784697
0.026788048 -0.04467218 0.044150196 -0.025757605 -0.0037033868 -0.02099555 0.0013716585 -0.023654064
-0.043984074 -0.022538954 -0.029936777 0.004333088 -0.033932686 0.040296182 0.053260364 -0.048147887
0.046006147 -0.016240694 -0.028788518 0.010874869 0.03225828 0.039017685 0.024150362 0.03339746
-0.006639781 -0.061849535 -0.01252166 -0.00022957913 0.026218355 -0.054547206 0.039952572 0.011798248
0.033337835 -0.002874964 0.027871147 -0.03345283 -0.024982203 0.04757516 -0.026072819 0.020597152
-0.024898127 -0.038574126 0.05543678 -0.01750422 -0.00567793 -0.022592155 0.057222523 0.005355103
0.04398432 0.03992409 0.0076209637 0.041997753 0.014059264 -0.04658663 -0.030453281 -0.004707127
-0.041047305 0.031097824 -0.0077984114 0.009117887 -0.013802538 0.02354699 -0.023203025 -0.05560418
0.02054851 -0.015068003 0.031872656 0.040926527 0.007540884 -0.024128374 -0.0030826326 -0.014290268
-0.0033754571 0.04559233 0.046149824 -0.00043993804 0.059440028 0.013724728 0.030097526 -0.04232491
0.0009408828 -0.0068828072 -0.05065387 0.038173392 -0.04507434 -0.047450125 -0.028531123 0.030390607
-0.024823759 -0.023975639 0.02196064 -0.0040830085 0.03320612 -0.028735273 0.022496438 0.048930887
-0.001031919 -0.040442485 0.009735949 -0.0078116595 -0.006850831 -0.04567706 -0.0014107432 -0.04716283
-0.01120825 0.0036095202 0.026606107 0.042939033 -0.00804382 -0.0062405304 -0.059587076 -0.009774857
0.006824685 0.024629243 -0.046733607 -0.021761354 -0.016077453 0.022669205 -0.039225105 -0.0050969315
-0.03520536 0.02448475 0.01642767 0.006899619 0.018395765 -0.03377077 -0.01417302 -0.020752532
0.004720144 0.02295314 0.044362187 -0.034408722 0.038274392 -0.02993185 -0.029251207 -0.057266686
-0.028912554 0.026489008 0.04573561 -0.025731172 -0.00965995 0.03357746 0.03406718 -0.045295127
0.04044689 0.025818113 -0.0038585307 -0.028656187 0.021619257 0.0031432654 -0.0034281765 0.016343107
0.03239358 -0.017531341 -0.04926602 -0.02119074 0.021261804 -0.013972491 0.028190576 0.034825686
0.03562304 -0.033403758 -0.061263613 0.038239136 -0.03876752 -0.022590276 0.05409051 -0.020347605
0.041247394 0.043136757 -0.009176209 -0.03125547 0.01256519 0.044194542 0.043222345 0.0118476385
-0.012629191 -0.04178181 -0.022835476 0.025671585 -0.016041284 -0.027222728 0.05412178 -0.05359159
-0.0136189405 -0.018715402 -0.024060914 0.031888105 0.044480152 -0.04517396 -0.008066633 -0.026564661
0.007391059 0.005910433 -0.044228967 -0.010074324 -0.029024312 0.017770903 -0.018212533 0.0095794825
0.018947506 -0.018237257 0.038601868 0.004962209 -0.03626448 0.051106676 -0.0016378531 -0.008984627
0.052224264 -0.028750082 -0.031628747 0.016333574 0.05333457 0.026128212 -0.031590227 0.04825188
0.008672583 0.012249306 -0.0040225913 -0.009596873 0.033308715 -0.0059591155 0.0096686175 -0.028608412
0.041540407 -0.020086894 -0.015399274 -0.008324521 -0.035944704 -0.013762526 0.026263246 0.030775195

base_model.model.bert.encoder.layer.0.attention.self.value.lora_B.weight f4 [384, 4]
00000000: 4c75 22bb 08c2 f7ba c605 813a 2fd8 d0ba
00000010: ad24 61ba 95ad 96bb 051f 953b 5d27 89bb
00000020: 5ad8 62b9 f0a5 95bb e49d 8e3b 92d4 b6bb
00000030: 70cd a4b7 ebe9 37bb dd4b 433b 8d72 afbb
00000040: 84c6 653b 3a68 ad3b 6265 4bbb a1f8 8e3b
00000050: 8dd9 cb3b 2678 ef3a da1f b5ba 1dbb cb3a
00000060: c5e5 2f3b 7f71 763b b4ca 52bb 9939 793b
00000070: f014 393b 3316 823b be29 7bbb 890a 6d3b
00000080: 500c 46bb 2d7b 4cbb faf8 2a3b fed3 45bb
00000090: 9059 16bb 2482 11bb ffd3 7737 e886 06bb
000000a0: e18b 3abb 0656 29bb 0400 583b 481b 58bb
000000b0: 96f0 b7ba 831f 563a cd6c d5ba b794 d43a
000000c0: 395d 2bbb 9dc7 c9bb 4815 973b a723 bbbb
000000d0: 821d 59bb c28f b7bb 6816 a03b 6611 e4bb
000000e0: 45b1 753a f2c0 d83a e508 29bb 138a 1c3b
000000f0: 556d cf3a 7ae7 4b3b 30c6 1dbb 7fea 583b
00000100: 178b 4d3b ffaf 413b a2f4 0fbb 9e0e 413b
00000110: afc0 c5ba 5a73 88ba f7bd 083b 6ced b4ba
00000120: 2bf2 793b 5e34 193b b063 07bb 336a 093b
00000130: 21ea 2f3a 0017 35bb cd2b 313b b8ee 56bb
00000140: af7c fc3a 68c4 563a 0eca 7eba b4c1 603a
00000150: a69e febb be3a 3cbc 8382 233c a25b 44bc
00000160: e1d1 3d3b c8ff 493a 15cf 3a38 e57a ea37
00000170: aa5f 5a3b 2a4d 093c e148 f0bb 927e 183c
00000180: ab09 a53b 0c5b b63b 1c8a aabb 7b32 ca3b
00000190: 4bfc 16bc 8ad1 44bc bf2b 293c 1042 4ebc
000001a0: 75f5 5abb 8f85 88bb 6449 7c3b fe48 99bb
000001b0: 1589 0e3b 4168 84b9 d79d f239 2901 2eb9
000001c0: 2b69 9439 7782 deb9 6105 2f3a d5d9 e0b9
000001d0: 4a43 883b be6c 9c3b 9584 a4bb 9f43 c23b
000001e0: 561d 75bb b662 42bc 4850 233c 268b 3fbc
000001f0: 5604 19bc e265 07bc e970 e33b 309b 07bc
00000200: 544e c73a ab1b 2d3b 6006 1fbb 1fed 4b3b
00000210: 3ebb d2bb 1f25 17bc bd98 0d3c 39f0 23bc
00000220: 7c8e bebb 2694 e4bb 4be2 d33b d336 f2bb
00000230: 0787 e3ba d100 36bb 93b2 163b 0068 31bb
00000240: b2d2 6abb bb45 39bb a780 243b f2da 37bb
00000250: 8ab6 95bb db63 91bb 7fc3 813b e2e3 97bb
00000260: a642 69bb cf10 acbb 43af d83b 7468 e2bb
00000270: 8443 3f3b fd82 553b c3b2 48bb 5242 6a3b
00000280: 639d 033a 51a9 9e3a d935 c3ba 7a50 c43a
00000290: 78a1 203c 7d2a 193c 3c09 f3bb 7f3b 203c
000002a0: f931 353c 74b6 353c ee8a 19bc 26b5 433c
000002b0: 5033 90ba 2b5b acba 5376 663a 5749 d4ba
000002c0: e1ed bd3a 4d80 0c3b 7dbd 0bbb 9980 2f3b
000002d0: 29d6 9a3a 35d4 293b dd4b 15bb dabe 413b
000002e0: 4abc 593a 8673 ad3a 43fd 67ba 2410 bb3a
000002f0: 9c5c 063c fa5c 023c 49ae d8bb 4442 063c
00000300: 4681 e23a e1b5 213b 2db5 14bb 8093 213b
00000310: 7202 13bb 67ec 86bb eba4 863b c77e a5bb
00000320: eebb 473b c58c 943b 19d1 8abb 48ef ab3b
00000330: 29ba 68bb 81f8 97bb 422c 983b 851a b0bb
00000340: 0f02 76ba 9e95 4cba 29a4 fd39 995b 44ba
00000350: 83f0 80bb 2e26 e6bb 74c3 d53b 04f8 06bc
00000360: a7e4 953b 7d06 9e3b 6f17 8dbb 57a4 a43b
00000370: ced7 66bb cb0a a0bb ba4b 983b f044 b7bb
00000380: b967 c9ba c3a0 33ba f781 8d39 7d25 f4b9
00000390: cc40 1e39 cb3c a839 729d e9b7 61f7 cf39
000003a0: 1840 ae39 2339 8e3a 335f b9ba 64ff c93a
000003b0: 97b7 96bb 5c66 a0bb ef3a 933b ca75 a7bb
000003c0: a0bb dbba 6479 20bb dc7a 233b e58d 36bb
000003d0: b5e4 2fb9 4f36 943a d1f4 72ba 681c c63a
000003e0: 5a80 2ebb 4583 8abb 7582 6e3b b96e 8ebb
000003f0: e07c ceba d9a7 53bb 3539 4c3b 8496 73bb
-0.0024789153 -0.001890243 0.000984364 -0.0015933568 -0.0008588534 -0.0045983293 0.004550817 -0.0041856007
-0.00021633637 -0.0045669004 0.004352318 -0.0055795396 -1.9645988e-05 -0.002806301 0.0029799857 -0.0053542317
0.0035060951 0.005291966 -0.003103577 0.004363135 0.0062210024 0.001827006 -0.0013818697 0.0015543435
0.0026839834 0.003760427 -0.0032164278 0.0038028716 0.002824124 0.0039699315 -0.003832444 0.003616961
-0.0030219741 -0.0031201348 0.0026088343 -0.0030186172 -0.0022941567 -0.0022202814 1.4771706e-05 -0.0020527188
-0.0028464722 -0.0025838627 0.0032958994 -0.0032975245 -0.0014033492 0.0008168148 -0.0016283036 0.0016218637
-0.0026148094 -0.006157829 0.004610691 -0.005711037 -0.003312916 -0.005601854 0.0048854835 -0.006960082
0.00093724235 0.0016536994 -0.0025792655 0.002388601 0.001582543 0.0031113313 -0.0024074428 0.0033098755
0.0031363422 0.0029554365 -0.002196588 0.0029458175 -0.0015087331 -0.0010410354 0.002086518 -0.0013803667
0.0038138728 0.002337716 -0.0020658784 0.002096784 0.0006710608 -0.0027632117 0.0027034164 -0.0032796096
0.0019263233 0.0008192719 -0.00097194395 0.0008573786 -0.007770377 -0.011488615 0.009979847 -0.011984738
0.002896421 0.0007705656 4.4538716e-05 2.7952201e-05 0.003332118 0.008380214 -0.0073329066 0.00930752
0.005036553 0.005565053 -0.005204452 0.0061705685 -0.009215425 -0.012012849 0.010325371 -0.012588993
-0.0033410464 -0.004166312 0.0038495893 -0.004677891 0.0021749188 -0.00025254677 0.00046275437 -0.00016594365
0.00028307116 -0.00042440344 0.0006676522 -0.00042886907 0.004158412 0.0047737053 -0.005020688 0.005928471
-0.0037401519 -0.011864355 0.009967871 -0.01169089 -0.009339413 -0.008264037 0.00694095 -0.008276746
0.0015205839 0.0026414196 -0.0024265274 0.0031116677 -0.0064310124 -0.009225159 0.008642373 -0.010006004
-0.0058153253 -0.0069756685 0.006466185 -0.0073917895 -0.0017358967 -0.0027771483 0.0022994622 -0.0027070045
-0.003583115 -0.0028270322 0.0025101097 -0.0028054086 -0.0045688795 -0.0044369525 0.0039600725 -0.00463532
-0.0035592704 -0.005251027 0.0066126897 -0.0069094244 0.002918453 0.0032579296 -0.0030624128 0.0035745096
0.0005020706 0.0012104904 -0.0014893367 0.0014977597 0.009804122 0.009348509 -0.0074168723 0.00977981
0.011059278 0.0110908635 -0.009371502 0.011945045 -0.001100162 -0.0013149729 0.00087914354 -0.0016196173
0.0014490449 0.0021438778 -0.002132266 0.002677953 0.0011813092 0.0025913839 -0.0022780814 0.002956322
0.00083059503 0.0013233281 -0.00088496896 0.0014271778 0.008200791 0.007956738 -0.0066125733 0.00819451
0.0017280958 0.0024675059 -0.0022690997 0.0024654567 -0.0022431877 -0.004117537 0.004109015 -0.0050505134
0.0030477005 0.0045333826 -0.004236352 0.0052470304 -0.003551135 -0.0046377783 0.004643948 -0.005374255
-0.0009384462 -0.0007804277 0.0004837823 -0.0007490456 -0.003934921 -0.0070235943 0.006523544 -0.0082378425
0.0045743766 0.004822551 -0.004305772 0.0050244736 -0.0035223844 -0.004884099 0.004647699 -0.005592935
-0.0015365995 -0.00068522635 0.00026990447 -0.00046567238 0.00015092193 0.0003208875 -2.784908e-05 0.00039666428
0.0003323562 0.0010850768 -0.0014142751 0.0015411195 -0.0045995223 -0.0048950147 0.0044931094 -0.005110477
-0.0016764291 -0.0024486417 0.0024945056 -0.0027855572 -0.000167745 0.0011307689 -0.0009268048 0.0015114667
-0.0026626796 -0.0042270743 0.0036393676 -0.0043466953 -0.0015753768 -0.003229609 0.0031162028 -0.0037168572

base_model.model.bert.encoder.layer.1.attention.self.query.lora_A.weight f4 [4, 384]
00000000: 6276 d83c ce2a 803a 15c2 423d c507 fdbc
00000010: c32c 243d 5b04 423d ae50 013d e67b 41bd
00000020: 4fa0 273d 6716 b3bc 1973 0a3c d419 3dbd
00000030: 4b3d b93c 4485 64bc 8737 92bc d220 8fbc
00000040: 3681 53bc b4b5 a0bc 7cf0 5fbc b9f3 f2bc
00000050: a941 45bd 9e9d 1bbd e9cb c1bc be0b c2bc
00000060: 818e af3b dc41 9cbc 7f76 0cbc 2ca0 1fbd
00000070: 54a8 8abc 3817 40bd 9fa8 5fbc 79e0 b3bc
00000080: 3c32 363a d61a 043d 7ee3 0e3d 99c3 153d
00000090: acaa 473d 13db 3dbd b336 50bc a69f 3f3d
000000a0: 351a 01bd 6a19 2d3c 06df 8b3c 3ea8 44bc
000000b0: 0aca 3d3d 306b 1e3a b1ae b13c d5b1 25bd
000000c0: ff12 5c3c 81b6 9c3c 47ac 3d3c 5f5b 14bc
000000d0: c318 1a3c 15c9 b6bb ecd5 02bd 208a 663c
000000e0: 3863 a93c aeae b43b 6a90 2b3d 7790 30bd
000000f0: cd07 a73c f658 443c b3ab fbbc 3eff 43bd
00000100: a838 593d b11c 003d d550 b9ba be22 0bbd
00000110: 6e1b 30bd dcc9 09bd cb3c 3bbd 680e 9cbc
00000120: b839 58bc b1b6 013d 2cbe 2ebd 1f59 413d
00000130: b983 1eba 9045 5a3c 2ec1 513b d176 a3bc
00000140: ff2f 27bd bd42 d03c 2de8 54bd 6fc3 01bd
00000150: c886 063d 5a09 67bc 74ab c53c 74c2 6bbc
00000160: ea30 f33b 95e5 bcbb aefb c7bc 3592 103c
00000170: ef8e aabb 1dd5 d83c f9f2 20bd e961 9e3c
00000180: 84db 833b 80c9 1c3d 15f6 98bc 8904 053d
00000190: af27 f8bc 4c93 afbc 3c00 133c 7370 523d
000001a0: a6b0 d5bc 5f2a 9f3c 04ac f43c a453 c9bc
000001b0: 799f 7a3c 22e3 563d 97e7 fe3c 42f3 4a3d
000001c0: b293 dc3c 7981 ba3c 753b a0bc acc0 af3c
000001d0: 397c 41bd e9fe 36bd d991 32bd 72f9 babc
000001e0: 2fd3 443c bf8e d83b 1085 983c 5752 3bbd
000001f0: 33c6 2b3d 377c 153c 5082 0fbd 8862 1cbd
00000200: 1c8e e33c 46ea 5dbc c20e c4bc 303a 5ebd
00000210: 2407 463b e771 37bd 073c 533d 63a0 29bd
00000220: 92c5 9c3c f21c 2c3d 798d 07bd 8fe6 2a3c
00000230: 08bd cc3c 37a8 18bd dc0a 20bb d69b 29bc
00000240: 2af1 63bd e96d 1c3d f3fe 063c 913b 44bc
00000250: 1ee2 103d c05d 103c 2005 40b9 a267 123d
00000260: 6621 c73b 48dc 9ebb 8b67 1f3c 0477 de3c
00000270: a8c5 3c3d 36f0 3d3d 0ad4 163d 129b 313d
00000280: a7d7 00bd 28c3 1b3b 3df2 57bd e9c3 123d
00000290: f903 da3c e6cf 4abc e703 54bd 5710 efbc
000002a0: 7f83 aa3c d98a 643c ce5f 26bc 4fef 32bc
000002b0: 2761 743b 6406 38bd 74ba 653d d2ab 19bd
000002c0: 82d7 43bc d574 0a3d c9e1 20bd ceb6 11bd
000002d0: fe7c 3bbd 2f27 42bc 20ad 2d3d bb17 c43c
000002e0: 4539 edba c253 173d 95fe fe3b f3c1 453d
000002f0: d5bc 48bd 466b 1e3c 80dd 8ebc 4ffd 0dbd
00000300: 3858 45bd 8568 03bd abda 473d e5e2 76bc
00000310: 853a 16bb 11ba 0ebd ddb1 5c3d 7188 29bc
00000320: 16a7 d13b 1921 c4bb 52b6 f8bc 925b 12bd
00000330: 3dc3 f63c 8d53 2fbd 3b64 813b f10b 4b3c
00000340: edc2 313c dcb9 18bd 32f9 14bd 1d16 e23c
00000350: 14a9 24bc 9c09 163d eb10 74bc c4ec 733c
00000360: fd97 a9bc f205 09bc f781 3dbc a503 c63c
00000370: 79cb 88bc c570 213d 972d 1dbd cfb5 ecbc
00000380: bdf6 033d 645d 813c 4e46 423d f45f 1c3c
00000390: 5247 75bc 21fe afbc 47f1 37bd 17c2 dc3c
000003a0: 0295 163d 2799 1bbd a20c 353d d189 0b3c
000003b0: a395 8bbc 0a2d e93a e813 143d 0afd 3c3d
000003c0: 9283 413d 56b7 6a3d 75a6 0bbd 4dd3 b73c
000003d0: 4255 e1b9 3988 07bc fac2 11bd e8d1 66bc
000003e0: 7d5e 23bd 714a aebc 9165 183d 7ca6 af3c
000003f0: 06f5 9d3c 1408 debc d285 12bd 175c 94bc
0.026423637 0.0009778382 0.047548372 -0.030887494 0.04008175 0.047367435 0.031571083 -0.0472373
0.040924367 -0.021861268 0.008450293 -0.04616721 0.022612235 -0.013947789 -0.017848743 -0.017471705
-0.012909224 -0.019617893 -0.013668176 -0.029657232 -0.04815832 -0.037992112 -0.023656802 -0.02368724
0.005357564 -0.019074373 -0.008573174 -0.03897111 -0.016925968 -0.046897143 -0.013651042 -0.021957623
0.00069502345 0.032252155 0.034884922 0.03656349 0.04874675 -0.046351504 -0.012708354 0.046783112
-0.031519134 0.010565141 0.01707412 -0.012003003 0.046335258 0.0006043194 0.021689745 -0.040452797
0.013432263 0.019129993 0.011576719 -0.009054988 0.009405318 -0.00557817 -0.031942293 0.0140710175
0.020677194 0.0055139875 0.04188577 -0.043106522 0.020389462 0.011984101 -0.030721521 -0.04785084
0.053032547 0.031277362 -0.001413847 -0.03396868 -0.04299491 -0.033639774 -0.045712274 -0.019049838
-0.013197355 0.03166837 -0.04266183 0.047204133 -0.000604685 0.013322249 0.0032006013 -0.019954117
-0.040817257 0.025422448 -0.051979233 -0.03168052 0.03284338 -0.014101351 0.024129607 -0.014389623
0.0074216025 -0.005764673 -0.024412002 0.008823921 -0.0052050273 0.026468808 -0.039294217 0.019333797
0.004023971 0.038278103 -0.018672029 0.03247503 -0.03029236 -0.021432541 0.008972224 0.05137677
-0.02608521 0.019429384 0.02986718 -0.024576016 0.01529681 0.052462704 0.03111629 0.049548395
0.026925895 0.022766815 -0.019559601 0.021454178 -0.04723761 -0.044676695 -0.043596122 -0.022824023
0.012013241 0.0066088135 0.018618137 -0.045732822 0.041937064 0.009123853 -0.035036385 -0.038179904
0.027777724 -0.013544625 -0.023932818 -0.05425471 0.0030216658 -0.04478636 0.05157092 -0.041412722
0.019137178 0.042019792 -0.033093903 0.010430946 0.02499248 -0.037269797 -0.0024420535 -0.010352096
-0.055649914 0.038190756 0.008239496 -0.011977092 0.035371892 0.008811414 -0.00018312456 0.035743363
0.0060769795 -0.004848037 0.009729276 0.02715636 0.046086937 0.04637166 0.03682331 0.043360777
-0.031455662 0.0023767445 -0.05272125 0.035831366 0.026613222 -0.012378668 -0.051761534 -0.029182596
0.020814655 0.0139491195 -0.010154678 -0.010921313 0.0037289353 -0.04492797 0.05608602 -0.037517376
-0.011953237 0.033802826 -0.039277826 -0.035574727 -0.0457735 -0.011850162 0.042401433 0.023937097
-0.0018098733 0.036945112 0.0077818134 0.048280668 -0.04900821 0.009669131 -0.017439604 -0.034665402
-0.048179835 -0.0320821 0.048792522 -0.015068744 -0.0022923064 -0.034845416 0.05388056 -0.010347472
0.006398092 -0.005985391 -0.030360375 -0.03573186 0.030122394 -0.04280429 0.003948716 0.012392984
0.010849697 -0.037286624 -0.036370464 0.027598435 -0.010050077 0.036630258 -0.014896612 0.014887992
-0.020702356 -0.008363234 -0.011566631 0.02417166 -0.016698586 0.039414186 -0.038373556 -0.028895287
0.03221773 0.015791602 0.04743033 0.009544361 -0.014970617 -0.021483483 -0.044907834 0.026948018
0.0367632 -0.037987854 0.0442015 0.008516745 -0.017039126 0.0017789912 0.036151797 0.046139754
0.047244616 0.05730375 -0.034094293 0.022439623 -0.00042978866 -0.008272224 -0.035586335 -0.0140881315
-0.039885033 -0.02127573 0.037206236 0.02144169 0.019281875 -0.027103461 -0.035772152 -0.018110318

base_model.model.bert.encoder.layer.1.attention.self.query.lora_B.weight f4 [384, 4]
00000000: cf07 3f3b f920 a7bb efbc bb3b 1f72 993a
00000010: 1ff6 a13a d152 f3ba 93ed f23a 61a2 e93a
00000020: c419 bc3a 3dca 043a 7bb9 55ba 19fd 3dbb
00000030: 7b3f b23a 5a32 bfbb d2b6 6c3b 5719 ab3a
00000040: 9005 0d3b e86e 6abb 1de2 5b3b 174c 58ba
00000050: c26b d93a 0cc2 c7bb c2d0 573b f46b e13a
00000060: 0ce1 733a b199 85bb 2591 343b eff3 ef3a
00000070: f896 933a 3b05 adbb b62b a23b 7a57 d23a
00000080: b178 c53a 1739 94ba 4507 123a eaa9 02bb
00000090: dea0 0f3b 300b e1b9 2ca6 343a 9058 91bb
000000a0: e960 5db9 48e3 ff3a 4085 a9ba 36d0 05bb
000000b0: 64c0 12bb 747c 2b3b c7ce 2cbb 7dc1 85ba
000000c0: ff31 19bb b675 b9b8 622e 493a 5e4e 8f3b
000000d0: 2900 99bb a90e 5f3b a94a 72bb 721a 8dba
000000e0: 33e8 053a 6491 80bb a677 1a3b 04fc ea3a
000000f0: cbe8 46bb 094b 1e3a 2000 edb9 6ffa 4b3b
00000100: 2232 2d3b 90db 933a 662f a1ba 6da1 50bb
00000110: df7e 6cb9 7335 24bb 4c10 223b dcc9 123b
00000120: e61e 3dba 1cb2 8c3a fb91 feba b81b 2d3b
00000130: 95b3 adba 0b89 3a3a cb57 9eba 665f 153b
00000140: 52b3 323b ed08 aabb 5271 a63b 7287 6e3a
00000150: 62a3 86bb d0dc 183b 5415 1cbb 8819 4f3b
00000160: 54c2 e33a 96d9 3dbb ac8b 173b 3fad a6ba
00000170: 30b0 373b f7cb fc3a a3f1 06bb 8132 31bb
00000180: 28e4 023b 346b de3a f9d9 9bba 73f4 2fbb
00000190: 27bd b1ba 70dd 963b 0256 93bb d39e 01bb
000001a0: 6989 59ba c076 adba 8469 b63a 314b 343b
000001b0: dd2f 643a e96f 9cbb 04a6 af3b 9db7 1e3b
000001c0: 951f f539 8f79 63bb d38f ef3a e06a 123b
000001d0: 0a05 fcba 4ab8 b43b 7abe abbb 7074 1fba
000001e0: d51d 9dba 430c 3e3b 63db b7ba 3e28 42ba
000001f0: 34e0 2d3a 51f6 4db9 8a09 2039 e6f1 12bb
00000200: e423 323b 7dde 16ba cf15 683b 0fe2 30bb
00000210: d7e1 50bb 8c5a a339 9aa3 22bb 68f3 273b
00000220: 67a6 eeba a464 4aba d512 60ba 7805 273b
00000230: 8f02 21b8 29e5 943b 5f43 eaba bac3 faba
00000240: 897d 4abb 220f b23b 1f7a 49bb 613a bd3a
00000250: d121 ad3a 1abf 60ba 8c0f 443b f8de 97ba
00000260: bca5 45b9 6d16 1b3b c709 1aba 37db b5ba
00000270: 97de ac3a a5cf 533a 6e01 773a aea2 0dbb
00000280: 0d26 d83a 7459 f0ba 71d0 1b3b b819 e8ba
00000290: 5057 10bb 65b3 bfb9 1e45 14ba 401c 183b
000002a0: 8fa5 5fbb e2e9 ea3a 5b4a 35bb 1239 133b
000002b0: 6cdf 1f3a fca1 373a 942c 0e39 e393 b7ba
000002c0: 1f7b af3a f48f e139 9ec1 673a e8db 0abb
000002d0: f041 62bb 28ce c23a 8416 73bb 1868 2b3b
000002e0: ebac 47bb 9614 cd3a c589 a1ba d60b 1e3b
000002f0: 7a1b 89bb 34f7 8b3a dd07 53b9 33a7 3c3b
00000300: c2eb d5ba e9ba 1f3a eeaa 21bb 96a5 103b
00000310: 6ed0 c9ba cb68 14b9 596e e5ba a551 003b
00000320: c46e edba e89d 8e3a 6129 3abb 4606 093b
00000330: 8b14 2ebb ac22 003b 2f57 6cbb cb87 243b
00000340: 89de 32bb 3500 eb39 3556 e9ba 57a0 303b
00000350: 46bc a13a 8b78 aebb 1a7a 373b 2936 b13a
00000360: f49f 26ba be50 ec3a ad4c 70ba d28a 8eba
00000370: 2cea 873a 75e2 00ba 9ddf 9f3a c329 f6ba
00000380: a417 72ba a70c 69bb f1f3 a03a 0d82 243b
00000390: 2ac0 18bb e956 5dba 79b2 25b9 6759 1b3b
000003a0: 2ad0 103a 31c1 13bb 50a0 bb3a 1d41 9f3a
000003b0: 6d33 2e37 4446 80bb 2521 d93a 5aac 043b
000003c0: 3bbc d2ba dcb8 cfb8 d881 a3b9 b9fa 133b
000003d0: 7fda 893a fe7b 22b8 12d8 663a 8cfb e4ba
000003e0: e1f4 543b 707b b13a 9a9a 13bb dae2 35bb
000003f0: 8557 5d3b ef19 0abb b967 f53a ae83 58bb
0.0029148941 -0.005100366 0.0057293097 0.0011706984 0.0012356675 -0.001856411 0.0018533937 0.0017824882
0.001435094 0.0005065536 -0.0008152944 -0.002898997 0.0013599241 -0.00583486 0.0036119712 0.0013053817
0.0021518208 -0.0035771672 0.0033551522 -0.00082510844 0.00165879 -0.0060961302 0.0032930826 0.001719831
0.0009303249 -0.0040771593 0.0027552333 0.0018306951 0.0011260202 -0.0052801645 0.0049490584 0.0016047799
0.0015065876 -0.0011308518 0.0005570541 -0.0019937702 0.0021915953 -0.0004292368 0.00068912166 -0.0044356063
-0.00021112304 0.0019522691 -0.0012933388 -0.0020418293 -0.0022392506 0.002616671 -0.0026368366 -0.0010204759
-0.0023375747 -8.843413e-05 0.0007674453 0.004373356 -0.0046692085 0.0034035838 -0.003697077 -0.0010765328
0.0005108148 -0.003923582 0.0023569851 0.001792789 -0.0030351158 0.0006038403 -0.00045204256 0.0031124612
0.0026427587 0.0011280645 -0.0012297451 -0.0031834499 -0.00022553977 -0.0025056272 0.0024728952 0.002239815
-0.0007214382 0.0010734233 -0.0019422168 0.0026414227 -0.0013252372 0.0007115758 -0.0012080608 0.0022792458
0.0027267528 -0.0051890523 0.005079427 0.00090991624 -0.004108832 0.0023324974 -0.0023816423 0.0031600911
0.001737664 -0.0028968803 0.0023124022 -0.0012716426 0.00280286 0.001928686 -0.0020590804 -0.002703816
0.0019972418 0.0016969205 -0.0011890522 -0.0026848584 -0.00135604 0.004604034 -0.004496337 -0.0019778505
-0.0008298369 -0.0013234243 0.0013916944 0.0027510638 0.0008704642 -0.004774083 0.005360367 0.0024218329
0.00046753572 -0.0034709906 0.0018277116 0.0022341534 -0.0019227576 0.005515133 -0.0052412124 -0.0006082719
-0.001198704 0.0028999008 -0.0014027174 -0.0007406509 0.0006632835 -0.00019642083 0.00015262343 -0.0022422015
0.0027182037 -0.0005755199 0.003541339 -0.002699021 -0.0031872892 0.00031157245 -0.0024816752 0.002562726
-0.0018207551 -0.0007720685 -0.0008547728 0.0025485437 -3.8387774e-05 0.0045439196 -0.0017872861 -0.0019131817
-0.0030897579 0.005433933 -0.0030742956 0.0014436954 0.0013208931 -0.0008573398 0.0029916493 -0.0011586836
-0.00018849125 0.002366449 -0.0005876091 -0.0013874535 0.0013188896 0.00080799527 0.0009422515 -0.0021611857
0.0016490832 -0.0018337206 0.0023775364 -0.001770786 -0.0022024699 -0.00036564018 -0.0005656051 0.0023210198
-0.003412578 0.0017922486 -0.0027662728 0.0022464436 0.0006098661 0.00070050335 0.00013558782 -0.0014005866
0.0013388133 0.00043022598 0.0008840802 -0.0021188203 -0.0034524165 0.0014862465 -0.0037092278 0.0026154574
-0.0030468057 0.0015646394 -0.0012324384 0.0024115941 -0.0041841837 0.0010678531 -0.00020125457 0.0028786182
-0.0016320872 0.00060932204 -0.0024668532 0.0022071353 -0.00153972 -0.00014153418 -0.00175042 0.0019579914
-0.0018114676 0.00108808 -0.0028406011 0.002090828 -0.0026562538 0.0019551916 -0.0036062708 0.0025105353
-0.0027293286 0.00044822847 -0.0017802181 0.0026951039 0.0012339435 -0.0053244284 0.0027996362 0.0013520169
-0.00063562323 0.0018029434 -0.0009166699 -0.0010875112 0.0010369471 -0.0004916557 0.0012197379 -0.0018780757
-0.000923509 -0.003556052 0.0012279731 0.002510193 -0.0023307898 -0.00084434316 -0.00015802112 0.002370441
0.0005524183 -0.002254557 0.0014314745 0.0012150143 1.0383182e-05 -0.0039146263 0.0016565664 0.002024433
-0.0016077826 -9.904962e-05 -0.00031186524 0.0022579862 0.0010517387 -3.8739287e-05 0.00088060007 -0.0017469986
0.0032494592 0.0013540816 -0.002252257 -0.0027753622 0.003377409 -0.0021072587 0.0018722928 -0.0033037472

base_model.model.bert.encoder.layer.1.attention.self.value.lora_A.weight f4 [4, 384]
00000000: ed64 eb3b 5333 0e3d 9c4e 08bd 9c7f e23a
00000010: fe49 933b e568 03bc 7035 37bd cafe a1bc
00000020: 9c20 37bd 624a 09bd d4dd f63c b542 63bd
00000030: 6760 ffbc 5f86 e03c 7200 e13b 2283 6cbb
00000040: f58e 193d 8469 333c ee4c 093c 801b 6c3d
00000050: 428f c43c 6baa 2bbd f791 d73b 1c62 1ebd
00000060: 81cb 2cbd e8bd 09bc 1c88 663c f4fd 2abd
00000070: 3e76 bcbb bb58 423c f200 13bd 9623 f83c
00000080: acaf 33bd 9627 20bd 5843 793c 4815 5bbd
00000090: 31c5 413c 0046 4cbc 60e1 50bd 0fe8 0d3d
000000a0: bb12 f0bc 3f85 5dbd 3679 523c f1bd 16bd
000000b0: 0928 d0bc 144e 00bd db80 bebc 7ae9 5f3d
000000c0: cc01 e0bc 8886 18bd 7c72 3a3c 57da aebc
000000d0: 1fe0 2cbd a0e4 6b3d 806f e0bc d67e 1b3c
000000e0: 6ec8 d3bc 2a27 393d 7a4c 1bbd 7e13 23bd
000000f0: e771 ecbc eb1e 143c 5684 cebb b9ea b0bb
00000100: 299c dabc c651 a2bc 8a2b 053d 3dd1 c83c
00000110: 7080 0ebc ee1f 153d d200 293d 1231 313d
00000120: e4dc 223d cb04 9eb9 0a07 a63c 4e7a 5a3a
00000130: 2137 2cbc 9f08 75bb 3201 393d 5eba 3ebd
00000140: b37e 393d f334 6a3d 2a36 1c3d 3504 293c
00000150: 5941 e9bc 4bf7 2f3d 8af6 80ba 7472 23bd
00000160: 0905 433d ff1f 463c 6d14 6a3d f7d1 933c
00000170: 4783 fabc a254 263d 88b4 843b d5fa 683d
00000180: 6618 2fbd 120d 43bc 502d 983b f39e e9bc
00000190: 176d 943c b01e bfbc ed18 633c 5e1b 93bb
000001a0: d10b 1fbd 6198 00bc a4ff 09bd 59b9 bdbb
000001b0: 5367 6bbc bd06 043d 4975 b73c d71c 023d
000001c0: 9ecc d23c c59f 2ebd d224 5f3d f72c c23c
000001d0: 91ed 533c 5cea 193c c5eb 1abd e7be 7a3c
000001e0: d411 ce3a 352f 9bbc 1acf 1f3d b4f6 713c
000001f0: e12b 363d 4425 dabb 6262 473d 4c22 c3bb
00000200: a4e2 453c 5912 febb 4725 393d dccb 9fbc
00000210: c12c 5c3c 162c d13c e189 1c3d d533 59bb
00000220: 1ed2 f2bc c3c6 a0bc 7249 21bc bb46 ecbc
00000230: 87d6 8e3c 9e77 6b3a 4b77 0ebd ef55 19bd
00000240: 9953 283d 2921 6c3d 9d9e b43c d8d5 bcbc
00000250: f61e a9bb a494 13bd 83e6 d9bc 2e14 503d
00000260: 09e5 babc e295 c93c 7629 62bd 5046 40bd
00000270: a36b 18bd f9eb 5abc d82b 9ebc f2dd 853c
00000280: aa9f cebb d106 a63b 949b 153d 8906 713d
00000290: 095b 203d 888f 9e3c c1da 61bb b520 87bc
000002a0: 6240 1dbd 99d4 46bd 68bf 253d f5c7 e73c
000002b0: 0f99 9a3c 8ecb 5ebb fec2 66bd e0f2 0cbd
000002c0: fa03 8cbc 0cc5 bb3b 5a37 e63c 877b e9bc
000002d0: 818e 90bc 9cef 0bbd aef2 b73c a6d3 1c3c
000002e0: be31 cf3c 4491 783c e1f2 27bd e1ec 0a3d
000002f0: c49c 653d 23c0 cabc 66f5 523b 9bc5 b13c
00000300: 2cf9 b83c e4e9 99bc 64bb 7e3c e0ca 3f3d
00000310: 1000 703c 02c1 4abd 9380 213d aa43 e03c
00000320: b141 6ebb 6c98 a63c d70b 0dbc a95d f53c
00000330: 4690 e93c e00b 24bd 8305 cebc 40f3 16bd
00000340: 2eb5 353d 3b46 4f3c 4422 713c 0e2f fbbc
00000350: 5b73 febb 74f8 413d 1402 8abc 3c51 5b3d
00000360: b3e3 2bbd c4db 2cbd d7f7 33bd 6cdb 3b3b
00000370: 85ee 48bd 7321 2d3a 959d 97bc ad61 cc3b
00000380: 295f 2ebd 1d1d 8bbc dbec 99bc 944c 1ebc
00000390: 5488 463d 0974 263d 7572 ff3c ac20 26bd
000003a0: 5037 0fbd ef22 d23c dbac 84bc d96d 1cbd
000003b0: fccd b2bc 664b 14bd af0f 743b 0b22 00bd
000003c0: 8da3 113d a494 30bd dc53 113d e86c 0e3d
000003d0: f2f5 fabc f0bd 353d 96be e53c 5ad2 383d
000003e0: 865c a43c 31b3 1e3d 9d85 84ba a9ba 8c3c
000003f0: 653e 053c 9764 70bd d0c0 823c 1382 ffbc
0.007183662 0.034716915 -0.033278093 0.0017280462 0.0044949045 -0.008020614 -0.044728696 -0.019774813
-0.044708833 -0.033518203 0.030135073 -0.05548354 -0.031173898 0.027407823 0.006866508 -0.0036088903
0.03748985 0.01095045 0.008380158 0.057643414 0.023994092 -0.04191057 0.0065786797 -0.038667783
-0.042186264 -0.008407094 0.014070537 -0.041746095 -0.0057514003 0.011861975 -0.035889573 0.030290406
-0.043868706 -0.039100252 0.01521381 -0.053487092 0.011826799 -0.012467861 -0.050996184 0.034645136
-0.029305806 -0.05408215 0.012846282 -0.036802236 -0.025409715 -0.03132446 -0.023254802 0.05466602
-0.027344607 -0.037237674 0.011379834 -0.021344347 -0.042205926 0.05759108 -0.027396917 0.009490689
-0.025852408 0.045203365 -0.03791473 -0.03981351 -0.028862907 0.009040575 -0.0063023968 -0.005399075
-0.026685791 -0.019814383 0.032512225 0.024513835 -0.008697614 0.036407404 0.041260548 0.043259688
0.03976144 -0.0003013968 0.020267028 0.0008334265 -0.010511191 -0.0037389172 0.045167156 -0.046564452
0.045286845 0.057179403 0.038137592 0.010315944 -0.028473543 0.042960446 -0.0009839099 -0.039904073
0.047612224 0.012092589 0.057148386 0.018044455 -0.030580176 0.040608056 0.0040498413 0.056879837
-0.042747878 -0.011904972 0.0046440735 -0.028518176 0.018118424 -0.023330063 0.013860923 -0.0044893464
-0.03882963 -0.00784883 -0.033691064 -0.0057899174 -0.014367896 0.03223299 0.022394793 0.031765785
0.025732335 -0.042632837 0.054478474 0.023703082 0.012935058 0.009394255 -0.037822504 0.015304304
0.0015721866 -0.018943409 0.039015867 0.014768291 0.04447544 -0.0066572744 0.04867781 -0.0059550162
0.012077961 -0.007753652 0.045201566 -0.019506387 0.013438405 0.025533717 0.03821743 -0.0033142467
-0.029641207 -0.019626027 -0.009844171 -0.02884232 0.017436279 0.0008982363 -0.034781735 -0.03743547
0.04109535 0.05764881 0.022048289 -0.023051187 -0.0051611615 -0.036030427 -0.026599174 0.050800495
-0.02281429 0.024607603 -0.05521532 -0.046942055 -0.037212025 -0.013361924 -0.019308016 0.016341183
-0.0063056545 0.0050667305 0.036525324 0.058844123 0.039149318 0.01935555 -0.0034462663 -0.016495088
-0.03839148 -0.048542593 0.040465742 0.02829359 0.018871812 -0.003399584 -0.056338303 -0.03441131
-0.01709174 0.005730277 0.028102566 -0.028501285 -0.017646076 -0.034164056 0.022454586 0.009571945
0.025292274 0.015171353 -0.04100311 0.03391731 0.056057706 -0.024749821 0.0032189726 0.021700671
0.022579752 -0.018788286 0.015547607 0.046824336 0.014648452 -0.049500473 0.03942926 0.027376015
-0.0036355073 0.020336352 -0.00860878 0.029951887 0.028511178 -0.040050387 -0.025149113 -0.036853075
0.04436224 0.012651022 0.014717642 -0.030662086 -0.0077652163 0.047356084 -0.016846694 0.053544268
-0.041965198 -0.042201772 -0.04393753 0.0028664721 -0.049055595 0.00066044106 -0.018507758 0.00623723
-0.04257122 -0.016981656 -0.0187897 -0.009661812 0.048469856 0.040638003 0.031182507 -0.040558502
-0.03496486 0.025651423 -0.016195705 -0.038190696 -0.021826737 -0.036204718 0.0037240793 -0.031282466
0.035556365 -0.043110505 0.035480365 0.03477183 -0.030634854 0.04437059 0.02804498 0.045122482
0.02006365 0.03874511 -0.0010110621 0.01717885 0.008132552 -0.05868968 0.01596108 -0.031189954
