lora_crossencoder_no_instruction_21/checkpoint-3112/adapter_model.safetensors (safetensors, 594924 bytes, 25 tensors)

base_model.model.bert.encoder.layer.0.attention.self.query.lora_A.weight f4 [16, 384]
-0.050952923 -0.044853427 -0.006680096 0.0392109 0.043356173 -0.039552018 0.0012449617 -0.051131774
-0.026671782 -0.030355282 -0.018412521 0.008220748 -0.017697936 0.0034192367 0.04741495 0.04134049
-0.03807295 -0.04321312 -0.020212526 -0.02840156 0.03703645 0.04659565 0.039018743 0.03617575
0.038597044 0.02104923 0.005589292 0.0011957097 -0.04759535 0.030906048 0.030287178 -0.0329544
-0.0072295982 0.0011530932 -0.027739678 -0.013050914 0.017611405 -0.024728509 0.046021752 -0.039470173
-0.0030225497 -0.006016372 0.04924614 0.04413022 0.030086499 0.007871782 0.018382652 0.02372783
-0.02561239 0.049735688 -0.03244071 0.055721465 0.04320717 0.031007444 -0.023887975 -0.0139969075
0.043826815 -0.012022854 0.045506008 0.048913166 0.02744151 0.029953102 -0.050351627 -0.03282853
0.048413754 0.017250884 -0.052653957 -0.044941902 0.01738394 0.027090205 0.044293065 0.03852983
-0.04657591 -0.024719318 -0.006029053 -0.052642174 -0.029681027 0.0362854 0.0190503 0.039639223
-0.039785247 -0.043786313 0.023437453 -0.04574231 0.029928345 -0.024848692 0.007861628 -0.03563122
-0.030677622 -0.043859255 0.017022602 0.02914415 -0.051678825 0.048685655 0.019569796 -0.042949334
0.015446161 -0.037368607 -0.013414767 0.008745776 -0.00085327466 0.011489993 0.014106154 -0.022940256
-0.025535744 0.034568205 0.010367305 0.0056188414 -0.015422888 0.044220418 -0.00013552328 -0.02643045
0.048675403 -0.008915925 -0.018886847 -0.012099886 0.045611795 -0.043579124 -0.054329418 0.005541277
-0.031693835 -0.0054821777 0.008611046 -0.040934578 -0.017860118 -0.021308346 0.00050732866 -0.012378244
0.033805702 0.041498188 -0.01619592 -0.011925909 -0.032592703 0.04443487 0.03564886 -0.0077078566
0.0347654 -0.026882468 0.027361214 0.0075563733 0.03634319 -0.038906373 0.04725013 -0.007807108
0.039048854 -0.045066625 0.0041362806 0.034435228 -0.031813975 0.047239285 -0.043549806 -0.004316148
0.0032792091 0.012506951 -0.011397357 0.045702275 0.029482452 0.046066858 0.004642494 -0.04313894
-0.030912755 0.040099207 0.03274304 0.01960828 -0.038909264 -0.038075194 -0.04974404 0.0005843827
-0.051133946 0.0475059 0.018764304 0.029818572 -0.008990304 0.042404182 -0.03288217 0.019604858
-0.041975804 0.046694472 0.006972782 -0.011490441 -0.0060053435 -0.030689036 -0.009025709 0.026981287
0.008728463 0.021257408 -0.02184797 -0.02554567 0.0033933807 -0.02106699 -0.030861158 -0.029157652
0.021180643 0.017574571 -0.04920337 0.0070179715 0.019173559 0.039519764 0.03168241 0.008753191
0.0197191 -1.44356645e-05 -0.022706993 0.033766568 -0.0073317913 0.016375117 0.021128334 -0.026377082
0.035996936 -0.01233861 0.0018888831 0.0071214223 0.036384184 0.035044055 0.030613493 0.02817829
-0.032641813 -0.039714172 -0.028457541 -0.010679295 -0.033229824 0.008881776 -0.049170878 0.0453215
0.014854315 -0.048152775 -0.026308155 0.04315561 0.021682872 0.039477438 0.045012366 0.044424675
0.025703738 -0.043659307 0.033343647 0.02868345 -0.016458834 0.0025067744 0.016615735 0.03113954
-0.029125903 0.029144086 0.01798042 -0.009289491 0.020381782 0.0014803315 0.035323218 0.031587243
-0.02829727 -0.037261274 -0.0026286985 -0.008084056 0.022650123 0.02050739 0.004377145 -0.021476245
00000000: 03b4 50bd 3ab8 37bd b5e4 dabb 9c9b 203d
00000010: 3e96 313d 4c01 22bd fc2d a33a 8d6f 51bd
00000020: c87e dabc a4ab f8bc dbd5 96bc 51b0 063c
00000030: 43fb 90bc 4615 603b 2e36 423d a554 293d
00000040: 62f2 1bbd 3e00 31bd bd94 a5bc 63aa e8bc
00000050: 88b3 173d 15db 3e3d 1ed2 1f3d 062d 143d
00000060: ef17 1e3d 6f6f ac3c 6126 b73b 5cb9 9c3a
00000070: 57f3 42bd ae2e fd3c d11c f83c 31fb 06bd
00000080: 44e6 ecbb 6323 973a 523e e3bc 80d3 55bc
00000090: cb45 903c 7193 cabc 4e81 3c3d 7aab 21bd
000000a0: f815 46bb fc24 c5bb 52b6 493d e4c1 343d
000000b0: f677 f63c a6f8 003c 3797 963c de60 c23c
000000c0: 13d1 d1bc a6b7 4b3d 8de0 04bd 313c 643d
000000d0: 00fa 303d 5303 fe3c b7b0 c3bc 4953 65bc
000000e0: bf83 333d 81fb 44bc 8264 3a3d 2c59 483d
000000f0: 05cd e03c 3560 f53c 823d 4ebd 3577 06bd
00000100: 804d 463d ba51 8d3c adab 57bd 0015 38bd
00000110: c468 8e3c 47ec dd3c a56c 353d 74d1 1d3d
00000120: 62c6 3ebd 2b80 cabc 5d8f c5bb 529f 57bd
00000130: a025 f3bc 00a0 143d 600f 9c3c bd5c 223d
00000140: dbf5 22bd 4759 33bd e7ff bf3c 4a5c 3bbd
00000150: 4a2c f53c 7c8f cbbc 0fce 003c 0bf2 11bd
00000160: a34f fbbc c3a5 33bd fc72 8b3c b6bf ee3c
00000170: 2dad 53bd 9c6a 473d d650 a03c a4eb 2fbd
00000180: e511 7d3c d30f 19bd 9cc9 5bbc 714a 0f3c
00000190: 4bae 5fba 8640 3c3c 801d 673c 34ed bbbc
000001a0: 5630 d1bc 6497 0d3d a1db 293c 421e b83b
000001b0: 48b0 7cbc 7820 353d 411b 0eb9 ac84 d8bc
000001c0: dc5f 473d 1a14 12bc 97b8 9abc 9a3e 46bc
000001d0: 6fd3 3a3d 0680 32bd 8688 5ebd 9a93 b53b
000001e0: 65d1 01bd d7a3 b3bb 5815 0d3c 04ab 27bd
000001f0: 624f 92bc d78e aebc 40fe 043a 1ece 4abc
00000200: d977 0a3d 01fa 293d 4ead 84bc e364 43bc
00000210: ed7f 05bd 5701 363d 8a04 123d 3092 fcbb
00000220: 2a66 0e3d 9f38 dcbc a024 e03c 749b f73b
00000230: 99dc 143d 4a5c 1fbd 5a89 413d c5d2 ffbb
00000240: b1f1 1f3d c897 38bd a389 873b f40b 0d3d
00000250: 5f4f 02bd fb7d 413d 4861 32bd 796e 8dbb
00000260: 00e8 563b f4e9 4c3c fbbb 3abc 4f32 3b3d
00000270: 2f85 f13c 9ab0 3c3d 1020 983b 75b2 30bd
00000280: bf3c fdbc 113f 243d 911d 063d 8ba1 a03c
00000290: 525f 1fbd bcf4 1bbd 68c0 4bbd 4231 193a
000002a0: d471 51bd 8c95 423d 99b7 993c 1446 f43c
000002b0: 114c 13bc 02b0 2d3d 74af 06bd 5e9a a03c
000002c0: d2ee 2bbd b442 3f3d ef7b e43b 6742 3cbc
000002d0: 79c8 c4bb 9367 fbbc 91e0 13bc dc07 dd3c
000002e0: d401 0f3c 0424 ae3c 84fa b2bc 2745 d1bc
000002f0: 7b63 5e3b ae94 acbc 8ad0 fcbc 07dc eebc
00000300: 0783 ad3c 8cf8 8f3c 7989 49bd 03f7 e53b
00000310: de11 9d3c 7adf 213d 6ac5 013d 8b69 0f3c
00000320: f389 a13c b530 72b7 0404 babc d04e 0a3d
00000330: 863f f0bb 1c25 863c 5415 ad3c c014 d8bc
00000340: 8671 133d e227 4abc 6694 f73a d25a e93b
00000350: 9507 153d 5b8a 0f3d 26c9 fa3c 28d6 e63c
00000360: 6cb3 05bd 54ab 22bd ca1f e9bc 36f8 2ebc
00000370: ff1b 08bd de84 113c 6767 49bd 0aa3 393d
00000380: 835f 733c d83b 45bd 3384 d7bc f0c3 303d
00000390: 47a0 b13c 18b3 213d e35e 383d a6f6 353d
000003a0: a590 d23c 1ad4 32bd 5993 083d 8ef9 ea3c
000003b0: add4 86bc b248 243b b91d 883c 5918 ff3c
000003c0: 7299 eebc 94bf ee3c ac4b 933c f332 18bc
000003d0: b2f7 a63c af07 c23a 14af 103d a061 013d
000003e0: adcf e7bc 479f 18bd 3e46 2cbb fd72 04bc
000003f0: c08c b93c 1dff a73c 276e 8f3b f3ee afbc

base_model.model.bert.encoder.layer.0.attention.self.query.lora_B.weight f4 [384, 16]
-0.0046072374 0.0019740572 0.0034865665 0.00016930689 -0.003549736 0.0009695991 0.0039559896 0.0047872667
-0.0051950184 0.0031679804 0.0013242199 0.0022843794 0.005091449 0.004167245 0.0014952184 0.0047278237
-0.0022162586 0.0012558823 0.0015965938 -0.0026172104 -0.001766097 0.0018100328 0.0026114075 0.002827484
-0.0023833169 0.0020450465 0.00030431245 0.0020800065 0.0023380483 0.0022250945 0.0029820492 0.0024265905
0.0033928063 -4.9852824e-05 -0.00013457701 0.0038968604 0.0016383335 -0.0030447969 -0.0031534825 -0.00370882
0.0039586383 0.00077318226 -0.0026235522 -0.0042069736 -0.002811177 -0.0033723044 -0.0038091284 -0.0032519689
0.0038614129 -0.0015716726 -0.002505152 -0.00017028968 0.0032784615 -6.955723e-05 -0.0042957608 -0.0041589313
0.002701063 -0.0042039063 0.0018074567 0.0021123698 -0.0028823584 -0.0010782573 0.00052314234 -0.0042402633
0.0022761037 0.0022671125 0.0022962554 0.0024529903 0.0020424488 -0.00298894 -0.0021856488 -0.0021248714
0.0026257995 0.0025134997 -0.0035946043 -0.002729004 -0.00018607482 -0.002311177 -0.0025271638 -0.001600339
-0.002600053 0.001584716 0.0018312543 -0.0009535453 -0.002085467 0.0005652516 0.0030669 0.0034327032
-0.0026407193 0.0030084425 8.446076e-05 0.0012982817 0.0024853565 0.0028236418 0.0014974367 0.003071446
-0.0019995947 0.00026525324 0.0003628666 -0.002086585 8.7582535e-05 0.0016167912 0.0029408752 0.00283447
-0.0021250583 0.0007435169 0.00074920827 0.002193627 0.0013455888 0.0022775356 0.0016692859 0.0025359504
-0.001918185 0.0024212399 0.0018251676 0.0028848285 -0.00061443273 -0.0015072457 0.0020236026 0.0015162808
-0.00074934284 0.00028804873 0.00041143034 -0.0004951587 0.0031410817 0.0005976819 -0.00092175114 0.0031203246
0.0030473324 -0.002601883 -0.0032123877 -0.0010691148 0.0028328877 0.0008862511 -0.0028984782 -0.003185639
0.0032906602 -0.0029489875 0.0005634695 -0.00067908183 -0.0035039699 -0.0020984276 -0.001018948 -0.0029421481
-0.003813143 0.0025690387 0.0026752646 0.0010269696 -0.0029960303 2.3456405e-05 0.0031885826 0.0038212081
-0.0033861562 0.0012273312 -0.00018563097 0.0016747076 0.0046796715 0.0030302193 0.0008390022 0.0043146587
0.0035186093 4.791534e-05 -0.0008835181 0.0029069567 0.0034306461 -0.002797267 -0.003999489 -0.0041474663
0.0041430434 -0.0021671664 -0.0009335037 -0.0030229732 -0.003503362 -0.0035388644 -0.0032848937 -0.0037167987
0.0022914286 0.00075438264 0.0007743572 0.002786936 0.002055207 -0.0027989615 -0.0024574012 -0.002916521
0.0026696848 0.00037072742 -0.0022143768 -0.0025846064 -0.0022142397 -0.003037075 -0.00281662 -0.002667528
-0.004440671 0.0023168214 0.0026495275 0.0022881778 -0.0023186402 -0.0021484473 0.004056119 0.004278417
-0.0044975798 0.0027071286 0.00024028504 0.0019064023 0.0044684 0.0015842266 -0.00089673715 0.004205141
-0.002765514 0.0012462074 0.0010719395 -0.0024554897 -0.0020299808 0.0010901514 0.0029926263 0.0033379616
-0.003259322 0.00060683617 0.00026535624 0.0034931567 0.0027467287 0.002897447 0.002474718 0.0030119815
-0.0015380409 0.0034726597 0.0033278202 0.0017114388 -0.0015566897 -0.0019096168 0.001911797 0.00216625
-0.0016842093 0.003038002 -0.0015220438 -0.00017318576 0.0025838185 0.0011069402 -0.00039222746 0.0020409606
-0.00029857465 0.0022270307 0.0015804088 0.0003538638 0.0016126909 -0.0018576465 0.0012015958 0.001332281
-0.00046554636 0.0010029646 -0.00085268676 0.00035544415 0.00069840834 0.0005180425 -2.6188312e-05 0.0007437472
00000000: 4ff8 96bb 2f5f 013b e17e 643b f987 3139
00000010: b0a2 68bb b22c 7e3a 3fa1 813b 81de 9c3b
00000020: f93a aabb e49d 4f3b 7291 ad3a 87b5 153b
00000030: 2bd6 a63b 628d 883b 34fb c33a dceb 9a3b
00000040: a63e 11bb 6b9c a43a cc44 d13a 8185 2bbb
00000050: 627c e7ba 9f3e ed3a 2624 2b3b 4f4d 393b
00000060: 6c31 1cbb 3006 063b 208c 9f39 b850 083b
00000070: f139 193b e4d2 113b 7c6e 433b 6f07 1f3b
00000080: d859 5e3b 1019 51b8 3e1d 0db9 7862 7f3b
00000090: 5abd d63a 378b 47bb a8aa 4ebb ad0f 73bb
000000a0: 77b7 813b 62af 4a3a e7ef 2bbb a7da 89bb
000000b0: b93b 38bb e101 5dbb 92a2 79bb fc1e 55bb
000000c0: c20f 7d3b 9500 ceba 7a2d 24bb ca8f 32b9
000000d0: 75db 563b 41df 91b8 74c3 8cbb a547 88bb
000000e0: 5104 313b ecc0 89bb 2fe8 ec3a af6f 0a3b
000000f0: f3e5 3cbb 5054 8dba 7d23 093a e8f1 8abb
00000100: af2a 153b d693 143b c67c 163b 59c2 203b
00000110: 9bda 053b 18e2 43bb 1a3d 0fbb 6d41 0bbb
00000120: 9b15 2c3b 87b9 243b 7493 6bbb 17d9 32bb
00000130: 141d 43b9 1e77 17bb c69e 25bb 77c2 d1ba
00000140: a765 2abb 3fb6 cf3a b306 f03a 58f7 79ba
00000150: 55ac 08bb 652d 143a 0bfe 483b 34f7 603b
00000160: eb0f 2dbb 4a29 453b 8620 b138 1b2b aa3a
00000170: 5de1 223b d90c 393b a345 c43a 504a 493b
00000180: a20b 03bb b011 8b39 213f be39 16bf 08bb
00000190: 84ac b738 83ea d33a b3bb 403b 84c2 393b
000001a0: 9044 0bbb 93e8 423a 8466 443a f4c2 0f3b
000001b0: 785e b03a b542 153b f1cb da3a 3032 263b
000001c0: 9c6b fbba aaad 1e3b 763a ef3a 640f 3d3b
000001d0: e211 21ba c68e c5ba 6b9e 043b f1bd c63a
000001e0: 8c6f 44ba 3f05 9739 3fb5 d739 8acd 01ba
000001f0: 9bda 4d3b c1ad 1c3a aca1 71ba 5c7e 4c3b
00000200: c1b5 473b 5a84 2abb ec86 52bb 8a21 8cba
00000210: f8a7 393b 4e53 683a 65f4 3dbb 27c6 50bb
00000220: 1ea8 573b cd43 41bb ccb5 133a 6904 32ba
00000230: dca2 65bb c685 09bb 398e 85ba 0ed1 40bb
00000240: ece5 79bb 515d 283b 7e53 2f3b 629b 863a
00000250: 0c59 44bb 3fc4 c437 8af7 503b 3c6d 7a3b
00000260: 46ea 5dbb 67de a03a efa5 42b9 dd81 db3a
00000270: ee57 993b a596 463b 7cf0 5b3a fb61 8d3b
00000280: 7898 663b b4f8 4838 e59b 67ba a482 3e3b
00000290: b1d4 603b 5a52 37bb 250e 83bb 78e7 87bb
000002a0: 5ec2 873b 0507 0ebb 5fb6 74ba 131d 46bb
000002b0: a998 65bb 4bec 67bb 5f47 57bb 8995 73bb
000002c0: cb2b 163b c3c1 453a 3bfe 4a3a 07a5 363b
000002d0: a7b0 063b c86e 37bb 5a0c 21bb 1a23 3fbb
000002e0: e1f5 2e3b 315e c239 141f 11bb 8062 29bb
000002f0: c71c 11bb aa09 47bb 0b97 38bb b2d1 2ebb
00000300: 0c83 91bb d0d5 173b b2a3 2d3b 41f5 153b
00000310: 54f4 17bb f7cc 0cbb 31e9 843b f731 8c3b
00000320: 6f60 93bb 156a 313b 06f5 7b39 3fe0 f93a
00000330: a86b 923b d3a5 cf3a 0313 6bba 48cb 893b
00000340: a03d 35bb c857 a33a 5280 8c3a 48ec 20bb
00000350: 6d09 05bb 69e3 8e3a f01f 443b b4c1 5a3b
00000360: 599a 55bb 1614 1f3a 831f 8b39 72ed 643b
00000370: 7602 343b 18e3 3d3b e12e 223b aa64 453b
00000380: 1798 c9ba 9095 633b 8f17 5a3b 5b52 e03a
00000390: d709 ccba 1b4c faba 4395 fa3a a5f7 0d3b
000003a0: b0c0 dcba 3719 473b 517f c7ba 3399 35b9
000003b0: 4855 293b c016 913a e1a3 cdb9 a3c1 053b
000003c0: 038a 9cb9 60f3 113b b825 cf3a cc86 b939
000003d0: ed60 d33a 467c f3ba dd7e 9d3a ef9f ae3a
000003e0: 9314 f4b9 e875 833a d786 5fba e85a ba39
000003f0: 6415 373a 3ecd 073a f9ae dbb7 08f8 423a

base_model.model.bert.encoder.layer.0.attention.self.value.lora_A.weight f4 [16, 384]
-0.03380568 -0.011205103 0.031210627 -0.016147144 0.005151451 0.011786736 -0.04269034 -0.0238376
-0.001222623 0.00039138188 -0.059057463 0.0151883215 0.017318752 -0.01590309 0.01892858 -0.029125445
0.04185114 -0.015348813 0.039766375 0.027682524 -0.028774831 -0.007614503 -0.02558166 -0.041836374
0.00091766624 -0.010764429 0.019945716 -0.0039878767 -0.02263188 0.058614563 0.0350121 0.02623277
-0.0061682034 0.056526486 -0.051582925 0.0048015397 0.003027511 0.023220494 -0.028274613 -0.04802825
-0.055926047 -0.0152262375 -0.021355933 -0.03493107 -0.048274066 -0.042786513 -0.026362821 0.051715404
-0.034067057 -0.036788885 -0.0065364987 0.053966716 -0.058543533 0.039230626 -0.029061098 0.024395226
0.044089504 -0.03813576 -0.012451809 0.04527921 0.024955072 0.013873423 0.016565662 0.049485754
-0.040032655 0.03202455 0.030195396 0.0038834698 0.03900462 -0.029709883 -0.030927874 -0.0178517
-0.052669406 -0.03915583 0.016837977 0.02522875 0.023829322 -0.03143518 -0.0033793591 0.016149772
-0.03284717 -0.012618286 0.010376027 0.021385068 0.038836822 0.013181802 0.052036166 0.04700461
0.00038764524 0.02166719 -0.0019929793 -0.008226846 -0.057822373 0.02241159 0.03427259 0.017677171
0.04442682 0.04498544 0.04723951 0.010369229 0.01792075 -0.0101136165 -0.0035052039 -0.031496566
0.034968615 0.0542263 0.030118456 -0.026621135 0.03936381 -0.028938904 0.041774366 0.0067125354
-0.04876241 -0.040716324 0.030421251 0.0041414504 -0.048405565 0.022555195 -0.043555 -0.031590227
-0.0036980533 0.024264801 0.0032425416 -0.0021645038 0.029317865 0.029312534 -0.013181007 0.03962286
-0.01161231 0.009291738 0.026737293 -0.024050564 -0.03913618 -0.014153385 -0.023888566 0.03888591
0.034689285 -0.016380493 0.0451968 -0.02516445 0.041071497 -0.019387687 -0.047515746 0.019545622
0.0216967 0.04154799 -0.008236231 0.028006043 0.02958982 -0.010704286 -0.038252812 0.03735613
-0.034233633 -0.0071243537 0.014327207 -0.01472197 0.014700888 0.00036860708 0.058560412 -0.020687163
0.01941577 0.0024574671 0.009531273 0.01529348 -0.05329644 -0.019280056 -0.012138647 0.017137015
-0.007648948 0.05183791 -0.05392773 0.03623396 -0.04078582 0.04168815 -0.04597941 0.02698819
-0.040157888 0.038112987 0.014511208 -0.054126777 -0.018909384 -0.008135778 -0.016139973 -0.0029143824
0.012282413 -0.010079446 0.009079954 0.02278823 -0.008116974 0.04703549 -0.022427157 0.036222816
-0.03500581 -0.030192617 -0.040404785 0.017891364 0.04199196 -0.02747394 0.03775028 0.02177358
0.034531314 -0.0038092323 -0.019928273 0.03523064 0.003916462 0.0022791878 -0.016592348 -0.0053316373
-0.01062047 0.03608894 -0.01366517 0.03123387 -0.0495113 -0.045883406 0.0072104917 0.02325321
0.010561781 -0.039934132 -0.0417676 -0.026836576 0.05356001 -0.015986566 -0.029504763 0.036601327
0.039510988 0.034314424 -0.036761206 -0.057565197 0.015863499 -0.033691984 0.047133427 0.047971684
-0.03647647 0.019836908 0.016472852 0.04843004 0.042611025 0.019310283 -0.025718959 -0.031336553
-0.02427552 0.017873747 -0.020914176 -0.04029947 0.042385563 -0.004692688 0.028303277 -0.02375699
-0.0008602172 0.032860853 0.0031335643 -0.01943931 -0.042136695 0.01795629 0.013481139 0.03294351
00000000: d377 0abd 9c95 37bc 6ead ff3c 0447 84bc
00000010: 81cd a83b 271d 413c 11dc 2ebd 1247 c3bc
00000020: 6c40 a0ba 6332 cd39 3de6 71bd 70d8 783c
00000030: 0ee0 8d3c 3247 82bc 1c10 9b3c 7c98 eebc
00000040: 1a6c 2b3d 9679 7bbc 11e2 223d 76c6 e23c
00000050: 32b9 ebbc 1583 f9bb a190 d1bc 9e5c 2bbd
00000060: 8a8f 703a 4a5d 30bc 3365 a33c bcac 82bb
00000070: 7e66 b9bc d315 703d d968 0f3d 1be6 d63c
00000080: a41e cabb 5188 673d 9e48 53bd 3c56 9d3b
00000090: 3569 463b e838 be3c 29a0 e7bc 45b9 44bd
000000a0: b612 65bd 7877 79bc a3f2 aebc e213 0fbd
000000b0: 07bb 45bd e940 2fbd d8f6 d7bc 88d3 533d
000000c0: e689 0bbd f1af 16bd 2030 d6bb 340c 5d3d
000000d0: 58cb 6fbd 4bb0 203d 8a11 eebc 7fd8 c73c
000000e0: 3297 343d 3e34 1cbd ac02 4cbc b176 393d
000000f0: 946e cc3c 5b4d 633c b6b4 873c 93b1 4a3d
00000100: 48f9 23bd 2d2c 033d 565c f73c d081 7e3b
00000110: 4fc3 1f3d 2462 f3bc 745c fdbc ba3d 92bc
00000120: e0bb 57bd dd61 20bd ccef 893c 86ac ce3c
00000130: b635 c33c 2dc2 00bd 3d78 5dbb 874c 843c
00000140: c18a 06bd edbc 4ebc 3600 2a3c bd2f af3c
00000150: 5c13 1f3d 7cf8 573c e023 553d e887 403d
00000160: dd3c cb39 647f b13c a59c 02bb e5c9 06bc
00000170: 27d7 6cbd 8398 b73c 6a61 0c3d b7cf 903c
00000180: e6f8 353d a742 383d 377e 413d b3e3 293c
00000190: 89ce 923c 95b3 25bc 90b7 65bb 8b02 01bd
000001a0: 403b 0f3d 661c 5e3d fbba f63c 9114 dabc
000001b0: f23b 213d 4811 edbc 991b 2b3d d4f4 db3b
000001c0: 18bb 47bd 29c6 26bd fd35 f93c 01b5 873b
000001d0: ea44 46bd acc5 b83c ba66 32bd c164 01bd
000001e0: 0a5b 72bb fac6 c63c d280 543b 59da 0dbb
000001f0: 052c f03c d720 f03c 26f5 57bc 944b 223d
00000200: 8f41 3ebc 603c 183c 2b08 db3c b005 c5bc
00000210: 424d 20bd 99e3 67bc f4b1 c3bc d546 1f3d
00000220: 5a16 0e3d 6230 86bc 4820 393d ad25 cebc
00000230: 963a 283d edd2 9ebc df9f 42bd 241e a03c
00000240: 47bd b13c 3a2e 2a3d 42f1 06bc ee6c e53c
00000250: 5a66 f23c 0861 2fbc fbae 1cbd be02 193d
00000260: 9138 0cbd 6973 e9bb a9bc 6a3c 6b34 71bc
00000270: fedb 703c 9b41 c139 0bdd 6f3d 2078 a9bc
00000280: d20d 9f3c 750d 213b 0e29 1c3c 8191 7a3c
00000290: 5e4d 5abd 35f1 9dbc 2de1 46bc ed62 8c3c
000002a0: 07a4 fabb fd53 543d 53e3 5cbd 106a 143d
000002b0: 080f 27bd 32c1 2a3d e854 3cbd 5616 dd3c
000002c0: 997c 24bd 5d1c 1c3d 6bc0 6d3c 0ab4 5dbd
000002d0: dae7 9abc ed4b 05bc fa37 84bc 39ff 3ebb
000002e0: 2d3c 493c 4324 25bc 16c4 143c 62ae ba3c
000002f0: 0efd 04bc 49a8 403d 28b9 b7bc 605e 143d
00000300: 4162 0fbd 8256 f7bc 7d7f 25bd e990 923c
00000310: c3ff 2b3d 0711 e1bc 0aa0 1a3d 825e b23c
00000320: b570 0d3d 50a4 79bb 9e40 a3bc 014e 103d
00000330: aa55 803b 6d5e 153b adec 87bc 04b5 aebb
00000340: 7b01 2ebc ffd1 133d e1e3 5fbc 2cde ff3c
00000350: 5ccc 4abd 3df0 3bbd fd45 ec3b 847d be3c
00000360: 520b 2d3c f991 23bd 8114 2bbd 61d8 dbbc
00000370: be61 5b3d 42f6 82bc f9b3 f1bc 46eb 153d
00000380: 46d6 213d 488d 0c3d eb92 16bd 7cc9 6bbd
00000390: 2bf4 813c 9b00 0abd fb0e 413d f57d 443d
000003a0: 5a68 15bd 0381 a23c 13f2 863c 945e 463d
000003b0: e688 2e3d 9930 9e3c 91b0 d2bc c25a 00bd
000003c0: 75dd c6bc f76b 923c 3554 abbc 0f11 25bd
000003d0: 7c9c 2d3d 1fc5 99bb 46dc e73c 059e c2bc
000003e0: 3380 61ba 1a99 063d 7c5c 4d3b 303f 9fbc
000003f0: 8797 2cbd 1219 933c ffdf 5c3c c6ef 063d

base_model.model.bert.encoder.layer.0.attention.self.value.lora_B.weight f4 [384, 16]
0.004120378 -0.002285787 -0.0035859398 -0.0009085533 0.0022187103 -0.004945742 -0.0049666218 -0.0049668746
-0.003611354 -0.00388064 -0.00445672 -0.004496907 -0.0029607788 0.004260562 0.003326525 0.0016780661
0.00088780996 -0.0032078652 -0.003567425 -0.0027636285 0.0030795801 -0.0014197213 -0.0020216473 -0.0034875402
-0.0035744272 -0.001358223 -0.002000314 -0.0034638278 -0.0034122535 0.0038225467 0.003525996 0.0027203695
-0.001761111 -0.0019573865 -4.6171526e-06 -0.0015974534 0.0022212563 0.0017095073 0.0016153725 0.0016092719
0.0012484383 0.0017363606 0.0015116927 0.0017106577 -0.0027966427 -0.002131965 0.002718558 0.0016127516
0.006150061 -0.003406846 -0.0048339963 -0.0016539064 0.0033700413 -0.0063541615 -0.006300534 -0.0058342624
-0.0051822755 -0.005827844 -0.0062074824 -0.005688128 -0.003889001 0.005029277 0.0034285986 0.002135175
-0.004250153 -0.0002817854 0.00029426167 -0.00059510546 3.5580706e-05 0.003048905 0.002128493 0.00040721177
0.00038773383 0.004414745 0.00093488285 0.00035043736 9.608092e-05 -0.00038309168 0.00013912268 0.00052597764
0.0010468322 -0.001447861 -0.0010010175 -0.0026686776 0.001107358 -0.0008394104 -0.00082119374 -0.0013648678
-0.00067228294 -0.00092022284 -0.0005949711 -0.0012964823 -0.0012103203 0.0013689263 0.0017644336 0.002247647
-0.005838606 0.005216578 0.005669961 0.0044043083 -0.00466411 0.00724197 0.006901819 0.0072777416
0.0057343896 0.0053842217 0.006818639 0.0068882825 0.0051819347 -0.006188778 -0.0054729967 -0.004576907
0.0004946933 0.002047613 -9.095423e-05 0.0018681902 -0.0018607595 0.00029774712 -0.00010920764 -1.447104e-05
0.00038110552 6.772959e-05 0.0003080679 0.00020487096 0.0018030195 0.00079710624 -0.0007257699 -0.0013584036
-0.001490678 0.004930727 0.0024766682 0.0053422223 -0.0051042833 0.0014628511 0.0014773649 0.0022327572
0.0027148847 0.0015115992 0.0014947635 0.0023128784 0.005344431 -0.002242258 -0.005739939 -0.0054571996
-0.0011796647 0.0011951041 0.0011503111 0.001175654 -0.0016314873 0.00073004165 0.00081819145 0.00074480294
0.001442958 0.0007365158 0.0010394688 0.0008954632 0.0013035578 -0.0014967708 -0.0005983654 -0.0010033991
0.0031051869 0.00077582843 0.0008047328 0.0008877441 -0.00055330555 -0.0024791684 -0.0026737468 -0.0016375389
0.00065206335 -0.0027111731 -0.0028301512 -0.0022444671 0.0008841488 -0.00023767486 -0.0012656479 -0.0011867307
0.00037408868 0.004059051 0.003501251 0.004655586 -0.0038428265 0.0018751592 0.0022598435 0.00401664
0.0037511569 -0.00078867236 0.0023877996 0.0038814354 0.004207853 -0.0037530311 -0.0046755816 -0.004352659
0.00544923 -0.004078371 -0.004579927 -0.003892405 0.0042591793 -0.004938585 -0.004958698 -0.0051749987
-0.0048796767 -0.005369556 -0.0049814642 -0.005176375 -0.0047609317 0.0047696796 0.004963083 0.0037145917
0.007351652 -0.005423338 -0.0063475696 -0.001774558 0.0046793097 -0.0072840783 -0.0072307796 -0.0067462
-0.006290607 -0.0072734635 -0.0067431354 -0.007574603 -0.0044335644 0.007024476 0.0050895554 0.0030683805
-0.0056620263 0.0015124724 0.0022056422 0.00016173716 -0.0025328265 0.0041602254 0.004930489 0.0011714256
0.0036528525 0.00556154 0.004415775 0.002069897 0.00075098826 -0.002378123 0.00015669176 0.0001695299
0.0022755393 -0.002230316 -0.0026324084 -0.002295789 0.0017693539 -0.0018837644 -0.0018612876 -0.002647969
-0.0027800011 -0.0020030248 -0.0018911979 -0.002641097 -0.0026503378 0.0030356494 0.0034107731 0.0024002884
00000000: 3c04 873b 24cd 15bb 1602 6bbb fb2b 6eba
00000010: c867 113b e40f a2bb 0bbf a2bb 2ac1 a2bb
00000020: 77ac 6cbb 5652 7ebb ad09 92bb ca5a 93bb
00000030: a009 42bb 2f9c 8b3b d401 5a3b 8ef2 db3a
00000040: ebbb 683a 0c3b 52bb 76cb 69bb fe1d 35bb
00000050: c8d2 493b f115 baba 9d7d 04bb 378f 64bb
00000060: f040 6abb 6706 b2ba b317 03bb 6301 63bb
00000070: 1da0 5fbb b183 7a3b 6614 673b 3a48 323b
00000080: 14d5 e6ba 7f47 00bb 0aed 9ab6 a461 d1ba
00000090: 7f92 113b 8c11 e03a e8ba d33a 34ee d23a
000000a0: a3a2 a33a 9896 e33a fd23 c63a 2638 e03a
000000b0: e147 37bb 70b8 0bbb d629 323b f762 d33a
000000c0: 7386 c93b 6445 5fbb 8066 9ebb e4c7 d8ba
000000d0: e9db 5c3b 9236 d0bb b674 cebb 572d bfbb
000000e0: 14d0 a9bb 80f7 bebb 2368 cbbb 7a63 babb
000000f0: 9cde 7ebb a2cc a43b 57b2 603b 4bee 0b3b
00000100: de44 8bbb 99bc 93b9 2247 9a39 da00 1cba
00000110: 7e3c 1538 23d0 473b 307e 0b3b 0a7f d539
00000120: c148 cb39 91a9 903b ed12 753a e8ba b739
00000130: 0d7f c938 b2d9 c8b9 76e1 1139 c3e1 093a
00000140: dc35 893a 27c6 bdba 9334 83ba fbe4 2ebb
00000150: c524 913a e10b 5cba 6145 57ba 5de5 b2ba
00000160: 253c 30ba 1c3b 71ba d6f7 1bba baee a9ba
00000170: 9ca3 9eba 8b6d b33a 9144 e73a 424d 133b
00000180: c751 bfbb d4ef aa3b 15cb b93b 0452 903b
00000190: 64d5 98bb 0c4e ed3b a728 e23b 1f7a ee3b
000001a0: 8ce7 bb3b 206e b03b e46e df3b 1ab7 e13b
000001b0: 38cd a93b 3ccb cabb d356 b3bb e1f9 95bb
000001c0: 4eae 013a 3f31 063b aebe beb8 10de f43a
000001d0: bae4 f3ba f11a 9c39 6806 e5b8 a5c8 72b7
000001e0: 1ecf c739 0c0a 8e38 2c84 a139 a1d2 5639
000001f0: 4c53 ec3a e5f4 503a 9841 3eba 760c b2ba
00000200: db62 c3ba f091 a13b 994f 223b cf0d af3b
00000210: d541 a7bb 23bd bf3a 24a4 c13a 7353 123b
00000220: 35ec 313b da20 c63a f1eb c33a a993 173b
00000230: 5620 af3b d9f2 12bb 1916 bcbb 4fd2 b2bb
00000240: fb9e 9aba 0aa5 9c3a 09c6 963a 6718 9a3a
00000250: a1d7 d5ba 4460 3f3a e67b 563a e13e 433a
00000260: a321 bd3a bd12 413a c93e 883a 85bd 6a3a
00000270: 24dc aa3a 4b2f c4ba 9fdb 1cba 7d84 83ba
00000280: 6480 4b3b f760 4b3a b4f4 523a 80b7 683a
00000290: b50b 11ba 8b79 22bb 073a 2fbb b0a2 d6ba
000002a0: 3bef 2a3a f0ad 31bb 0f7a 39bb e917 13bb
000002b0: 39c6 673a 5c38 79b9 19e4 a5ba 138c 9bba
000002c0: 5521 c439 ca01 853b 3f75 653b e38d 983b
000002d0: eed7 7bbb e7c7 f53a e219 143b 059e 833b
000002e0: f8d5 753b e8be 4eba a17c 1c3b ae5f 7e3b
000002f0: 08e2 893b 6af5 75bb 9f35 99bb c0a0 8ebb
00000300: 748f b23b dba3 85bb 3613 96bb b817 7fbb
00000310: 9690 8b3b dbd3 a1bb 937c a2bb 0993 a9bb
00000320: b2e5 9fbb 1af3 afbb 8d3b a3bb 959e a9bb
00000330: 9701 9cbb f94a 9c3b 5ca1 a23b 8270 733b
00000340: 20e6 f03b 42b6 b1bb 46ff cfbb 4998 e8ba
00000350: e554 993b 47af eebb 2df0 ecbb 3a0f ddbb
00000360: 7021 cebb 3c56 eebb 85f5 dcbb 6034 f8bb
00000370: 6f47 91bb 932d e63b 49c6 a63b e216 493b
00000380: 8588 b9bb 273e c63a 898c 103b fd97 2939
00000390: c7fd 25bb 8052 883b f18f a13b 858a 993a
000003a0: b264 6f3b 943d b63b 35b2 903b 1ca7 073b
000003b0: f8dd 443a 49da 1bbb a04d 2439 d6c3 3139
000003c0: 3721 153b 7e2a 12bb 7c84 2cbb f374 16bb
000003d0: aae9 e73a a5e8 f6ba 73f6 f3ba 8c89 2dbb
000003e0: ae30 36bb 2e45 03bb 12e2 f7ba 4116 2dbb
000003f0: 4ab1 2dbb bff1 463b 4787 5f3b 284e 1d3b

base_model.model.bert.encoder.layer.1.attention.self.query.lora_A.weight f4 [16, 384]
-0.04607167 -0.03883968 -0.027344877 -0.003573253 -0.026775967 0.0057038986 0.045538597 -0.012121887
-0.001156244 -0.00036319863 0.03764014 -0.029420182 0.031681433 -0.032232612 -0.016445829 -0.014315024
-0.01620598 -0.045223635 -0.011757668 0.01408951 0.0032717907 -0.010931677 0.03571663 -0.00358315
-0.046269074 -0.012223666 -0.035269227 -0.012520975 0.010815493 0.012757332 -0.019369485 -0.029957239
-0.009867532 -0.037803918 0.0062555615 0.014637426 -0.04213123 0.028027691 0.028244363 -0.012029087
0.004096336 0.04458927 -0.0014960519 -0.03798306 -0.04386217 -0.03396075 -0.00042048076 -0.0048079286
0.02157828 -0.033030096 0.032388967 0.031766094 -0.03741397 -0.011527928 0.051030006 -0.04252819
0.008152058 -0.010605471 0.0098349955 -0.042589117 0.04219414 -0.04332635 0.023546327 -0.018516248
0.042605866 -0.032137826 -0.017838446 0.002529443 -0.026097698 -0.025834808 -0.0028496236 0.048460096
-0.024927314 0.041926004 0.010566278 -0.034576397 0.025873018 0.045110673 0.042090863 -0.024523932
0.023811277 -0.02936523 -0.037189692 -0.0104887495 0.048447706 0.0058797635 -0.051423654 -0.034690347
0.024283286 0.019296633 0.034151074 0.0068813744 -0.0154303145 -0.0034161462 -0.020959796 0.026121369
0.042725947 0.020725584 0.009071593 0.031906538 -0.028638868 0.028331509 0.048359726 0.03855921
-0.040606488 -0.041985918 -0.012122508 0.021396795 -0.027210461 0.021342574 0.03498733 0.026388342
-0.005889042 -0.028465081 0.032872397 -0.04121929 -0.020472826 -0.008224779 0.029949328 0.04882217
0.0046318467 0.00028769166 0.04858539 -0.0017569776 0.0116156 0.034603357 0.051550876 0.04900946
-0.010362339 0.034220595 0.0051605306 -0.00073030574 0.056299582 0.036176432 -0.04346915 -0.03180594
0.030689515 0.033883728 -0.044835858 0.045070402 0.017165085 0.043577664 -0.026269933 0.037144747
0.0149546815 -0.041524492 0.047289316 0.031131312 0.009803884 0.040512677 0.03561709 0.05427929
0.023318522 -0.038020857 0.034375682 -0.0007441404 -0.0021834488 -0.045053463 -0.020364894 -0.0030470728
-0.0355047 0.038553074 -0.0155825885 0.049606957 -0.025410011 0.05065074 0.017263077 0.02820996
-0.0040587755 -0.023674473 0.03490147 0.034356598 0.008792985 -0.02419132 0.037463844 -0.019766273
-0.027333472 0.043706186 0.010741431 0.013030102 0.02729483 0.027139945 0.0018777688 0.008649688
-0.023219986 -0.026941393 -0.050891377 -0.0030732488 -0.00087250053 -0.0067560896 -0.007852985 0.03125178
-0.0045790067 0.040572267 0.03309288 0.049952507 0.024860157 -0.047209177 0.021737386 -0.031286508
0.02229771 -0.0104848975 0.017603328 0.041970048 -0.03604832 -0.022208136 0.04581586 0.0025705358
-0.02657131 0.0015897867 0.052313082 -0.010083118 -0.0011420215 -0.013332205 -0.003757339 0.036681417
-0.0163734 0.0034912755 0.04331754 -0.0025988934 0.03717719 0.031336803 0.030366637 -0.0019154763
0.022229271 0.009467034 0.031039989 0.033527862 0.029379755 0.0076753893 -0.042655587 0.045500908
0.04830369 -0.046792 -0.002243164 -0.02011989 -0.03353966 0.033401314 0.047421835 0.0032433136
0.015569849 -0.0047534294 0.0028604416 -0.043531332 0.033922013 -0.016022379 -0.007155178 0.031607885
0.00853244 0.0407211 -0.03547703 0.00853762 -0.020019935 -0.012990294 0.0157562 -0.04307106
00000000: a6b5 3cbd 5b16 1fbd 5d02 e0bc 3d2d 6abb
00000010: 4659 dbbc c5e7 ba3b ae86 3a3d e19a 46bc
00000020: 1c8d 97ba b26b beb9 8c2c 1a3d 9802 f1bc
00000030: 64c4 013d 5806 04bd 67b9 86bc 9089 6abc
00000040: 67c2 84bc 6b3c 39bd 3ca3 40bc b0d7 663c
00000050: 8a6b 563b c71a 33bc 9a4b 123d 48d3 6abb
00000060: a484 3dbd c545 48bc 7776 10bd c724 4dbc
00000070: 7733 313c 2104 513c c1ac 9ebc e268 f5bc
00000080: 6eab 21bc 48d8 1abd 74fb cc3b d0d1 6f3c
00000090: cc91 2cbd 549a e53c b960 e73c a615 45bc
000000a0: 8f3a 863b 3da3 363d 2c17 c4ba 2094 1bbd
000000b0: d2a8 33bd 6d1a 0bbd f973 dcb9 d48b 9dbb
000000c0: efc4 b03c 914a 07bd 4baa 043d 2a1d 023d
000000d0: 643f 19bd a2df 3cbc d704 513d 0a32 2ebd
000000e0: 3690 053c 92c2 2dbc f622 213c ed71 2ebd
000000f0: c3d3 2c3d f976 31bd 3ae4 c03c 63af 97bc
00000100: 7d83 2e3d f4a2 03bd ef21 92bc 03c5 253b
00000110: d7ca d5bc 85a3 d3bc c0c0 3abb 187e 463d
00000120: 5e34 ccbc 9aba 2b3d 2f1e 2d3c fb9f 0dbd
00000130: a7f3 d33c f8c5 383d 7867 2c3d 6ae6 c8bc
00000140: de0f c33c 5a8f f0bc 3854 18bd 01d9 2bbc
00000150: 1a71 463d 08ab c03b 9ca1 52bd 7717 0ebd
00000160: beed c63c f913 9e3c ffe1 0b3d 277d e13b
00000170: 6ecf 7cbc 6ce1 5fbb e1b3 abbc 7bfc d53c
00000180: 6701 2f3d b3c8 a93c 05a1 143c 6eb0 023d
00000190: 0f9c eabc 7b17 e83c d914 463d 43f0 1d3d
000001a0: fd52 26bd 6df9 2bbd 7c9d 46bc 5548 af3c
000001b0: 79e8 debc 9fd6 ae3c e04e 0f3d 5d2c d83c
000001c0: ddf8 c0bb 9a2f e9bc 35a5 063d 8fd5 28bd
000001d0: a1b6 a7bc 39c1 06bc 4b58 f53c c1f9 473d
000001e0: bfc6 973b 52d5 9639 7901 473d 634a e6ba
000001f0: 5c4f 3e3c 40bc 0d3d 0327 533d 25be 483d
00000200: cdc6 29bc e52a 0c3d ab19 a93b fd71 3fba
00000210: 649a 663d bd2d 143d b50c 32bd f246 02bd
00000220: 9468 fb3c aac9 0a3d cea5 37bd be9b 383d
00000230: cb9d 8c3c 7e7e 323d 0b34 d7bc 1725 183d
00000240: 7b04 753c 9615 2abd 71b2 413d 1807 ff3c
00000250: 78a0 203c 9ff0 253d 3ae3 113d f653 5e3d
00000260: 7c06 bf3c c2bb 1bbd 84cd 0c3d 6b12 43ba
00000270: 3118 0fbb fb89 38bd 47d4 a6bc 66b1 47bb
00000280: 606d 11bd d4e9 1d3d 1d4e 7fbc aa30 4b3d
00000290: a828 d0bc 2677 4f3d 4c6b 8d3c 9318 e73c
000002a0: 7aff 84bb f8f0 c1bc d8f4 0e3d 81b9 0c3d
000002b0: 7410 103c e02c c6bc b073 193d e1ec a1bc
000002c0: 72ea dfbc 4205 333d d4fc 2f3c 357c 553c
000002d0: 6899 df3c 9754 de3c 771f f63a 6cb7 0d3c
000002e0: d737 bebc 32b4 dcbc 7a73 50bd 8f68 49bb
000002f0: 85b8 64ba 3062 ddbb cea9 00bc de01 003d
00000300: 7e0b 96bb 1b2f 263d 668c 073d 009b 4c3d
00000310: 87a7 cb3c 695e 41bd 9a12 b23c 4826 00bd
00000320: b0a9 b63c d9c8 2bbc db34 903c c9e8 2b3d
00000330: 67a7 13bd d6ed b5bc 69a9 3b3d 6f76 283b
00000340: 13ac d9bc 6460 d03a 3e46 563d aa33 25bc
00000350: e2af 95ba 526f 5abc b03d 76bb 413f 163d
00000360: 8221 86bc e2cd 643b bc6d 313d 3252 2abb
00000370: 1c47 183d 055b 003d 74c3 f83c b810 fbba
00000380: 291a b63c 9e1b 1b3c 9347 fe3c 8354 093d
00000390: d0ad f03c d581 fb3b a0b7 2ebd 295f 3a3d
000003a0: 17da 453d f8a8 3fbd 0c02 13bb 78d2 a4bc
000003b0: e260 09bd d1cf 083d 663d 423d c68d 543b
000003c0: ae18 7f3c a8c2 9bbb 3f76 3b3b e94d 32bd
000003d0: cff1 0a3d 5d41 83bc fc75 eabb 4577 013d
000003e0: a6cb 0b3c 2bcb 263d 5d50 11bd 60e1 0b3c
000003f0: d900 a4bc 3ed5 54bc 2513 813c 486b 30bd

base_model.model.bert.encoder.layer.1.attention.self.query.lora_B.weight f4 [384, 16]
-0.00055249955 -0.0019936701 0.0025940912 0.003976757 0.00052084733 -0.00231225 0.0019715044 -0.0013424755
0.0007774977 -0.0012489398 0.0021554239 0.0041059256 0.0010463282 -0.004566062 0.0005312948 -0.0017248265
-0.0026942918 -0.0025577229 -0.00020683407 0.0021817877 -0.00081586436 -0.0026377046 0.0006832375 -0.0028679986
-0.0004983637 -0.00034064983 0.0020640376 0.002182489 0.002905022 -0.0017596402 0.0002798058 -0.0021436973
-0.00039456823 -0.0007884808 0.0016573666 0.0007996043 -0.00021626182 -0.00041073092 0.0018419002 -0.0009131852
0.0005771629 -0.0047182874 0.00054656866 0.00051280065 0.00038064923 -0.000644973 -0.0024052032 -0.00030460642
-0.0008656472 -0.0021972638 0.0014849098 0.0037787613 -0.00024271382 -0.0040678256 0.0011761612 -0.0016275718
0.00087131275 -0.0018691195 0.001931514 0.0041595716 0.0017228073 -0.0023584233 -0.000553575 -0.0016562276
-0.0031512862 -0.007095233 0.004597259 0.006528596 0.001190707 -0.0071363617 0.004091935 -0.006277859
0.00046788543 -0.0029263 0.0067721223 0.007097315 0.006811789 -0.007133738 0.0014296477 -0.0069756033
-0.0015905165 -0.0044805342 0.0021185223 0.006116589 -0.00011095408 -0.0062258043 0.0014897193 -0.0024987804
0.0014766922 -0.0021380775 0.004903834 0.0067423326 0.0035405129 -0.0064806403 -0.0006490466 -0.0032209589
-0.00027674626 -0.00041596053 0.0021652367 7.0775146e-05 0.00082068826 -0.0005048388 0.0012837987 -0.0005786309
0.0005232276 -0.0010611829 0.00037813158 0.0006557568 5.54672e-05 -0.00031170453 8.975579e-06 -0.000103156584
-0.0003854018 -0.0010558272 0.00044893395 0.001203666 -0.00046382635 -0.0033636081 0.00029849395 -0.0006311689
0.00040647108 -0.0011199905 0.00089132687 0.0025222471 0.0008298995 -0.0007131623 -0.0013304322 -0.000718928
-0.00024227258 -0.0018848648 0.0032687576 0.0015033598 0.0008808962 -0.0012156249 0.0027215453 -0.0010640327
0.00021495094 -0.005067816 0.0015912828 0.0024418887 0.001003782 -0.0015139838 -0.0007158655 -0.0014205312
-0.00048860733 -0.0016012008 0.0020009743 0.0013268066 0.00032637187 -0.0007703677 0.0025895392 -0.0006872928
0.0013710994 -0.0018796694 0.0025601862 0.002490048 0.0015459922 -0.0011992604 0.000213721 -0.0020315663
0.0013893303 0.003472436 -0.00028948084 -0.004587837 0.0012997525 0.004545756 0.00047829814 0.0016140938
-0.0014373342 0.0017476274 -0.0041300263 -0.004825818 -0.0035899652 0.0052665398 0.0042622373 0.0027135347
0.0004701751 0.0013787297 -0.0013918756 -0.0011302673 3.0465767e-06 0.0032057047 -0.0011023458 0.001179373
-0.00077295257 0.00042424083 -0.0016618363 -0.0024304616 -0.0010660536 0.003785034 -0.0005962407 0.0011798631
-0.00031526847 0.000986254 -0.0051920996 -0.0015282324 -0.0038796437 0.00033202022 -0.0054507717 0.00073335366
0.0015172953 0.0030014357 -0.0012010544 -0.0017852434 -0.00058860204 0.0010346969 -0.0022238814 0.0018475506
0.004082283 0.0043579135 0.00033631313 -0.003444504 0.0026800882 0.0037042862 -0.0013848407 0.0042142496
-0.0014996073 0.0014116892 -0.0034895337 -0.003576882 -0.0041526146 0.0032012183 -0.00027398125 0.0044739144
5.552827e-05 -0.00055533845 0.0008501216 7.913771e-05 -0.00012977234 0.00023629487 0.00049506297 -9.941879e-05
0.0003848702 -0.002040047 -0.00021468404 0.0011396885 2.8633907e-05 7.5170945e-05 -0.0016297083 0.00037208275
0.0053499085 0.005899923 -0.0052781887 -0.0064139226 0.00096936745 0.00680403 -0.0049843714 0.005041198
-0.003041335 0.004420916 -0.006331758 -0.00648869 -0.0059823855 0.0071289376 0.0014832108 0.0066053034
00000000: 9ed5 10ba 3ca8 02bb a101 2a3b 754f 823b
00000010: 7989 083a 1e89 17bb 5b34 013b 01f6 afba
00000020: fdd0 4b3a 77b3 a3ba 0342 0d3b 008b 863b
00000030: f324 893a e79e 95bb 9746 0b3a 9313 e2ba
00000040: b792 30bb 789f 27bb 99e1 58b9 53fc 0e3b
00000050: bbdf 55ba 57dd 2cbb 4b1b 333a 08f5 3bbb
00000060: 9fa4 02ba 3f99 b2b9 ce44 073b 1708 0f3b
00000070: 2e62 3e3b baa3 e6ba e6b2 9239 467d 0cbb
00000080: 0dde ceb9 0db2 4eba ff3b d93a 899c 513a
00000090: 57c4 62b9 5f57 d7b9 ea6b f13a d262 6fba
000000a0: bf4c 173a dd9b 9abb 9a47 0f3a 786d 063a
000000b0: e091 c739 6813 29ba 9da0 1dbb 95b3 9fb9
000000c0: 9aec 62ba f8ff 0fbb 4ea1 c23a 18a5 773b
000000d0: ff80 7eb9 654b 85bb 6c29 9a3a 3f54 d5ba
000000e0: cf68 643a 3efd f4ba db2a fd3a 044d 883b
000000f0: d2cf e13a c78f 1abb ca1d 11ba c715 d9ba
00000100: cf85 4ebb 217f e8bb 9ba4 963b d5ed d53b
00000110: 7f11 9c3a 24d8 e9bb a415 863b 80b6 cdbb
00000120: 854e f539 2bc7 3fbb aee8 dd3b 9890 e83b
00000130: 6d35 df3b 22c2 e9bb 0463 bb3a 9a93 e4bb
00000140: e178 d0ba 72d1 92bb e8d6 0a3b ab6d c83b
00000150: 05b0 e8b8 d501 ccbb af42 c33a 94c2 23bb
00000160: 918d c13a fd1e 0cbb 57b0 a03b c9ee dc3b
00000170: f307 683b 8d5b d4bb c824 2aba b916 53bb
00000180: 4118 91b9 4715 dab9 a5e6 0d3b 1e6d 9438
00000190: 7523 573a 2957 04ba 2345 a83a 43af 17ba
000001a0: 3629 093a 6417 8bba f63f c639 18e7 2b3a
000001b0: 74a5 6838 466c a3b9 d195 1637 c555 d8b8
000001c0: c10f cab9 af63 8aba e55e eb39 54c4 9d3a
000001d0: b82d f3b9 fb6f 5cbb 2e7f 9c39 0775 25ba
000001e0: a01b d539 a5cc 92ba efa7 693a 494c 253b
000001f0: 9d8d 593a 83f3 3aba e661 aeba 7176 3cba
00000200: 8d0a 7eb9 910d f7ba a738 563b 620c c53a
00000210: f1eb 663a 9a55 9fba f45b 323b 0377 8bba
00000220: 7464 6139 ec0f a6bb 9792 d03a 1808 203b
00000230: 5691 833a de70 c6ba eca8 3bba 1e31 baba
00000240: e215 00ba 62df d1ba c722 033b 3ee8 ad3a
00000250: e41c ab39 80f2 49ba 42b5 293b 702b 34ba
00000260: 76b6 b33a 3d5f f6ba ccc8 273b 1330 233b
00000270: e4a2 ca3a 8030 9dba 4b1a 6039 0724 05bb
00000280: 301a b63a cf91 633b 76c5 97b9 9155 96bb
00000290: 755c aa3a 91f4 943b 17c4 fa39 0090 d33a
000002a0: ef64 bcba a510 e53a 2c55 87bb e521 9ebb
000002b0: 9f45 6bbb f092 ac3b 3daa 8b3b 8fd5 313b
000002c0: d581 f639 7eb6 b43a 986f b6ba 7a25 94ba
000002d0: ca73 4c36 cd16 523b 967c 90ba 3195 9a3a
000002e0: f89f 4aba a46c de39 f9d1 d9ba 6148 1fbb
000002f0: d3ba 8bba 550e 783b 094d 1cba a3a5 9a3a
00000300: 9e4a a5b9 3145 813a 7d22 aabb f84e c8ba
00000310: 9f41 7ebb 0013 ae39 639c b2bb 883e 403a
00000320: fbdf c63a bcb3 443b b36c 9dba d4fe e9ba
00000330: 6a4c 1aba ab9e 873a 8abe 11bb 8329 f23a
00000340: acc4 853b d4cc 8e3b 2f53 b039 30bd 61bb
00000350: 6ba4 2f3b 9cc3 723b 8b83 b5ba b017 8a3b
00000360: 798e c4ba 6e08 b93a a9b0 64bb 1f6a 6abb
00000370: a812 88bb 88cb 513b 24a5 8fb9 ea99 923b
00000380: 07e7 6838 2294 11ba b2da 5e3a bcf6 a538
00000390: 7f13 08b9 ecc5 7739 1dc7 013a 0e7f d0b8
000003a0: 67c8 c939 4fb2 05bb cf1c 61b9 9a61 953a
000003b0: d932 f037 18a5 9d38 f09b d5ba 1a14 c339
000003c0: 494e af3b 2454 c13b a8f4 acbb e22b d2bb
000003d0: 261d 7e3a 57f4 de3b f053 a3bb a230 a53b
000003e0: 2251 47bb 55dd 903b a37a cfbb 149f d4bb
000003f0: e307 c4bb dd99 e93b 4c68 c23a 4d71 d83b

base_model.model.bert.encoder.layer.1.attention.self.value.lora_A.weight f4 [16, 384]
-0.04792616 -0.03842915 0.010383033 0.034439698 0.046657372 0.019533321 0.010201467 0.03598305
0.03007597 0.052543227 -0.016855346 -0.0049089068 0.038936056 -0.015533813 0.0026054452 -0.035740923
0.005073324 0.011770566 0.021468135 -0.030690918 -0.007989059 -0.038224954 -0.00077998685 -0.050183076
-0.04656848 -0.01762474 0.012336397 -0.032929033 -0.0053484547 -0.041928753 0.00484782 -0.011737299
-0.009997969 0.028839557 0.00047730532 0.027024679 -0.02811102 0.03173968 0.03893793 0.03147904
0.016499288 -0.041537162 0.032152914 0.025853207 0.015717644 -0.0053527555 0.023098016 -0.025436219
0.035779882 -0.00377358 -0.051160693 -0.039208148 0.022847151 -0.020417145 -0.033145066 -0.01795564
0.043332957 0.020709453 0.02869974 0.028351044 -0.014746603 0.016586667 0.014093241 0.011222297
-0.03213423 -0.05240864 -0.024792148 -0.008994675 -0.027420891 0.057359442 0.0032056035 0.018571151
0.038843617 0.017190246 0.0169278 0.001054218 -0.04885074 0.040444553 0.023184752 0.0008644157
-0.00973693 -0.032289818 0.028738225 -0.022729188 -0.020554367 0.0515864 0.005110228 0.0036702638
0.0022057686 -0.038396675 -0.0563568 0.041174497 -0.025609665 0.025631275 -0.018464962 -0.042581253
0.03243217 -0.015293281 0.036384117 -0.008112469 -0.021426745 -0.039425228 0.05269473 -0.025032306
-0.033644676 0.012669305 -0.024209885 -0.042964816 0.030614119 -0.010244331 0.03519967 0.046077702
-0.028420059 -0.025423726 -0.01948344 -0.03593234 0.002146797 0.05843477 0.029132621 0.006626823
-0.008200405 0.029668419 -0.051966034 -0.010247386 0.008070173 0.022094738 0.038303655 -0.03130858
-0.024700454 0.028061962 0.017356588 0.019419868 -0.003093522 0.021123221 -0.028396795 0.05714046
0.024502276 0.04017193 -0.01120412 0.009426665 -0.009528177 -0.009264733 -0.014358132 0.0028148186
-0.010691698 -0.007785473 -0.03439591 -0.00017080865 -0.023734076 -0.029794943 0.045678902 0.036695145
0.013024687 -0.009195027 -0.0011295809 0.021395378 -0.006222602 0.04850289 -0.023851523 -0.008294171
0.023512024 0.03600501 -0.041472323 0.008090343 0.024758607 0.035985764 -0.0045524864 0.0067722755
0.055913955 0.04756885 0.008379795 -0.02914528 0.007117664 -0.041815035 0.046519104 -0.009326888
-0.03360555 0.03582963 0.03360267 -0.01988341 -0.041806366 0.028190643 -0.030124787 0.05131837
0.035421275 0.04559229 -0.024837907 0.055806074 -0.015535835 0.0520685 0.011543463 -0.00071973575
-0.021844974 -0.020654898 0.043628722 -0.0022075442 0.01651424 0.005088546 0.03073658 -0.012973681
0.011123115 0.05029025 0.02773694 -0.04958866 0.0246778 0.034369234 0.03356533 -0.02203355
0.03630978 0.03968796 -0.025922691 -0.0012083156 -0.045471232 -0.020653732 0.031748615 -0.057084348
0.013876078 0.019238664 -0.0036724291 0.003976132 0.0076171895 -0.029696053 0.025578512 -0.0030216423
0.04746831 0.024882086 0.024988782 -0.023637488 0.017659198 0.004635869 -0.040681522 -0.029628566
0.049457222 0.029346708 -0.023789706 0.044950526 0.040818337 -0.025697442 0.0075626746 0.039704863
-0.00056834513 0.025135448 0.022965016 0.028854977 0.016423147 0.0064101224 -0.047207054 -0.014942959
-0.019867262 0.043790136 0.026351118 0.030499833 -0.045056973 -0.009143214 -0.007737744 -0.017547702
00000000: 394e 44bd e267 1dbd 991d 2a3c a410 0d3d
00000010: cd1b 3f3d 5804 a03c 0e24 273c f662 133d
00000020: e161 f63c 9137 573d 3914 8abc e5da a0bb
00000030: 6a7b 1f3d 8981 7ebc 1ec0 2a3b 1365 12bd
00000040: 203e a63b 55d9 403c f1dd af3c 856b fbbc
00000050: 8be4 02bc c591 1cbd 0878 4cba c58c 4dbd
00000060: 97be 3ebd c261 90bc 991e 4a3c 98e0 06bd
00000070: 1742 afbb 7cbd 2bbd 76da 9e3b cd4d 40bc
00000080: 85ce 23bc ef40 ec3c d63e fa39 dc62 dd3c
00000090: 1549 e6bc 7701 023d 617d 1f3d 2af0 003d
000000a0: 8429 873c df22 2abd c6b2 033d 1bca d33c
000000b0: 4ac2 803c 2b66 afbb 0d38 bd3c 9e5f d0bc
000000c0: ed8d 123d 2b4e 77bb e08d 51bd b998 20bd
000000d0: f329 bb3c db41 a7bc 1fc3 07bd b517 93bc
000000e0: e67d 313d dfa6 a93c b81b eb3c 7340 e83c
000000f0: bc9b 71bc c3e0 873c 56e7 663c badd 373c
00000100: 2f9f 03bd 71aa 56bd e718 cbbc 675e 13bc
00000110: c7a1 e0bc bcf1 6a3d 1a15 523b 8722 983c
00000120: 7c1a 1f3d 8fd2 8c3c 2bac 8a3c b02d 8a3a
00000130: b717 48bd 30a9 253d f3ed bd3c f599 623a
00000140: a587 1fbc 5442 04bd 6d6c eb3c 9032 babc
00000150: a261 a8bc 434c 533d b373 a73b cf88 703b
00000160: a88e 103b d545 1dbd 63d6 66bd 97a6 283d
00000170: 5ccb d1bc aef8 d13c d543 97bc ae69 2ebd
00000180: 98d7 043d ab90 7abc 8307 153d 29ea 04bc
00000190: 2487 afbc 597c 21bd 6ed6 573d 8d10 cdbc
000001a0: 00cf 09bd eb92 4f3c cf53 c6bc e0fb 2fbd
000001b0: 76ca fa3c d7d7 27bc 872d 103d f9bb 3c3d
000001c0: 2fd1 e8bc 6b45 d0bc bc9b 9fbc ca2d 13bd
000001d0: 47b1 0c3b 4c59 6f3d 89a7 ee3c d225 d93b
000001e0: fe5a 06bc 2f0b f33c 56da 54bd a7e4 27bc
000001f0: c238 043c 0600 b53c 4be4 1c3d 6d3d 00bd
00000200: 9b58 cabc 33e2 e53c 672f 8e3c 6a16 9f3c
00000210: b0bc 4abb 9b0a ad3c 65a0 e8bc 1d0c 6a3d
00000220: ffb8 c83c 528b 243d 7c91 37bc 4c72 1a3c
00000230: 121c 1cbc 1bcb 17bc 5f3e 6bbc d278 383b
00000240: 3b2c 2fbc 481d ffbb bae2 0cbd 191b 33b9
00000250: f76d c2bc 8614 f4bc cd19 3b3d a64d 163d
00000260: 7f65 553c bda6 16bc 720e 94ba 5c45 af3c
00000270: f8e6 cbbb f7aa 463d 4564 c3bc 46e4 07bc
00000280: 4a9c c03c fd79 133d e2de 29bd 5c8d 043c
00000290: 90d2 ca3c cf65 133d 062d 95bb f7e9 dd3b
000002a0: 0806 653d 8ed7 423d 684b 093c 15c2 eebc
000002b0: 4b3b e93b 3e46 2bbd d18a 3e3d cecf 18bc
000002c0: f9a5 09bd 17c2 123d f4a2 093d 88e2 a2bc
000002d0: 273d 2bbd 10f0 e63c 42c8 f6bc 3633 523d
000002e0: e615 113d fbbe 3a3d de78 cbbc e994 643d
000002f0: 048a 7ebc c845 553d cb20 3d3c a6ac 3cba
00000300: 3bf4 b2bc 7634 a9bc 08b4 323d 72ac 10bb
00000310: df48 873c d1bd a63b 48cb fb3c 908f 54bc
00000320: ba3d 363c 26fd 4d3d 9438 e33c 7b1d 4bbd
00000330: 1929 ca3c c1c6 0c3d cd7b 093d b47f b4bc
00000340: 90b9 143d d88f 223d d35b d4bc 5860 9eba
00000350: 0b40 3abd 0432 a9bc d60a 023d 47d1 69bd
00000360: 7d58 633c 679a 9d3c 23ad 70bb 364a 823b
00000370: 9e99 f93b 2345 f3bc 078a d13c bf06 46bb
00000380: 216e 423d 84d5 cb3c 46b5 cc3c 68a3 c1bc
00000390: 06aa 903c 7de8 973b aba1 26bd 9bb7 f2bc
000003a0: a893 4a3d 8268 f03c a1e2 c2bc 0b1e 383d
000003b0: 2131 273d 7183 d2bc 50d0 f73b 91a1 223d
000003c0: fffc 14ba dbe8 cd3c 2121 bc3c 4661 ec3c
000003d0: d689 863c 010c d23b 2f5c 41bd 50d3 74bc
000003e0: abc0 a2bc 495d 333d 4dde d73c c9da f93c
000003f0: a98d 38bd 6bcd 15bc e78c fdbb 33c0 8fbc
