lora_crossencoder_has_instruction_2/checkpoint-6966/adapter_model.safetensors (safetensors, 594924 bytes, 25 tensors)

base_model.model.bert.encoder.layer.0.attention.self.query.lora_A.weight f4 [16, 384]
000000 12 97 83 3c 17 05 d3 3c 61 64 8b 3c 6c 6b e4 bc
       0.016063247 0.025759263 0.017015638 -0.027883254
000010 88 b1 0d bd 78 8e aa 3c 4e e6 05 3d 4b 43 5e 3d
       -0.034593135 0.020819888 0.03269034 0.054263394
000020 3c a9 10 3c 0b 0b 5b bd 82 10 1f 3c 14 03 31 bc
       0.008829411 -0.05347733 0.009708526 -0.010803957
000030 13 82 2a bc b0 02 43 3c 22 c1 28 bd 66 fb 0f 3d
       -0.010406989 0.011902496 -0.04119981 0.03515186
000040 2e a9 17 3d 05 93 a0 3b 4f 9e 43 3b e3 16 2f ba
       0.037026577 0.0049003386 0.0029848998 -0.00066791306
000050 5e 8d 20 3c 0a 4d 34 3c de ab 00 3c 40 a2 d1 bc
       0.00979933 0.011004696 0.007853476 -0.025590062
000060 ef 67 91 bb d3 3f 66 bd da ea 40 bc df a6 e7 bb
       -0.0044374387 -0.05621321 -0.011774743 -0.007069453
000070 8d 68 12 3d e3 e6 06 3d 08 c7 9c bb da 81 37 bd
       0.03574424 0.032935034 -0.0047844686 -0.04480157
000080 14 36 ad 3c d1 c2 b1 3c ee 4c 11 3c f5 67 42 bc
       0.02114395 0.021699341 0.008868439 -0.011865606
000090 11 a2 9f 3a 2c 3c 3e bc ad 5a 8f 3c f0 3f ec 3b
       0.0012179037 -0.011611026 0.017499292 0.0072097704
0000a0 91 83 00 3d ba e5 29 bd 04 a2 35 3d 0c 08 e3 3c
       0.03137547 -0.04147885 0.044343963 0.027713798
0000b0 c4 aa 49 3d 4d 60 1e 3d 66 42 81 bc f1 f5 d2 b9
       0.04923512 0.03866606 -0.015778732 -0.00040237562
0000c0 80 18 b3 3c a8 e8 34 bd 33 b2 49 3b 83 05 1c bd
       0.021862268 -0.04416719 0.003077638 -0.038091194
0000d0 83 4e 15 bd de 7d 0e 3c fa 08 5c 3d 3a 5e 32 bd
       -0.036451828 0.008697001 0.0537195 -0.043546893
0000e0 6f e3 cf bb 9f fc 60 bc 5e 6a 9c 3c 5d 1a 2a bd
       -0.006344251 -0.013732105 0.019093689 -0.04152905
0000f0 c3 ab 15 bd 50 18 a5 3c 82 63 8e bc ed d0 ee bc
       -0.036540758 0.020153195 -0.017381433 -0.029152358
000100 51 6d 09 3c 6f 55 a2 bb 24 87 bb bc 4e 6d 18 3d
       0.0083878795 -0.004954032 -0.022891589 0.037213616
000110 39 41 52 3c ea da 52 ba fb 20 95 bc 08 31 65 3c
       0.012832933 -0.0008043485 -0.018204203 0.013988741
000120 cd 81 18 3d a3 3c 04 3d 3f 7e 3b bd 9b db d3 bc
       0.037233163 0.03228439 -0.045774695 -0.025861552
000130 e3 bd 43 3d 03 9c fb bc de f2 3d bd 68 05 29 3d
       0.047788512 -0.03071404 -0.046374194 0.04126492
000140 b1 35 2e bd fc 23 4f 3d b8 a6 1a bc 79 65 ed bc
       -0.042531673 0.050571427 -0.009439163 -0.02897905
000150 6d af 13 3d 31 82 a9 3c 55 54 0e bd 2a 6c 26 bd
       0.03605597 0.020691963 -0.034748394 -0.040630497
000160 4f 4c d5 3c e9 7e 35 bd 7b 71 4d 3d f7 eb 3f 3d
       0.026037363 -0.044310484 0.05015705 0.046855893
000170 96 ad 0b 3d 34 ba 4c bd 57 46 ec bc c2 e7 01 3d
       0.03410109 -0.049982265 -0.028842134 0.031715162
000180 0c 1c 0a bc c6 7a 43 bd d7 8a 1e 3d 6f 44 2e bd
       -0.008429538 -0.047724508 0.038706627 -0.042545732
000190 72 d1 71 bc 36 b8 22 3d 81 55 b0 3c 60 86 04 bd
       -0.014759408 0.03972646 0.021525146 -0.032354712
0001a0 69 c9 9e bc f8 ab 38 3d b9 8f 16 bb 3d 94 2c 3d
       -0.01938315 0.045085877 -0.002297385 0.04213356
0001b0 97 34 20 bd 23 43 3e bc 6f b4 11 3d 71 43 a5 3c
       -0.039112654 -0.011612686 0.035572466 0.02017376
0001c0 d7 af 50 bd c4 b0 da bc b3 40 2b bd 9e f0 2b 3d
       -0.050948944 -0.026695617 -0.04180975 0.041977517
0001d0 e0 7d b0 bc ad df 59 bc fb 3d e5 3c 3f 1a cd 3c
       -0.021544397 -0.013297957 0.027983656 0.02503693
0001e0 1d cc 09 bd 74 26 f1 3c 44 0e d1 3c 8b 2a 49 3b
       -0.033641923 0.029437281 0.025519498 0.0030695524
0001f0 0a ed 0a 3b 07 7b 2f bb e2 d4 3f bc a1 e0 24 ba
       0.0021198415 -0.002677621 -0.01170847 -0.0006289576
000200 12 1c 44 3d 04 c1 a2 3c a6 aa 43 bc 81 37 1f bc
       0.047878332 0.019867428 -0.011942541 -0.009717823
000210 59 18 3d bc 91 aa 61 bd 3d e3 02 bd 62 62 27 3d
       -0.011541449 -0.055094305 -0.031954993 0.04086531
000220 20 60 d7 3c f6 7e 3f bd 75 10 9c bc b5 d3 9c 3b
       0.026290953 -0.04675194 -0.019050816 0.0047859796
000230 73 82 3a 3c 29 aa 42 bc e4 70 10 bc e8 f0 3a 3d
       0.011383641 -0.01188139 -0.008815978 0.045639902
000240 b5 d2 49 bc e7 f7 22 bc 56 43 b2 bc 38 0b 82 3b
       -0.012318303 -0.0099468 -0.021760624 0.0039686225
000250 da 7d 0d 3d 2f cc 8e 3c c7 3d 35 3c 75 a9 53 bd
       0.03454385 0.017431347 0.011062092 -0.05167528
000260 81 c2 ce bc 5c 36 65 3c 75 7c c6 bc ef 76 f0 bc
       -0.025239231 0.013990011 -0.024229268 -0.029353587
000270 32 26 5e bd 96 b7 3c bd 11 6d 17 bd a6 af e7 bc
       -0.054235645 -0.04607352 -0.03696925 -0.028281998
000280 57 d6 85 3c d1 9a fd 3c 2c 4f e8 bb 8e a4 bf bc
       0.016337557 0.030957611 -0.007089516 -0.023393895
000290 f3 0c 79 3b a0 0e ff bb c9 38 2f bd 93 1e 24 3d
       0.0038002103 -0.007783726 -0.042778764 0.04006822
0002a0 3b 74 bd bc 56 fc 3a 3d 51 2e bc bc aa 12 fd bc
       -0.023126712 0.045650803 -0.022971304 -0.030892689
0002b0 9d 7a da bc 48 0b dd ba 88 3b 21 3d 91 26 f7 bc
       -0.026669795 -0.0016864324 0.039363414 -0.030169757
0002c0 e7 4d 0d 3d 8e 18 94 3c af f7 43 3d 78 0a 72 3c
       0.03449812 0.018078115 0.04784363 0.014773004
0002d0 d2 ae 56 3d 34 11 3d 3c 4c 4b 32 3c db 1f 1f bd
       0.052412815 0.011539746 0.01088221 -0.03884874
0002e0 c1 35 2c 3d 17 ab 36 3d dd fc 05 bd 7b 71 d9 3c
       0.04204345 0.044596758 -0.032711852 0.02654337
0002f0 36 76 27 bd 01 60 cf 3b f9 39 17 3c 85 f2 0e 3d
       -0.04088422 0.006328583 0.00923013 0.034899253
000300 a9 b2 cf 3c ec fe 84 3c d5 7e 0a bd a3 4d be 3c
       0.025353746 0.016234837 -0.033812363 0.02323038
000310 1f 0b 0b 3d 95 6c 17 bd 79 fa ee 3c fa cd 8e bc
       0.033946153 -0.036968786 0.029172169 -0.017432202
000320 c7 a0 82 3b 5a 49 24 3c 05 17 ef 3c de ca df 3c
       0.0039864513 0.010027254 0.029185781 0.027318414
000330 5a 7c 66 bc db f9 b6 bc ff 0e 6c bc ea 90 03 3d
       -0.014067734 -0.022335937 -0.014407872 0.032120623
000340 99 39 0e bd f4 bd 51 bc 58 c1 4e 3d 8e a1 b9 3c
       -0.0347229 -0.012801636 0.050477356 0.022660043
000350 9e b9 e7 3a a9 f5 89 3c fd 46 65 3c 05 e3 07 3d
       0.001767922 0.016840773 0.013993976 0.033175487
000360 2a 2c e1 3c e7 42 0d bc 20 98 fc 3c 3f 78 74 3c
       0.02748688 -0.008621908 0.030834258 0.014921247
000370 0a d5 31 bd 0f 9b ed 3c ee 4a bd bc 60 fb 1c 3d
       -0.04341606 0.029004602 -0.023107018 0.038325667
000380 11 e0 4a 3d 3f 2a 99 3b 8b 11 d3 bc 29 b5 b5 bc
       0.049530093 0.0046742256 -0.025765201 -0.02218111
000390 90 5b c7 3c 5f 70 31 bd 4f 02 c9 3c 27 34 1c 3d
       0.024335653 -0.043320056 0.024537234 0.038135674
0003a0 fa d4 82 bc 46 de 54 bd 49 6f 94 bc 40 40 08 bd
       -0.015970696 -0.05196979 -0.018119471 -0.0332644
0003b0 e7 85 a2 3c 56 2b b3 3c 7a 09 fc bc 2b b0 c3 3c
       0.01983924 0.02187125 -0.030766238 0.023887714
0003c0 7c a2 00 bc b6 5b 11 3c 44 2e 40 bc 4b 97 38 3d
       -0.007851239 0.008871963 -0.011729781 0.04506616
0003d0 4c cc 14 3d b7 6a e5 bc 6d aa c6 39 bb 94 16 bd
       0.036327645 -0.028004987 0.0003789248 -0.036762934
0003e0 43 4a 39 bd df 2b b1 3b 2e 14 31 3d 2f 93 42 bd
       -0.045236837 0.005406841 0.043232135 -0.047503646
0003f0 4c 29 c5 bc ae 23 f2 3c 21 a4 df 3c 97 01 dc 3c
       -0.024067543 0.029558029 0.027299942 0.026856227

base_model.model.bert.encoder.layer.0.attention.self.query.lora_B.weight f4 [384, 16]
000000 a1 61 65 3b e7 8b 45 3b 62 d0 b4 3a 62 91 f2 b9
       0.0035000818 0.0030143203 0.0013795013 -0.00046266156
000010 fe 8f 0c 3b d7 1f 1a 3b ab dc 0c bb 7b d3 25 bb
       0.002144813 0.0023517513 -0.0021493833 -0.0025303054
000020 b3 7c 17 3b 30 85 67 ba 03 a0 02 3a 4a 13 15 bb
       0.0023115098 -0.0008831797 0.000498295 -0.0022747093
000030 3f f5 38 3b 6c b4 ec 3a 69 fa 0d 3b a4 02 3c 3b
       0.002822235 0.0018059141 0.0021664149 0.0028688097
000040 b5 4f 2f 3b a0 e6 07 3b 28 9d 82 b9 89 e7 1f 3b
       0.002675039 0.0020736828 -0.00024912623 0.002439948
000050 b2 be 64 3b 64 7b 39 3b 6a e3 57 bb f8 2d 01 bb
       0.0034903702 0.0028302306 -0.0032941946 -0.0019711237
000060 56 da b8 3a f4 d7 25 bb 0f 21 67 3b fb 73 8c bb
       0.0014103155 -0.002530572 0.0035267507 -0.004286287
000070 e1 30 19 3b 9b dc 25 3a 24 79 96 b9 e1 fd 82 3a
       0.0023375081 0.0006327123 -0.00028700486 0.0009993875
000080 7e 11 1d bb 0a b1 e9 ba b7 f9 2d 3a 9c 5e 39 3a
       -0.0023966725 -0.0017829251 0.00066366367 0.0007071288
000090 82 d2 fa ba 8d 95 4a bb 36 ff e4 3a a9 e0 86 3b
       -0.0019136223 -0.0030911893 0.0017471078 0.004116137
0000a0 5c cc 3a bb 40 8d 73 3b 1b 10 ff ba 0e 76 d8 3a
       -0.0028503155 0.003716305 -0.0019459756 0.0016514675
0000b0 cf 9b 4d bb c5 b8 02 bb 9c 3f 0b bb 1f c2 b8 39
       -0.0031373387 -0.0019946557 -0.002124763 0.00035239846
0000c0 5f 32 5b ba c9 6d df ba 22 d6 5a 39 2d 4e f1 ba
       -0.0008361693 -0.0017046268 0.00020869871 -0.0018410139
0000d0 ea 27 fe ba df 61 d4 ba da 4c 0a 3b ec 9b d2 b9
       -0.0019390557 -0.0016203484 0.0021102936 -0.00040170492
0000e0 6f d1 20 39 c8 b8 32 bb aa aa ec ba 59 1e 61 3a
       0.00015336809 -0.0027270783 -0.0018056233 0.0008587591
0000f0 c3 0e 90 b8 b1 83 06 3b 42 44 2b bb a9 72 99 ba
       -6.869205e-05 0.0020525272 -0.0026133214 -0.0011707145
000100 77 27 c4 ba 8d 74 12 bb a5 72 8c ba 45 fe 41 39
       -0.0014965375 -0.0022347302 -0.0010715319 0.00018500637
000110 a5 75 84 ba 2f ac 94 ba 41 22 80 3a b3 ab 26 3b
       -0.0010105862 -0.0011342819 0.0009775833 0.002543193
000120 85 ba 99 39 a8 6c ca 39 85 95 5d b9 2c 75 a0 3a
       0.00029321402 0.00038609398 -0.00021131903 0.0012241951
000130 fa b6 98 ba 40 74 34 bb cb 15 ca ba d2 17 4e bb
       -0.0011651211 -0.002753511 -0.0015417872 -0.0031447303
000140 80 7f 8b 3a cc 03 0a 3a 25 96 53 3a 68 64 dc ba
       0.0010642856 0.0005264848 0.00080713845 -0.0016814591
000150 14 52 78 3a 68 b8 b4 3a 4d 59 58 ba 3f 1a c3 ba
       0.000947268 0.0013787868 -0.0008253053 -0.0014885141
000160 f1 32 27 3b a1 55 20 bb c7 e8 8e 3a 5e 2c 4c ba
       0.0025512541 -0.0024465101 0.0010903113 -0.00077885936
000170 63 1e e1 3a 53 41 28 3a 34 14 3c 3a 77 4a 85 3a
       0.0017175194 0.00064184255 0.00071746414 0.0010169287
000180 17 c3 aa 3a bd ce 03 3a ca c8 22 bb e0 8b f9 3a
       0.0013028112 0.000502806 -0.0024838918 0.0019038878
000190 84 fb 10 3b 2e 54 03 3b 2e 71 01 bb c4 21 7c ba
       0.0022122571 0.0020039189 -0.0019751298 -0.00096180686
0001a0 99 59 93 ba 5f d4 94 3a 5f 41 2c 3b 62 7d f7 ba
       -0.0011241912 0.0011354795 0.0026284081 -0.0018881971
0001b0 bf c6 b5 3a 0e fc 8a bb 71 2b ec b9 1b 30 4f bb
       0.0013868435 -0.004241473 -0.00045045794 -0.0031614366
0001c0 a1 e3 a0 3b 1f 71 89 3b 46 8a 35 ba 8a 3f ee 3a
       0.004909948 0.0041943933 -0.00069252064 0.0018176895
0001d0 9d a1 91 3b 0e 21 ab 3b f6 7a 8d bb 59 47 72 bb
       0.0044443146 0.0052224463 -0.0043176366 -0.0036968796
0001e0 56 5a 77 3a 31 0f 83 ba 24 69 68 3b 6b 60 b9 bb
       0.00094357633 -0.0009999034 0.003546306 -0.005657246
0001f0 29 c6 8a 3b a5 8d a2 3a ff 76 86 3a 15 31 05 3b
       0.0042350483 0.0012401833 0.0010258852 0.0020323445
000200 8a 64 e0 ba c4 c4 48 ba b3 a6 02 bb 0d 0c 41 3b
       -0.0017119807 -0.0007658715 -0.0019935786 0.0029456646
000210 3c 5d 03 3a e8 ea f1 ba 78 bf 97 ba 07 09 ee 3a
       0.00050111464 -0.0018456848 -0.0011577448 0.0018160649
000220 eb bf 67 bb 97 48 0b 3b 45 fe 2d 3b 68 70 63 ba
       -0.0035362195 0.0021252984 0.0026549262 -0.00086761126
000230 05 99 bb ba 16 e2 1e bb c8 54 57 ba e0 b4 f0 ba
       -0.0014312571 -0.0024243644 -0.00082142325 -0.0018364452
000240 d0 2b b8 3b 2a 24 82 3b d2 84 8e 3a 62 71 10 ba
       0.005620457 0.0039715962 0.0010873324 -0.00055100594
000250 9c 66 4d 3b e6 f7 98 3b 66 5e 3f bb fd 7b af bb
       0.0031341678 0.0046682237 -0.0029200553 -0.0053553567
000260 e9 36 3a 3b 0d 59 62 bb 00 84 ea 3a 5a 30 84 bb
       0.0028414077 -0.0034537942 0.0017892122 -0.0040340843
000270 d9 d4 90 3b 34 68 4d 3b 5d 38 b9 3a ed c6 90 3b
       0.0044199047 0.0031342627 0.0014131177 0.004418245
000280 96 5f 4d bb 86 0e 2a bb 24 aa 0b bb fc 61 af 3a
       -0.0031337491 -0.0025948598 -0.0021311129 0.0013380642
000290 42 11 25 bb 09 46 d0 ba 32 b4 7f 3a c5 32 32 3b
       -0.0025187288 -0.0015890013 0.0009754329 0.0027190906
0002a0 ef 17 16 bb 8d cd 7d 3b a2 9c 8c 39 c0 ff 84 3a
       -0.002290245 0.0038727254 0.0002681958 0.001014702
0002b0 e8 e2 44 bb 8f 51 2c bb d7 89 c2 ba 11 fd 1c bb
       -0.0030042473 -0.002629373 -0.0014842105 -0.002395455
0002c0 86 ad e6 39 34 99 99 b8 33 b6 51 bb 0b 63 44 3b
       0.00043998304 -7.324145e-05 -0.0031999468 0.002996626
0002d0 57 e4 63 3b c4 3d ca 39 da aa 46 bb 62 a1 91 3a
       0.0034773552 0.0003857446 -0.0030314238 0.0011110718
0002e0 20 42 78 bb 00 53 2b 3b b2 a7 8d 3b 48 a0 2f bb
       -0.003788121 0.0026142 0.0043229694 -0.0026798416
0002f0 af 45 88 ba 3e d8 0f bb 4d 33 98 ba 3b 36 16 bb
       -0.0010396744 -0.0021948959 -0.0011611969 -0.0022920507
000300 40 fc dd 3b 9b bc 81 3b aa b8 2f bb c5 27 7c 3b
       0.0067744553 0.003959251 -0.002681295 0.0038475853
000310 f7 f4 c7 3b 99 8c c4 3b 02 9c b8 bb 62 38 f9 ba
       0.0061022 0.005998206 -0.005633832 -0.0019013996
000320 d6 e9 02 bb a4 d1 7b 3a ad 10 a5 3b 84 1c d3 bb
       -0.0019975803 0.0009606129 0.0050373883 -0.0064426083
000330 12 a8 b5 3b f3 97 15 bb 85 f1 03 3b 05 21 35 3a
       0.005543717 -0.0022826164 0.002013297 0.00069095223
000340 eb 55 b7 3b 34 7a 8a 3b b9 ef 9b 38 65 72 46 3a
       0.005594959 0.0042259935 7.435628e-05 0.00075701467
000350 89 1d 8f 3b e7 58 b1 3b 32 4a 82 bb e0 ba bd bb
       0.0043675345 0.0054122093 -0.00397613 -0.0057900995
000360 d7 91 04 3b 74 76 9e bb a2 32 59 3b 7c a7 a8 bb
       0.002022853 -0.004835898 0.0033141752 -0.005146919
000370 ea 07 8c 3b 10 58 49 3b 3e d2 91 3a fb a3 93 3a
       0.0042734044 0.0030722655 0.0011125279 0.001126408
000380 a7 00 e6 3a be 95 4c 3a 09 c4 98 b8 14 47 ed 3a
       0.0017547802 0.0007804296 -7.284439e-05 0.0018102848
000390 8e d6 fb 3a 30 2a 1d 3b 95 81 01 bb 29 d9 9e ba
       0.0019213723 0.0023981445 -0.0019761075 -0.0012119162
0003a0 79 88 ec 3a 23 1a fb ba 76 c9 21 3b 7b 41 23 bb
       0.0018046043 -0.001915757 0.002468673 -0.0024910856
0003b0 17 5a b9 3a 08 12 48 3a f7 63 0c ba ac ee f3 b9
       0.0014141229 0.00076320814 -0.0005355472 -0.00046526396
0003c0 e3 71 29 ba 3b 4f 4c ba d1 32 74 3a 24 f1 84 b9
       -0.0006463809 -0.00077937887 0.00093154336 -0.00025356666
0003d0 43 bb a0 b9 2b 29 04 ba c6 e8 a9 39 77 3a 3f 3a
       -0.000306571 -0.0005041535 0.00032407622 0.0007294784
0003e0 6d d3 25 3b f9 ba 27 ba 93 40 b9 b9 b2 8f 18 39
       0.0025303022 -0.00063984055 -0.0003533406 0.0001454938
0003f0 a7 ab 0e ba f5 a0 c2 38 df dd 6d ba 30 d3 c0 ba
       -0.00054424483 9.2806215e-05 -0.0009073894 -0.0014711376

base_model.model.bert.encoder.layer.0.attention.self.value.lora_A.weight f4 [16, 384]
000000 91 79 ee bb 52 f6 13 bd ac 4b f8 bc bf 2c b5 3b
       -0.0072776754 -0.03612358 -0.03030952 0.005529016
000010 b7 31 14 bd 97 5c aa bc 1c 25 39 3d 2c 47 35 bc
       -0.036180224 -0.020796103 0.045201406 -0.011064332
000020 4a ad bd bc e0 cf 17 bd f8 4d 00 3d 7c 0b 5b bc
       -0.02315392 -0.03706348 0.031324357 -0.013369437
000030 54 7e 08 bd 23 0d 14 bd 05 8a 20 bd a8 64 24 bc
       -0.0333236 -0.03614534 -0.039194126 -0.010033764
000040 8e c6 3c 3c 13 aa 35 3d 95 3b 22 bd 16 a5 40 3d
       0.0115219485 0.04435165 -0.039607603 0.04703244
000050 c7 b1 b2 3a 38 59 5f bd f2 bd 4a bd 42 ee 1a bd
       0.0013633304 -0.054528445 -0.049497552 -0.037824877
000060 b6 c1 33 3d 54 22 5e bd 62 e5 27 3d cf f1 47 bd
       0.04388591 -0.054231957 0.04099024 -0.04881459
000070 b1 54 78 3c 29 c6 c8 bc 0e 57 87 3c 3b db 3c bc
       0.015156911 -0.024508553 0.016521003 -0.011526878
000080 07 29 f9 bc 03 d4 44 bd 4b e9 12 bc c5 2f c8 bc
       -0.030415071 -0.048053753 -0.008966754 -0.02443684
000090 21 05 16 3c 14 3e f3 bc 3a f2 92 3c 12 f4 bc 3c
       0.009156496 -0.029692687 0.017937768 0.0230656
0000a0 f2 db 2f bd 94 e6 c0 3c 7b b1 29 3d f8 ee 71 3c
       -0.042934366 0.023547448 0.041429024 0.014766447
0000b0 b7 14 c1 3c 36 aa f9 3b aa a7 11 3d 40 b2 33 bd
       0.023569448 0.0076191677 0.035560288 -0.043871164
0000c0 a3 f9 14 bb 80 66 82 3c 00 bd da 3c d7 1a 95 3c
       -0.0022731803 0.015918016 0.02670145 0.018201275
0000d0 e1 1d f6 3c 2a 49 4a bc 96 c5 72 bc 06 d2 be 3b
       0.030043544 -0.012346545 -0.014817616 0.0058233766
0000e0 23 d0 5a 3d ae e8 19 3d 85 ea 49 bd b3 9b 55 bc
       0.05342115 0.037575416 -0.04929592 -0.01303761
0000f0 19 62 1c 3c 40 d3 93 bc c2 fd 0a bc 9a 40 2d bd
       0.009544873 -0.018045068 -0.008483352 -0.042297937
000100 68 5e 3b bd fc 23 ea 3b 60 d9 26 3d e9 a5 d6 3c
       -0.04574433 0.007145403 0.04073465 0.026202159
000110 8a a8 da bc 7e 80 69 bd 97 c1 b0 bc 52 22 5e 3b
       -0.026691694 -0.057007305 -0.021576686 0.0033894968
000120 b3 74 42 bd dc 72 05 3d ec 1d db bc 60 7a 12 3d
       -0.047474574 0.03258024 -0.026747666 0.035761237
000130 27 6e 21 bd 9e b9 77 3b c6 93 5b bd 33 a0 3a 3d
       -0.03941169 0.0037799845 -0.053607725 0.045562934
000140 d6 29 54 bd 5a e4 40 3d be 64 24 bd b4 d9 1f 3d
       -0.05179771 0.047092773 -0.040135138 0.039025977
000150 60 c2 5d bb 2a 99 75 3b 2d ff 0e 3d fe 1b 91 3b
       -0.003383778 0.0037475326 0.034911323 0.0044283858
000160 25 ce bd bc 42 98 54 bd d2 48 a8 3a c9 67 9b bb
       -0.023169586 -0.051903017 0.0012839085 -0.0047425968
000170 d8 65 5d 3d 45 54 9b bb dc f7 04 3d a8 cf 7f 3b
       0.054052204 -0.0047402703 0.03246294 0.0039033685
000180 91 2a 91 bc 87 62 3f bc e9 ec c7 bb fd b2 57 bd
       -0.017720493 -0.011681206 -0.00610124 -0.05266093
000190 f5 5c 88 3c 3e 9a 04 bc 14 5d ad bc 0f 80 14 3d
       0.016645888 -0.008093415 -0.021162547 0.03625494
0001a0 1a 20 9c 3b 34 99 21 3d 90 91 8f bc 79 b4 0a 3d
       0.004764569 0.039452747 -0.017525464 0.03386352
0001b0 52 85 fb bc 91 81 6e bc fb c2 a0 bc 86 5b 2e bc
       -0.03070322 -0.014557258 -0.019624224 -0.010641938
0001c0 12 0b ef bc ee 34 68 bd 2d a5 00 3d 44 6d 05 bd
       -0.029180083 -0.056691103 0.031407524 -0.032574907
0001d0 21 c3 c9 bc f2 77 64 3d 1c 56 55 bc 7f aa 4a 3d
       -0.024629178 0.05577845 -0.013021018 0.049479004
0001e0 c7 90 17 bd ac dd ba bc 2f bb 04 3d 86 81 89 bc
       -0.037003305 -0.02281078 0.032405075 -0.016785394
0001f0 20 a3 14 3d cb 68 d4 bc 2e f2 10 bd df 29 70 3c
       0.03628838 -0.025928875 -0.03538721 0.01465842
000200 ab 35 02 bd 3a 76 bd bc 38 1a 3c 3d 3e e6 6a 3d
       -0.031789463 -0.023127664 0.04592344 0.057348482
000210 e0 38 28 bc d1 f6 c9 bc 70 37 15 3d 7f 96 1c bd
       -0.010267466 -0.024653824 0.036429822 -0.03822946
000220 85 0d ef 3b 83 c9 74 bc df bb 53 bd 12 ef 09 bd
       0.007295313 -0.014940622 -0.05169284 -0.03367526
000230 c5 11 24 bd a1 76 7f 3b 47 fa 05 3d 99 82 08 bd
       -0.04005601 0.003898062 0.032709386 -0.033327673
000240 c8 b8 08 3d 9c ff 7a 3c c8 ba fb 3c 90 d5 87 3c
       0.033379346 0.015319731 0.030728713 0.016581327
000250 82 1b 35 bd 7e 96 c8 3b e6 22 16 bd 28 4b 5a bd
       -0.044215687 0.0061214557 -0.036654375 -0.05329433
000260 13 ba 27 bd 64 d7 1f bd 4b f4 0d 3c aa 9b fc 3c
       -0.04094894 -0.039023772 0.008664201 0.030835945
000270 f3 2e 1b 3d 3b 7e e1 bc df 92 ba bb 1f 77 a8 3c
       0.03788657 -0.027526012 -0.005693778 0.020564614
000280 79 38 c6 bc 73 7e 17 3d 26 69 ed 3c 86 72 0d bd
       -0.02419685 0.036985826 0.028980803 -0.034533046
000290 36 9e da 3c 9e fc 2a 3a 4b cd 10 3c 82 b0 e2 bb
       0.026686769 0.0006522628 0.008838008 -0.006918014
0002a0 59 78 91 3c 05 3d 11 bd ed bd 2f 3d 38 f6 8d bc
       0.017757582 -0.035458583 0.042905737 -0.01732932
0002b0 92 06 dc bc 49 89 f1 bb 6e e5 f3 bc a7 02 5e bd
       -0.026858602 -0.007371102 -0.029772487 -0.05420175
0002c0 f6 e9 7b 3c 2a 09 82 3c 34 df 1d 3c 1b 8b 53 3d
       0.015375605 0.01587351 0.009635735 0.051646333
0002d0 9e 68 34 3d 16 e0 2e 3c 45 2f 80 bc 42 9e ed bc
       0.044045083 0.010673543 -0.01564754 -0.029006127
0002e0 09 96 80 bc 62 7a 79 bc f9 d2 04 bd b6 5e 39 bd
       -0.015696542 -0.015226932 -0.03242776 -0.04525634
0002f0 4e e5 92 3a 91 42 af 3c 55 96 7a 3c 9a 8e 7b bb
       0.0011207254 0.021394046 0.015294631 -0.0038384558
000300 f9 2b a3 bc af ac 0a bd d9 04 49 bd 65 8d 53 bd
       -0.019918429 -0.03385609 -0.04907689 -0.051648516
000310 f0 98 5c 3d 39 cc 26 3d dc 53 9b 3c 83 b8 52 3c
       0.05385679 0.040722106 0.018960886 0.012861374
000320 80 12 35 bd 61 1c 71 ba 34 9d 24 3d e5 2c b2 bc
       -0.044207096 -0.0009197649 0.040188983 -0.021749923
000330 84 b5 0c 3d 01 6b 7e 3c 78 f7 06 3d 40 43 1a bc
       0.034352794 0.015528441 0.03295085 -0.009415448
000340 e8 8a ea bc d2 e3 eb 3c e8 32 53 3d f0 81 8b 3c
       -0.028630689 0.028795157 0.05156222 0.017029732
000350 e0 3c 0f 3d 77 de 92 3b 60 bb 2d bd 0d 64 88 bc
       0.034970164 0.0044820863 -0.042415023 -0.01664927
000360 3a 08 d8 3c f7 64 0f bd b1 7f 97 3a d2 39 26 bd
       0.02637111 -0.035008397 0.0011558441 -0.040582485
000370 61 bd 1c bc 98 6a 25 3d b9 dd 33 3d 4a 57 05 3b
       -0.009566636 0.04038486 0.043912623 0.0020346218
000380 37 94 4e 3d 2e b9 31 bd dd 10 37 3d 84 d9 ad bc
       0.050434317 -0.04338949 0.044693816 -0.021221884
000390 43 a0 97 bb 9b bf 2d bc 56 a3 a5 3a 6f 4d 1f bd
       -0.004627259 -0.010604764 0.0012637179 -0.038892206
0003a0 77 ff 37 bd 50 fa 5d 3c 47 6a 92 bc b6 07 b5 3c
       -0.044921365 0.013548449 -0.017872943 0.022098403
0003b0 fe 72 82 bc 0c aa bd bc 13 3f 1a 3c 28 3f d8 3c
       -0.015923973 -0.023152374 0.009414452 0.026397303
0003c0 f1 3a ec bc 69 9b 4b bd 04 00 3b bc 0d 66 03 bb
       -0.0288367 -0.049708758 -0.011413578 -0.002004984
0003d0 c9 21 49 bc 24 bf dc bc 5b 97 f0 bc 24 86 8a bb
       -0.012276121 -0.026946612 -0.029369047 -0.0042274166
0003e0 ff 2d 0f bd d6 0e af bc 03 ce 62 bd 78 c2 0c bd
       -0.034955975 -0.021369379 -0.05537225 -0.034365147
0003f0 2a c7 0f bd 41 8b b4 3c 11 8d 7c 3c bb b7 5b 3d
       -0.035102047 0.022039058 0.015414492 0.053642016

base_model.model.bert.encoder.layer.0.attention.self.value.lora_B.weight f4 [384, 16]
000000 f8 7f 9f ba a4 8a 2e b9 ae 86 41 3a 34 93 12 b8
       -0.0012168875 -0.00016645581 0.00073824346 -3.4946206e-05
000010 4a 63 25 b9 62 3a 82 ba d4 40 8d ba c6 40 8e b9
       -0.00015772614 -0.0009935612 -0.0010776767 -0.0002713261
000020 bd 49 b9 b9 22 09 45 39 f8 35 37 3a 53 28 8d 39
       -0.0003534089 0.00018790786 0.0006988938 0.0002692366
000030 49 9d 3b 3a 8d 51 b7 b9 6d 8b d5 3a b9 a7 e9 3a
       0.0007156921 -0.0003496524 0.0016292162 0.0017826475
000040 95 8d 1b bb 21 89 5b bb e6 4a 85 3b 93 c1 6f bb
       -0.0023735513 -0.0033498483 0.0040677665 -0.0036583885
000050 66 3e 89 3b f4 f8 6c bb 39 27 5f 3b cf dd 45 3b
       0.0041883467 -0.003615913 0.0034050478 0.0030192023
000060 d3 d4 80 bb 35 64 86 3b a9 e1 32 bb 6c c7 7c 3b
       -0.0039316206 0.004101301 -0.0027295148 0.0038571013
000070 7f dd 2d 3b f2 9a 34 3b 09 b7 4c 3b 67 5a be 3b
       0.0026529727 0.0027558175 0.0031237027 0.0058091166
000080 be 31 06 bb 6a f0 d1 bb ce a5 66 3b 8f 93 e5 bb
       -0.0020476426 -0.0064068334 0.0035194042 -0.0070061157
000090 98 f9 cf 3b 7e d8 17 bb c2 26 c9 3b f4 29 a4 3b
       0.0063468926 -0.002316981 0.0061386535 0.005009884
0000a0 38 39 ec bb 23 b9 cc 3b e4 ae 90 bb d4 91 ea 3b
       -0.0072089694 0.006247656 -0.00441538 0.0071584973
0000b0 cd 02 16 3b e3 b3 8f 3b 27 70 1c 3b f3 44 96 3b
       0.0022889853 0.004385458 0.002387056 0.004585856
0000c0 c5 48 60 3a a1 30 c8 ba c4 3b bb b9 99 d4 cd ba
       0.00085557654 -0.0015273282 -0.00035711948 -0.0015703618
0000d0 b3 77 b2 3a 71 14 8f 3a 71 51 03 3b b9 13 a4 3a
       0.0013615995 0.0010916126 0.0020037557 0.0012518085
0000e0 6d 86 e1 ba 47 30 81 3a b7 1d a3 ba 14 4b db 3a
       -0.00172062 0.0009856307 -0.0012444769 0.0016730749
0000f0 fc 61 7e ba ce fb 83 3a 96 2f 97 ba 17 ea b0 3a
       -0.0009703932 0.001006955 -0.0011534567 0.0013497499
000100 6b 89 8b 3b c4 0b 2c 3a b8 71 04 bb 42 c5 9f 3a
       0.004258325 0.00065630325 -0.0020209383 0.0012189525
000110 5e e0 f2 b8 37 80 e1 3a 87 e9 37 ba a1 91 f8 37
       -0.00011581251 0.0017204349 -0.0007015694 2.9631718e-05
000120 e2 c9 32 3a 2b df 00 ba 0d dc 38 39 11 3d 2f ba
       0.0006820244 -0.0004916067 0.00017629583 -0.000668482
000130 8d fe 1f bb cc 3b 0a b8 32 bc 6b bb 09 27 48 ba
       -0.0024413199 -3.2957454e-05 -0.0035970327 -0.0007635211
000140 47 38 bb 3a e2 57 7a 36 07 0f 25 ba e5 1d 0b 39
       0.001428374 3.7304058e-06 -0.000629649 0.0001326721
000150 2d d5 ae 3a bc e8 f6 39 b0 f5 4a 3a 81 27 74 3a
       0.0013338678 0.00047094177 0.0007742299 0.0009313748
000160 28 1a 26 b9 05 cd 8f 3a 61 37 b1 ba af e6 87 39
       -0.00015840738 0.0010971135 -0.0013520533 0.0002592108
000170 78 e4 8b ba b6 59 a8 3a dc f8 65 ba 15 72 0c 3a
       -0.0010672947 0.0012844119 -0.00087727397 0.0005357576
000180 65 e3 5e 3b 5b 4e 60 3b ef 21 7d bb 71 14 78 3b
       0.003401005 0.003422639 -0.0038624962 0.003785398
000190 a1 65 8a bb e3 df 62 3b 93 b7 61 bb f3 d4 5d bb
       -0.004223541 0.003461831 -0.0034441694 -0.0033848851
0001a0 e9 c4 80 3b f3 97 87 bb 78 97 4b 3b b7 8a 7f bb
       0.0039297235 -0.004137987 0.0031065624 -0.0038992593
0001b0 59 57 21 bb 62 69 4d bb 17 bc 79 bb a4 37 b6 bb
       -0.0024618714 -0.003134333 -0.0038106495 -0.005560832
0001c0 3f d0 18 3b cc 11 58 3b ad ae 27 bb 7d 10 63 3b
       0.0023317484 0.0032969592 -0.0025586293 0.003464728
0001d0 4f 8a 22 bb ee c9 1e 3b 7a d0 bd ba c3 ec 47 bb
       -0.0024801677 0.0024229246 -0.0014481687 -0.0030506111
0001e0 ba 47 62 3b a0 36 27 bb 7c e4 c3 3a 26 3a 45 bb
       0.0034527616 -0.0025514737 0.0014945413 -0.0030094474
0001f0 cb 67 18 bb 0b 93 05 bb 5c a2 20 bb af 78 23 bb
       -0.0023255225 -0.0020381834 -0.0024510836 -0.002494376
000200 cb 3d 07 bb 83 30 54 ba e3 03 d3 3a 63 db 36 ba
       -0.0020636197 -0.0008094387 0.0016099181 -0.000697544
000210 a8 ee 64 38 46 0e d2 ba 80 48 b5 38 51 76 3c 38
       5.4581702e-05 -0.0016025982 8.644257e-05 4.4932884e-05
000220 8e e4 6b ba a0 2e 9e b8 c3 37 b8 39 dd ca 67 3a
       -0.0008998596 -7.542712e-05 0.0003513676 0.00088421797
000230 21 ce 03 3b ec 36 96 b9 44 a7 f6 3a 7c 2e aa 3a
       0.0020111876 -0.0002865115 0.001881816 0.0012983824
000240 bb 5f 39 b7 97 d4 c2 3a 20 65 24 ba 42 17 ce 3a
       -1.1049148e-05 0.0014864382 -0.00062711723 0.0015723484
000250 de 68 6a ba 4c 76 8a 3a 35 9f b3 ba a0 45 af ba
       -0.0008942018 0.001056382 -0.0013704064 -0.001337219
000260 a7 f7 a6 3a 68 bb 8b ba 55 57 d7 3a c1 05 a3 ba
       0.0012738601 -0.001066071 0.0016429225 -0.0012437628
000270 d1 59 93 ba aa f1 bd ba 8e ca 14 b6 a1 9e 6b 3a
       -0.0011241977 -0.0014491577 -2.217162e-06 0.0008988176
000280 dc 78 b3 ba f4 4f b2 3a e5 9d c1 3a f4 06 bb 3a
       -0.0013692635 0.001360415 0.0014771788 0.001426904
000290 6f 11 37 bb 47 4b b6 ba 11 c9 22 bb 19 12 19 bb
       -0.0027933975 -0.0013907932 -0.0024839083 -0.0023356734
0002a0 f9 6d e7 3a b2 00 20 bb 34 5d 1f 3b 00 5f e5 ba
       0.0017656676 -0.0024414477 0.0024317028 -0.0017499626
0002b0 af be da 3a ca b9 18 bb d1 dd 87 3a 11 f7 72 ba
       0.0016688908 -0.0023304098 0.0010365789 -0.0009268383
0002c0 57 45 29 38 70 a1 19 3b 7b 7c f2 ba f3 bc 1e 3b
       4.0357318e-05 0.0023442172 -0.0018500233 0.002422151
0002d0 e9 cc 56 bb 0d 0a f8 3a fa 97 45 bb 9f 09 3c bb
       -0.0032775945 0.0018923894 -0.00301504 -0.0028692258
0002e0 b9 a5 2d 3b 6d fe 48 bb 84 b7 37 3b ad 6c 2b bb
       0.0026496483 -0.0030669228 0.0028032968 -0.0026157305
0002f0 a5 52 9b ba 72 dd 34 bb ee 28 a6 ba d3 45 5d bb
       -0.0011850192 -0.0027597812 -0.0012676993 -0.0033763542
000300 7c be 3d bb 0e dd e3 ba 4f f0 2c 3b a9 0c 12 bb
       -0.002895265 -0.0017384605 0.0026388352 -0.0022285378
000310 7d 43 17 3b e7 dd 04 bb b6 a5 30 3b 97 b7 bc 3a
       0.0023080998 -0.0020273866 0.002695424 0.0014397976
000320 5f 28 18 bb 27 71 06 3b 59 00 bd ba 6b 4d 17 3b
       -0.0023217422 0.0020514221 -0.0014419659 0.0023086916
000330 dc cb 1b 3b cd a3 ac 3a 83 f7 2b 3b 5f 08 45 3b
       0.0023772633 0.0013171375 0.0026240058 0.0030064804
000340 f2 db 85 bb f7 4d 9d bb fe fa a0 3b 4a cb d7 bb
       -0.0040850574 -0.004800554 0.004912733 -0.0065855132
000350 26 f7 e4 3b fa d0 75 bb dc 03 e6 3b 51 2e be 3b
       0.00698747 -0.0037508593 0.007019503 0.005803861
000360 61 29 c6 bb 49 1f d4 3b 14 89 ae bb aa 53 d0 3b
       -0.006047413 0.006473456 -0.0053263996 0.00635763
000370 95 25 68 3b cc f2 a7 3b c9 b9 90 3b 05 27 c1 3b
       0.0035422791 0.005125379 0.0044166786 0.005894544
000380 a5 52 e9 3a ce cd 2e 3b d5 a0 38 bb 5a 14 40 3b
       0.0017801119 0.0026672962 -0.0028172035 0.0029309005
000390 9d 92 13 bb e5 1a 09 3b 9e 74 22 bb fb 8c 0e bb
       -0.0022517808 0.0020920571 -0.0024788748 -0.0021751511
0003a0 20 9a 2f 3b bd c7 17 bb 45 5a 0b 3b 0c 7e 2f bb
       0.0026794747 -0.0023159825 0.0021263522 -0.002677801
0003b0 a4 de 12 bb a7 55 08 bb 8e 32 af ba 5f 4d 08 bb
       -0.0022410536 -0.0020803006 -0.0013366507 -0.002079807
0003c0 e6 db 6e 3b bc 0b 79 3b e7 62 5c bb 69 29 8f 3b
       0.0036446988 0.003800138 -0.0033628286 0.00436895
0003d0 71 5e 96 bb 5a a2 5d 3b 4e b4 83 bb b4 8b 74 bb
       -0.004588895 0.0033818693 -0.0040192967 -0.0037314715
0003e0 54 4d 92 3b 27 24 92 bb c4 a5 66 3b e6 aa 8f bb
       0.0044647846 -0.004459876 0.003519402 -0.0043843864
0003f0 95 00 50 bb 70 3e 5d bb 6d fc 8a bb 90 2a 90 bb
       -0.0031738628 -0.003375914 -0.0042415173 -0.004399605

base_model.model.bert.encoder.layer.1.attention.self.query.lora_A.weight f4 [16, 384]
000000 17 7b 25 3d 68 4c 40 bd dd 29 ea bc 1e 99 4f 3b
       0.04040059 -0.046947867 -0.028584415 0.0031676958
000010 8d 48 3c 3d 24 1f bb 3c e9 8e db 3c 02 35 44 3d
       0.045967627 0.022841997 0.026801543 0.047902115
000020 dc 2a 37 bb cd ca f8 bb e8 3c 2d 3d f0 b5 ea bc
       -0.002794913 -0.007592535 0.042294413 -0.028651208
000030 03 16 15 3d b1 3a 7b 3c 62 ce 79 3b f6 94 bf 3c
       0.036397945 0.015333817 0.0038117399 0.02338646
000040 6e c0 17 bd 9d 05 f4 3c 77 a7 a0 3c 9e b0 e9 bb
       -0.03704875 0.029787833 0.019611103 -0.00713165
000050 a2 f5 da bc 41 75 35 bd 9a 05 5c bd ef 2e cc 3c
       -0.026728455 -0.044301275 -0.05371628 0.024924723
000060 fd fa 32 bd ec 9a 9b 3c a2 0c 9e bc 38 f9 e4 3c
       -0.043696392 0.018994771 -0.019293133 0.027950868
000070 11 95 af 3c ba 1a 45 3c 9f f5 44 bd 89 56 1b bd
       0.021433385 0.012030298 -0.048085805 -0.037924323
000080 80 ee 3d bd a9 55 4e bd fb 37 f3 bc 55 7b d1 3c
       -0.04637003 -0.05037466 -0.02968978 0.025571505
000090 a7 fd e4 3c 88 2e 25 bb c5 e9 87 3c 2d fd b6 3b
       0.027952982 -0.0025204737 0.016590962 0.00558438
0000a0 d1 c6 9a bc 28 88 2f bd 85 10 0d 3d ed 6a 36 bd
       -0.018893631 -0.042854458 0.034439582 -0.044535566
0000b0 ab 2d bf bc d7 16 ef bc fd e7 a8 bb 53 a1 c3 3c
       -0.023337206 -0.029185696 -0.0051546083 0.023880636
0000c0 59 de 95 bc 5d 63 20 bb 7b f4 4d bb a9 11 45 bd
       -0.0182945 -0.0024473288 -0.003142624 -0.048112545
0000d0 e0 6f 9a 3b e8 a8 4c 3d 17 59 15 bd 81 e2 22 3d
       0.0047130436 0.04996577 -0.036461916 0.039766792
0000e0 8c 3e 3f bd ea 10 02 bd b5 56 af 3c 8c c8 ae 3b
       -0.04669051 -0.03175441 0.02140365 0.0053339656
0000f0 d4 65 d2 3c 71 a3 5a bc fe ba 88 bc 39 63 57 3c
       0.025683321 -0.0133446315 -0.016690727 0.013146215
000100 e9 d4 27 3c 7b c2 8d 3c c4 9a 03 bc b8 dd de 3b
       0.010243633 0.01730465 -0.0080325045 0.0068013333
000110 b9 f1 a3 3a 36 37 96 bc b1 84 44 3d 99 eb de bb
       0.0012507952 -0.018336874 0.047978107 -0.006802988
000120 6f a7 17 bc 40 82 4a bc 4d 32 ce 3b ba c0 4e bd
       -0.009256228 -0.012360156 0.0062926174 -0.050476767
000130 f3 6f 44 3d 25 21 f8 bc 8a 64 e1 3c e8 dc 1e 3d
       0.047958326 -0.030289242 0.027513761 0.03878489
000140 cb 87 10 3d d8 9c 7b 3c fe b2 45 3d 26 8f 0a 3d
       0.035285752 0.015357219 0.048266403 0.033827923
000150 d4 84 18 bd ef 96 34 bc fe 36 ae 3c 95 af 3c 3c
       -0.03723605 -0.0110223135 0.021266457 0.011516471
000160 75 96 04 bd dc 12 11 3b 43 9e 66 bc 1c 3f ba 3b
       -0.03237005 0.0022136485 -0.0140758185 0.0056837928
000170 d9 fa cb 3c 74 02 2e bd 02 2e 04 bd 01 7d 99 bc
       0.024899887 -0.04248281 -0.03227044 -0.018736364
000180 a1 36 36 3d 49 03 ad bc 25 05 2c 3d 4f f9 d8 bc
       0.044485692 -0.02111973 0.041997094 -0.026486067
000190 d8 db f1 b9 19 6e f7 3b bf 06 3e bd 07 2d bf 3c
       -0.00046130898 0.0075509665 -0.046393152 0.0233369
0001a0 ba a8 2b bd 35 72 03 3d 1a fd c4 bc 09 99 ca bc
       -0.041908957 0.03209134 -0.02404647 -0.024731176
0001b0 6e 92 da 3c 6e eb 1c bd 31 e4 3e bd 6c 98 41 3d
       0.026681151 -0.03831046 -0.04660434 0.0472645
0001c0 1f ed 38 3c 76 98 45 bd 88 f2 4e 3d 79 b2 92 3c
       0.011287003 -0.0482411 0.050524265 0.017907368
0001d0 91 09 32 3d 39 12 f4 bb 8e b7 8b 3b f5 be 5e bc
       0.043466154 -0.0074484614 0.004263825 -0.013595332
0001e0 58 d7 0e bd 43 73 b6 bc 35 1a 5e 3c 62 4c f0 3c
       -0.034873337 -0.022271758 0.013556053 0.029333297
0001f0 8f 49 74 bb cc 16 20 3d b8 8d ab 3c 85 ec be 3c
       -0.003727529 0.03908424 0.0209416 0.02330614
000200 e3 b1 11 bc 9e d8 15 bd 48 ca 06 3d 8b b0 d6 3c
       -0.008892509 -0.036583535 0.032907754 0.02620723
000210 ab dc ff bb 7c 48 e6 bc 32 df be 3c 5d a2 16 3d
       -0.007808288 -0.028110735 0.023299787 0.036775935
000220 0d 67 54 3c 75 95 16 bd cc a7 25 bb 73 87 2b bd
       0.012964022 -0.036763627 -0.0025277017 -0.04187722
000230 0d b6 5a bd 75 14 07 39 b8 a9 46 3d bf 93 20 bd
       -0.053396273 0.00012882224 0.0485017 -0.0392034
000240 3a 47 c6 bc f3 f3 39 3d 9a 4e ab 3c a1 59 b4 bc
       -0.024203885 0.045398664 0.020911504 -0.022015395
000250 a3 cb 46 3d db 6b ef bc 16 24 5a bc 35 0e f1 3b
       0.048534047 -0.029226234 -0.013314268 0.00735643
000260 75 68 bb 3b 6e 65 13 bd 48 94 47 bd 1b 57 17 3d
       0.0057192394 -0.035985403 -0.048725396 0.036948305
000270 53 08 31 bd 7a 28 d5 3c af 25 1d bd 9c 43 23 bd
       -0.04322083 0.026020277 -0.038366016 -0.0398594
000280 82 ec 38 3d 45 ec f4 bc 65 42 21 bd 14 f5 46 bd
       0.045147426 -0.029897818 -0.03936996 -0.04857357
000290 81 db 30 bd 73 04 14 bd ee b6 34 3d 75 3a a3 3b
       -0.043178085 -0.036137056 0.044119768 0.004981334
0002a0 5e 60 99 3a 09 df e8 3c 44 63 02 b9 95 79 e1 bc
       0.0011701693 0.028426664 -0.00012434745 -0.027523795
0002b0 73 6e 12 bd 68 62 42 3b be 26 41 3c 3c 40 d4 bc
       -0.035749864 0.0029660705 0.011789022 -0.025909536
0002c0 66 d0 2c bc ac 2e 63 3b 17 d7 33 bd d6 90 ae bc
       -0.010547733 0.003466527 -0.043906298 -0.021309298
0002d0 8a d4 48 3c 49 e7 ab 3c 2e 5e 17 3d 04 f6 4c 3c
       0.0122577045 0.020984309 0.03695505 0.012509827
0002e0 08 c8 46 bd d5 9d ec bc 56 b0 2e bd a0 a0 76 bc
       -0.04853061 -0.028883854 -0.042648636 -0.015052944
0002f0 c9 f8 1c bd a8 4f 2a 3d 3a ea 33 bd 81 07 2c bd
       -0.038323198 0.041579872 -0.043924548 -0.041999344
000300 02 4e 1b 3b cf 50 07 3d 6d cb ae 3c c3 f9 fe 3c
       0.002369762 0.03303605 0.021337235 0.031124955
000310 e0 fc 2a 3c a8 a3 0e bc db 57 8a bc d3 25 1f bd
       0.010436267 -0.008706011 -0.016887596 -0.03885443
000320 78 6f 93 bc 2d ef 33 3d 0a 9b 0c 3d 09 21 29 bd
       -0.017997488 0.043929268 0.034327544 -0.04129127
000330 c5 33 1c bc 4c 37 0b bd b3 9b b1 3c e9 83 ce 3c
       -0.009533827 -0.033988282 0.021680688 0.025209384
000340 7b 23 0a bd ce e5 74 3c f5 cd ca 3b be 7a ed bc
       -0.033725243 0.014947368 0.006189103 -0.028989192
000350 6c 3f 64 3c ce 77 3e 3c 6e e0 25 bc 72 25 0f bc
       0.013931137 0.011625243 -0.010124309 -0.008736955
000360 4d d8 9c 3c 4e 41 04 3d 97 84 67 3c a7 52 54 3d
       0.019146109 0.032288842 0.014130733 0.051836636
000370 e3 36 24 3d e0 7c a9 3c cc 0f 48 bb 25 d5 1a bd
       0.040091407 0.020689428 -0.0030526994 -0.037800927
000380 04 a9 f1 bc c1 04 8f 3c 8c 47 fb bc 07 c0 19 bd
       -0.029499538 0.017458322 -0.030673765 -0.037536647
000390 1c 03 1c 3d 9c ea 29 bc fd c6 06 bd 82 82 2b 3d
       0.038088903 -0.010370877 -0.032904614 0.04187251
0003a0 f7 52 2a 3d 0c 78 48 3c 3a 81 c6 3c 0b 2f d3 3c
       0.041583028 0.012235653 0.024231542 0.025779268
0003b0 0d 0d 36 3d 50 3f 64 bc 64 db 9d 3c 8a 84 8a 3c
       0.04444604 -0.0139311105 0.019269653 0.016908903
0003c0 fc 04 56 3d bc a8 00 bd 9a c9 b2 3c 00 83 bf bc
       0.052250847 -0.031410918 0.021824647 -0.023377895
0003d0 fd 88 4c bb 28 5d 81 bc 0d e9 0d 3c 0a c3 3c 3d
       -0.003120958 -0.01579149 0.008661521 0.04608444
0003e0 f8 89 38 3d dd cc dc 3c 8b 84 1d 3d 08 83 4d bd
       0.045053452 0.026953155 0.03845648 -0.05017379
0003f0 bb e4 4d 3d a2 ea 32 3c 3b 01 01 3d d2 c8 26 3c
       0.050266962 0.010920199 0.031495314 0.010179715

base_model.model.bert.encoder.layer.1.attention.self.query.lora_B.weight f4 [384, 16]
000000 29 9f 16 3b f0 64 90 bb ef 40 34 3b ea ac de ba
       0.002298305 -0.004406564 0.0027504524 -0.0016988788
000010 a8 86 71 3b 34 28 05 bb 16 65 ac bb 09 6a 5f ba
       0.0036853943 -0.0020318152 -0.005261074 -0.00085225754
000020 86 8a a3 3b 55 96 c9 3b d9 70 8c bb dd 76 8b bb
       0.0049908785 0.006151954 -0.0042859134 -0.004256113
000030 d2 b3 8c 3b 34 63 5e 3b a1 21 43 3b a1 9b 7f bb
       0.004293897 0.0033933641 0.0029774683 -0.0039002674
000040 03 8a 29 3b 68 65 24 bb f3 29 f8 3a 5e 0c e2 ba
       0.0025869615 -0.0025084857 0.00189334 -0.0017246117
000050 34 1a 1b 3b 41 ee 07 bb a3 ac 1d bb ad ad fb ba
       0.0023666741 -0.0020741376 -0.0024059198 -0.001920154
000060 df 2e 39 3b 44 ad 2f 3b e2 ed 28 bb 4e 94 11 bb
       0.0028256697 0.0026806155 -0.0025776555 -0.002221364
000070 2c c5 32 3b 47 3e 2d 3b 38 d2 46 3b 06 20 23 bb
       0.0027278168 0.0026434825 0.0030337702 -0.0024890914
000080 07 3f ef 39 79 77 91 39 11 7b 16 3b f3 27 83 38
       0.0004563259 0.0002774557 0.0022961537 6.254008e-05
000090 30 e5 cb 39 01 61 ee ba d3 69 b8 b8 f0 59 17 3b
       0.00038889935 -0.0018186868 -8.793515e-05 0.0023094378
0000a0 58 97 38 39 aa c2 82 b9 7c 1b 64 ba a5 0d 1b 3a
       0.00017603987 -0.00024940568 -0.0008701605 0.0005914814
0000b0 94 13 1a 3a 92 97 34 b9 93 38 4b b9 4a 63 b3 39
       0.0005877551 -0.00017222602 -0.00019380664 0.00034215517
0000c0 3d 42 2c 3b 40 d3 89 bb a6 6b e2 3a 8d 51 16 bb
       0.0026284598 -0.004206091 0.0017274513 -0.0022936792
0000d0 68 89 6d 3a 75 2d 8d ba ce df 56 bb df ed 76 b9
       0.00090613076 -0.0010770994 -0.0032787207 -0.00023549002
0000e0 64 75 93 3b d9 9c 02 3b 0f 98 05 bb d7 76 c8 ba
       0.004500078 0.0019929914 -0.0020384823 -0.0015294206
0000f0 9c 90 14 3b cf e7 4d 3b ba a0 81 3b c7 ce 46 bb
       0.0022669202 0.0031418686 0.0039559277 -0.0030335651
000100 61 14 5d 3a 21 f1 ee ba fb 83 bd 3a cd f7 fd ba
       0.00084335177 -0.0018229821 0.0014458889 -0.0019376219
000110 f9 22 61 3a 5a 81 9e ba 95 84 b3 ba 79 aa 24 3b
       0.000858828 -0.0012092993 -0.0013696129 0.0025126024
000120 a5 ae b6 3a 3c 1f b1 3a a7 82 aa ba 77 07 c6 ba
       0.0013937546 0.0013513337 -0.0013008908 -0.0015108426
000130 2b bb 48 3a 00 9e c5 3a e0 41 85 3a 67 80 f1 ba
       0.0007657285 0.0015076995 0.0010166727 -0.0018425108
000140 cc 35 12 3b ae 65 77 bb 93 c5 c0 3a ae 53 12 bb
       0.0022309897 -0.0037749815 0.0014707319 -0.002232771
000150 03 40 db 37 ff 99 4e ba 17 84 3a bb 86 24 39 39
       2.6136642e-05 -0.00078812236 -0.002846008 0.00017656581
000160 ce 8b 84 3b 4a 62 8c 3a 24 76 ce ba 4f 88 6c ba
       0.0040449863 0.0010710445 -0.0015751761 -0.0009022997
000170 f4 d4 e2 3a 01 3d 24 3b 4b a2 60 3b b4 9c f9 ba
       0.0017305897 0.0025060775 0.0034276422 -0.0019043894
000180 85 66 22 3b a0 f0 19 bb a9 6f a2 3a 3d d5 ce ba
       0.0024780345 -0.002348937 0.0012392896 -0.0015780103
000190 51 35 a7 39 64 ad 93 ba af d4 2b bb cf ad 1d ba
       0.00031892446 -0.0011266884 -0.0026219299 -0.0006014974
0001a0 bd 1e 55 3b 04 97 8e 3a 92 53 ad ba 60 89 8c ba
       0.0032519542 0.0010878746 -0.0013223758 -0.0010722093
0001b0 17 a4 0b 3b 14 ce 06 3b 50 99 2b 3b 4e 81 db ba
       0.0021307522 0.002056961 0.002618391 -0.001674691
0001c0 28 a7 ee 3a 70 ba 95 bb 63 75 ca 3a 9f 55 11 bb
       0.0018207775 -0.004569344 0.0015446361 -0.0022176278
0001d0 4e 65 ad 3a db 6f 8c ba db 19 88 bb e9 65 3e ba
       0.0013229044 -0.0010714488 -0.004153473 -0.00072631106
0001e0 db 05 94 3b b7 ab 54 3b 4a 9d 12 bb 28 e9 56 bb
       0.0045172996 0.0032450983 -0.0022371584 -0.003279278
0001f0 ba 46 36 3b 9b 55 76 3b f2 a3 66 3b 9c 05 82 bb
       0.0027813152 0.0037587646 0.0035192934 -0.003967954
000200 9f 38 7d 3a c7 db a3 ba d9 df 1e 3b c2 70 73 ba
       0.0009659621 -0.0012501412 0.002424231 -0.00092865166
000210 60 a7 b2 3a 20 2e e6 ba 83 76 a1 ba 49 d5 12 3b
       0.0013630204 -0.0017561354 -0.0012318644 0.002240496
000220 05 7c 14 3b bf 77 d6 3a fd 26 df ba 45 6b b4 b9
       0.002265693 0.0016362591 -0.0017025169 -0.00034412197
000230 e3 7e 0c 3b 8a 5d 9d 38 dc a9 26 3b 1e 9b d6 b9
       0.0021437935 7.5037664e-05 0.0025430834 -0.00040932832
000240 85 a0 1a bb 8c 27 5d 37 32 8e 8b 3a 70 2f 98 3a
       -0.0023594212 1.3181834e-05 0.0010647236 0.0011610817
000250 9d 68 37 3a 1f 4c cf ba 95 85 28 b9 1b f1 82 3b
       0.00069964846 -0.0015815533 -0.00016071492 0.003996027
000260 64 dc ee b9 25 d4 fb 39 5d 9d 58 ba 59 6b 84 ba
       -0.000455591 0.0004803251 -0.0008263195 -0.0010102793
000270 e0 6e 93 39 f7 e5 39 ba 03 15 d0 ba 4a 47 0d 39
       0.00028120633 -0.00070914574 -0.0015875403 0.00013473365
000280 41 a8 31 bb 2b 6b 82 3a a2 7a bf ba 8c 6b 3e 3b
       -0.0027108344 0.0009950151 -0.0014608691 0.0029055802
000290 a1 fc 12 3a d2 47 7f 39 5f 62 92 3a 97 18 14 b9
       0.00056071026 0.0002434545 0.0011168233 -0.0001412354
0002a0 1a 05 cc ba c6 0d 08 39 f9 bf 31 3a 1c f1 19 3a
       -0.0015565485 0.00012975102 0.00067806203 0.0005872415
0002b0 50 1c 75 ba e5 ad ad ba 1d be 6a bb 2c 63 6a 3a
       -0.0009350227 -0.0013250677 -0.0035818883 0.00089411694
0002c0 6b d6 c5 ba 04 cb 09 3b 1f e2 0c bb 76 5d 0c 3a
       -0.0015093809 0.0021025548 -0.0021497083 0.0005354503
0002d0 98 a2 18 bb 16 59 e1 3a 7a 85 0d 3b be 01 56 39
       -0.0023290273 0.0017192687 0.002159445 0.0002040928
0002e0 4d ab 13 bb bb 1f 35 bb 99 17 39 3b 1d 20 af 3a
       -0.0022532523 -0.002763732 0.0028242825 0.0013361011
0002f0 79 dc 14 bb 1e 4f b1 ba d7 85 dc ba 79 0b f5 3a
       -0.002271442 -0.0013527607 -0.0016824555 0.0018695436
000300 c5 1d e2 b9 14 83 f7 39 ca 99 1d bb 56 d4 a3 b8
       -0.0004312826 0.00047209172 -0.0024047964 -7.811996e-05
000310 80 ba b8 ba 8b dc ee 3a a4 ba 8d 3a b1 bf 4a bb
       -0.0014093667 0.0018223686 0.001081307 -0.003093701
000320 41 e2 fd ba f8 71 4e ba 3d 7a fa 3a c3 e1 9b ba
       -0.0019369797 -0.0007875259 0.0019109916 -0.0011892844
000330 07 21 00 bb 4d e6 09 3b 3b f5 0c bb e8 e4 f3 b9
       -0.0019550936 0.002104181 -0.0021508473 -0.0004651912
000340 01 5b 5c bb 00 ba 87 3b 87 75 a5 bb 34 47 05 3b
       -0.0033623578 0.004142046 -0.0050494107 0.002033663
000350 1c af 93 bb 3f af 5b 3b fd b7 89 3b 20 27 c2 3a
       -0.0045069586 0.0033521203 0.0042028413 0.0014812686
000360 33 3f 95 bb 27 3c 9e bb 9e 5e ab 3b f8 bb 87 3b
       -0.004554653 -0.004828948 0.005229785 0.0041422807
000370 9c 5a 9b bb 33 52 7b bb 53 7f 80 bb 2a 01 7d 3b
       -0.004741026 -0.0038348555 -0.003921428 0.003860543
000380 b6 3a 5d 3b ad ba 15 bb 0e d4 09 3b 21 c5 74 bb
       0.0033756918 -0.0022846863 0.0021030935 -0.0037348943
000390 60 28 59 3a 24 72 b0 b9 d9 70 d4 ba 1f a9 28 ba
       0.00082839094 -0.00033654377 -0.0016207948 -0.00064338924
0003a0 18 d4 24 3b ae 55 e0 3a 13 bf c5 ba 1a 96 27 bb
       0.0025150832 0.0017115378 -0.0015086852 -0.0025571645
0003b0 de 98 eb 3a 80 49 46 3b ef af 63 3b fe 0d 06 bb
       0.0017974635 0.0030256212 0.0034742316 -0.0020455117
0003c0 3a ef d8 b8 4f d1 d7 39 0d 0b 2b bb 1f fa 8b b9
       -0.00010344242 0.00041163943 -0.0026099116 -0.000266985
0003d0 20 36 80 ba 27 95 24 3b 3d dc 22 3a d4 b0 33 bb
       -0.0009781756 0.0025113316 0.00062126276 -0.002741863
0003e0 30 79 22 ba 67 10 3b ba ea 59 df 3a 1e db af 39
       -0.0006197868 -0.0007135928 0.0017040346 0.00033541856
0003f0 4f 60 a6 ba 47 51 12 3a e2 1d bc 38 3f 32 b8 34
       -0.0012693497 0.0005581569 8.970105e-05 3.430923e-07
