lora_crossencoder_has_instruction_2/checkpoint-6579/adapter_model.safetensors (safetensors, 594924 bytes, 25 tensors)

base_model.model.bert.encoder.layer.0.attention.self.query.lora_A.weight f4 [16, 384]
000000 b9 ab 83 3c 4c fd d2 3c ab 8a 8b 3c 0d 54 e4 bc
       0.016073095 0.025755547 0.017033895 -0.02787211
000010 5f c4 0d bd 3f 57 aa 3c ce fa 05 3d 8d 4d 5e 3d
       -0.034611102 0.020793555 0.03270989 0.054273177
000020 37 49 10 3c 9d 27 5b bd 8f 52 1f 3c 68 29 31 bc
       0.008806518 -0.053504575 0.009724273 -0.010813095
000030 8c 81 2a bc 4d e5 42 3c d9 ca 28 bd 0a f0 0f 3d
       -0.010406863 0.01189549 -0.041209076 0.03514103
000040 6c 9d 17 3d dc da a0 3b 0f 6a 44 3b c5 da 21 ba
       0.037015364 0.0049089026 0.0029970442 -0.0006174262
000050 50 c9 20 3c f5 67 34 3c a1 c3 00 3c 19 b7 d1 bc
       0.009813622 0.011011113 0.007859142 -0.025600003
000060 ab 6d 91 bb 48 3d 66 bd b7 69 41 bc 19 16 e8 bb
       -0.0044381223 -0.056210786 -0.01180499 -0.0070827124
000070 d8 7c 12 3d 7a e0 06 3d fc b7 9c bb 8a 89 37 bd
       0.03576359 0.03292892 -0.004782675 -0.0448089
000080 72 63 ad 3c 97 92 b1 3c 0f b9 11 3c 3b 6a 42 bc
       0.021165583 0.021676345 0.008894219 -0.011866148
000090 bb ae 9b 3a 3a 1e 3e bc 00 63 8f 3c e3 4a ed 3b
       0.0011877635 -0.011603886 0.017503262 0.007241593
0000a0 59 92 00 3d a9 c8 29 bd 07 9e 35 3d 55 f4 e2 3c
       0.031389568 -0.04145113 0.04434016 0.027704397
0000b0 58 ab 49 3d 7c 53 1e 3d aa 06 81 bc 92 ce d2 b9
       0.04923567 0.038653836 -0.015750248 -0.00040208228
0000c0 61 1d b3 3c 4f d7 34 bd 71 7d 49 3b 3e 0d 1c bd
       0.021864595 -0.044150647 0.0030744935 -0.038098566
0000d0 66 44 15 bd 1a 62 0e 3c 80 10 5c 3d c7 4b 32 bd
       -0.036442183 0.008690381 0.053726673 -0.0435293
0000e0 7e 9a cf bb 06 d0 60 bc 9e 6d 9c 3c a8 3c 2a bd
       -0.0063355556 -0.013721472 0.019095238 -0.041561753
0000f0 eb 98 15 bd b8 1d a5 3c 47 54 8e bc 2c d4 ee bc
       -0.036522787 0.020155773 -0.017374171 -0.029153906
000100 6f 78 09 3c 75 47 a2 bb 97 87 bb bc 3d 5b 18 3d
       0.00839053 -0.004952366 -0.022891803 0.037196387
000110 ab 1f 52 3c 54 90 5a ba 2e 07 95 bc 23 f7 64 3c
       0.012824933 -0.00083375466 -0.0181919 0.013974938
000120 d3 97 18 3d dd 42 04 3d 1b 81 3b bd 76 e0 d3 bc
       0.037254166 0.03229033 -0.04577742 -0.025863867
000130 c7 ca 43 3d ce a3 fb bc 20 fc 3d bd 1f 01 29 3d
       0.047800805 -0.030717757 -0.046383023 0.041260835
000140 a4 36 2e bd 9f 1a 4f 3d 37 7f 1a bc 9a 8f ed bc
       -0.042532578 0.050562497 -0.009429744 -0.028999139
000150 32 a5 13 3d 04 8e a9 3c 20 60 0e bd 29 7b 26 bd
       0.036046214 0.020697601 -0.03475964 -0.0406448
000160 4b 3b d5 3c 53 82 35 bd f1 74 4d 3d 1c e2 3f 3d
       0.02602925 -0.04431374 0.050160352 0.046846494
000170 e5 90 0b 3d 4a c2 4c bd 95 34 ec bc c8 00 02 3d
       0.03407373 -0.049989976 -0.028833667 0.031739026
000180 c0 61 0a bc b3 7a 43 bd 27 86 1e 3d 53 3b 2e bd
       -0.008446157 -0.047724437 0.038702156 -0.042537045
000190 86 e5 71 bc 52 ca 22 3d c8 4b b0 3c 24 91 04 bd
       -0.014764195 0.03974373 0.02152051 -0.03236498
0001a0 c6 c9 9e bc 33 9c 38 3d a1 68 18 bb c9 9b 2c 3d
       -0.019383322 0.04507084 -0.0023255723 0.042140756
0001b0 5e 1e 20 bd 3e bd 3e bc e0 bf 11 3d c6 51 a5 3c
       -0.03909146 -0.011641799 0.035583377 0.020180594
0001c0 c4 a8 50 bd 7e 9d da bc d7 60 2b bd c0 ea 2b 3d
       -0.050942197 -0.026686426 -0.0418404 0.041971922
0001d0 39 70 b0 bc 6a 89 59 bc 1a 46 e5 3c 8b 03 cd 3c
       -0.021537887 -0.013277391 0.027987529 0.025026103
0001e0 31 dc 09 bd 1c 24 f1 3c 97 1e d1 3c 89 83 4a 3b
       -0.033657257 0.029436164 0.025527282 0.0030901155
0001f0 e7 b0 0d 3b de d9 30 bb f7 af 3f bc b5 0a 24 ba
       0.0021620335 -0.0026985328 -0.011699668 -0.0006257699
000200 94 17 44 3d 43 f7 a2 3c d7 d3 43 bc 10 3e 1f bc
       0.04787405 0.019893294 -0.011952362 -0.009719387
000210 07 d2 3c bc d9 b5 61 bd 7e e6 02 bd 9a 56 27 3d
       -0.011524684 -0.055105064 -0.031958096 0.040854074
000220 ef 20 d7 3c 33 91 3f bd d0 1e 9c bc 98 2c 9d 3b
       0.026260821 -0.046769332 -0.019057661 0.0047965758
000230 75 34 3a 3c b4 eb 42 bc be 43 10 bc 7f e8 3a 3d
       0.011365046 -0.011897016 -0.0088052135 0.04563188
000240 47 e0 49 bc d6 1d 23 bc 3b 66 b2 bc 4e 8a 80 3b
       -0.012321538 -0.009955844 -0.021777263 0.003922737
000250 f0 72 0d 3d f2 c8 8e 3c be 2a 35 3c c7 ac 53 bd
       0.03453344 0.017429803 0.011057554 -0.051678445
000260 a9 c7 ce bc 80 60 65 3c ad 9b c6 bc 61 91 f0 bc
       -0.02524169 0.014000058 -0.024244154 -0.029366197
000270 7b 2f 5e bd 22 c4 3c bd ce 6d 17 bd 80 a5 e7 bc
       -0.0542445 -0.046085484 -0.036969952 -0.028277159
000280 19 e6 85 3c 39 ba fd 3c d0 8e e7 bb a9 80 bf bc
       0.01634507 0.030972587 -0.007066585 -0.02337678
000290 f3 58 79 3b 3c 44 ff bb 31 2c 2f bd 52 0e 24 3d
       0.0038047403 -0.0077901166 -0.042766754 0.04005272
0002a0 f7 64 bd bc f1 e6 3a 3d 5c 01 bc bc 79 f1 fc bc
       -0.023119433 0.0456304 -0.022949867 -0.030876862
0002b0 66 8b da bc a6 81 de ba c4 44 21 3d e5 51 f7 bc
       -0.026677798 -0.0016975894 0.03937222 -0.030190418
0002c0 88 5b 0d 3d 46 14 94 3c a2 f6 43 3d 52 4a 72 3c
       0.03451112 0.018076073 0.04784263 0.014788227
0002d0 f9 ab 56 3d 27 2c 3d 3c d5 6b 32 3c 15 39 1f bd
       0.0524101 0.011546171 0.010889967 -0.038872797
0002e0 80 3d 2c 3d 05 b2 36 3d 8a 03 06 bd 7f 6c d9 3c
       0.04205084 0.044603366 -0.03271822 0.026540993
0002f0 64 6a 27 bd 8a 70 cf 3b 0c 0a 17 3c 33 f4 0e 3d
       -0.040872946 0.0063305544 0.009218704 0.034900855
000300 f1 e7 cf 3c e3 ed 84 3c 58 83 0a bd 52 21 be 3c
       0.025379153 0.016226714 -0.033816665 0.023209248
000310 63 fd 0a 3d 90 61 17 bd cd d3 ee 3c 42 e2 8e bc
       0.033933055 -0.036958277 0.029153729 -0.017441873
000320 1e c5 82 3b 03 62 24 3c 2f e9 ee 3c eb e4 df 3c
       0.0039907834 0.010033133 0.029163925 0.027330836
000330 62 a9 66 bc c7 c5 b6 bc 94 d8 6b bc 9c 8f 03 3d
       -0.01407847 -0.022311104 -0.014394898 0.03211938
000340 3a 24 0e bd eb 2a 51 bc 9d c4 4e 3d 63 b4 b9 3c
       -0.034702517 -0.01276658 0.050480474 0.022669023
000350 32 da e8 3a e4 f3 89 3c 67 c2 64 3c 59 e9 07 3d
       0.0017765223 0.016839929 0.013962365 0.033181522
000360 4f 38 e1 3c e6 5d 0d bc 8f 8d fc 3c 80 c5 74 3c
       0.02749267 -0.008628344 0.03082922 0.014939666
000370 6c d0 31 bd 76 a6 ed 3c 8d 72 bd bc 70 f5 1c 3d
       -0.043411657 0.029010039 -0.023125911 0.038320005
000380 2e b7 4a 3d f0 f3 98 3b 7a 2d d3 bc ed d1 b5 bc
       0.0494911 0.0046677515 -0.02577852 -0.022194827
000390 d1 78 c7 3c 19 6f 31 bd 4a 02 c9 3c e5 23 1c 3d
       0.024349602 -0.04331884 0.024537224 0.03812017
0003a0 39 ca 82 bc 2f cf 54 bd ab 5b 94 bc c6 43 08 bd
       -0.015965568 -0.0519554 -0.018110117 -0.03326776
0003b0 97 8c a2 3c 39 25 b3 3c 60 ca fb bc bc d4 c3 3c
       0.01984243 0.021868335 -0.030736148 0.02390515
0003c0 14 a7 00 bc 55 43 11 3c 0a a3 3f bc 89 a6 38 3d
       -0.0078523345 0.008866151 -0.011696586 0.045080695
0003d0 cf c6 14 3d e8 81 e5 bc 39 6d ca 39 6e a5 16 bd
       0.03632241 -0.028016046 0.0003860982 -0.03677886
0003e0 08 52 39 bd 87 44 b1 3b 2f 0d 31 3d 86 8c 42 bd
       -0.045244247 0.0054097804 0.043225463 -0.047497295
0003f0 83 3b c5 bc 6a 1e f2 3c c4 d5 df 3c a5 f9 db 3c
       -0.024076229 0.029555518 0.027323611 0.026852438

base_model.model.bert.encoder.layer.0.attention.self.query.lora_B.weight f4 [384, 16]
000000 84 f9 65 3b 83 19 46 3b 13 b5 b4 3a 67 53 f8 b9
       0.003509135 0.0030227609 0.0013786874 -0.00047364386
000010 1d e4 0c 3b dd b1 1a 3b 6a fa 0c bb ec 6c 27 bb
       0.002149827 0.002360455 -0.0021511563 -0.00255471
000020 b0 1d 16 3b f6 46 6a ba 06 c4 04 3a e7 a0 15 bb
       0.0022905879 -0.00089369656 0.000506461 -0.00228315
000030 51 56 39 3b dc ec ed 3a 0f 2b 0d 3b 0a 95 3b 3b
       0.0028280208 0.0018152255 0.0021540557 0.002862277
000040 d9 ef 2e 3b 77 c8 07 3b 55 02 77 b9 a0 ef 1e 3b
       0.0026693253 0.0020718852 -0.00023556624 0.0024251714
000050 3e 61 64 3b 40 d0 38 3b a0 24 57 bb 40 89 00 bb
       0.0034848 0.0028200299 -0.0032828227 -0.0019613057
000060 90 ca b7 3a 27 7a 27 bb 88 85 66 3b a4 18 8c bb
       0.001402216 -0.0025554986 0.0035174806 -0.0042753983
000070 99 d6 18 3b d7 12 2a 3a 85 5e 9b b9 72 ca 81 3a
       0.002332127 0.00064877927 -0.00029634326 0.0009902252
000080 0c 14 1d bb b1 f6 e7 ba 00 e2 2a 3a b0 3d 3f 3a
       -0.0023968248 -0.0017697421 0.0006518662 0.0007295264
000090 e3 42 fa ba 46 91 4b bb 70 e5 e2 3a 06 e5 86 3b
       -0.001909342 -0.0031061932 0.0017310809 0.004116657
0000a0 5b 71 3c bb 8d e2 72 3b 9e 0f fe ba e1 6b d6 3a
       -0.0028754089 0.0037061304 -0.0019383316 0.0016359055
0000b0 f2 23 4d bb 2c a7 03 bb f0 79 0b bb 79 e1 b7 39
       -0.0031301943 -0.0020088656 -0.0021282397 0.0003507247
0000c0 55 3e 61 ba 12 64 e1 ba c1 18 67 39 35 8d f2 ba
       -0.0008592357 -0.0017195961 0.00022039098 -0.0018505218
0000d0 a0 1d 00 bb 3a e1 d7 ba 5c 62 0b 3b aa 99 c6 b9
       -0.0019548908 -0.0016470321 0.0021268344 -0.00037879992
0000e0 c7 64 21 39 72 47 34 bb 0b 6b ee ba a1 39 66 3a
       0.00015391699 -0.0027508405 -0.001818986 0.0008782391
0000f0 8e c2 aa b8 28 44 07 3b b7 60 2c bb 43 8d 9b ba
       -8.14247e-05 0.002063999 -0.0026302764 -0.0011867661
000100 9a fa c3 ba 7e f7 11 bb e5 48 90 ba 07 2e 5e 39
       -0.0014952004 -0.002227276 -0.0011008052 0.00021188716
000110 f2 4a 83 ba 4a b3 93 ba e8 f9 7d 3a a5 2f 27 3b
       -0.0010016842 -0.0011268642 0.0009688423 0.0025510576
000120 49 33 9b 39 d9 1a de 39 54 a7 4f b9 99 45 a0 3a
       0.00029602114 0.00042363143 -0.00019803393 0.0012227773
000130 24 51 98 ba 5d 6b 36 bb 23 a3 c9 ba 25 58 4e bb
       -0.0011620861 -0.002783499 -0.0015383702 -0.0031485644
000140 54 18 91 3a a6 1d 13 3a ef 61 4d 3a 63 54 d8 ba
       0.0011069872 0.0005612023 0.00078347226 -0.0016504641
000150 9f 5d 81 3a e8 ea ba 3a cd 0f 61 ba ca 28 c4 ba
       0.000986982 0.0014260681 -0.00085854233 -0.0014965769
000160 82 da 26 3b 97 df 1e bb 5a bd 93 3a 4f 85 55 ba
       0.002545983 -0.0024242157 0.0011271641 -0.00081451697
000170 2b 40 e3 3a 3c bd 25 3a b5 00 41 3a 03 69 85 3a
       0.0017337849 0.00063224486 0.0007362471 0.0010178391
000180 63 6c ac 3a 14 b5 03 3a 2b d2 22 bb bf dc f8 3a
       0.001315486 0.0005024236 -0.0024844508 0.0018986686
000190 32 e2 10 3b 42 24 04 3b 36 99 01 bb 57 7c 80 ba
       0.002210748 0.0020163213 -0.0019775159 -0.0009802681
0001a0 57 4a 94 ba 56 1e 93 3a 45 e9 2b 3b ee 43 f8 ba
       -0.0011313659 0.0011224251 0.0026231569 -0.0018941143
0001b0 0e 7b b5 3a f5 23 8a bb 37 32 e9 b9 b1 23 4d bb
       0.0013845877 -0.004215712 -0.00044478636 -0.0031301791
0001c0 e2 12 9f 3b fb d0 87 3b d0 ae 2c ba 27 cb e7 3a
       0.004854546 0.0041447855 -0.00065873284 0.0017684445
0001d0 89 ae 8f 3b 6b 05 a9 3b 5f 51 8b bb 2f 7f 70 bb
       0.00438482 0.0051581166 -0.0042516435 -0.00366969
0001e0 c8 c7 73 3a 75 e9 86 ba d6 66 64 3b d8 3d b7 bb
       0.0009299484 -0.0010292964 0.0034851334 -0.005592089
0001f0 45 5b 89 3b 1a b0 a4 3a 01 59 80 3a 07 0d 05 3b
       0.0041917884 0.0012564689 0.000979215 0.0020301954
000200 98 4f e7 ba 6c 51 56 ba 2b da 00 bb 86 65 3d 3b
       -0.0017647622 -0.0008175585 -0.0019661288 0.0028899624
000210 05 4a df 39 31 0f f9 ba c3 cf 8f ba 95 16 f2 3a
       0.00042589023 -0.001900172 -0.0010971952 0.0018469865
000220 3a bc 66 bb 93 e6 0a 3b 5a 16 29 3b 8c a3 53 ba
       -0.0035207407 0.0021194562 0.0025800676 -0.00080733816
000230 e4 d6 bf ba 4f 9e 1d bb 8c a1 5a ba 7a 87 f0 ba
       -0.0014636186 -0.0024050658 -0.00083401124 -0.0018350922
000240 a5 f6 b6 3b d0 e5 80 3b 5d e6 8d 3a ca 61 18 ba
       0.0055836015 0.003933646 0.00108261 -0.00058129115
000250 71 25 4b 3b fd e4 97 3b d7 94 3c bb be 01 af bb
       0.0030997659 0.004635452 -0.002877524 -0.005340784
000260 70 c6 39 3b 82 f5 61 bb 75 46 e6 3a d8 b8 82 bb
       0.0028347038 -0.003447861 0.0017568605 -0.0039893202
000270 7d b2 8f 3b 2e e4 4c 3b 27 69 b6 3a 5f e0 8f 3b
       0.004385291 0.0031263935 0.0013916836 0.004390761
000280 2e af 50 bb 0b d0 2c bb 7a fb 09 bb 52 8f a9 3a
       -0.0031842696 -0.002636912 -0.0021054433 0.001293639
000290 1b 95 28 bb f3 3a d8 ba c5 7c 85 3a 65 d7 32 3b
       -0.002572364 -0.001649706 0.0010184279 0.002728903
0002a0 7c df 14 bb 50 6e 7b 3b b9 21 64 39 b8 3e 8a 3a
       -0.0022716215 0.0038365312 0.00021756337 0.0010547256
0002b0 0a 55 46 bb 7f a6 2a bb 96 50 c3 ba d4 30 1e bb
       -0.003026309 -0.002603918 -0.0014901336 -0.002413799
0002c0 db 1f e0 39 43 01 87 b8 01 89 4f bb 28 d8 42 3b
       0.00042748344 -6.437537e-05 -0.0031667354 0.002973089
0002d0 cf 36 63 3b 5b f7 b7 39 35 d0 45 bb b0 58 90 3a
       0.003467012 0.00035088774 -0.0030183916 0.0011012759
0002e0 3e 49 76 bb cc 42 2a 3b 40 ca 8c 3b 76 5a 2f bb
       -0.0037580277 0.0025979755 0.004296571 -0.00267568
0002f0 ad 0a 87 ba ed 78 0e bb db 12 97 ba c2 31 14 bb
       -0.0010302864 -0.0021739558 -0.0011526005 -0.0022612666
000300 d7 3f dd 3b 87 8b 81 3b b1 4e 2e bb 70 ec 78 3b
       0.006751995 0.0039534005 -0.0026597197 0.0037982725
000310 8a 35 c7 3b 9c b1 c3 3b 6a 8a b7 bb 05 ea f9 ba
       0.0060793804 0.0059721004 -0.005601217 -0.0019066936
000320 0d 43 02 bb 8d 8c 73 3a 8f 3b a4 3b 1a 51 d2 bb
       -0.001987639 0.0009290658 0.0050119828 -0.0064183595
000330 00 09 b5 3b 95 5d 14 bb 24 bc 02 3b 0d 4d 37 3a
       0.0055247545 -0.0022638787 0.0019948566 0.00069923775
000340 a0 3f b8 3b 3c a3 8b 3b b6 95 2e 38 d3 ec 47 3a
       0.005622819 0.0042614024 4.1624262e-05 0.0007626537
000350 9a 18 90 3b a6 63 b2 3b e2 08 83 bb bc 7c be bb
       0.004397464 0.005444008 -0.0039988616 -0.0058132093
000360 55 e3 02 3b 86 b9 9d bb 80 51 5b 3b 93 76 a9 bb
       0.0019971926 -0.004813376 0.0033465326 -0.005171606
000370 39 65 8c 3b 7b aa 48 3b 98 16 94 3a 59 15 9b 3a
       0.0042845276 0.0030619192 0.0011298237 0.0011831924
000380 bc fc e3 3a a1 fc 4a 3a 98 74 9d b8 d0 42 eb 3a
       0.0017394046 0.0007743333 -7.508061e-05 0.0017948989
000390 b0 5b fa 3a 01 0d 1c 3b 2b 84 00 bb 22 97 9c ba
       0.0019100811 0.0023811462 -0.0019610028 -0.0011946897
0003a0 af 53 eb 3a 99 ec f9 ba 98 3e 21 3b 53 2c 22 bb
       0.0017954017 -0.0019067704 0.002460396 -0.0024745658
0003b0 7b 7d b7 3a fb 83 46 3a 55 f1 0f ba 2b 4d fb b9
       0.0013999188 0.0007572767 -0.00054909784 -0.00047931945
0003c0 94 4e 2b ba d4 cd 4c ba f7 b4 6f 3a ed 11 80 b9
       -0.00065348414 -0.0007812653 0.00091440923 -0.00024427418
0003d0 61 5f a0 b9 ff 1d 06 ba 49 80 aa 39 7b 71 42 3a
       -0.0003058864 -0.0005116164 0.00032520507 0.00074174226
0003e0 11 eb 24 3b 8d 80 26 ba 48 5d b8 b9 a0 e6 1d 39
       0.0025164525 -0.0006351553 -0.00035164715 0.00015058601
0003f0 4d b6 0f ba ef 67 a8 38 63 3d 6e ba be e4 c1 ba
       -0.0005482182 8.0302234e-05 -0.0009088127 -0.0014792902

base_model.model.bert.encoder.layer.0.attention.self.value.lora_A.weight f4 [16, 384]
000000 ca 2a ed bb 1a c7 13 bd 2c 74 f8 bc 3c a8 b6 3b
       -0.007237767 -0.03607855 -0.030328833 0.0055742543
000010 a6 48 14 bd b1 b9 aa bc c3 45 39 3d fa 8d 34 bc
       -0.036202095 -0.020840498 0.045232546 -0.011020178
000020 bf f8 bd bc 46 fe 17 bd 1f 7c 00 3d 1c ae 5b bc
       -0.0231899 -0.03710773 0.03136837 -0.01340821
000030 20 56 08 bd 96 fd 13 bd 97 b5 20 bd 99 1a 25 bc
       -0.03328526 -0.03613051 -0.039235678 -0.010077142
000040 1f 33 3c 3c 5e d2 35 3d bb 2b 22 bd 47 d1 40 3d
       0.011486798 0.044390075 -0.039592486 0.047074582
000050 35 b3 b0 3a 69 7a 5f bd 6e e8 4a bd ba c9 1a bd
       0.0013481142 -0.0545601 -0.04953807 -0.037790038
000060 bb af 33 3d 2e 4e 5e bd b9 ce 27 3d 98 0c 48 bd
       0.04386876 -0.054273777 0.04096863 -0.048840135
000070 63 05 79 3c 6f 10 c9 bc 87 05 87 3c 18 8f 3d bc
       0.015199038 -0.024543969 0.016482128 -0.011569761
000080 d7 6a f9 bc ac 04 45 bd 7f 30 12 bc 40 87 c8 bc
       -0.030446453 -0.04810016 -0.008922695 -0.024478555
000090 71 4c 15 3c 5e 85 f3 bc 6c 50 93 3c 07 48 bd 3c
       0.009112463 -0.02972668 0.017982684 0.023105634
0000a0 33 ab 2f bd 06 48 c1 3c be 87 29 3d 77 5f 71 3c
       -0.042887878 0.023593914 0.04138922 0.014732233
0000b0 53 59 c1 3c d2 9f f8 3b 1f d4 11 3d c8 cb 33 bd
       0.023602163 0.0075874114 0.035602685 -0.043895513
0000c0 84 44 12 bb d9 42 82 3c 99 ff da 3c 1b be 94 3c
       -0.002231867 0.015901016 0.026733207 0.018157056
0000d0 be 62 f6 3c ab 07 4b bc 0b 10 72 bc 3a 1d c0 3b
       0.03007638 -0.012391965 -0.014774333 0.005862859
0000e0 90 f6 5a 3d 46 11 1a 3d e7 17 4a bd de 53 56 bc
       0.053457797 0.03761413 -0.0493392 -0.013081519
0000f0 b5 e4 1c 3c ad 70 93 bc da 62 0a bc fa 6c 2d bd
       0.009576012 -0.017998064 -0.00844642 -0.042340256
000100 91 47 3b bd ed ec ea 3b f7 01 27 3d 6d 4a d6 3c
       -0.045722548 0.007169357 0.04077336 0.026158536
000110 1f f4 da bc 2f ac 69 bd b7 5d b0 bc 89 f3 5f 3b
       -0.026727734 -0.057048973 -0.021529062 0.0034172258
000120 88 51 42 bd 89 56 05 3d a8 74 db bc 97 9f 12 3d
       -0.047441036 0.03255323 -0.026789024 0.035796728
000130 4a 3e 21 bd ba 93 74 3b 76 c1 5b bd 57 88 3a 3d
       -0.039366044 0.0037319497 -0.053651296 0.04554018
000140 ab 50 54 bd 66 0f 41 3d bd 39 24 bd 7f ae 1f 3d
       -0.051834743 0.047133826 -0.040094126 0.03898477
000150 1f c0 5f bb 06 e5 78 3b 3c cf 0e 3d 96 d0 8f 3b
       -0.0034141613 0.0037978305 0.034865603 0.004388879
000160 ed 1d be bc ac c3 54 bd e1 a4 ac 3a 1a be 9c bb
       -0.02320763 -0.05194442 0.0013171696 -0.004783404
000170 e4 91 5d 3d 11 c7 9c bb b7 06 05 3d b7 38 81 3b
       0.05409421 -0.0047844728 0.032477107 0.0039435285
000180 18 85 91 bc ac d7 3e bc 1d 37 c7 bb 88 97 57 bd
       -0.01776366 -0.0116481 -0.006079568 -0.052634746
000190 84 ab 88 3c 82 dc 03 bc e8 81 ad bc 39 5f 14 3d
       0.016683348 -0.008048179 -0.021180108 0.036223624
0001a0 a2 73 9d 3b 62 6b 21 3d 55 fd 8f bc ce c1 0a 3d
       0.0048050443 0.03940905 -0.017576853 0.033876233
0001b0 74 2d fb bc 3f 24 6f bc e4 0b a1 bc 28 bd 2d bc
       -0.030661322 -0.014596044 -0.01965899 -0.01060418
0001c0 7d e7 ee bc 18 5b 68 bd ec 95 00 3d 7c 7e 05 bd
       -0.029163117 -0.0567275 0.031392977 -0.032591328
0001d0 df 86 c9 bc 34 9e 64 3d 60 94 54 bc 88 b6 4a 3d
       -0.024600444 0.055814937 -0.0129748285 0.04949048
0001e0 7f bf 17 bd f0 90 ba bc 9d e5 04 3d cb 2d 89 bc
       -0.03704786 -0.02277419 0.03244554 -0.016745469
0001f0 e6 d2 14 3d 51 bb d4 bc 47 f2 10 bd 79 92 6f 3c
       0.03633394 -0.025968226 -0.035387304 0.014622324
000200 12 57 02 bd ef 19 bd bc 2a 46 3c 3d 40 10 6b 3d
       -0.031821318 -0.023083655 0.04596535 0.057388544
000210 fd 80 27 bc 8b 53 ca bc dd 0f 15 3d 8e a7 1c bd
       -0.010223624 -0.02469804 0.03639208 -0.03824573
000220 1b e7 ed 3b ae f2 74 bc 98 e6 53 bd 15 f7 09 bd
       0.007260216 -0.0149504375 -0.051733583 -0.0336829
000230 92 fe 23 bd 61 f8 7d 3b 8a 2a 06 3d 5e af 08 bd
       -0.0400377 0.0038752782 0.032755412 -0.03337037
000240 56 d8 08 3d d7 64 7b 3c 53 57 fb 3c 63 20 88 3c
       0.03340944 0.015343866 0.030681288 0.016617006
000250 37 47 35 bd f0 6b c7 3b 13 51 16 bd 05 72 5a bd
       -0.04425737 0.006085865 -0.036698412 -0.053331394
000260 f1 8b 27 bd 80 ed 1f bd 6f 31 0d 3c 02 4e fc 3c
       -0.040904943 -0.039044857 0.008617743 0.030798916
000270 b8 03 1b 3d 3c d9 e1 bc 3d ee bb bb 65 2a a8 3c
       0.037845343 -0.027569406 -0.0057351873 0.020528028
000280 f6 ee c5 bc f4 aa 17 3d 4e 36 ed 3c 92 49 0d bd
       -0.024161797 0.037028268 0.028956559 -0.03449399
000290 0a f0 da 3c 2a d8 22 3a ad 6e 11 3c 6b e5 e3 bb
       0.026725788 0.00062120205 0.008876485 -0.006954839
0002a0 7c d4 91 3c 20 69 11 bd 18 eb 2f 3d 52 96 8d bc
       0.017801516 -0.035500646 0.042948812 -0.017283592
0002b0 e7 51 dc bc 03 ed f2 bb b7 7d f3 bc 9b 2d 5e bd
       -0.026894523 -0.007413508 -0.029723031 -0.05424271
0002c0 20 9d 7c 3c 32 5a 82 3c 1b f2 1d 3c 63 b4 53 3d
       0.015418321 0.01591215 0.009640242 0.051685702
0002d0 9d 60 34 3d c9 93 2f 3c 19 69 80 bc 60 f4 ed bc
       0.04403745 0.010716387 -0.015675114 -0.029047191
0002e0 6a 3a 80 bc 70 ca 78 bc ef ee 04 bd da 7b 39 bd
       -0.015652854 -0.015184984 -0.032454427 -0.04528413
0002f0 64 2e 98 3a 11 f9 ae 3c 12 2c 7b 3c 75 22 79 bb
       0.0011610505 0.021358998 0.015330331 -0.0038014923
000300 41 e6 a2 bc bd 80 0a bd 78 1b 49 bd 7d b4 53 bd
       -0.019885184 -0.03381418 -0.049098462 -0.0516858
000310 c3 c0 5c 3d 38 a1 26 3d 52 fd 9a 3c 0e ab 52 3c
       0.05389477 0.040681094 0.01891962 0.012858165
000320 d9 35 35 bd 61 fa 67 ba 1c 72 24 3d 24 cc b1 bc
       -0.044240806 -0.000884926 0.040147886 -0.021703787
000330 13 a3 0c 3d b9 38 7f 3c ac 24 07 3d 5a ea 1a bc
       0.034335207 0.015577489 0.032993957 -0.009455288
000340 1e 4b ea bc 54 49 ec 3c 9e 51 53 3d 3c 1f 8b 3c
       -0.028600272 0.02884356 0.051591508 0.016982667
000350 e6 63 0f 3d 0d a4 91 3b 56 e7 2d bd a8 93 88 bc
       0.03500738 0.004444605 -0.042456947 -0.01667197
000360 b0 ad d7 3c 4e 5f 0f bd 71 72 9c 3a 26 0b 26 bd
       0.026327938 -0.035003 0.0011935962 -0.040537976
000370 ea 79 1d bc de 91 25 3d 50 b3 33 3d f5 4c 05 3b
       -0.009611586 0.040422313 0.043872178 0.002034006
000380 30 b3 4e 3d 8c de 31 bd e4 e9 36 3d ce 88 ad bc
       0.050463855 -0.043425128 0.04465665 -0.021183398
000390 39 35 96 bb b4 01 2d bc 3a 3e a1 3a ca 69 1f bd
       -0.0045839814 -0.010559488 0.001230187 -0.038919248
0003a0 62 e3 37 bd 05 ce 5d 3c de a8 92 bc fe b0 b4 3c
       -0.044894584 0.013537888 -0.017902788 0.022057053
0003b0 e4 31 82 bc 51 fd bd bc 19 f4 1a 3c df 93 d8 3c
       -0.01589293 -0.02319208 0.0094576115 0.026437698
0003c0 36 91 ec bc f2 c8 4b bd 6c 4b 3a bc 0e 4b 01 bb
       -0.028877836 -0.049752183 -0.011370521 -0.0019728574
0003d0 fb 6f 48 bc 7b 84 dc bc 0c 46 f0 bc 3f 7d 8b bb
       -0.0122337295 -0.02691864 -0.029330276 -0.004256874
0003e0 cf 59 0f bd 2f 23 af bc 86 fb 62 bd 4e b3 0c bd
       -0.034997758 -0.021379082 -0.055415653 -0.034350686
0003f0 1f b7 0f bd 4b 2f b4 3c b3 a9 7c 3c a7 db 5b 3d
       -0.035086747 0.021995207 0.015421319 0.053676274

base_model.model.bert.encoder.layer.0.attention.self.value.lora_B.weight f4 [384, 16]
000000 1d dc 9c ba 78 22 13 b9 bf 39 3b 3a 7e 2a 12 b7
       -0.0011967454 -0.00014031853 0.0007142089 -8.712172e-06
000010 09 56 44 b9 cd 83 7e ba 0e 74 91 ba 70 0b 9e b9
       -0.00018724067 -0.0009708971 -0.0011097209 -0.0003014463
000020 f5 ed aa b9 55 4b 26 39 11 f8 3f 3a 7b 9b 7d 39
       -0.0003260222 0.00015859057 0.00073230366 0.00024185881
000030 1f 49 36 3a 02 22 c8 b9 33 cf d2 3a e6 d8 e5 3a
       0.0006953645 -0.0003817231 0.0016083479 0.0017535954
000040 98 6a 19 bb 97 90 59 bb ef 2c 84 3b 64 d3 6d bb
       -0.0023409482 -0.0033197755 0.004033677 -0.0036289329
000050 09 42 88 3b 9c b9 6a bb 22 52 5d 3b 1d 01 44 3b
       0.0041582626 -0.0035816198 0.0033770879 0.002990789
000060 76 b5 7f bb f6 63 85 3b 82 15 31 bb 57 d8 7a 3b
       -0.0039018071 0.004070754 -0.0027020876 0.0038275921
000070 71 b5 2b 3b c4 d7 32 3b 08 8e 4a 3b fd 56 bd 3b
       0.0026200677 0.002728925 0.003090741 0.005778192
000080 70 a4 06 bb 0c 35 d2 bb 98 37 67 3b a6 c4 e5 bb
       -0.002054479 -0.006415015 0.003528094 -0.0070119677
000090 f0 3f d0 3b ce 56 18 bb 56 75 c9 3b a9 79 a4 3b
       0.006355278 -0.00232451 0.0061480207 0.005019386
0000a0 05 77 ec bb ba f5 cc 3b 81 f6 90 bb 25 cd ea 3b
       -0.0072163367 0.006254879 -0.004423917 0.0071655684
0000b0 b1 5b 16 3b 1b f7 8f 3b 39 df 1c 3b 0b 8a 96 3b
       0.0022942836 0.004393471 0.0023936762 0.0045940927
0000c0 56 28 5c 3a 58 4f ca ba 2c 26 b2 b9 d1 b5 cf ba
       0.00083983445 -0.0015435023 -0.00033979246 -0.0015847032
0000d0 8b 99 b4 3a e9 e4 8c 3a c3 64 04 3b 67 51 a6 3a
       0.001377867 0.0010749373 0.002020166 0.0012689055
0000e0 c5 9a e3 ba ea 3d 83 3a bc 34 a5 ba 6b 49 dd 3a
       -0.001736485 0.0010012959 -0.0012604217 0.0016882842
0000f0 c3 7c 7a ba b5 fd 85 3a 1c 16 95 ba 1d 12 b3 3a
       -0.0009555334 0.0010222705 -0.0011374387 0.0013662014
000100 90 56 8c 3b 0a 68 31 3a e1 f6 05 bb c9 5c a2 3a
       0.00428278 0.0006767517 -0.002044134 0.0012387271
000110 cc 89 0e b9 e5 a2 e4 3a 43 d6 3c ba 83 dd 27 37
       -0.00013593509 0.0017443566 -0.00072035583 1.000555e-05
000120 49 43 38 3a de 44 06 ba f4 61 4b 39 32 65 34 ba
       0.0007029069 -0.00051219563 0.00019396079 -0.00068815344
000130 ac 72 21 bb 42 83 53 b8 7d 51 6d bb 68 f2 4d ba
       -0.0024635 -5.0428564e-05 -0.00362119 -0.0007856251
000140 4c 7a bd 3a b7 29 b0 37 b2 f7 29 ba 46 c4 1b 39
       0.0014456003 2.100026e-05 -0.0006483748 0.0001485507
000150 5a 8c ac 3a 14 48 00 3a 84 6d 46 3a 5c 66 6f 3a
       0.0013164387 0.0004893553 0.00075694197 0.0009132379
000160 15 c4 13 b9 52 8b 8d 3a ae 00 af ba 9c 42 7e 39
       -0.00014092059 0.0010798967 -0.0013351643 0.00024248142
000170 0a 16 8e ba 61 31 a6 3a 63 af 6a ba 7b bd 07 3a
       -0.0010840308 0.0012679511 -0.0008952526 0.0005178076
000180 94 1c 5d 3b 10 a5 5e 3b 62 49 7b bb 89 79 76 3b
       0.0033738958 0.0033972897 -0.00383433 0.0037609062
000190 5c 91 89 bb 7c 09 61 3b 0e 12 60 bb d1 26 5c bb
       -0.0041982364 0.0034337929 -0.003419045 -0.0033592472
0001a0 c0 d8 7f 3b 04 bf 86 bb c8 0a 4a 3b 59 ea 7d bb
       0.0039039105 -0.0041121263 0.003082918 -0.0038744418
0001b0 9d 9e 1f bb d8 d9 4b bb 5b ec 77 bb 2b 55 b5 bb
       -0.0024356015 -0.0031105187 -0.0037830088 -0.0055338345
0001c0 4e ba 18 3b fe 9e 57 3b 18 33 27 bb 49 cd 62 3b
       0.0023304406 0.0032901163 -0.0025512632 0.0034607223
0001d0 3c f2 21 bb b7 88 1e 3b 91 9f bc ba 57 58 47 bb
       -0.0024711033 0.0024190375 -0.0014390816 -0.0030417645
0001e0 3d ee 61 3b 18 b2 26 bb ef ae c2 3a 1c dc 44 bb
       0.0034474276 -0.0025435742 0.001485316 -0.0030038422
0001f0 9a 66 18 bb 68 f2 04 bb 59 7b 20 bb ac 0a 23 bb
       -0.0023254515 -0.0020286087 -0.0024487583 -0.0024878187
000200 4c 35 09 bb dd 30 5b ba 43 f9 d6 3a ce ae 3d ba
       -0.0020936308 -0.0008361468 0.001640119 -0.0007235826
000210 96 3e a9 38 00 16 d6 ba 2f 3e eb 38 15 06 97 38
       8.0702055e-05 -0.0016333461 0.00011217256 7.201374e-05
000220 54 25 73 ba 57 79 4b b8 a6 38 ab 39 ae d1 6e 3a
       -0.00092752767 -4.8511978e-05 0.00032657868 0.0009110224
000230 a2 bf 05 3b 36 1e 89 b9 3d be fa 3a d6 ee ad 3a
       0.0020408412 -0.00026153185 0.0019130182 0.0013270031
000240 e4 fd 04 37 fc 55 c5 3a 83 20 2a ba 7c 4a d0 3a
       7.926927e-06 0.0015055533 -0.000648983 0.0015891339
000250 ed 53 6f ba 73 2a 8d 3a c3 ef b5 ba 71 e0 b1 ba
       -0.00091296324 0.0010770097 -0.0013880659 -0.0013570917
000260 31 61 a9 3a e7 16 8e ba fc ab d9 3a 86 51 a5 ba
       0.0012922642 -0.0010840566 0.0016607041 -0.0012612797
000270 2e b1 95 ba db 4d c0 ba f2 70 c1 b7 e9 c4 66 3a
       -0.0011420602 -0.001467164 -2.3059987e-05 0.00088031456
000280 a1 d9 b6 ba 55 30 af 3a 36 22 c5 3a fe 05 b8 3a
       -0.0013950357 0.0013365844 0.0015040103 0.0014039872
000290 f2 83 35 bb 0a bc b9 ba d2 47 21 bb 05 8a 17 bb
       -0.0027697054 -0.001417042 -0.0024609459 -0.0023123038
0002a0 f1 46 e4 3a 76 6a 1e bb 74 e7 1d 3b 6f 55 e2 ba
       0.0017416162 -0.0024172342 0.0024094256 -0.0017267893
0002b0 f5 07 de 3a cf 4a 17 bb 9f 46 8b 3a 97 78 6c ba
       0.0016939627 -0.002308536 0.0010625905 -0.0009020655
0002c0 50 70 08 38 63 13 19 3b 40 31 f1 ba fd 48 1e 3b
       3.2529526e-05 0.0023357503 -0.0018401518 0.002415239
0002d0 76 3a 56 bb ae e9 f6 3a 3c 0a 45 bb b5 70 3b bb
       -0.0032688654 0.0018837953 -0.0030065915 -0.0028601114
0002e0 e9 1b 2d 3b 4d 6d 48 bb 28 22 37 3b 64 e5 2a bb
       0.002641434 -0.0030582726 0.0027943943 -0.002607667
0002f0 d8 64 9a ba a8 53 34 bb ec 27 a5 ba c7 c0 5c bb
       -0.0011779321 -0.0027515683 -0.0012600399 -0.003368424
000300 a0 9e 3f bb 0b 7b e7 ba 25 ea 2e 3b 27 d5 13 bb
       -0.0029238835 -0.0017660571 0.0026689854 -0.0022557469
000310 6c 33 19 3b 61 cb 06 bb 26 83 32 3b d7 73 c0 3a
       0.0023376597 -0.0020568 0.0027238815 0.001468296
000320 88 f8 19 bb 56 58 08 3b 01 92 c0 ba 40 1e 19 3b
       -0.0023494083 0.0020804605 -0.001469195 0.0023363978
000330 ef 93 1d 3b 39 32 b0 3a a7 db 2d 3b 54 f3 46 3b
       0.0024044474 0.0013442702 0.0026528628 0.0030357437
000340 a4 f8 85 bb b1 77 9d bb 3f 1d a1 3b f7 f4 d7 bb
       -0.004088478 -0.004805528 0.0049168165 -0.0065904814
000350 1f 29 e5 3b fe 18 76 bb db 43 e6 3b 89 6e be 3b
       0.0069934274 -0.0037551518 0.007027132 0.0058115167
000360 f7 56 c6 bb c4 52 d4 3b a3 bf ae bb c2 8b d0 3b
       -0.0060528475 0.006479593 -0.0053329035 0.0063643167
000370 28 74 68 3b e1 22 a8 3b 6f df 90 3b 2f 5b c1 3b
       0.0035469625 0.005131111 0.0044211666 0.0059007625
000380 f6 5f eb 3a 8f e0 2f 3b 0e da 39 bb 32 0e 41 3b
       0.0017957676 0.0026836728 -0.002835873 0.0029457924
000390 5b a6 14 bb 4c 3d 0a 3b dc 88 23 bb 2a aa 0f bb
       -0.0022682163 0.0021093665 -0.00249534 -0.0021921494
0003a0 f7 ad 30 3b 5b d8 18 bb 58 70 0c 3b 66 82 30 bb
       0.002695916 -0.0023322317 0.0021429267 -0.0026933192
0003b0 8e e2 13 bb 36 68 09 bb 36 46 b1 ba 04 52 09 bb
       -0.0022565457 -0.0020966656 -0.0013524953 -0.0020953426
0003c0 12 cb 6c 3b 23 95 76 3b 91 e6 59 bb 0a df 8d 3b
       0.0036131782 0.0037625514 -0.0033249 0.004329567
0003d0 01 12 95 bb 28 4b 5b 3b e0 5c 82 bb 3c fd 71 bb
       -0.0045492654 0.0033461545 -0.0039783567 -0.003692462
0003e0 84 ff 90 3b 75 cd 90 bb cc 13 64 3b dc 62 8e bb
       0.004424991 -0.0044190236 0.003480184 -0.004345281
0003f0 34 b5 4d bb ad 90 5a bb b9 d8 89 bb 45 df 8e bb
       -0.0031388523 -0.0033350394 -0.0042067436 -0.004360112

base_model.model.bert.encoder.layer.1.attention.self.query.lora_A.weight f4 [16, 384]
000000 b6 65 25 3d ab 53 40 bd 86 4d ea bc 18 8d 50 3b
       0.040380202 -0.046954792 -0.02860142 0.003182238
000010 0b 47 3c 3d 7c 21 bb 3c 3e ac db 3c 68 28 44 3d
       0.04596619 0.022843115 0.02681553 0.047890097
000020 36 6e 35 bb 16 2b f8 bb 6d 3c 2d 3d 8e 9f ea bc
       -0.00276841 -0.0075734956 0.042293955 -0.028640535
000030 ed 19 15 3d 7d 59 7b 3c 21 67 7b 3b cc a9 bf 3c
       0.036401678 0.01534116 0.003836103 0.023396395
000040 ee bc 17 bd f9 28 f4 3c 1e 91 a0 3c db fe e9 bb
       -0.03704541 0.029804694 0.019600447 -0.007140977
000050 91 fc da bc d4 7f 35 bd 64 06 5c bd 40 35 cc 3c
       -0.026731761 -0.04431136 -0.053717032 0.024927735
000060 cc 07 33 bd 76 d4 9b 3c 2d 3c 9e bc c9 1c e5 3c
       -0.043708608 0.019022208 -0.019315803 0.027967827
000070 14 7f af 3c a3 57 45 3c e8 fc 44 bd 54 4c 1b bd
       0.0214229 0.01204482 -0.048092753 -0.03791459
000080 9e d6 3d bd 15 41 4e bd da 5f f3 bc 1c 89 d1 3c
       -0.046347253 -0.050355036 -0.029708792 0.025578074
000090 aa 1b e5 3c cd da 24 bb 03 f6 87 3c a7 38 b7 3b
       0.027967293 -0.002515483 0.0165968 0.0055914703
0000a0 6d e7 9a bc 53 76 2f bd 37 13 0d 3d be 56 36 bd
       -0.01890918 -0.042837452 0.034442153 -0.044516318
0000b0 e6 3a bf bc 44 ea ee bc f6 c7 a7 bb a0 a3 c3 3c
       -0.023343515 -0.02916444 -0.0051202727 0.023881733
0000c0 5a 01 96 bc 17 97 20 bb 03 ef 4e bb 2d 02 45 bd
       -0.018311191 -0.002450412 -0.0031575568 -0.048097778
0000d0 47 1c 9b 3b ab 87 4c 3d 0d 5f 15 bd a7 d8 22 3d
       0.0047335955 0.04993407 -0.0364676 0.039757397
0000e0 ff 2c 3f bd 09 0a 02 bd a6 79 af 3c 6f 29 af 3b
       -0.04667377 -0.03174785 0.021420311 0.0053455154
0000f0 df 3c d2 3c 34 fa 5a bc 10 f0 88 bc 3a 2d 57 3c
       0.025663791 -0.013365317 -0.016716033 0.013133341
000100 ec f8 27 3c 97 ae 8d 3c c4 b3 03 bc 30 61 df 3b
       0.010252219 0.017295165 -0.008038465 0.0068170056
000110 61 58 a6 3a 60 1b 96 bc 0a 89 44 3d da 63 df bb
       0.0012691134 -0.0183236 0.047982253 -0.006817323
000120 d9 e9 17 bc 45 20 4a bc ab 22 ce 3b eb a0 4e bd
       -0.009272062 -0.012336795 0.006290754 -0.050446432
000130 17 66 44 3d 9c dd f7 bc c7 43 e1 3c fa dc 1e 3d
       0.047948923 -0.030257039 0.027498139 0.03878496
000140 2e 91 10 3d b1 46 7b 3c 2e 99 45 3d 93 a7 0a 3d
       0.035294704 0.015336678 0.048241787 0.033851217
000150 5f 80 18 bd 66 a9 34 bc 0e 2e ae 3c e4 d0 3c 3c
       -0.0372318 -0.011026716 0.021262195 0.011524413
000160 34 89 04 bd 18 64 12 3b 63 dc 66 bc b6 97 ba 3b
       -0.03235741 0.0022337493 -0.01409063 0.005694355
000170 61 bf cb 3c b9 ea 2d bd 22 2d 04 bd d2 b1 99 bc
       0.02487153 -0.042460177 -0.032269605 -0.01876155
000180 85 4b 36 3d 77 de ac bc 79 f9 2b 3d de ef d8 bc
       0.044505615 -0.021102173 0.041985963 -0.026481565
000190 97 98 f1 b9 06 8c f7 3b cc 07 3e bd 26 39 bf 3c
       -0.0004608079 0.007554534 -0.046394154 0.02334268
0001a0 0b b7 2b bd d9 8a 03 3d 5b f1 c4 bc 54 b2 ca bc
       -0.04192261 0.032114837 -0.024040869 -0.024743237
0001b0 d4 55 da 3c 0a d0 1c bd f5 ca 3e bd 91 ab 41 3d
       0.026652254 -0.03828434 -0.046580274 0.04728276
0001c0 14 cb 38 3c ed 83 45 bd b0 fa 4e 3d 0c d3 92 3c
       0.011278886 -0.048221517 0.050532043 0.0179229
0001d0 4a ec 31 3d 51 6f f3 bb 6e 36 8b 3b 69 e8 5e bc
       0.043438233 -0.0074290414 0.004248432 -0.013605216
0001e0 6f b5 0e bd 77 93 b6 bc af a7 5d 3c 0c 57 f0 3c
       -0.034840997 -0.022287114 0.013528748 0.029338382
0001f0 00 55 75 bb 7d 26 20 3d 7c 61 ab 3c ce bf be 3c
       -0.0037434697 0.039099205 0.020920508 0.023284819
000200 f8 e9 11 bc 3d d0 15 bd 72 c5 06 3d 78 99 d6 3c
       -0.00890588 -0.036575545 0.032903142 0.026196226
000210 46 37 00 bc fd 19 e6 bc d7 f1 be 3c 75 a7 16 3d
       -0.007825678 -0.028088564 0.023308678 0.036780793
000220 37 62 54 3c b5 98 16 bd 03 49 24 bb 97 85 2b bd
       0.012962869 -0.036766727 -0.0025067932 -0.041875448
000230 53 bd 5a bd 45 8b 0b 39 7e bd 46 3d 7b 7b 20 bd
       -0.05340321 0.00013307955 0.048520558 -0.03918026
000240 d2 5f c6 bc f9 eb 39 3d c7 3f ab 3c 7b 7b b4 bc
       -0.024215613 0.045391057 0.020904435 -0.022031536
000250 6e dc 46 3d 6d 5f ef bc bf d2 59 bc 23 29 f1 3b
       0.048550062 -0.029220307 -0.013294875 0.00735964
000260 87 cd bb 3b 1e 67 13 bd 02 82 47 bd 43 5a 17 3d
       0.005731288 -0.035987012 -0.04870797 0.036951315
000270 48 fb 30 bd 86 3b d5 3c 8d 10 1d bd 6c 32 23 bd
       -0.04320839 0.02602936 -0.038345862 -0.039843008
000280 ca db 38 3d ae 29 f5 bc 00 4d 21 bd 63 02 47 bd
       0.045131482 -0.029927101 -0.039380074 -0.04858626
000290 77 e4 30 bd dd 1e 14 bd d0 9a 34 3d ea c9 a2 3b
       -0.04318663 -0.036162246 0.044092953 0.0049679177
0002a0 16 a1 9b 3a 6a cc e8 3c 10 fd 1b b9 65 67 e1 bc
       0.0011873569 0.028417785 -0.00014876225 -0.027515123
0002b0 3d 6b 12 bd 3d e5 42 3b 36 6d 41 3c 34 3e d4 bc
       -0.0357468 0.0029738687 0.011805823 -0.025908567
0002c0 c4 ea 2c bc 6c 30 62 3b 79 d4 33 bd 95 b8 ae bc
       -0.010554019 0.0034513725 -0.0439038 -0.02132825
0002d0 5c a0 48 3c da bf ab 3c b9 6c 17 3d fd 02 4d 3c
       0.012245264 0.020965505 0.03696892 0.0125129195
0002e0 0b e5 46 bd b6 6f ec bc 6a d6 2e bd 93 7f 76 bc
       -0.048558276 -0.028861862 -0.04268495 -0.0150450645
0002f0 bc 06 1d bd 58 65 2a 3d 4a 00 34 bd fa 13 2c bd
       -0.0383365 0.041600555 -0.04394559 -0.04201124
000300 ec d5 1a 3b 75 54 07 3d d5 d1 ae 3c 36 ec fe 3c
       0.0023626043 0.03303953 0.02134029 0.031118494
000310 fa 0d 2b 3c e9 88 0e bc e1 46 8a bc 62 26 1f bd
       0.010440344 -0.008699634 -0.0168795 -0.038854964
000320 b8 42 93 bc 4b 00 34 3d 5e af 0c 3d 53 36 29 bd
       -0.01797615 0.043945592 0.03434693 -0.041311573
000330 a3 9b 1c bc a7 3c 0b bd 18 87 b1 3c 0e 86 ce 3c
       -0.009558591 -0.03399339 0.021670863 0.025210407
000340 cb 2f 0a bd ac bc 74 3c 54 ec ca 3b e3 35 ed bc
       -0.033736985 0.014937561 0.0061927233 -0.02895636
000350 bb 48 64 3c bc 72 3e 3c f4 86 25 bc cd 62 0f bc
       0.013933356 0.0116240345 -0.010102976 -0.008751583
000360 a4 ee 9c 3c ce 54 04 3d 94 f4 66 3c 34 52 54 3d
       0.019156761 0.03230744 0.014096398 0.051836208
000370 ee 4b 24 3d fa 57 a9 3c b8 05 49 bb 10 e0 1a bd
       0.040111475 0.020671833 -0.0030673575 -0.03781134
000380 28 16 f2 bc 64 16 8f 3c 76 3a fb bc eb c7 19 bd
       -0.02955158 0.017466731 -0.030667525 -0.037544172
000390 73 ef 1b 3d 18 62 2a bc 57 af 06 bd 1d 5d 2b 3d
       0.038070153 -0.010399364 -0.03288206 0.041836847
0003a0 3c 4b 2a 3d 3b 52 48 3c 43 b1 c6 3c 77 61 d3 3c
       0.041575655 0.0122266365 0.024254447 0.02580331
0003b0 ea 30 36 3d 38 13 64 bc 05 b3 9d 3c 57 98 8a 3c
       0.04448024 -0.013920598 0.019250402 0.016918344
0003c0 11 18 56 3d 7f 9a 00 bd 8f b1 b2 3c 85 7f bf bc
       0.052269045 -0.03139734 0.021813182 -0.023376236
0003d0 21 97 4d bb b4 9a 81 bc ab 92 0d 3c 8a c6 3c 3d
       -0.0031370597 -0.015820839 0.008640925 0.04608778
0003e0 f8 8e 38 3d 6f 7d dc 3c c4 97 1d 3d c4 76 4d bd
       0.04505822 0.02691528 0.038474813 -0.05016209
0003f0 80 e5 4d 3d 75 48 33 3c e8 0a 01 3d c2 97 26 3c
       0.050267696 0.010942568 0.03150454 0.010168018

base_model.model.bert.encoder.layer.1.attention.self.query.lora_B.weight f4 [384, 16]
000000 c3 50 18 3b 9f 1e 91 bb b9 36 35 3b ca aa e1 ba
       0.0023241497 -0.004428699 0.0027651025 -0.0017217037
000010 6f 4d 72 3b 2b b4 04 bb 3f 0c ad bb 8f 1d 65 ba
       0.0036972424 -0.002024899 -0.005281001 -0.00087400613
000020 ae 4b a4 3b e9 44 ca 3b 4e 03 8d bb 10 1f 8c bb
       0.0050139045 0.0061727655 -0.0043033725 -0.004276164
000030 b1 7b 8d 3b 53 ed 5f 3b da 57 44 3b 91 9b 80 bb
       0.0043177237 0.0034168556 0.002995959 -0.003924795
000040 04 36 27 3b 12 6d 22 bb b6 c3 f4 3a c3 db de ba
       0.0025514374 -0.002478425 0.0018674049 -0.001700275
000050 8e 60 19 3b 15 b3 06 bb 0a ea 1b bb be 96 f8 ba
       0.0023403498 -0.0020553519 -0.0023790621 -0.0018965823
000060 4c 35 37 3b 51 d4 2d 3b cd 05 27 bb 67 8d 0f bb
       0.0027955351 0.0026524256 -0.0025485635 -0.002190435
000070 ae c9 30 3b bd d3 2a 3b d9 88 44 3b e8 42 21 bb
       0.002697568 0.0026066147 0.0029988794 -0.002460653
000080 ed f1 e3 39 f1 08 93 39 13 f2 16 3b ad 10 b2 38
       0.00043477063 0.00028044687 0.002303247 8.4908075e-05
000090 31 b2 d0 39 eb da f0 ba e6 e3 bb b8 48 dc 18 3b
       0.00039805615 -0.001837579 -8.959304e-05 0.0023324657
0000a0 93 86 38 39 8a 9f 7f b9 4e 91 66 ba 83 db 1a 3a
       0.0001759774 -0.00024378128 -0.0008795456 0.00059073436
0000b0 fb c1 1c 3a 75 e9 3e b9 7e 18 58 b9 f9 0a b7 39
       0.0005979833 -0.00018206782 -0.0002060849 0.00034912655
0000c0 e3 15 2d 3b df 76 8a bb 78 c3 e4 3a e6 d2 17 bb
       0.002641075 -0.0042255963 0.0017453274 -0.0023166477
0000d0 26 1a 72 3a 2c d8 8d ba 21 13 58 bb 53 0b 81 b9
       0.0009235464 -0.001082187 -0.0032970386 -0.00024613235
0000e0 5f 1c 94 3b df 07 04 3b 17 ca 06 bb d6 09 cb ba
       0.0045199837 0.0020146293 -0.0020567232 -0.0015490602
0000f0 af 30 16 3b 98 30 4f 3b 7a 28 82 3b f3 f5 47 bb
       0.0022917201 0.0031614657 0.0039721103 -0.0030511587
000100 b2 16 68 3a 56 2c f3 ba 04 be c0 3a bf 85 01 bb
       0.00088534795 -0.0018552642 0.0014705067 -0.0019763557
000110 d4 3c 67 3a ba 88 a0 ba 66 9a b7 ba 52 e2 21 3b
       0.0008821015 -0.0012247779 -0.0014007806 0.0024701548
000120 97 59 bb 3a ae 0e b5 3a d7 2f ae ba cc e9 c9 ba
       0.0014293668 0.0013813579 -0.0013289404 -0.001540476
000130 cd bd 52 3a 3e 6e ca 3a d4 f9 89 3a 47 eb f5 ba
       0.0008039147 0.0015444232 0.0010526725 -0.0018762135
000140 28 1a 14 3b 76 8b 79 bb 09 7e c4 3a d0 de 14 bb
       0.0022598598 -0.003807751 0.0014991175 -0.0022715814
000150 24 ae 5a 38 99 e8 50 ba 2c 6d 3c bb 15 c3 1c 39
       5.213743e-05 -0.000796923 -0.0028751595 0.00014949993
000160 89 a2 85 3b c9 a3 90 3a 4f 4b d2 ba a0 b5 74 ba
       0.0040782136 0.001103514 -0.0016044172 -0.00093349256
000170 05 ac e7 3a 39 99 26 3b 03 ea 62 3b b1 af fd ba
       0.0017675167 0.0025420918 0.0034624345 -0.0019354728
000180 32 f8 23 3b 4e b9 1c bb c2 12 a8 3a c1 37 d2 ba
       0.0025019762 -0.002391416 0.0012822973 -0.0016038344
000190 76 58 c0 39 44 8f 96 ba 33 a5 2e bb da c7 24 ba
       0.00036687002 -0.0011486788 -0.002664876 -0.0006285884
0001a0 f1 33 58 3b 92 72 95 3a ac 64 b3 ba b1 36 92 ba
       0.0032989944 0.0011401942 -0.0013686619 -0.0011155215
0001b0 76 34 0f 3b 8c d4 09 3b cf f8 2d 3b a6 e6 e0 ba
       0.0021851338 0.0021031229 0.0026546007 -0.0017158582
0001c0 b0 f0 f1 3a c8 ba 96 bb aa 2b ce 3a 19 fe 11 bb
       0.0018458571 -0.004599903 0.0015729566 -0.0022276698
0001d0 e2 30 b2 3a ba 46 90 ba f3 33 89 bb 8a 16 41 ba
       0.001359489 -0.0011007406 -0.004187101 -0.00073657243
0001e0 7c 31 95 3b 26 47 57 3b 66 e3 14 bb a4 0a 59 bb
       0.004553018 0.0032848804 -0.0022718548 -0.0033117915
0001f0 a6 1b 39 3b 24 13 78 3b 7e 24 68 3b 88 ff 82 bb
       0.002824524 0.0037853206 0.0035422142 -0.003997747
000200 60 5a 80 3a 77 bb a5 ba 82 96 1f 3b ea 23 74 ba
       0.0009792559 -0.001264437 0.0024351184 -0.0009313213
000210 e7 e7 b3 3a c9 df e5 ba d2 d4 a2 ba ff 45 12 3b
       0.0013725728 -0.0017538007 -0.0012423045 0.0022319553
000220 bc 43 15 3b 9e 69 d8 3a f9 b9 e0 ba 8e 6e ba b9
       0.0022775969 0.0016510969 -0.0017145268 -0.00035559054
000230 0d af 0d 3b 88 04 c1 38 62 f0 26 3b 9d 42 dd b9
       0.002161923 9.203801e-05 0.002547287 -0.00042202036
000240 e0 63 18 bb 7e df 45 b7 8d 3a 8e 3a f7 8d 95 3a
       -0.002325289 -1.1794151e-05 0.001085119 0.0011410107
000250 07 5c 3d 3a 41 e3 d2 ba 6f bc 42 b9 ce fb 81 3b
       0.0007223491 -0.0016089455 -0.00018571479 0.003966785
000260 d8 ac e0 b9 51 45 04 3a 32 7b 5f ba da b1 87 ba
       -0.00042853388 0.00050457293 -0.00085251324 -0.0010352687
000270 58 9d a2 39 6f c0 32 ba 22 b9 cc ba 46 4b e7 38
       0.00031016278 -0.0006818836 -0.0015619139 0.00011028959
000280 26 41 32 bb 3a f1 84 3a bf c5 c2 ba 3e 6b 3f 3b
       -0.0027199476 0.0010142692 -0.0014859958 0.0029208208
000290 44 f7 0c 3a 8b 37 88 39 31 09 95 3a 0d 5b 07 b9
       0.00053774216 0.00025981324 0.0011370537 -0.00012908522
0002a0 b1 d8 ce ba 41 6d df 38 39 37 38 3a d0 37 1f 3a
       -0.0015781132 0.00010653819 0.0007027272 0.00060736854
0002b0 e3 54 7d ba dd 32 b0 ba e5 e7 6b bb e0 a6 6e 3a
       -0.0009663833 -0.0013442893 -0.0035996374 0.0009103846
0002c0 d7 fb ca ba f9 60 0c 3b d9 0e 0f bb e3 eb 16 3a
       -0.0015486431 0.0021420105 -0.0021828918 0.0005757196
0002d0 a3 9d 1a bb 49 72 e1 3a 00 e9 0f 3b 0a d2 7f 39
       -0.0023592494 0.0017200197 0.0021958947 0.0002439694
0002e0 4d 82 16 bb ec be 37 bb 43 30 3b 3b 6c c5 b3 3a
       -0.002296585 -0.0028037382 0.0028562702 0.0013715453
0002f0 4e a0 17 bb 03 00 b7 ba 87 d3 e1 ba c3 64 fa 3a
       -0.002313632 -0.0013961795 -0.0017229178 0.0019103516
000300 43 91 f7 b9 4a c3 04 3a d9 07 1f bb 05 96 07 b8
       -0.0004721974 0.0005064501 -0.0024266152 -3.2326225e-05
000310 19 c0 bb ba d4 ae ee 3a 1c da 90 3a 4f 41 4a bb
       -0.0014324217 0.0018210062 0.001105133 -0.003086168
000320 d6 be 00 bb a2 58 55 ba a7 2b fd 3a 2d 56 98 ba
       -0.0019644997 -0.00081385125 0.0019315378 -0.0011622362
000330 9d e4 01 bb b2 43 07 3b 30 78 0f bb 23 8f e3 b9
       -0.0019820102 0.0020639715 -0.0021891706 -0.0004340346
000340 e9 0a 5a bb 7b be 86 3b ae b4 a4 bb 58 7c 04 3b
       -0.0033270663 0.0041120625 -0.0050264215 0.0020215716
000350 03 ce 92 bb 89 a3 5a 3b f9 e8 88 3b d1 de bf 3a
       -0.004480125 0.0033361635 0.004178163 0.0014638548
000360 8a 5b 94 bb 36 4d 9d bb 43 7e aa 3b 7a b2 86 3b
       -0.004527514 -0.004800464 0.00520304 0.0041106315
000370 28 93 9a bb 33 e8 78 bb a3 1c 7f bb dc 27 7b 3b
       -0.0047172494 -0.0037980198 -0.003892698 0.0038323319
000380 7b 67 5c 3b 70 38 16 bb 3b 61 0b 3b ca b8 73 bb
       0.0033631015 -0.0022921823 0.002126767 -0.0037189
000390 fa 57 5d 3a ae 03 c1 b9 de 55 d6 ba 2e 69 26 ba
       0.00084435905 -0.0003681457 -0.0016352495 -0.00063480705
0003a0 f5 9c 25 3b 58 97 e2 3a 0a 63 c8 ba f2 85 28 bb
       0.0025270556 0.0017287536 -0.0015288305 -0.0025714603
0003b0 2e 47 ee 3a 82 90 46 3b eb bd 63 3b 3d 6b 06 bb
       0.0018179172 0.0030298536 0.003475065 -0.0020510696
0003c0 d3 65 f2 b8 fe 00 e4 39 52 e1 2c bb 03 98 86 b9
       -0.000115584255 0.00043488288 -0.0026379419 -0.0002567173
0003d0 d2 33 83 ba e6 a0 25 3b 15 21 29 3a 88 c6 32 bb
       -0.001000995 0.0025272905 0.0006451768 -0.0027278978
0003e0 75 16 2a ba 88 4b 42 ba 18 df e2 3a a1 bd bb 39
       -0.0006488332 -0.0007411768 0.0017308919 0.00035808704
0003f0 9e 1f ab ba ff fc 09 3a 91 a4 8d 38 47 0b b3 37
       -0.0013055687 0.00052638346 6.754057e-05 2.1343714e-05
