lora_crossencoder_no_instruction_21/checkpoint-4668/adapter_model.safetensors (safetensors, 594924 bytes, 25 tensors)

base_model.model.bert.encoder.layer.0.attention.self.query.lora_A.weight f4 [16, 384]
000000 00 73 50 bd ee 39 37 bd f5 f6 d9 bb fc fe 20 3d
       -0.050890923 -0.04473298 -0.006651754 0.039305672
000010 12 8a 31 3d 38 4d 22 bd f8 3c a8 3a 8f 9f 51 bd
       0.043344565 -0.039624423 0.0012835553 -0.051177558
000020 c9 d7 db bc af b7 f9 bc 64 29 96 bc 07 d2 05 3c
       -0.026836293 -0.030483095 -0.018330283 0.00816775
000030 7c d5 8e bc 1c 0c 60 3b 8d 2b 42 3d 67 1a 29 3d
       -0.017435782 0.0034186905 0.047404815 0.041284945
000040 34 15 1c bd c5 a9 30 bd b5 c4 a5 bc 51 46 e8 bc
       -0.03810616 -0.043130655 -0.020235399 -0.028353842
000050 01 9c 17 3d 1e 8b 3e 3d 75 ac 1f 3d 83 05 14 3d
       0.03701401 0.04651939 0.038982827 0.03613807
000060 c1 29 1e 3d b9 40 ab 3c ee fa af 3b 03 ea 9f 3a
       0.03861404 0.020904886 0.0053704893 0.0012200478
000070 fc ae 42 bd be 2c fd 3c 28 32 f8 3c 49 ea 06 bd
       -0.04753016 0.030905124 0.030297354 -0.032938275
000080 ec 07 eb bb 26 d6 88 3a 57 92 e2 bc 15 8c 56 bc
       -0.007172575 0.0010439798 -0.02765767 -0.013094922
000090 65 06 90 3c 07 5f ca bc fc a7 3c 3d 7e 21 21 bd
       0.017581174 -0.024703516 0.04605864 -0.03933858
0000a0 49 40 3e bb e6 f0 bb bb 09 79 49 3d e3 78 34 3d
       -0.0029030016 -0.0057355044 0.049187694 0.0440606
0000b0 52 3a f6 3c 86 e9 ff 3b a6 8b 96 3c b0 f5 c1 3c
       0.030057106 0.0078098206 0.018377136 0.023676723
0000c0 ff 2a d1 bc d9 a0 4b 3d 24 da 04 bd 14 55 63 3d
       -0.025533197 0.049713943 -0.032434598 0.05550106
0000d0 82 16 31 3d 0d 78 fd 3c 78 14 c3 bc 0b d7 63 bc
       0.043234356 0.030941034 -0.023813471 -0.013906251
0000e0 0f c8 33 3d 84 bd 43 bc b0 21 3a 3d b0 33 48 3d
       0.043891963 -0.0119470395 0.045442283 0.048877418
0000f0 c9 30 e1 3c 75 65 f5 3c d9 00 4e bd f5 69 06 bd
       0.027489083 0.029955605 -0.050293777 -0.032815892
000100 66 43 46 3d 14 8b 8d 3c bc 53 57 bd 62 57 38 bd
       0.04840412 0.017278232 -0.05257009 -0.04500521
000110 17 30 8e 3c a0 ac dc 3c 88 7a 35 3d 6d 16 1e 3d
       0.017356915 0.026937783 0.044306308 0.038595606
000120 b8 94 3e bd e9 0a cb bc 99 d8 c8 bb d5 61 57 bd
       -0.046528548 -0.024785476 -0.006129336 -0.052583534
000130 68 de f1 bc 66 f5 13 3d 11 e4 9b 3c 36 6f 22 3d
       -0.029524997 0.036122702 0.019029649 0.03965684
000140 8f 28 23 bd 2d 53 33 bd 83 60 c0 3c b1 88 3b bd
       -0.0398336 -0.043780494 0.02348352 -0.045784656
000150 e8 63 f4 3c e9 a1 cb bc 4e 73 ff 3b 85 ed 11 bd
       0.029832795 -0.024857478 0.007795728 -0.035626907
000160 68 e8 fb bc dd cf 33 bd e3 be 8b 3c 4f 54 ee 3c
       -0.030750468 -0.043899406 0.017058795 0.029092936
000170 4f b8 53 bd 4c 04 47 3d 0e 44 a0 3c 11 17 2f bd
       -0.051689442 0.048588082 0.019563701 -0.042746607
000180 8d ba 7b 3c dc ed 18 bd 09 75 5b bc c4 1f 0f 3c
       0.015364301 -0.037336215 -0.013394603 0.008735601
000190 35 4d 6e ba 47 10 3e 3c 8f e3 66 3c cf 0d bd bc
       -0.0009090484 0.0116005605 0.01409234 -0.023077874
0001a0 34 5f d0 bc 89 d2 0c 3d ce e0 28 3c a1 6d b9 3b
       -0.025436021 0.03438047 0.010307504 0.0056588207
0001b0 25 1b 7a bc 87 ce 34 3d 81 2f 4e b9 b8 20 d8 bc
       -0.015265261 0.044142272 -0.00019663388 -0.026382789
0001c0 db 3b 47 3d b9 e1 11 bc 5c 51 9b bc 32 19 45 bc
       0.048641067 -0.008903914 -0.018959694 -0.012029933
0001d0 af e6 3a 3d 5f 4c 32 bd fc 51 5e bd aa 98 b5 3b
       0.045630153 -0.043529864 -0.054277405 0.0055418806
0001e0 8a f3 01 bd 42 77 b2 bb 1b 19 0d 3c d2 db 26 bd
       -0.031726398 -0.0054463455 0.008611943 -0.04073698
0001f0 cc 2b 92 bc a8 61 af bc 18 5c e2 39 42 a4 4c bc
       -0.01784315 -0.02140887 0.00043174694 -0.012490334
000200 46 14 0a 3d 7a 1b 2a 3d 26 35 84 bc cb 65 42 bc
       0.03371074 0.04153011 -0.016138624 -0.01186509
000210 c1 41 05 bd a5 79 35 3d 72 9a 11 3d fe 0e fa bb
       -0.03253341 0.044305462 0.03554768 -0.0076311817
000220 1d 29 0e 3d 08 d4 dc bc d1 2e e0 3c 97 16 f8 3b
       0.034707177 -0.026956573 0.027366074 0.0075710523
000230 b2 f6 14 3d b8 d3 1f bd d5 d9 41 3d d9 70 01 bc
       0.03636808 -0.03902027 0.04732688 -0.00790044
000240 1a f2 1f 3d 99 82 38 bd b9 8f 7c 3b cb 44 0d 3d
       0.039049245 -0.045046423 0.0038537814 0.034489434
000250 40 6e 02 bd 6a e4 40 3d 3d e7 32 bd e5 58 8c bb
       -0.031843424 0.047092833 -0.043677557 -0.004283058
000260 7b 9b 5f 3b c8 32 4c 3c 46 c6 3a bc cc f5 3a 3d
       0.0034119773 0.012463279 -0.011399811 0.045644566
000270 9c 4a f0 3c 45 9f 3c 3d 58 74 94 3b 49 c5 30 bd
       0.029332452 0.04605033 0.004530471 -0.043156896
000280 3e 1f fd bc ec bc 24 3d 27 75 05 3d c1 63 a1 3c
       -0.030898686 0.040219232 0.03258243 0.019700887
000290 c1 11 1f bd 43 25 1c bd c5 7c 4b bd 5a 5c 00 3a
       -0.03883529 -0.038121473 -0.049679536 0.0004896574
0002a0 0d 1b 51 bd af 1a 42 3d 27 67 9a 3c 11 9d f5 3c
       -0.05105119 0.04738873 0.018848015 0.029982122
0002b0 07 23 14 bc 1f 91 2d 3d 7a 76 06 bd eb ac 9f 3c
       -0.009041554 0.042374726 -0.03282783 0.019491633
0002c0 10 b6 2b bd c8 63 3f 3d 80 92 e3 3b 5a c3 38 bc
       -0.041921675 0.04672602 0.0069449544 -0.011277044
0002d0 7e ed c5 bb 8b 2f fb bc 1f b1 13 bc 54 14 dc 3c
       -0.006040274 -0.030662319 -0.009014397 0.026865162
0002e0 25 8c 0e 3c 9f de ae 3c ae 6d b3 bc b3 5f d1 bc
       0.008700405 0.021346388 -0.021902885 -0.025558328
0002f0 96 3f 62 3b 04 a8 ac bc b6 5f fb bc e3 79 ee bc
       0.0034522763 -0.02107621 -0.030685287 -0.029110854
000300 31 db ad 3c 53 62 8f 3c 96 bf 49 bd bf 15 e6 3b
       0.021222683 0.01750294 -0.049254976 0.0070216353
000310 cd ed 9c 3c bf 8e 21 3d 9f 61 01 3d be a9 0e 3c
       0.019156361 0.039442774 0.03158724 0.008707462
000320 fe 63 a1 3c a5 eb 94 b6 c3 a0 ba bc 29 4a 0a 3d
       0.019701 -4.4381763e-06 -0.022781735 0.03376213
000330 db e9 f3 bb ed 3d 87 3c eb df ad 3c 20 05 d9 bc
       -0.007443649 0.01650902 0.021224936 -0.026491702
000340 bd 78 13 3d c6 0a 49 bc b0 65 fd 3a e4 6f ed 3b
       0.036003817 -0.012270635 0.0019332673 0.0072460044
000350 b4 fa 14 3d 50 44 0f 3d ef 77 fa 3c ef a2 e6 3c
       0.0363719 0.034977257 0.030574767 0.028153865
000360 1c c5 05 bd f7 d6 22 bd fb 2a e9 bc f2 cf 2d bc
       -0.03265868 -0.039755788 -0.028462877 -0.01060866
000370 3a 4a 08 bd 0c e9 11 3c 57 92 49 bd f2 74 39 3d
       -0.033273913 0.00890566 -0.049211826 0.045277543
000380 f4 89 72 3c 55 54 45 bd 95 08 d8 bc 64 5b 31 3d
       0.014803398 -0.04817613 -0.02637128 0.043300048
000390 a5 83 b2 3c 47 db 21 3d 84 2f 38 3d 02 e5 35 3d
       0.021791289 0.03951576 0.04496719 0.044407852
0003a0 55 bd d2 3c 33 5f 32 bd cb a1 08 3d 30 c2 ea 3c
       0.025725046 -0.04354782 0.033357423 0.028657049
0003b0 51 be 86 bc 05 03 23 3b a8 89 89 3c 4c 23 00 3d
       -0.016448172 0.0024873626 0.016789272 0.03128366
0003c0 8a 87 ef bc 95 1d ed 3c ef 5a 94 3c 73 6a 18 bc
       -0.029239435 0.02894477 0.018109767 -0.009302723
0003d0 70 9d a7 3c 72 32 c5 3a 48 f3 10 3d b8 59 01 3d
       0.020460814 0.0015044941 0.03538826 0.031579703
0003e0 98 5b e8 bc 12 b0 18 bd ff 90 2b bb a8 b3 03 bc
       -0.028363988 -0.03727729 -0.0026178954 -0.008038439
0003f0 1b b5 b9 3c c2 4a a7 3c 29 99 90 3b 22 6c af bc
       0.022669366 0.02042139 0.0044127894 -0.021413866

base_model.model.bert.encoder.layer.0.attention.self.query.lora_B.weight f4 [384, 16]
000000 e8 72 9a bb 26 32 04 3b 98 7f 6a 3b e5 f0 76 39
       -0.004713405 0.0020171492 0.0035781618 0.00023550128
000010 57 ca 70 bb 8f 7b 63 3a 5b 4e 84 3b 86 93 9f 3b
       -0.0036741698 0.00086777745 0.004037661 0.004869881
000020 77 14 b1 bb 4b 0f 59 3b 03 bc c3 3a d9 ef 10 3b
       -0.005404051 0.0033120688 0.0014933351 0.0022115617
000030 6c 49 aa 3b 73 48 8e 3b e7 ea b2 3a dd b7 9d 3b
       0.005196741 0.0043421327 0.0013650329 0.004813178
000040 0c f3 08 bb bf 87 92 3a bc bc ba 3a 62 d4 30 bb
       -0.002089682 0.0011179372 0.0014246921 -0.0026982059
000050 62 87 d7 ba d4 8a e6 3a 08 9c 26 3b e3 e9 2d 3b
       -0.0016443545 0.0017588981 0.0025422592 0.0026537112
000060 65 14 11 bb 5f c2 e7 3a aa 3c 81 38 56 5d 09 3b
       -0.00221374 0.0017681828 6.162499e-05 0.0020960174
000070 f8 58 0e 3b 9e 3a 05 3b d9 6c 4d 3b 07 e3 13 3b
       0.002172051 0.0020329128 0.0031345396 0.0022565739
000080 4e 87 5b 3b a4 cb 65 b9 6f f8 70 b9 5d 2d 74 3b
       0.0033497396 -0.00021915004 -0.00022980732 0.0037258484
000090 47 5a cb 3a 8e a3 43 bb d2 04 52 bb b9 71 76 bb
       0.0015514576 -0.0029852125 -0.003204633 -0.0037604405
0000a0 c1 66 82 3b cc 3e 23 3a 47 50 29 bb 59 97 88 bb
       0.0039795344 0.0006227314 -0.0025835203 -0.0041684327
0000b0 36 0c 3e bb 76 94 5c bb 10 ed 66 bb 55 2f 58 bb
       -0.0028998978 -0.0033657826 -0.0035236515 -0.0032987196
0000c0 5e e8 6f 3b 41 48 a8 ba 38 9c 10 bb 3a 17 e9 38
       0.0036607007 -0.0012838916 -0.002206577 0.00011114632
0000d0 b4 aa 54 3b a3 74 9a b9 b1 be 89 bb fd 69 7d bb
       0.003245038 -0.0002946007 -0.0042036404 -0.003866791
0000e0 0b 78 23 3b 8a 5b 83 bb ee 57 03 3b b2 ee 09 3b
       0.0024943377 -0.004008715 0.0020041424 0.0021046815
0000f0 a5 b5 2c bb f4 9b 6e ba 7c 48 b1 39 20 99 83 bb
       -0.0026353386 -0.00091022183 0.00033814076 -0.0040160567
000100 4f 9a fb 3a 04 af 23 3b 83 5b 2e 3b 3a 54 30 3b
       0.0019195768 0.0024976144 0.0026604838 0.0026905672
000110 01 7f e4 3a dd ae 54 bb 47 44 fa ba 0d 3b e3 ba
       0.001743287 -0.003245286 -0.0019093835 -0.0017336324
000120 d7 f7 18 3b 86 e1 40 3b c9 1f 71 bb 3c 4b 2f bb
       0.0023341083 0.0029431297 -0.0036792627 -0.0026747724
000130 db 62 87 39 27 90 0d bb 25 3f 2b bb 12 d9 a2 ba
       0.0002582286 -0.0021600814 -0.0026130166 -0.0012424311
000140 0e f8 21 bb 72 97 ca 3a 58 78 e9 3a 28 54 7e ba
       -0.0024714503 0.0015456511 0.0017812354 -0.00097018713
000150 db 04 0a bb 06 29 13 3a 7f 3b 47 3b 02 87 57 3b
       -0.0021060023 0.0005613718 0.0030400453 0.0032886867
000160 c0 b0 22 bb 97 93 48 3b 43 d2 17 b9 43 a2 a1 3a
       -0.002482459 0.0030605549 -0.00014478811 0.0012331683
000170 c9 cc 1c 3b 57 82 33 3b 86 e5 bd 3a 1e eb 42 3b
       0.0023925772 0.002739092 0.0014487959 0.0029742192
000180 ff bc ff ba 19 56 6c 39 a5 1e db 39 c6 0c 03 bb
       -0.0019511281 0.00022538788 0.00041793767 -0.0019996627
000190 e3 94 6a b8 4d 93 d7 3a 6c d2 4e 3b 01 27 37 3b
       -5.592861e-05 0.0016447097 0.0031558527 0.0027946832
0001a0 cf 39 0a bb dc 69 43 3a 83 54 50 3a 7f a0 1a 3b
       -0.0021091586 0.0007454434 0.00079471635 0.0023594198
0001b0 4c af bd 3a 9c 13 0d 3b c3 97 d1 3a 61 d3 28 3b
       0.0014471798 0.002152658 0.0015990663 0.0025760757
0001c0 9d 1d f5 ba d2 28 14 3b f0 87 e4 3a da 8b 35 3b
       -0.0018700842 0.0022607339 0.0017435532 0.0027701766
0001d0 36 ee 15 ba d7 d5 bc ba d8 b8 03 3b 47 d0 b7 3a
       -0.0005719395 -0.0014406991 0.002009919 0.0014023863
0001e0 72 7d 57 ba cc b8 1d 39 2f a7 30 3a ec a0 f5 b9
       -0.0008220292 0.00015041529 0.00067387795 -0.00046849938
0001f0 fb 3c 48 3b 90 61 1d 3a 0f f5 61 ba 9c 7b 43 3b
       0.0030553925 0.00060036127 -0.00086195854 0.0029828316
000200 ac 1a 38 3b ff 52 1e bb 76 3a 41 bb 7c 78 7b ba
       0.002809207 -0.0024158356 -0.0029484308 -0.00095928437
000210 e2 0b 2b 3b 38 76 5e 3a 10 a2 31 bb 54 b4 3d bb
       0.0026099612 0.0008486244 -0.0027104653 -0.0028946595
000220 35 b8 4e 3b 1b a2 2c bb 59 00 07 3a 00 9b 05 ba
       0.0031542901 -0.002634174 0.0005149893 -0.0005096644
000230 36 e8 51 bb 48 d4 fc ba af 45 8e ba b5 18 2f bb
       -0.0032029278 -0.0019289339 -0.0010854508 -0.0026717607
000240 25 e4 7b bb 88 42 21 3b ce 28 2e 3b 14 88 8d 3a
       -0.0038435545 0.0024606306 0.0026574614 0.0010798001
000250 dc 58 48 bb 10 88 dc 37 7d da 54 3b 55 35 7e 3b
       -0.0030570542 2.6289403e-05 0.0032478862 0.0038789113
000260 8d ff 67 bb 8e f7 9c 3a 1e 71 8a b8 fa 78 da 3a
       -0.0035400123 0.0011975633 -6.6014225e-05 0.0016668134
000270 b6 4f 99 3b 30 2b 46 3b f0 ed 58 3a 80 83 8d 3b
       0.0046786917 0.0030238144 0.00082752015 0.0043186545
000280 5e 42 5f 3b e7 93 31 39 4e 8b 2e ba a7 68 42 3b
       0.0034066658 0.00016935133 -0.0006658331 0.0029664428
000290 4c da 58 3b 13 a0 34 bb 69 02 83 bb 59 b0 80 bb
       0.00330891 -0.0027561232 -0.00399809 -0.0039272723
0002a0 7c af 82 3b ee 12 0a bb 30 7a 4f ba c0 5e 44 bb
       0.0039882045 -0.0021068412 -0.00079146307 -0.0029963702
0002b0 71 4e 57 bb 99 e4 5f bb ac c6 5e bb c0 e6 69 bb
       -0.0032853151 -0.0034163354 -0.003399293 -0.0035690516
0002c0 05 9e 0d 3b 69 6a 47 3a 43 1e 6f 3a c0 90 37 3b
       0.002160908 0.0007607104 0.0009121636 0.0028009862
0002d0 5b d7 00 3b 56 74 3b bb bc 3d 1d bb e7 d4 33 bb
       0.0019659612 -0.0028603277 -0.0023993095 -0.0027440132
0002e0 cc 38 27 3b 90 12 f9 39 35 67 09 bb 5d 48 26 bb
       0.0025516031 0.0004750681 -0.0020966057 -0.0025372722
0002f0 97 10 09 bb 2c f4 43 bb a8 cf 38 bb f2 24 28 bb
       -0.002091443 -0.0029900176 -0.0028199945 -0.0025656787
000300 bf 9a 8e bb c6 c5 17 3b ee 58 33 3b 1b 0c 1e 3b
       -0.0043519433 0.0023158654 0.0027366239 0.0024116102
000310 6d d7 20 bb 19 9f 09 bb d1 e4 81 3b e4 4e 8c 3b
       -0.0024542466 -0.002099937 0.0039640446 0.0042818654
000320 0c c2 91 bb a6 4e 36 3b 69 a8 fa 39 96 a9 d8 3a
       -0.004448181 0.0027817874 0.0004780919 0.0016530033
000330 37 4b 93 3b 30 fe c2 3a 30 ee a6 ba fd c7 89 3b
       0.0044950503 0.0014876779 -0.001273578 0.0042047487
000340 80 db 22 bb 5f 75 8d 3a 72 08 51 3a d0 80 2c bb
       -0.002485007 0.0010792426 0.0007973976 -0.0026321895
000350 d9 d3 ee ba 96 a7 aa 3a 8a c6 3f 3b 9f d6 4a 3b
       -0.0018221095 0.0013019915 0.0029262626 0.0030950678
000360 4b 8e 46 bb e9 52 78 39 15 27 00 39 d9 36 64 3b
       -0.0030297216 0.0002368201 0.0001222159 0.003482273
000370 06 e8 22 3b aa 7f 35 3b 74 a8 26 3b 7c be 38 3b
       0.0024857535 0.0027694502 0.0025429996 0.002818971
000380 09 38 c8 ba b9 ed 63 3b 3c e7 53 3b e8 f3 da 3a
       -0.0015275489 0.0034779145 0.0032333871 0.001670477
000390 80 f5 d3 ba 3d 8c f6 ba 50 f7 fc 3a 2f 19 09 3b
       -0.0016171187 -0.0018810105 0.0019299779 0.0020919552
0003a0 84 2c d9 ba 78 2a 40 3b 2f d1 d4 ba 95 6d 4d b9
       -0.0016569053 0.0029322188 -0.0016236658 -0.00019591146
0003b0 a7 23 27 3b 04 3a 8a 3a 54 ff 97 b9 c0 4b 00 3b
       0.0025503428 0.0010545854 -0.000289912 0.00195764
0003c0 60 8e 88 b9 da b1 06 3b fa d0 b3 3a 70 87 6b 39
       -0.0002604602 0.0020552785 0.0013718896 0.00022461801
0003d0 ea 0f ed 3a 8e 9e eb ba d6 46 a7 3a 21 59 91 3a
       0.0018086408 -0.001797633 0.00127622 0.0011089185
0003e0 d6 dd a4 b9 3e 06 2c 3a bf 86 70 ba f1 46 f8 39
       -0.00031445798 0.00065622095 -0.0009175352 0.00047355102
0003f0 57 b3 12 3a c4 b5 c5 39 a3 87 63 39 a4 42 11 3a
       0.0005596182 0.00037710194 0.00021698936 0.0005541241

base_model.model.bert.encoder.layer.0.attention.self.value.lora_A.weight f4 [16, 384]
000000 c8 f9 09 bd e9 6a 35 bc fb b5 fe 3c ce 5c 83 bc
       -0.033685476 -0.011072853 0.031092634 -0.016035464
000010 77 10 a8 3b 00 bb 3e 3c 0a 26 2e bd 52 15 c2 bc
       0.005128916 0.011641264 -0.042516746 -0.023691807
000020 bb d4 a3 ba b7 77 8c 39 b1 4a 71 bd 83 5e 77 3c
       -0.0012499312 0.00026792075 -0.058909122 0.015098217
000030 01 8d 8e 3c 4c 8b 83 bc c2 52 99 3c a5 64 ef bc
       0.01740122 -0.016057633 0.01871622 -0.029222796
000040 03 af 2a 3d 1a 02 79 bc 3a ff 22 3d 29 e7 e3 3c
       0.04167081 -0.015198255 0.039794184 0.027820187
000050 ce b0 ec bc 14 c5 ea bb c4 78 d2 bc 3f 1e 2b bd
       -0.0288929 -0.007164607 -0.025692351 -0.04177689
000060 f3 32 92 3a 0d 79 32 bc 40 81 a6 3c 43 e0 81 bb
       0.00111541 -0.010893119 0.020325303 -0.0039635017
000070 fc 6a b8 bc 12 66 70 3d 00 1e 0f 3d a2 3d d7 3c
       -0.022511952 0.05869109 0.03494072 0.026274506
000080 11 b7 d0 bb cc 15 67 3d 62 e4 52 bd ee dd 98 3b
       -0.0063694795 0.05641727 -0.051487334 0.004665128
000090 20 3d 3e 3b 87 90 be 3c 0d dd e6 bc b7 2a 44 bd
       0.0029028133 0.023262275 -0.028181577 -0.0478923
0000a0 90 a4 64 bd a0 5f 77 bc 58 c3 af bc 4a fd 0f bd
       -0.055821 -0.015098482 -0.021455452 -0.035153665
0000b0 e7 31 46 bd 1b ff 2f bd 24 cb d7 bc bc 65 53 3d
       -0.048387434 -0.042967897 -0.026341982 0.051610693
0000c0 b5 1e 0b bd 64 a9 16 bd d0 57 d5 bb b6 81 5c 3d
       -0.03396483 -0.036782637 -0.006510712 0.05383464
0000d0 d7 0c 6f bd 98 02 20 3d 34 1a ed bc bc 0a c9 3c
       -0.058361854 0.039064974 -0.028943159 0.024541251
0000e0 9d 7e 34 3d eb 8a 1b bd 54 29 4e bc 99 0d 39 3d
       0.04406606 -0.03797428 -0.012583096 0.045178983
0000f0 49 59 cd 3c 4f be 64 3c 17 6c 88 3c 98 de 4a 3d
       0.025066989 0.013961389 0.016653104 0.04952869
000100 01 b7 23 bd 05 54 04 3d 7f 10 f8 3c cc 69 77 3b
       -0.039969448 0.03230669 0.030281303 0.003775227
000110 73 25 1f 3d 04 9b f4 bc fb f1 fb bc 6a 52 92 bc
       0.038854074 -0.029859073 -0.030755034 -0.017861564
000120 0c 06 57 bd a1 07 21 bd 3a d5 88 3c a3 ae d0 3c
       -0.052496 -0.039313916 0.016703237 0.025473898
000130 3b 55 c4 3c f4 4c 01 bd 4a 63 64 bb 70 8a 83 3c
       0.023966422 -0.03156753 -0.003484922 0.016057223
000140 c7 6c 07 bd 68 0c 4c bc f2 bf 2b 3c 1b f4 ad 3c
       -0.033062723 -0.01245413 0.010482775 0.021234563
000150 e2 24 1e 3d d1 68 5a 3c f4 8f 54 3d a6 26 40 3d
       0.038609393 0.013330654 0.051895097 0.046911858
000160 6b f2 63 39 67 ac b0 3c a0 04 f6 ba ae 9b 07 bc
       0.00021738715 0.021566583 -0.0018769689 -0.008276863
000170 8b 59 6c bd 86 8c b6 3c 3b 3f 0c 3d b8 c3 91 3c
       -0.057702582 0.022283804 0.03423999 0.017793521
000180 f4 6f 35 3d 9f 40 3a 3d 53 5b 41 3d e5 80 2a 3c
       0.04429622 0.045471784 0.047206234 0.010406707
000190 96 78 93 3c b3 c9 22 bc e3 22 70 bb 6e ab 01 bd
       0.018001836 -0.009935784 -0.0036641888 -0.03165763
0001a0 43 b3 0f 3d f6 8f 5d 3d c9 ef f5 3c db b6 da bc
       0.035083067 0.05409237 0.030021565 -0.02669852
0001b0 7a dd 21 3d 3e fa ed bc 54 a4 2a 3d e7 e9 e0 3b
       0.039517857 -0.029049989 0.04166062 0.006863821
0001c0 60 3c 47 bd de 39 26 bd 6b 4e f8 3c 06 37 7b 3b
       -0.048641562 -0.04058253 0.03031083 0.0038332357
0001d0 37 38 46 bd b5 a1 b9 3c 24 b4 31 bd 0e 29 02 bd
       -0.048393454 0.022660116 -0.043384686 -0.031777434
0001e0 1b 94 7c bb 03 72 c6 3c b2 5e 5d 3b 3c 9c 04 bb
       -0.0038540426 0.024224287 0.0033778367 -0.0020234725
0001f0 1c 66 f1 3c f9 e3 ee 3c 6a f6 59 bc 86 3c 22 3d
       0.029467635 0.02916144 -0.013303379 0.0396085
000200 9a 0f 3f bc 72 e4 1a 3c 94 3f dc 3c 34 2a c4 bc
       -0.011661435 0.00945388 0.026885785 -0.023945905
000210 05 d3 1f bd f9 a8 69 bc 5e 51 c4 bc 35 65 1f 3d
       -0.039019603 -0.014261478 -0.02396458 0.038914878
000220 90 6f 0d 3d 78 8d 87 bc 9d 8d 38 3d ad 62 cd bc
       0.034530222 -0.01654695 0.045056928 -0.025071466
000230 05 77 29 3d 9a cf 9f bc 4d fd 41 bd c1 1a 9f 3c
       0.04137327 -0.019508172 -0.047360707 0.019421937
000240 be e6 b0 3c fc 36 2a 3d 2e 0c 0a bc f0 79 e6 3c
       0.021594401 0.041556343 -0.008425755 0.028134316
000250 f6 df f1 3c 89 6e 2d bc 00 3a 1d bd 99 9d 18 3d
       0.029525738 -0.010585436 -0.03838539 0.03725967
000260 4d 93 0b bd 26 9d e6 bb f9 f0 67 3c d2 50 73 bc
       -0.034076024 -0.0070377765 0.014156573 -0.014850812
000270 9d 9d 6f 3c 12 27 b5 39 86 62 6f 3d 10 0f ab bc
       0.01462498 0.0003455212 0.05844357 -0.020881206
000280 f8 9e 9e 3c 0d 1d 28 3b 74 f0 18 3c d6 1e 7c 3c
       0.019362912 0.0025652081 0.009334672 0.015388211
000290 45 02 5a bd 43 2e 9e bc 81 6d 44 bc 67 17 8b 3c
       -0.05322482 -0.019309169 -0.011988998 0.016978933
0002a0 c5 4b f5 bb d8 cc 53 3d b9 72 5c bd 48 e5 14 3d
       -0.007485839 0.051709026 -0.053820346 0.036351472
0002b0 e7 7c 27 bd 40 65 2a 3d 0f b4 3b bd 40 bf db 3c
       -0.0408906 0.041600466 -0.045826014 0.026824594
0002c0 93 d0 23 bd 09 a0 1c 3d 06 1b 6f 3c 3f 2d 5d bd
       -0.039993834 0.03823856 0.014593845 -0.05399823
0002d0 47 23 9c bc 8f 52 04 bc 66 ba 83 bc c0 f2 45 bb
       -0.01905979 -0.008076324 -0.016080093 -0.0030204505
0002e0 c0 d3 49 3c 53 a4 23 bc 99 60 14 3c e6 76 b9 3c
       0.012318552 -0.009987908 0.009056234 0.022639703
0002f0 2e 1a 03 bc 90 cc 40 3d 8c 92 b7 bc 67 9a 14 3d
       -0.008001847 0.047070086 -0.022408746 0.036280062
000300 f0 ef 0e bd 0d fc f5 bc 3b f8 25 bd 50 6d 91 3c
       -0.03489679 -0.030027414 -0.040519934 0.01775232
000310 9c 8a 2c 3d bf c5 e0 bc e6 4b 1a 3d fd 9d b3 3c
       0.042124376 -0.027438043 0.03767004 0.02192592
000320 55 ec 0d 3d 90 5e 80 bb a8 4e a4 bc 21 9a 10 3d
       0.034649212 -0.0039175227 -0.020057037 0.03530324
000330 5e f1 82 3b 09 a7 1c 3b ac c9 86 bc bd 96 b3 bb
       0.0039960584 0.0023903272 -0.016453587 -0.005480616
000340 2d 6e 2b bc f9 3b 14 3d b6 81 63 bc df c5 fe 3c
       -0.01046328 0.036190007 -0.013885906 0.031100212
000350 ab 2a 4a bd 9f f8 3b bd 98 18 e8 3b 98 16 bd 3c
       -0.049357098 -0.0458914 0.00708301 0.023082063
000360 b5 c0 2b 3c a0 6f 23 bd 6e 02 2b bd 17 c9 da bc
       0.010482957 -0.039901376 -0.041750364 -0.026707215
000370 64 1b 5b 3d c4 3d 82 bc af b7 f2 bc e6 d5 15 3d
       0.05349292 -0.015898593 -0.029628603 0.036580943
000380 7e f1 21 3d fe 2c 0c 3d 2b 49 17 bd 03 73 6b bd
       0.039536946 0.034222595 -0.036935013 -0.05748273
000390 a3 ca 82 3c 5f 99 09 bd 95 0c 41 3d 92 a3 43 3d
       0.015965765 -0.03359353 0.04713114 0.047763415
0003a0 5f 96 15 bd 2a fe a2 3c d9 e7 85 3c df 01 46 3d
       -0.03652036 0.019896585 0.016345905 0.04834163
0003b0 86 3a 2f 3d b7 4f 9d 3c 9f 8c d1 bc 8d 6b ff bc
       0.04278042 0.01920305 -0.025579749 -0.031179214
0003c0 bf e6 c7 bc f4 53 91 3c f3 5e aa bc 93 cb 24 bd
       -0.02440202 0.017740227 -0.020797228 -0.040233206
0003d0 64 11 2e 3d d5 28 98 bb 8f f5 e8 3c bf 83 c3 bc
       0.042497054 -0.0046435394 0.028437404 -0.023866532
0003e0 4d 4c 7d ba 42 0d 07 3d 0b 12 47 3b ba 42 9e bc
       -0.0009662554 0.032971628 0.0030375745 -0.019318927
0003f0 25 72 2c bd d8 59 92 3c 8c 78 5e 3c 8b b3 06 3d
       -0.042101044 0.017865106 0.013578545 0.03288607

base_model.model.bert.encoder.layer.0.attention.self.value.lora_B.weight f4 [384, 16]
000000 3c 22 8c 3b 72 5c 22 bb dd ab 75 bb 26 66 96 ba
       0.004276542 -0.002477434 -0.0037486472 -0.0011474534
000010 14 25 1d 3b 54 ce a5 bb 8f 73 a7 bb 1b 2c a9 bb
       0.00239784 -0.0050599966 -0.005110211 -0.0051627285
000020 5a c5 76 bb 1d 64 84 bb e8 33 95 bb 61 6d 99 bb
       -0.0037654252 -0.0040402547 -0.004553307 -0.0046822284
000030 40 3f 4d bb b2 1c 91 3b ec dd 68 3b 6e a7 f9 3a
       -0.0031318218 0.0044284696 0.0035532666 0.001904709
000040 76 50 c8 3a 58 f8 78 bb 90 1c 88 bb 5d 27 5a bb
       0.0015282768 -0.0037989821 -0.0041537955 -0.0033287623
000050 1d ca 70 3b da 2f 04 bb 4d 72 2d bb a5 c3 86 bb
       0.0036741563 -0.0020170123 -0.0026465834 -0.004112678
000060 e3 12 8a bb 1e bd 01 bb 7b 04 29 bb fb 2b 86 bb
       -0.0042136773 -0.001979656 -0.0025790024 -0.0040945983
000070 df f1 83 bb d2 f5 91 3b 0a 4c 87 3b 1c 61 55 3b
       -0.004026636 0.004454353 0.0041289376 0.0032559102
000080 1a 0a e5 ba 94 c0 00 bb 7d da ec b7 56 85 d0 ba
       -0.0017474324 -0.0019646036 -2.8235134e-05 -0.0015908878
000090 81 d3 13 3b e1 7b db 3a f4 63 d1 3a de e9 d0 3a
       0.0022556486 0.0016745293 0.0015975223 0.0015938838
0000a0 7f 37 a1 3a cd 32 df 3a a4 fa bf 3a 20 10 de 3a
       0.0012299864 0.001702869 0.001464684 0.0016942061
0000b0 28 96 39 bb 16 dc 0a bb df 43 33 3b 33 a5 d4 3a
       -0.002831826 -0.002118831 0.0027353687 0.001622355
0000c0 a0 a1 ce 3b db 5d 6a bb 0f fc a3 bb 77 5c ef ba
       0.0063058883 -0.0035761509 -0.005004413 -0.001826181
0000d0 58 05 6a 3b 63 9b d5 bb 68 62 d3 bb 26 5c c4 bb
       0.0035708752 -0.0065187677 -0.00645094 -0.0059924303
0000e0 15 10 b0 bb 9c 8c c4 bb 7f 5a d1 bb 37 a0 bf bb
       -0.005373011 -0.0059982073 -0.006388962 -0.0058479565
0000f0 a6 d1 85 bb 38 06 aa 3b 4a 61 6c 3b 9f 15 17 3b
       -0.00408383 0.0051887296 0.003606873 0.0023053659
000100 dc 3e 8a bb 42 04 9a b9 18 24 99 39 fc fb 1f ba
       -0.004218919 -0.0002937634 0.00029209326 -0.0006102917
000110 3f 94 79 37 06 f3 46 3b 7a 3d 09 3b 14 e4 cc 39
       1.4876073e-05 0.0030357256 0.0020941184 0.00039079844
000120 20 1c ca 39 07 17 90 3b 32 2e 76 3a d6 5e b0 39
       0.00038549397 0.0043972763 0.0009391039 0.00033639994
000130 df 58 f9 38 93 d2 c2 b9 da 81 15 39 16 96 0c 3a
       0.00011889799 -0.00037159453 0.00014258121 0.0005362941
000140 ee 7a 95 3a 4a d7 c7 ba 3d d7 8c ba 7d 92 34 bb
       0.0011404434 -0.0015246656 -0.0010745298 -0.0027553134
000150 1b 17 98 3a 46 fb 6f ba 47 e5 6f ba d0 08 bf ba
       0.0011603566 -0.0009154569 -0.00091512915 -0.001457477
000160 51 74 3f ba f4 2a 83 ba f8 f8 28 ba 53 d9 b4 ba
       -0.0007303404 -0.0010007308 -0.00064457906 -0.0013797678
000170 fc b7 a5 ba 46 1d be 3a 25 b8 f1 3a 2c 04 19 3b
       -0.0012643333 0.0014504574 0.001844172 0.0023348434
000180 60 07 c2 bb 2a 0d ad 3b 19 a6 bb 3b 07 94 92 3b
       -0.0059212893 0.0052811103 0.0057265875 0.0044732126
000190 bf 4c 9a bb fe bf ef 3b 59 e8 e4 3b db 79 f0 3b
       -0.004708856 0.0073165884 0.006985706 0.007338745
0001a0 6e ee bd 3b 68 0c b3 3b 67 7a e1 3b 51 a9 e3 3b
       0.0057962453 0.0054641254 0.0068810466 0.0069476743
0001b0 7f 29 ab 3b 60 b0 cc bb cb 30 b5 bb f3 1d 98 bb
       0.0052234526 -0.0062466115 -0.005529498 -0.004642242
0001c0 61 10 65 3a 0f 71 d8 3a c7 65 ee b9 f3 18 b9 3a
       0.00087380974 0.0016513186 -0.00045470727 0.0014121815
0001d0 ba 1f bf ba e8 f0 09 b8 25 26 f4 b9 9a cc bc b9
       -0.0014581599 -3.2887707e-05 -0.00046567727 -0.00036010594
0001e0 46 a3 b1 b6 3e 99 a5 b9 25 0a e1 b7 b8 2d 21 b9
       -5.2940186e-06 -0.00031585427 -2.6826814e-05 -0.00015371188
0001f0 93 cd bb 3a c3 3f 96 3a a0 d7 a7 b9 d3 7a 6d ba
       0.0014328234 0.0011463094 -0.00032013375 -0.0009059135
000200 ba 65 b4 ba 5d b7 9c 3b 71 d5 19 3b a8 d2 a9 3b
       -0.0013763227 0.004782601 0.0023473168 0.005182583
000210 2e e2 a1 bb 32 62 b0 3a b1 f1 b4 3a b8 19 09 3b
       -0.004940293 0.0013456999 0.001380494 0.002091987
000220 10 2e 29 3b a8 ff b7 3a df a0 b5 3a ad 59 0e 3b
       0.002581481 0.0014037983 0.0013857147 0.0021720931
000230 99 9e a9 3b dd 26 09 bb 7f 10 b7 bb 30 15 ae bb
       0.005176377 -0.0020927705 -0.0055866833 -0.0053125843
000240 60 60 91 ba 17 2c 94 3a db f2 8d 3a be 90 91 3a
       -0.0011091344 0.0011304644 0.0010829823 0.0011105759
000250 55 40 d1 ba ca ed 33 3a c6 ca 41 3a a9 7a 2f 3a
       -0.0015964607 0.00068637414 0.00073925813 0.0006693998
000260 d7 c9 b6 3a 21 73 32 3a e6 a8 86 3a 13 d9 58 3a
       0.0013945651 0.00068073167 0.0010273724 0.00082720927
000270 71 0b a5 3a 3d ae b9 ba 33 98 0b ba de e5 73 ba
       0.0012591911 -0.0014166307 -0.00053251087 -0.0009303967
000280 b2 89 3c 3b 3a 21 7d 3a 88 09 84 3a 09 fe 8b 3a
       0.0028768596 0.0009656135 0.0010073641 0.0010680567
000290 4c 37 3a ba 57 91 14 bb 8a 0f 20 bb b4 66 b9 ba
       -0.0007103577 -0.0022669637 -0.0024423325 -0.0014144988
0002a0 28 cf 5b 3a a7 3a 23 bb 06 b3 2d bb 6c 86 05 bb
       0.00083850557 -0.0024906786 -0.0026504411 -0.002037431
0002b0 b5 87 89 3a 6d 5f e9 b9 b1 65 c0 ba df a8 b3 ba
       0.0010492714 -0.0004451232 -0.0014678744 -0.0013706944
0002c0 f4 81 4d 39 ce 22 8a 3b a7 b5 6f 3b bf eb 9d 3b
       0.00019598735 0.004215575 0.003657678 0.004819363
0002d0 62 48 82 bb 6a 9f 05 3b f9 be 1f 3b dc 8a 89 3b
       -0.003975914 0.0020389208 0.0024375303 0.0041974615
0002e0 75 3a 7f 3b cd 22 24 ba 60 81 25 3b 7a a5 84 3b
       0.0038944755 -0.0006261289 0.0025254115 0.0040480467
0002f0 8b 60 8e 3b 98 9c 80 bb a1 7c 9e bb 4d 02 94 bb
       0.004345005 -0.0039249174 -0.0048366343 -0.004516876
000300 01 8a aa 3b ef e5 7c bb 18 ea 8e bb ae 2b 72 bb
       0.0052044396 -0.00385892 -0.0043614022 -0.0036952305
000310 ab bd 85 3b 24 08 9a bb a6 76 9a bb 1c ff a0 bb
       0.004081448 -0.0047006775 -0.004713851 -0.004913224
000320 0d 32 99 bb 95 5d a8 bb 53 17 9d bb df 7d a1 bb
       -0.004675156 -0.005138109 -0.00479404 -0.004928335
000330 78 f0 94 bb db 2a 94 3b 1b ed 9a 3b 80 cd 66 3b
       -0.0045452677 0.0045217103 0.004727972 0.0035217702
000340 26 ee f8 3b 61 a0 b8 bb 87 4d d6 bb bf 55 02 bb
       0.007596749 -0.005634353 -0.0065400037 -0.0019887534
000350 65 4d 9f 3b b9 53 f5 bb 94 83 f4 bb dc c7 e3 bb
       0.004861521 -0.007486787 -0.0074619744 -0.0069513153
000360 bf ec d4 bb 63 9a f5 bb 8e 4b e3 bb 23 92 ff bb
       -0.006497949 -0.007495211 -0.006936497 -0.0077994033
000370 cb 8a 97 bb 14 9a ed 3b a4 b9 ad 3b 6b 04 55 3b
       -0.0046246997 0.0072510336 0.005301671 0.0032503854
000380 32 5d b5 bb 3b d2 b7 3a 32 06 09 3b ec 78 3a 38
       -0.0055347914 0.0014024446 0.0020908234 4.4458473e-05
000390 81 4e 20 bb 96 a5 84 3b 09 49 9d 3b a5 b0 88 3a
       -0.0024460854 0.0040480597 0.0047999662 0.0010428621
0003a0 d0 f3 68 3b e0 72 b2 3b 91 e6 8d 3b 76 1d 00 3b
       0.0035545714 0.005445823 0.004330464 0.001954881
0003b0 0d c9 2c 3a 5d 0f 14 bb 82 14 8f 39 0b d8 98 39
       0.0006591238 -0.0022592165 0.00027290365 0.00029152664
0003c0 0a 09 16 3b 5d db 11 bb 3d 84 2c bb e9 dc 15 bb
       0.0022893571 -0.0022255995 -0.0026323937 -0.0022867268
0003d0 1b de e4 3a d4 83 f7 ba 2b d8 f5 ba 14 9a 2f bb
       0.0017461212 -0.0018883892 -0.001875644 -0.0026794719
0003e0 af df 35 bb 26 80 02 bb 9c 05 f6 ba 40 25 2e bb
       -0.0027751734 -0.0019912808 -0.0018769982 -0.0026572496
0003f0 b9 81 2d bb 22 69 48 3b e3 36 60 3b 27 ea 1c 3b
       -0.0026475026 0.0030580242 0.0034212403 0.0023943277

base_model.model.bert.encoder.layer.1.attention.self.query.lora_A.weight f4 [16, 384]
000000 11 df 3c bd 9e 3d 1f bd 99 f6 e0 bc 77 7e 73 bb
       -0.04611117 -0.038877122 -0.027461337 -0.0037154236
000010 1e 8a dc bc 60 b4 ba 3b 6c da 3a 3d a0 37 45 bc
       -0.026921328 0.005697772 0.04561846 -0.012037188
000020 44 bc 88 ba ac fc 8a b9 2e 5b 1a 3d b0 bc f0 bc
       -0.0010432084 -0.00026509666 0.037684612 -0.029386848
000030 54 12 02 3d 70 28 04 bd 3e dd 86 bc 76 99 69 bc
       0.03175576 -0.032265127 -0.016462918 -0.014257779
000040 ce 94 84 bc fa f3 38 bd da 17 3e bc 7f f0 63 3c
       -0.016184237 -0.04515455 -0.011602366 0.013912319
000050 28 a0 56 3b 18 bb 32 bc 5a 05 12 3d a2 8d 6c bb
       0.003274927 -0.010908864 0.035649635 -0.0036095162
000060 78 cf 3d bd 63 30 47 bc ef 14 10 bd 2d 11 4b bc
       -0.046340436 -0.012157532 -0.035176214 -0.012394232
000070 0b 66 31 3c 4d c6 53 3c c0 c2 9e bc b9 95 f5 bc
       0.010827552 0.012925697 -0.019379973 -0.02997862
000080 5f 20 22 bc af 95 1a bd 90 f2 cd 3b ae ee 71 3c
       -0.009895413 -0.037740406 0.006285019 0.014766378
000090 f1 16 2c bd 84 31 e5 3c 7f d8 e6 3c 92 68 46 bc
       -0.042014066 0.027977712 0.028179405 -0.012109892
0000a0 55 0d 83 3b 56 35 37 3d 78 d6 b1 ba 1a 78 1b bd
       0.003999392 0.0447286 -0.0013567945 -0.037956335
0000b0 91 7c 33 bd b5 48 0a bd 40 c5 bf b9 cf 18 9c bb
       -0.043819968 -0.033760745 -0.00036577322 -0.0047636996
0000c0 6d cf af 3c ee 3d 07 bd 35 86 04 3d 60 37 02 3d
       0.021461213 -0.033018045 0.032354552 0.03179109
0000d0 ca 05 19 bd 98 4f 3c bc 01 8e 50 3d 51 70 2e bd
       -0.037359037 -0.011493586 0.050916675 -0.042587582
0000e0 39 cc 07 3c a3 53 2d bc f2 a7 22 3c 61 df 2e bd
       0.008288437 -0.010579023 0.009927737 -0.0426935
0000f0 c9 4f 2c 3d 5f 0a 32 bd 15 33 c1 3c f2 7f 98 bc
       0.042068277 -0.043466922 0.023583928 -0.018615697
000100 54 c1 2e 3d 4a 3e 04 bd a8 6e 92 bc 89 a1 2c 3b
       0.04266484 -0.032285966 -0.01787503 0.00263414
000110 48 44 d5 bc 69 35 d3 bc ca cf 2e bb f9 05 46 3d
       -0.026033536 -0.025782304 -0.0026674145 0.04834554
000120 36 46 cd bc 1c 02 2c 3d 2b 1e 2c 3c ba 2b 0d bd
       -0.025057893 0.0419942 0.0105052395 -0.03446553
000130 70 ad d3 3c 4c 04 39 3d e0 8f 2c 3d b5 06 c7 bc
       0.025839537 0.045170113 0.042129397 -0.02429519
000140 40 f3 c2 3c e4 5f f0 bc 21 f3 18 bd 2c b9 2a bc
       0.023797631 -0.0293426 -0.03734124 -0.010420125
000150 1f 83 46 3d 28 54 c2 3b ba f3 52 bd 22 c2 0d bd
       0.04846489 0.0059304424 -0.051501967 -0.034608968
000160 d1 a3 c6 3c 5c e1 9d 3c 05 dc 0b 3d fa 09 e9 3b
       0.024248036 0.019272499 0.034145374 0.007111785
000170 18 c3 7e bc 13 11 5b bb 8e a0 ab bc 34 b3 d4 3c
       -0.015549444 -0.0033426925 -0.020950582 0.025964357
000180 e1 0d 2f 3d 35 a4 aa 3c 4d 1e 12 3c 67 55 04 3d
       0.042737845 0.020830253 0.008918357 0.03230801
000190 d8 6d e9 bc ff fb e8 3c 6d 15 46 3d e3 4a 1e 3d
       -0.02849476 0.028440474 0.048360277 0.038645636
0001a0 59 ac 26 bd 07 8c 2b bd f3 88 41 bc 01 6f ae 3c
       -0.040691707 -0.041881587 -0.011812436 0.021293165
0001b0 75 b7 de bc d9 c6 af 3c a6 ad 0f 3d cd 5d d8 3c
       -0.027187089 0.021457123 0.035077713 0.026411915
0001c0 ef 08 c0 bb df 2a e9 bc 8a b2 07 3d 05 f7 28 bd
       -0.00586044 -0.028462825 0.033129252 -0.0412512
0001d0 8f 58 a8 bc 20 ee 04 bc 00 53 f4 3c 47 90 47 3d
       -0.02055004 -0.008113414 0.029824734 0.048721578
0001e0 14 95 99 3b 32 b9 70 39 74 d3 46 3d 90 f7 dd ba
       0.004686961 0.00022957174 0.0485415 -0.0016934741
0001f0 e0 0c 3d 3c 4a 23 0e 3d ce 0c 52 3d ca fa 48 3d
       0.011538714 0.034701623 0.051281743 0.049067296
000200 4f 9c 29 bc b1 ee 0b 3d c5 2e aa 3b 4d f0 57 ba
       -0.010352208 0.03416318 0.0051935636 -0.0008237407
000210 1c 67 66 3d b3 b3 14 3d 86 11 32 bd fb 09 03 bd
       0.056250677 0.036304187 -0.043473743 -0.03199194
000220 01 fd f9 3c 89 37 0b 3d 92 38 37 bd 67 64 38 3d
       0.03051615 0.03398851 -0.044731684 0.045017626
000230 dc e2 8b 3c dd 04 33 3d 80 6b d7 bc 40 d4 18 3d
       0.017075948 0.04370581 -0.026296377 0.037311792
000240 c5 6d 74 3c 6a 16 2a bd 36 db 41 3d 1b 72 ff 3c
       0.014918749 -0.041525282 0.047328196 0.03118234
000250 17 3d 22 3c 18 f5 25 3d 2f 23 12 3d f7 ae 5d 3d
       0.00990226 0.040516943 0.035678085 0.054121938
000260 e0 70 bf 3c 52 c1 1b bd 7c 36 0d 3d e3 f8 3a ba
       0.023369253 -0.03802616 0.03447579 -0.0007132424
000270 c9 9c 0c bb 15 18 38 bd 96 eb a6 bc 76 f3 48 bb
       -0.0021455756 -0.04494484 -0.020376008 -0.0030662692
000280 d4 ec 11 bd 9f a2 1d 3d 0a e1 7d bc 04 17 4b 3d
       -0.035626248 0.038485166 -0.015495548 0.049582496
000290 6f 94 d0 bc c0 40 4f 3d 57 ef 8d 3c 3d 94 e4 3c
       -0.025461404 0.05059886 0.01732604 0.027902717
0002a0 93 f8 86 bb c5 42 c1 bc c6 82 0e 3d 76 9e 0c 3d
       -0.004118988 -0.023591409 0.034792684 0.034330808
0002b0 5e 62 11 3c 26 24 c6 bc ef 2f 1a 3d 55 34 a2 bc
       0.00887355 -0.024187159 0.03764337 -0.019800344
0002c0 8c bb df bc 6b 26 32 3d fc 0f 30 3c 84 8f 52 3c
       -0.027311109 0.04349367 0.0107459985 0.0128516
0002d0 71 74 df 3c 69 49 de 3c 45 e0 f8 3a 2e 3f 0e 3c
       0.027277203 0.027134614 0.0018987736 0.008682055
0002e0 20 be be bc 09 78 dc bc ce 76 50 bd b1 c6 3f bb
       -0.023284018 -0.026912706 -0.05089455 -0.0029262716
0002f0 ff 40 5c ba e0 f3 da bb 5f d5 02 bc 07 68 ff 3c
       -0.0008402019 -0.006681904 -0.007985442 0.031177534
000300 41 eb 99 bb 3b d5 26 3d ff 7e 07 3d 64 4c 4c 3d
       -0.004697234 0.040730696 0.033080097 0.04987754
000310 76 81 cd 3c 17 81 41 bd 64 b1 b2 3c 6b f0 ff bc
       0.025086146 -0.04724225 0.021813102 -0.03124257
000320 8c c9 b6 3c 96 57 2a bc ec 99 90 3c 8c 91 2b 3d
       0.022312902 -0.010396859 0.01765152 0.04188685
000330 cc cc 13 bd e7 d0 b6 bc 91 7e 3b 3d a2 48 31 3b
       -0.03608398 -0.02231641 0.045775 0.002705135
000340 74 70 da bc ed 5b b9 3a 79 26 56 3d 63 a8 25 bc
       -0.02666495 0.0014141776 0.052282784 -0.010110947
000350 c6 60 69 ba 98 d7 59 bc d0 50 70 bb b0 be 15 3d
       -0.0008902665 -0.01329603 -0.0036669262 0.036558807
000360 42 0c 87 bc 2b c1 73 3b 8d 8d 31 3d 3b d6 21 bb
       -0.016485337 0.0037193995 0.043347884 -0.0024694342
000370 e3 a0 18 3d 35 8b ff 3c 6b 48 f9 3c a1 3c fb ba
       0.03726281 0.031194309 0.03043004 -0.0019167849
000380 ab 98 b6 3c 69 8e 1d 3c 1e b6 fe 3c 2e ef 08 3d
       0.022289595 0.009616473 0.0310927 0.033431225
000390 a5 06 f0 3c fa 35 f7 3b 5c 2b 2e bd 50 f4 39 3d
       0.029300043 0.0075442763 -0.04252182 0.04539901
0003a0 d3 4d 46 3d af 30 40 bd 85 16 14 bb 1e c5 a4 bc
       0.048414063 -0.04692143 -0.002259643 -0.020113524
0003b0 2e c3 08 bd ac e7 08 3d 7d 9d 41 3d 23 b3 4c 3b
       -0.033389263 0.033424065 0.047269333 0.0031234703
0003c0 15 8e 80 3c bf a7 96 bb c5 56 31 3b 27 5c 32 bd
       0.01569275 -0.0045976336 0.0027059775 -0.043544915
0003d0 ff 93 0a 3d 07 c3 83 bc 4f 1b ec bb b9 4f 01 3d
       0.033832546 -0.016084207 -0.007205404 0.03157017
0003e0 4a 3e 0d 3c bd 11 27 3d 23 bd 10 bd d5 89 0c 3c
       0.008620808 0.0407884 -0.035336625 0.008577784
0003f0 a4 33 a5 bc f1 17 53 bc 84 5e 81 3c b6 57 30 bd
       -0.020166226 -0.012884126 0.015792139 -0.043052398

base_model.model.bert.encoder.layer.1.attention.self.query.lora_B.weight f4 [384, 16]
000000 d8 ab dc b9 df da fc ba fe c5 1a 3b 53 40 7c 3b
       -0.00042089703 -0.0019291303 0.0023616548 0.0038490489
000010 5e 9b ac 39 a6 2e 0f bb 72 ec ed 3a 6e aa 99 ba
       0.00032922154 -0.0021847873 0.0018152131 -0.0011723766
000020 b3 3f 7a 3a 31 ae a3 ba 86 18 01 3b d3 f3 7e 3b
       0.0009546235 -0.0012487826 0.0019698455 0.0038902655
000030 0d e2 65 3a 3d d3 90 bb 99 a6 dd 39 ae ee cc ba
       0.0008769341 -0.004419713 0.0004227653 -0.0015635097
000040 b1 39 3f bb 4a 90 34 bb e4 aa 68 b9 bf 7f 1b 3b
       -0.0029178674 -0.0027551823 -0.00022188906 0.0023727266
000050 08 44 8a ba ba 26 37 bb 74 7a 4f 3a e4 4e 40 bb
       -0.0010548839 -0.0027946667 0.000791467 -0.0029343897
000060 83 d8 0d ba 76 6a 12 ba 8e b3 0e 3b 38 d8 17 3b
       -0.0005410986 -0.0005585322 0.0021774503 0.0023169648
000070 a8 f6 47 3b 4f 3c f2 ba 73 36 52 39 0f 53 13 bb
       0.0030512009 -0.0018481108 0.00020047445 -0.0022479927
000080 8e 3b e3 b9 65 40 65 ba e7 32 f6 3a aa 88 5f 3a
       -0.00043341186 -0.0008745252 0.0018783481 0.00085271394
000090 58 2d da b8 bc a6 ff b9 37 75 fa 3a f4 57 87 ba
       -0.00010403496 -0.00048761617 0.0019108419 -0.0010325895
0000a0 ef 9e 3d 3a b1 ce 9d bb f4 6c 36 3a 15 6d 1d 3a
       0.0007233461 -0.0048158993 0.00069589843 0.0006005329
0000b0 58 38 d2 39 5b 11 50 ba 0a d2 1b bb 41 b5 b4 b9
       0.000400963 -0.00079371565 -0.0023776316 -0.0003446732
0000c0 9d aa 4f ba dd 14 0b bb 4a 5d b5 3a af 79 6f 3b
       -0.00079218467 -0.0021222152 0.0013837006 0.0036541035
0000d0 25 8e a2 b9 ac 89 81 bb 50 f9 85 3a 9d 06 c7 ba
       -0.00031004954 -0.0039531793 0.0010221396 -0.0015184466
0000e0 8e e3 8f 3a 33 38 e9 ba e4 d7 f2 3a d2 11 83 3b
       0.0010977851 -0.0017793238 0.0018527475 0.003999927
0000f0 b8 ce cc 3a 4f bc 14 bb c0 a2 1f ba f6 c6 c8 ba
       0.0015625572 -0.0022695248 -0.00060896203 -0.0015318084
000100 a3 6f 51 bb f8 3a ef bb 64 30 9a 3b 23 ad d9 3b
       -0.003195741 -0.007300731 0.0047054756 0.006642954
000110 8e 97 a2 3a ad e3 ed bb 74 bf 8a 3b 05 9b cf bb
       0.0012404786 -0.007259807 0.004234249 -0.0063356184
000120 46 30 08 3a 3b 12 4b bb b5 d3 e0 3b 71 34 eb 3b
       0.00051951816 -0.0030986208 0.006861175 0.0071778824
000130 7b 12 e1 3b 6f b8 ed bb b7 19 bd 3a ca cd e7 bb
       0.006868658 -0.007254652 0.0014427219 -0.0070740925
000140 50 46 c7 ba 94 2b 92 bb 4e 59 07 3b f3 53 c5 3b
       -0.001520345 -0.0044607613 0.0020652595 0.0060219704
000150 e1 6e 0d b9 66 92 c8 bb 04 b9 b3 3a e4 c8 1c bb
       -0.00013488113 -0.0061209677 0.0013711755 -0.002392345
000160 7e 0e ed 3a 7e ae 04 bb 17 a7 9f 3b b8 2e d9 3b
       0.0018085984 -0.0020245607 0.0048722136 0.0066278838
000170 5c a4 5f 3b 31 7c d2 bb c7 57 39 ba fa 06 50 bb
       0.0034125065 -0.006423496 -0.000707027 -0.003174244
000180 a5 72 2f b9 a1 85 a2 b9 1d 13 0b 3b 86 3f 59 b8
       -0.00016732009 -0.0003099861 0.002122111 -5.1795992e-05
000190 d0 8a 5a 3a 1d 43 dc b9 9e 6e 98 3a eb 39 f8 b9
       0.0008336725 -0.00042011673 0.0011629646 -0.00047345398
0001a0 1d 67 41 3a 01 84 58 ba 1a e0 9f 39 43 37 06 3a
       0.0007377731 -0.0008259416 0.00030493812 0.0005119929
0001b0 09 6a d8 b8 9a c5 82 b9 df 13 c8 b7 26 e5 76 37
       -0.00010319433 -0.00024942757 -2.3851111e-05 1.4716095e-05
0001c0 43 60 87 b9 5e dc 5a ba 54 c1 61 39 0f fb 76 3a
       -0.00025820927 -0.00083488773 0.00021529692 0.0009421566
0001d0 62 18 19 ba 3b e1 4d bb 06 4f df 37 14 da d4 b9
       -0.000584012 -0.0031414765 2.662047e-05 -0.00040598272
0001e0 1b dd 05 3a 72 3c 80 ba 75 66 29 3a 3d 93 10 3b
       0.00051064946 -0.0009783639 0.00064621057 0.0022060417
0001f0 01 15 17 3a c6 7f f5 b9 fd 11 c0 ba 3e d2 e2 b9
       0.00057633227 -0.0004682524 -0.0014653798 -0.00043262722
000200 b2 5d 39 b9 43 80 ed ba fe 6c 4e 3b 9e 7d ba 3a
       -0.00017677879 -0.001811989 0.003149807 0.0014228111
000210 19 65 4f 3a 62 0b 94 ba 88 57 2a 3b 1a ce 84 ba
       0.0007911488 -0.0011294896 0.0025992114 -0.0010132224
000220 d4 47 a6 39 01 e5 a5 bb 9e ad c2 3a 68 fb 14 3b
       0.00031715503 -0.0050627 0.0014852767 0.0022732858
000230 02 19 69 3a bf 58 bb ba 97 37 53 ba 1d 09 ab ba
       0.0008891971 -0.0014293416 -0.0008057295 -0.0013048981
000240 b8 43 68 b9 9c 30 bb ba 0c 45 e0 3a e9 e1 87 3a
       -0.00022150471 -0.0014281454 0.0017110421 0.0010367009
000250 0e 96 52 39 02 ec 0c ba 8e 31 18 3b c9 2a f4 b9
       0.0002008306 -0.0005375744 0.0023222896 -0.00046571184
000260 3b e7 bf 3a 98 d6 d5 ba db 84 13 3b 8d e3 0e 3b
       0.0014641056 -0.0016314564 0.0022509608 0.0021803111
000270 dc a3 a9 3a 7f 92 7b ba 8c 51 53 39 98 0a e5 ba
       0.0012942511 -0.000959672 0.00020152907 -0.0017474471
000280 50 9e 92 3a e1 e1 4f 3b 32 f8 c6 b8 9e 2f 8c bb
       0.0011186097 0.0031720328 -9.487606e-05 -0.0042781373
000290 12 b3 b6 3a 53 54 8c 3b 72 72 4e 3a 06 ea b1 3a
       0.0013938865 0.004282513 0.000787533 0.0013573773
0002a0 ef 81 e3 ba 00 83 b6 3a 47 51 7f bb c0 ab 93 bb
       -0.0017357449 0.0013924539 -0.0038958357 -0.004506558
0002b0 f5 8c 53 bb 8e 26 a5 3b 9c 85 90 3b c0 a6 1d 3b
       -0.0032280062 0.0050399965 0.0044104587 0.002405569
0002c0 9a 82 4b 39 46 32 8e 3a 9b 33 88 ba be 5f 4c ba
       0.00019408241 0.0010848723 -0.0010391356 -0.0007796249
0002d0 46 12 6a 39 41 9c 3e 3b 84 da 41 ba c2 f7 61 3a
       0.00022322786 0.0029084834 -0.0007394927 0.00086199876
0002e0 9d ec 83 ba 08 5e 06 39 9a 7e ac ba ea a5 05 bb
       -0.0010065023 0.00012814265 -0.0013160289 -0.0020393082
0002f0 03 a8 39 ba 97 a6 64 3b c7 17 bf b9 1b b4 5a 3a
       -0.00070822256 0.0034889334 -0.00036448074 0.0008342878
000300 c1 b0 d1 b8 0f 7d b6 3a 3d 1e bf bb 4e 60 00 bb
       -9.9988196e-05 0.0013922768 -0.005832462 -0.0019588652
000310 0b c3 89 bb d3 57 28 3a 43 b8 c4 bb 4e c9 8d 3a
       -0.004204159 0.0006421778 -0.006003411 0.001081744
000320 1d d6 c6 3a ff 1d 57 3b 10 b4 d6 ba b5 6f 14 bb
       0.0015170012 0.0032824276 -0.0016380567 -0.002264959
000330 06 72 7d ba 28 6a bc 3a 45 5c 1c bb b1 2a 17 3b
       -0.0009668175 0.0014374899 -0.0023858708 0.0023066218
000340 58 8f 89 3b 8a 54 91 3b 0a f4 22 3a f0 ce 66 bb
       0.004197996 0.0044351267 0.0006216174 -0.003521856
000350 55 93 4a 3b 8b 24 72 3b a3 c2 a5 ba 1b a3 88 3b
       0.003091057 0.003694805 -0.0012646507 0.0041698343
000360 bd 2d d9 ba 91 95 d4 3a 69 92 62 bb af 6f 66 bb
       -0.0016569417 0.0016218891 -0.003457213 -0.0035161783
000370 56 54 87 bb 90 3b 4e 3b 92 cb d5 b8 8d a3 91 3b
       -0.0041299267 0.0031468607 -0.000101945494 0.0044445456
000380 87 22 68 39 51 b7 b6 b9 98 08 20 3a 60 92 38 b9
       0.00022138107 -0.00034850326 0.0006104796 -0.00017602136
000390 46 0a 90 b9 77 39 f5 39 c8 68 58 39 03 70 f5 38
       -0.00027473475 0.00046772856 0.000206384 0.00011703374
0003a0 8b 7c 25 3a 1b aa ea ba bc 52 e8 b9 de d7 55 3a
       0.0006312809 -0.0017903479 -0.0004431213 0.0008157472
0003b0 1e 2d 8e b9 fc a4 90 39 6b 67 de ba f5 d8 2d 3a
       -0.00027117966 0.00027588743 -0.0016968077 0.00066317554
0003c0 4a de ae 3b 75 ee c0 3b 76 bf b0 bb 05 bf d1 bb
       0.0053365575 0.0058878013 -0.0053939177 -0.006400945
0003d0 8a ec 5b 3a 31 0d de 3b d4 6f a3 bb 0a 5d a6 3b
       0.0008389434 0.006776475 -0.004987696 0.005077009
0003e0 b8 ab 56 bb 10 d6 8d 3b d0 c1 d1 bb 1a 33 d4 bb
       -0.003275616 0.0043284968 -0.006401278 -0.0064758183
0003f0 4e 8a c2 bb 4b d5 eb 3b cc cc b9 3a b1 e0 d8 3b
       -0.0059368974 0.0071970574 0.0014175414 0.006618582
