lora_crossencoder_has_instruction_r_16 la_16 ld_0.3/checkpoint-2322/adapter_model.safetensors (safetensors, 594924 bytes, 25 tensors)

base_model.model.bert.encoder.layer.0.attention.self.query.lora_A.weight f4 [16, 384]
00000000: 4f69 24bd cdf2 4b3d 241c 18bd 3e18 093c
00000010: 3a93 aa3b 3851 b7bc 1ff8 173d a6bb e7bc
00000020: 1e62 0a3c 9045 843c 2bec 1abc 87b7 32bc
00000030: 0b23 07bd 5771 8bbb 46f9 38bd 7695 48bd
00000040: 8772 a43a dfec 9d3c 0c48 dbbc 57a9 343d
00000050: 6e2e 0ebd 8500 45bd 574c b23c 545c 44bd
00000060: 80db eb3c fc9c 48bd 3e8b 5dbc c6f8 f6bc
00000070: 7ffd 1bbd b00a 0e3d 509d 44bd c4ad bb3c
00000080: dd30 023d d65a 14bd d707 d6ba 94b7 bebc
00000090: 718e 2f3d 37d7 4fbd 17b5 803c 7722 823c
000000a0: b7a5 23bd bb29 d73a 3471 46bc 9fe0 ee3c
000000b0: 6085 073d 91f7 0c3d c209 ffbc b03b 893c
000000c0: 397e 7f3c 8c0b 3cbd 91e2 d53c 387f d83c
000000d0: bb18 353c 0a81 403d ab25 b63c 652e 7e3c
000000e0: 16ae fabc bacc 933c 0802 00bc d94c 5cbc
000000f0: 3500 053c 61dd c33c cc00 283d 0ab4 433d
00000100: 237d 85bc ae5e bfbc fc08 bcbc c962 05bd
00000110: 588f 48bd ad9a e53b 2a91 abbb f02f d0bc
00000120: f2f2 18bc 279c 1c3c e367 2e3d fef7 38bd
00000130: 68bb 82bc 7617 10bd f791 27bd 2ed7 8bbc
00000140: 88ac c03b 7686 02bd 7729 d1bc 4472 e2ba
00000150: f4b6 d9bc f5b8 f83a fef4 39bd 7380 cd3c
00000160: 8f7a 44bd 2064 33bd df8c e7bc 73a6 b03c
00000170: 02e5 9d3c 844a 693c f7d3 143d ae6a fabc
00000180: 5ae3 0abd 4e54 a2bc b918 e1bb f616 18bd
00000190: a876 39bd 5d90 413c 039a 4abd 5315 383d
000001a0: 6e9f 083d c94a 01bd 9f38 51bc fa7c d0bb
000001b0: 9f51 8dbb f3c9 fa3b 03dd 26bd eb45 c1bb
000001c0: afd8 353d 6d6c f4bc 4de6 d13c 82e4 01bc
000001d0: 12c6 3cbd aea1 033d a10a 46bd 537e 46bd
000001e0: 1d7d 253d ed65 45bd 6575 cc3c 33cb 5b3d
000001f0: 6a52 ddbb cd67 cfbc 5227 7fbc 361f 24bd
00000200: 9196 cd3b 878d 0fbd d3fd 863c d2c0 603a
00000210: 2a70 f23c 76f1 00bd bcfb 1c3d 9875 8c3c
00000220: aaf9 0fbd d587 fc3c dc5f d53c 3cf4 51bd
00000230: 37f0 89bb b225 923c 4a69 173d 8936 363d
00000240: 4c25 3cbd 8f00 eabc cf1c 25bd 13b1 3b3d
00000250: 4f68 ebbc 0bf8 4dbd f9d3 bbbc e451 303b
00000260: 1262 0fbc a600 15bd ca34 99bc 5ed1 c1bb
00000270: d358 303c fc65 64bc e9c8 a9bc ea50 07bc
00000280: dd3a 3e3d 216e 133d ba93 81bc e7b9 e23c
00000290: 3c5b 8f3c 69af 22bd 16b4 033d 0419 a4bb
000002a0: b7c6 393d 0cbe cfbc 93ed 603d fc0a 133d
000002b0: 9a23 50bd 8bb9 b93c 2394 fbbc 6a29 2d3d
000002c0: bd48 b13c 16f0 19bc 5245 9f3c 0621 b93a
000002d0: 6564 8c3c 2ed0 023d b5ef d7bc b99d 1bbd
000002e0: 0bc3 123c 54de 313d 831b 45bd 8c3c 403c
000002f0: c382 273d 240a 13bd 9f51 503d ae95 c23c
00000300: 98ca 863c 880a 91bb 32af 033d 8ce5 08b8
00000310: b375 58bc 051a 22bd 8d4a d7bc 2d7b a4bc
00000320: 351f 09bd 4763 e7bc afcf 61bd 4527 fd39
00000330: cc67 2f3d 5013 953c cdb0 093d 73aa 0dbd
00000340: a913 753c 66e3 71bc febc a9bc 8429 32bd
00000350: 6887 77bc a3ab 05bd b932 15bd 62b8 88bc
00000360: 6dd9 1a3d b33e fcbc 20f0 0d3d 6624 963c
00000370: e2a8 143d dec5 383d 91ad faba 0c9a 843c
00000380: 0f70 293d e938 0d3d 742d 25bb 7d74 043d
00000390: f279 77bc 2c84 ad3c f7c6 0d3d 94b8 2cbd
000003a0: 5016 283d 099e 01bd 39ff ac3c 316b 1e3d
000003b0: 5d90 3a3d 06f3 1bbd 50e8 3f3d 9e83 523d
000003c0: f939 893c c486 913a 13e8 0fbc 0d44 163d
000003d0: d9f2 eebc f81b 9cbc 248c 57bc 4547 843c
000003e0: ee66 3e3d b8a0 6a3c ca36 50bd 2b11 d33c
000003f0: 93c4 bc3c ba2e 0ebd 7fce 49bd 9cf5 ecbc
-0.040139493 0.0497921 -0.037136212 0.008367596 0.005205539 -0.022377595 0.03710186 -0.02828772
0.0084462445 0.016146451 -0.009455721 -0.010908014 -0.032992404 -0.0042554545 -0.0451596 -0.048970662
0.0012546339 0.019277988 -0.026767753 0.044106808 -0.034712248 -0.0480962 0.021764917 -0.047939613
0.02879119 -0.048977837 -0.013521967 -0.030147921 -0.03808355 0.03467816 -0.048001587 0.022910006
0.03178488 -0.03621944 -0.0016329241 -0.023280896 0.042860452 -0.050742354 0.01571135 0.015885575
-0.03995296 0.0016415635 -0.012111951 0.029159842 0.03308618 0.034415785 -0.031132583 0.016752094
0.015594059 -0.04590945 0.026109012 0.02642785 0.0110532595 0.04699806 0.022234758 0.015513991
-0.030600589 0.018041957 -0.007812984 -0.013446056 0.008117725 0.023909273 0.041016385 0.04777912
-0.016295021 -0.023360576 -0.022953503 -0.032564912 -0.04896483 0.007006964 -0.0052358108 -0.025413483
-0.009335266 0.009558714 0.042579543 -0.04515838 -0.015958503 -0.035178624 -0.040910687 -0.01707038
0.0058799423 -0.031866513 -0.025532467 -0.0017276485 -0.026576497 0.001897602 -0.04539966 0.025085663
-0.047968443 -0.04379666 -0.028265415 0.021563744 0.019274238 0.014238957 0.036334958 -0.030568447
-0.033908226 -0.01981559 -0.0068694022 -0.037131272 -0.045279175 0.011814204 -0.049463283 0.04494221
0.03335517 -0.03156546 -0.012769847 -0.0063625546 -0.0043127085 0.0076534688 -0.040738117 -0.0058982274
0.0443961 -0.029836858 0.025622511 -0.007928016 -0.046087332 0.03213661 -0.04834998 -0.048460316
0.04040252 -0.048192907 0.024958322 0.053660583 -0.0067542093 -0.02531805 -0.01557334 -0.040068828
0.0062740524 -0.03504708 0.016478455 0.00085736543 0.0295945 -0.031480275 0.03832601 0.017145917
-0.035150208 0.030826489 0.026046686 -0.05125831 -0.004209544 0.01784024 0.036965646 0.044485603
-0.045934007 -0.02856472 -0.040310677 0.045823168 -0.028736262 -0.05028538 -0.022928225 0.002690428
-0.008751409 -0.03637757 -0.01870193 -0.005914851 0.010763365 -0.013940331 -0.020725684 -0.0082590375
0.046442855 0.0359937 -0.015817512 0.027676536 0.017499559 -0.039718065 0.032154165 -0.005007865
0.045355525 -0.025359176 0.05491407 0.035899147 -0.050815202 0.022671482 -0.030710286 0.042275824
0.02164113 -0.00939562 0.019442234 0.0014124222 0.017137716 0.031936817 -0.026359418 -0.037992213
0.008957635 0.04342492 -0.04812194 0.0117331855 0.04089619 -0.035898343 0.05085909 0.023753013
0.016454026 -0.0044263043 0.0321495 -3.263871e-05 -0.013211655 -0.039575595 -0.026280666 -0.020078266
-0.033477027 -0.028245581 -0.055129703 0.00048285178 0.042823598 0.018197685 0.033615876 -0.03458638
0.014958301 -0.014763689 -0.020720001 -0.043496624 -0.015107967 -0.03263439 -0.036425326 -0.016689483
0.03780501 -0.030791616 0.03465283 0.018327903 0.03629387 0.045110576 -0.0019125213 0.016186737
0.041366633 0.034478102 -0.0025204094 0.032337654 -0.015104758 0.021181189 0.034613576 -0.042168215
0.041036904 -0.031644855 0.021117793 0.038676444 0.04554783 -0.038073562 0.04685241 0.05139505
0.016751276 0.0011102785 -0.008783358 0.036685992 -0.029168533 -0.019056305 -0.013155971 0.016147265
0.04648488 0.014320545 -0.0508335 0.025765022 0.023042953 -0.03471253 -0.049269196 -0.02892571

base_model.model.bert.encoder.layer.0.attention.self.query.lora_B.weight f4 [384, 16]
00000000: a035 533b b047 65bb a67e 483b b68c 4dbb
00000010: 03e2 5ebb 5aa7 7abb 0587 25bb 7abd 0fb9
00000020: f422 56bb 87fa 493b 9e25 84bb 582d 05bb
00000030: d02b 34bb 0c44 30bb 9e0d 3e3b 620e 7c3b
00000040: e489 553b 2d50 1fbb ec8f e7b9 967f 52bb
00000050: a2f3 a5bb 51e8 58bb 528e d339 cf74 af3b
00000060: 124d 1bbb 3acf 593b 271c 6fbb b793 3aba
00000070: ad4e 19bb 4173 d6ba 0835 d13a 8c25 5d3b
00000080: ad68 4fbb 514f 623b e75a deba a3fb 933b
00000090: bad3 6f3b 22ba 8f3b abe8 43ba d63a d0ba
000000a0: 00af 143b f5e9 0fbb 091a 793b bd9a d83a
000000b0: 33bb 823b 41dd b73a 6abc 1dbb 20f5 32bb
000000c0: 02fe d0ba cff2 70ba 2179 e4ba 70a5 7539
000000d0: 6ec9 a03a c5c2 8d3a 5b78 143a cbc7 4fbb
000000e0: bf12 c53a 4013 ca3a 93cb b03a fa97 66ba
000000f0: 0221 14ba e181 f0ba 9ada 58b9 718f 393a
00000100: 628e fbba 9c62 513b 4260 95bb f3e9 7c3b
00000110: fa0e e33a e2c9 0c3b 158b 6b3b a9eb 183a
00000120: fad7 373b 9867 1bbb 4435 a13a bb6a 443b
00000130: 4951 543b 2497 9a3b f341 5ebb 2a4b 0ebb
00000140: 682b 5c3b 41e0 e5ba 7a9d 363a a7bb 2dbb
00000150: 6a9c 73bb abcc 2fbb a3f3 cdb9 6092 253b
00000160: 19ac e3ba 6bd4 153b 66f2 23bb 31bc 86ba
00000170: 8190 1bbb 8b31 32ba 5f79 c13a c63a 1e3b
00000180: 1fbc fc3a a4aa 3c3a 42d1 7dbb 41da bbb8
00000190: 799c 2dbb fd4e 9bba 124e 8e3b 4e02 343b
000001a0: 9944 ceb9 1478 0abb 25e2 afba a801 743b
000001b0: 7ddf 6bba 7468 7c3b 97ce dcba 8bcd 4239
000001c0: 7e87 683b d4c5 68bb cba4 b13a 44db 5dbb
000001d0: 3734 82bb 3646 40bb 32c0 3b38 554d 473b
000001e0: 37e3 67bb 030e a83a 8e47 9bbb f106 19bb
000001f0: 8b75 37bb 5135 1ebb bc38 233b 36b0 8a3b
00000200: c57d 63bb 847c 213b 4eae cbba 54db 5b3b
00000210: 06cc 553b ec0c 4d3b feea a63a 6403 6f3a
00000220: bbd5 103b 79b7 26bb 3f5c 4d3b 42f0 b33a
00000230: e94a 2a3b 2b9a 003b 0907 0abb 0736 36bb
00000240: dc35 c33b 7c45 a6bb 8e1f 6a3b 69f4 9ebb
00000250: 09cf 55bb 70df 97bb f6cb 67bb f416 94b9
00000260: 4a3e 94bb 54fe a83b 2752 b1bb 491a 71bb
00000270: 6a31 9cbb 40fd b8bb 8b9a 703b c4ca c73b
00000280: 268d 9dbb d163 8d3b d87a 27bb 2856 a43b
00000290: 3b81 9e3b 43e5 ab3b c08e 233b 9190 a338
000002a0: e889 993b af00 61bb 9d98 973b eadd 353b
000002b0: 3014 813b 0ed0 883b 8d81 87bb 3c8e 80bb
000002c0: c2bc 00bb 969d ab3a 49a9 25ba c8b7 5d3a
000002d0: 2bcc ce3a ddb7 2d3a fbad bc3a 9b9d 3b3b
000002e0: 5f04 a73a f996 b0ba 6ae5 d53a 2996 c13a
000002f0: 281b cb3a fcad 933a e3ca f5ba b03f e6ba
00000300: a400 963b ef51 8138 1244 c9b9 82db 3dbb
00000310: 330e bcbb 14cc 9dbb 0627 903a a705 823b
00000320: 1010 82bb beb7 8a39 6360 a3bb b548 41ba
00000330: dd0a ecb9 3b02 47ba e02b 4d3a b158 453b
00000340: d654 c23b 517b c7bb c18f ad3a 9860 e1bb
00000350: 3a3d d8bb 52a2 b6bb 9d06 b838 1ff3 683b
00000360: 1f00 a5bb 911f af3b f2d7 d9bb 636b 7abb
00000370: b3ca b6bb cd38 8cbb c053 873b 752c ca3b
00000380: 319c d83a 0bd8 90ba 614c a6ba eabf a8ba
00000390: 11f1 31bb 1246 e9ba c940 823a 7092 883b
000003a0: fe3c 6aba d96a 003b 7058 0ebb 25da aa39
000003b0: 5be2 8dba 971f 8db9 9d69 e239 9f95 de3a
000003c0: f0be 28ba 640b 6e3a e6e8 25bb 775d f93a
000003d0: e6b5 4eb9 2e6e 183a c172 1e3b 58a5 0e3a
000003e0: f580 843a 9e2c 6c38 a394 2c39 e707 d53a
000003f0: 8358 3e3a b0e2 e43a e11f 96ba 4f36 66ba
0.0032228008 -0.0034985356 0.0030593066 -0.0031364388 -0.0034009225 -0.0038246722 -0.002525748 -0.00013708128
-0.0032674642 0.0030819492 -0.0040328046 -0.0020321216 -0.0027491935 -0.0026896028 0.0028999816 0.0038460721
0.003258341 -0.0024309263 -0.00044166984 -0.0032119504 -0.0050644437 -0.0033097456 0.00040351093 0.005354501
-0.002369706 0.003323509 -0.0036485286 -0.0007117348 -0.0023392842 -0.0016361253 0.0015961239 0.0033744304
-0.0031648085 0.003453214 -0.0016964347 0.0045160814 0.0036594705 0.0043862024 -0.000747333 -0.0015886675
0.0022687316 -0.0021959518 0.0038009903 0.0016525608 0.003989601 0.0014027731 -0.0024068602 -0.002730675
-0.0015944841 -0.0009191455 -0.0017431119 0.00023426651 0.0012267062 0.0010815492 0.00056636863 -0.003170478
0.0015035494 0.0015417114 0.0013488404 -0.000879645 -0.00056506705 -0.0018349254 -0.000206808 0.00070785644
-0.0019192214 0.0031949645 -0.004558594 0.0038591593 0.0017323189 0.0021482636 0.0035941054 0.0005833456
0.0028052316 -0.002371287 0.00122992 0.0029970843 0.0032397083 0.0047177244 -0.003391382 -0.0021712282
0.0033595208 -0.0017538146 0.0006966215 -0.0026509555 -0.0037172087 -0.0026824872 -0.0003928217 0.0025264248
-0.0017370015 0.0022862207 -0.0025016307 -0.0010279474 -0.0023737254 -0.00067975436 0.0014760903 0.0024143918
0.0019282139 0.00071970583 -0.0038729464 -8.957508e-05 -0.002649097 -0.0011849102 0.004342803 0.0027467194
-0.0003934249 -0.00211287 -0.0013418837 0.0037232433 -0.0008997841 0.0038514407 -0.0016846237 0.00018577852
0.003548115 -0.0035518305 0.001355314 -0.0033852616 -0.0039735097 -0.0029338724 4.476327e-05 0.0030411084
-0.0035383233 0.0012821559 -0.0047387546 -0.0023350085 -0.0027993645 -0.0024140666 0.0024905642 0.0042324318
-0.0034712416 0.0024640867 -0.0015539618 0.0033547478 0.0032622828 0.003128822 0.0012734828 0.00091176317
0.002210005 -0.0025438948 0.00313355 0.0013728219 0.0025984591 0.0019623141 -0.0021061322 -0.00278032
0.0059573483 -0.005074201 0.0035724374 -0.0048509133 -0.0032624623 -0.00463479 -0.0035369373 -0.0002824586
-0.004524027 0.0051572714 -0.0054114047 -0.0036789349 -0.004766633 -0.005645424 0.0036713209 0.0060971696
-0.004808086 0.0043148776 -0.0025555398 0.0050151534 0.004837183 0.005245836 0.0024956912 7.799373e-05
0.004685629 -0.0034332683 0.004626347 0.002775068 0.003939174 0.0041751927 -0.0041353167 -0.0039232057
-0.0019643758 0.0013093229 -0.0006319476 0.00084578665 0.00157774 0.0006626824 0.0014395112 0.0028627876
0.0012742392 -0.0013472728 0.0016318981 0.0014769483 0.0015495764 0.0011267061 -0.0018752482 -0.0017566588
0.004577713 6.166461e-05 -0.00038388424 -0.0028969948 -0.0057389974 -0.004815588 0.0010997958 0.003967959
-0.0039692 0.0002645831 -0.0049858554 -0.00073732 -0.00045021522 -0.000759158 0.0007826667 0.0030112679
0.0059305234 -0.0060876985 0.0013241695 -0.00687797 -0.0065990957 -0.0055735493 8.7750355e-05 0.0035545302
-0.005035415 0.005344339 -0.006648057 -0.003821098 -0.005578363 -0.004279232 0.004129857 0.0061698505
0.0016526041 -0.0011050714 -0.0012687558 -0.0012874578 -0.0027151743 -0.0017797372 0.000993752 0.0041678473
-0.000893548 0.0019594936 -0.0021720193 0.00032587457 -0.0010824905 -0.00026917152 0.00043184767 0.0016981846
-0.00064371433 0.0009080677 -0.002531582 0.0019025047 -0.00019713453 0.0005814758 0.0024177285 0.0005441508
0.0010109233 5.6308338e-05 0.0001645857 0.0016252965 0.0007261114 0.0017462578 -0.0011453592 -0.00087818963

base_model.model.bert.encoder.layer.0.attention.self.value.lora_A.weight f4 [16, 384]
00000000: 888f 343c a274 72bc b0ea 193d 549f b6bc
00000010: 8534 09bd 12d3 2d3d 49fe 3cbd a940 7cbc
00000020: ab2a 813b 6400 ad3c 1606 223c 3008 21bd
00000030: a928 23bd 33a2 4bbd 4c24 30bc 0f03 6f3d
00000040: f0d1 0bbd f26e 083d dff0 dc3c 3502 74bd
00000050: 6b74 4e3c 9c47 0f3d 1481 3b3c 9d6d 523c
00000060: 4b52 1d3d dfdf 803c e1f0 863b 477e 593c
00000070: 7479 c2bc c2e8 e83c f7a5 403b 5a6a 333d
00000080: e327 253d 0505 543c 9d84 9c3c 23ae 50bc
00000090: 6a92 f73b 0539 cf3c ed96 063d dd06 0fbd
000000a0: 559b 25bd 043a d9bc 644e 413d 51fa 8cbb
000000b0: d8e3 033c 0101 a13c 9e12 43bd f2bc 5b3c
000000c0: c431 04bc 042f 0dbc 8def 16bd 2676 263d
000000d0: 065d 41bd 6ce9 4a3d d3a8 f33c a5fa 21bd
000000e0: 6cd9 103d 1f27 b73b 987b 09bd ff8d 7fbc
000000f0: 240d aebc 572d d5bc 95a5 a83c d4e5 163d
00000100: f170 f43c 93f1 01bd f007 37bd 5987 1f3d
00000110: b856 303d 6eab 423d 54ee f03c 9531 d93c
00000120: 7621 0c3d e240 923c 9071 14bc 1f83 f0bb
00000130: 7dd9 1b39 a1b1 28bc bcd6 dabb 29d1 813c
00000140: cc41 343d fda8 133d e2fb 2fbd ed2e bebc
00000150: fa35 ca3c 9084 1c3d 0cc0 163d 31eb 96bc
00000160: 6e30 673d a789 d5bb 82f8 f83c 386e a13c
00000170: 4974 eebc 55e9 b93c 69b2 04bd 92b0 e53c
00000180: 603b 15bd 53d9 60bd c028 303d 18de d03c
00000190: 03cd cebc de30 0e3d 461d 033d a8da 24bc
000001a0: 3f47 6abd dabe 403d 8d29 3cbb c846 80bc
000001b0: 9de5 02bd f17f 16bc 690f 2c3d e012 1c3d
000001c0: 5e61 13bd 5cc2 18bd 71d2 193d 2cc7 bfbb
000001d0: 7e44 b8bb bd97 39bd 9d97 7f3b 5986 32bd
000001e0: 6d09 b4b9 bc38 11bd c311 733c 9ce2 74bd
000001f0: e798 d63b 2341 ad3c 2d00 2bbd 9da2 673d
00000200: b079 2abd 800f b3bc a529 b4bc 13e6 c13c
00000210: efa6 c6bc 1599 85bc a786 753d d85d 5e3d
00000220: c79a 6f3d adef 97bc 7885 debc 92a3 bc3b
00000230: 525d 2bbd 95f0 603d 5fab 70bd 845f b83b
00000240: 947a 8bbc ad62 21bd 8a44 1bbd 1dfb 193d
00000250: 30b2 033d 8df7 fd3b 4e5f 9fbc 7612 d93c
00000260: 0eab 2fbd b994 f9ba f3ea dcbc 7f98 9b3c
00000270: eabc 2e3d 6d9d a73c 0313 18bd 823d e03c
00000280: af4a 643c 6422 003d 43e6 d1ba 150e f4bc
00000290: e7a4 3ebd 5724 483d 617d 1dbd 2b06 503d
000002a0: 2ed2 47bc 7c25 0e3c e0b1 dc3c 8599 2cbd
000002b0: 04b3 4c3d 1e19 eebb 9bee 29bc 320d 3d3d
000002c0: 132e 763b d5b0 46bd 3319 fb3c 19be 883c
000002d0: 0aa9 30bc 7e11 bd3b 8197 28bb 297d ec3c
000002e0: bb92 14bc 5615 15bd 1459 4f3c b6fa 25bd
000002f0: c6d9 46bd e87d 1e3d 590e a93c d461 2c3d
00000300: 05b3 823c 69b3 e5bc c52d 243d 55d4 523d
00000310: 4b5e a93c 323c 9dbb c43c 5a3d 1b5e 1e3d
00000320: ff81 9d3c e341 1e3d a370 e33b 6d72 9dbc
00000330: 5b7d 08bc 9694 96b9 267c d5bc ef22 bb3c
00000340: 913c 263d ebc7 66bd f12d 1f3d e3bf 97bc
00000350: 7b44 f4bc d8f4 023a 1897 b63c 58ad 343d
00000360: cdcf ae3c 50ec 3ebc 8777 58bd b12d c23c
00000370: f500 293d dfed 2fbd a8bf 6c3d e0b5 35bd
00000380: 291d e6bc de82 4e3d b40e bfbc b700 8b3c
00000390: 2e52 76bd f79c 56bd f3ab 3e3d 6d92 173d
000003a0: 68a0 20bd 1e88 023d fae6 f9bc 098c 7f3c
000003b0: 7a45 073d 3582 cc3c d838 41bd 65e6 c7bc
000003c0: b3cd 17bd 21ea b8bc d2cf 3e39 8284 1d3d
000003d0: 5d88 dc3c c116 ac3c 4401 97bc 5dc0 923c
000003e0: 6684 86bb eeb3 2d3d 0c0e 61bc f245 2f3c
000003f0: 743e e43a 31d4 49bc bbd7 c03c 8190 20bd
0.011020549 -0.014798315 0.03757733 -0.02229277 -0.033497352 0.04243762 -0.046140943 -0.015396276
0.003941854 0.02111835 0.009889146 -0.03931445 -0.0398337 -0.049715232 -0.010750841 0.058352526
-0.03413576 0.03330893 0.026970325 -0.059572417 0.012600998 0.0349804 0.011444349 0.012843517
0.03840856 0.01573175 0.0041180705 0.013274736 -0.023739554 0.0284313 0.0029395798 0.043802597
0.040321242 0.01294065 0.019106204 -0.01273683 0.0075552957 0.025295744 0.032858778 -0.034918655
-0.04043134 -0.026516922 0.0471939 -0.004302301 0.008049928 0.019653799 -0.047625177 0.013411747
-0.008068506 -0.008617166 -0.036849547 0.04064002 -0.047207855 0.049539015 0.029743588 -0.039545674
0.0353636 0.0055893804 -0.033565134 -0.015597819 -0.0212465 -0.026022596 0.020586768 0.036840275
0.02983901 -0.031724524 -0.044685304 0.038947437 0.04305145 0.04752677 0.029410519 0.0265129
0.0342116 0.017853204 -0.009060279 -0.0073398496 0.00014862973 -0.010296256 -0.0066784304 0.015846806
0.04400806 0.03604983 -0.042964824 -0.023215735 0.024683941 0.03821236 0.036804244 -0.018422695
0.05644267 -0.0065166536 0.030391935 0.019705877 -0.029108183 0.02269427 -0.032396708 0.028038297
-0.036433578 -0.054894757 0.043007612 0.025496528 -0.025244242 0.034714572 0.03201034 -0.010061897
-0.05719685 0.04705701 -0.002871129 -0.015658751 -0.031957258 -0.009185777 0.042006884 0.038103938
-0.03598153 -0.03729473 0.03755421 -0.0058526006 -0.0056233993 -0.045310725 0.003900028 -0.043585155
-0.00034339298 -0.035454497 0.014835778 -0.059786424 0.006548989 0.021149224 -0.041748215 0.056551564
-0.041619956 -0.021857977 -0.021992514 0.023669278 -0.024249522 -0.016308347 0.059942868 0.054288715
0.058497217 -0.018546904 -0.027163252 0.005756804 -0.041837044 0.054916937 -0.058757182 0.0056266207
-0.017026223 -0.039400745 -0.03790716 0.037592996 0.032152355 0.0077504576 -0.019454625 0.02649806
-0.04288774 -0.0019041515 -0.026967501 0.018993614 0.04266063 0.020460809 -0.037127506 0.02737308
0.013933822 0.031282797 -0.0016014058 -0.029791871 -0.046543982 0.04886278 -0.03844965 0.050787132
-0.012196107 0.008675929 0.026940286 -0.042138595 0.04997541 -0.007266178 -0.010371829 0.046155162
0.0037564083 -0.048508484 0.030651664 0.016692208 -0.01078249 0.0057699075 -0.002572507 0.028868275
-0.009068186 -0.0363973 0.012655515 -0.0405223 -0.04854753 0.038694292 0.020636724 0.042085484
0.015954504 -0.028039651 0.04008271 0.051472027 0.020674845 -0.0047984356 0.053280607 0.038663965
0.019227026 0.038637053 0.0069409176 -0.019219602 -0.008330668 -0.00028720935 -0.026060175 0.022843806
0.040585104 -0.056343 0.038862173 -0.018524116 -0.02981781 0.0004995591 0.022288844 0.044110626
0.021339322 -0.011653021 -0.052848365 0.023703428 0.04126068 -0.04295146 0.057799965 -0.044362903
-0.028090077 0.050417773 -0.02332244 0.016968114 -0.060136966 -0.052395787 0.046550702 0.037004877
-0.039215475 0.031868093 -0.030505646 0.015597352 0.033025242 0.024964431 -0.04717335 -0.024401853
-0.037061404 -0.022572579 0.00018197231 0.038456447 0.026920492 0.021006944 -0.01843322 0.017913992
-0.0041051386 0.042407922 -0.013736259 0.010697829 0.0017413632 -0.012318657 0.023540368 -0.03920031

base_model.model.bert.encoder.layer.0.attention.self.value.lora_B.weight f4 [384, 16]
00000000: 2dab f43a 0fe7 3039 0a8c 5bba ece8 1e3b
00000010: bf1c adba 8dc2 ae3a 6eee 12bb 1271 85b9
00000020: 0b5f b63a e570 ff3a d1d5 82ba 6ba8 273a
00000030: 690d 97ba 8566 00bb ca88 9fba d9cd d53a
00000040: 3cd6 203b 25ff 47bb 03fe bbba 94d0 133b
00000050: ba36 6bbb 884b c93a 5bf3 1fbb 8c7d 55bb
00000060: 0eda 923b c156 67ba 7265 8bbb 7550 0a3b
00000070: 352e 663b b710 a43a 6445 4fbb 26bf 0bbb
00000080: c14e 873a 4259 f8bb f52c 2cbb b74a 363a
00000090: 996f c9ba 197d 813a 59d6 a3ba b777 fdbb
000000a0: f83c 383b be41 6bbb 073b 67bb b59c 4b3b
000000b0: 69ea 063c 2916 763b b422 3bbb f846 b3bb
000000c0: 5089 5b39 c757 8ebb f341 1dba a602 04ba
000000d0: e6de 0bba 1a1f f0b9 689e a837 873b 75bb
000000e0: 74b2 6b3a ed7a 2dbb d3e7 08bb 8531 8439
000000f0: 11c8 913b bc65 383b 8691 6cba 7602 56bb
00000100: 2c25 babb 9984 e83a 7361 a83b 1bad bdbb
00000110: aa45 6e3b cdd7 e5bb d014 db3b f90c 9d3a
00000120: 8d37 6fbb ed74 67b9 ad2d 1b3b 453f 93bb
00000130: 4931 1ebb fe43 593a e444 843b 6a2d 743a
00000140: b3c0 e3ba 7b71 1b3a 0a92 0c3b 9e5c 61bb
00000150: 3925 d53a 2a49 4dbb 985d 213b bc57 a6b9
00000160: 8744 c7ba 58cb 8abb 2ed5 453a 9c0e 00bb
00000170: 4567 8638 9f94 aa3b 4c4e e63a 2fe5 79ba
00000180: 90dd 28bb fd9d 3d3b 62a7 6d3a b95c 4ebb
00000190: ede7 f53a 2a9e f7ba 483d 3d3b a4bc 5d3b
000001a0: c4f6 e0ba e167 0a3b e21d 703b b1bb 04bb
000001b0: 124e 52bb 6b18 15bb 522e e53a 0e7f 323b
000001c0: be36 61bb 429d aa3b 4b59 883b 64d4 7bbb
000001d0: 4c0a 793b ca63 84bb 5e0e 703b 6169 9c3b
000001e0: d4af 89bb 632e dc38 a825 883b 29cd a0bb
000001f0: 8e2c 89bb 8ba3 1839 1e6e 853b c42a 4d3b
00000200: f9b2 753b 462f 07bb c95a 67bb 9714 8a3b
00000210: d802 6dbb 5895 943b e3d4 85bb 71cc b4ba
00000220: 4e04 6b3b 1af7 043b f311 2fbb 090d 353b
00000230: 4c09 ce3a e86f 2dbb af12 6ebb 131e 1cba
00000240: 5902 fc3a e090 a33a 5928 ca39 e0e1 563b
00000250: ead9 b4ba f9d4 923a cf05 31bb 6697 643a
00000260: b4b5 4a3a f758 fa3a a388 cd38 cd80 38ba
00000270: f40b 98b9 fe68 d5ba 02ad b2ba 1db2 b43a
00000280: fe44 473b 49e5 df39 baff 8bbb 5218 353b
00000290: 3f42 68bb 3bba 653b 78bb 3bbb c8fe ba3a
000002a0: 25cc 683b 5cc3 3d3b 46a7 9dba f992 8b3b
000002b0: a2eb bcba 9c66 5cbb a735 6cbb 184e 023b
000002c0: 67ad b3b9 c137 103b 2507 7b39 5193 453a
000002d0: 9925 843a c2fb 003b aa4b 94ba b595 373b
000002e0: 91d9 ddba 4ded 643b 3d43 0e3b fae9 33ba
000002f0: 0584 41bb e12e 7abb b3d2 9a3a 0a7d 363b
00000300: b985 933b 04ed 62bb 0f48 99bb 1879 a03b
00000310: 98d0 87bb 2dcd 3f3b 8d58 bdbb 55fb 58bb
00000320: 4d3b 943b fa5c bbba 4c4a 7cbb 0f4a 8a3b
00000330: 59fa 8b3b 4509 de3a 38d4 9cbb fa2e 3dbb
00000340: 2aa2 893b 394f c6bb 4b15 a4bb 4046 8e3b
00000350: 6bdd 84bb ae8d 693b 03ad 90bb fa79 fcbb
00000360: 0de8 af3b 8d5d daba 6fb7 bbbb 3369 a33b
00000370: 86e4 ff3b 51e9 d23a 75c3 a8bb 2984 acbb
00000380: ed86 25bb 9234 993b b54c 923b 8335 ebba
00000390: de47 4d3b 726d 2dbb 9c58 1f3b 6803 893b
000003a0: c2b5 3abb 6a50 673a d46f 963b c95d a6bb
000003b0: b839 afbb 42a4 20ba b0d1 883b 89c5 6f3b
000003c0: 9f2d d2ba 2a61 fb3a 2814 6c3a 2f36 01bb
000003d0: 6aec b63a 065e acba c568 e33a d837 2a3b
000003e0: f51c e7ba 38dd 043b ff4d 973a 1db5 84ba
000003f0: 2645 1ebb dc9b 0dbb 8d4e c63a e607 143b
0.0018666737 0.00016870744 -0.00083750545 0.002424772 -0.001320742 0.0013333127 -0.0022419947 -0.0002545198
0.0013913823 0.0019488601 -0.0009981935 0.00063956407 -0.0011524382 -0.0019592356 -0.0012171504 0.0016311958
0.0024541756 -0.0030517068 -0.0014342669 0.0022554742 -0.0035890774 0.0015357593 -0.0024406526 -0.0032576052
0.0044815606 -0.0008824878 -0.0042540366 0.0021105085 0.0035122756 0.0012517188 -0.0031627053 -0.002132365
0.0010323153 -0.0075789997 -0.0026271914 0.00069538824 -0.0015368342 0.0009879201 -0.0012499794 -0.0077352184
0.0028112512 -0.003589734 -0.0035282986 0.0031068746 0.008234599 0.003754983 -0.002855462 -0.0054711066
0.0002093662 -0.00434396 -0.0005998902 -0.0005035795 -0.00053356437 -0.0004579954 2.0100924e-05 -0.0037419514
0.000899113 -0.0026470975 -0.002089013 0.00025213897 0.0044488986 0.002813681 -0.000902437 -0.0032655275
-0.0056807008 0.0017739712 0.00513857 -0.005788458 0.003635744 -0.007014251 0.0066858307 0.0011982016
-0.0036501617 -0.00022073435 0.0023678348 -0.0044936263 -0.0024138263 0.00082880247 0.0040365327 0.00093146286
-0.0017376154 0.00059296907 0.002144935 -0.003438748 0.0016261704 -0.0031324127 0.0024622437 -0.00031727355
-0.0015202918 -0.0042356662 0.000754672 -0.0019539958 6.4088534e-05 0.0052057053 0.0017570942 -0.0009532747
-0.0025766827 0.002893328 0.00090657745 -0.0031488372 0.0018761136 -0.0018891741 0.0028875638 0.0033834362
-0.0017163386 0.0021119046 0.0036638905 -0.0020253474 -0.003208999 -0.002275015 0.0017485118 0.0027236375
-0.0034364904 0.005206735 0.004161035 -0.0038426155 0.0038000522 -0.004040216 0.0036629657 0.0047733043
-0.0042018685 0.00010499058 0.0041548796 -0.0049072695 -0.0041862195 0.00014556774 0.004071965 0.0031306008
0.003749071 -0.0020627542 -0.0035301915 0.0042138803 -0.0036165025 0.0045344047 -0.004084216 -0.0013793838
0.003586072 0.0020288886 -0.002671358 0.0027626178 0.0015719323 -0.0026464406 -0.0036327054 -0.0005955409
0.0019226774 0.0012479089 0.00038558504 0.003278844 -0.0013797854 0.0011202387 -0.0027011519 0.000872007
0.00077327644 0.00191 9.800612e-05 -0.0007038236 -0.00029000605 -0.00162819 -0.0013631883 0.0013785992
0.0030406113 0.00042704705 -0.0042724283 0.0027632904 -0.0035439876 0.003505363 -0.0028645676 0.0014266605
0.003552207 0.0028955555 -0.0012028001 0.004259464 -0.0014413486 -0.0033630496 -0.0036042721 0.0019882973
-0.00034270735 0.0022005888 0.00023939887 0.00075369055 0.0010082006 0.001968131 -0.0011314054 0.0028012816
-0.0016925802 0.0034931481 0.0021707558 -0.00068631733 -0.0029528153 -0.0038174915 0.0011812061 0.0027845525
0.004502025 -0.0034626136 -0.0046777795 0.004897248 -0.0041447394 0.0029266581 -0.0057783783 -0.003310879
0.0045236708 -0.0014294677 -0.0038496433 0.0042202543 0.004271787 0.0016940018 -0.0047860406 -0.0028867112
0.0042002397 -0.0060519245 -0.005007421 0.0043418705 -0.0040547154 0.0035637426 -0.004415156 -0.0077049704
0.005368239 -0.001665996 -0.005728654 0.004986906 0.0078092245 0.0016091262 -0.0051502534 -0.005264778
-0.0025257424 0.0046754563 0.0044647106 -0.0017945025 0.0031323354 -0.002646294 0.002431429 0.0041813143
-0.0028489684 0.00088239333 0.0045909677 -0.005077098 -0.005347457 -0.0006127992 0.0041753873 0.0036586246
-0.0016035325 0.0019178737 0.0009005689 -0.0019716134 0.0013955955 -0.001315058 0.0017349949 0.0025973227
-0.0017632531 0.0020273458 0.001154363 -0.0010124777 -0.0024150102 -0.0021607792 0.0015129611 0.0022587716

base_model.model.bert.encoder.layer.1.attention.self.query.lora_A.weight f4 [16, 384]
00000000: 6730 50bd 25b1 a4bc abdb 423d d716 d73c
00000010: 8a0c 26bc 3540 5cbd f151 3fbd 5d85 733b
00000020: 434b 1abd f700 7a3c 6102 2b3d 67ff a5bb
00000030: dba0 13bc 8e91 383d be44 35bd bf16 f53c
00000040: d9cf 3ebc 64ae 573c a2f5 43bd 3fa7 f9bc
00000050: 61c7 8ebc d6b0 b13c 3f30 553d f249 18bd
00000060: 6b99 c33a 2a88 0c3d 5aa0 5fbc 0956 4e3d
00000070: a353 1abd 1f58 0d3b e784 babc fcb7 aa3a
00000080: 11bd c43c af2b 3d3d 6612 203d 4f96 d53c
00000090: b771 7cbc 2c3d bfbc 997c 223d 3734 3ebd
000000a0: e7cc 37bd d729 863c 076d f63b beb5 213d
000000b0: 0cca 5abd e21a 963c 4df1 a73b 1f0a 57bd
000000c0: fd21 37bd 81cb aebc 27f2 f73c 6987 df3c
000000d0: b5e1 cf3c 359f 0d3d 87de 4f3c 841f 51bc
000000e0: 119f 4cbd 92cc c0bc 79cc 35bd 8562 25bd
000000f0: 389f 7ebb d3a9 65bc 40b1 9d3b 45f3 dbba
00000100: db5e 2abd c76e e9bc bd0a 663c 0fc0 023d
00000110: 8780 243a fc12 df3c 059a e0bc b236 1fbd
00000120: 55b4 2abd d130 383b 2a68 49bd 86db 3b3d
00000130: 2145 de3b d84f 0fbd 5035 00bd 6e85 17bd
00000140: 3499 56bc ff82 a43c b173 293d 7370 1bbd
00000150: 760b 0a3d 9278 8ebc 32cc 0c3d 3d66 eabb
00000160: c9d7 73bb 57d3 9d3c fbb6 9c3c 2e74 24bd
00000170: f2dc cdbb 3966 fd3c 78af 8d3c f45f 283d
00000180: 980c a4bc 0abc 043d 03fb 033d c615 cbbc
00000190: 0d93 22bd 3787 2c3d bd96 6a3c 815a 563b
000001a0: 9bb3 483c 437d 2bbd c1de 00bd 0c33 363d
000001b0: 893f 363b da87 a23c 78ff e2bc 85ff 393c
000001c0: cd0c 233d 2185 333d 5435 0fbd acbf 2dbc
000001d0: 6f57 3d3d 51ff e9bb 7acc 043d 92f9 51bd
000001e0: 76cf 26bc 08b2 2ebd 196a 30bd d1aa dabc
000001f0: 32ba b53c 57df 013d f1c2 0bbd 9713 143d
00000200: 42a8 003d 3f11 bd3b 998c 21bd 7e75 bd3c
00000210: 7493 1a3d e313 abbc 0565 503d 3710 4e3c
00000220: af2e 563c dfe6 89bb e079 923c 711d bfbc
00000230: f69a 90bc ecf5 443d ff00 3f3d 5e32 0ebd
00000240: d2a4 363d 0cb4 6f3c babc bdbc c491 553d
00000250: 5f0d 46bd 9f4b aebc 9432 e5bc af2f 72bb
00000260: 0bbb 4ebd 39ed 57bc 37aa 52bd c7fe d53c
00000270: d3b5 d13c 17f5 413d c2a9 5e3c 1c82 d1bc
00000280: d610 043d 0881 83bb 8cf6 4bbd e3dc 033d
00000290: e250 853c ab34 53bb 4aff 913b 1d3b 9d3c
000002a0: bcc2 96bc 7038 03bd e234 06bc 116e 203d
000002b0: b861 b03a 9a58 4d3d 51cb 1abd 3fd7 1b3a
000002c0: 6990 e93b 04c2 f33c c5a0 b2bb 848c edbc
000002d0: eb4a a43b 5b30 d9bb 1346 00bd cf0b ea3c
000002e0: a9a3 363d c79e 253d 3d20 25bd 69b3 0a3c
000002f0: 21aa 1d3d 0e7c eb3c 5ce5 f7bc 6f04 39bd
00000300: e581 5a3c 2141 e2bc 3cec f33c bfca 1cbd
00000310: 5445 5fbb a1a8 2ebd 8788 293d 7011 193d
00000320: 8cf6 083d a179 bb3b 6e43 e63b e439 b8bc
00000330: 3b74 833b 953f af3c 1a3d 613c 194b f5bc
00000340: e264 2bbd f97a a53c b589 f33c 83cc 42bd
00000350: 8ccc ff3b df88 d13c 17cc a4bc 7455 0ebd
00000360: d0b7 0cbb 1639 4ebd 51a2 50bd 7eaf bd3c
00000370: 182e e1bc 1750 303d 1b95 003d 047c e7bc
00000380: 45d7 13bd 78ce 84bc 838f 5abc b277 4bbc
00000390: 77d4 4bbc 2f5d 0f3d 84b3 2e3d c540 e8bc
000003a0: 8a28 03bc 2a8c 833c 2b1a db3c 7f4b a5bc
000003b0: 9e26 0e3d b237 c2bc c29f 953c be9f 17bd
000003c0: f588 6f3c f711 2fbd 3084 db3c 0b6c fd38
000003d0: d7b3 afbb bf4e 2f3d 3d65 c7bc 9b77 16bd
000003e0: 0112 c6bc d542 0d3d 6a77 243d cc85 44bd
000003f0: 9097 06bd b3b3 2cbd dcef 35bd 8613 8f3c
-0.05082741 -0.020104 0.047572773 0.026256008 -0.0101348255 -0.05377217 -0.046709005 0.0037158348
-0.03766943 0.015259019 0.041750316 -0.0050658467 -0.009010519 0.045060687 -0.04425501 0.029918073
-0.011646234 0.013164137 -0.047841676 -0.030475257 -0.017429056 0.021690767 0.052047964 -0.037179895
0.0014923041 0.034309544 -0.013649071 0.05037502 -0.03767742 0.0021567417 -0.02276845 0.0013024802
0.024015935 0.046184238 0.039080046 0.02607265 -0.015407971 -0.023344599 0.039669607 -0.046436515
-0.044873144 0.016377373 0.0075203213 0.039479963 -0.053415343 0.018323366 0.005125201 -0.052499887
-0.044710148 -0.021337273 0.030266834 0.027286248 0.02537618 0.03457566 0.012687332 -0.012763862
-0.049956385 -0.023535047 -0.044384453 -0.04037716 -0.0038852226 -0.01401754 0.0048123896 -0.0016780874
-0.041594367 -0.028495206 0.014040646 0.031921443 0.00062752556 0.027230732 -0.027417192 -0.03887052
-0.041675884 0.0028105269 -0.049171604 0.04586365 0.006783143 -0.034988254 -0.031300843 -0.036992483
-0.01309805 0.020081995 0.041370098 -0.037949037 0.033702336 -0.017391477 0.034374423 -0.007153301
-0.0037207475 0.019265814 0.01913022 -0.04014986 -0.0062824422 0.030932533 0.017295584 0.041107133
-0.020025536 0.03240589 0.032221805 -0.024790656 -0.03969102 0.04212114 0.014318165 0.0032707753
0.0122498525 -0.041867506 -0.031462435 0.044482276 0.0027808866 0.01984017 -0.027709708 0.0113524245
0.03980713 0.043828133 -0.034962967 -0.01060478 0.04622596 -0.007141032 0.032421567 -0.0512634
-0.0101812985 -0.042650253 -0.043069933 -0.02669278 0.022183511 0.031707134 -0.034121457 0.036151495
0.031410463 0.005769878 -0.039440725 0.023127314 0.03773828 -0.020883506 0.05087759 0.012577108
0.013072654 -0.00420843 0.01788038 -0.023329468 -0.017652016 0.048086092 0.04663181 -0.034716003
0.04459078 0.014630329 -0.02316128 0.052140966 -0.048352595 -0.021276293 -0.02797822 -0.0036954691
-0.050471347 -0.013179117 -0.05143186 0.026122464 0.025599396 0.047352877 0.013590278 -0.025574736
0.03224262 -0.0040131845 -0.049795672 0.032193076 0.01627392 -0.0032227437 0.0044554817 0.019193226
-0.018403403 -0.032036245 -0.008191319 0.039167468 0.0013456857 0.050133325 -0.037791554 0.0005944855
0.0071278107 0.0297556 -0.005451294 -0.028997667 0.0050138137 -0.006628079 -0.031316828 0.028570084
0.044589672 0.040434625 -0.040313948 0.008465626 0.038492326 0.028745677 -0.030260734 -0.045170244
0.013336633 -0.027618947 0.029775731 -0.03827929 -0.0034068422 -0.042641286 0.04138997 0.037370145
0.03343825 0.0057212864 0.007027081 -0.022488542 0.0040116585 0.021392623 0.013747478 -0.029943036
-0.041844256 0.02020024 0.02972875 -0.04755832 0.0078063663 0.02557796 -0.020116849 -0.034749463
-0.0021471865 -0.05034741 -0.050936047 0.02315497 -0.0274878 0.04304513 0.031392198 -0.028257377
-0.03609397 -0.016211733 -0.01333988 -0.012418674 -0.012440792 0.035000976 0.04265167 -0.028351197
-0.008005271 0.016058046 0.026745876 -0.0201776 0.034704797 -0.023708198 0.018264655 -0.037017576
0.014620055 -0.042741742 0.02679643 0.00012084105 -0.0053620148 0.042799708 -0.024340266 -0.03673516
-0.024178507 0.034487564 0.040152945 -0.04797916 -0.032859385 -0.042163562 -0.0444182 0.017465364

base_model.model.bert.encoder.layer.1.attention.self.query.lora_B.weight f4 [384, 16]
00000000: 6a36 2abb 7a7d 383b a2cc 4438 2b17 aa3b
00000010: 0528 c63b b54c 9dba b4f7 d73b 1d6b e2ba
00000020: d588 8fbb fa51 ab3b d3bd 923b e39a c8bb
00000030: aec6 48ba 45e9 6a3b 076a 8a3b a3d9 13bb
00000040: 72af eeba 43e0 e73a 7d7d c8b9 e999 3e39
00000050: bdee a93a 38bc 84ba 68da b13a e76f bfba
00000060: 6195 bcba 4280 8c3a 1348 9d3a d44f 9eba
00000070: 55b9 963a a425 f53a 909b a73a e7ac 3739
00000080: 8f9b 143b 508f 443a e4a9 f73a 4f8b 1d3a
00000090: b548 bcb8 cb56 f43a 4fd8 f93a 6088 61ba
000000a0: 32ab 723a 4d3f aa39 8644 4c38 9695 1b3a
000000b0: 8754 8bbb 74f3 f6ba d315 0aba 2e68 71bb
000000c0: d934 07bb cf03 293a 9bf5 9f39 f013 8b3a
000000d0: e8a3 1f3b 3c73 d0ba faac 9c3b 4673 bdb8
000000e0: 60bf 57bb 4705 883a 2bd9 3e3a 8d5c d0ba
000000f0: cbfe 19ba 9f30 483b 9103 ae3b 37d3 b1ba
00000100: 0014 8838 3898 d43a dcb9 193b 5af2 3e3b
00000110: e9d8 463b 1c76 a7ba 2a98 903b e6df eeba
00000120: 781a 65bb 9214 253b d239 f43a a090 49bb
00000130: 2f97 10bb 9e79 bb3a 91b6 8a3b 04ea 56bb
00000140: 45a0 0dbb 23c9 cc39 b4f6 cc38 bc85 8b3a
00000150: 6e29 283b 085e 0bbb 0555 a53b 8a8f 8839
00000160: 73b3 83bb d60e 7f3a e43d 1c3a 8d01 f7ba
00000170: e6c7 02ba 7174 563b aa95 c83b b0c5 b1ba
00000180: e2c5 18bb d50f 22b9 2223 8d39 abcf c4b9
00000190: 1377 d43a d4f0 15bb 3a39 913b 2d55 5b3a
000001a0: 42b8 fbba 3fab 13b9 fac1 5db9 91b9 84b9
000001b0: 9f13 383a 0d69 4a3b 38bd 8e3b 4431 f8b9
000001c0: 8a81 28bb 882f b03a 72bf d534 b440 ad3a
000001d0: ee44 453b cf25 6aba e66e 913b 52d5 7dba
000001e0: f619 8ebb 78fd e63a bc6d cf3a 9001 11bb
000001f0: 8c25 41ba 92ea 5d3b fe83 863b 6e1f a6ba
00000200: ecae 6d3a 7699 e139 4ae1 583b ee68 aa3a
00000210: 5d40 a73a 4e02 60ba 3ecb 813b d142 9bb9
00000220: 8285 77ba 7600 e739 1daf cd39 67b9 8bba
00000230: 1435 49ba 683a 7fb9 b4dc 2b3b e5a6 d5ba
00000240: 6470 de3a f7c2 063b 115c 393b 29a8 363b
00000250: f959 d93a e86c 7e3b d4e4 d83a aec4 45bb
00000260: 8029 40b9 5344 153b acfa 083b d44c e1ba
00000270: baed b2bb a863 85ba e04e a4b8 fba7 95bb
00000280: 8860 cc3a 83b6 f839 690d 62ba e0df 66b9
00000290: 3053 2bba 52da 353b 0465 66bb 029d 81ba
000002a0: 9326 983a 53bc 1e37 df95 e738 133f 2739
000002b0: 20ed 21b9 6656 03ba 9f35 24bb fbd7 043a
000002c0: ceed ed3a fe47 dcba 3311 50b7 fe06 e3ba
000002d0: 9b1a 20bb 8939 b13a 3c12 5bbb 3165 5139
000002e0: fc05 183b 3652 f2ba 752c 03bb 51b4 023b
000002f0: 5894 16ba 49cd 13bb 11e6 10bb 0484 383a
00000300: c13d 45bb 7954 b1ba 3fd7 8ebb 1c8d 25bb
00000310: b76b 07bb 8a5b 03bb eb3b 95bb 96a2 c83a
00000320: 76e8 8bb9 94bd c6ba 506b a0ba 7ed0 853a
00000330: a83f 2e3b 3e6c 033b a364 07bb a0b8 223b
00000340: f175 153b c211 91bb 8390 b9ba e596 45bb
00000350: b5be 6dbb 4b06 153a bcdc 88bb 0fb1 843b
00000360: b900 2c3b 354c 55bb d07f 68bb 671d 513b
00000370: 3ad8 ce3a 294e 32bb cc46 2dbb 3eae 6a3b
00000380: 68af e2ba 3c01 87b9 5d68 b73a 9b37 b539
00000390: de0b 6d3a 8bd6 49bb b941 553b f515 ae39
000003a0: b268 f9ba 1f8a 2a38 1940 d4b9 fd7d f3b9
000003b0: 0b0d ed39 8321 073b e785 2a3b 7653 25bb
000003c0: 4ebb 05bb 4241 a1ba 370b 1ebb e240 16bb
000003d0: 16fe d9ba 1ce5 41ba 8d55 8fbb 32b0 143b
000003e0: 655b df39 e886 aeba 406b 8cba 3d67 923a
000003f0: aacf 973b 8207 553a 068c 9eba 1966 8f3b
-0.0025972375 0.0028150962 4.692062e-05 0.00519075 0.006047251 -0.001200101 0.006590808 -0.0017274354
-0.0043803253 0.005228278 0.004478195 -0.0061219796 -0.0007659 0.0035844606 0.004224065 -0.0022560142
-0.0018210246 0.0017690737 -0.0003824047 0.00018177148 0.0012964826 -0.0010126894 0.0013569118 -0.0014605493
-0.001438778 0.0010719376 0.0011999629 -0.0012078234 0.0011499325 0.0018703234 0.001278745 0.00017516651
0.0022675728 0.0007498162 0.0018895236 0.00060098333 -8.978081e-05 0.0018641589 0.0019061657 -0.00086033903
0.00092570775 0.0003247209 4.8701208e-05 0.0005935071 -0.00425202 -0.0018840865 -0.0005267534 -0.0036835778
-0.0020630865 0.0006447406 0.00030509834 0.00106108 0.002435917 -0.0015903483 0.0047813626 -9.033694e-05
-0.0032920465 0.0010377549 0.00072802854 -0.0015896723 -0.0005874454 0.0030546559 0.0053104837 -0.0013566975
6.488711e-05 0.0016219681 0.0023456728 0.0029136152 0.003034169 -0.0012776288 0.0044126706 -0.0018224686
-0.0034958404 0.0025189263 0.0018632954 -0.003075637 -0.0022062769 0.0014303213 0.0042331894 -0.0032793293
-0.002161042 0.0003905977 9.77343e-05 0.0010644714 0.002565946 -0.0021265764 0.0050455355 0.00026046886
-0.0040191947 0.0009729689 0.000596015 -0.0018845067 -0.00049888936 0.0032723213 0.006121357 -0.0013562944
-0.0023311307 -0.00015455422 0.00026919792 -0.00037538758 0.0016209803 -0.002287914 0.0044318708 0.0008366879
-0.0019204693 -0.00014082807 -0.00021148464 -0.0002531526 0.0007021967 0.003088537 0.0043560527 -0.00047338952
-0.0025711977 0.00134419 3.9813636e-07 0.0013218136 0.00301009 -0.00089320255 0.004438269 -0.0009682971
-0.004336591 0.0017623147 0.001582555 -0.0022126175 -0.00073679606 0.0033861739 0.00410509 -0.0012674162
0.0009066898 0.00043029682 0.0033093267 0.0013001242 0.0012760271 -0.00085452653 0.003960996 -0.00029613686
-0.00094421965 0.00044060097 0.00039231117 -0.0010660113 -0.0007675451 -0.00024340453 0.0026224079 -0.0016300349
0.0016970751 0.0020562985 0.0028283636 0.0027871227 0.00165826 0.0038822237 0.0016547688 -0.0030177045
-0.00018326007 0.002277632 0.0020901365 -0.0017189034 -0.005460468 -0.0010176795 -7.834821e-05 -0.004567144
0.0015592733 0.00047438228 -0.0008623214 -0.00022017909 -0.0006535528 0.0027748537 -0.0035155425 -0.0009888711
0.0011608176 9.4613815e-06 0.00011042854 0.00015949858 -0.00015442492 -0.0005010128 -0.0025056375 0.0005067584
0.0018152536 -0.0016806123 -1.2401771e-05 -0.001732081 -0.002442992 0.0013521175 -0.0033427617 0.0001996949
0.0023196926 -0.0018487636 -0.0020015512 0.0019943903 -0.0005744151 -0.002255278 -0.0022109787 0.0007038715
-0.0030096623 -0.0013529203 -0.0043591554 -0.002526111 -0.0020663568 -0.0020043575 -0.004554262 0.0015307243
-0.00026685343 -0.00151627 -0.0012239013 0.001020923 0.0026588235 0.002005353 -0.002065935 0.0024829283
0.0022805894 -0.0044271657 -0.0014157448 -0.0030149755 -0.0036277 0.00056848367 -0.004176704 0.0040494273
0.0026245548 -0.0032546644 -0.0035476573 0.0031908394 0.0015780993 -0.0027207232 -0.0026439903 0.0035809423
-0.0017294707 -0.00025750126 0.0013992895 0.0003456444 0.0009042601 -0.0030798044 0.0032540394 0.00033204225
-0.0019028394 4.0659794e-05 -0.00040483547 -0.0004644244 0.0004521388 0.002061934 0.0026019753 -0.0025226749
-0.0020405832 -0.0012302774 -0.0024115571 -0.0022926857 -0.001663151 -0.00073965057 -0.004374212 0.0022688028
0.0004260197 -0.0013315352 -0.0010713115 0.0011169683 0.00463291 0.0008126424 -0.0012096174 0.0043761847

base_model.model.bert.encoder.layer.1.attention.self.value.lora_A.weight f4 [16, 384]
00000000: 4fac 32bd 5115 4ebd 0bdc 293c 4b8a 9dbc
00000010: 1178 1cbd a580 5c3d 2240 59bc 08b8 113d
00000020: 46bd 363c 4930 483d e9c6 213d 1b8d 36bd
00000030: 2b62 af3c 497e 58bc 98f1 ad3c 6c4b 0a3d
00000040: 40a3 a13a 0949 2e3d 93a5 bf39 7623 1ebd
00000050: 2e63 9abc 9494 0c3d eeae 35bc 9ef6 43bc
00000060: 8e99 cabc 390c 9cbc f7ef 223d 7172 3f3c
00000070: ae71 49bc 0132 4e3d 0a75 9f3c 4eee ac3b
00000080: 461c edbc 39fa 973a 31b8 203d 26aa 343d
00000090: 372a 5d3d 1284 4dbd 63c6 07bb 4192 cfbb
000000a0: 4df7 45bd 4823 d83c 2e67 093b 75b2 523d
000000b0: 241b a0bc b744 1dbd 14cd 2f3d 49df 123c
000000c0: 51fb eb3c c60e 2ebd 067b 3ebd a828 5b3d
000000d0: 55c7 473d 75ab 263d 7dc2 aabb ceaa 49bd
000000e0: 100e 883c e179 e03b 3290 25bd 1e9c 5bba
000000f0: ec2a 2e3d b456 26bc 21fb 44bc cce6 32bd
00000100: 5024 833c 14d1 16bd 01e9 163b a209 2a3d
00000110: 726f d43c d8e5 c2bb d4c5 8b3c 0cab e63c
00000120: be2d 0ebd dc76 043d b125 e33b cc27 bd3c
00000130: de8a adbc e6aa 2ebd 7295 f03c ff1f 113c
00000140: 68a0 473c b5e9 8e3c fc17 bbbb bd81 2e3d
00000150: f0ee 153d 44d9 e3bb a91b 813c cd05 1d3d
00000160: d9e1 893c 32f4 03bd 4ea4 06bd 801c eabb
00000170: e980 c53c 5c33 2e3d ca8b febc 2942 46bd
00000180: 77ec af3c 3e68 4f3d e6d6 c5bc 592e 493d
00000190: 3ca8 3abb c8e4 fbbb ee8d 313d ab35 103d
000001a0: 939b 39bd 9635 ae3c eadb 47bd 7089 13bc
000001b0: 09a7 3bbd e11d febc 01da 23bd 5543 333d
000001c0: fd16 f1bc 0444 003d 1358 55bd 7645 2bbd
000001d0: ae00 2fbc ac43 edbc 5977 3bbd 27b4 44bd
000001e0: 6cfe 343d 01ac 193d 9edc dd3b 533d 933b
000001f0: 1af0 5bbd 3d4f 1cbd f5ca 813c 7520 093d
00000200: 93b3 1a3c 5a3f 163d be5a 253d 287d dcbc
00000210: 32df 14bd 27f4 2d39 43ec c13c c7ef 083c
00000220: dbf0 dd3b d6e2 90bc 565e 4c3d d643 de3b
00000230: 24bc b13c dcb4 053d 9e58 b3bc 85ee af3c
00000240: fbb5 2abd d053 3dbd 0158 47bd 3c04 88bc
00000250: 9364 49bb 2727 b83b 6505 903b fc5b 02bc
00000260: 6f2a 053c 0d05 79bc cf2f 483d 177e 1bbd
00000270: fc03 013c 2723 3a3d 2590 503d 42c4 e9bc
00000280: a448 08bd 38d9 0dbd 3ccd 903c b6ea 9cbc
00000290: a0cd 8abc 6f11 8e3c 0deb 86bc fe43 b8bc
000002a0: 6b54 5bbc 8854 74bc 346b 60bd 80e8 1cbd
000002b0: e0d0 9abc 04a7 27bd 5bca 4e3d 01cb 96bb
000002c0: 34e1 be3c 7b82 4dbc b03e 023d 4d45 35bd
000002d0: 7bd9 053a 7283 e63c 6adf d03c 76cf db3b
000002e0: f0b0 033d 8f04 1bbb 8560 633c 4409 33bb
000002f0: fcfe 0bbc 6a31 d4bc c02a 51bd c104 983c
00000300: 418b 23bc d731 26bd b1a6 483d 326c a5bc
00000310: 787a 1d3c 915a f9bc c015 dabc 05e6 06bd
00000320: 75e4 08bb b57a a13c 47f1 1e3d adee 68bd
00000330: ee48 1f3d abb0 68bc 3f01 adbb b91a 2b3c
00000340: 4f94 2cbd 46d8 f43b c3bc 303d ba8f a03b
00000350: 1ca1 00bd d53e 313d 40c9 893c 9b06 9bbb
00000360: ac2b 743c 9089 b13c af16 14bd e960 143d
00000370: 7eb7 df3c 7b45 263c 6123 193d f6b9 cebc
00000380: 26a5 9bbb c873 2f3d 780e b5bc 31da dbbc
00000390: 1499 fb3c 5226 da3c f2cd 14bd 64b2 063c
000003a0: c7a9 3d3d b62a 26bd 5424 1f3d 9ae2 cebc
000003b0: 92f6 32bd f889 943c ee72 b2bc 801f 2a3c
000003c0: e5e6 453c dbea 2a3d dd25 1b3d c0a0 b43c
000003d0: 3dde b53c e02c e4bc b714 3ebd d0c9 1a3d
000003e0: c0e1 e8bb 1150 593c d8e2 4c3d 51c3 753b
000003f0: 16dc c6bc 184a 5c3c 61dc d63c e9c3 ee3c
-0.043621358 -0.050313298 0.010367404 -0.019230982 -0.03820044 0.053833622 -0.013259919 0.035575897
0.011153525 0.048874173 0.039496336 -0.044568162 0.021409115 -0.0132137025 0.021233365 0.033763334
0.0012331977 0.04255012 0.0003655372 -0.038608037 -0.01884612 0.034321383 -0.01108907 -0.011960654
-0.024731424 -0.019048797 0.03977963 0.011685 -0.01229517 0.050340656 0.019464988 0.0052774316
-0.028944146 0.0011594958 0.03923816 0.04410758 0.053995337 -0.05017478 -0.0020717613 -0.0063345735
-0.048331548 0.02638401 0.002096604 0.05143972 -0.019544192 -0.03839561 0.042920187 0.008964368
0.02880636 -0.042494558 -0.046504043 0.05350557 0.048774082 0.040690858 -0.005211173 -0.049235158
0.016608268 0.0068504666 -0.04042072 -0.000837745 0.042521402 -0.010152508 -0.012022764 -0.043677136
0.016008526 -0.036820486 0.0023027065 0.041513093 0.025932048 -0.0059478097 0.017062105 0.028157733
-0.034711592 0.032339916 0.0069319834 0.023090266 -0.021184381 -0.04264345 0.029368136 0.008857726
0.01218424 0.017445425 -0.0057096463 0.042604197 0.03660482 -0.0069533903 0.01576026 0.03833561
0.016831325 -0.032215305 -0.032871537 -0.0071445107 0.02410932 0.04252945 -0.031072516 -0.04840294
0.02147506 0.050636522 -0.024150323 0.049116466 -0.0028481623 -0.007687185 0.043348245 0.03520743
-0.045314383 0.021265786 -0.04879371 -0.009004936 -0.045813594 -0.031020107 -0.040002827 0.043765385
-0.029429907 0.031314865 -0.052085947 -0.04181429 -0.010681314 -0.028962933 -0.045768116 -0.04802337
0.044187948 0.03751755 0.0067706844 0.0044933944 -0.053695776 -0.038161505 0.015843848 0.03347822
0.009442228 0.03668151 0.04036974 -0.026915148 -0.036345668 0.0001658952 0.023672229 0.008357949
0.006773097 -0.017686289 0.049894653 0.006782989 0.021696158 0.032643184 -0.021892842 0.02147604
-0.041677456 -0.046222508 -0.04866791 -0.016603582 -0.0030730113 0.0056199017 0.0043951743 -0.007956501
0.008127793 -0.015198958 0.04887372 -0.037962046 0.007874485 0.04544368 0.050918717 -0.028535966
-0.0332724 -0.034630984 0.017675988 -0.019154888 -0.016943753 0.017342297 -0.016469503 -0.022493359
-0.013386826 -0.014912732 -0.054789737 -0.038307667 -0.018898427 -0.040930763 0.05048595 -0.0046018367
0.023300745 -0.012543316 0.031798065 -0.044255544 0.00051059545 0.02813885 0.025497157 0.006708081
0.032151163 -0.002365384 0.0138779925 -0.0027318755 -0.00854468 -0.025902469 -0.05106616 0.018556954
-0.009981931 -0.040574875 0.048987094 -0.020193193 0.009611718 -0.030438693 -0.0266217 -0.032934207
-0.0020888124 0.019711832 0.03880432 -0.056868244 0.03888791 -0.014202277 -0.0052796896 0.010443383
-0.042133626 0.007472071 0.043148767 0.004899946 -0.031403646 0.043272812 0.016819596 -0.004731012
0.01490299 0.02167204 -0.036154445 0.036225233 0.027309176 0.010148401 0.037387256 -0.025235157
-0.004749912 0.042835027 -0.022101626 -0.02683744 0.030712642 0.0266296 -0.036329217 0.008221243
0.04630449 -0.040568076 0.038853005 -0.025254536 -0.04369218 0.018132195 -0.021783318 0.010383487
0.012078975 0.041727882 0.037877906 0.022049308 0.022200698 -0.02785343 -0.046406474 0.03779012
-0.0071069896 0.013263718 0.050021023 0.003750045 -0.024274867 0.0134454 0.026228132 0.029146152
