lora_crossencoder_no_instruction_21/checkpoint-389/adapter_model.safetensors (safetensors, 594924 bytes, 25 tensors)

base_model.model.bert.encoder.layer.0.attention.self.query.lora_A.weight f4 [16, 384]
0	0xbd4fc705	-0.05072691
1	0xbd3574ee	-0.044300966
2	0xbbe12117	-0.0068703997
3	0x3d22bfef	0.039733823
4	0x3d312e7a	0.043257214
5	0xbd244522	-0.040104993
6	0x3ac20116	0.0014801349
7	0xbd4fb41f	-0.050708886
8	0xbcd8110b	-0.026375314
9	0xbcfefb5e	-0.03112572
10	0xbc8fb720	-0.017543375
11	0x3c0742b1	0.008255647
12	0xbc940197	-0.018067164
13	0x3b4fce25	0.0031708565
14	0x3d40522f	0.046953376
15	0x3d28f4f1	0.04124922
16	0xbd1e197f	-0.038598534
17	0xbd2e6460	-0.042576194
18	0xbca6775f	-0.020320592
19	0xbcea5dad	-0.028609121
20	0x3d16ddff	0.036832806
21	0x3d3ed0d7	0.046585884
22	0x3d1fc61b	0.039007287
23	0x3d12ec18	0.035869688
24	0x3d1eda40	0.03878236
25	0x3caa1868	0.020763591
26	0x3bcdcacd	0.0062802793
27	0x3a74881b	0.00093281426
28	0xbd418ad9	-0.047251556
29	0x3d005436	0.03133031
30	0x3cf93b95	0.030423919
31	0xbd068d40	-0.03284955
32	0xbbf3ec46	-0.0074439375
33	0x3a009b42	0.0004905948
34	0xbcdc1aa0	-0.026868165
35	0xbc625f11	-0.013816611
36	0x3c8be46f	0.017076699
37	0xbcc9a934	-0.024616815
38	0x3d3c41cd	0.04596119
39	0xbd1f9975	-0.038964707
40	0xbb167b4d	-0.0022961677
41	0xbbc4b9d6	-0.0060035987
42	0x3d4846c7	0.048895624
43	0x3d333503	0.043751728
44	0x3cf630b3	0.030052518
45	0x3bfb76c5	0.0076740705
46	0x3c9684aa	0.018373806
47	0x3cbfca22	0.023411814
48	0xbcd0de92	-0.025496755
49	0x3d4e8182	0.050416477
50	0xbd05fc99	-0.0327116
51	0x3d634805	0.055488605
52	0x3d32ad0d	0.043622065
53	0x3cfa5fc6	0.030563246
54	0xbcc3db07	-0.023908151
55	0xbc585941	-0.013204874
56	0x3d32f4d5	0.04369052
57	0xbc39b1ca	-0.011333892
58	0x3d39ccb4	0.045361236
59	0x3d451bfc	0.04812239
60	0x3ce43869	0.02785893
61	0x3cf60b58	0.030034706
62	0xbd4f2b95	-0.050578672
63	0xbd049973	-0.032372903
64	0x3d472b50	0.04862529
65	0x3c8f7aef	0.017514674
66	0xbd554501	-0.05206776
67	0xbd389197	-0.04506072
68	0x3c89949f	0.0167945
69	0x3cd9b97d	0.026577706
70	0x3d36c1e8	0.044618517
71	0x3d1dab89	0.038493667
72	0xbd3d72f6	-0.046252213
73	0xbccd6e05	-0.025076875
74	0xbbd1145a	-0.0063806
75	0xbd58a97f	-0.05289602
76	0xbcf0172c	-0.029307924
77	0x3d1257e1	0.03572834
78	0x3c9af966	0.01891775
79	0x3d212ee2	0.03935135
80	0xbd253905	-0.04033758
81	0xbd314daf	-0.043286975
82	0x3cc17e8e	0.023619916
83	0xbd3de96b	-0.046365183
84	0x3cf4508a	0.02982356
85	0xbcc408b2	-0.023929927
86	0x3bfc74c6	0.00770435
87	0xbd1173f2	-0.035510965
88	0xbcfe2b4f	-0.03102651
89	0xbd342eda	-0.043989994
90	0x3c8a55b1	0.016886564
91	0x3ceb3a73	0.028714394
92	0xbd51b7ea	-0.051200785
93	0x3d46b2d8	0.048510402
94	0x3c9e9c9d	0.019361788
95	0xbd2e5b8c	-0.042567775
96	0x3c79ca92	0.01524605
97	0xbd17f806	-0.037101768
98	0xbc6229f0	-0.013803944
99	0x3c17c044	0.009262148
100	0xba4f15f3	-0.0007899694
101	0x3c493eaa	0.012283007
102	0x3c602819	0.013681435
103	0xbcbe4be2	-0.023229543
104	0xbcd08f13	-0.025458848
105	0x3d0d736a	0.034533896
106	0x3c1cd43b	0.009572084
107	0x3baa9c02	0.005206586
108	0xbc71c51a	-0.014756465
109	0x3d331059	0.043716762
110	0xb9d194df	-0.00039974504
111	0xbcd64950	-0.026158005
112	0x3d4926cd	0.04910927
113	0xbc0ef781	-0.008726002
114	0xbc9e2bb5	-0.01930795
115	0xbc4f269b	-0.012643482
116	0x3d3ab98e	0.045587115
117	0xbd3355de	-0.04378306
118	0xbd5bab3e	-0.053630106
119	0x3ba8858c	0.005142873
120	0xbd04e5d5	-0.032445747
121	0xbbbae46c	-0.0057034995
122	0x3c0d033a	0.008606726
123	0xbd26543f	-0.040607687
124	0xbc8f8054	-0.017517246
125	0xbcb188a9	-0.02167161
126	0x39dd9aac	0.00042267644
127	0xbc4b52fd	-0.012409923
128	0x3d09398b	0.033502143
129	0x3d2c64c2	0.042088278
130	0xbc7eadda	-0.015544379
131	0xbc43cceb	-0.011950712
132	0xbd02ca60	-0.03193128
133	0x3d346ee5	0.04405107
134	0x3d10fee8	0.035399348
135	0xbbfbfdcc	-0.007690167
136	0x3d0d328c	0.034472033
137	0xbcddf56a	-0.027094562
138	0x3cda57fd	0.026653284
139	0x3c011cd5	0.007880409
140	0x3d1415a3	0.036153447
141	0xbd20215c	-0.039094314
142	0x3d43cc26	0.047802113
143	0xbbfb8099	-0.007675242
144	0x3d1f8937	0.038949218
145	0xbd37961e	-0.044820897
146	0x3b85479a	0.0040673735
147	0x3d0fc019	0.035095308
148	0xbd01aa91	-0.031656805
149	0x3d40ff39	0.0471184
150	0xbd34f2d6	-0.0441769
151	0xbb982122	-0.0046426216
152	0x3b6192b9	0.003441973
153	0x3c51599b	0.012777711
154	0xbc44b2e1	-0.012005539
155	0x3d39b159	0.045335148
156	0x3cedff3b	0.029052367
157	0x3d3c99a8	0.046044976
158	0x3b8a7915	0.00422586
159	0xbd3077d3	-0.043083023
160	0xbcfcba03	-0.030850416
161	0x3d26c446	0.040714525
162	0x3d06c098	0.032898515
163	0x3ca42a87	0.02003981
164	0xbd206009	-0.039154086
165	0xbd1d5a91	-0.03841645
166	0xbd49a046	-0.049225114
167	0xb9086e09	-0.00013010962
168	0xbd5142e4	-0.051089182
169	0x3d400a59	0.04688487
170	0x3c9e8882	0.019352201
171	0x3cf8aa45	0.030354628
172	0xbc18cd08	-0.009326227
173	0x3d2dc75d	0.042426456
174	0xbd058de9	-0.03260604
175	0x3c9b45a9	0.018954115
176	0xbd293f7f	-0.04132032
177	0x3d3e95ff	0.046529766
178	0x3bec8b35	0.007218743
179	0xbc3434da	-0.010998929
180	0xbbcb0ac7	-0.006196353
181	0xbcfc0584	-0.030764349
182	0xbc102a82	-0.008799197
183	0x3cda77f9	0.026668536
184	0x3c0d9dad	0.00864355
185	0x3cafecb9	0.021475183
186	0xbcb0c9a2	-0.021580521
187	0xbcd3faab	-0.025876364
188	0x3b652d85	0.0034969759
189	0xbcaaf65f	-0.020869432
190	0xbcffb633	-0.031214809
191	0xbcedd78c	-0.029033445
192	0x3cb3b7bb	0.021938195
193	0x3c965a99	0.018353747
194	0xbd4aa3b7	-0.049472537
195	0x3bccfa29	0.0062554074
196	0x3ca034d5	0.019556442
197	0x3d229779	0.039695237
198	0x3d022579	0.031774018
199	0x3c1a2d90	0.009410277
200	0x3ca3e781	0.02000785
201	0xb7cf3806	-2.470241e-05
202	0xbcbcba51	-0.023038061
203	0x3d0a6b2c	0.033793613
204	0xbbf3697a	-0.0074283453
205	0x3c8933f6	0.01674841
206	0x3cad8bdc	0.021184854
207	0xbcd8e142	-0.026474599
208	0x3d16562a	0.036703266
209	0xbc48bbc4	-0.012251798
210	0x3acbaf8b	0.0015539987
211	0x3bd617d3	0.006533602
212	0x3d16bfe0	0.03680408
213	0x3d109203	0.035295498
214	0x3cf67d6d	0.030089105
215	0x3ce529d9	0.027974056
216	0xbd059b34	-0.032618716
217	0xbd2323ea	-0.039829172
218	0xbce9c155	-0.02853457
219	0xbc2b93cb	-0.010472248
220	0xbd0787f5	-0.033088643
221	0x3c1114be	0.008855043
222	0xbd4cb993	-0.049981665
223	0x3d38a1ea	0.04507629
224	0x3c7c334e	0.015393091
225	0xbd449f8a	-0.04800371
226	0xbcda82b4	-0.026673652
227	0x3d3042a3	0.0430323
228	0x3cb74758	0.022372887
229	0x3d222327	0.039584305
230	0x3d3990c5	0.04530408
231	0x3d34d1ee	0.044145517
232	0x3cd0fb95	0.025510589
233	0xbd322af7	-0.043498006
234	0x3d092f35	0.033492286
235	0x3ceb1d77	0.028700573
236	0xbc86fdbc	-0.016478412
237	0x3b0b617b	0.002126782
238	0x3c892e66	0.016745757
239	0x3d018801	0.031623844
240	0xbceff32c	-0.029290758
241	0x3cebcdeb	0.028784713
242	0x3c977d12	0.018492255
243	0xbc0bd019	-0.008533501
244	0x3ca7238f	0.020402698
245	0x3ae0512e	0.0017114037
246	0x3d13a435	0.036045272
247	0x3cff550b	0.031168481
248	0xbceab61a	-0.028651286
249	0xbd1749ae	-0.0369355
250	0xbb46c78d	-0.0030331344
251	0xbc00b9f4	-0.007856835
252	0x3cb8bb4d	0.02255025
253	0x3ca7bb89	0.020475166
254	0x3b9ce2ce	0.0047877794
255	0xbcb345ac	-0.021883808

base_model.model.bert.encoder.layer.0.attention.self.query.lora_B.weight f4 [384, 16]
0	0xbb4e5b2e	-0.0031487453
1	0x3ae0260d	0.0017101184
2	0x3b25743e	0.0025246288
3	0x37ca3d02	2.4108685e-05
4	0xbb1ed15d	-0.0024233677
5	0x3a8ae5ca	0.0010597047
6	0x3b44c362	0.0030023684
7	0x3b56fa25	0.0032802906
8	0xbb6af994	-0.0035854327
9	0x3b067e43	0.0020522035
10	0xb9b9bbe5	-0.00035425942
11	0x3aa6084f	0.0012667271
12	0x3b68b1c3	0.0035506345
13	0x3b45e308	0.0030195136
14	0x3af2e5d6	0.0018531631
15	0x3b5cfed6	0.003372123
16	0xbb395689	-0.0028280339
17	0x3a794854	0.0009509374
18	0x3b0746a3	0.0020641468
19	0xbb1d7912	-0.0024028462
20	0xbb13cc9c	-0.0022552377
21	0x3b015286	0.0019733026
22	0x3b3e5842	0.0029044305
23	0x3b551dc8	0.0032518972
24	0xbb46872b	-0.0030292969
25	0x3b2a189f	0.0025954617
26	0x3a82dbc9	0.0009983714
27	0x3b28e832	0.0025773165
28	0x3b457572	0.0030129817
29	0x3b36f46a	0.0027916678
30	0x3b391c0f	0.0028245484
31	0x3b43e6f2	0.0029892293
32	0x3b58ec0e	0.0033099684
33	0x3979f587	0.00023837957
34	0xb888c884	-6.522334e-05
35	0x3b871ca9	0.0041232896
36	0x3b06d2e1	0.002057247
37	0xbb50d9bb	-0.0031868059
38	0xbb4734ad	-0.0030396387
39	0xbb565c82	-0.0032708948
40	0x3b6b07fc	0.0035862913
41	0x3a6b47a6	0.0008975215
42	0xbb0bd9d7	-0.002133956
43	0xbb86d252	-0.0041144276
44	0xbb2623ac	-0.0025350852
45	0xbb4c3901	-0.0031161907
46	0xbb86e877	-0.0041170674
47	0xbb4152ce	-0.0029498818
48	0x3b5f9efa	0.0034121857
49	0xbb01c1b2	-0.001979929
50	0xbb242f81	-0.0025052729
51	0xba9121f7	-0.0011072744
52	0x3af16e2e	0.0018419677
53	0x3a9f8f08	0.0012173364
54	0xbb704ba1	-0.0036666172
55	0xbb736bb9	-0.0037143065
56	0x3b4603f3	0.0030214756
57	0xbb4b69e4	-0.0031038458
58	0x3aae8708	0.0013315389
59	0x3a9d48c5	0.0011999836
60	0xbb46985b	-0.0030303213
61	0xba90ff62	-0.0011062438
62	0x3a8f13f6	0.0010915983
63	0xbb6eb2bf	-0.003642246
64	0x3b41815d	0.002952657
65	0x3af9f0c9	0.0019068952
66	0x3abc7f35	0.0014381172
67	0x3b05338d	0.0020324916
68	0x3b2feac5	0.0026842814
69	0xbb26076b	-0.0025334011
70	0xbb3cf3f9	-0.0028831942
71	0xbb430b00	-0.0029761195
72	0x3b43c8bf	0.0029874293
73	0x3ac61cc9	0.001511478
74	0xbb3ddb62	-0.0028969874
75	0xbb28a1af	-0.0025731137
76	0xbab56c58	-0.0013841493
77	0xbb3667cb	-0.0027832862
78	0xbb154878	-0.002277879
79	0xbb35d29a	-0.0027743937
80	0xbb3e309e	-0.0029020677
81	0x3ab2c8ec	0.0013640202
82	0x3af295dc	0.0018507796
83	0xba28c48c	-0.0006437979
84	0xbb04e2a9	-0.0020276702
85	0x3923936f	0.00015599815
86	0x3b44593e	0.002996042
87	0x3b5a0821	0.0033269005
88	0xbb460dfb	-0.0030220735
89	0x3b1b8740	0.0023731738
90	0x39e12723	0.00042944503
91	0x3affab68	0.0019506039
92	0x3b373d40	0.0027960092
93	0x3b3263b8	0.0027220082
94	0x3ac969a8	0.0015366571
95	0x3b464dde	0.0030258815
96	0xbb1f809a	-0.0024338127
97	0x3a1214f5	0.0005572581
98	0x3a23e557	0.0006252131
99	0xbaba35a8	-0.0014206665
100	0xb91f126d	-0.00015170286
101	0x3a2d7610	0.0006617019
102	0x3b3607f0	0.0027775727
103	0x3b350993	0.0027624115
104	0xbb1f60c4	-0.0024319151
105	0x3a196895	0.0005852071
106	0x39daac7b	0.00041708708
107	0x3b2d96c1	0.0026487561
108	0x3ae0262f	0.0017101223
109	0x3b011f76	0.001970259
110	0x3ab8dd1c	0.0014103982
111	0x3b18cce9	0.0023315495
112	0xbaef48ee	-0.0018255988
113	0x3b0e3d50	0.0021704026
114	0x3af24bbf	0.0018485709
115	0x3b37263d	0.0027946376
116	0xba75753e	-0.0009363479
117	0xbab090e2	-0.0013470913
118	0x3b03a582	0.0020087664
119	0x3a8c6230	0.0010710414
120	0x38d84719	0.000103129256
121	0x3a8250dd	0.0009942312
122	0xba99cdb7	-0.0011734281
123	0xba9c22fa	-0.0011912279
124	0x3b2e2c47	0.0026576684
125	0x38782579	5.9162707e-05
126	0xb8c21135	-9.253846e-05
127	0x3b3ab151	0.0028487036
128	0x3b5efe60	0.003402613
129	0xbb3348dd	-0.0027356662
130	0xbb6b4ef1	-0.0035905207
131	0xba9fd895	-0.0012195284
132	0x3b349085	0.002755196
133	0x3a399726	0.0007079713
134	0xbb4f6001	-0.0031642916
135	0xbb77fc3f	-0.003783956
136	0x3b6e1c36	0.0036332733
137	0xbb55a173	-0.0032597452
138	0x3a3e0814	0.00072491285
139	0xba9843e7	-0.0011616916
140	0xbb80b8eb	-0.003928294
141	0xbb2969fb	-0.0025850523
142	0xba8f55ee	-0.0010935643
143	0xbb6dc4e8	-0.0036280695
144	0xbb555ea7	-0.0032557638
145	0x3b1a3c53	0.0023534491
146	0x3b1f625a	0.0024320097
147	0x3a3280f0	0.00068093743
148	0xbb16c279	-0.0023004098
149	0x3945cf59	0.00018864627
150	0x3b35fcd5	0.0027769108
151	0x3b50933f	0.0031826047
152	0xbb154db4	-0.002278191
153	0x3ac7f376	0.0015255052
154	0xba59af8e	-0.0008304053
155	0x3a32709a	0.000680694
156	0x3b7c5843	0.0038504757
157	0x3b26b0b5	0.0025434915
158	0x3aa21407	0.0012365588
159	0x3b7a17bc	0.003816112
160	0x3b6893f0	0.0035488568
161	0x39925448	0.00027910084
162	0xba608106	-0.0008564148
163	0x3b3d395e	0.0028873305
164	0x3b5b7927	0.003348896
165	0xbb37f2ad	-0.002806823
166	0xbb615eee	-0.0034388858
167	0xbb83fbfb	-0.004027841
168	0x3b83153b	0.0040003336
169	0xbabc4316	-0.0014363255
170	0xbab4bddf	-0.0013789496
171	0xbb5757e5	-0.0032858786
172	0xbb6692b2	-0.0035182652
173	0xbb63c70b	-0.003475609
174	0xbb4bee9e	-0.0031117569
175	0xbb6d7400	-0.0036232471
176	0x3b40d4c8	0.0029423703
177	0x3a54c9f7	0.00081172533
178	0x392cc62f	0.00016477027
179	0x3b303136	0.00268848
180	0x3b2ffb84	0.0026852796
181	0xbb28118a	-0.002564522
182	0xbb36b384	-0.0027877996
183	0xbb57325a	-0.0032836408
184	0x3b4f69cf	0.003164876
185	0xb8057519	-3.1818727e-05
186	0xbb14e8e4	-0.0022721821
187	0xbb3faa90	-0.002924595
188	0xbb409fc7	-0.002939211
189	0xbb4e0bdb	-0.0031440172
190	0xbb39a82f	-0.0028329005
191	0xbb459d41	-0.0030153545
192	0xbb693669	-0.003558541
193	0x3ae9f453	0.0017849304
194	0x3b03edc5	0.0020130735
195	0x3aba84b3	0.0014230221
196	0xbac3c8fc	-0.0014937217
197	0xbaf33afd	-0.0018557009
198	0x3b734e7b	0.0037125635
199	0x3b68c657	0.003551861
200	0xbb71909a	-0.003685987
201	0x3afa3779	0.0019090018
202	0xba4e5f25	-0.0007872454
203	0x3aa7761c	0.0012776288
204	0x3b63e3b5	0.0034773175
205	0x3abf4dd5	0.0014595339
206	0x3851d422	5.0027047e-05
207	0x3b65c108	0.0035057683
208	0xbb4ba78e	-0.0031075212
209	0x3a4a68c8	0.0007721302
210	0x3ac3789d	0.0014913265
211	0xbb19694e	-0.0023408714
212	0xbb1a8168	-0.0023575667
213	0x3a89a136	0.0010500315
214	0x3b417d06	0.0029523983
215	0x3b5e4a61	0.0033918845
216	0xbb5d27ae	-0.0033745575
217	0x3a97d61d	0.0011584196
218	0x3a132e35	0.00056144904
219	0x3b5f9db0	0.0034121089
220	0x3b463bd9	0.0030248074
221	0x3b40f82e	0.0029444802
222	0x3b287b49	0.002570825
223	0x3b4bef9e	0.0031118165
224	0xbaf1dccf	-0.0018452647
225	0x3b3184d1	0.0027087221
226	0x3b4d08f8	0.0031285863
227	0x3acab08e	0.0015463994
228	0xbac9a285	-0.0015383518
229	0xbac45c9b	-0.0014981212
230	0x3b02c2ae	0.0019952464
231	0x3b1a49f7	0.0023542622
232	0xbb07e4c8	-0.002073573
233	0x3b41b103	0.002955497
234	0xbaa47c68	-0.0012549283
235	0x39a9d5e5	0.00032393556
236	0x3b2d05cf	0.0026401167
237	0x3ab32b63	0.0013669546
238	0xb7e73bb6	-2.7565151e-05
239	0x3b1957ae	0.0023398208
240	0xbabda6e5	-0.0014469294
241	0x3aea90f2	0.001789598
242	0x3b0cdf51	0.0021495412
243	0x39b8cc3e	0.00035247387
244	0x3a04db1c	0.000506805
245	0xbad0bfd1	-0.0015926306
246	0x3ad803c2	0.0016480612
247	0x3b14be96	0.0022696606
248	0xbad1f52f	-0.0016018505
249	0x3ad6cb46	0.0016387485
250	0xb9e3560a	-0.00043360918
251	0x3a9fda30	0.0012195762
252	0x3aeb7db0	0.0017966535
253	0x3a8c6cfa	0.001071363
254	0x397b64b6	0.00023974743
255	0x3af21160	0.0018468313

base_model.model.bert.encoder.layer.0.attention.self.value.lora_A.weight f4 [16, 384]
0	0xbd038429	-0.03210846
1	0xbc1a2d16	-0.009410163
2	0x3cf925c7	0.030413521
3	0xbc66ddf4	-0.014091004
4	0x3bb5aa36	0.0055439724
5	0x3c1f728f	0.009731903
6	0xbd264bb4	-0.04059954
7	0xbcb574b1	-0.02215037
8	0xbb150082	-0.0022735898
9	0xbac7eb75	-0.0015252667
10	0xbd698c7c	-0.057018742
11	0x3c5ea310	0.013588682
12	0x3c9a6fea	0.018852193
13	0xbc899b94	-0.016797818
14	0x3c8a3de1	0.01687521
15	0xbcfe4bea	-0.031042058
16	0x3d224a5f	0.039621707
17	0xbc56b291	-0.013104097
18	0x3d1deed7	0.038557854
19	0x3cedc0c1	0.029022576
20	0xbcf3827b	-0.029725304
21	0xbc11908b	-0.008884559
22	0xbcdd2bb7	-0.026998384
23	0xbd2ea562	-0.04263819
24	0x3a8937cd	0.00104689
25	0xbc4f9357	-0.012669406
26	0x3c97b904	0.01852084
27	0xbb98de38	-0.0046651624
28	0xbca92bc0	-0.020650744
29	0x3d63bf35	0.05560227
30	0x3d0b4bc4	0.034007803
31	0x3cc8c189	0.024506347
32	0xbbfad50b	-0.007654791
33	0x3d601c30	0.05471438
34	0xbd4ab7b1	-0.049491588
35	0x3b3d70bd	0.0028906309
36	0x3aa940b0	0.0012912955
37	0x3cbda75a	0.023151089
38	0xbcda2d7e	-0.02663302
39	0xbd3ce488	-0.046116382
40	0xbd5de1e9	-0.054170523
41	0xbc5c568d	-0.01344837
42	0xbcbd9f89	-0.023147361
43	0xbd160521	-0.036625985
44	0xbd48376a	-0.048880972
45	0xbd33f440	-0.043934107
46	0xbccd63f2	-0.025072072
47	0x3d4aada4	0.049482003
48	0xbd046c9a	-0.032330133
49	0xbd10dfa3	-0.035369527
50	0xbbc11cf2	-0.005893343
51	0x3d54833d	0.05188297
52	0xbd6873c3	-0.056751024
53	0x3d195298	0.037432283
54	0xbce01e90	-0.027358323
55	0x3cd73f0b	0.026275178
56	0x3d366a06	0.044534706
57	0xbd1446b8	-0.036200255
58	0xbc69319a	-0.014233017
59	0x3d3146aa	0.04328028
60	0x3cddd871	0.027080746
61	0x3c7d8dd2	0.015475707
62	0x3c992cbe	0.018698093
63	0x3d3d1de9	0.046171103
64	0xbd27ccfe	-0.04096698
65	0x3d081ec9	0.033232484
66	0x3d039631	0.032125656
67	0x3b128305	0.0022355926
68	0x3d181cd0	0.037136853
69	0xbd0200da	-0.031739093
70	0xbcf16a9a	-0.029469777
71	0xbc7ad0cc	-0.01530857
72	0xbd512632	-0.051061817
73	0xbd29a62f	-0.04141825
74	0x3c75bdb1	0.014998839
75	0x3cd45431	0.025919052
76	0x3cd1ff4c	0.02563443
77	0xbd083535	-0.033253867
78	0xbba14ba1	-0.0049223457
79	0x3c74f840	0.014951766
80	0xbd0e5e09	-0.034757648
81	0xbc30b1f9	-0.0107846195
82	0x3c42a55f	0.011880248
83	0x3ca14bef	0.019689528
84	0x3d1abe67	0.037779238
85	0x3c7850f6	0.015156021
86	0x3d4e33cf	0.050342377
87	0x3d3bb710	0.04582888
88	0xbab8a4a1	-0.0014087149
89	0x3ca0e47c	0.0196402
90	0xbaaf09e8	-0.0013354393
91	0xbc26323e	-0.010143815
92	0xbd6508fc	-0.05591677
93	0x3ca946ed	0.020663703
94	0x3d0cb10d	0.034348536
95	0x3ca03947	0.019558562
96	0x3d2f1903	0.042748462
97	0x3d36f37f	0.04466581
98	0x3d413d07	0.04717734
99	0x3c1b699f	0.009485631
100	0x3c98747f	0.018610237
101	0xbc097062	-0.008388611
102	0xbbaacc30	-0.0052123293
103	0xbd08a918	-0.033364385
104	0x3d16dbc8	0.036830693
105	0x3d576e11	0.052595202
106	0x3ce775d2	0.028254423
107	0xbce4c3c8	-0.027925387
108	0x3d27dcf7	0.040982213
109	0xbcff2587	-0.031145824
110	0x3d245d62	0.04012812
111	0x3c0d6326	0.008629596
112	0xbd41ec4e	-0.0473445
113	0xbd29f850	-0.041496575
114	0x3cee6d41	0.02910483
115	0x3b263d2c	0.002536605
116	0xbd4064bf	-0.04697108
117	0x3cc3a5a0	0.023882687
118	0xbd2a98b2	-0.041649528
119	0xbd06675f	-0.032813426
120	0xbbb5be01	-0.005546332
121	0x3ccd7de1	0.025084438
122	0x3b966c87	0.004590574
123	0xb99ab8a6	-0.00029510743
124	0x3cff579a	0.031169701
125	0x3cde509a	0.027138043
126	0xbc6f2974	-0.014597286
127	0x3d1a50e2	0.037674792
128	0xbc5be918	-0.013422273
129	0x3c3794a7	0.011204875
130	0x3cea1347	0.028573645
131	0xbcb856b1	-0.022502275
132	0xbd189cfb	-0.037259083
133	0xbc81c915	-0.015842954
134	0xbcd4904c	-0.025947712
135	0x3d21cff0	0.039504945
136	0x3d0b1373	0.033954095
137	0xbc92cf98	-0.017921254
138	0x3d31b487	0.043385055
139	0xbcc9fe72	-0.024657462
140	0x3d2c374f	0.042044934
141	0xbca3bae1	-0.019986572
142	0xbd3bb0b0	-0.0458228
143	0x3c93cb3f	0.018041251
144	0x3cb57cd4	0.02215425
145	0x3d2e93e5	0.042621512
146	0xbc2404bd	-0.010010895
147	0x3cf54719	0.029941129
148	0x3ce3ee85	0.027823696
149	0xbc49e64d	-0.012322974
150	0xbd23fdb2	-0.040036865
151	0x3d11eee9	0.035628233
152	0xbd06033f	-0.03271794
153	0xbbff72d1	-0.0077956696
154	0x3c4817d0	0.012212709
155	0xbc896d80	-0.016775846
156	0x3c4fc21d	0.012680558
157	0xbab4e071	-0.0013799799
158	0x3d680ba4	0.056651726
159	0xbcb288cd	-0.021793747
160	0x3cafe0ab	0.021469435
161	0x3b91570b	0.004435425
162	0x3c098b21	0.008394987
163	0x3c8f9f64	0.017532058
164	0xbd52e267	-0.051485445
165	0xbcb03461	-0.021509351
166	0xbc29c24c	-0.010361265
167	0x3c7330d1	0.014843182
168	0xbbbcf247	-0.0057661864
169	0x3d4c4d40	0.04987836
170	0xbd54fd2b	-0.051999252
171	0x3d1cd325	0.0382873
172	0xbd2f2e84	-0.04276897
173	0x3d23956d	0.039937425
174	0xbd35858a	-0.044316806
175	0x3ccdfc7a	0.025144804
176	0xbd1db434	-0.038501933
177	0x3d217d3d	0.039426077
178	0x3c81d040	0.015846372
179	0xbd558237	-0.052126136
180	0xbca4ab46	-0.0201012
181	0xbbd634b2	-0.0065370435
182	0xbc8024a8	-0.015642479
183	0xbba0c44d	-0.0049062134
184	0x3c60e36f	0.013726099
185	0xbc0593e5	-0.008152937
186	0x3be8c1a6	0.007103163
187	0x3cad2f2c	0.021140657
188	0xbbcffcbc	-0.006347267
189	0x3d458a53	0.04822762
190	0xbca95b4c	-0.020673417
191	0x3d1b2495	0.037876684
192	0xbd07a366	-0.033114813
193	0xbce9d925	-0.028545925
194	0xbd2d08b7	-0.04224464
195	0x3c8438c7	0.016140355
196	0x3d336382	0.04379607
197	0xbcf26dde	-0.029593404
198	0x3d14d083	0.036331665
199	0x3cbfc3d4	0.023408808
200	0x3d0c6140	0.034272432
201	0xbb15eb32	-0.0022875783
202	0xbcb220d2	-0.021744166
203	0x3d155e5b	0.036466938
204	0x3b639ef5	0.0034732197
205	0x3b88103c	0.004152326
206	0xbc772f8e	-0.0150870215
207	0xbbe24a06	-0.006905797
208	0xbc1388af	-0.009004756
209	0x3d1abeb0	0.03777951
210	0xbc56f8b1	-0.013120816
211	0x3cf5302d	0.029930199
212	0xbd43ef8b	-0.047835868
213	0xbd3eece0	-0.04661262
214	0x3ba81924	0.00512995
215	0x3cb020cb	0.021500012
216	0x3c0c2da5	0.008555804
217	0xbd236e4f	-0.03990012
218	0xbd32532e	-0.043536358
219	0xbccec7cd	-0.025241757
220	0x3d5676a1	0.052359227
221	0xbc75db1b	-0.015005852
222	0xbd0052b4	-0.03132887
223	0x3d15c6e1	0.03656662
224	0x3d26b3c5	0.040698785
225	0x3d065afd	0.032801617
226	0xbd1eb788	-0.038749248
227	0xbd6419cf	-0.055688675
228	0x3c92e461	0.017931165
229	0xbd025534	-0.031819537
230	0x3d3a955e	0.045552604
231	0x3d47839b	0.048709493
232	0xbd117634	-0.035513118
233	0x3ca64f9c	0.020301633
234	0x3c84bef1	0.01620433
235	0x3d406d11	0.046979014
236	0x3d340e84	0.043959156
237	0x3c9141ec	0.01773163
238	0xbcc284e8	-0.023745015
239	0xbcf0ec17	-0.029409451
240	0xbcd5e777	-0.026111348
241	0x3c83f1d4	0.016106524
242	0xbc9be1a5	-0.019028494
243	0xbd1b1a75	-0.03786703
244	0x3d34921b	0.04408465
245	0xbb023fe1	-0.00198745
246	0x3cf78594	0.030215062
247	0xbcd370b8	-0.025810584
248	0xbb2ce8fd	-0.002638399
249	0x3d0d3eb8	0.03448364
250	0x3aa72a64	0.0012753722
251	0xbc9913e7	-0.018686248
252	0xbd291d74	-0.041287854
253	0x3c84facb	0.016232869
254	0x3c76c603	0.015061858
255	0x3d0e9a50	0.034815133

base_model.model.bert.encoder.layer.0.attention.self.value.lora_B.weight f4 [384, 16]
0	0x3b96aeab	0.0045984588
1	0xbb45e0b6	-0.0030193753
2	0xbb82f49b	-0.0039964444
3	0xbae091ff	-0.0017133354
4	0x3b3d5254	0.0028888183
5	0xbbb1bbaa	-0.0054239826
6	0xbbb0c4a4	-0.005394535
7	0xbbae9327	-0.0053276005
8	0xbb8817d7	-0.0041532326
9	0xbb8ff76f	-0.00439351
10	0xbb9ff3b9	-0.004881349
11	0xbba69fe6	-0.0050849793
12	0xbb69f5e0	-0.0035699531
13	0x3b98cfff	0.004663467
14	0x3b7f4a72	0.0038954285
15	0x3b143640	0.0022615343
16	0xbb0ee231	-0.00218023
17	0xba824be2	-0.0009940828
18	0xba98f69b	-0.0011670174
19	0xba540636	-0.00080880837
20	0x3a677e55	0.00088307756
21	0x3abfeb19	0.0014642208
22	0x3a858dae	0.0010189319
23	0xba28f32a	-0.00064449257
24	0xba7a0ca3	-0.0009538626
25	0x3ad94bd8	0.0016578389
26	0x3a5ea497	0.0008493154
27	0xba0754a5	-0.00051624543
28	0xba86fb7c	-0.0010298337
29	0x3a8faa12	0.0010960719
30	0x3a992f86	0.0011687137
31	0x3a6df436	0.0009077223
32	0xbb0bb0a1	-0.0021314996
33	0xbaeededc	-0.0018224376
34	0x39b5f6e6	0.00034706964
35	0xbac96158	-0.0015364094
36	0x3afee991	0.001944827
37	0x3b0408eb	0.0020146917
38	0x3afdf92f	0.0019376631
39	0x3b014ceb	0.0019729685
40	0x3ad42412	0.0016185066
41	0x3b04192f	0.0020156612
42	0x3afe129b	0.0019384207
43	0x3b07df59	0.002073249
44	0xbb1c3fc2	-0.0023841714
45	0xbb23a8da	-0.002497247
46	0x3b212adb	0.0024592194
47	0x3acf2dc6	0.0015806488
48	0x3b90a280	0.0044139028
49	0xbafa5ba9	-0.0019100803
50	0xbb4fd6f9	-0.0031713827
51	0xb95b17e8	-0.00020894373
52	0x3adf8cd5	0.0017055521
53	0xbb9ccaba	-0.004784909
54	0xbb991d1e	-0.0046726605
55	0xbb88aa83	-0.004170717
56	0xbb5ff25a	-0.0034171552
57	0xbb88cfc7	-0.0041751596
58	0xbb951e9a	-0.004550767
59	0xbb82d387	-0.003992501
60	0xbb0b1822	-0.00212241
61	0x3b5acd50	0.0033386536
62	0x3aed1df0	0.0018090587
63	0x3a4de1dc	0.0007853785
64	0xbb73e9c4	-0.0037218193
65	0xba04cb55	-0.0005065699
66	0xb91cf2cf	-0.00014967773
67	0xba3d9dc3	-0.0007233286
68	0x39d824a4	0.0004122603
69	0x3b280b02	0.0025641327
70	0x3adc087b	0.0016787195
71	0xb920b80c	-0.00015327352
72	0xb90ec0a1	-0.00013613935
73	0x3b82d6ad	0.0039928765
74	0x39a385d0	0.0003118948
75	0xb9102058	-0.00013744959
76	0xb9ea303f	-0.00044667904
77	0x38c8dc8e	9.577825e-05
78	0x3a0ae435	0.0005298288
79	0x3a217f0a	0.0006160593
80	0x3ab27a2d	0.0013616733
81	0xbad3f701	-0.0016171635
82	0xbaab270d	-0.0013057903
83	0xbb32f30b	-0.002730551
84	0x3abb9555	0.0014311472
85	0xba985703	-0.0011622611
86	0xba94f2b1	-0.0011363832
87	0xbad3d213	-0.001616063
88	0xba8c47c3	-0.0010702539
89	0xba9a4c10	-0.0011771936
90	0xba893233	-0.0010467231
91	0xbad1eddb	-0.0016016321
92	0xbad39d51	-0.0016144906
93	0x3ad91de9	0.00165647
94	0x3afe85fe	0.0019418595
95	0x3b0dd065	0.0021639105
96	0xbb9cf4d6	-0.004789929
97	0x3b8b56ee	0.004252306
98	0x3b9cb008	0.0047817267
99	0x3b601acc	0.003419566
100	0xbb7ab413	-0.0038254305
101	0x3bca0f35	0.0061663636
102	0x3bbfa1ae	0.005848131
103	0x3bce2578	0.0062910877
104	0x3b9ffafb	0.004882214
105	0x3b8a3f55	0.0042189755
106	0x3bc07f93	0.005874583
107	0x3bc17e3f	0.0059049423
108	0x3b8fb639	0.0043857363
109	0xbbac5343	-0.005258949
110	0xbb943838	-0.0045233034
111	0xbb6750f2	-0.003529605
112	0x3aa52e30	0.0012602266
113	0x3ab5a1e3	0.001385745
114	0xba5e4a77	-0.0008479724
115	0x3ad60375	0.0016327935
116	0xbaa6ff5b	-0.0012740897
117	0xba3f3912	-0.0007294576
118	0xba841dd5	-0.0010079691
119	0xba3cc3b1	-0.0007200791
120	0xb9e227b3	-0.00043135657
121	0xba54252a	-0.0008092696
122	0xba1b91f2	-0.00059345283
123	0xba0f2529	-0.00054605544
124	0x3a8d4ffa	0.0010781281
125	0x3ac679f3	0.0015142545
126	0xb9529efc	-0.00020086387
127	0xba914745	-0.0011083862
128	0xba2e5879	-0.00066507567
129	0x3b8fdca0	0.004390314
130	0x3af94820	0.0019018687
131	0x3b9e2232	0.0048258537
132	0xbb977b50	-0.0046228543
133	0x3a253ab1	0.0006302996
134	0x3a353466	0.000691241
135	0x3ac86be2	0.0015290941
136	0x3b0d944e	0.002160329
137	0x3a1f5210	0.0006077597
138	0x3a4135a4	0.0007370359
139	0x3ad462f3	0.0016203806
140	0x3ba0e6dd	0.0049103335
141	0xbad7b464	-0.0016456959
142	0xbba8fc34	-0.005157018
143	0xbba13f3f	-0.0049208696
144	0xbb053309	-0.0020324609
145	0x3b0933df	0.0020935459
146	0x3b00bc97	0.0019643658
147	0x3b04a5e9	0.0020240492
148	0xbb18ef19	-0.0023335873
149	0x3addf3dd	0.0016933639
150	0x3aeb515a	0.0017953322
151	0x3ad5bbd9	0.0016306593
152	0x3b117244	0.0022193352
153	0x3ae85ab9	0.0017727233
154	0x3aea61c9	0.0017881925
155	0x3ae822b5	0.0017710539
156	0x3b01b7f7	0.001979349
157	0xbb177968	-0.0023113135
158	0xbabf34b5	-0.0014587851
159	0xbb01671a	-0.0019745291
160	0x3b245dd0	0.002508033
161	0x3a999fd7	0.001172061
162	0x3aac00d5	0.0013122807
163	0x3a986f23	0.0011629801
164	0xba8d5eed	-0.0010785736
165	0xbb0663c5	-0.0020506245
166	0xbb114ea0	-0.0022172108
167	0xba9576f8	-0.0011403253
168	0x3ab24f3b	0.0013603935
169	0xbb14aadf	-0.0022684855
170	0xbb0da046	-0.0021610423
171	0xbad55ed6	-0.0016278874
172	0x3ac1f1bd	0.0014796775
173	0xba586b69	-0.00082557515
174	0xbadc0564	-0.0016786275
175	0xbaa89a46	-0.001286336
176	0x3ac339bd	0.0014894527
177	0x3b3eb7ac	0.0029101176
178	0x3b23680d	0.0024933845
179	0x3b5afabd	0.0033413612
180	0xbb38ae95	-0.002818023
181	0x3a69663e	0.000890348
182	0x3aa150c0	0.001230739
183	0x3b3c7403	0.0028755672
184	0x3b324df4	0.0027207108
185	0xbafd5d86	-0.001933024
186	0x3ac97686	0.0015370406
187	0x3b372ff2	0.0027952162
188	0x3b5291c3	0.0032130338
189	0xbb2bdce4	-0.002622419
190	0xbb622cdd	-0.0034511604
191	0xbb439ae2	-0.0029846956
192	0x3bac3ecf	0.005256511
193	0xbb8e84c2	-0.004349322
194	0xbb95e63e	-0.004574566
195	0xbb899fa7	-0.0041999402
196	0x3b8da82d	0.0043230266
197	0xbba15c5b	-0.0049243397
198	0xbba1381a	-0.004920018
199	0xbba875fd	-0.0051410184
200	0xbb9da189	-0.0048105163
201	0xbbae1f91	-0.0053138216
202	0xbb9ae3e3	-0.0047268732
203	0xbba963b3	-0.005169356
204	0xbb9dddf3	-0.004817718
205	0x3b9d497d	0.0048000203
206	0x3ba6f397	0.005094956
207	0x3b864c41	0.0040984456
208	0x3bb86cc9	0.0056282026
209	0xbb6ebc89	-0.0036428294
210	0xbb9ac2bc	-0.004722921
211	0xb9319674	-0.00016936084
212	0x3b4bc6f6	0.0031093932
213	0xbbb607e5	-0.0055551403
214	0xbbb4d541	-0.005518586
215	0xbba6838d	-0.0050816
216	0xbb982349	-0.004642878
217	0xbbb4bb96	-0.005515526
218	0xbbaa7c2e	-0.0052027917
219	0xbbbda155	-0.0057870545
220	0xbb3b1b8c	-0.0028550355
221	0x3baf6af3	0.0053533255
222	0x3b5d00fe	0.0033722515
223	0x3abf361c	0.0014588269
224	0xbbad836d	-0.005295208
225	0x3aa57871	0.0012624395
226	0x3af6a7d2	0.0018818325
227	0xb8a54ac6	-7.881741e-05
228	0xbb0a22fa	-0.0021077977
229	0x3b7e293e	0.0038781906
230	0x3b976bd6	0.0046210093
231	0x3a6da4f6	0.00090654136
232	0x3b51216b	0.0031910788
233	0x3bad96a7	0.0052975
234	0x3b8104c2	0.0039373348
235	0x3ae38d6e	0.0017360875
236	0x399dfefa	0.00030135346
237	0xbb06603d	-0.002050414
238	0x39e1da78	0.00043078116
239	0x39714e6c	0.00023012765
240	0x3aabdfc8	0.0013112957
241	0xba978158	-0.0011558933
242	0xbae8a774	-0.00177501
243	0xba8bbb9d	-0.0010660772
244	0x3a49380b	0.00076758926
245	0xba91b1c9	-0.0011115606
246	0xba8f4dff	-0.0010933279
247	0xbad90ac7	-0.0016558998
248	0xbaef1ac9	-0.0018242236
249	0xba91516d	-0.0011086889
250	0xba9b626b	-0.0011854892
251	0xbade8602	-0.0016977193
252	0xbad748a3	-0.0016424846
253	0x3b092f7c	0.0020932844
254	0x3b11da93	0.0022255525
255	0x3a9f517e	0.0012155024

base_model.model.bert.encoder.layer.1.attention.self.query.lora_A.weight f4 [16, 384]
0	0xbd3cc262	-0.046083815
1	0xbd1eff90	-0.038817942
2	0xbce0a3ab	-0.027421793
3	0xbb520ae8	-0.0032049958
4	0xbcd7979a	-0.026317406
5	0x3bbe3500	0.005804658
6	0x3d39dcdb	0.04537664
7	0xbc42a273	-0.011879551
8	0xba8e1e7e	-0.0010842828
9	0xb948eee5	-0.00019162481
10	0x3d1869a5	0.037210125
11	0xbcf321be	-0.029679175
12	0x3d0202af	0.03174084
13	0xbd038c60	-0.032116294
14	0xbc815abc	-0.015790336
15	0xbc6b6fb5	-0.014369895
16	0xbc8495f9	-0.016184794
17	0xbd390035	-0.045166213
18	0xbc41efcd	-0.011836958
19	0x3c671719	0.014104628
20	0x3b60596f	0.0034232994
21	0xbc326d06	-0.010890251
22	0x3d11f769	0.03563634
23	0xbb68822c	-0.003547798
24	0xbd3e4e30	-0.046461284
25	0xbc3fece3	-0.011714193
26	0xbd12e453	-0.03586228
27	0xbc4904de	-0.012269227
28	0x3c2bdfc4	0.010490362
29	0x3c53095d	0.01288065
30	0xbc9eefae	-0.019401398
31	0xbcf507f7	-0.029911024
32	0xbc18ea41	-0.009333194
33	0xbd1a3ebb	-0.03765748
34	0x3bbbf9bf	0.005736559
35	0x3c73e60c	0.01488639
36	0xbd2b2291	-0.041781012
37	0x3ce59fd1	0.028030308
38	0x3ce7dd47	0.028303755
39	0xbc40c215	-0.011765023
40	0x3b79641f	0.0038054062
41	0x3d39605a	0.045257904
42	0xbabdf848	-0.0014493549
43	0xbd1a7534	-0.03770943
44	0xbd33a320	-0.04385674
45	0xbd0a37af	-0.03374451
46	0xb9cc2d50	-0.00038943673
47	0xbb9dce7b	-0.004815874
48	0x3cafedcc	0.021475695
49	0xbd06a112	-0.032868452
50	0x3d0418e3	0.032250296
51	0x3d033101	0.032029156
52	0xbd1998ac	-0.037499115
53	0xbc467150	-0.012111977
54	0x3d511601	0.051046375
55	0xbd2e757d	-0.042592514
56	0x3c03fd6a	0.008056024
57	0xbc331f40	-0.010932744
58	0x3c23a5d1	0.009988264
59	0xbd2c7bbc	-0.04211019
60	0x3d2c8b60	0.042125106
61	0xbd30f7ab	-0.043204945
62	0x3cc09b60	0.023511589
63	0xbc9a567a	-0.018840063
64	0x3d2e66d3	0.04257853
65	0xbd038ef4	-0.032118753
66	0xbc93083e	-0.017948266
67	0x3b270ac2	0.002548859
68	0xbcd5451d	-0.026033932
69	0xbcd11beb	-0.025526008
70	0xbb4da77b	-0.0031380344
71	0x3d470c70	0.048595846
72	0xbcca487c	-0.024692766
73	0x3d2d0de9	0.042249594
74	0x3c28a53e	0.010293303
75	0xbd0cd380	-0.03438139
76	0x3cd20324	0.025636263
77	0x3d39a2ec	0.04532139
78	0x3d2b6af7	0.041850056
79	0xbccdaa67	-0.025105668
80	0x3cc5c9ae	0.02414402
81	0xbcf3d02e	-0.029762354
82	0xbd19bb5d	-0.0375322
83	0xbc20a0bd	-0.009803948
84	0x3d45b366	0.04826679
85	0x3bb85e1f	0.0056264545
86	0xbd4ff688	-0.05077222
87	0xbd0ecf3c	-0.034865603
88	0x3cc84d71	0.02445099
89	0x3c9f8940	0.019474626
90	0x3d0aa62f	0.03384989
91	0x3be07037	0.0068493146
92	0xbc82e4ae	-0.015978184
93	0xbb5de235	-0.0033856754
94	0xbca9f60e	-0.02074721
95	0x3cd7c251	0.026337774
96	0x3d2fc765	0.042914767
97	0x3caae275	0.020859936
98	0x3c14148c	0.009038102
99	0x3cf4c4ee	0.02987906
100	0xbceaf4c9	-0.028681176
101	0x3ce973b4	0.028497554
102	0x3d474be3	0.048656356
103	0x3d1f64aa	0.03891436
104	0xbd278683	-0.040899765
105	0xbd2b1144	-0.041764513
106	0xbc4e2c61	-0.012583823
107	0x3cb022a2	0.02150089
108	0xbce11c33	-0.027479267
109	0x3cb12b31	0.02162704
110	0x3d104331	0.03522033
111	0x3cd86742	0.026416425
112	0xbbcf7b3d	-0.00633183
113	0xbce7f8de	-0.028316911
114	0x3d0687e8	0.032844454
115	0xbd25e941	-0.04050565
116	0xbcaa8491	-0.020815166
117	0xbc034bed	-0.008013708
118	0x3cf0f511	0.029413732
119	0x3d48c08d	0.049011756
120	0x3bac0b58	0.0052503757
121	0x3998fef1	0.00029181645
122	0x3d45d029	0.04829422
123	0xbaed4105	-0.0018101042
124	0x3c39b113	0.011333722
125	0x3d0fd018	0.035110563
126	0x3d5369ef	0.051614698
127	0x3d49121c	0.049089536
128	0xbc2c127e	-0.010502456
129	0x3d0bc07d	0.034119118
130	0x3baa7659	0.0052020964
131	0xba838f31	-0.0010037181
132	0x3d649de8	0.055814654
133	0x3d154bfc	0.036449417
134	0xbd30c2a4	-0.043154374
135	0xbd00486e	-0.031319074
136	0x3cfeb99f	0.03109437
137	0x3d0b80cf	0.03405839
138	0xbd3669b6	-0.044534408
139	0x3d381b5a	0.04494796
140	0x3c8adfb0	0.016952366
141	0x3d335566	0.043782614
142	0xbcd472a9	-0.02593358
143	0x3d17fc77	0.037106004
144	0x3c731076	0.014835468
145	0xbd2ad98b	-0.04171137
146	0x3d4091bd	0.047013987
147	0x3cfd944c	0.030954503
148	0x3c208026	0.009796178
149	0x3d25bdc7	0.04046419
150	0x3d1384d7	0.036015358
151	0x3d5e516a	0.05427686
152	0x3cbfc9ed	0.023411715
153	0xbd1c0cba	-0.038098074
154	0x3d0dafec	0.0345916
155	0xba0a8187	-0.00052835833
156	0xbade48d0	-0.0016958956
157	0xbd37e717	-0.04489812
158	0xbca6c7f4	-0.020359017
159	0xbb4bf0db	-0.0031118903
160	0xbd12a4cb	-0.03580169
161	0x3d1cf7df	0.038322326
162	0xbc82186d	-0.015880788
163	0x3d4a020c	0.04931836
164	0xbccc544a	-0.024942536
165	0x3d4fb483	0.05070926
166	0x3c8ccfa1	0.017188849
167	0x3cea4c36	0.028600793
168	0xbb864f2f	-0.004098795
169	0xbcbef13d	-0.02330839
170	0x3d0d9ea2	0.034575112
171	0x3d0ccf76	0.034377538
172	0x3c0f0438	0.008729033
173	0xbcc5f805	-0.024166116
174	0x3d1ae60b	0.037817042
175	0xbca15f47	-0.019698752
176	0xbce0561d	-0.027384812
177	0x3d3373f7	0.043811765
178	0x3c2fe721	0.010736258
179	0x3c509829	0.01273159
180	0x3cdef623	0.027216977
181	0x3cddc35f	0.0270707
182	0x3b019c3f	0.0019776968
183	0x3c108036	0.00881963
184	0xbcc0e762	-0.023547832
185	0xbcdd09ba	-0.026982177
186	0xbd5069b6	-0.050882064
187	0xbb48424e	-0.0030557099
188	0xba89e368	-0.0010520043
189	0xbbdaeaad	-0.0066808076
190	0xbc00e66f	-0.00786744
191	0x3cff0355	0.031129519
192	0xbbacfda4	-0.0052792598
193	0x3d24edbb	0.04026578
194	0x3d07bad4	0.033137158
195	0x3d4c761f	0.049917337
196	0x3cc65990	0.024212629
197	0xbd42310a	-0.04741005
198	0x3cb1ddcb	0.021712204
199	0xbd00f2d7	-0.03148159
200	0x3cb73f9b	0.022369197
201	0xbc27e5c0	-0.010247648
202	0x3c91ab61	0.017781915
203	0x3d2bf3e9	0.041980658
204	0xbd13dc93	-0.036099028
205	0xbcb58323	-0.022157257
206	0x3d3c99ff	0.0460453
207	0x3b3bd9df	0.0028663797
208	0xbcdc9b86	-0.026929628
209	0x3ae32d61	0.001733225
210	0x3d57210b	0.052521747
211	0xbc1e3ece	-0.0096585285
212	0xbad8f822	-0.0016553442
213	0xbc5d26aa	-0.013497988
214	0xbb5c308f	-0.003359828
215	0x3d14f546	0.036366723
216	0xbc825ede	-0.015914377
217	0x3b63d52e	0.0034764516
218	0x3d30fd4e	0.04321032
219	0xbb150150	-0.0022736378
220	0x3d189183	0.037248146
221	0x3d019733	0.031638335
222	0x3cf6d048	0.030128613
223	0xbb037c53	-0.0020063117
224	0x3cadf2e8	0.02123399
225	0x3c200dc1	0.009768904
226	0x3cfd93df	0.0309543
227	0x3d09e96e	0.03366988
228	0x3cefe887	0.029285682
229	0x3bf2748e	0.0073991483
230	0xbd2ecb05	-0.042674083
231	0x3d3c528a	0.045977153
232	0x3d46116b	0.048356455
233	0xbd401641	-0.046896223
234	0xbae34476	-0.0017339129
235	0xbca51832	-0.020153139
236	0xbd06b259	-0.03288493
237	0x3d096af6	0.03354927
238	0x3d414c09	0.047191653
239	0x3b56373c	0.003268673
240	0x3c817bae	0.015806045
241	0xbb9cdae1	-0.0047868346
242	0x3b2dec78	0.0026538651
243	0xbd33adbc	-0.043866858
244	0x3d0a983c	0.03383659
245	0xbc84539f	-0.016153155
246	0xbbfbf7f1	-0.007689469
247	0x3d020812	0.031745978
248	0x3c0a760b	0.008450995
249	0x3d26c015	0.040710527
250	0xbd103da5	-0.03521504
251	0x3c0c6b7d	0.008570549
252	0xbca0d34d	-0.019632006
253	0xbc51be85	-0.012801771
254	0x3c7fa7d7	0.015603981
255	0xbd3137cc	-0.043266103

base_model.model.bert.encoder.layer.1.attention.self.query.lora_B.weight f4 [384, 16]
0	0x39faf016	0.00047862594
1	0xb9dca6bd	-0.000420859
2	0x3aca65e6	0.0015441745
3	0x3b194662	0.0023387899
4	0x3a77d95e	0.00094546925
5	0xba582737	-0.00082455896
6	0x3aaa8459	0.0013009413
7	0x39250937	0.00015739059
8	0xb98d8fb5	-0.00027000686
9	0x393b2c85	0.00017850295
10	0x3a1b0c99	0.0005914658
11	0x3b2f8337	0.002678109
12	0xb9464ea4	-0.00018912047
13	0xbb400f57	-0.0029306018
14	0x3a479a80	0.000761427
15	0xb998649c	-0.0002906666
16	0xbae7b9c1	-0.001767926
17	0xbad98639	-0.0016595788
18	0xba0c3baa	-0.0005349467
19	0x3abd53c2	0.0014444517
20	0xb9382daa	-0.00017564619
21	0xbad3d237	-0.0016160671
22	0x38de5efc	0.00010603477
23	0xbafd1f4d	-0.0019311697
24	0xb9e5595e	-0.00043744867
25	0x39f7cbad	0.00047263262
26	0x3ab344b6	0.0013677094
27	0x3ab3109e	0.0013661569
28	0x3b02925c	0.0019923663
29	0xba870e26	-0.0010303899
30	0x39e04984	0.00042779383
31	0xbab64c4c	-0.0013908236
32	0x39ca1a1a	0.0003854789
33	0x39616332	0.00021494625
34	0x3a6c0524	0.00090034516
35	0xb916cde5	-0.00014381816
36	0x399cdc61	0.00029918834
37	0x3a12ff6a	0.00056075177
38	0x3a94479b	0.0011312844
39	0x394cd260	0.00019533327
40	0xb97f99f2	-0.00024376044
41	0xbb45526c	-0.0030108942
42	0xb9e22b75	-0.00043138457
43	0xb9a38ad4	-0.00031193218
44	0xb99c5361	-0.0002981676
45	0x39db2d1e	0.0004180455
46	0xbae5fdab	-0.0017546912
47	0x39ca4015	0.00038576187
48	0xb87050fb	-5.7295878e-05
49	0xba8a9e18	-0.001057568
50	0x3a5725bb	0.00082072214
51	0x3b32756d	0.0027230636
52	0x3927edb4	0.00016014912
53	0xbb3aca0c	-0.0028501777
54	0x3a3feb71	0.0007321155
55	0xb9d09b2c	-0.00039788464
56	0x38ade687	8.292222e-05
57	0xba3443ba	-0.0006876547
58	0x3a3fc974	0.00073160906
59	0x3b4f5ffc	0.0031642905
60	0x3a5454dc	0.0008099803
61	0xba87c87f	-0.0010359435
62	0xb9989d71	-0.00029109002
63	0xba2807c0	-0.0006409846
64	0xbaa30a72	-0.0012439026
65	0xbb9f1c66	-0.0048556803
66	0x3b23d9cf	0.002500165
67	0x3b916dd3	0.004438141
68	0x3a99400c	0.0011692061
69	0xbba0c303	-0.0049060597
70	0x3b16292f	0.002291273
71	0xbb80a45e	-0.003925844
72	0xb9ed1e78	-0.00045226864
73	0xb9704347	-0.00022913246
74	0x3b92f291	0.0044844826
75	0x3b9fab60	0.0048727244
76	0x3b9d2085	0.0047951364
77	0xbb9b3ca9	-0.004737456
78	0x3ab7dad9	0.0014027014
79	0xbb98f720	-0.0046681315
80	0xba1706f3	-0.00057612284
81	0xbb42e179	-0.0029736443
82	0x3aa5927e	0.0012632159
83	0x3ba48009	0.005020146
84	0x38ca663c	9.651153e-05
85	0xbba5ecfc	-0.005063651
86	0x3a852314	0.0010157549
87	0xbaa2a42d	-0.0012408547
88	0x39d26a1b	0.00040133376
89	0xba8de41f	-0.0010825432
90	0x3b6a2de2	0.0035732915
91	0x3bb7870f	0.005600817
92	0x3b18d493	0.0023320063
93	0xbba58941	-0.0050517623
94	0xb9fa7138	-0.0004776807
95	0xbaf71761	-0.0018851572
96	0x39f58c7e	0.00046834716
97	0x39d4bc8c	0.0004057627
98	0x3a9fb456	0.0012184482
99	0xba56ca4d	-0.00081935973
100	0x3a66877c	0.00087939925
101	0x3a10e6d9	0.0005527563
102	0x3a4051f0	0.00073364284
103	0x39ec5c2f	0.0004508211
104	0xb94d4e13	-0.00019579408
105	0x388d6e6b	6.743971e-05
106	0xba25ee85	-0.00063297927
107	0xb93bd9b6	-0.00017914813
108	0xba1ced8b	-0.00059863244
109	0x3a471d37	0.0007595601
110	0x389eeae6	7.57778e-05
111	0x3a1cfd5e	0.00059886824
112	0x3831f156	4.242485e-05
113	0xba22d6f1	-0.00062118383
114	0x39e4e6f1	0.00043659614
115	0x3a62c633	0.000865075
116	0x370bb949	8.328186e-06
117	0xbb3187f9	-0.0027089103
118	0x39cd2177	0.0003912558
119	0xb8d8bda3	-0.00010335005
120	0x389b4152	7.403143e-05
121	0xb9e4df6c	-0.0004365401
122	0x39ca8527	0.0003862765
123	0x3b12aae6	0.0022379695
124	0x39ebf0e9	0.00045002185
125	0xb971ea82	-0.00023070912
126	0xba413b02	-0.00073711586
127	0xb9c37f96	-0.00037288357
128	0x39ee80de	0.0004549091
129	0xba449db7	-0.0007500308
130	0x3af92892	0.0019009283
131	0x3960a549	0.00021423878
132	0x3a72214b	0.00092365284
133	0x38f7572e	0.00011794116
134	0x3aea1641	0.0017859415
135	0x3936cabe	0.000174324
136	0xb92be8cd	-0.00016394556
137	0xbb458646	-0.0030139848
138	0x3999fcd6	0.00029370812
139	0x3a980b66	0.0011600077
140	0x38e28597	0.00010801403
141	0xb90d64b0	-0.00013484317
142	0xb9eb9f78	-0.00044941506
143	0xb9ceb4fa	-0.0003942622
144	0x38b5ec78	8.674798e-05
145	0xba338b98	-0.0006849109
146	0x3aec405e	0.0018024554
147	0x3a321b8b	0.00067942654
148	0x3a3008aa	0.0006715158
149	0xb850f7fb	-4.9822014e-05
150	0x3b17f025	0.0023183909
151	0x38fbb058	0.00012001459
152	0x39fb982d	0.0004798783
153	0xbae05143	-0.0017114062
154	0x3ac3b3f2	0.0014930947
155	0x3ac56cab	0.0015062293
156	0x3a1dbd66	0.0006017297
157	0xb9e07f4b	-0.0004281945
158	0x38a30884	7.774032e-05
159	0xba67786f	-0.00088298967
160	0x3aa7e9a7	0.0012810723
161	0x3b77ea26	0.0037828772
162	0xb9cb799c	-0.00038809783
163	0xbba54630	-0.0050437674
164	0x3a47785a	0.00076091813
165	0x3b98de52	0.0046651745
166	0xb7b17679	-2.1155212e-05
167	0x3ac42c57	0.0014966828
168	0xba48ad4c	-0.0007655218
169	0x3acccdb1	0.0015625266
170	0xbb8a081a	-0.0042123916
171	0xbbad7b3c	-0.0052942317
172	0xbb845771	-0.004038744
173	0x3bac76e3	0.005263196
174	0x3b82a9fb	0.0039875484
175	0x3b53577c	0.003224819
176	0x3782ec45	1.560723e-05
177	0x3a3b4212	0.0007143329
178	0xba7fefe5	-0.0009763225
179	0xba0cc0fe	-0.0005369334
180	0xb9afef6a	-0.00033556978
181	0x3b18b668	0.0023302082
182	0xba6a60d8	-0.00089408224
183	0x39b2accf	0.00034079558
184	0xb8f1a484	-0.00011522419
185	0x38df040a	0.00010634221
186	0xba63cdea	-0.00086900464
187	0xbae943e4	-0.0017796722
188	0xb9f23209	-0.00046195116
189	0x3b381d9a	0.0028093816
190	0xb9fc7abf	-0.00048156639
191	0x3a0a2bf4	0.0005270832
192	0xbad1b780	-0.0016000122
193	0xbaaff548	-0.001342454
194	0xbb15af47	-0.002284007
195	0x3a8a5e21	0.0010556617
196	0xbb555f13	-0.003255789
197	0xbacacfac	-0.0015473268
198	0xbb4665a5	-0.0030272987
199	0xbabdbe24	-0.0014476222
200	0x3af91a58	0.0019005043
201	0x3a611121	0.0008585621
202	0x3aaec181	0.0013332815
203	0x3a7c1970	0.00096168276
204	0x3abe5411	0.0014520903
205	0xbab21b21	-0.0013588407
206	0xbb0cdcfa	-0.0021494017
207	0xba71a8be	-0.0009218565
208	0x3b6261e1	0.0034543204
209	0x3b6d076e	0.0036167759
210	0x3a27828f	0.0006389999
211	0xbb35ef01	-0.0027760866
212	0x3af8b287	0.0018974104
213	0x3b3d4651	0.0028881023
214	0xba2fa235	-0.0006699891
215	0x3b583b6d	0.0032994405
216	0xba916d18	-0.0011095135
217	0x3a0b2028	0.0005307221
218	0xbb4018fd	-0.002931177
219	0xbb405f17	-0.0029353553
220	0xbb64e2ba	-0.0034925179
221	0x3b1fa8ee	0.0024362165
222	0xb98857e7	-0.00026005434
223	0x3b66bf59	0.0035209267
224	0x39f71fb0	0.0004713512
225	0xb79e2080	-1.8850202e-05
226	0x3a8376ce	0.0010029913
227	0xb9443b38	-0.00018714077
228	0x3a0c702d	0.00053572917
229	0x3a38a2d5	0.0007043307
230	0x3a44ee58	0.00075123226
231	0x39df83c9	0.00042632062
232	0xb9a4c9b1	-0.0003143079
233	0xba811b95	-0.0009850139
234	0xba08f60f	-0.0005224654
235	0x3a8d650d	0.0010787562
236	0xb987a2b8	-0.00025870441
237	0x3a15860f	0.0005703875
238	0xba80a438	-0.0009814566
239	0x39f91cc9	0.00047514428
240	0x3b8c9c02	0.0042910585
241	0x3ba51080	0.0050373673
242	0xbb550cd1	-0.003250886
243	0xbbb0013c	-0.005371241
244	0x3abfeb62	0.0014642293
245	0x3bbf7316	0.0058425767
246	0xbb69002f	-0.0035553088
247	0x3b70eede	0.003676347
248	0xbb2a4cf0	-0.00259858
249	0x3b4c2b4f	0.0031153744
250	0xbbaa0b88	-0.005189363
251	0xbbb17cdf	-0.005416497
252	0xbbab1dbb	-0.00522205
253	0x3bbeecdc	0.0058265757
254	0x3acb4732	0.0015508889
255	0x3bb5ee4a	0.005552088

base_model.model.bert.encoder.layer.1.attention.self.value.lora_A.weight f4 [16, 384]
0	0xbd41cf8e	-0.04731708
1	0xbd1d33a2	-0.03837932
2	0x3c364251	0.0111242095
3	0x3d07089f	0.032967206
4	0x3d369f54	0.04458554
5	0x3c8e86f1	0.01739833
6	0x3c467302	0.012112381
7	0x3d0cddb0	0.034391105
8	0x3cf161c1	0.029465558
9	0x3d54c8b2	0.05194921
10	0xbc7da078	-0.015480153
11	0xbb913e29	-0.004432459
12	0x3d1b67c0	0.03794074
13	0xbc849d03	-0.01618815
14	0x3a2d8907	0.0006619845
15	0xbd178013	-0.036987375
16	0x3b925b2b	0.0044664345
17	0x3c340a60	0.010988802
18	0x3cabab4f	0.02095571
19	0xbcef941c	-0.029245429
20	0xbc1cbcb1	-0.009566472
21	0xbd1bf2c1	-0.038073305
22	0x385467b3	5.0641316e-05
23	0xbd4e4798	-0.050361246
24	0xbd39e5d9	-0.045385215
25	0xbc9ea0e0	-0.01936382
26	0x3c7d2170	0.015449867
27	0xbd0c46d1	-0.034247223
28	0xbb959880	-0.0045652986
29	0xbd3255f6	-0.04353901
30	0x3bb64dc4	0.0055634696
31	0xbc56f43f	-0.013119756
32	0xbc45b5a5	-0.012067233
33	0x3ce83591	0.028345855
34	0x3acefe87	0.0015792408
35	0x3cd5fca5	0.026121447
36	0xbcf0c09a	-0.029388715
37	0x3d04c973	0.03241868
38	0x3d193ad8	0.037409633
39	0x3cf829e7	0.030293418
40	0x3c8e78cf	0.01739159
41	0xbd3197a2	-0.0433575
42	0x3cfdb9af	0.03097233
43	0x3cbfc7a3	0.023410624
44	0x3c73a801	0.014871598
45	0xbbd8d90e	-0.006617672
46	0x3ca77757	0.020442648
47	0xbccf817c	-0.025330298
48	0x3d1747de	0.036933772
49	0xbb8e2c3e	-0.00433877
50	0xbd4aeef3	-0.049544286
51	0xbd27b3a6	-0.04094281
52	0x3cbb22c3	0.022843724
53	0xbc9981ad	-0.018738592
54	0xbd027372	-0.03184838
55	0xbc88cc64	-0.016699024
56	0x3d2c9283	0.042131912
57	0x3cb7449a	0.022371579
58	0x3ce42b6e	0.02785274
59	0x3cdcb914	0.02694372
60	0xbc59c2e7	-0.013291097
61	0x3c8ced87	0.017203106
62	0x3c863945	0.01638473
63	0x3c353158	0.011059128
64	0xbd045017	-0.032302942
65	0xbd5174e7	-0.051136877
66	0xbcc49277	-0.023995621
67	0xbc1e9296	-0.0096785035
68	0xbce6a6db	-0.028155735
69	0x3d662a7d	0.056192864
70	0x3b699df5	0.0035647128
71	0x3ca28544	0.019838937
72	0x3d1fa05e	0.038971297
73	0x3c82ab6a	0.015950877
74	0x3c7a7809	0.015287408
75	0x3a6ae058	0.00089598214
76	0xbd3f3d6e	-0.046689443
77	0x3d2293f7	0.03969189
78	0x3ccf704c	0.025322102
79	0x3b457331	0.0030128474
80	0xbc424a5f	-0.011858552
81	0xbd0142c2	-0.031557806
82	0x3cf3b678	0.029750094
83	0xbcc5cfe7	-0.024146987
84	0xbcaa7d2c	-0.02081164
85	0x3d5239a6	0.05132451
86	0x3b511cb8	0.0031907987
87	0x3b2bb099	0.002619779
88	0x3a627006	0.00086379086
89	0xbd24e9c4	-0.040262
90	0xbd5f9e72	-0.054594465
91	0x3d242548	0.040074617
92	0xbcc6eb4e	-0.024282124
93	0x3ccc8d25	0.024969647
94	0xbc9f9d2c	-0.019484125
95	0xbd2bad56	-0.041913353
96	0x3cfbb9d8	0.030728266
97	0xbc85d28b	-0.016335746
98	0x3d196c7b	0.03745697
99	0xbc178334	-0.00924759
100	0xbcb0774e	-0.021541264
101	0xbd2b47c9	-0.041816507
102	0x3d50b06f	0.05094951
103	0xbcdfc3d3	-0.027315056
104	0xbd053000	-0.03251648
105	0x3c3bd9ad	0.011465472
106	0xbcb34254	-0.021882214
107	0xbd2b8ec3	-0.041884195
108	0x3d04f516	0.032460295
109	0xbc388a7f	-0.011263489
110	0x3d0b001c	0.03393565
111	0x3d3a622e	0.045503788
112	0xbcd99f68	-0.026565269
113	0xbcdc1290	-0.02686432
114	0xbca36a6a	-0.019948203
115	0xbd1a27e4	-0.0376357
116	0x3b6dcb10	0.0036284365
117	0x3d68c0cf	0.0568245
118	0x3cf80830	0.030277342
119	0x3bea39c3	0.007147999
120	0xbc202b3f	-0.009775936
121	0x3cfd5964	0.030926414
122	0xbd4f2602	-0.050573356
123	0xbc2e9bd7	-0.010657272
124	0x3c193be7	0.009352661
125	0x3ca9b896	0.0207179
126	0x3d1eff56	0.038817726
127	0xbcfd20e1	-0.030899467
128	0xbccc0c01	-0.024908068
129	0x3cf918f9	0.030407416
130	0x3c9066f2	0.017627213
131	0x3cab2e56	0.020896118
132	0xbb0379bc	-0.0020061573
133	0x3ca20438	0.019777402
134	0xbcf29a6c	-0.02961465
135	0x3d65eb98	0.056132883
136	0x3cc8b4a5	0.0245002
137	0x3d1f2cbc	0.03886102
138	0xbc464daa	-0.0121034775
139	0x3c29120a	0.010319242
140	0xbc07f6a4	-0.00829855
141	0xbc2da3ad	-0.010598105
142	0xbc710840	-0.01471144
143	0x3b0b8d7c	0.0021294048
144	0xbc1feec7	-0.009761519
145	0xbbd37f34	-0.006454373
146	0xbd0431d1	-0.03227407
147	0xbaefa5f7	-0.0018283714
148	0xbccb3d3f	-0.024809478
149	0xbcec8b05	-0.028874883
150	0x3d367c45	0.044552106
151	0x3d170c42	0.036876924
152	0x3c742d29	0.014903345
153	0xbc0ce96e	-0.008600576
154	0xbb270785	-0.002548666
155	0x3ca21ef8	0.019790158
156	0xbc03a9af	-0.008036061
157	0x3d43bbf7	0.04778668
158	0xbcce9079	-0.025215374
159	0xbbfcbf2a	-0.007713218
160	0x3cc9ffc1	0.024658086
161	0x3d17bdb1	0.03704614
162	0xbd234e9f	-0.0398699
163	0x3c1d3c8a	0.009596953
164	0x3cbac6c7	0.022799863
165	0x3d19b0e8	0.037522227
166	0xbb806db5	-0.003919328
167	0x3beab52d	0.007162711
168	0x3d615814	0.05501564
169	0x3d3aa5c3	0.04556824
170	0x3c1d8400	0.009613991
171	0xbced9419	-0.029001283
172	0x3bdd7cdb	0.0067592687
173	0xbd2c3c69	-0.0420498
174	0x3d36d8f1	0.044640485
175	0xbc2eabab	-0.010661046
176	0xbd057faf	-0.03259247
177	0x3d159bf2	0.036525674
178	0x3d05fb73	0.032710504
179	0xbc959306	-0.018258583
180	0xbd274a96	-0.040842615
181	0x3cf05338	0.029336557
182	0xbcfd5a7e	-0.03092694
183	0x3d4af793	0.04955251
184	0x3d152b1e	0.036418073
185	0x3d34441b	0.044010263
186	0xbcc3bb0f	-0.023892907
187	0x3d640893	0.05567224
188	0xbc702496	-0.01465716
189	0x3d50106e	0.05079692
190	0x3c4db3c4	0.0125550665
191	0x398e5af2	0.0002715211
192	0xbca5184d	-0.02015319
193	0xbcaaf4ac	-0.020868622
194	0x3d2f1594	0.042745188
195	0xbadca840	-0.001683481
196	0x3c951326	0.018197607
197	0x3bbe48bd	0.005807011
198	0x3cf9ed37	0.03050862
199	0xbc44372f	-0.011976047
200	0x3c222a7b	0.009897823
201	0x3d490840	0.049080133
202	0x3cdaec8a	0.026724119
203	0xbd492d04	-0.049115196
204	0x3cce455c	0.025179558
205	0x3d13edf1	0.03611559
206	0x3d09a12d	0.033600975
207	0xbcc181bc	-0.023621432
208	0x3d1a4019	0.037658785
209	0x3d2272b0	0.039660156
210	0xbcdd9a3d	-0.027051086
211	0xbadaa754	-0.0016681948
212	0xbd39a4a3	-0.045323025
213	0xbc954a85	-0.01822401
214	0x3cfc19b7	0.03077398
215	0xbd616ade	-0.055033557
216	0x3c5468a5	0.012964402
217	0x3c987f76	0.018615466
218	0xbb786313	-0.003790085
219	0x3b399228	0.0028315876
220	0x3be1c3a1	0.006889776
221	0xbcf2789d	-0.029598529
222	0x3cda5c89	0.026655452
223	0xbb648b9f	-0.003487326
224	0x3d4e3d95	0.050351698
225	0x3cc17342	0.02361453
226	0x3cc63cd5	0.024198929
227	0xbcbc156e	-0.022959437
228	0x3c99adc6	0.01875962
229	0x3bb9b68f	0.0056675146
230	0xbd29737a	-0.041369893
231	0xbcec352c	-0.028833948
232	0x3d540894	0.051765993
233	0x3cfbea91	0.030751498
234	0xbcce438c	-0.025178693
235	0x3d350dd1	0.04420263
236	0x3d227bf7	0.039669003
237	0xbcd7134f	-0.026254324
238	0x3c0b7b38	0.008513264
239	0x3d2b1e84	0.04177715
240	0xbaea2963	-0.0017865117
241	0x3cc527df	0.024066864
242	0x3cc80a78	0.024419054
243	0x3cfb0334	0.030641176
244	0x3c8e890a	0.01739933
245	0x3befdc88	0.0073199905
246	0xbd3ce47b	-0.046116333
247	0xbc8ab169	-0.016930299
248	0xbca9821f	-0.02069193
249	0x3d34b38f	0.044116553
250	0x3cd1540d	0.025552774
251	0x3cf5002e	0.029907312
252	0xbd403d53	-0.046933483
253	0xbc24f8dd	-0.010069099
254	0xbbff38c1	-0.007788748
255	0xbc794a99	-0.015215539
