lora_crossencoder_has_instruction_r_4 la_16 ld_0.2/checkpoint-3096/adapter_model.safetensors (safetensors, 152508 bytes, 25 tensors)

base_model.model.bert.encoder.layer.0.attention.self.query.lora_A.weight f4 [4, 384]
00000000: 21f8 29bd dfc8 f83b b8d6 b2bb d0b0 f53c
00000010: ceae 32bd ac15 153d 0fd8 2d3a ab50 303d
00000020: 8641 8bbc 6e4a 11bd f9b6 40bd 5df5 4c3c
00000030: 5420 05bc e952 263d b8c2 803c c863 b8bc
00000040: 4dc0 d6bc f16f 32bd 087a c4bc 6c5e 81bb
00000050: bf25 53bd 34fa 9a3c 6739 ec3c 5097 7abc
00000060: 139f 663c 72c5 0abc 5803 15bd c414 a7bb
00000070: 4781 d9bc 093f aabc b94a d1bc da8e b43a
00000080: 75d8 33bd 1f8c 173c afc2 823b d743 4a3d
00000090: ba9c 4e3d 197c e0bc 6587 40bd 2406 13bb
000000a0: d222 f13c 561d 7d3c 19af c0bb 46b6 e73b
000000b0: 3318 20bd fba6 0ebc 0068 593c 1430 353d
000000c0: 8916 48bd d3eb 81bc 58e4 aabc 7a4e 12bd
000000d0: 58a8 cb3c 2546 27bd 243b 2d3d af51 a1ba
000000e0: a210 09bd 36a0 02bd 3f6a 673d dbf0 243d
000000f0: 44f6 243c cdd5 b53c 62d8 f7bc e332 2b3d
00000100: 20b9 22bd 72a2 1abd 0f8a ec3c c653 3b3c
00000110: ce37 10bd bcd9 0dbc a257 abbc 282b 90bb
00000120: b494 a8bc 1296 3c3b d0da eb39 caec 21bc
00000130: 3d6e 9a3a f895 413d bbb3 113c e8df d33c
00000140: 8790 4bbd ab54 3f3c e90e 8cbc 720f fd3b
00000150: 3f95 61bb 5b02 063b 65b4 ee3c 3ca9 35bd
00000160: 03b5 ab3c 66a1 173d eccb 0dbc e5a6 0bbd
00000170: ed1e 16bd 1316 5e3d 78f1 713c d263 0b3d
00000180: 9300 463d 8f97 ad3c 94bd ae39 c7dc fdbc
00000190: 9df9 46bd 001d 303d 42f5 4a3c 3be5 563c
000001a0: 72a7 193d f08e 54bc e8f0 f9bb 5db3 24bb
000001b0: e0d8 033d 969f 3d3d ddf0 5bbc 93df 783c
000001c0: 8049 a93c 2335 a2bc 0bb3 483d 1de3 b1bc
000001d0: c23e e93c 2b7b 3e3b b069 383d e720 3f3b
000001e0: 7fcf 97ba c862 44bd 59a4 18bd 2cda 10bd
000001f0: b468 47bd 3d10 0abd 217a da3c 297d 3c3d
00000200: 367d 20bd bfcb e2bb c767 ecbc 4a39 a8bb
00000210: 48dd 29bb de2b c03c 70c2 b3bc b734 73bb
00000220: da69 1f3d 122f 343d 3856 993c 15eb dfbc
00000230: 01fc 153d 96b8 663c ee54 17bc c443 1f3d
00000240: 0bd7 193d dc09 533c dba7 893c f102 023d
00000250: 09a2 60bb a3ea 22bd 10f7 0e3d fb01 553d
00000260: 9d1e 563b 5b8d 17bb c13f 213d 7f61 a33b
00000270: a721 993c 5553 4d3d 5c56 15bd d733 ed3b
00000280: b085 06bc 4d8f 3fbd 8455 22bd 19ee 22bc
00000290: 7589 2cbd b5cb 0abd 412d 253d 12b1 b9bc
000002a0: 80ff a33a 7abe d8bc 959f 1bbd fb20 fdbb
000002b0: 92d2 df3c a607 e63b c71b a73c 1031 223c
000002c0: 7617 073c 3ea9 ea3c e93d 3bba e5b1 d33c
000002d0: a7c3 cbbc 739d 4bbd e051 1c3d 79d0 2e3c
000002e0: 70c3 e73c 73a8 62bd 56f0 b1bc 7297 29bc
000002f0: d517 3a3d a946 9d3c eeed 223d 32a4 86bc
00000300: 1ef7 f13c 5d0f ad3c b172 353d bb90 563c
00000310: 2b64 02bb a98c d6bc c496 373d 5e7b 00bc
00000320: bdb9 e0bc 4f59 5bbd cb21 fb3c 0b45 8f3c
00000330: bd6c c23a 0317 c4bc b4bc ffbc cdec c63c
00000340: 4c88 b43c 766b 04bd 5fc6 603c 9460 30bd
00000350: 3398 09bd bce4 113d 244c 4a3d 69d5 14bc
00000360: 50f3 b8bc 93d5 08bb 654f b13c 77be 5cbd
00000370: a9f9 11bd 09c1 45bd b628 423c 5475 72bb
00000380: 9f6c ea3c 0a93 7e3b 3e81 363d a295 6ebc
00000390: f7c7 203c 603a dfbc 21a9 cb3c 2784 97bc
000003a0: ada3 e0bc 8367 99bb 95cb f1ba e142 283c
000003b0: 3fe7 e1bb 25e5 c63c af52 09bd ed98 17bd
000003c0: 2629 a33c 1ca8 bebc 6146 333d afba 643c
000003d0: e997 b9bc 2a10 32bd 878d e63c 89d2 3dbd
000003e0: ea28 45bd 3103 513d a554 443d 9bc8 88bb
000003f0: 91f4 25bc 9310 543d 3db5 6f3c 637d f2bc
-0.0414964 0.007592305 -0.0054577254 0.029991537 -0.043623738 0.03639762 0.00066316215 0.04304568
-0.016999017 -0.035471372 -0.047049496 0.012509671 -0.008125383 0.040606413 0.01571785 -0.022508517
-0.026214743 -0.043563787 -0.02398397 -0.0039480235 -0.05154967 0.018918134 0.028835965 -0.015294865
0.014076012 -0.008469926 -0.036380142 -0.005098911 -0.026550902 -0.02078201 -0.025548326 0.0013775483
-0.0439076 0.009249716 0.0039904932 0.049381103 0.050442435 -0.027402924 -0.047004122 -0.002243408
0.029435549 0.015448889 -0.0058802483 0.0070712892 -0.03908558 -0.008706803 0.013269424 0.044235304
-0.048849616 -0.01585952 -0.020860836 -0.035719372 0.024860546 -0.04083838 0.04229273 -0.0012307669
-0.033463128 -0.03189107 0.05649781 0.04026876 0.01006848 0.022196675 -0.030254547 0.041796576
-0.03972733 -0.037752576 0.028874425 0.011433547 -0.03520947 -0.008657869 -0.02091581 -0.004399676
-0.02057872 0.0028775972 0.0004498572 -0.009883115 0.0011782121 0.047262162 0.008892949 0.025863603
-0.04969838 0.011677901 -0.017096953 0.0077227885 -0.0034421233 0.0020448181 0.029138753 -0.044350848
0.020960337 0.037019156 -0.008654576 -0.03409471 -0.036650587 0.05422027 0.014767043 0.034030743
0.04834039 0.021190433 0.00033329113 -0.030989064 -0.048577894 0.042996407 0.012387576 0.013116176
0.037513204 -0.012973532 -0.007627595 -0.0025131323 0.03218925 0.04629477 -0.0134241255 0.015190023
0.02066493 -0.019800728 0.048998874 -0.021714741 0.028472308 0.0029065113 0.045022666 0.0029163898
-0.0011582224 -0.047945768 -0.03726611 -0.035364315 -0.048683837 -0.033706892 0.026669564 0.0460178
-0.03918191 -0.006921261 -0.028858079 -0.0051337825 -0.0025919247 0.023458418 -0.021943301 -0.0037110278
0.038919307 0.043990202 0.01871787 -0.027333776 0.036617283 0.014082095 -0.009236557 0.038882986
0.037558597 0.012880769 0.016803673 0.031741086 -0.0034276268 -0.03977455 0.034903586 0.05200384
0.0032672056 -0.0023125026 0.03936744 0.0049859877 0.018692805 0.0501283 -0.03645931 0.007238846
-0.0082105845 -0.04676752 -0.039632335 -0.009944462 -0.042123277 -0.033885676 0.04032636 -0.022667442
0.0012512058 -0.026458014 -0.037993986 -0.007724879 0.027322087 0.0070199547 0.020398987 0.009899393
0.00824534 0.028645154 -0.0007142709 0.025841663 -0.024873568 -0.049710702 0.03816402 0.010669821
0.028291434 -0.055336427 -0.021721046 -0.010351049 0.045432884 0.019198732 0.03977769 -0.016435716
0.02953678 0.02112549 0.04429883 0.01309603 -0.001989613 -0.026190119 0.044821516 -0.007841913
-0.027432317 -0.05355197 0.030655762 0.017488977 0.0014833432 -0.023936754 -0.03121791 0.024282837
0.022037648 -0.032329045 0.01371917 -0.043060854 -0.033592414 0.03561853 0.04938902 -0.009084084
-0.022576958 -0.0020879253 0.021644304 -0.05389258 -0.035638485 -0.048279796 0.011850527 -0.0036996203
0.028616248 0.0038844966 0.04455685 -0.014562042 0.0098133 -0.027249515 0.02486092 -0.018495632
-0.027421797 -0.004681529 -0.0018447513 0.010269851 -0.0068940218 0.024279187 -0.03352612 -0.037011076
0.019917082 -0.02327352 0.04376829 0.013960524 -0.022655444 -0.043472447 0.028143657 -0.04634336
-0.04813472 0.051028434 0.047932286 -0.0041743047 -0.01012911 0.05177362 0.014630613 -0.029600805

base_model.model.bert.encoder.layer.0.attention.self.query.lora_B.weight f4 [384, 4]
00000000: e771 63bb 3080 263b 3805 a13a 364e 093a
00000010: 3058 0dbb 6151 31ba abce 973a 97a7 58bb
00000020: 8f41 df3a 4a75 193b c014 30ba ad97 7c39
00000030: ecc1 393b 53c8 173a fdc1 f53a 74dd e43a
00000040: c2ab 233b 3acb d2ba 3cf5 813a 9d07 db39
00000050: beb4 eaba c26c f8b9 89c3 393b 4d17 9cba
00000060: 2c0f 9d3a 0f6b 24bb e2f3 07bb fed6 d4ba
00000070: f635 4cbb d233 933a 0ae3 30b7 a89e efba
00000080: 9426 1c3b b7b8 4dbb a67e 4dbb 35fa ccba
00000090: 4baf 7dbb bb77 0c3b c1ab bd3b 911b c43a
000000a0: b6f9 b33b 2193 bbb8 57a1 06bb 4157 dab9
000000b0: 94a4 963a 5f5b 82bb 720a 55bb b048 3abb
000000c0: de84 acba ac65 21bb ad89 9eb9 a72b 4fbb
000000d0: 2a20 9ebb 0cc2 a9ba 8836 593b f045 0bbb
000000e0: bf61 2dba 9739 bfb9 574b 943a 842e b5ba
000000f0: 5fe0 323a 76cd 0b39 74ef 753a fffb 8438
00000100: 0cc3 cbba 8d4e c739 8de6 f239 e765 d738
00000110: 20d4 c3ba 95cb e3ba d193 173b 8cb3 b93a
00000120: c7ec 233b 5b35 8b3a 6b7b 80ba ef98 cf3a
00000130: a3f1 2e3a 6601 d439 701b 74bb 2f94 6fba
00000140: 34ed 3f3b 9c5c 323a 21b1 cdba c8dc 233b
00000150: a52f a1ba 6223 f639 d7b1 6d3b af66 f33a
00000160: d9a5 073a c945 83bb c68b 64bb e2d0 0fbb
00000170: 5dbb d5ba 8154 feba 18d6 76bb a544 95bb
00000180: 9f30 5dbb 8e65 0c3b d787 3b3b 1353 243b
00000190: 09d6 91bb 41cf 7a3b 7e59 7e3b 2a06 e23a
000001a0: 97c1 1939 83fa 863a 24cb 553a 6a44 1b3b
000001b0: d054 1c39 92cc 20bb 9ce7 02bb 38d7 c0ba
000001c0: dd1e 2aba 8dc4 2939 117d 543a 2d59 d7b9
000001d0: e562 c33b bfbe 353a 40b4 6dbb 7099 343a
000001e0: 6acb 26bb 4ce7 32ba 04a5 883a e192 6bbb
000001f0: 9b54 3f3b 11a5 1bbb 6819 57bb cd1a 1e39
00000200: 58df 45bb c128 503b 6bb9 493a 851e cab9
00000210: 5265 693b defe 18bb 9f1a da38 d310 bb3a
00000220: 993e 1fbb 4c63 223b f855 61b9 ae98 aaba
00000230: 7ead 66bb 4880 2b3b 5390 823a cdfd 00ba
00000240: 75ae 483b 17df 42bb 9d6c 88ba 581d feb8
00000250: 4505 573b 8a25 4abb e9c0 44ba 0566 0a3a
00000260: 41b7 45bb f1b0 383b 72c0 023a a944 4aba
00000270: b65c edba 1a89 123b 2ebd 103a e049 c439
00000280: 61d4 3abb 6986 233b e19c ae38 482a 94ba
00000290: 2931 153b 577c 0bbb 5a30 31ba 25e1 9939
000002a0: fc58 343b f114 45bb 6e51 68ba 3a3e 7cb9
000002b0: a158 70bb 009b 173b 51e1 beb9 b74e 09bb
000002c0: e8c9 213b eb44 41bb e635 deb9 5405 323a
000002d0: 7a3e 62bb 2a29 4d3b 4849 2b3a 9371 82ba
000002e0: 1518 843a c21d 01bb 36cc 3fba 4195 d3ba
000002f0: e50e 33bb bfb3 333b 29b7 d439 2966 1bba
00000300: e42f 5cbb 5dbb 113b 39a0 7e3a 902b 58bb
00000310: 918b 3dbb f76b 433b a410 563a 94aa 19b9
00000320: e93a 1c3b c280 96ba 4c0c 463a 4c5a ec3a
00000330: e7ba 8cbb 6c38 583b 68b5 4e39 a524 17bb
00000340: bb36 273b ddae 2ebb 05f4 31ba 47db e4b7
00000350: d44a 103b 1b37 0ebb d00f a2b6 b74d a539
00000360: 6493 a73a 4e3c a1ba 5355 d4ba 19c8 afb9
00000370: bd37 42bb 6fa6 1e3b 5ed8 5739 abf6 90ba
00000380: 54de 05bb 6c0a d33a 3ce4 58b9 dadc 43ba
00000390: 1c6d d83a 92cf 18bb 3e70 50b9 d19b eeb9
000003a0: 97bf 34bb df5a 353b 8502 e239 7371 fab9
000003b0: d2a4 48bb 2239 403b 5a4f 5c3a b351 b7b9
000003c0: 02b5 9cb9 0bf8 043b f305 9e3a 511f 573b
000003d0: 2b27 14bb 7199 403b 7464 9d3a b2d3 c43a
000003e0: 5f4b 20bb 4bdc 383b bca0 8e3a 1ede 533a
000003f0: b234 31bb 62ab 3f3b 761d 053b 2f41 513a
-0.0034705342 0.0025405996 0.001228488 0.00052377896 -0.0021567456 -0.00067641406 0.0011581978 -0.0033058876
0.0017033088 0.0023415857 -0.0006716959 0.00024089096 0.0028344346 0.00057900435 0.001874983 0.0017461018
0.0024974202 -0.0016082295 0.0009915004 0.00041776607 -0.0017906649 -0.00047383277 0.0028345308 -0.00119088
0.0011982671 -0.0025088226 -0.002074473 -0.0016238389 -0.0031160093 0.0011230654 -1.0543279e-05 -0.0018281536
0.0023826705 -0.0031390616 -0.0031356006 -0.0015638532 -0.003870922 0.002143367 0.005788297 0.0014961829
0.0054924143 -8.94426e-05 -0.0020542943 -0.0004164521 0.001149314 -0.0039781774 -0.0032507447 -0.0028424673
-0.0013162156 -0.0024627252 -0.00030238685 -0.0031611712 -0.0048256116 -0.0012951507 0.0033144075 -0.0021251403
-0.00066139916 -0.00036473267 0.0011313957 -0.0013823067 0.0006823595 0.00013332613 0.00093816896 6.3411884e-05
-0.0015545799 0.00038014763 0.0004632961 0.0001027098 -0.0014940538 -0.0017379398 0.0023128877 0.0014167889
0.0025012956 0.001062076 -0.0009802406 0.0015838424 0.000667358 0.00040436833 -0.00372478 -0.00091392075
0.0029285671 0.0006803961 -0.0015693047 0.0025003422 -0.0012297524 0.0004694714 0.003626933 0.0018570031
0.00051745545 -0.004006122 -0.003487335 -0.0021944572 -0.0016306449 -0.0019403846 -0.003766423 -0.004555302
-0.0033750904 0.0021422836 0.0028614902 0.002507393 -0.004450564 0.0038270506 0.0038810666 0.0017244269
0.00014663335 0.0010298047 0.00081555755 0.00236919 0.00014908914 -0.0024535996 -0.0019974476 -0.0014712578
-0.00064895843 0.00016190317 0.00081057945 -0.00041074437 0.005962717 0.00069330254 -0.0036270767 0.0006889319
-0.0025450834 -0.0006824627 0.0010425155 -0.00359457 0.0029194716 -0.002374951 -0.003282154 0.00015078038
-0.0030192938 0.0031762572 0.0007695171 -0.0003855118 0.003561337 -0.0023345272 0.000104000086 0.0014271982
-0.0024298786 0.0024778424 -0.00021489698 -0.0013015473 -0.0035198624 0.002616899 0.0009961225 -0.0004920632
0.0030621563 -0.0029735023 -0.0010408346 -0.000121171295 0.0032809537 -0.003084513 -0.00075055525 0.00052794843
-0.0030169042 0.0028181637 0.0004987783 -0.00077159196 -0.0018109295 0.002235955 0.0005521354 0.00037439074
-0.0028507935 0.002495194 8.3261875e-05 -0.0011304105 0.0022764897 -0.002128383 -0.0006759219 0.0002935018
0.002751886 -0.0030072297 -0.00088622316 -0.00024055774 -0.003667392 0.0023133159 -0.00036407498 -0.0020951459
0.0024686996 -0.0029490541 -0.00042383297 0.0006790955 -0.0034522102 0.0031305053 0.0006534052 -0.0009952061
0.0010077978 -0.0019701575 -0.00073165016 -0.0016142504 -0.002732211 0.002742037 0.00040572256 -0.0005928004
-0.003359788 0.0022236921 0.0009713206 -0.003298495 -0.00289223 0.002981899 0.0008165932 -0.00014654762
0.0023838824 -0.0011482465 0.0007554933 0.0018032282 -0.0042947414 0.0032992614 0.0001971327 -0.0023062613
0.00255148 -0.002665452 -0.0006788376 -2.7281827e-05 0.0022017257 -0.0021700326 -4.829817e-06 0.00031529155
0.0012785015 -0.0012301297 -0.0016199745 -0.00033527685 -0.0029635273 0.002420809 0.00020584601 -0.0011059841
-0.0020426707 0.0016101128 -0.00020684389 -0.0007471569 0.0016512009 -0.002331708 -0.00019878239 -0.0004551099
-0.0027580017 0.0027672572 0.00043107956 -0.00047768242 -0.0030615819 0.0029330929 0.0008404158 -0.0003496535
-0.000298895 0.0020289447 0.0012056216 0.0032825063 -0.0022606354 0.0029388333 0.0012008087 0.0015016703
-0.0024458987 0.0028207477 0.0010881643 0.0008082109 -0.0027039465 0.002924644 0.002031175 0.00079824304

base_model.model.bert.encoder.layer.0.attention.self.value.lora_A.weight f4 [4, 384]
00000000: 43b0 563c 00dd 2a3d e003 d6ba 39e5 593d
00000010: 92d9 a13c 5011 47bd 5955 313b fb60 30bc
00000020: 6418 e3bb 034a 2ebd 6572 253d 343a 24bd
00000030: c128 463c a1f6 0d3c f8bb 72bd dffa 07bd
00000040: 7fcb 30bc 9fac 463d f815 243c bfc2 573d
00000050: 5d00 9e3c 8bc5 acb9 ac09 11bc 3a56 7ebb
00000060: 5867 dd3c 901f da3c ed68 583c b381 9dbc
00000070: 7c8a 3d3d 284a 57bd 0137 70bd cceb b93c
00000080: 0c9e cb3a b871 d33c 59f9 613d d2ad ed3c
00000090: a7a7 7abc c18b 0fbb aaf4 c23c 835b c4bc
000000a0: 8524 f33c ccb2 933a 6373 af3a cb44 b53c
000000b0: 38ed 6a3d f626 2abc c80b e13c 47e5 b6bc
000000c0: 43d6 5fbc 836b b9bb ea9b 1bbd 83aa 9cba
000000d0: 3c6a 86bc 6559 20bd fe68 5bbc a1b3 d13c
000000e0: f359 14bd 8ffe 853c f08a bbbc 7e2b 893c
000000f0: 226b 42bc f8a6 613c a93c 61bc d677 b53b
00000100: a7b9 10bc 554d 023d f923 4bbc d6cc 4abb
00000110: cde4 c0bc 8735 233d 8f59 fe3c f336 27bd
00000120: cf53 9a3a 6ee6 0f3d 71d3 dd3c e299 87bc
00000130: 4810 e43c be8b 0bbd 0067 c13c 8cb9 4ebd
00000140: 4cd1 4cbd beaf 043d 0d5b 443d c9ea f63c
00000150: 8e77 3bbd fa3b 12bd 936f c53c 7adb cb3c
00000160: 5e21 4dbd 3c18 243b 3299 323d 2e0d adbc
00000170: 72df 96bc 8f9f be3c 8afe 4e3b af9c c6bb
00000180: 9aed a83c 074c 963c 2435 d3bc 3b16 a03c
00000190: f8d1 3cbc 3b60 0c3d 8ac7 3fbd b1f3 823c
000001a0: b468 c3bc e8cc 6ebc e80a ab3c 3909 aa3c
000001b0: 88cf ed3c 1fed 63bc b473 86bb 52ed 493d
000001c0: f4b7 653c b28e fd3c d5e0 ecbc eb21 01bd
000001d0: ca86 073d f666 2abc ab4c d6bc c414 153b
000001e0: f201 1abd 722f f33b 4e91 c6bb c07e 10bd
000001f0: c586 253c 0e93 173d 8955 933c 4d12 303d
00000200: acc7 c5bc 39a0 a6bc 3e79 ba3c 32b9 8e3c
00000210: a854 4d3d 45c0 383c bdfc 79bc 99dd 9ebc
00000220: dc33 4bbd 351b 33bd 9baf 203d 6967 263a
00000230: 67fd d83a f146 0f3d 4177 063c 1fb7 1abd
00000240: 1dd8 d439 514b 9dbc c171 603c a13b 2c3c
00000250: 589c dfbb 1285 4dbd 5a0d 4fbd 05e0 71bd
00000260: 2240 583c 1f86 183d c849 86bc 7956 e03c
00000270: 0e13 32bd c210 053d 7b3f 3cbd fa05 e5bc
00000280: fb93 423d 4f59 603d 804c 43bd f085 a5bb
00000290: dce1 183d b8fd 23bc 11bf 2c3d 0d25 323c
000002a0: febe fc3a ba54 07bc 1f7d 53bb 27a6 1abd
000002b0: 7712 13bd 2444 573c 0d0a 5ebc b503 5a3c
000002c0: 2917 493d 15e2 16bd 310d a03c ad79 f13c
000002d0: 5d37 74bc 0127 52bb 6a11 5ebc a7fb 9bbb
000002e0: a990 323d 4c14 a0bb eafe 53bc 7893 35bd
000002f0: e93a 05bd ca58 b9bc 1b19 323d 5805 1fbd
00000300: d427 163d 26ca 093d 4ee5 97bc 9991 1c3d
00000310: ca03 cdbb d0e0 09bd c3fd f3bc 8c61 323d
00000320: cdc3 843b 5d51 1fbb 4129 443b 0b82 e03b
00000330: af5b 963c 1574 b73c 599c ef3b 7031 d6bc
00000340: 43bb 463b 2c52 573d a8ad ed3c 1a16 36bc
00000350: 2713 6abc 6b84 9d3c 3df2 63bd ea23 5f3c
00000360: 05da 61bd 8000 1e3d d85a b43b 189e 17ba
00000370: 4047 21bd 963a 333d 6be2 10bc 219f d33c
00000380: 781b 893a cedc ab3c 6cb7 e83c bcdb 0c3d
00000390: 8751 a43b 9d34 00bc 3848 12bd d84c 2d3d
000003a0: 115d e8bc 13ad 35bd 2206 40bd a89e 8f3c
000003b0: 59c7 32bc cf5b 75bd 8d1a 5f3d 4bbd 183c
000003c0: c377 1d3d 5564 4abd d33d f63c 6ee9 6a3c
000003d0: da92 523d 3548 16bc 07b6 323d b55f 2ebd
000003e0: d6ba b2bc b5a7 d0bb 4807 f6bc 0e05 11bd
000003f0: 5307 b4bc 21cb 3abd 908a d03c 78e7 0abd
0.0131035475 0.04171467 -0.0016328059 0.05319712 0.019757066 -0.048600495 0.0027058928 -0.010765309
-0.006930398 -0.04255105 0.0403923 -0.04009457 0.012094677 0.008664758 -0.059261292 -0.033198234
-0.010790705 0.048504468 0.010015003 0.05267596 0.019287283 -0.00032953577 -0.008852404 -0.003880872
0.027026817 0.026626378 0.01320861 -0.019226884 0.046274647 -0.052560955 -0.058646206 0.022695445
0.0015534773 0.025811061 0.055169437 0.029013548 -0.0152987605 -0.0021903368 0.023798306 -0.023969417
0.0296805 0.0011268496 0.0013385828 0.02212753 0.057355136 -0.010385266 0.027471438 -0.022326125
-0.013661924 -0.0056585683 -0.037990488 -0.0011952672 -0.016408078 -0.039147753 -0.013391731 0.025598349
-0.036218595 0.016356735 -0.022893399 0.016744372 -0.011866363 0.013772719 -0.013747373 0.005537967
-0.0088333255 0.03181203 -0.012398713 -0.0030944846 -0.0235466 0.03984597 0.031048564 -0.040823888
0.0011774244 0.035131864 0.027078362 -0.01655287 0.027839795 -0.034068815 0.023608685 -0.05046992
-0.05000429 0.032394163 0.047938395 0.030141251 -0.045768313 -0.03570173 0.024101054 0.024884928
-0.05008065 0.002503886 0.04360313 -0.021124449 -0.018417094 0.023269443 0.0031584823 -0.0060611586
0.02062111 0.0183468 -0.025782175 0.01954185 -0.01152467 0.03427146 -0.046821155 0.015985342
-0.023853637 -0.014575221 0.020879224 0.02075635 0.029029623 -0.013911515 -0.0041031484 0.049298592
0.014020909 0.030951831 -0.028915802 -0.031526487 0.03308753 -0.010400524 -0.026159605 0.0022747973
-0.03759951 0.0074214274 -0.006059802 -0.03527713 0.010102932 0.037005477 0.017985122 0.042986203
-0.024143063 -0.020340072 0.02276289 0.017422292 0.050129563 0.011276309 -0.015258011 -0.019392775
-0.049610004 -0.04372712 0.03922997 0.0006347807 0.0016555012 0.034979764 0.008207143 -0.037772294
0.00040596808 -0.019200953 0.013698996 0.0105122635 -0.0068240575 -0.050175734 -0.050549842 -0.059051532
0.013198884 0.037237283 -0.016392604 0.027384983 -0.043475203 0.032486685 -0.045958977 -0.027956951
0.047504406 0.05477267 -0.047680378 -0.005051367 0.03732477 -0.010009222 0.042174403 0.010873091
0.0019282994 -0.0082599465 -0.0032270623 -0.03775611 -0.03590628 0.013138805 -0.013552201 0.013306548
0.049094353 -0.036836702 0.01953754 0.029476965 -0.014905778 -0.0032066705 -0.0135539565 -0.004760224
0.04359499 -0.004885232 -0.012939194 -0.04433009 -0.032526884 -0.022625346 0.043480974 -0.038823456
0.036659077 0.03364005 -0.018541958 0.03822479 -0.006256555 -0.033661664 -0.029784089 0.04355006
0.0040516616 -0.002430997 0.0029931816 0.00685144 0.018354265 0.02239422 0.0073123393 -0.02614662
0.003032402 0.0525686 0.02901347 -0.011113668 -0.014286793 0.01922818 -0.05565094 0.013619402
-0.05513956 0.038574696 0.0055039935 -0.00057837507 -0.03937459 0.043757044 -0.008843045 0.025832715
0.0010460457 0.020979311 0.028407775 0.034389243 0.0050146016 -0.007825044 -0.035713404 0.042309612
-0.02836469 -0.04435451 -0.04688085 0.017531708 -0.010911786 -0.05990201 0.05446868 0.009322475
0.03844429 -0.04941209 0.030058777 0.014337881 0.05140958 -0.009172489 0.043630626 -0.042571742
-0.021817606 -0.0063676485 -0.030032769 -0.03540521 -0.021976149 -0.045603875 0.025456697 -0.033912152

base_model.model.bert.encoder.layer.0.attention.self.value.lora_B.weight f4 [384, 4]
00000000: 7c47 923a 67c7 19bb 4f0c a93a 04c2 e939
00000010: ff0c b4bb 3e18 a23b 6aae a5bb 99ac a63b
00000020: 0ee0 15bc 1291 0b3c 443b 1fbc 9711 983b
00000030: b972 55bb 338c 4e3b 78dc 6abb 928b 02b9
00000040: df70 883a 06bf 96ba 1b7b 093b f18d dbbb
00000050: da6b 3136 bfa2 b4b8 a198 b73a 13de 14bb
00000060: 05f2 8b3b 9fbf 82bb a0d8 673b cbdd 3dbb
00000070: fb97 8e3b 9d10 7fbb 2d51 9a3b 80e0 3abb
00000080: 36f5 a8ba e82d a33a 910e 00bb f178 823b
00000090: 0b01 463a 5c30 aaba 5424 f93a 900d a139
000000a0: f340 033b 537a 0ebb ab5d 413a 851e 5c3b
000000b0: 6818 6e3b d63e 71bb c518 363b 2fd9 9cb9
000000c0: fa7a 85bb 9156 923b a4fa 82bb 0b04 c23b
000000d0: 6c20 e6bb 7104 cf3b 67f3 93bb c714 9c3b
000000e0: 7eed 963b 1634 96bb dc89 a93b 3501 48bb
000000f0: e924 503b d258 43bb 417c 143b aaeb e7ba
00000100: 4b10 8d3b d370 9dbb 5006 973b c473 92bb
00000110: eaef 563b 21ce 4abb d3da 393b 9915 b8ba
00000120: 8813 50bb 2986 5d3b 2872 56bb 6b9a 60bb
00000130: 90a1 98bb f675 f13b 0799 a7bb ec75 6f3b
00000140: 8665 85bb 8d3e 963b e57b 64bb 5f16 2939
00000150: 9bbc 22bc 084f 253c 3d94 24bc 7b76 483c
00000160: 53a3 42ba a856 3f3a 2a5f 9339 8adb d3ba
00000170: 0b55 063c 7b5a 12bc 4e94 0d3c adb0 19bc
00000180: 6320 8e3b 7e4e 10bb 9834 c93b d40c f7bb
00000190: 6c3a 30bc 91ab 3c3c 74c8 39bc 6aeb 4e3c
000001a0: c595 96bb 97ed a03b 29eb 83bb a46e a33b
000001b0: 0ce5 acba 7a0f 9d3a a673 01ba abbb 9639
000001c0: f543 afba dbc4 33b9 0c13 89ba d887 bd3a
000001d0: 4b38 db38 afa2 7839 8475 f33a 2556 aabb
000001e0: 2bd1 28bc f7df 3a3c 5ee3 3abc 487f 5b3c
000001f0: 76a5 a2bb f82a 793b c71d 93bb 6dcf df3b
00000200: 7033 1d3b 112c 10bb 2877 0c3b 8d9c 47bb
00000210: 478e 14bc 6fab 0a3c a0ad 15bc 5541 3e3c
00000220: 3abd aabb 3d98 ab3b 2c57 b9bb 4711 103c
00000230: fe5f a0bb 092a b23b ce34 aebb ccef ad3b
00000240: d3d9 d139 5af2 fab9 bcc8 2f38 5e6a aa3a
00000250: dfb5 8bbb a50f a13b f131 a0bb e151 963b
00000260: b446 00bc 0d74 fc3b d042 fcbb 6248 cb3b
00000270: 0635 063b d15a b5ba ba4e af3a 6d3a 14bb
00000280: 9f31 693a 6706 3eba cb0c a939 76d1 2eba
00000290: 44f6 ef3b 40c4 febb 4e04 fb3b c08a 34bc
000002a0: 8086 2e3c 7913 38bc b6bc 2f3c 4927 4abc
000002b0: 896c d939 3218 89ba 3628 ca39 dce8 dbb9
000002c0: 24d3 4d3b e076 57bb 12d7 323b c773 56bb
000002d0: 8a40 893b 751d acbb 0aba 983b 99e0 70bb
000002e0: fc70 f03a fe7c 2ebb 23d0 253b 47ef c6ba
000002f0: 8b40 e73b 1e9a ebbb 9ad4 ef3b 9ff4 17bc
00000300: 212a fb3a 36cc 3bbb 9c00 2d3b 9fbd c5ba
00000310: d4b2 b6bb ad31 a13b 3356 b3bb 13a0 9b3b
00000320: d5a9 bf3b 2223 c3bb 1642 ae3b 3dde bfbb
00000330: c4d2 b9bb 1a5d 583b 36f0 9bbb a62b b33b
00000340: 40b0 95ba 139b ea3a 3903 fbba 5477 a13a
00000350: 3c50 07bc 70e3 143c 32a4 0abc 5b1e fb3b
00000360: 4a85 bc3b 325f eabb bf1f d13b 88e2 bfbb
00000370: 2b97 c1bb ede2 cf3b 4bf5 b3bb eb27 c03b
00000380: 804a a63a b7d8 b2ba 2988 893a 1885 c6ba
00000390: 556a 283a d41e ccba b004 c83a 8bf3 d3b9
000003a0: a17b 483b a30b 92bb c1c2 3c3b 90f5 17bb
000003b0: 790c 9fbb ced0 8f3b d2cc 86bb d2c1 b33b
000003c0: 6925 64bb 3c94 5f3b 398c 39bb 3e90 5f3b
000003d0: 91d8 593b 4b63 babb 19ec 803b dfb2 feba
000003e0: 29e5 75bb 69b0 523b 89ff 47bb b5e5 8b3b
000003f0: a9aa 5abb e488 813b d0a3 7cbb 2827 723b
0.001116022 -0.00234648 0.0012897345 0.00044585776 -0.0054947133 0.0049467376 -0.005056192 0.005086493
-0.009147657 0.008518474 -0.00971872 0.0046407687 -0.00325696 0.003151667 -0.0035836976 -0.0001244976
0.0010409615 -0.0011501021 0.0020977918 -0.0067002703 2.6437833e-06 -8.613383e-05 0.0014007279 -0.0022715374
0.0042707943 -0.003990128 0.0035376921 -0.002897131 0.0043516136 -0.0038919814 0.004709384 -0.002851516
-0.0012890461 0.0012449594 -0.0019539932 0.0039817025 0.0007553256 -0.0012984383 0.0019008019 0.00030718418
0.0020027726 -0.0021740391 0.00073763233 0.0033587527 0.0036330465 -0.0036811135 0.002778576 -0.00029916453
-0.004073498 0.004465886 -0.003997164 0.005920892 -0.007022908 0.006317668 -0.0045151 0.004763219
0.004605948 -0.004583846 0.005173905 -0.0030518298 0.0031760281 -0.002980758 0.002265707 -0.0017694135
0.004304921 -0.0048047095 0.004608907 -0.0044693667 0.0032796809 -0.0030945616 0.002835919 -0.0014044523
-0.0031749923 0.003380189 -0.003272185 -0.0034271728 -0.0046579316 0.0073687984 -0.005114678 0.0036538793
-0.0040709404 0.0045850934 -0.0034863886 0.0001612543 -0.009932662 0.010089643 -0.010045108 0.012235279
-0.000742485 0.00072989846 0.00028108928 -0.001616345 0.008198987 -0.008932705 0.008641316 -0.009380502
0.004337357 -0.0022019441 0.006140303 -0.007539371 -0.010756116 0.011515514 -0.011339296 0.012629369
-0.0045954906 0.0049111354 -0.004025836 0.0049875546 -0.001319082 0.0011982762 -0.00049381924 0.00028750053
-0.0013371693 -0.00017144105 -0.0010457947 0.001446004 0.00010453219 0.00023711727 0.0018574451 -0.0051982575
-0.010303776 0.011405936 -0.011406748 0.013397045 -0.004963572 0.0038019996 -0.0044896337 0.006830147
0.0023986958 -0.0021998922 0.0021433327 -0.0030458302 -0.009067125 0.0084637245 -0.009135634 0.011612256
-0.005210546 0.005236654 -0.0056561437 0.008793182 -0.0048942557 0.00543714 -0.0053163534 0.005308127
0.00040025878 -0.00047864282 4.19102e-05 0.0013001671 -0.004263624 0.004915195 -0.004888766 0.0045873974
-0.007829357 0.007704264 -0.0076983944 0.006203697 0.0020478382 -0.001383627 0.0013374903 -0.0022617832
0.0008895639 -0.0007248879 0.00032243723 -0.00066687854 0.0073230583 -0.0077748597 0.0076604253 -0.011019409
0.0106521845 -0.011235111 0.010726145 -0.012338468 0.0004147033 -0.0010459481 0.00038558402 -0.0004194443
0.0031406367 -0.0032877252 0.0027288836 -0.0032722817 0.004188602 -0.005252535 0.0046608495 -0.0036754964
0.0018344219 -0.0026624794 0.002530106 -0.0015177511 0.0070572547 -0.007190003 0.0073190453 -0.009274631
0.0019162336 -0.0028655655 0.0026398068 -0.0015086419 -0.005575517 0.004919252 -0.005472922 0.004749307
0.005849103 -0.005955116 0.0053179367 -0.0058553503 -0.005670877 0.0033014477 -0.00475886 0.00546785
-0.0011420324 0.0017898999 -0.0019150741 0.0012318888 -0.008258875 0.009087428 -0.008461999 0.0076635308
0.005753194 -0.0071524614 0.0063819583 -0.005855862 -0.005907913 0.0063441903 -0.0054918877 0.0058641336
0.0012686998 -0.0013644908 0.0010492849 -0.0015145866 0.0006424536 -0.0015573152 0.0015260186 -0.0004042651
0.0030591267 -0.0044569536 0.0028802606 -0.0023187138 -0.004853782 0.004388905 -0.004113772 0.0054857517
-0.0034812337 0.0034115454 -0.002831234 0.0034113075 0.0033240656 -0.005688106 0.003934395 -0.001943197
-0.0037520623 0.0032148606 -0.00305173 0.0042693266 -0.0033365882 0.003953086 -0.0038549788 0.0036949608

base_model.model.bert.encoder.layer.1.attention.self.query.lora_A.weight f4 [4, 384]
00000000: d460 06bc 010d c93c 78cf 673b 46c5 403d
00000010: 8ef7 28bd badf 1bbd b6ac 123d a55f 1e3d
00000020: 1b7b d23b 86a3 f73b 56f9 873a 514c 5d3c
00000030: 58bb d4bc ddf0 3ebd f516 37bd b3a0 d0bb
00000040: 4955 e2bb 4c4b 613c 3633 453d f70b 0d3d
00000050: d8c3 45bd 41bc 273d 949a 54bc 8086 3ebd
00000060: e47a 213c c029 023d d28a 373d 8982 7cbc
00000070: 4953 61bc db54 fe3c d209 5ebd 83b6 9b38
00000080: aff0 21bd fbc6 ebbc 01f3 ea3c 2d5e b2bc
00000090: 157f 033d 5264 e6bc 0d04 2f3d f3d2 2ebd
000000a0: 5d7f e5bc eec5 653b 7b89 06bd 2fcc d7bc
000000b0: 4280 2abd 0432 0a3d 02e4 31bd f835 e5bc
000000c0: 4d26 14bd 8bdf dfbb 7ac9 a6bc 1634 2dbb
000000d0: 4a3f 3fba 823c 7d3c d3d0 923b 1f6f 203c
000000e0: e16e 233d 0cef 02bd ae8b 203d 0dcd 95b9
000000f0: 5162 1abd b59d 463d 5018 033b 3884 06bd
00000100: 5360 12bd 26c0 2bbd 0f79 2e3d d81e af3c
00000110: 4e15 533d 766d 2c3d 376a cd3c b0b5 ddbc
00000120: 61b4 233d 9ec5 13bd 8ff8 cd3c 9ac0 38bc
00000130: 0901 26bd d5a9 2e3d dd56 9d3a e454 47bc
00000140: 5839 39bd 2597 bc3c 3f57 c1bc 15a7 3c3c
00000150: 8bc7 843c ec39 da3c 55c2 383d 0a98 ec3c
00000160: 61bb 4d3b c629 e33c f05f 5c3c 5302 ff3b
00000170: d78c 4b3d 029d 1c3d 3fbb 963c d5de c93c
00000180: efb6 1d3d ed8f 8d3c d345 0a3d 4e99 81bc
00000190: ecc0 c83c b75f ad3b c958 68bc b624 70bc
000001a0: ca25 47bd 4ea4 f33c 4b70 0f3c 12e5 f9bc
000001b0: 81c9 60bc 3822 233d a24d 1bbd e1ca bf3b
000001c0: 8b28 98bc 1c61 3d3d d257 613b a68b 05bd
000001d0: 2764 0cbd 24d5 8b3b 9a36 d4bc 8cd3 3bbd
000001e0: d39b fe3c 0987 1dbd 6b06 983c 54b8 86bc
000001f0: c0d5 3dbd 3620 e5bc 5439 d5bc 8ce5 28bc
00000200: 85ea 1cbc 857d b1bc 0102 983c 7cd1 913b
00000210: bfe1 a2bc 0484 903c 791c c9bc 8ff5 6cbc
00000220: 7b3a 4b3d fefa 593d 071d ea3c b4e0 e1bb
00000230: 5a5e e8bc 352c 7abc 76cd 5c3d e519 f7bc
00000240: 8053 04bd cd4c 883c c90f b8bc edc1 6b3c
00000250: 2542 eebc c37f 3ebd e3bb 273d acfc 0e3c
00000260: 4a81 583c aa2f 0b3d 6f32 0a3c eb58 38bc
00000270: e251 ee3c 9305 063d ccfd 553c 299c 0dbd
00000280: 26b1 cebc 1bfb 4ebd 3bac 7bbc 4a9a 4fbd
00000290: 66da a73c b92f b03b b5cf 4dbd 6376 cd3b
000002a0: 2577 6bbc 7e22 40bc fb5f c4bc c2eb 1abd
000002b0: afb1 bdbb 0861 9e3c 7d4c 583a 422c 3abd
000002c0: fd11 0abd 5bbb 91bc a13f d6bc 1be9 f83b
000002d0: 9342 0c3d f114 ca3c 5296 bcbc 9429 b03b
000002e0: 9822 073d 4afa d2bb 46d4 003d 88f0 6f3c
000002f0: b6e0 92bc 745e 603c 4ae4 ca3c 901c 593d
00000300: 807f f03c b690 9bbc ec02 2b3d 9341 dc3c
00000310: 6588 bdbc bc62 50bd 96aa 1dbc f7a6 99bc
00000320: 63a8 6fbc 18d6 9b3c e325 183d 1590 3c3b
00000330: 2e43 36bc d782 1a3d e23e c4bc 7735 a93b
00000340: dc2b 34bd e50e 19bd f4da e5bb 0633 ca3c
00000350: 6ea9 053c 0603 3abd 5a0a 083d 88da 03bc
00000360: f43d 073d b6b1 4f3d 133a ee3c 0ee6 df3c
00000370: 0077 203d d6a0 173d 9068 3ebd 65c6 ba3c
00000380: 50df 98b9 b13a 3dbc a581 66bb 0564 2ebd
00000390: ded9 0f3b df82 f33c 7ff1 01ba 74ce 09bc
000003a0: 8472 51bc f932 a23c 277f 9abc 2838 43b9
000003b0: da50 923a 5f85 5fbc 8b78 7a3c 0214 ffbb
000003c0: e9bf 28bd 1e6b e23c 1f9c 10bd efa3 143c
000003d0: abaa a53c 8371 f2bc ff32 89bc 0fa3 ef3b
000003e0: cf7d afbc 7807 dbbb a326 2cbd 2090 2f3d
000003f0: 5b38 f83c 0a87 053d f7c8 c7bc e96d c4bb
-0.008201797 0.024542334 0.0035371464 0.047063135 -0.04125171 -0.03805516 0.03580924 0.038665432
0.0064233667 0.0075573353 0.001037399 0.013506965 -0.025968239 -0.046616424 -0.044699628 -0.006366813
-0.0069071394 0.013750862 0.04814454 0.03443524 -0.048282474 0.040951017 -0.012976307 -0.046514988
0.00985596 0.031778097 0.044810124 -0.015411981 -0.013752767 0.031046322 -0.054208584 7.4249714e-05
-0.039536174 -0.028781405 0.028680326 -0.021773422 0.032103617 -0.028124008 0.042728473 -0.042681646
-0.028014833 0.0035060602 -0.032845955 -0.02634248 -0.041626222 0.033739105 -0.043430336 -0.027979836
-0.03616934 -0.0068320683 -0.020359743 -0.002642875 -0.00072955026 0.015456321 0.00448046 0.009792118
0.039900664 -0.031966254 0.03919571 -0.0002857227 -0.037691418 0.048490245 0.0020003505 -0.032840937
-0.035736393 -0.041931294 0.04259592 0.021377012 0.05153399 0.042096578 0.025075061 -0.027064174
0.039966945 -0.036077134 0.025142936 -0.011276389 -0.04052833 0.042642433 0.0012004037 -0.012166236
-0.045220703 0.02302129 -0.023601172 0.011514445 0.01620843 0.026638947 0.045107204 0.028881092
0.0031392204 0.02772988 0.013450608 0.0077822595 0.049694862 0.03823567 0.018399833 0.024642387
0.038504537 0.017280543 0.033757996 -0.015820172 0.024506055 0.005290951 -0.014181324 -0.01465719
-0.048620023 0.029741433 0.0087548 -0.030504737 -0.013719917 0.039827555 -0.037915833 0.0058530425
-0.01857402 0.04623519 0.003438462 -0.032603882 -0.0342752 0.0042673517 -0.025904942 -0.045856044
0.031080162 -0.038458858 0.018557748 -0.016445316 -0.046346426 -0.027969461 -0.026028313 -0.0103086345
-0.009577398 -0.021666298 0.018555643 0.0044500213 -0.019883035 0.017641075 -0.02454971 -0.014462843
0.04961632 0.05321788 0.028578294 -0.006893242 -0.028365303 -0.015269329 0.05390688 -0.030163715
-0.032306194 0.016638184 -0.022468464 0.014389497 -0.029084275 -0.04650856 0.040950667 0.008727234
0.013214419 0.033981003 0.008434876 -0.011251668 0.02909178 0.03272016 0.013060998 -0.034572754
-0.025230955 -0.05053244 -0.015360887 -0.05068425 0.020489883 0.0053767827 -0.050246913 0.0062702163
-0.014371668 -0.011726974 -0.023971548 -0.037822492 -0.005789004 0.019333377 0.0008251144 -0.045452364
-0.03370856 -0.017789533 -0.026153388 0.0075961477 0.034243178 0.024668189 -0.023020897 0.0053760502
0.032991976 -0.006438528 0.03145244 0.014644749 -0.017929416 0.013694394 0.02476706 0.053005755
0.029357672 -0.018989902 0.041750833 0.026886737 -0.023136327 -0.05087541 -0.00962319 -0.018756373
-0.014627549 0.019022986 0.037145507 0.0028772403 -0.011124415 0.037722435 -0.023955766 0.005163844
-0.04398714 -0.03736772 -0.0070146266 0.024682533 0.008158071 -0.04541304 0.033212997 -0.008047707
0.033018067 0.050706588 0.029080426 0.027331378 0.039175987 0.03701862 -0.046486437 0.02279968
-0.0002915808 -0.011549638 -0.003517249 -0.042575855 0.0021949927 0.02972549 -0.0004956945 -0.008411039
-0.01278365 0.019799696 -0.01885946 -0.00018617569 0.0011163012 -0.013642638 0.015287529 -0.0077843675
-0.041198645 0.027638968 -0.03530514 0.009072288 0.020222982 -0.029595142 -0.01674795 0.0073131393
-0.021422295 -0.00668424 -0.042029034 0.042862058 0.03030031 0.032599486 -0.02438782 -0.0059945476

base_model.model.bert.encoder.layer.1.attention.self.query.lora_B.weight f4 [384, 4]
00000000: 0228 4d3b caeb d3bb d284 81bb 628e 2ebb
00000010: d576 de3a ab68 b5ba 8ca5 f8ba f96f 6fb8
00000020: dc2d 53ba 4f80 a4ba 6f41 853a 989d 78bb
00000030: ed32 8c3b 2ae5 32bb a986 96bb cbfe ebba
00000040: c6bc 9c3b 4cd0 40bb e758 92bb 0721 2dbb
00000050: 3da5 a03b 4364 32bb 2e6c b3bb 628d c7ba
00000060: 0a0c 4b3b 9bd8 d5ba f0b2 62bb 7acd 3cba
00000070: 83dc 6a3b f6ba 5abb d633 8dbb 552e 1abb
00000080: 1137 333a bcff 07bb 71bc 39ba 679f abba
00000090: 042d afb9 761e 0bbb 576c f7b7 c217 61bb
000000a0: 2b7b cfba da75 b03a 5e3e db3a 9fde 8a3a
000000b0: d781 dfba f132 4d3b 434a 173b a675 8c3a
000000c0: 802f dbba 4876 1f3b 23ad 8bb9 545a 3d3b
000000d0: 0609 40bb 5d8c 903b 017d 553b d5f4 553b
000000e0: 4d6e 163b df15 daba aa8e 5dbb e23f 10bb
000000f0: 9834 48ba ae1b 1f3b 981b 193a 1401 923b
00000100: 4b99 16bb aa70 03bb bb0b f73a f070 5abb
00000110: a5a4 003b ca85 f7ba c32b 12bb 7996 ddb9
00000120: a39e 4d3a 78f8 e73a e2ed e739 16d6 cc3a
00000130: 7c33 f2b9 f341 b13a fd42 743a a90b 1a3b
00000140: 13d4 723b 5ec4 c1bb 6752 8ebb 61db 5ebb
00000150: 7e49 6bbb c28f 863b 0d5f 603b d886 5a3b
00000160: ad3d 483b ed51 31bb 8630 6ebb 49f8 26bb
00000170: d356 c0ba ad77 43b9 4592 063b 1059 46bb
00000180: e4ca 0abb b87e d6ba edbe fb3a 0d50 fdba
00000190: 5610 74bb a661 8c3b 4339 7e3b 1795 d33a
000001a0: f3e1 ca3a e118 de39 ba18 bfba 8c3b 1b3b
000001b0: 822a 6b3b 5a66 91bb b418 8bbb 9fcd 06ba
000001c0: 6dfa 943b 69bb aaba 36b9 a2bb 91cd 9539
000001d0: c2ae 33bb d971 7a3b d1a3 a73b 4ec0 233b
000001e0: 21c0 28bb 04f3 093b 0d58 253b dd5c b63a
000001f0: 3ae3 52ba 9d41 70ba 0ed3 133a 816d fbba
00000200: a2f9 0bbb 9c00 8dbb 4af3 dd3a b001 3bbb
00000210: b476 073b 8dca 953b 791d 04bb 5771 473b
00000220: 9950 0a3b 15c2 5e3b 85df fdba 5c48 253b
00000230: 52b3 35bb 33ef f7b8 3ac8 553b 06bf 82ba
00000240: 2c25 deb9 1aab 983b 9d11 4b3a 7564 413b
00000250: 6526 28b7 4c26 13bb 16fa 33b8 3ac0 cbba
00000260: df90 a2ba 4838 e7b8 d4e2 af3a 1869 4fb8
00000270: 82b1 deba 2196 34bb 728e e13a 7149 05bb
00000280: 9110 c7b9 ed87 56bb 790e 8ab8 3984 21bb
00000290: de7f e53a d1ef e83a 6963 ddba 8cf3 423b
000002a0: a78c a23a 8fb2 9f3b ef47 9bba 5106 633b
000002b0: 109f a9ba 2f56 9dba 4b3e d23a 61d7 7dba
000002c0: 79e9 d5ba 0162 45bb 013b cd3a 2c81 02bb
000002d0: 0ff4 893a 8a5a bc3b b0cd 23ba 81b3 863b
000002e0: 0457 a83a fb2d 253b ef2a 9bba 3d3d 8a3b
000002f0: 2912 063b e0a0 833b 1cd1 f7ba fc59 8f3b
00000300: 1a7d ca3a 28b1 6a3b 9aca cfba 47be 0f3b
00000310: a410 d13a ddde 533b f559 99ba 9c02 203b
00000320: 3268 b03a a6cb 713b 937d 9dba 9848 133b
00000330: a111 973a 3389 9b3b 5efa b2ba 256b 263b
00000340: f4c6 f73a 974e 723b b73c edba 401c 573b
00000350: 6c5a 5d3b ab06 09bb b623 23bb 4acf 47ba
00000360: d489 9eba db3b 5e37 a809 94b9 192a 203a
00000370: 9cea 82ba 27cb 1abb 2c9b 793a 03a9 dbba
00000380: 85f8 3b3b db34 c83a 449c 58bb 09a0 dd3a
00000390: 0d21 123b ca26 813b d086 02bb 6362 303b
000003a0: ec7a fc3a 01ba 20ba 2650 2aba 902c 4fb9
000003b0: 27a5 603b a3a5 2cba 098f 65bb 968c c239
000003c0: ac53 ea3a 3df9 913a 3476 03bb 2fa6 033b
000003d0: 284d a4ba f65f 30bb 63ce b03a 63b6 bbba
000003e0: 3446 1ebb f5be 0ebb 2f01 7a3b 1aaf 5cbb
000003f0: a574 e3ba e7a2 55bb df97 dc3a 659c b5bb
0.0031304364 -0.006467317 -0.003952601 -0.002663516 0.001697267 -0.0013840398 -0.0018970235 -5.7086323e-05
-0.0008055845 -0.0012550446 0.0010166595 -0.003793573 0.0042785318 -0.0027297237 -0.0045936895 -0.0018005011
0.0047832457 -0.002942103 -0.0044661644 -0.002641739 0.0049025104 -0.0027220405 -0.0054755425 -0.001522463
0.0030982518 -0.0016315164 -0.0034591518 -0.0007202249 0.0035837002 -0.0033375598 -0.004309158 -0.0023526151
0.00068365136 -0.0020751795 -0.000708527 -0.001309377 -0.0003341214 -0.0021227873 -2.9495144e-05 -0.0034346436
-0.0015829554 0.0013462857 0.0016726961 0.0010594911 -0.0017052245 0.003131088 0.0023085035 0.0010716214
-0.001672253 0.0024331976 -0.00026641143 0.002889295 -0.0029302253 0.004411264 0.003257573 0.0032647152
0.0022953928 -0.0016638598 -0.0033806958 -0.0022010733 -0.00076372316 0.0024277973 0.00058405986 0.004455695
-0.0022979553 -0.0020056167 0.00188481 -0.0033331476 0.0019629386 -0.0018884477 -0.0022303916 -0.00042264516
0.0007843768 0.0017697951 0.0004423699 0.0015627767 -0.00046196196 0.0013523683 0.00093178434 0.0023505485
0.0037052676 -0.0059133014 -0.004343319 -0.0034005272 -0.003590196 0.0041064927 0.0034236342 0.0033344533
0.003055434 -0.0027056888 -0.003634484 -0.002547758 -0.0014674313 -0.00018641232 0.002053396 -0.0030265488
-0.002117806 -0.001636467 0.0019206681 -0.0019326225 -0.0037241182 0.0042841015 0.0038791455 0.0016142455
0.0015478715 0.00042361676 -0.0014579513 0.0023686616 0.003588349 -0.00443725 -0.004244888 -0.0005142334
0.0045464546 -0.0013025823 -0.0049659265 0.00028572654 -0.0027417396 0.003821483 0.005115964 0.0024986449
-0.0025749283 0.002104939 0.0025229484 0.0013913173 -0.00080447237 -0.00091650506 0.00056390546 -0.0019182415
-0.002135851 -0.004303051 0.0016933468 -0.0028534941 0.0020670118 0.004571265 -0.0020159169 0.0030432546
0.002110517 0.0033990194 -0.0019368982 0.0025220132 -0.0027725291 -0.00011822432 0.0032620565 -0.0009975142
-0.00042370835 0.004659069 0.000774646 0.002950934 -1.002252e-05 -0.0022453247 -4.2909836e-05 -0.0015544959
-0.0012402794 -0.000110254216 0.001341904 -4.9450522e-05 -0.0016990157 -0.0027555304 0.001720859 -0.0020337964
-0.0003796858 -0.0032734827 -6.5830485e-05 -0.0024645461 0.0017509421 0.0017771666 -0.0016890588 0.0029747216
0.0012401537 0.0048735808 -0.0011846999 0.0034641216 -0.0012941081 -0.0012003834 0.0016040293 -0.0009683278
-0.0016320191 -0.003011823 0.0015657843 -0.0019913418 0.0010525006 0.005748098 -0.00062486064 0.004110754
0.0012843315 0.0025204408 -0.0011838357 0.004218726 0.0020457602 0.0040169805 -0.0018906924 0.0043747406
0.001544866 0.003581116 -0.0015853227 0.0021933482 0.0015950394 0.0032328882 -0.0011699783 0.0024415618
0.0013458787 0.0036895066 -0.0012015573 0.002247369 0.001152564 0.00474658 -0.0013654938 0.0025393453
0.0018903897 0.0036973113 -0.001809976 0.0032823235 0.003377582 -0.0020908515 -0.0024893112 -0.0007622136
-0.0012095519 1.3246167e-05 -0.00028235954 0.00061097887 -0.0009988132 -0.0023619623 0.00095217186 -0.0016758743
0.0028682065 0.0015274541 -0.0033052126 0.0016908656 0.0022297532 0.0039413916 -0.001991678 0.0026914112
0.0019262708 -0.00061312324 -0.00064969284 -0.00019757659 0.0034278126 -0.0006585961 -0.0035027883 0.00037107308
0.0017877719 0.0011136901 -0.0020059468 0.0020088067 -0.0012535201 -0.0026912666 0.0013489242 -0.0014321323
-0.002415073 -0.00217813 0.0038147678 -0.0033673705 -0.0017353488 -0.0032598318 0.0016829929 -0.0055423253

base_model.model.bert.encoder.layer.1.attention.self.value.lora_A.weight f4 [4, 384]
00000000: 8eb8 f93c ce71 d33c 3c3d 55bd 398b 50bd
00000010: 2b3a d6bc c614 213d ab11 343d 0671 243c
00000020: c535 ebbb c9e1 3c3d ab5b 9f3c c98a 5fbd
00000030: 9d22 36bd a76b a6bc 021e 183d e8ba c5bc
00000040: 472d 61bd 2d5e 1b3d 7410 a1bc f85c cdbc
00000050: e88a 1c3d e606 4f3c 81d3 5a3c cee0 a23c
00000060: 2705 343c 1e3b 0fbd 4511 cdba e1da 8e3c
00000070: 3e6a 9ab9 1ac6 86ba 6bb9 febb 05b8 4bbd
00000080: b785 79bc 928c d4bb df34 263d abac 5b3d
00000090: 2e51 01bc 9684 1cbd 505b 48bc a15c bbbc
000000a0: e527 313b 1540 63bc ebc0 a7bb 236d 4a3d
000000b0: 8faf bbbc fb42 66bc 2be7 3fbc 4a24 8d3c
000000c0: 31bc 2438 9ab1 0abd af6a bebc d323 383d
000000d0: b477 b5bb d016 a5bb 5a1a 3b3a 580a fcbc
000000e0: e493 4dbc 8df5 f1bc 841f ac3c 4807 193d
000000f0: e1be 2fbd edac 3d3d 1407 9a3c 4c37 0dbd
00000100: 48a4 f1bc 5dd3 f63c 9924 3c3d d285 2b3d
00000110: b333 d43b 7971 33bd 79d7 5e3d 4fcf 3fbd
00000120: 8230 8ebc 0e75 1fbc 1553 963b 9fbf 2e3d
00000130: 3a12 adbc 41aa 02bb aea8 053d d584 cabb
00000140: 4fb7 523d 64f4 443c 5784 243d 0dcc 4c3d
00000150: 98a8 dfbc a242 173d 215c 52bc 1e89 d13c
00000160: 2b9e e63c 754c 293d 4290 d5bc 85ae 583c
00000170: 03df 133c e1c7 c0bb 28e1 003d 7442 de3c
00000180: cec3 213d ab4f 16bb 6a82 3d3d 9def d8bb
00000190: 8fe0 c83c 79c2 e73c 7df6 af3c dd5e 0dbc
000001a0: 5526 b4bc 9cbc f8bb 9de2 783c 604c ffbb
000001b0: 9d02 413d af6d 823c 921d 3c3c 81ca c93c
000001c0: b86f 53bb 62dd c3bc 2129 28bd 3e57 1a3b
000001d0: f15d 173d ce13 2fbc 7847 943b f884 463d
000001e0: 39e3 0bbc 5300 683d 6515 47bd 1218 c13c
000001f0: 62fb ad3c 1d29 d83b 9832 163d 2bc8 883b
00000200: b401 bb3c 8db1 cebc db25 09bc 7557 2c3d
00000210: 170a 88bc 5410 e73c 853a 2d3d cf0f 1bbd
00000220: d761 3f3c ff2b 313d 5ccc 2abc fd2a f6ba
00000230: 36de dcbc c186 8e3c db28 27bd 582b 57bd
00000240: d6fb 503c 228a 473b 26e8 773c b165 cf3c
00000250: 40c0 80bc 8594 a03a 7afe 9cbb 7058 97bc
00000260: 6805 273d bfe0 acbc 3ab2 6f3c 3d1e 01bb
00000270: de31 f73b 7259 893c 913e 633c 6d02 ccbc
00000280: bc9c 11b9 114c bcbc dbe0 10bd 6a2b c13b
00000290: ddb7 a5bc 3f59 33bc 4d9c 4abd ffb2 543c
000002a0: fc56 06bd 70ff 39bd 1813 5ebc d149 1c3c
000002b0: c9f9 593d e8c0 523d a4cb 72bc 41bb 8438
000002c0: 52c8 643c b78c e6bb 3e2e 33bd a332 5d3c
000002d0: b649 083d 9131 eebc ea07 61bc 0e0f 2dbb
000002e0: 7290 4a3d 8012 ae3c 86f4 ff3c 217a 8a3c
000002f0: e87f 063d 460b 5bbd 322d 1cbd ca2a 86bc
00000300: aab2 89bc 5f30 da3b 67d1 123c 4c59 6d3b
00000310: ac00 66bc 7c54 fa3c 0ec8 db3c 786e d93c
00000320: 9424 b63c 6761 9aba fe67 e8bc d527 3dbd
00000330: b9f4 e9bb 0587 333d 73f0 87bc cd55 fd3c
00000340: cadc d53c 5bc3 8dbc 0631 d6bc f475 143d
00000350: a806 c5bb 073a 8d3c 5244 493d ac15 283d
00000360: e3cb 49b8 3ae0 8cbb c6d2 1dbd 61dc e43c
00000370: 9431 76bc c996 31ba df67 e63c 5c05 e0bc
00000380: 645a 28bd 0979 b13b 90f7 b73c 481e 89bc
00000390: c08d 7c38 671a 043d b390 793c b823 5f3d
000003a0: c8d3 513d 55f4 c23b eea1 1bbd cc16 65bb
000003b0: 8acf 3a3d 5dc8 1e3d 06b5 1e3d a458 bc3c
000003c0: 8221 44bd 4c88 053d a1c8 223d b1ca 47bd
000003d0: 7450 153d d4d8 df3c 442b 9dbc 2ba2 133d
000003e0: 0109 dd3c ac92 0c3d 14b6 c1bc 1aa3 a73c
000003f0: bd88 1ebd 1949 113b e1a9 11bc ed59 863c
0.03048351 0.025811102 -0.05206035 -0.050914023 -0.026150784 0.03932645 0.043962162 0.0100367125
-0.0071780407 0.046113763 0.01945289 -0.054575715 -0.044466604 -0.020315005 0.037137993 -0.024136975
-0.05497482 0.03793161 -0.019661166 -0.025068745 0.03821841 0.012635922 0.0133560905 0.019882586
0.010987557 -0.034968488 -0.0015645406 0.017438354 -0.00029452326 -0.0010282428 -0.0077735684 -0.04973604
-0.015229634 -0.006486484 0.040577766 0.053631466 -0.00789289 -0.03821238 -0.012228802 -0.022871317
0.0027031836 -0.013870259 -0.005119433 0.049420487 -0.022910861 -0.014054055 -0.01171283 0.017229218
3.9275914e-05 -0.03386078 -0.02324423 0.04495604 -0.0055379514 -0.00503812 0.00071374106 -0.030766651
-0.012547467 -0.029536033 0.021011122 0.03736046 -0.042906646 0.046307493 0.018802203 -0.034476563
-0.02949728 0.030130083 0.04593334 0.041875668 0.0064758896 -0.043809388 0.05440471 -0.046828564
-0.017357115 -0.009732498 0.004587541 0.042663213 -0.021126855 -0.0019937905 0.03263157 -0.0061803856
0.051444348 0.012021158 0.04016527 0.049999285 -0.027302071 0.03692878 -0.012839348 0.025578078
0.028151592 0.04133268 -0.026069764 0.013225202 0.009025338 -0.0058832024 0.031464726 0.027131297
0.039493375 -0.002293567 0.04626695 -0.006620361 0.02452114 0.028290974 0.02147984 -0.008628574
-0.021990934 -0.0075908434 0.015190748 -0.007791087 0.047121633 0.015921442 0.0114816595 0.024632694
-0.0032262634 -0.023909274 -0.04105485 0.0023550536 0.036954824 -0.010685874 0.0045251213 0.048466653
-0.008538061 0.056640934 -0.048604388 0.023571048 0.021238033 0.006596698 0.036669344 0.0041742525
0.02282796 -0.025231147 -0.008370842 0.042075593 -0.016606374 0.028206028 0.042292137 -0.037856873
0.011681042 0.04325485 -0.0104247 -0.0018781122 -0.026961427 0.01739824 -0.040810447 -0.05253157
0.012755355 0.0030447324 0.015131032 0.025317045 -0.015716672 0.0012251294 -0.004791078 -0.018474787
0.04077664 -0.021103261 0.014629895 -0.0019701861 0.0075437864 0.016766284 0.013869897 -0.0249035
-0.00013886666 -0.02298549 -0.03537069 0.005895068 -0.020229274 -0.010946571 -0.049465466 0.012982129
-0.0327978 -0.04540962 -0.013554357 0.009539084 0.05321673 0.0514535 -0.0148190595 6.329129e-05
0.013963776 -0.0070358175 -0.04374527 0.013500842 0.03327342 -0.02907637 -0.013734797 -0.0026406678
0.04945416 0.021249056 0.031244528 0.016903939 0.032836825 -0.053477548 -0.03812904 -0.016377825
-0.016808826 0.0066585983 0.008961058 0.0036216555 -0.014038246 0.030557863 0.026828792 0.026541933
0.022234239 -0.0011778296 -0.0283699 -0.046180565 -0.007139769 0.043829937 -0.016594147 0.030924702
0.026106257 -0.017305067 -0.026146423 0.0362453 -0.0060127564 0.017239584 0.04913742 0.041036293
-4.811202e-05 -0.004299191 -0.038531087 0.027937116 -0.015026469 -0.0006774483 0.028125701 -0.027346306
-0.04110183 0.00541604 0.022456914 -0.016738072 6.0213497e-05 0.03225174 0.015232253 0.054477423
0.05122736 0.005949537 -0.037996225 -0.0034956215 0.04560808 0.0387653 0.038746856 0.022991486
-0.047883518 0.032600686 0.039742116 -0.048777286 0.03645368 0.027325071 -0.01918567 0.036043327
0.026981832 0.034319565 -0.023646392 0.020463515 -0.038704623 0.0022168814 -0.0088906 0.016400302
