lora_crossencoder_has_instruction_r_16 la_16 ld_0.3/checkpoint-1935/adapter_model.safetensors (safetensors, 594924 bytes, 25 tensors)

base_model.model.bert.encoder.layer.0.attention.self.query.lora_A.weight f4 [16, 384]
000000 6b d8 24 bd a5 9c 4b 3d b9 dd 17 bd 16 f8 08 3c
       -0.040245455 0.049709935 -0.037076686 0.00835993
000010 92 c4 a6 3b 28 04 b7 bc d1 cc 17 3d bc 5d e8 bc
       0.005089351 -0.022340849 0.037060563 -0.028365009
000020 b9 03 0b 3c fc 9d 85 3c 29 42 1b bc 71 c5 31 bc
       0.008484774 0.016310684 -0.009476223 -0.010850296
000030 96 0d 07 bd d0 dd 8b bb 8e f6 38 bd 2c 47 48 bd
       -0.03297194 -0.0042683855 -0.045157008 -0.048896
000040 cc 96 a9 3a 90 b4 9d 3c d1 9a db bc 69 e3 34 3d
       0.0012938618 0.019251138 -0.02680722 0.044162188
000050 d0 41 0e bd 6c cf 44 bd 29 11 b3 3c 4e 69 44 bd
       -0.034730732 -0.048049375 0.021858769 -0.04795199
000060 63 61 ec 3c 7c 16 48 bd be 72 5f bc 27 b0 f6 bc
       0.028855031 -0.048849568 -0.0136381965 -0.030113293
000070 82 67 1c bd 2a 21 0e 3d cd 60 44 bd 3c a6 bb 3c
       -0.03818465 0.034699596 -0.04794388 0.022906415
000080 a1 81 02 3d e0 b5 13 bd 2c b5 e9 ba 74 70 be bc
       0.031861905 -0.03606212 -0.0017830483 -0.023246981
000090 10 25 30 3d fe a2 4f bd be 5d 80 3c c4 13 82 3c
       0.043004096 -0.05069255 0.0156697 0.015878566
0000a0 66 dd 23 bd a2 33 d9 3a ab 56 44 bc 77 6a ee 3c
       -0.040006064 0.0016571174 -0.011983554 0.0291035
0000b0 52 26 07 3d ac d1 0c 3d c1 b6 ff bc 1a 36 89 3c
       0.03299553 0.034379646 -0.031215074 0.01674943
0000c0 f4 79 7e 3c 31 2b 3c bd 93 ab d5 3c fc d5 d8 3c
       0.015532006 -0.045939628 0.02608279 0.026469223
0000d0 97 5d 34 3c 41 6f 40 3d 4b ab b5 3c 86 a7 7d 3c
       0.011008642 0.0469811 0.022176405 0.015481835
0000e0 30 70 fa bc 1b a1 93 3c 3d 45 fb bb 48 3a 59 bc
       -0.030571073 0.018021157 -0.007668166 -0.013258524
0000f0 14 29 05 3c 88 35 c3 3c d7 0b 28 3d f7 7e 43 3d
       0.00812747 0.023829237 0.041026916 0.047728505
000100 77 7c 85 bc 3f 4e bf bc 62 a5 bc bc a9 e6 04 bd
       -0.016294701 -0.02335274 -0.02302808 -0.032446537
000110 8f 51 48 bd f3 50 e7 3b 23 ad af bb 16 b7 cf bc
       -0.048905905 0.0070592104 -0.0053612157 -0.025355857
000120 40 72 19 bc 10 41 1d 3c 3b af 2e 3d d2 d3 38 bd
       -0.009365618 0.009598032 0.04264758 -0.045123883
000130 e9 0a 83 bc f8 83 0f bd 67 3e 27 bd 42 41 8b bc
       -0.015996413 -0.035037965 -0.040830996 -0.01699889
000140 45 87 c1 3b 29 ed 02 bd e3 21 d2 bc 07 cc cc ba
       0.005906018 -0.031964455 -0.025650924 -0.001562477
000150 be c2 d9 bc 69 aa ef 3a 04 9e 39 bd 3b 07 ce 3c
       -0.026582118 0.0018285039 -0.04531671 0.025149932
000160 cd 5b 44 bd 84 fe 32 bd 51 e4 e7 bc 42 2a b1 3c
       -0.04793911 -0.043699756 -0.028307112 0.021626595
000170 8f 55 9c 3c 59 de 6a 3c fd a9 14 3d 40 24 fb bc
       0.019083766 0.014335238 0.036294926 -0.030656934
000180 ab 81 0a bd 77 4a a2 bc 93 ab e1 bb 5c 04 18 bd
       -0.033815067 -0.019810898 -0.0068869083 -0.037113532
000190 1d ba 39 bd 36 12 40 3c 5f a5 4a bd 18 22 38 3d
       -0.045343507 0.011723092 -0.049474116 0.04495439
0001a0 64 5f 08 3d 81 56 01 bd 49 2c 50 bc 71 69 cf bb
       0.033294097 -0.031576637 -0.012705871 -0.0063297083
0001b0 82 53 90 bb 6b fb fc 3b 3f bc 26 bd 88 16 c1 bb
       -0.004404486 0.007720401 -0.04070687 -0.0058925785
0001c0 fd e2 35 3d cf e4 f3 bc 07 33 d2 3c 31 7a 01 bc
       0.044405926 -0.02977219 0.025659097 -0.007902668
0001d0 e6 fe 3c bd 4e 64 03 3d 2b fb 45 bd 61 8a 46 bd
       -0.046141528 0.03207808 -0.048335236 -0.048471812
0001e0 c9 ac 25 3d b2 9d 45 bd 8a b2 cb 3c 6a 8c 5b 3d
       0.040447984 -0.048246093 0.024865407 0.053600706
0001f0 63 b7 db bb f9 27 cf bc 97 21 7f bc 5e 2e 24 bd
       -0.006705211 -0.025287615 -0.015571973 -0.04008328
000200 0a 2e ce 3b 5d 90 0f bd 1f 06 86 3c 25 df 4d 3a
       0.0062921094 -0.035049785 0.01636034 0.00078533805
000210 8b 67 f1 3c 46 69 00 bd 3d 58 1d 3d f9 f1 8c 3c
       0.029468318 -0.031350397 0.03841423 0.017205225
000220 0f e1 0f bd 27 e5 fb 3c 15 3b d5 3c e4 c9 51 bd
       -0.035126742 0.030748917 0.02602915 -0.05121793
000230 07 f6 86 bb 98 df 92 3c e3 db 16 3d 91 7b 36 3d
       -0.004118684 0.017928883 0.036830794 0.044551436
000240 69 55 3c bd 89 63 ea bc 60 c0 24 bd 28 21 3b 3d
       -0.04597989 -0.028611915 -0.040222526 0.045685917
000250 59 f3 ea bc 40 b0 4d bd 56 51 ba bc 68 a4 39 3b
       -0.02868049 -0.050216913 -0.022743862 0.0028326754
000260 6e 91 11 bc fe bd 14 bd d2 c6 98 bc 7b a0 c1 bb
       -0.008884771 -0.036314003 -0.018649492 -0.0059090233
000270 bd 96 32 3c 81 5a 63 bc 4c 0f a9 bc 62 7f 06 bc
       0.010900197 -0.013876558 -0.020637177 -0.008209081
000280 03 62 3e 3d 29 ee 12 3d 5c 69 80 bc c1 54 e2 3c
       0.04648019 0.03587166 -0.01567524 0.027628304
000290 93 f5 8e 3c 49 b2 22 bd fa cc 03 3d 50 3c a0 bb
       0.017451083 -0.039720807 0.032177903 -0.0048900023
0002a0 6d 7c 39 3d d0 52 cf bc b7 8c 60 3d 2f c3 12 3d
       0.045284677 -0.025308043 0.054821696 0.035830673
0002b0 d8 fb 4f bd e0 21 ba 3c 3d 11 fc bc ce 7e 2d 3d
       -0.050777286 0.022721231 -0.030769939 0.04235726
0002c0 f9 46 b0 3c 2a 99 1a bc 30 63 9f 3c 2f 18 b9 3a
       0.021518217 -0.009435931 0.019456476 0.0014121587
0002d0 19 0a 8c 3c aa 8e 02 3d 6f 93 d7 bc 21 c6 1b bd
       0.017094659 0.031874336 -0.026315419 -0.038030747
0002e0 47 ce 11 3c 37 b5 31 3d e0 79 45 bd 68 2c 40 3c
       0.008899278 0.04338571 -0.048211932 0.011729337
0002f0 2b 1c 27 3d 31 eb 12 bd b3 2d 50 3d 44 e1 c1 3c
       0.040798347 -0.035868827 0.050824832 0.023666985
000300 ba c8 86 3c d1 de 94 bb 54 ac 03 3d 56 66 8d 36
       0.016453136 -0.0045431633 0.032146767 4.214041e-06
000310 cb 9c 5a bc e8 f3 21 bd b6 0e d7 bc c3 c6 a4 bc
       -0.013343046 -0.039539248 -0.026252132 -0.020114308
000320 52 01 09 bd 86 e7 e7 bc c9 61 61 bd bb 76 cf 39
       -0.033448525 -0.028308641 -0.055024896 0.00039570578
000330 0c 29 2f 3d 1d 24 95 3c c8 ae 09 3d 3a a3 0d bd
       0.042763755 0.018205697 0.03361395 -0.034579493
000340 9d a8 74 3c d1 83 72 bc b5 88 a9 bc 8a bc 31 bd
       0.014932779 -0.014801935 -0.02069507 -0.043392695
000350 67 5f 79 bc 26 88 05 bd 30 38 15 bd 56 ed 88 bc
       -0.0152205 -0.032600544 -0.036430538 -0.016714733
000360 1e 2d 1b 3d f9 50 fc bc a8 e0 0d 3d 33 1f 95 3c
       0.037884824 -0.03080033 0.034638077 0.018203354
000370 25 40 14 3d 09 dc 38 3d cc c5 ec ba 26 6a 84 3c
       0.036193985 0.045131717 -0.0018064319 0.016163897
000380 13 c5 28 3d e5 81 0d 3d 24 a6 24 bb 8e 99 04 3d
       0.04120357 0.034547705 -0.0025123442 0.032373004
000390 a2 f8 79 bc 23 bb ac 3c 70 03 0e 3d 97 5e 2c bd
       -0.015257033 0.021085327 0.034671247 -0.042082395
0003a0 98 0b 28 3d e7 6b 01 bd 0b db ac 3c 63 bb 1e 3d
       0.04102668 -0.031597044 0.021100542 0.038752925
0003b0 ae 7c 3a 3d 27 d5 1b bd 68 fc 3f 3d dc 9d 52 3d
       0.04552906 -0.038045075 0.046871573 0.051420078
0003c0 56 cc 89 3c 19 9b 97 3a 34 01 12 bc 92 18 16 3d
       0.016821068 0.0011566608 -0.00891142 0.036644526
0003d0 14 bf ef bc 3e eb 9c bc 43 31 59 bc 1a 4e 84 3c
       -0.029265918 -0.019155141 -0.013256374 0.016150523
0003e0 f4 78 3e 3d 13 b2 6a 3c ef d3 4f bd 4f 65 d3 3c
       0.04650207 0.014324683 -0.050739225 0.025805144
0003f0 83 db bc 3c ec c4 0d bd 31 eb 49 bd 63 e1 ec bc
       0.02305389 -0.034611627 -0.04929656 -0.028916067

base_model.model.bert.encoder.layer.0.attention.self.query.lora_B.weight f4 [384, 16]
000000 13 71 48 3b 90 8e 59 bb ff b2 3b 3b 9a d3 41 bb
       0.0030584976 -0.0033196546 0.0028640626 -0.0029575587
000010 40 29 55 bb b0 cc 6d bb 48 6a 18 bb 7f da 6c b9
       -0.0032525808 -0.0036285333 -0.0023256708 -0.0002258811
000020 fc 43 4b bb 10 3b 3c 3b 59 a2 7c bb 2d ab fa ba
       -0.0031015864 0.0028721727 -0.0038548915 -0.0019124501
000030 51 44 29 bb 0b f7 24 bb 06 54 33 3b 83 21 70 3b
       -0.0025828073 -0.0025171663 0.0027363314 0.0036641068
000040 52 69 4f 3b 94 69 19 bb 44 d1 f2 b9 46 ed 49 bb
       0.003164847 -0.0023408877 -0.00046313752 -0.0030811592
000050 96 1c a0 bb 0a 46 51 bb d0 9e d4 39 57 b7 a9 3b
       -0.00488622 -0.0031932616 0.00040554116 0.0051793265
000060 5c c2 14 bb 1a 4f 50 3b 03 c8 67 bb 84 8f 2f ba
       -0.0022698855 0.003178543 -0.003536702 -0.0006697106
000070 d4 4f 15 bb cb cb ca ba b3 b5 c3 3a 49 4f 55 3b
       -0.0022783177 -0.0015472112 0.001493147 0.0032548478
000080 68 44 48 bb 55 bf 5a 3b ea 24 c7 ba cd 41 92 3b
       -0.0030558351 0.0033378203 -0.0015193496 0.0044634105
000090 29 4b 6a 3b 00 aa 8d 3b 60 ab 68 ba 00 8c d8 ba
       0.0035750365 0.004323244 -0.00088756345 -0.0016521215
0000a0 ea 1f 10 3b 1f 89 09 bb dc 76 72 3b a8 7d ca 3a
       0.0021991679 -0.0020986272 0.0036997115 0.0015448825
0000b0 08 4f 7b 3b 25 b7 ab 3a 5a 80 13 bb 36 04 2a bb
       0.0038346667 0.0013100846 -0.0022506923 -0.0025942451
0000c0 64 c2 cf ba 50 76 60 ba ea b9 d7 ba f0 da 92 39
       -0.001585078 -0.0008562552 -0.0016458605 0.0002801041
0000d0 1b 1a a2 3a 31 bd 92 3a 03 a1 0b 3a 9c 27 4d bb
       0.0012367399 0.00111953 0.0005326422 -0.0031304127
0000e0 97 af c6 3a 57 9d c0 3a bb 12 b2 3a 43 c6 63 ba
       0.0015158531 0.0014695328 0.0013585904 -0.0008688906
0000f0 7c 51 20 ba 84 1c e5 ba f7 84 8c b9 24 19 2d 3a
       -0.0006115658 -0.0017479812 -0.00026801947 0.00066031725
000100 d9 19 ff ba 26 3e 55 3b ec 3b 95 bb 89 56 7c 3b
       -0.0019462659 0.0032538264 -0.0045542624 0.0038503727
000110 53 71 e7 3a 1b 35 0d 3b 7d 2a 6e 3b e9 9c 1a 3a
       0.0017657675 0.0021546546 0.0036341243 0.0005898015
000120 f7 73 39 3b bc 79 1f bb 55 81 a5 3a 86 f4 45 3b
       0.002829788 -0.0024334034 0.0012627045 0.0030205562
000130 84 26 57 3b 42 b9 9a 3b bb be 60 bb e0 b9 0f bb
       0.0032829354 0.0047217915 -0.0034293372 -0.0021930858
000140 a5 da 5c 3b dd 21 df ba f9 6d 28 3a 15 77 32 bb
       0.0033699658 -0.0017023642 0.00064250786 -0.0027231623
000150 ae 07 75 bb 28 34 33 bb 2f 3b a7 b9 48 dd 2a 3b
       -0.003738861 -0.002734432 -0.00031896817 0.0026071835
000160 b8 67 e0 ba 41 ce 13 3b 28 1f 24 bb 85 97 80 ba
       -0.0017120754 0.0022553357 -0.0025042985 -0.0009810781
000170 27 86 17 bb 98 db 36 ba 13 d6 bb 3a e6 c6 1d 3b
       -0.0023120733 -0.0006975471 0.0014330767 0.0024074852
000180 bb 90 f3 3a 3f 03 3d 3a ae fc 81 bb a3 5f 11 b9
       0.0018582562 0.00072102615 -0.0039668893 -0.00013863905
000190 6d 54 28 bb 9e 20 9b ba f0 ec 8d 3b 1b 0e 31 3b
       -0.0025685087 -0.0011835282 0.0043312237 0.0027016464
0001a0 eb 8c c0 b9 57 34 0e bb e2 bc a9 ba 5b a8 74 3b
       -0.00036726086 -0.0021698677 -0.0012949968 0.0037331793
0001b0 38 09 54 ba 80 18 76 3b 7d 57 df ba 2f 10 0f 39
       -0.0008088532 0.0037551224 -0.0017039623 0.00013643572
0001c0 b1 7f 64 3b 6f 29 60 bb ab 20 a2 3a 5e 51 58 bb
       0.003486615 -0.0034204384 0.0012369355 -0.0033007483
0001d0 bb ea 7d bb 06 41 3a bb cb 2e 3a 39 d6 a6 42 3b
       -0.0038744647 -0.0028420105 0.00017755774 0.0029701493
0001e0 75 99 5f bb ea 28 8c 3a 2a 35 96 bb f5 6c 11 bb
       -0.0034118567 0.0010693346 -0.0045839744 -0.0022190188
0001f0 7f 08 32 bb 0a 92 16 bb 71 0c 19 3b 95 ad 86 3b
       -0.0027165709 -0.002297523 0.0023353363 0.004110048
000200 dd 76 61 bb 8f d4 1c 3b e1 45 c2 ba e4 b6 5a 3b
       -0.0034403123 0.0023930406 -0.0014821851 0.0033373171
000210 13 d5 56 3b 31 ea 4e 3b fb 33 9b 3a fd 25 59 3a
       0.003278081 0.0031572694 0.0011841053 0.0008283554
000220 1a e7 0e 3b c1 e9 20 bb 83 26 4b 3b f3 29 ad 3a
       0.0021805228 -0.002455339 0.0030998297 0.0013211354
000230 dd fb 25 3b 17 c3 f6 3a 7d 73 05 bb 8e e4 33 bb
       0.0025327124 0.0018826452 -0.0020363026 -0.0027449462
000240 92 3a bb 3b 61 e8 9f bb 7f ac 62 3b 53 64 96 bb
       0.0057137692 -0.0048799966 0.003458768 -0.0045895963
000250 4a 10 46 bb 27 de 90 bb cf 73 5d bb 75 7b ee b9
       -0.0030222111 -0.004421014 -0.003379095 -0.0004548688
000260 28 71 8d bb 1b dc a1 3b ac 8c a9 bb 88 47 68 bb
       -0.004316468 0.0049395687 -0.00517424 -0.0035443027
000270 ff f3 96 bb a8 52 b2 bb b2 61 63 3b a3 75 c0 3b
       -0.0046067233 -0.0054419823 0.0034695682 0.0058733984
000280 91 7b 9e bb cc 07 8b 3b 8c f4 29 bb 5a 59 a3 3b
       -0.0048365076 0.004242873 -0.0025933115 0.004985017
000290 f4 7f 9c 3b 9c 98 aa 3b 67 23 22 3b c3 d3 85 38
       0.0047759954 0.0052061807 0.002474034 6.381378e-05
0002a0 19 56 97 3b 47 b6 61 bb d1 59 96 3b b2 be 32 3b
       0.004618418 -0.003444092 0.0045883437 0.0027274308
0002b0 8b 83 7f 3b 61 55 87 3b 3d 0a 86 bb 6d ed 81 bb
       0.0038988318 0.004130051 -0.004090576 -0.003965071
0002c0 10 1f 03 bb b7 ab a9 3a 16 4d 28 ba fd da 6d 3a
       -0.0020007528 0.0012944852 -0.0006420178 0.00090734643
0002d0 6b 74 d8 3a 08 20 3f 3a bf 05 b0 3a b0 80 34 3b
       0.0016514187 0.0007290845 0.0013429447 0.0027542524
0002e0 8b b2 a5 3a 33 a0 b0 ba 0f 02 da 3a 04 ed bb 3a
       0.0012641711 -0.0013475477 0.0016632694 0.0014337604
0002f0 31 5d c7 3a 8c 45 92 3a 6d e5 ee ba 9d 33 e5 ba
       0.0015210268 0.0011159643 -0.0018226333 -0.0017486695
000300 dd 54 91 3b 8e ce 35 39 79 34 02 ba 06 3d 33 bb
       0.0044351653 0.00017338453 -0.00049669255 -0.0027349605
000310 fb b4 b9 bb c4 f6 9b bb 12 20 a3 3a e0 67 81 3b
       -0.0056673265 -0.0047596414 0.0012445471 0.0039491504
000320 3f 0b 7d bb 70 f6 1c 39 fe 27 9e bb 2a 65 1d ba
       -0.003861144 0.00014969124 -0.004826545 -0.00060041493
000330 c9 16 c2 b9 77 29 29 ba c5 13 37 3a c2 26 3b 3b
       -0.0003701954 -0.0006453017 0.0006983842 0.0028557037
000340 1d 3c c0 3b b5 0b c3 bb 48 6f a9 3a c6 d5 dd bb
       0.005866541 -0.0059523233 0.0012926841 -0.0067698685
000350 b5 7f d4 bb ee be b3 bb 37 88 17 39 82 99 67 3b
       -0.0064849504 -0.005485407 0.00014451226 0.00353393
000360 94 c7 a1 bb 53 79 ab 3b 77 5c d5 bb f2 44 72 bb
       -0.0049371216 0.005232969 -0.006511267 -0.0036967364
000370 e8 4d b3 bb e1 1f 89 bb 1d 70 83 3b 27 fb c7 3b
       -0.0054719336 -0.0041847085 0.0040111677 0.0061029377
000380 ae b0 d4 3a 76 ce 87 ba 84 b8 a3 ba f8 71 a4 ba
       0.0016226971 -0.0010361213 -0.0012490903 -0.0012546172
000390 64 5c 2d bb 75 d9 e3 ba cf 19 86 3a 5a 4d 87 3b
       -0.0026452774 -0.0017383533 0.001023108 0.004129094
0003a0 c3 b6 5f ba bf 06 f3 3a a7 61 0a bb 56 b7 bb 39
       -0.00085340085 0.0018541439 -0.0021115334 0.00035804015
0003b0 77 a1 88 ba 15 53 75 b9 58 63 c4 39 a1 76 d8 3a
       -0.0010424097 -0.00023395971 0.0003745805 0.0016514846
0003c0 a2 aa 10 ba 8c 19 66 3a 40 a3 20 bb 35 cc eb 3a
       -0.00055185903 0.00087776105 -0.0024511367 0.0017989936
0003d0 d2 64 83 b9 7c 8f 04 3a 59 7c 1b 3b a9 a5 23 3a
       -0.00025061384 0.0005056781 0.002372524 0.0006242642
0003e0 29 24 7e 3a c4 37 34 38 0c f2 d4 38 4e 64 d0 3a
       0.00096947193 4.296728e-05 0.000101540325 0.0015899034
0003f0 cb 0b 34 3a 85 13 db 3a 63 57 93 ba 37 20 55 ba
       0.00068682124 0.0016714191 -0.0011241253 -0.00081301056

base_model.model.bert.encoder.layer.0.attention.self.value.lora_A.weight f4 [16, 384]
000000 40 7a 37 3c f1 ae 6f bc c9 b9 19 3d cb 47 b5 bc
       0.01119858 -0.014629112 0.037530694 -0.02212896
000010 7c 12 0a bd bb 14 2d 3d 4a 4f 3c bd 42 67 79 bc
       -0.033709034 0.0422561 -0.045974053 -0.0152223725
000020 a4 12 7c 3b 62 95 ab 3c 4e ed 24 3c 08 c4 21 bd
       0.003846326 0.020945255 0.0100663435 -0.03949359
000030 9e 72 22 bd c1 30 4b bd 59 48 33 bc 4a 5f 6e 3d
       -0.03966009 -0.049607042 -0.010942542 0.058196343
000040 a5 83 0c bd ef ef 08 3d 2c 06 de 3c 3b 3f 73 bd
       -0.034305234 0.033431944 0.027102552 -0.059386473
000050 4f a1 4d 3c 85 7e 0e 3d 3f f2 38 3c 81 af 55 3c
       0.012550666 0.034788627 0.011288225 0.013042332
000060 09 a8 1c 3d 86 c3 7e 3c a9 e8 84 3b 0f 82 59 3c
       0.03824619 0.015549546 0.0040560556 0.013275637
000070 62 f3 c0 bc bb 51 e7 3c 2e 24 35 3b dc d5 32 3d
       -0.023553554 0.028237214 0.0027639973 0.043660983
000080 6b 76 24 3d 87 46 51 3c 11 f7 9d 3c e3 68 53 bc
       0.040151995 0.012773163 0.01928285 -0.012903425
000090 4f 97 f1 3b 65 e6 cd 3c 6b 56 07 3d bf 97 0e bd
       0.0073727737 0.025134275 0.0330414 -0.034812685
0000a0 28 f9 24 bd 0a b5 d7 bc 3b 8f 40 3d 4a 70 93 bb
       -0.040276676 -0.026331443 0.047011595 -0.00449947
0000b0 c1 fd 05 3c 89 79 a0 3c 9d 94 42 bd 0a 82 5a 3c
       0.008178175 0.019589202 -0.04750501 0.013336668
0000c0 9d 54 01 bc 5e ba 10 bc 66 3a 16 bd da bf 25 3d
       -0.007893709 -0.008833496 -0.036676787 0.040466167
0000d0 6d be 40 bd 58 39 4a 3d 1a 21 f5 3c 92 4d 21 bd
       -0.047056604 0.049371094 0.02992301 -0.039380617
0000e0 c0 20 11 3d e5 4d bc 3b e9 2b 0a bd a9 37 81 bc
       0.035431623 0.0057465904 -0.033733282 -0.015773611
0000f0 26 3e ad bc 02 d1 d3 bc e5 0a aa 3c 10 3c 16 3d
       -0.021147799 -0.025856499 0.020757148 0.036678374
000100 de 13 f5 3c e3 7c 02 bd 38 4f 36 bd 61 dc 1e 3d
       0.0299167 -0.031857383 -0.044509143 0.03878439
000110 51 1d 30 3d ea ff 41 3d c7 5d f2 3c d6 5b da 3c
       0.04299671 0.0473632 0.029585732 0.026655119
000120 a6 55 0c 3d 8c 97 90 3c 65 82 17 bc fb 95 ea bb
       0.03426137 0.017650388 -0.009247397 -0.0071589923
000130 5a 89 a4 39 af ee 2a bc 1d c2 df bb df ec 81 3c
       0.00031382852 -0.010432883 -0.00682856 0.01586002
000140 e4 90 33 3d f4 70 14 3d 2f 5a 2f bd bd a7 bf bc
       0.04383935 0.036240533 -0.042810615 -0.023395414
000150 64 54 c9 3c 78 30 1d 3d 63 03 16 3d 07 51 98 bc
       0.024576373 0.0383763 0.036624324 -0.018593324
000160 1c 7f 66 3d cc 31 dc bb 25 29 fa 3c eb 41 a0 3c
       0.056273565 -0.0067198034 0.030537197 0.019562682
000170 17 fe ec bc 4b 76 b8 3c df 90 04 bd ff 0a e7 3c
       -0.028929753 0.022517344 -0.032364722 0.028203486
000180 f8 f5 15 bd 74 f2 5f bd 77 96 30 3d 74 42 d1 3c
       -0.036611527 -0.05467458 0.043112244 0.025544383
000190 ee 2f cd bc df da 0e 3d 59 d9 02 3d ed 96 27 bc
       -0.025047269 0.0348767 0.03194556 -0.010228855
0001a0 94 80 69 bd 4d 19 40 3d 62 7c 42 bb bd 49 7f bc
       -0.057007387 0.04689913 -0.0029676189 -0.015581545
0001b0 8f 31 02 bd ff 53 19 bc f4 80 2b 3d 7a 96 1c 3d
       -0.031785544 -0.009358405 0.041871026 0.038229443
0001c0 4c 1a 13 bd df 7c 19 bd 03 f2 19 3d cf 30 c3 bb
       -0.03591375 -0.037472602 0.037584316 -0.005956746
0001d0 a7 fe b4 bb f3 fb 38 bd c3 27 86 3b 31 2a 32 bd
       -0.005523521 -0.045162152 0.0040940954 -0.043497268
0001e0 d7 cf 02 ba 0e a5 10 bd ee 36 76 3c 72 37 74 bd
       -0.0004990077 -0.03531366 0.015027745 -0.05962319
0001f0 c1 1a dc 3b ec ba ab 3c 5d 96 2b bd 48 53 67 3d
       0.0067170565 0.020963155 -0.041891444 0.056475908
000200 19 fe 2a bd 66 b7 b1 bc d5 d1 b2 bc f9 62 c3 3c
       -0.041746233 -0.021693897 -0.021828571 0.023850905
000210 de 5b c5 bc 37 f1 86 bc e0 cd 74 3d 65 9f 5d 3d
       -0.024091657 -0.016472442 0.05976665 0.05410709
000220 0e 13 6f 3d 15 cd 97 bc 60 fb df bc d1 48 bb 3b
       0.05836778 -0.018530408 -0.027341545 0.0057154675
000230 9a a4 2a bd d0 c3 60 3d 6c 0c 70 bd 9f b5 b2 3b
       -0.041660883 0.05487424 -0.058605596 0.00545378
000240 b2 a7 8a bc 4d 97 20 bd da f2 1b bd 7a 8a 1a 3d
       -0.016925666 -0.03920679 -0.0380734 0.037729718
000250 b0 07 03 3d cf 7f f8 3b 3c c0 a0 bc d2 a2 d7 3c
       0.031989753 0.0075835953 -0.019622914 0.026322756
000260 64 f6 2e bd 2a 9f 06 bb da 3b de bc 76 15 9a 3c
       -0.042715445 -0.0020541647 -0.027128149 0.018809061
000270 ca 0b 2e 3d ff 49 a6 3c ca aa 18 bd 4e 98 de 3c
       0.04249171 0.020298956 -0.037272252 0.027172234
000280 0e af 66 3c 78 d4 00 3d bb 61 d2 ba 6e ae f2 bc
       0.014079822 0.031452626 -0.0016050854 -0.02962419
000290 2e f1 3d bd b0 18 48 3d af 41 1d bd 1b 3b 4f 3d
       -0.046372585 0.04885167 -0.03839272 0.050593477
0002a0 79 ac 44 bc 11 95 0b 3c 76 05 de 3c 3b ef 2b bd
       -0.012004011 0.008519427 0.027102213 -0.041976195
0002b0 1d 66 4c 3d b3 8e f3 bb 89 26 27 bc d3 5d 3c 3d
       0.04990207 -0.0074327826 -0.010202059 0.045987915
0002c0 5a 5b 81 3b c3 db 45 bd 9e 14 fb 3c 01 d1 89 3c
       0.0039476575 -0.048305284 0.03064948 0.016823294
0002d0 5d 53 31 bc 1c 15 c3 3b 5a dc 33 bb 35 6d eb 3c
       -0.010823098 0.005953444 -0.0027444572 0.028738597
0002e0 ab 59 11 bc e8 55 14 bd 4b ab 4b 3c 4d 5f 26 bd
       -0.008871476 -0.03621474 0.012430976 -0.04061823
0002f0 e3 15 46 bd b9 ed 1d 3d 6f 96 aa 3c 90 f8 2c 3d
       -0.048360717 0.038556788 0.020823685 0.042229235
000300 13 34 83 3c ce 3b e4 bc 40 d5 23 3d fb 4a 52 3d
       0.016016042 -0.027860548 0.039998293 0.05134104
000310 fb d3 aa 3c bb 18 a2 bb 11 93 59 3d 41 47 1e 3d
       0.020853033 -0.0049467958 0.05311877 0.03864217
000320 89 54 9c 3c f1 de 1e 3d a4 6a dd 3b 7f 4e 9c bc
       0.019083278 0.038786832 0.0067570973 -0.019080399
000330 4b 76 0a bc a3 d4 e1 b8 62 3f d4 bc f9 93 b9 3c
       -0.008451055 -0.00010768443 -0.02590913 0.022653567
000340 d0 34 26 3d d3 30 66 bd bd c4 1f 3d e1 eb 98 bc
       0.04057771 -0.056198906 0.039005984 -0.018667163
000350 f3 db f2 bc 45 45 ba 39 12 51 b6 3c 5d 3a 34 3d
       -0.029645896 0.00035528294 0.022255454 0.044000972
000360 92 29 ad 3c 44 5f 3c bc fd 03 58 bd 57 56 c3 3c
       0.021137986 -0.0114973225 -0.05273818 0.023844881
000370 66 43 28 3d cd 52 2f bd f5 25 6c 3d c9 8c 35 bd
       0.0410799 -0.042803574 0.057653386 -0.044323716
000380 9b b5 e4 bc 35 a7 4d 3d 21 dc bf bc 61 95 8c 3c
       -0.027918627 0.05020829 -0.023420395 0.017161073
000390 5d 9a 75 bd 3d ea 55 bd 39 1e 3e 3d 17 b2 17 3d
       -0.059961665 -0.05222534 0.04641554 0.037035074
0003a0 0b 04 20 bd 3a 3b 02 3d e6 a1 fb bc f5 b0 7c 3c
       -0.039066356 0.031794764 -0.030716848 0.015423049
0003b0 66 19 08 3d 78 06 cc 3c da c4 40 bd e3 9c c6 bc
       0.033227347 0.024905428 -0.047062732 -0.024244731
0003c0 63 8b 18 bd 45 5e ba bc 94 e7 b9 39 5c 2b 1e 3d
       -0.037242305 -0.02275003 0.0003545849 0.03861557
0003d0 90 09 de 3c 2b 5d ad 3c c4 84 95 bc 87 ee 91 3c
       0.02710417 0.02116259 -0.018251784 0.017813934
0003e0 c9 4d 8c bb 71 fd 2d 3d b4 98 63 bc 56 64 30 3c
       -0.0042817337 0.04247803 -0.013891388 0.010766109
0003f0 f3 d0 dd 3a cb 83 4c bc 60 42 c1 3c b7 cf 1f bd
       0.0016923234 -0.012482594 0.02359122 -0.03901645

base_model.model.bert.encoder.layer.0.attention.self.value.lora_B.weight f4 [384, 16]
000000 b0 31 eb 3a 35 e4 77 39 f8 cb 49 ba 1c aa 1a 3b
       0.0017943885 0.0002364077 -0.0007697935 0.0023599928
000010 b0 21 a5 ba 64 fc a7 3a ae 36 0e bb e6 96 3c b9
       -0.0012598541 0.0012816307 -0.0021700072 -0.00017985291
000020 d3 a4 ad 3a 00 b5 05 3b fc 29 73 ba 2a 3a 15 3a
       0.0013247974 0.0020402074 -0.00092759705 0.0005692566
000030 50 c1 a0 ba 25 5e 06 bb 52 06 96 ba a2 d3 df 3a
       -0.0012264643 -0.0020502892 -0.0011445975 0.0017076621
000040 84 5e 1f 3b 53 14 48 bb 37 94 bb ba 89 a1 12 3b
       0.002431781 -0.0030529692 -0.0014311139 0.0022374114
000050 f8 81 6a bb e6 30 c7 3a 09 a2 1e bb 86 d3 55 bb
       -0.0035783034 0.0015197068 -0.0024205467 -0.0032627298
000060 07 b1 92 3b 28 08 6f ba 2a 67 8b bb 66 07 0a 3b
       0.0044766697 -0.0009118342 -0.0042542415 0.0021061539
000070 fd 90 67 3b 7a 17 a8 3a cb 8f 4e bb 8d c3 0c bb
       0.0035334222 0.0012824379 -0.0031518813 -0.0021478862
000080 5a 57 89 3a 41 74 f8 bb 13 10 2c bb 35 91 38 3a
       0.0010478303 -0.007582218 -0.0026254698 0.00070406805
000090 04 a7 c9 ba 57 74 80 3a 10 1b a5 ba 9e 47 fe bb
       -0.0015384858 0.0009800297 -0.0012596566 -0.0077600023
0000a0 e3 9d 38 3b d5 79 6c bb 5f 37 68 bb 30 da 4b 3b
       0.002817028 -0.003608336 -0.0035433394 0.0031105392
0000b0 a5 25 07 3c a6 d6 77 3b f3 f5 3b bb d4 92 b3 bb
       0.008248721 0.003781715 -0.0028680533 -0.0054801498
0000c0 14 39 7a 39 5c 11 8f bb 9a d9 21 ba 26 5d fd b9
       0.00023863121 -0.004366083 -0.0006174088 -0.0004832532
0000d0 ea 07 10 ba b3 a5 ed b9 5e b7 83 b6 d5 b1 77 bb
       -0.00054943433 -0.00045327618 -3.925451e-06 -0.0037795205
0000e0 b1 09 71 3a 7a c0 30 bb 4e bc 0a bb 94 0d 92 39
       0.00091948645 -0.0026970194 -0.0021169367 0.00027857407
0000f0 c5 78 92 3b d2 a5 3b 3b 54 e9 72 ba 41 16 58 bb
       0.0044699633 0.0028632772 -0.0009266336 -0.0032972249
000100 a6 94 bc bb 07 58 ee 3a 78 27 aa 3b 85 0e c0 bb
       -0.005755025 0.0018184193 0.0051926933 -0.005861106
000110 5d f4 71 3b 70 95 e7 bb b9 5d dd 3b ed 13 a4 3a
       0.0036919334 -0.007067375 0.0067555574 0.0012518145
000120 fd 1f 73 bb 8c d2 47 b9 aa 01 1f 3b 63 4b 95 bb
       -0.0037097924 -0.00019056554 0.0024262466 -0.004556106
000130 48 39 21 bb f5 99 53 3a c9 4b 86 3b c9 b9 7e 3a
       -0.0024600793 0.00080719526 0.0040983898 0.0009717015
000140 89 25 e4 ba 4f e4 19 3a 26 d2 0b 3b 2f d2 60 bb
       -0.0017406206 0.00058705074 0.0021334975 -0.0034304967
000150 70 e8 d3 3a 1e f2 4b bb 78 2c 21 3b e3 7a a2 b9
       0.0016167294 -0.0031119655 0.0024593156 -0.00030990606
000160 67 74 c6 ba 52 4a 8a bb c6 e3 45 3a b2 c6 ff ba
       -0.0015140892 -0.0042202855 0.00075488945 -0.0019514172
000170 aa 88 97 38 aa 0a aa 3b 25 24 e6 3a ff 6f 79 ba
       7.225697e-05 0.0051892595 0.0017558379 -0.0009515285
000180 f0 9a 1d bb 07 c2 34 3b 97 00 47 3a e4 e1 42 bb
       -0.0024048649 0.002758147 0.00075913355 -0.0029736692
000190 a0 df e1 3a 04 22 e4 ba 3d 3a 32 3b b1 2a 54 3b
       0.0017232783 -0.0017405157 0.0027195357 0.003237408
0001a0 63 c9 cc ba 80 8c 02 3b 3c 21 66 3b e2 03 f5 ba
       -0.0015623983 0.001992017 0.0035115024 -0.0018693174
0001b0 08 4d 49 bb 86 c3 0d bb 27 42 d0 3a d2 fc 29 3b
       -0.003071608 -0.0021631434 0.0015888856 0.0025938046
0001c0 43 e1 52 bb 10 ab a0 3b a0 d5 7e 3b 7a 39 6e bb
       -0.0032177723 0.0049032047 0.0038884655 -0.0036350177
0001d0 05 09 6b 3b 89 28 7c bb 67 65 61 3b ff 7f 91 3b
       0.003586353 -0.003847631 0.0034392716 0.004440307
0001e0 55 08 81 bb ac 3e 2a b9 b5 f4 7d 3b f7 66 97 bb
       -0.003937761 -0.0001623581 0.0038750593 -0.0046204287
0001f0 33 74 7a bb 72 ef ce 39 b0 87 79 3b 19 f9 35 3b
       -0.0038216233 0.00039469782 0.003807526 0.0027766882
000200 b9 9c 78 3b c7 35 08 bb 16 ae 68 bb 45 a8 8b 3b
       0.003793521 -0.0020784007 -0.0035504154 0.0042620027
000210 a7 cc 6e bb 23 92 95 3b 13 20 87 bb 0d 5c b8 ba
       -0.00364379 0.00456454 -0.0041236966 -0.0014065519
000220 21 ed 6c 3b 5b 98 04 3b d5 f4 30 bb dc 12 37 3b
       0.0036152082 0.0020232412 -0.00270014 0.0027934825
000230 3c 55 d0 3a 67 82 2d bb d2 5b 70 bb c1 0d 20 ba
       0.0015894542 -0.002647543 -0.0036675823 -0.0006105565
000240 94 e8 f6 3a 8d 39 a5 3a 34 09 d0 39 b5 e9 53 3b
       0.0018837624 0.0012605652 0.00039679708 0.0032335345
000250 a1 41 b2 ba d5 37 8f 3a 54 ab 2f bb 8b bd 6a 3a
       -0.0013599881 0.0010926673 -0.0026805 0.00089546357
000260 83 97 45 3a 4e 43 fa 3a 5c 22 fd 38 51 3c 40 ba
       0.00075375306 0.0019093545 0.0001207038 -0.00073332066
000270 3b 66 9c b9 e6 72 d6 ba 28 7b af ba 11 44 b6 3a
       -0.00029830806 -0.0016361147 -0.0013388144 0.0013905783
000280 9a 2c 49 3b 0d 37 d5 39 ee 7e 8c bb 6b 40 36 3b
       0.003069675 0.00040667542 -0.004287592 0.0027809392
000290 19 58 69 bb a7 ea 65 3b f1 36 3d bb 45 ba b6 3a
       -0.0035605489 0.003508249 -0.002887186 0.0013941011
0002a0 0b 3c 6a 3b ea 38 3b 3b 43 1e a1 ba f1 5b 8c 3b
       0.0035741355 0.002856786 -0.0012292344 0.004283421
0002b0 09 75 ba ba 21 f0 59 bb a3 02 6e bb db 75 00 3b
       -0.0014225553 -0.00332547 -0.003631749 0.0019601497
0002c0 fd 95 8f b9 a5 94 0c 3b 5a 63 43 39 b4 38 55 3a
       -0.00027386835 0.0021450904 0.0001863366 0.00081337546
0002d0 1a e2 79 3a 2f db 03 3b 69 e5 9c ba 8b 40 33 3b
       0.0009532288 0.0020119657 -0.0011970225 0.0027351703
0002e0 8a 17 d6 ba 6e a1 60 3b d3 2b 0a 3b a0 b3 23 ba
       -0.001633392 0.0034275907 0.002108325 -0.0006244723
0002f0 27 08 3e bb 3a 30 76 bb 25 2e 92 3a b8 97 32 3b
       -0.0028996558 -0.0037565366 0.0011152668 0.0027251076
000300 8f 12 94 3b d2 b0 64 bb dc e1 99 bb cd be a0 3b
       0.004518814 -0.0034895432 -0.004696114 0.0049055577
000310 21 21 88 bb 75 98 3f 3b 2d 9b bd bb 57 e3 5b bb
       -0.00415434 0.0029235159 -0.0057863207 -0.0033552253
000320 17 da 94 3b 90 6e c7 ba 64 27 7e bb f5 69 8b 3b
       0.0045426 -0.0015215445 -0.0038780803 0.0042545744
000330 e2 21 8d 3b 20 f3 ea 3a 86 5e 9d bb cf 7d 40 bb
       0.0043070177 0.001792524 -0.004802528 -0.0029371863
000340 52 bc 81 3b 86 20 ba bb 2e c1 99 bb fe 9e 86 3b
       0.003959217 -0.0056801466 -0.0046922183 0.004108309
000350 cb 60 7a bb c4 d0 5a 3b 48 bb 88 bb 9b c4 ef bb
       -0.0038204666 0.0033388594 -0.0041727163 -0.0073171384
000360 2b 00 a6 3b ee 21 bd ba ec fd b0 bb 63 8b 98 3b
       0.005065938 -0.0014429667 -0.0054013636 0.004655288
000370 53 12 f2 3b 74 54 b9 3a 6a 0d 9f bb 1e 16 a0 bb
       0.0073874383 0.0014139549 -0.004853894 -0.004885449
000380 91 44 2a bb 9d 4c 9b 3b ef 49 94 3b 45 7c f4 ba
       -0.002598081 0.0047393576 0.004525415 -0.0018652758
000390 5c 1f 51 3b 86 ca 30 bb b0 14 24 3b b4 72 8b 3b
       0.003190956 -0.0026976182 0.0025036745 0.004255617
0003a0 b9 47 3f bb 85 71 7a 3a d4 b2 98 3b e1 a5 a8 bb
       -0.0029187037 0.0009553659 0.00465999 -0.0051467274
0003b0 d0 59 b1 bb 2d 60 33 ba cc 33 8b 3b 8d 3d 74 3b
       -0.005412318 -0.00068426394 0.004248118 0.0037268132
0003c0 e6 bb a9 ba f2 a1 d9 3a 35 a1 19 3a b6 1c d8 ba
       -0.0012949675 0.001660405 0.00058605085 -0.0016488049
0003d0 74 c4 90 3a c7 33 84 ba 3f a1 ba 3a bd a8 19 3b
       0.0011044876 -0.0010086232 0.0014238729 0.0023446523
0003e0 4f 10 bd ba a7 8d f8 3a 0c 55 60 3a f1 a4 34 ba
       -0.0014424416 0.0018963114 0.0008557595 -0.0006891033
0003f0 cd 46 0c bb 67 f6 05 bb bd 72 9d 3a 63 25 06 3b
       -0.0021404505 -0.0020441057 0.0012012344 0.0020469062

base_model.model.bert.encoder.layer.1.attention.self.query.lora_A.weight f4 [16, 384]
000000 72 58 50 bd 65 63 a4 bc 5c 8e 42 3d 46 bb d6 3c
       -0.050865598 -0.020066926 0.047499046 0.026212346
000010 f3 ca 25 bc d9 03 5c bd 17 4d 3f bd 84 2b 79 3b
       -0.010119188 -0.053714607 -0.046704378 0.0038020322
000020 6b 0c 1a bd 78 29 7b 3c e9 dc 2a 3d f7 2b a7 bb
       -0.0376095 0.015329711 0.041714583 -0.0051016766
000030 46 2d 13 bc 1b a2 38 3d 4c e7 34 bd fa e6 f4 3c
       -0.008982962 0.04507647 -0.044165894 0.029895294
000040 61 4d 3f bc f3 3c 58 3c 89 d9 43 bd 28 1d fa bc
       -0.011676163 0.013198125 -0.04781488 -0.03053148
000050 cf a7 8e bc 38 63 b1 3c c8 e3 54 3d d8 29 18 bd
       -0.017414002 0.021653756 0.05197504 -0.03714928
000060 e0 f1 b9 3a 70 ec 0c 3d ea ed 5e bc 16 8a 4e 3d
       0.0014186464 0.034405172 -0.013606528 0.050424658
000070 32 8d 1a bd 8a 70 10 3b b6 3b bb bc 36 ab aa 3a
       -0.03773231 0.0022039735 -0.02285562 0.0013020996
000080 e5 2c c5 3c bc 45 3d 3d de fa 1f 3d 54 fa d5 3c
       0.024069259 0.046209082 0.039057605 0.026120342
000090 5b 27 7b bc a3 c8 bf bc e4 7b 22 3d a7 71 3e bd
       -0.015329207 -0.0234111 0.039668933 -0.046495106
0000a0 0f 03 38 bd 73 4b 86 3c 2d 67 f6 3b 46 29 22 3d
       -0.044924792 0.016393399 0.0075196237 0.039590143
0000b0 e2 94 5a bd 89 75 97 3c 6c 01 ab 3b 5b cd 56 bd
       -0.053364642 0.018488662 0.0052186754 -0.052441936
0000c0 ec 36 37 bd b5 28 ae bc f1 b7 f7 3c 99 62 e0 3c
       -0.044730112 -0.021259645 0.030239077 0.027390765
0000d0 60 15 d0 3c 0f 9d 0d 3d 1a 6a 4f 3c fb 9a 51 bc
       0.025400817 0.03457361 0.012659574 -0.012793298
0000e0 fc 93 4c bd 83 0c c1 bc 21 92 35 bd 57 5b 25 bd
       -0.049945816 -0.023565536 -0.044328813 -0.04037031
0000f0 16 1d 82 bb 64 7f 66 bc 42 89 9d 3b 33 2d e4 ba
       -0.0039707525 -0.014068458 0.004807622 -0.001740849
000100 c0 7c 2a bd ee 19 ea bc bb 63 66 3c 41 b1 02 3d
       -0.041622877 -0.028576817 0.0140618635 0.031907324
000110 c5 32 2c 3a e7 c4 df 3c e8 33 e0 bc db 69 1f bd
       0.00065688445 0.02731557 -0.0273685 -0.03891931
000120 e1 d7 2a bd 51 3f 3d 3b b0 72 49 bd 8a c0 3b 3d
       -0.041709784 0.002887685 -0.04918164 0.045837916
000130 38 89 dd 3b b1 10 0f bd 8c 16 00 bd 54 a5 17 bd
       0.0067607425 -0.034928028 -0.031271502 -0.037022904
000140 28 33 56 bc d0 71 a4 3c 0e 35 29 3d 53 32 1b bd
       -0.01307372 0.020073801 0.041310363 -0.03788979
000150 d5 44 0a 3d 68 70 8e bc 49 9a 0c 3d ed dc e7 bb
       0.03375705 -0.017387584 0.034326825 -0.007075897
000160 0f 25 72 bb 10 ac 9d 3c f0 d0 9c 3c 15 46 24 bd
       -0.0036948358 0.019247085 0.019142598 -0.040105898
000170 1e fa cd bb 6b 0a fe 3c 74 fc 8d 3c 65 f7 27 3d
       -0.00628592 0.031010827 0.017332293 0.04100742
000180 1d fc a3 bc 6c bd 04 3d 4e eb 03 3d 11 29 cb bc
       -0.020017678 0.03240721 0.032206826 -0.024799855
000190 c9 43 22 bd 02 a5 2c 3d a8 29 6b 3c 65 b8 5b 3b
       -0.039615426 0.04214955 0.014353193 0.0033526656
0001a0 f8 c3 46 3c cf 1e 2b bd 5e e2 00 bd ec 1e 36 3d
       0.0121316835 -0.04177743 -0.03146588 0.044463083
0001b0 20 ee 37 3b 14 7f a3 3c 47 c5 e2 bc d5 a2 39 3c
       0.0028065518 0.019958057 -0.02768196 0.011330326
0001c0 23 df 22 3d c3 ae 33 3d 9b f9 0e bd 01 34 2d bc
       0.03976358 0.043867838 -0.03490601 -0.010571481
0001d0 ce fc 3c 3d 3c 0a e8 bb 6c 57 04 3d 75 f2 51 bd
       0.04613953 -0.007081298 0.032309934 -0.051256616
0001e0 5d e6 24 bc 05 aa 2e bd 03 3c 30 bd aa 09 db bc
       -0.0100646885 -0.042642612 -0.04302598 -0.026738007
0001f0 88 5f b5 3c af 42 02 3d 55 c9 0b bd 40 00 14 3d
       0.02214028 0.031801876 -0.034127552 0.03613305
000200 61 a6 00 3d 00 f0 ba 3b c4 85 21 bd 2f 57 bd 3c
       0.03140867 0.0057048798 -0.03943421 0.023112861
000210 b4 3d 1a 3d 6c c3 aa bc 88 4a 50 3d 1b dc 4d 3c
       0.0376565 -0.020845138 0.05085233 0.012564684
000220 56 84 56 3c 4f db 86 bb 09 26 93 3c 02 72 bf bc
       0.013093075 -0.004115499 0.017962473 -0.023369793
000230 be 40 91 bc 06 13 45 3d 26 59 3f 3d ce d7 0d bd
       -0.017731067 0.048113845 0.046715878 -0.034629636
000240 8f a7 36 3d 63 05 6f 3c 13 cc bd bc cf a7 55 3d
       0.04459339 0.014588687 -0.0231686 0.052161988
000250 5b 07 46 bd ab 62 ae bc db 2d e5 bc fc fe 78 bb
       -0.04834686 -0.021287283 -0.027975967 -0.003799378
000260 0c 73 4e bd dc 1a 58 bc 6d 6a 52 bd fd 51 d6 3c
       -0.050402686 -0.0131899975 -0.051371027 0.026162142
000270 c1 f3 d1 3c 95 13 42 3d 00 27 5f 3c a8 b9 d1 bc
       0.025628926 0.047381956 0.013620138 -0.025601223
000280 f4 ac 03 3d 45 db 86 bb 2a 16 4c bd ba c5 03 3d
       0.032147363 -0.0041154944 -0.049825825 0.03217099
000290 43 02 85 3c 92 03 4d bb 9d 59 90 3b 6a 02 9d 3c
       0.01623643 -0.0031282646 0.004405214 0.01916619
0002a0 e3 5a 96 bc 72 fd 02 bd 5e 5b 07 bc 34 96 20 3d
       -0.018353885 -0.031979986 -0.00826153 0.039205745
0002b0 a6 d4 b2 3a 24 80 4d 3d 65 5d 1a bd 61 09 1f 3a
       0.0013643696 0.050171033 -0.037686724 0.0006066766
0002c0 89 9c e9 3b 1e 1c f3 3c 56 99 b1 bb 52 9f ed bc
       0.007129256 0.029676493 -0.0054198904 -0.029006634
0002d0 db a2 a4 3b f6 a1 d9 bb f7 5b 00 bd 3a b2 ea 3c
       0.0050242967 -0.0066416217 -0.031337705 0.028649438
0002e0 49 40 36 3d 6f 90 25 3d c4 3b 25 bd 5c 8b 0b 3c
       0.0444949 0.040420946 -0.0403402 0.008517113
0002f0 04 90 1d 3d 84 c2 eb 3c 11 0d f8 bc 2a cb 38 bd
       0.038467422 0.028779276 -0.030279668 -0.045115627
000300 d5 ad 5a 3c 5b b4 e1 bc eb 99 f4 3c c6 d6 1c bd
       0.013347109 -0.02755182 0.02985855 -0.03829076
000310 0b 3e 5a bb 8d a4 2e bd 34 ba 29 3d eb 0f 19 3d
       -0.003330114 -0.042637397 0.041437343 0.037368696
000320 97 18 09 3d 6d cb bd 3b 6c 13 e7 3b 51 69 b8 bc
       0.033470716 0.0057920725 0.007051876 -0.022511156
000330 85 ac 82 3b 74 ea ae 3c f7 42 60 3c 0f 7c f4 bc
       0.003987851 0.02135203 0.013687841 -0.029844312
000340 18 a1 2b bd 4d bd a4 3c 0d 77 f3 3c 9b a8 42 bd
       -0.041901678 0.020109797 0.029719854 -0.047524076
000350 c6 35 01 3c 98 6f d1 3c 3d 68 a4 bc 4e 71 0e bd
       0.007886356 0.025565907 -0.020069236 -0.034776025
000360 9a 52 0d bb e3 09 4e bd 7d a2 50 bd fd 2e be 3c
       -0.0021564127 -0.050302397 -0.05093621 0.023215765
000370 0e 4a e0 bc 97 23 30 3d 23 94 00 3d fc 2e e7 bc
       -0.027379062 0.04300269 0.031391274 -0.028220646
000380 64 7a 13 bd 21 3c 84 bc 32 0c 5a bc c8 26 4d bc
       -0.036005393 -0.016141953 -0.013308572 -0.012521453
000390 ed d2 4c bc 6a 06 0f 3d b6 cf 2e 3d 2e 05 e8 bc
       -0.0125014605 0.034918226 0.042678557 -0.028322782
0003a0 98 7c 02 bc 9d 12 83 3c 32 dc db 3c d0 13 a5 bc
       -0.007964276 0.016000086 0.026838396 -0.020151049
0003b0 77 81 0e 3d 6b 39 c2 bc 61 e3 94 3c b7 f1 17 bd
       0.034791436 -0.02370902 0.018174829 -0.03709575
0003c0 22 9b 71 3c 61 96 2e bd c5 d8 da 3c cb 67 e2 38
       0.014746459 -0.04262388 0.026714692 0.00010795853
0003d0 1c 54 b0 bb 84 64 2f 3d c7 0d c8 bc 71 65 16 bd
       -0.0053811204 0.04282047 -0.024420632 -0.036717836
0003e0 29 6c c5 bc 2f 74 0d 3d 6e a8 24 3d 40 92 44 bd
       -0.024099426 0.03453463 0.04019969 -0.047991037
0003f0 3b a9 06 bd eb 8e 2c bd 51 02 36 bd 8b e9 8e 3c
       -0.032876235 -0.042128485 -0.044435803 0.017445346

base_model.model.bert.encoder.layer.1.attention.self.query.lora_B.weight f4 [384, 16]
000000 c7 58 29 bb 27 6b 25 3b 42 87 11 b9 b5 97 9e 3b
       -0.002584027 0.002524087 -0.00013878665 0.004839862
000010 ed c3 ba 3b db 50 a5 ba 86 89 cc 3b 72 b2 b7 ba
       0.0056996257 -0.0012612598 0.00624198 -0.0014014973
000020 ae 3e 89 bb a7 f3 9f 3b 0b 1d 86 3b 28 96 bd bb
       -0.00418838 0.0048813405 0.0040928177 -0.0057857223
000030 0c 40 15 ba b9 e2 61 3b 79 e7 84 3b 4a d4 00 bb
       -0.00056934427 0.0034467413 0.004055914 -0.0019657784
000040 7b 33 ed ba 7e 1d e1 3a 2e 46 db b9 d1 5a 18 39
       -0.0018097007 0.0017174927 -0.00041823223 0.00014529681
000050 67 b7 a5 3a e5 d8 7d ba f1 b9 ab 3a 88 22 ba ba
       0.0012643159 -0.0009683504 0.001310168 -0.0014200965
000060 56 68 b8 ba fc 75 87 3a ab db 9a 3a 1f b4 99 ba
       -0.001406918 0.0010334845 0.0011814734 -0.0011726654
000070 39 6e 97 3a 49 82 ee 3a 89 91 a1 3a c1 71 64 39
       0.0011553235 0.0018196787 0.0012326698 0.00021786151
000080 df 33 16 3b 55 ff 1b 3a f0 15 e3 3a bb 02 e2 39
       0.0022919101 0.0005950828 0.0017325263 0.00043108113
000090 04 c3 83 b9 a4 5e eb 3a df 2e e1 3a f6 a1 34 ba
       -0.00025131565 0.0017957282 0.0017180106 -0.0006890589
0000a0 d6 5f 88 3a f1 5b 2f 39 eb a2 08 b9 1b 77 41 3a
       0.0010404538 0.00016723551 -0.00013030662 0.0007380114
0000b0 b7 39 85 bb ca 7f 01 bb 2b 0e 29 ba 50 51 67 bb
       -0.004065718 -0.0019760006 -0.00064489496 -0.0035296269
0000c0 60 5b 06 bb 7b 5f d2 39 b5 15 9c 38 1e 5a 41 3a
       -0.002050124 0.0004012546 7.442703e-05 0.0007375794
0000d0 bc 9d 08 3b 6a ff dd ba 43 bc 92 3b e8 cc 52 39
       0.002084597 -0.0016937081 0.004478009 0.00020103494
0000e0 98 7d 44 bb c4 9b 3f 3a 9c 33 d2 39 db 11 a2 ba
       -0.0029982086 0.00073092827 0.00040092773 -0.001236494
0000f0 c8 4e c1 b9 95 de 39 3b cd 3a a5 3b b5 e8 8f ba
       -0.00036870525 0.002836143 0.00504241 -0.0010979386
000100 94 d3 3a b6 17 87 c7 3a 7f 67 11 3b 77 86 36 3b
       -2.7839314e-06 0.0015222755 0.0022186933 0.0027851143
000110 a2 fc 3d 3b 9a 1d c0 ba 10 6b 8c 3b 4a 2a dd ba
       0.0028989692 -0.001465726 0.004285224 -0.0016873565
000120 ed 1d 5d bb 4a 2b 1c 3b 15 05 e0 3a cb e6 40 bb
       -0.003373976 0.0023829513 0.0017091358 -0.0029434438
000130 64 32 07 bb a3 b7 b5 3a a3 90 87 3b 10 9a 4e bb
       -0.00206294 0.0013863932 0.004137115 -0.0031524934
000140 9f 6f 0d bb 71 85 45 39 d6 0b d8 b8 1f ab 51 3a
       -0.0021581424 0.00018837095 -0.00010301887 0.00079982163
000150 6e d2 14 3b c3 f5 12 bb a8 9e 9c 3b fe 7b 04 3a
       0.0022708434 -0.0022424317 0.0047796555 0.00050538767
000160 29 24 77 bb 33 5d 3c 3a c5 e2 a6 39 98 e3 d1 ba
       -0.0037710762 0.00071855186 0.00031830944 -0.0016013263
000170 42 b5 98 b9 02 be 49 3b 35 36 c1 3b 32 e2 94 ba
       -0.00029126747 0.003078342 0.0058963546 -0.0011358915
000180 aa 8d 1b bb b7 5e b1 b9 11 bb d7 38 8c cf 18 ba
       -0.0023735561 -0.0003383064 0.00010286843 -0.0005829267
000190 cf d0 b6 3a c4 ea 1c bb 42 15 8a 3b 65 3f 8a 3a
       0.0013947728 -0.0023943642 0.00421396 0.0010547457
0001a0 c4 6d ea ba e2 ce b4 b9 00 1a f0 b9 40 87 7f b8
       -0.0017885496 -0.00034486415 -0.0004579574 -6.09227e-05
0001b0 68 0d 6b 3a c5 0e 44 3b 16 df 8b 3b 41 29 8f b9
       0.0008966536 0.002991603 0.0042685373 -0.00027305822
0001c0 86 cc 25 bb 1a 24 8f 3a 8f a3 66 b9 7d 68 82 3a
       -0.0025298907 0.0010920793 -0.0002199544 0.0009949353
0001d0 3a d4 2e 3b 96 1b 80 ba 5e 42 87 3b 90 8a 30 ba
       0.002667679 -0.0009773846 0.0041277846 -0.00067345146
0001e0 72 05 85 bb 18 0d bf 3a 6a d7 a4 3a b1 5f f2 ba
       -0.004059487 0.0014576046 0.0012576405 -0.0018491653
0001f0 a0 24 0c ba 63 0b 50 3b 87 10 7b 3b eb 17 83 ba
       -0.0005346034 0.0031745068 0.0038309412 -0.0010001635
000200 eb 13 71 3a b2 84 64 39 85 b9 49 3b 60 36 87 3a
       0.00091963884 0.00021793207 0.0030780744 0.0010315888
000210 71 bc 81 3a d1 6a 87 ba 98 fc 71 3b 02 4f 36 b8
       0.0009898079 -0.0010331516 0.003692424 -4.3465763e-05
000220 f1 b4 3f ba 02 fe 57 39 98 91 f2 38 68 bd 54 ba
       -0.0007313034 0.00020598623 0.00011566578 -0.0008115382
000230 de 9a 09 ba 40 29 d3 b9 4b 3a 1e 3b 38 d2 b7 ba
       -0.0005249212 -0.0004027579 0.0024143632 -0.0014024442
000240 5a 65 dc 3a d3 a0 04 3b 5d bc 36 3b a1 86 33 3b
       0.0016814873 0.002023746 0.002788327 0.0027393478
000250 d8 dc d2 3a b6 56 78 3b ee 27 d2 3a 0e ba 42 bb
       0.0016087545 0.003789348 0.0016033628 -0.0029712948
000260 3a a9 19 b9 f3 10 12 3b 37 aa 04 3b 8e 9b db ba
       -0.00014654259 0.0022287935 0.0020243058 -0.0016754733
000270 b6 88 b0 bb b3 a5 85 ba 4c ff e6 b8 b7 be 93 bb
       -0.005387391 -0.0010196477 -0.000110148074 -0.004508819
000280 58 06 ca 3a 46 91 34 3a 6d d6 2d ba 30 a1 24 38
       0.0015413268 0.00068881025 -0.0006631378 3.9250765e-05
000290 fe 74 c7 b9 2e a3 3e 3b 99 bd 55 bb c5 25 a2 ba
       -0.00038043404 0.0029088962 -0.003261423 -0.0012370875
0002a0 62 1f 7e 3a 6d a1 82 39 d2 74 c7 39 26 93 9b b8
       0.00096940075 0.00024915804 0.00038043276 -7.4183845e-05
0002b0 64 d7 ce b9 c0 9e a1 b9 69 2d 16 bb e0 1c 91 39
       -0.0003945186 -0.0003082659 -0.002291525 0.0002767807
0002c0 34 d2 f4 3a bf fe c7 ba f9 29 0c 39 72 31 ce ba
       0.0018678368 -0.0015258415 0.00013367076 -0.0015731289
0002d0 18 3d 16 bb 38 73 bc 3a 82 5e 50 bb 4e 1a c1 36
       -0.0022924598 0.00143776 -0.0031794612 5.7549105e-06
0002e0 87 8a 12 3b ce fa dc ba 05 3a ee ba 38 c0 f2 3a
       0.00223604 -0.0016859414 -0.001817525 0.001852042
0002f0 36 91 40 ba 7e b1 0f bb 3e 79 0e bb 85 a4 06 3a
       -0.0007345857 -0.0021925862 -0.0021739746 0.00051362097
000300 3f 58 44 bb 7d bf 9f ba 78 a2 89 bb 2a 88 19 bb
       -0.0029959825 -0.0012187805 -0.004200276 -0.0023427107
000310 92 3e f5 ba f6 b7 f5 ba 6d da 8e bb 61 0b b4 3a
       -0.0018710664 -0.0018746841 -0.0043595345 0.0013736301
000320 f2 e3 d4 b9 71 20 b3 ba 69 ac 86 ba 3c ce 60 3a
       -0.00040605624 -0.0013666285 -0.0010274771 0.0008575653
000330 30 27 23 3b ab 32 09 3b 93 f4 fd ba 59 2a 19 3b
       0.0024895184 0.0020934741 -0.0019375257 0.0023371188
000340 dc 17 13 3b 4e 65 8b bb 55 45 9f ba 59 2a 3b bb
       0.0022444641 -0.00425402 -0.00121514 -0.0028559177
000350 7e a4 63 bb d7 d5 22 3a 23 09 83 bb 62 71 7c 3b
       -0.0034735496 0.0006211674 -0.003998892 0.003851973
000360 10 00 25 3b 2b 96 4b bb 14 18 5e bb 46 73 47 3b
       0.002517704 -0.003106485 -0.0033888863 0.0030433699
000370 19 db b8 3a 31 de 2a bb c0 c6 24 bb b4 a8 5e 3b
       0.0014103382 -0.0026072378 -0.0025142878 0.0033975067
000380 d3 67 e0 ba 71 81 fb b9 db 14 99 3a 03 a6 71 38
       -0.0017120786 -0.00047970892 0.0011679189 5.7613488e-05
000390 9c ab 20 3a 44 f1 50 bb bf 33 45 3b 5c 39 23 3a
       0.00061290874 -0.0031882087 0.0030090658 0.0006226504
0003a0 27 5a d2 ba 61 48 77 b9 20 89 33 ba 0d 30 25 b9
       -0.0016048596 -0.00023582719 -0.00068487413 -0.00015753527
0003b0 5b ee 30 3a 7e 9c f1 3a b5 a7 18 3b af 04 15 bb
       0.0006749385 0.0018433479 0.002329332 -0.0022738387
0003c0 24 b6 03 bb b2 57 8f ba f5 42 15 bb 9a 94 0b bb
       -0.0020097578 -0.001093617 -0.0022775505 -0.002129829
0003d0 2b ae c4 ba 9b 2c 26 ba ed ef 89 bb 42 e8 09 3b
       -0.0015005519 -0.0006339044 -0.0042095096 0.0021042977
0003e0 37 dc a7 39 c8 c5 9b ba 1e b5 6a ba ee e6 80 3a
       0.00032016795 -0.0011884505 -0.000895338 0.0009834447
0003f0 6d 81 90 3b 56 69 63 3a 99 ee 90 ba 78 82 8a 3b
       0.00440996 0.0008675059 -0.0011057436 0.004226979
