lora_crossencoder_has_instruction_r_4 la_16 ld_0.1/checkpoint-774/adapter_model.safetensors (safetensors, 152508 bytes, 25 tensors)

base_model.model.bert.encoder.layer.0.attention.self.query.lora_A.weight f4 [4, 384]
0	0xbcb1aaa3	-0.021687811
1	0x3b635d05	0.0034692895
2	0xbc1f7f48	-0.009734936
3	0x3b484f4a	0.0030564838
4	0xbc52fe50	-0.012878016
5	0x3c9e5897	0.019329352
6	0x3c26ec7a	0.010188216
7	0x3cb3584d	0.021892691
8	0x3d57fa82	0.052729137
9	0xbcf404a6	-0.029787373
10	0x3d06dc1b	0.032924753
11	0xbc963a3a	-0.018338311
12	0xbc84c416	-0.016206782
13	0xbd461b8a	-0.048366107
14	0xbca5683b	-0.020191303
15	0xbbec1653	-0.0072048097
16	0x3d286d93	0.041120123
17	0x3bb33ef4	0.005470151
18	0xbc520a36	-0.012819817
19	0x3c5b45cb	0.013383339
20	0xbc0402f6	-0.008057347
21	0xbcceaaad	-0.025227869
22	0x3ca4d87b	0.020122757
23	0x3d09a457	0.033603992
24	0xbd354114	-0.044251516
25	0x3a3fe928	0.0007320815
26	0xbd2c366d	-0.042044092
27	0x3c91d044	0.017799504
28	0x3d211b62	0.039332755
29	0x3d291379	0.041278336
30	0xbcc0ae67	-0.023520662
31	0xbd3a8979	-0.04554126
32	0xbaace5b6	-0.0013191018
33	0x3cad6323	0.021165436
34	0xbd4dfcb8	-0.05028984
35	0xbcc11ca3	-0.023573225
36	0x3c8de6a7	0.017321898
37	0x3ccaf8cd	0.02477684
38	0x3c6ef6c7	0.0145852035
39	0x3d1c8126	0.038209103
40	0xbcca49bc	-0.024693362
41	0x3cc33f75	0.02383397
42	0xbd2617ec	-0.040550157
43	0x3d1132db	0.03544889
44	0xbd0dbd82	-0.034604557
45	0x3c04d1ac	0.00810663
46	0xbd030abd	-0.031992663
47	0xbc77ab8a	-0.015116582
48	0xbd2331bc	-0.039842352
49	0xbc9296ca	-0.017894167
50	0x3cb99925	0.022656033
51	0x3cece7ae	0.028919067
52	0xbced4a62	-0.028966133
53	0xbc187d7b	-0.009307261
54	0xbd53559d	-0.05159532
55	0x3b207e1e	0.0024489234
56	0x3d01dfce	0.031707577
57	0x3cd70a17	0.026249928
58	0xbc43c98d	-0.011949909
59	0xbbee24c4	-0.0072675664
60	0xbbdd69b0	-0.0067569837
61	0x3cd1778c	0.0255697
62	0x3cc90b9e	0.024541672
63	0x3b01313f	0.001971319
64	0x3c976450	0.01848045
65	0x3d2f80fe	0.042847626
66	0xbc393cdc	-0.011306014
67	0x3d0de762	0.034644492
68	0x3b425ee3	0.0029658608
69	0xbd025e8d	-0.031828452
70	0xbd2ac70b	-0.04169373
71	0x3ac0ba4c	0.0014703958
72	0xbd224482	-0.039616115
73	0xbc11d887	-0.008901722
74	0x3cb3ba6e	0.021939483
75	0x3c91a1c1	0.017777326
76	0x3c9a772d	0.018855656
77	0xbd25e388	-0.040500194
78	0x3cfb701d	0.030693108
79	0x3c16c596	0.009202382
80	0x3d1b2d99	0.037885282
81	0x3bc2c4d2	0.005943873
82	0x3cb677e8	0.022273973
83	0xbcc48fa2	-0.02399427
84	0xbd4fecca	-0.05076293
85	0x3cc1ce0d	0.023657823
86	0x3c04b0f9	0.008098834
87	0x3d16eb4d	0.036845494
88	0x3d4ebdc7	0.050473955
89	0x3be36581	0.0069395904
90	0xbd2a4b19	-0.041575525
91	0x3cf4ea7e	0.02989697
92	0x3cf33500	0.029688358
93	0x3d2c90a7	0.04213014
94	0x3d1db084	0.038498417
95	0xbd1201ec	-0.035646364
96	0xbcb8fcf7	-0.02258156
97	0xbcb7d9bc	-0.022442691
98	0xbc4b4928	-0.0124075785
99	0xbbe9ca4b	-0.007134711
100	0x3caa10ce	0.020759966
101	0x3cda3c2e	0.026640024
102	0xbce912b7	-0.028451307
103	0xbca80baa	-0.020513374
104	0xbccdea08	-0.025136009
105	0x3c919ff2	0.017776463
106	0xbca956ff	-0.020671366
107	0xbb79c6d1	-0.0038112889
108	0xbb11489b	-0.002216852
109	0x3ca6bc05	0.020353327
110	0x3bf18ae9	0.0073712957
111	0x3d4df3e1	0.05028141
112	0x3cb54ac3	0.022130376
113	0xbbdafcc9	-0.0066829664
114	0xbcfea32d	-0.031083668
115	0x3ca58b84	0.020208128
116	0xbd580108	-0.05273536
117	0xbd47841b	-0.04870997
118	0x3d1b9ae0	0.037989497
119	0xbd522679	-0.05130622
120	0x3c11e8c2	0.008905591
121	0xbc0bda96	-0.008536002
122	0x3c8af5fb	0.016962996
123	0xbcef7e28	-0.02923496
124	0xbd3eb632	-0.046560474
125	0xbc516074	-0.012779344
126	0x3cb7862d	0.022402847
127	0x3cdafff3	0.026733374
128	0x3cce2c77	0.025167687
129	0x3d39ac9a	0.04533062
130	0x3c948235	0.018128494
131	0x3c7c256e	0.015389783
132	0xbcc2c674	-0.02377627
133	0xbced62f2	-0.028977845
134	0x3c1309c7	0.008974499
135	0x3d27ceb8	0.040968627
136	0xbcd15910	-0.025555164
137	0x3ca39005	0.019966135
138	0x3d0f82dc	0.035036907
139	0xbd3ee46b	-0.046604555
140	0x3bc44fe7	0.0059909704
141	0x3d54b6d8	0.051932186
142	0xbd61c73a	-0.055121638
143	0x3cd6c6df	0.026217876
144	0x3d2dc7f3	0.042427015
145	0xbbf06827	-0.0073366347
146	0xbc3bae5a	-0.011455143
147	0x3ce06950	0.027393967
148	0xbc0e2c70	-0.008677587
149	0xbb92cd03	-0.0044800057
150	0xbd0c9ec6	-0.034331106
151	0x3c8e5edc	0.017379217
152	0x3c312501	0.010812045
153	0x3c8bfc5a	0.017088104
154	0xbd4e46d9	-0.050360534
155	0xbc664b52	-0.014056044
156	0xbd0d7fae	-0.034545593
157	0xbd12a43c	-0.035801157
158	0x3c6d6588	0.014489539
159	0xbcda7d05	-0.026670942
160	0xbd0bf374	-0.034167722
161	0xbb6820a2	-0.0035419841
162	0x3c83f711	0.016109021
163	0x3c0ca180	0.0085834265
164	0x3c8da6c8	0.017291442
165	0x3cb4912f	0.022041885
166	0x3ce8c056	0.028412025
167	0x3cf48a7b	0.029851189
168	0x3d1ccb51	0.038279835
169	0x3cb6f2e1	0.02233261
170	0xbcee9b30	-0.029126734
171	0xbb9b9f22	-0.0047491947
172	0xbc31c8a9	-0.010851064
173	0x3ccd05d7	0.025027199
174	0xbd088bdb	-0.0333365
175	0xbc29cc93	-0.010363716
176	0xbd31dfb9	-0.04342625
177	0xbc3049cf	-0.010759785
178	0x3b67c56f	0.0035365482
179	0x3be68760	0.007035181
180	0xbd335800	-0.043785095
181	0x3b8dfb37	0.0043329257
182	0x3b872e9e	0.0041254302
183	0xbd121e0a	-0.03567318
184	0xbcff5f9b	-0.031173518
185	0xbcef6337	-0.029222114
186	0x3d3e9bcd	0.046535302
187	0xbd1ca9ec	-0.038247988
188	0x3c61dcc1	0.013785542
189	0x3c2e8443	0.010651651
190	0xbd3e6875	-0.046486337
191	0x3cd17898	0.025570199
192	0x3d1e2860	0.038612723
193	0xbd655615	-0.055990297
194	0xbd141708	-0.036154777
195	0xbc47624c	-0.012169432
196	0xbcf19f9c	-0.029495053
197	0x3ccdcf50	0.025123268
198	0x3ceb7fba	0.028747428
199	0xbc8a58fc	-0.016888134
200	0x3d4e93bc	0.05043386
201	0xbc188ee1	-0.009311409
202	0x3cef416e	0.029206004
203	0xbcae6cba	-0.02129208
204	0xbd41b855	-0.047294933
205	0xbcdf9c5c	-0.027296238
206	0x3d3c457d	0.045964707
207	0x3c363ff3	0.011123645
208	0xbc0c2603	-0.008553985
209	0xbd4634a7	-0.048390057
210	0x3d302c71	0.043011133
211	0x3bfc8028	0.007705707
212	0x39d69ed7	0.00040935606
213	0x3d573bcc	0.05254726
214	0x3d24a319	0.040194605
215	0x3d0fab43	0.035075437
216	0xbc4bce49	-0.012439319
217	0x3c3fbf33	0.0117033
218	0xbd1c4c1b	-0.038158517
219	0xbd3424bf	-0.043980356
220	0x3d19d399	0.03755531
221	0x3ba37921	0.004988805
222	0x3d0b5ef6	0.03402611
223	0x3d22d525	0.03975405
224	0x3a855d75	0.0010174947
225	0x3badf028	0.00530817
226	0xbd0793d8	-0.03309998
227	0x3c4eea93	0.012629169
228	0xbd5967c4	-0.053077474
229	0x3ca6f1c4	0.020378955
230	0x3cea08c6	0.028568637
231	0x3d41c45e	0.04730641
232	0xbd202196	-0.03909453
233	0x3ce22fcd	0.027610684
234	0xbd3fa0b2	-0.04678411
235	0x3d49b56a	0.049245276
236	0x3c7f64e5	0.01558802
237	0x3d26c87a	0.040718533
238	0x3c5b9968	0.013403274
239	0xbcb1d481	-0.021707775
240	0x3c3f98c8	0.011694141
241	0xbd2dc78f	-0.042426642
242	0x3c38eefb	0.011287446
243	0xbb0c5591	-0.0021413306
244	0xbcff8a37	-0.031193836
245	0x3d3981a0	0.045289636
246	0x3d13ff55	0.036132175
247	0xbceb9e71	-0.028762074
248	0xbb64d347	-0.003491597
249	0x3d0eb43a	0.034839846
250	0x3c8d3491	0.01723698
251	0xbd07f627	-0.033193734
252	0xbd0fac62	-0.035076506
253	0x3cfb546a	0.0306799
254	0xbc99e6a2	-0.018786732
255	0xbb95031f	-0.004547491

base_model.model.bert.encoder.layer.0.attention.self.query.lora_B.weight f4 [384, 4]
0	0xbb2bc44c	-0.0026209531
1	0xbb29c5c1	-0.0025905224
2	0xbaf0ae9b	-0.0018362583
3	0x3b36dd80	0.002790302
4	0xbb01fbaa	-0.0019833841
5	0xbb73ad2e	-0.003718208
6	0xbacec137	-0.0015774135
7	0x3b391b57	0.0028245056
8	0x3ad915d5	0.0016562293
9	0x3b352446	0.002764003
10	0x39f2c678	0.00046305708
11	0xbac71a1e	-0.0015190279
12	0x3a30a1bf	0.0006737969
13	0xba18bea6	-0.00058267487
14	0xba0fbb6d	-0.00054829457
15	0xbad2d851	-0.0016086196
16	0x3b0c9d91	0.0021456222
17	0x3abb2fd9	0.0014281227
18	0x3b8bfa6e	0.004271797
19	0xbaee3c4a	-0.0018175927
20	0xbace21f3	-0.001572667
21	0xbb3f25d5	-0.0029166837
22	0xba988c06	-0.001163841
23	0x3b243a7a	0.0025059269
24	0x3963f1f3	0.0002173854
25	0xbb0df9a8	-0.00216637
26	0x3b81d338	0.003961947
27	0x3a8d5575	0.0010782914
28	0xbb140c37	-0.0022590288
29	0xbb48da38	-0.0030647647
30	0xba51835c	-0.00079922914
31	0x3b07f81f	0.0020747257
32	0x3b098326	0.0020982712
33	0x3b2413d4	0.0025036233
34	0x3b118c04	0.00222087
35	0xbb24ceef	-0.0025147756
36	0xbb7a92ac	-0.0038234396
37	0xbb8b236b	-0.0042461655
38	0xbb4e5666	-0.0031484603
39	0x3b4fc3f8	0.00317025
40	0x3b77ff55	0.0037841399
41	0x3ba1c002	0.004936219
42	0x3b494ab4	0.0030714693
43	0xbb9f541a	-0.0048623206
44	0x3a94b70c	0.0011346056
45	0x3aefe7f3	0.0018303379
46	0x3aa6344d	0.0012680382
47	0xba8494ed	-0.0010115184
48	0xbad698e6	-0.0016372472
49	0xbbb183cc	-0.0054173227
50	0xb9ab647e	-0.00032690534
51	0x3ba4d7bc	0.0050306004
52	0xbb9b89a4	-0.0047466327
53	0xbbc07d49	-0.00587431
54	0xbb18def3	-0.0023326247
55	0x3b911bdb	0.0044283695
56	0xba79d4a1	-0.00095302804
57	0xbb0809d1	-0.0020757804
58	0xb9bd2830	-0.0003607883
59	0x3aa06dfd	0.001223981
60	0x3a338576	0.00068481953
61	0x3787d70f	1.6193399e-05
62	0x3ac6e318	0.001517388
63	0xba1e5e66	-0.0006041288
64	0xbaea76c3	-0.0017888177
65	0xbb074521	-0.002064057
66	0x3984b4d2	0.00025311724
67	0x3abe329f	0.0014510936
68	0xbaf8d29f	-0.0018983668
69	0xbb44e984	-0.0030046413
70	0xbafc4d52	-0.0019249117
71	0x3b3f4cfb	0.002919017
72	0x3afd7eb9	0.0019340134
73	0x3a61ae75	0.0008609065
74	0x3a47e922	0.0007625987
75	0xbb182bf7	-0.0023219564
76	0x3b17c205	0.0023156416
77	0x3b3cb5ba	0.002879484
78	0x3ab4f7de	0.001380678
79	0xbac81a53	-0.0015266634
80	0x3b2a4739	0.0025982393
81	0x3b826dfb	0.003980396
82	0x3b20c122	0.0024529179
83	0xbb3fe05f	-0.0029278023
84	0xbb0947d0	-0.0020947345
85	0xbb282cc6	-0.0025661453
86	0xba5beca2	-0.0008389448
87	0x3ab47a35	0.0013769331
88	0x3aadaffd	0.0013251301
89	0x3a1c2aba	0.00059572945
90	0x3ab46b4e	0.001376489
91	0xba2ff247	-0.00067118224
92	0xba643f3a	-0.0008706931
93	0xbaf51f08	-0.0018701265
94	0xbad9ad89	-0.0016607504
95	0x3b0d7a58	0.0021587815
96	0xbb388e1f	-0.0028160883
97	0xbb5113f5	-0.0031902764
98	0xbb53b60d	-0.0032304556
99	0x3b4f8a47	0.0031668113
100	0xbb560834	-0.0032658698
101	0xbb1f4b86	-0.002430649
102	0xbb297d92	-0.00258622
103	0x3b2015bc	0.0024427017
104	0xb9a5ea96	-0.00031646033
105	0x39f06dba	0.0004585812
106	0xb957209a	-0.00020516143
107	0xbae9d7e0	-0.0017840825
108	0xba1f05d8	-0.00060662394
109	0xbb1b70e0	-0.0023718402
110	0xba29b5fe	-0.00064739573
111	0x3adaa21e	0.0016680395
112	0xba4576b2	-0.00075326406
113	0xbadf2f13	-0.0017027579
114	0xba3bb910	-0.00071610603
115	0x3aa5b46f	0.0012642274
116	0x3b7cdbff	0.0038583276
117	0x3b939d38	0.004504826
118	0x3ba8eb90	0.0051550344
119	0xbb945d3e	-0.004527717
120	0xbb034401	-0.0020029547
121	0xbb600751	-0.0034184048
122	0xba82516a	-0.0009942476
123	0x3b3752b6	0.0027972884
124	0x3b167c66	0.002296233
125	0x3b19e742	0.0023483788
126	0x3b25ee91	0.0025319199
127	0xbb1aab22	-0.0023600538
128	0xbb0c6a63	-0.0021425716
129	0xbb42bed8	-0.0029715803
130	0xbb15c4da	-0.0022852928
131	0x3b4a654b	0.003088313
132	0x3b18d7b6	0.0023321933
133	0x3b5cb773	0.003367868
134	0x3b23b34e	0.00249787
135	0xbb94d50b	-0.0045419983
136	0xbacb82b5	-0.0015526625
137	0xbb18842f	-0.0023272147
138	0xbacc5a93	-0.0015590958
139	0x3b2b6eb9	0.0026158525
140	0xbb13497e	-0.0022474225
141	0xbb4295ef	-0.0029691418
142	0xbb1db4f5	-0.0024064158
143	0x3b698a42	0.0035635387
144	0x3b0b93c3	0.002129779
145	0x3b3aae35	0.0028485183
146	0x3b1be4b3	0.0023787438
147	0xbb4d708d	-0.0031347603
148	0x3b1a7acb	0.0023571725
149	0x3b4fa4cc	0.003168392
150	0x3b1d659d	0.0024016865
151	0xbb5ed45a	-0.0034001083
152	0xbb09ccdb	-0.0021026644
153	0xbb43828e	-0.0029832455
154	0xbb0e6c43	-0.002173201
155	0x3b56240e	0.00326753
156	0xbaa60806	-0.0012667186
157	0xbae5696d	-0.0017502733
158	0xba939337	-0.0011259083
159	0x3ad2a42d	0.0016070657
160	0xbb028a43	-0.0019918836
161	0xbb3fad1c	-0.0029247468
162	0xbb01231b	-0.0019704762
163	0x3b5d0935	0.0033727412
164	0x3acfcef3	0.0015854522
165	0x3b073a4a	0.0020634108
166	0x3ada6ef1	0.0016665143
167	0xbb0bb330	-0.002131652
168	0x3b02d849	0.0019965342
169	0x3b2e33e5	0.0026581225
170	0x3b09e125	0.0021038738
171	0xbb3c6060	-0.0028743967
172	0xbb22d1a6	-0.0024844198
173	0xbb76946f	-0.0037625094
174	0xbb209843	-0.0024504818
175	0x3b97ea30	0.0046360716
176	0x3ad01089	0.0015874068
177	0x3b06dea6	0.0020579486
178	0x3ad83748	0.0016495967
179	0xbb0de879	-0.0021653457
180	0xbb2124d9	-0.0024588613
181	0xbb65b7b8	-0.0035052132
182	0xbb27acf7	-0.0025585273
183	0x3b794a81	0.0038038793
184	0x3a53f0fa	0.00080849195
185	0x3a7e787f	0.00097072864
186	0x3a39e6f1	0.0007091603
187	0xba16c063	-0.0005750714
188	0xbb0074df	-0.001960091
189	0xbb332644	-0.002733604
190	0xbb01a473	-0.0019781857
191	0x3b3cbc54	0.0028798776
192	0xbb0efcfe	-0.0021818276
193	0xbb30ec92	-0.0026996476
194	0xbb31cfbc	-0.0027131876
195	0x3b5dd7b7	0.00338505
196	0xbb05a572	-0.0020392803
197	0xbb341cb9	-0.002748294
198	0xbb099fd5	-0.0020999808
199	0x3b3b834e	0.00286122
200	0x3ac75c5b	0.0015210019
201	0x3b22980c	0.0024809865
202	0x3a9e4e26	0.0012077733
203	0xbb59e1ba	-0.0033246116
204	0xbb3f28e1	-0.0029168653
205	0xbb8d0035	-0.004303003
206	0xbb46daa8	-0.0030342732
207	0x3b995b29	0.0046800566
208	0x3ae13b58	0.0017183824
209	0x3b18d5cf	0.00233208
210	0x3aedadb5	0.0018133434
211	0xbb255017	-0.002522474
212	0x3ab5c9aa	0.0013869305
213	0x3b0436f8	0.0020174365
214	0x3ac3cd22	0.0014938454
215	0xbb24e916	-0.0025163344
216	0x3aca13f8	0.0015417328
217	0x3a5e34fd	0.0008476524
218	0x3b008ad0	0.0019613989
219	0xb97e02ab	-0.00024224322
220	0xbb04d0f7	-0.0020266154
221	0xbb438db7	-0.0029839107
222	0xbb058855	-0.002037545
223	0x3b676550	0.003530819
224	0xbada7db7	-0.0016669546
225	0xbb22bc8d	-0.0024831623
226	0xbad95c28	-0.0016583251
227	0x3b597319	0.0033180176
228	0x3a974a1e	0.0011542474
229	0x3ae62814	0.0017559552
230	0x3a8f6985	0.0010941481
231	0xbacff857	-0.0015866858
232	0xbaf5be1a	-0.0018748671
233	0xbb298e04	-0.0025872001
234	0xbaf8d0a7	-0.0018983082
235	0x3b30bec6	0.0026969179
236	0xbb0efbc2	-0.002181754
237	0xbb42917b	-0.0029688764
238	0xbb0dd892	-0.0021643979
239	0x3b447499	0.0029976724
240	0xb99c4c4f	-0.00029811493
241	0xb922cc2f	-0.00015525588
242	0xb908e7dd	-0.00013056347
243	0xba39957c	-0.0007079465
244	0xbadc364a	-0.0016800847
245	0xbb0a01db	-0.0021058235
246	0xbadfa31c	-0.001706216
247	0x3ae81cf0	0.0017708819
248	0xbae4f961	-0.001746934
249	0xbb166fd2	-0.0022954834
250	0xbae98c34	-0.0017818273
251	0x3b0f0f0a	0.0021829032
252	0xbb04e9a8	-0.0020280872
253	0xbb13f463	-0.0022576086
254	0xbb14c030	-0.002269756
255	0x3b018df4	0.0019768449

base_model.model.bert.encoder.layer.0.attention.self.value.lora_A.weight f4 [4, 384]
0	0x38557735	5.0894178e-05
1	0x3d534b8b	0.051585715
2	0xbd077913	-0.03307445
3	0x3d2b06f7	0.04175469
4	0xbc462ce8	-0.012095667
5	0x3bb8ef53	0.005643764
6	0xbc49ad9a	-0.012309456
7	0xbc641011	-0.013919846
8	0xbcf59525	-0.029978344
9	0x3c174343	0.009232345
10	0xbc6db240	-0.01450783
11	0xbc9068ac	-0.017628036
12	0x3d08f9b0	0.033441246
13	0xbd1b801e	-0.03796398
14	0x3d426182	0.047456272
15	0xbc7e242a	-0.015511552
16	0x3d301bbe	0.042995207
17	0xbc100608	-0.0087905
18	0x3bab2ade	0.005223616
19	0x3d1583a2	0.036502488
20	0xbc983ff8	-0.01858519
21	0xbc5454d4	-0.012959678
22	0x3c596b2f	0.0132701835
23	0x3b5232bc	0.0032073697
24	0x3ce6e1ec	0.0281839
25	0xbd2fd6fb	-0.04292963
26	0x3d32bd69	0.043637667
27	0xbcd596f8	-0.026072964
28	0xbbb222f0	-0.005436294
29	0xbc9bf276	-0.019036513
30	0x3b5c8330	0.003364753
31	0xbcb6042a	-0.022218782
32	0xbd2de07a	-0.042450406
33	0xbcaad72b	-0.020854553
34	0xbd01987b	-0.031639557
35	0x3bb51960	0.0055267066
36	0xbd02e7f9	-0.031959508
37	0x3d2b9489	0.0418897
38	0x3d5215f5	0.05129047
39	0xbd4854c1	-0.048908953
40	0x3d36c6d8	0.044623226
41	0xbc9304f8	-0.017946705
42	0xbcdc648e	-0.026903417
43	0x3c4e96ca	0.012609193
44	0x3cfc28b8	0.030781135
45	0x3d209913	0.039208483
46	0x3cbd238a	0.023088235
47	0x3d0a47f2	0.03376002
48	0xbc0c70ae	-0.008571787
49	0xbd718b18	-0.05897054
50	0xbc6893d2	-0.014195399
51	0x3ac0f63b	0.001472182
52	0x3ccf7188	0.02532269
53	0xbd58a963	-0.052895915
54	0x3d1b81b1	0.03796548
55	0x3c2b3ed5	0.010451992
56	0x3d0563bc	0.032565817
57	0xbb7c5ebf	-0.0038508622
58	0x3cf255a2	0.029581849
59	0xbd01e9c7	-0.031717088
60	0xbcced852	-0.025249634
61	0x3d3c0bb2	0.04590959
62	0xbce480fc	-0.027893536
63	0x3cb5d479	0.022196041
64	0xbcce8580	-0.025210142
65	0xbd194b3d	-0.03742527
66	0x3d5c329e	0.05375921
67	0xbc811565	-0.015757272
68	0xbbb6422f	-0.005562089
69	0xbcad6243	-0.021165019
70	0x3d6238f3	0.055230092
71	0x3b9b1ec1	0.0047338908
72	0x3d344840	0.044014215
73	0x3d2aae3c	0.04167007
74	0x3c1b2618	0.0094695315
75	0x3d269e9e	0.040678613
76	0x3c4e9e13	0.01261093
77	0xbd3a1c44	-0.045437112
78	0xbceb1169	-0.028694825
79	0xbba07694	-0.004896948
80	0xbd23a385	-0.039950866
81	0x3cee7414	0.029108085
82	0xbc1a23c3	-0.00940794
83	0x3c302b6f	0.010752543
84	0xbc50e732	-0.012750434
85	0x3cb5b171	0.022179337
86	0xbcae7417	-0.02129559
87	0xbd5d6129	-0.054047737
88	0x3cb5cb23	0.02219159
89	0xbc569dbb	-0.013099129
90	0x3cf75e02	0.030196194
91	0x3d2bbfff	0.04193115
92	0x3bbd386a	0.0057745473
93	0xbcb83b81	-0.022489311
94	0xbb65f86f	-0.0035090705
95	0xbc829959	-0.015942262
96	0xbade42a1	-0.0016957113
97	0x3d31ad8f	0.04337841
98	0x3d39f9ce	0.045404248
99	0xba9061ea	-0.0011015509
100	0x3d6a88ae	0.057259254
101	0x3c4d1d62	0.012519212
102	0x3cf7d405	0.030252466
103	0xbd283e2c	-0.041074917
104	0xba688d3a	-0.0008871142
105	0xbbaebccd	-0.0053325654
106	0xbd4ced26	-0.05003085
107	0x3d190a9a	0.037363626
108	0xbd3eae08	-0.046552688
109	0xbd3c6f16	-0.046004377
110	0xbce4b054	-0.027916111
111	0x3cf44d40	0.029821992
112	0xbccd72ec	-0.025079213
113	0xbcb5e3e0	-0.022203386
114	0x3cb1d946	0.02171005
115	0xbb52ef59	-0.003218612
116	0x3d0373a3	0.0320927
117	0xbcfa21cb	-0.030533692
118	0x3ca9db97	0.020734591
119	0x3d464eeb	0.048415106
120	0x399e8753	0.00030236933
121	0xbd2c351b	-0.042042833
122	0x3bf816eb	0.0075710914
123	0xbc1cad2e	-0.009562774
124	0xbc06a521	-0.008218081
125	0xbd339c5e	-0.043850295
126	0xb8eb1eec	-0.00011211433
127	0xbd3fff2d	-0.046874214
128	0xbc310617	-0.010804675
129	0x3b182aaa	0.002321879
130	0x3ccd76a8	0.025080994
131	0x3d27d06a	0.040970244
132	0xbc1ceabb	-0.0095774485
133	0xbb963104	-0.00458348
134	0xbd6c1100	-0.0576334
135	0xbbe667e4	-0.0070314277
136	0x3c10c9ca	0.008837173
137	0x3cc6a577	0.024248822
138	0xbd398c0c	-0.045299575
139	0xbcaeece4	-0.021353193
140	0xbc96250c	-0.018328212
141	0x3cc3d3a9	0.023904638
142	0xbd25d813	-0.040489268
143	0xbb51318d	-0.0031920404
144	0xbd13a6cb	-0.036047738
145	0x3cb977d1	0.02264014
146	0x3c936924	0.01799447
147	0x3bae9dfb	0.0053288913
148	0x3ca5d110	0.02024129
149	0xbd02f697	-0.031973448
150	0xbc4aab07	-0.012369878
151	0xbc9a8d97	-0.018866343
152	0x3b44e217	0.0030041987
153	0x3cc75f8e	0.024337556
154	0x3d3a6899	0.04550991
155	0xbd06c597	-0.03290328
156	0x3d23dcf8	0.040005654
157	0xbce64778	-0.02811025
158	0xbce6d379	-0.02817701
159	0xbd610fb4	-0.054946616
160	0xbcf118cf	-0.029430775
161	0x3ccd970d	0.02509644
162	0x3d3acc57	0.04560503
163	0xbcddf5b6	-0.027094703
164	0xbc3a3967	-0.011366225
165	0x3d062c24	0.03275694
166	0x3d0b4c33	0.034008216
167	0xbd31892f	-0.04334372
168	0x3d1e6e81	0.038679603
169	0x3cdc9b89	0.026929634
170	0xbbb4ea1a	-0.005521071
171	0xbcf579cf	-0.02996531
172	0x3cb267ca	0.021778006
173	0x3ba3bc01	0.004996777
174	0xbba4b25e	-0.005026146
175	0x3c92210d	0.017838025
176	0x3cfabda0	0.030607998
177	0xbca22811	-0.019794496
178	0xbd48bdb3	-0.049009036
179	0xbcb42274	-0.021989085
180	0x3cadbf04	0.021209247
181	0xbc831225	-0.015999863
182	0x3cf521ba	0.029923309
183	0x3d1181f5	0.035524327
184	0x3d095816	0.03353127
185	0xbd0fd155	-0.035111744
186	0xbd716e6a	-0.05894319
187	0x3d1c90bf	0.038223978
188	0xbd26a322	-0.04068292
189	0xbcadd4d5	-0.02121965
190	0x3d55c409	0.052188907
191	0xbcb2d849	-0.021831648
192	0x3d279a9c	0.04091893
193	0x3d287663	0.041128527
194	0xbc076e51	-0.008266048
195	0xbcfa5b9c	-0.03056126
196	0x3c2a6c7a	0.010401839
197	0x3d398fdc	0.04530321
198	0x3d37a621	0.044836167
199	0x3c429f2a	0.011878768
200	0xbc387b2b	-0.011259834
201	0xbd30de76	-0.043180905
202	0xbcabf67c	-0.020991556
203	0x3cc6d1cc	0.02426996
204	0xbc7dde8e	-0.015494956
205	0xbcebda35	-0.028790573
206	0x3d57352a	0.052540936
207	0xbd52a9ed	-0.051431585
208	0xbc596043	-0.0132675795
209	0xbc9e8550	-0.019350678
210	0xbccf682d	-0.02531823
211	0x3d08b036	0.033371173
212	0x3d2fb55b	0.042897563
213	0xbd32f8b1	-0.0436942
214	0xbc081b00	-0.008307219
215	0xbcd66d72	-0.026175234
216	0x3c1d45bd	0.009599146
217	0x3b8acd31	0.0042358865
218	0xbd3a96eb	-0.045554083
219	0xbc3df935	-0.01159506
220	0xbce7050f	-0.028200654
221	0x3c84bdf5	0.01620386
222	0xbc8c8ab5	-0.017155984
223	0x3c177586	0.009244328
224	0x3c8cadb9	0.017172681
225	0xbc844ff2	-0.016151402
226	0x3d1f4746	0.03888633
227	0x3b50da79	0.00318685
228	0xbd1ad2fa	-0.03779886
229	0x3d49ff4b	0.049315732
230	0xb8a162ce	-7.695482e-05
231	0xbc19a0a8	-0.009376682
232	0x3d5039f1	0.050836507
233	0xbce6126d	-0.028084958
234	0xbcee1e28	-0.029067114
235	0x3c953cc8	0.01821746
236	0x3d5263ea	0.051364817
237	0x3cda6404	0.02665902
238	0xbd0567d5	-0.032569725
239	0x3d40cd83	0.04707099
240	0x3c2ba90a	0.010477314
241	0x3c651996	0.013983151
242	0xbbbfd8f5	-0.0058547207
243	0xbc2e09fb	-0.010622497
244	0x3d00e05f	0.031463977
245	0xbbf03223	-0.0073301955
246	0x3c03c726	0.008043086
247	0xbce76be4	-0.028249688
248	0x3d30b95d	0.043145526
249	0xbcaa65a2	-0.020800415
250	0xbc64f6da	-0.01397487
251	0xbc0af2ff	-0.008480786
252	0xbd0c9051	-0.03431732
253	0xbc44c80b	-0.012010585
254	0x3cd5e710	0.026111156
255	0x3ceacf40	0.028663278

base_model.model.bert.encoder.layer.0.attention.self.value.lora_B.weight f4 [384, 4]
0	0xbb0d061c	-0.0021518534
1	0xba9e4964	-0.0012076315
2	0x39cc47be	0.00038963364
3	0xba78829a	-0.00094799104
4	0xb9dae1db	-0.00041748476
5	0xbb789589	-0.0037930927
6	0x3b80364d	0.003912723
7	0xbb656a37	-0.0035005936
8	0x3a5e4fb1	0.0008480503
9	0xbb3632f2	-0.0027801362
10	0x3b2bf65d	0.0026239373
11	0xbb6b4329	-0.0035898185
12	0x3a02ec3e	0.0004994309
13	0xbb1c59bf	-0.0023857204
14	0x3b2817bd	0.0025648915
15	0xbb9ed2bb	-0.0048468984
16	0x3b56b0dd	0.0032759227
17	0x3ba66220	0.0050776154
18	0xbb3eec3a	-0.0029132501
19	0x3b83aff1	0.0040187766
20	0x3bc08633	0.005875373
21	0x3af7c66e	0.0018903741
22	0xbab818eb	-0.0014045512
23	0x3acc1aec	0.0015571988
24	0x3a697003	0.00089049357
25	0x3ad2ec03	0.0016092065
26	0xbaa4661e	-0.001254264
27	0x3ae9dfcc	0.0017843186
28	0x3b103679	0.0022005124
29	0x3b26c163	0.0025444857
30	0xbb2782d1	-0.002556015
31	0x3b050325	0.0020296064
32	0xbb6a1086	-0.0035715415
33	0xbb6f2d75	-0.00364956
34	0x3b4563f9	0.0030119403
35	0xbb65ebae	-0.0035083103
36	0xbb4578c4	-0.0030131796
37	0xbb34e8e0	-0.0027604625
38	0x3a0dbbca	0.0005406706
39	0xbb2c2561	-0.0026267397
40	0xbb3bb5bc	-0.0028642258
41	0xbb4a618c	-0.0030880896
42	0x3b72aa5e	0.0037027816
43	0xbb732caf	-0.003710549
44	0xbb0782d1	-0.0020677338
45	0xb98e7edf	-0.00027178877
46	0xba2be518	-0.000655727
47	0x3a22e91c	0.00062145456
48	0xbac61013	-0.0015110992
49	0xbbb2b317	-0.005453478
50	0x3b83b7e8	0.004019726
51	0xbba3d7d3	-0.0050000935
52	0xbae40201	-0.0017395617
53	0xbb3ff9c9	-0.002929317
54	0x3b16f885	0.0023036313
55	0xbb7c8022	-0.0038528522
56	0x3ae324bb	0.0017329672
57	0x3b30f905	0.0027003896
58	0xbb61661b	-0.0034393135
59	0x3b59d255	0.003323694
60	0xb86a4ca8	-5.586134e-05
61	0x39b2f2bc	0.00034131657
62	0x395e158a	0.00021179594
63	0x39a6c97c	0.00031812105
64	0x3b4d95a6	0.0031369715
65	0x3b1b2d5c	0.002367816
66	0xbae5e884	-0.0017540609
67	0x3b16f0a5	0.002303162
68	0xba9c2fd4	-0.0011916109
69	0xba5a10e0	-0.00083185546
70	0x3ae387ec	0.0017359233
71	0xba783fb9	-0.00094699446
72	0x3b57720a	0.003287437
73	0x3ab92c8e	0.0014127658
74	0xba9a3495	-0.0011764938
75	0x3a9181c3	0.0011101294
76	0xb94c3c3a	-0.00019477392
77	0xbb479666	-0.0030454635
78	0x3b403a16	0.0029331497
79	0xbb675160	-0.0035296306
80	0x3b26b79b	0.0025439027
81	0x3ac372a9	0.0014911491
82	0xbace0337	-0.0015717511
83	0x3acebcc3	0.0015772808
84	0xbb96bada	-0.004599911
85	0xbc007937	-0.0078414
86	0x3bdb6ad6	0.0066960854
87	0xbc080d3b	-0.008303936
88	0x3b1c5dfb	0.0023859728
89	0x394bef2b	0.00019448686
90	0x3a0d4304	0.0005388709
91	0xba129ac2	-0.0005592519
92	0x3b0b1ada	0.0021225722
93	0x3bf67506	0.0075212745
94	0xbbd6b117	-0.0065518725
95	0x3c09758a	0.00838984
96	0x3b986880	0.0046511292
97	0x3bbdc3f0	0.00579118
98	0xbbb11949	-0.0054046256
99	0x3bd2460d	0.006417042
100	0xbbb23a12	-0.0054390514
101	0xbc0dc4dc	-0.008652892
102	0x3beed696	0.007288764
103	0xbc14f8fc	-0.009092566
104	0xbb38dc15	-0.002820735
105	0xbb675a44	-0.0035301605
106	0x3b551118	0.003251141
107	0xbb84aa51	-0.0040486236
108	0x3b1e6a9c	0.002417243
109	0x3996ee35	0.00028787708
110	0xb7137e67	-8.791313e-06
111	0x39a6e697	0.0003183379
112	0x384e83c7	4.9236955e-05
113	0xba225bbd	-0.00061934796
114	0x3a5f7736	0.0008524539
115	0xba389cde	-0.0007042418
116	0x3b5415e5	0.0032361683
117	0x3b8c8387	0.00428814
118	0xbb935b82	-0.0044969926
119	0x3bb0bddd	0.005393727
120	0xbaba756d	-0.001422567
121	0xbc1350dc	-0.008991446
122	0x3bf0d894	0.007350037
123	0xbc0f1f67	-0.008735514
124	0xbbd01596	-0.0063502295
125	0xbbaa56d1	-0.0051983376
126	0x3b89b42a	0.0042023854
127	0xbba75898	-0.0051069967
128	0x3b4f6a19	0.0031648932
129	0x3b8d4bfb	0.004312036
130	0xbb7bada1	-0.0038403051
131	0x3b9fcf8c	0.0048770364
132	0xbba81bd6	-0.0051302714
133	0xbc027206	-0.007961756
134	0x3bf66b28	0.0075200982
135	0xbc0ef3bd	-0.008725104
136	0xbbaedf2d	-0.005336663
137	0xbbdc7f79	-0.006729063
138	0x3bcd440e	0.0062642163
139	0xbbea7476	-0.0071549965
140	0xbb13af92	-0.0022535068
141	0xbb6363d2	-0.0034696949
142	0x3b43b43f	0.0029862074
143	0xbb5f919a	-0.0034113885
144	0xbb22946b	-0.0024807702
145	0xbb00aeff	-0.0019635556
146	0x3ae5777c	0.0017506923
147	0xbafea136	-0.0019426707
148	0xbb9ad0e0	-0.004724607
149	0xbb9c8f66	-0.0047778366
150	0x3b8d5687	0.0043132934
151	0xbba3d598	-0.0049998276
152	0xbabf71e7	-0.0014606089
153	0xbb3c1b83	-0.0028702922
154	0x3b90006a	0.0043945806
155	0xbb926159	-0.004467171
156	0x3b001efd	0.001954972
157	0x3b104a19	0.0022016822
158	0xbb092b3b	-0.0020930308
159	0x3b22157c	0.0024732044
160	0x39b35f00	0.0003421232
161	0x3a7d6528	0.00096662575
162	0xba9f5dcd	-0.0012158692
163	0x3a9e8d90	0.0012096632
164	0x3c05efc4	0.00817484
165	0x3bfe26f9	0.0077561107
166	0xbbc5aa22	-0.0060322443
167	0x3c041487	0.008061535
168	0x3c0ed2bd	0.008717236
169	0x3c0eb8b9	0.0087110335
170	0xbbf350e6	-0.0074254153
171	0x3c1a3a31	0.009413288
172	0xba038230	-0.0005016653
173	0xb9b08d36	-0.00033674546
174	0x386097a0	5.3546974e-05
175	0xba0ef013	-0.0005452644
176	0x3aef1f42	0.0018243568
177	0x3b26d101	0.0025454166
178	0xbb1fc2de	-0.0024377625
179	0x3b48a922	0.003061839
180	0x3ad5baa1	0.001630623
181	0x3b44e2d4	0.0030042427
182	0xbb2fc56e	-0.0026820558
183	0x3b5ecaed	0.0033995465
184	0x3a5a9c65	0.00083393446
185	0x3ac80363	0.0015259798
186	0xba94eb7b	-0.0011361683
187	0x3ada0e62	0.0016636366
188	0x3c02e663	0.007989499
189	0x3c04fe47	0.008117265
190	0xbbdfc206	-0.0068285493
191	0x3c0a098e	0.00842513
192	0x3ae8fd2c	0.0017775646
193	0x3b37007d	0.0027923875
194	0xbb2af4ba	-0.002608581
195	0x3b377e72	0.0027998951
196	0xbb3c1023	-0.0028696142
197	0xbb9ec58c	-0.0048453268
198	0x3b9b8a69	0.0047467244
199	0xbbbdf0c7	-0.005796525
200	0x3b2f82ce	0.0026780847
201	0x3b82c567	0.0039908173
202	0xbb740b29	-0.0037238097
203	0x3b99213c	0.0046731513
204	0xbb403256	-0.0029326878
205	0xbb757587	-0.0037454085
206	0x3b750e37	0.0037392506
207	0xbb90cdb9	-0.0044190553
208	0xba7e6fc1	-0.00097059837
209	0xba7b9cf7	-0.000959828
210	0x3a3296f2	0.0006812654
211	0xba77a16c	-0.0009446356
212	0xbb4acec0	-0.0030945987
213	0xbbce067a	-0.006287393
214	0x3bc05fb3	0.0058707832
215	0xbbf3d617	-0.007441293
216	0x3b8a6cb9	0.0042243865
217	0x3b933a4e	0.0044930344
218	0xbb84810b	-0.0040437034
219	0x3b994e96	0.0046785576
220	0xbb6b90fa	-0.0035944567
221	0xbb9ff59b	-0.0048815734
222	0x3b975c45	0.0046191537
223	0xbbb71f04	-0.005588414
224	0x3a122f76	0.000557653
225	0x3adc86ca	0.0016824838
226	0xbae87795	-0.0017735834
227	0x3b04fcfd	0.0020292394
228	0x39d49b45	0.00040551476
229	0x3a382aa7	0.00070253987
230	0xb9e3d62b	-0.00043456382
231	0x3a52304e	0.0008018062
232	0x3a228758	0.00061999774
233	0x3acacc91	0.0015472342
234	0xbae84b2f	-0.0017722602
235	0x3b066ce5	0.0020511684
236	0xbb879b78	-0.0041384064
237	0xbb8a9fce	-0.004230476
238	0x3b7b7e33	0.003837478
239	0xbb913072	-0.004430824
240	0xba90d3ed	-0.0011049487
241	0xbae33a33	-0.001733607
242	0x3aed1491	0.0018087794
243	0xbb04ae54	-0.002024551
244	0x38ac24b7	8.208438e-05
245	0x3abb99e4	0.0014312831
246	0xbaa4c665	-0.0012571333
247	0x3af1b864	0.0018441794
248	0xba4a632e	-0.00077204674
249	0xbb1a1980	-0.0023513734
250	0x3b034fa0	0.0020036474
251	0xbb22eeb6	-0.002486152
252	0xbb626149	-0.003454285
253	0xbba6550d	-0.005076057
254	0x3b98f883	0.004668297
255	0xbbba8384	-0.0056919474

base_model.model.bert.encoder.layer.1.attention.self.query.lora_A.weight f4 [4, 384]
0	0x3cdbab7b	0.026815167
1	0x3985effd	0.00025546542
2	0x3d439810	0.04775244
3	0xbd01d14b	-0.031693738
4	0x3d22152f	0.039570983
5	0x3d413770	0.04717201
6	0x3d026116	0.03183087
7	0xbd418cde	-0.047253482
8	0x3d26f4d0	0.040760815
9	0xbcb528bc	-0.02211415
10	0x3c1ded65	0.009639119
11	0xbd3e3c6b	-0.046444338
12	0x3cbaf627	0.022822453
13	0xbc60b199	-0.013714218
14	0xbc988e71	-0.018622609
15	0xbc9052b0	-0.017617553
16	0xbc504e21	-0.01271394
17	0xbca461c5	-0.020066151
18	0xbc52c0f3	-0.0128633855
19	0xbcf1715a	-0.029472996
20	0xbd449a68	-0.047998816
21	0xbd19ffce	-0.03759747
22	0xbcc1c47b	-0.02365326
23	0xbcc09c82	-0.023512129
24	0x3bb10496	0.005402158
25	0xbca15ab6	-0.019696575
26	0xbbdb6f07	-0.006696585
27	0xbd1faed5	-0.038985092
28	0xbc89274a	-0.016742367
29	0xbd42f0b0	-0.04759282
30	0xbc63867f	-0.013887047
31	0xbcb71b89	-0.022351997
32	0x3933664e	0.00017108882
33	0x3d05616e	0.03256362
34	0x3d104ee3	0.035231482
35	0x3d16784f	0.03673583
36	0x3d44d0bd	0.04805063
37	0xbd3fbae6	-0.0468091
38	0xbc4a5312	-0.012348907
39	0x3d3ae0d8	0.045624584
40	0xbd00d0b6	-0.031449042
41	0x3c226267	0.009911156
42	0x3c8bd4e2	0.017069284
43	0xbc55cc73	-0.013049233
44	0x3d3d4d6b	0.04621641
45	0x392c0cd1	0.00016407973
46	0x3cac2166	0.02101202
47	0xbd235048	-0.039871484
48	0x3c675630	0.01411967
49	0x3c9a0e7f	0.01880574
50	0x3c4c709c	0.01247802
51	0xbc1cc545	-0.009568517
52	0x3c147ff2	0.009063708
53	0xbbb700e8	-0.005584825
54	0xbcfd7d18	-0.030943438
55	0x3c647718	0.01394441
56	0x3cac1b6c	0.02100917
57	0x3bafb8c2	0.005362601
58	0x3d29f2c3	0.04149128
59	0xbd338f2b	-0.043837707
60	0x3ca86732	0.02055702
61	0x3c4b17fa	0.012395853
62	0xbcf83724	-0.03029973
63	0xbd439fab	-0.047759693
64	0x3d5730d5	0.052536804
65	0x3d005302	0.031329162
66	0xba84e98e	-0.0010140406
67	0xbd0d3dd0	-0.034482777
68	0xbd2f3546	-0.042775415
69	0xbd0a7220	-0.033800244
70	0xbd3a0e7d	-0.045423973
71	0xbc9d05ef	-0.019167868
72	0xbc63d2da	-0.013905251
73	0x3cfdd4eb	0.030985316
74	0xbd32532a	-0.043536343
75	0x3d44a3db	0.048007827
76	0xb8a1b273	-7.710317e-05
77	0x3c549d2d	0.012976927
78	0x3b5924f7	0.0033133605
79	0xbca64e91	-0.020301135
80	0xbd26429a	-0.04059086
81	0x3cd4ae7f	0.025962112
82	0xbd523459	-0.051319454
83	0xbd03c177	-0.032166924
84	0x3d085da0	0.033292413
85	0xbc6a18a3	-0.0142881
86	0x3cc37c5c	0.02386301
87	0xbc6f52c9	-0.01460714
88	0x3bf086ca	0.007340287
89	0xbbd80639	-0.0065925387
90	0xbcc28037	-0.023742778
91	0x3c0930ed	0.008373481
92	0xbb990ca6	-0.0046706973
93	0x3cd6ebf3	0.026235556
94	0xbd20b75e	-0.039237373
95	0x3ca07d71	0.019591065
96	0x3b3db8b4	0.0028949203
97	0x3d1b295a	0.037881233
98	0xbc92a22f	-0.0178996
99	0x3d08acf8	0.03336808
100	0xbcf9b38a	-0.030481119
101	0xbcb59b5d	-0.02216881
102	0x3c163d43	0.009169879
103	0x3d4f20af	0.05056828
104	0xbcd187f1	-0.025577517
105	0x3c9af1c7	0.018914117
106	0x3cf6407b	0.030060044
107	0xbcc363bb	-0.023851266
108	0x3c84f633	0.016230678
109	0x3d5537d9	0.052055214
110	0x3cfcf767	0.03087969
111	0x3d4881c8	0.048951894
112	0x3cdb56b8	0.02677475
113	0x3cb36033	0.021896457
114	0xbca01c95	-0.019544879
115	0x3ca9ac41	0.02071202
116	0xbd3ec2e3	-0.046572577
117	0xbd38acdc	-0.045086727
118	0xbd3046b9	-0.043036196
119	0xbcb67acc	-0.022275351
120	0x3c35c60d	0.011094582
121	0x3bebda08	0.007197622
122	0x3c9e93d5	0.019357601
123	0xbd3acbf8	-0.045604676
124	0x3d2d7ced	0.042355467
125	0x3c106a5d	0.0088144215
126	0xbd0f4ed0	-0.03498727
127	0xbd1c7317	-0.038195696
128	0x3ce57533	0.028009987
129	0xbc60ad1a	-0.013713146
130	0xbcc775d8	-0.024348184
131	0xbd5a5442	-0.05330301
132	0x3b657c30	0.0035016648
133	0xbd399c54	-0.0453151
134	0x3d537ca2	0.05163253
135	0xbd2c12e9	-0.04201022
136	0x3c98f4d3	0.018671429
137	0x3d2c3297	0.042040434
138	0xbd07a2e1	-0.033114318
139	0x3c2677f6	0.010160437
140	0x3cd4c811	0.025974305
141	0xbd1b74a2	-0.037953027
142	0xbb6227ce	-0.0034508589
143	0xbc2fc162	-0.010727258
144	0xbd618db3	-0.055066776
145	0x3d1d3dec	0.03838913
146	0x3c123c2b	0.008925478
147	0xbc453f29	-0.012038984
148	0x3d0e408e	0.034729533
149	0x3c06d5da	0.008229697
150	0xba58a356	-0.0008264085
151	0x3d121880	0.035667896
152	0x3bcdead4	0.006284097
153	0xbba81c7b	-0.0051303483
154	0x3c1bed4e	0.009517027
155	0x3cdb6483	0.026781326
156	0x3d3b4c0a	0.045726813
157	0x3d3b72b7	0.045763697
158	0x3d18c4e0	0.03729713
159	0x3d2de1df	0.042451736
160	0xbcff2d27	-0.03114946
161	0x3b415539	0.002950026
162	0xbd588eee	-0.052870683
163	0x3d12489e	0.035713784
164	0x3cd8aeff	0.026450632
165	0xbc3c6f8c	-0.011501204
166	0xbd559ada	-0.05214963
167	0xbceaafef	-0.028648345
168	0x3caba5ec	0.020953141
169	0x3c66e555	0.014092763
170	0xbc1c24ee	-0.009530289
171	0xbc3bf09f	-0.011470943
172	0x3b808cf9	0.0039230553
173	0xbd387134	-0.045029834
174	0x3d63bbdc	0.05559908
175	0xbd19611a	-0.03744612
176	0xbc495ff0	-0.01229094
177	0x3d0c7227	0.03428855
178	0xbd2481dc	-0.040162906
179	0xbd10f59d	-0.035390485
180	0xbd396d1b	-0.045270067
181	0xbc398570	-0.011323318
182	0x3d2b5bb3	0.041835498
183	0x3cc4fdce	0.024046805
184	0xbaa439a4	-0.0012529385
185	0x3d148505	0.03625967
186	0x3bfcb451	0.007711925
187	0x3d488f5a	0.048964836
188	0xbd460611	-0.04834563
189	0x3c0f5a42	0.0087495465
190	0xbc89245a	-0.016740967
191	0xbd0e12b8	-0.03468582
192	0xbd436df0	-0.047712266
193	0xbd02b068	-0.031906515
194	0x3d44170b	0.047873538
195	0xbc6c3ed4	-0.014419276
196	0xbabe5643	-0.0014521558
197	0xbd0f7037	-0.035019126
198	0x3d5a9108	0.05336097
199	0xbc29fdda	-0.010375464
200	0x3bbab5a9	0.005697925
201	0xbbde56d4	-0.006785253
202	0xbcfc2a25	-0.030781815
203	0xbd10b943	-0.03533293
204	0x3cf6d7c1	0.030132176
205	0xbd2cf206	-0.042223
206	0x3b80cc9c	0.0039306413
207	0x3c394ba2	0.011309536
208	0x3c326cd9	0.010890209
209	0xbd1a371f	-0.037650224
210	0xbd15297b	-0.036416512
211	0x3ce099a5	0.027417013
212	0xbc2028a6	-0.009775316
213	0x3d178a1c	0.036996946
214	0xbc78883e	-0.015169201
215	0x3c814a9c	0.015782647
216	0xbcac686b	-0.021045884
217	0xbc0ad6ef	-0.008474096
218	0xbc3b5063	-0.01143274
219	0x3cc435be	0.023951408
220	0xbc8c2685	-0.017108211
221	0x3d219c50	0.03945571
222	0xbd193e22	-0.03741277
223	0xbce8f53c	-0.02843725
224	0x3d05a1c9	0.032624993
225	0x3c788913	0.0151694
226	0x3d43b6f3	0.047781896
227	0x3c259ad8	0.010107718
228	0xbc7b7f78	-0.015350215
229	0xbcab2f1a	-0.020896483
230	0xbd39c7cc	-0.045356557
231	0x3cdeebf3	0.027212119
232	0x3d17f4b4	0.0370986
233	0xbd1bad2a	-0.03800694
234	0x3d2f89dc	0.042856082
235	0x3c0096f9	0.007848495
236	0xbc8e36dd	-0.017360145
237	0x3afdea36	0.0019372168
238	0x3d15ce7f	0.036573883
239	0x3d3efd90	0.046628535
240	0x3d3f9a10	0.046777785
241	0x3d68484c	0.056709573
242	0xbd09a6f3	-0.03360648
243	0x3cb4300a	0.021995563
244	0x395ce607	0.00021066527
245	0xbc03f72b	-0.008054535
246	0xbd0faad8	-0.03507504
247	0xbc5f02b5	-0.013611485
248	0xbd2323ce	-0.039829068
249	0xbcb27d03	-0.021788126
250	0x3d16f790	0.036857188
251	0x3caaf6a7	0.020869566
252	0x3c9d15e1	0.019175472
253	0xbcdfbde1	-0.027312221
254	0xbd13b984	-0.036065593
255	0xbc8ca649	-0.017169135

base_model.model.bert.encoder.layer.1.attention.self.query.lora_B.weight f4 [384, 4]
0	0x3aa1b98d	0.0012338624
1	0xbb6ca88f	-0.003611121
2	0x3b772cda	0.0037715943
3	0x3ae67710	0.0017583091
4	0x3a703814	0.000916363
5	0xbaaf7963	-0.0013387616
6	0x3aad0666	0.001320076
7	0x3aef1de1	0.0018243158
8	0x3a556cad	0.0008141499
9	0x3a7d18a4	0.0009654856
10	0xbabebd14	-0.0014552199
11	0xbb1c0354	-0.0023805695
12	0x38eb4536	0.00011218565
13	0xbb7f8e14	-0.0038994597
14	0x3ac939ab	0.0015352269
15	0x3b028770	0.0019917153
16	0x3aa45e0c	0.0012540235
17	0xbb296353	-0.0025846555
18	0x3b09e804	0.0021042833
19	0x39b03217	0.00033606656
20	0x39d503af	0.0004062927
21	0xbb94c397	-0.0045399177
22	0x3ad6c537	0.0016385679
23	0x3b1e80ec	0.002418573
24	0xb9c27847	-0.00037092177
25	0xbb438354	-0.0029832916
26	0x3ac5a820	0.0015080012
27	0x3b1d1d7e	0.0023973878
28	0x386605db	5.4841727e-05
29	0xbb640628	-0.0034793708
30	0x3b39c18b	0.002834412
31	0x3b02357f	0.0019868312
32	0x39b0509c	0.00033629395
33	0xb8e789cc	-0.00011040605
34	0xba31354a	-0.0006759955
35	0xba94c15f	-0.0011349133
36	0x3ac83815	0.0015275503
37	0x38938939	7.035066e-05
38	0xb6e1cec6	-6.729594e-06
39	0xbb683f31	-0.0035438056
40	0x3a6f77bc	0.0009134968
41	0x3a2c6e10	0.000657768
42	0x3938cf9e	0.00017624951
43	0xbb33e0e3	-0.0027447275
44	0xbab33cc2	-0.0013674723
45	0x3b024b77	0.0019881406
46	0xbaf62d20	-0.0018781759
47	0xbaca3fe5	-0.0015430419
48	0xbac30274	-0.001487805
49	0xba278d25	-0.00063915766
50	0x3abc3ae2	0.001436081
51	0x3b63af5d	0.0034741976
52	0xbb4a3d6e	-0.003085937
53	0x3b0e3f36	0.0021705157
54	0xbb0dce2a	-0.0021637776
55	0xbadcc1ba	-0.0016842403
56	0xba394953	-0.0007068116
57	0xbb01fb6b	-0.0019833695
58	0x3991c577	0.00027803678
59	0x3b2d53a4	0.0026447559
60	0xbaf58dad	-0.0018734239
61	0x361777bc	2.2570448e-06
62	0x39d9c273	0.0004153434
63	0x3b120485	0.0022280526
64	0x3b0f4e3b	0.0021866697
65	0x3a9864e1	0.0011626744
66	0xbab11b74	-0.001351221
67	0xbb30719f	-0.0026923192
68	0xba916c48	-0.0011094892
69	0xbae0eea7	-0.0017160968
70	0x3ad0e6af	0.001593789
71	0x3b182463	0.0023215048
72	0x3746f5b5	1.1858928e-05
73	0x3905ce84	0.00012760801
74	0xba597750	-0.0008295672
75	0x3af7c341	0.0018902795
76	0xbb01c686	-0.0019802167
77	0x3a703ca2	0.00091643084
78	0xbac05f10	-0.0014676768
79	0x3b347e59	0.002754113
80	0x3ab49fc2	0.0013780522
81	0xbb6fbe68	-0.0036581997
82	0x3b52cb88	0.003216477
83	0x3ac80046	0.001525887
84	0xbb807b38	-0.003920939
85	0x3b22891d	0.0024800964
86	0xbb1db29a	-0.0024062754
87	0x3b26abbb	0.002543195
88	0x3a425b83	0.0007414149
89	0xbad49b74	-0.0016220645
90	0x3a5bf312	0.00083904073
91	0xb98580b2	-0.00025463622
92	0x3b3a47f8	0.0028424244
93	0x3acb2833	0.0015499651
94	0xbadc05e9	-0.0016786429
95	0xbb2880b8	-0.0025711488
96	0x3afb2a3d	0.0019162368
97	0x3ae181cd	0.0017204821
98	0xbaaf4a05	-0.00133735
99	0xbb27fb89	-0.0025632104
100	0x3890f923	6.9128604e-05
101	0x3b473eb2	0.003040236
102	0xbb29f1f0	-0.002593156
103	0xbb1ec23d	-0.0024224662
104	0xba26c6cf	-0.0006362022
105	0xba981ca3	-0.0011605214
106	0x3aa62bee	0.0012677887
107	0x3b25216e	0.0025196928
108	0x39cf4e83	0.00039540612
109	0xbb8bea8b	-0.004269903
110	0x3b9847c3	0.0046472265
111	0x3b2d4e6d	0.002644445
112	0xb98e881a	-0.00027185754
113	0xbb391f70	-0.0028247498
114	0x3a942d45	0.0011304995
115	0x3b32cfec	0.0027284576
116	0xba1b93c9	-0.00059348025
117	0x3b690c9d	0.0035560497
118	0xbb45dc6c	-0.0030191196
119	0xbac14d0b	-0.0014747692
120	0xb8807130	-6.1245984e-05
121	0x3ad21489	0.0016027848
122	0xb7d32393	-2.5169726e-05
123	0xbab83b3e	-0.0014055741
124	0xb9f65204	-0.00046981883
125	0x3a5d4edb	0.00084422313
126	0xba9983dc	-0.0011712271
127	0xbab21acf	-0.0013588312
128	0x3b1dc5f5	0.002407429
129	0xba1e69bd	-0.0006042978
130	0x3b543d90	0.0032385327
131	0xbb1b5b06	-0.0023705377
132	0xbb4412c2	-0.0029918407
133	0x39939033	0.00028145462
134	0xbb1420bc	-0.002260252
135	0x3b19deba	0.0023478703
136	0xbaebd92f	-0.0017993803
137	0xb99e481e	-0.0003018984
138	0xba718037	-0.0009212526
139	0x3b1d3515	0.0023987938
140	0x39944cf7	0.00028286103
141	0x3b5ac8e4	0.00333839
142	0xba8af709	-0.0010602187
143	0xbb03107e	-0.0019998844
144	0xbb2c3be1	-0.0026280808
145	0x3b7b0133	0.0038300275
146	0xbaa5992c	-0.001263415
147	0x3aa9932e	0.001293754
148	0x3aa45b55	0.0012539426
149	0xbaa19a97	-0.0012329397
150	0x3b542f29	0.0032376742
151	0xba7b228c	-0.0009580038
152	0x371fddf9	9.528821e-06
153	0x3acb038a	0.0015488726
154	0xb914096a	-0.00014117887
155	0xbab38b8e	-0.0013698207
156	0x3ab2035d	0.0013581325
157	0x39d4a401	0.00040557983
158	0x3a83c753	0.001005391
159	0xbb054c8b	-0.0020339813
160	0x3aceaa80	0.0015767366
161	0xbae308a8	-0.0017321305
162	0x3b072e5c	0.0020626998
163	0xbade1f4f	-0.0016946587
164	0xbb078eac	-0.0020684404
165	0xba8421d9	-0.0010080888
166	0x39a9a225	0.00032355
167	0x3b1a9e12	0.0023592752
168	0xbb4a310a	-0.0030851983
169	0x3aad493a	0.0013220676
170	0xbb087f70	-0.0020827912
171	0x3b05be61	0.0020407664
172	0x3a1dd841	0.0006021299
173	0x399657f2	0.00028675754
174	0x39da14fe	0.0004159584
175	0xbaa06eb3	-0.0012240022
176	0x3ab5e8b6	0.0013878557
177	0x39190c6d	0.00014595846
178	0x3a637373	0.0008676566
179	0xbb03a565	-0.0020087596
180	0xbb4d7094	-0.003134762
181	0x3a98c63d	0.0011655759
182	0xbb4c69f2	-0.0031191078
183	0x3b1ae7ee	0.0023636776
184	0xbb2f4c2a	-0.0026748278
185	0x3ab04d00	0.0013450682
186	0xba92a8f1	-0.0011189264
187	0x3b05c87b	0.0020413685
188	0xbb85b54f	-0.0040804516
189	0x3ad4d0b2	0.0016236512
190	0xba76025a	-0.00093845057
191	0x3b3c5344	0.0028736154
192	0xbad8deba	-0.001654587
193	0x3a702976	0.00091614516
194	0xbb24ed64	-0.002516591
195	0x3b04fa54	0.0020290809
196	0xbada3619	-0.0016648202
197	0x392b7d15	0.00016354427
198	0xbadf1b59	-0.00170217
199	0x3b01331c	0.0019714301
200	0xbae59aae	-0.0017517412
201	0x3a96bf19	0.0011501043
202	0xbb286bf1	-0.0025699104
203	0x3afdcfa7	0.0019364253
204	0xbb21915c	-0.0024653291
205	0x3b00483c	0.0019574305
206	0xbb66dffe	-0.0035228725
207	0x3b0d1cdb	0.0021532092
208	0xbb31dd42	-0.0027139937
209	0x3a481457	0.00076324254
210	0xbb14849e	-0.0022662054
211	0x3b24181b	0.0025038782
212	0x3a69dc80	0.00089211017
213	0xbb93383e	-0.0044927886
214	0x3b104173	0.0022011667
215	0x3ac7d26b	0.0015245205
216	0xb9b85337	-0.00035157215
217	0x3a2c665b	0.00065765315
218	0xb981981b	-0.00024718125
219	0xba8c6a6d	-0.001071287
220	0x3a9dc821	0.0012037792
221	0xba899a04	-0.0010498171
222	0x3ab0ea0b	0.0013497485
223	0xbaf685b4	-0.0018808157
224	0xba92e8a5	-0.001120825
225	0xbb18e9f3	-0.0023332804
226	0x39c2688c	0.00037080457
227	0x3b1cbda0	0.0023916736
228	0xbb04204c	-0.0020160852
229	0xba2dac74	-0.0006625124
230	0xb9845665	-0.0002524137
231	0x3b07cf2d	0.0020722852
232	0x3948781f	0.00019118235
233	0xbada4682	-0.0016653093
234	0x3a90517c	0.0011010612
235	0x3ac6e687	0.0015174904
236	0xb796b433	-1.7965305e-05
237	0xbb5587a0	-0.003258206
238	0x3aa92a7c	0.0012906338
239	0x3af4a1cf	0.0018663945
240	0xbab79811	-0.0014007111
241	0x398359ec	0.00025053264
242	0xba479ec8	-0.0007614908
243	0x3aecb9c4	0.0018060734
244	0x3a8dd0d9	0.0010819688
245	0xb932b7e8	-0.00017043913
246	0x3a487aa6	0.00076476706
247	0xbadce159	-0.0016851827
248	0x3b47f33a	0.0030509965
249	0x3a3a8f64	0.0007116704
250	0xba9eeee2	-0.0012125636
251	0xbb2b3b96	-0.0026128045
252	0x3b305fcc	0.0026912568
253	0xbaad8b6f	-0.0013240407
254	0x3a9da8f3	0.00120285
255	0xbb2c042a	-0.00262476

base_model.model.bert.encoder.layer.1.attention.self.value.lora_A.weight f4 [4, 384]
0	0x3bcf8b55	0.0063337483
1	0x3d0d6f0a	0.034529723
2	0xbd0b3da5	-0.033994336
3	0x3b316db5	0.0027073447
4	0x3bc32494	0.005955288
5	0xbbdf41ac	-0.0068132486
6	0xbd3f026b	-0.046633165
7	0xbc9c104f	-0.019050745
8	0xbd348675	-0.04407354
9	0xbd0649a1	-0.03278506
10	0x3cead5e5	0.028666446
11	0xbd607524	-0.054799214
12	0xbcf8d559	-0.03037517
13	0x3cde9b01	0.027173521
14	0x3c0b2d8e	0.008494748
15	0xbb39756b	-0.0028298746
16	0x3d1804e9	0.037114058
17	0x3c45b548	0.012067147
18	0x3bd97a13	0.006636867
19	0x3d6683e1	0.056278113
20	0x3cceb4a1	0.025232615
21	0xbd2e3e14	-0.04253967
22	0x3baa6c78	0.0052009188
23	0xbd1f4223	-0.038881432
24	0xbd31274a	-0.04325036
25	0xbbead837	-0.007166888
26	0x3c3b7181	0.011440636
27	0xbd29703e	-0.041366808
28	0xbbdaa48e	-0.0066724485
29	0x3c5245ad	0.012833995
30	0xbd1783c9	-0.036990914
31	0x3d00a434	0.031406596
32	0xbd2da094	-0.042389467
33	0xbd1df7e1	-0.038566474
34	0x3c6a3408	0.014294632
35	0xbd580847	-0.05274227
36	0x3c57fa7c	0.013182279
37	0xbc494ff4	-0.012287129
38	0xbd4b1b05	-0.049586315
39	0x3d1a955f	0.037740108
40	0xbcf5af4a	-0.02999081
41	0xbd5880ed	-0.05285733
42	0x3c6133cc	0.0137452595
43	0xbd10cb57	-0.03535017
44	0xbcc5bdfb	-0.024138441
45	0xbcf7f026	-0.030265879
46	0xbcb69f80	-0.022292852
47	0x3d58f1cc	0.05296497
48	0xbce8ba34	-0.028409101
49	0xbd1855f7	-0.037191357
50	0x3c1fed58	0.009761177
51	0xbca66dfd	-0.020316118
52	0xbd2c4148	-0.042054445
53	0x3d684418	0.056705564
54	0xbcedaca6	-0.02901299
55	0x3c07abb9	0.008280688
56	0xbcd00557	-0.025393171
57	0x3d342ff4	0.043991044
58	0xbd178a46	-0.036997102
59	0xbd1df508	-0.038563758
60	0xbcf6c6c0	-0.030124068
61	0x3c03c7fa	0.008043284
62	0xbbfdc950	-0.0077449456
63	0xbbe73c63	-0.007056759
64	0xbcde5ad3	-0.027142918
65	0xbcac1c8b	-0.021009704
66	0x3d02645e	0.031834
67	0x3cd0a84a	0.025470871
68	0xbc05a337	-0.008156589
69	0x3d19029f	0.037356015
70	0x3d262acb	0.040568154
71	0x3d2d7a6e	0.042353086
72	0x3d22d08d	0.03974967
73	0x3a5ed5a0	0.00085004605
74	0x3cb78391	0.022401603
75	0xb9727961	-0.00023124136
76	0xbc3f7457	-0.011685452
77	0xbb495f61	-0.0030727016
78	0x3d32cca1	0.04365218
79	0xbd41376e	-0.047172002
80	0x3d3e07aa	0.046394028
81	0x3d676a7d	0.05649804
82	0x3d181909	0.03713325
83	0x3c3b5e06	0.011435991
84	0xbce6c47e	-0.028169867
85	0x3d3299db	0.04360376
86	0x39eb6cab	0.00044903657
87	0xbd1ecc0c	-0.038768813
88	0x3d46b33c	0.048510775
89	0x3c5b9b22	0.013403686
90	0x3d645903	0.05574895
91	0x3c9b9f47	0.018996848
92	0xbd015f84	-0.03158523
93	0x3d29865e	0.04138791
94	0x3b9bf57f	0.00475949
95	0x3d65ed6b	0.056134623
96	0xbd28387a	-0.041069485
97	0xbc34d9ec	-0.011038285
98	0x3b64c7fe	0.0034909244
99	0xbce372bc	-0.02776467
100	0x3c996458	0.018724605
101	0xbcae9cef	-0.021315066
102	0x3c74040d	0.014893544
103	0xbb4e37c5	-0.0031466347
104	0xbd22ed78	-0.03977725
105	0xbbda3134	-0.0066586975
106	0xbd117f71	-0.03552193
107	0xbbdffff1	-0.0068359305
108	0xbc837077	-0.016044838
109	0x3d07c884	0.03315021
110	0x3cc10f77	0.023566945
111	0x3d055b9d	0.032558072
112	0x3ccc3c17	0.024930997
113	0xbd28cc4e	-0.041210465
114	0x3d5bbf1e	0.05364906
115	0x3ccc171c	0.024913363
116	0x3c41a345	0.011818712
117	0x3c304ccd	0.010760498
118	0xbd1f6547	-0.038914945
119	0x3c68aaed	0.014200908
120	0x3b40d415	0.0029423286
121	0xbca4c3b1	-0.020112844
122	0x3d1b3351	0.037890736
123	0x3c697b70	0.014250621
124	0x3d32f5f7	0.0436916
125	0xbbb43bd7	-0.0055002975
126	0x3d427f51	0.0474847
127	0xbbee3cb3	-0.0072704195
128	0x3c4fcf42	0.012683691
129	0xbc0a5067	-0.008442021
130	0x3d3a37c9	0.045463357
131	0xbcaa2e07	-0.0207739
132	0x3c4c8d05	0.012484794
133	0x3cda151e	0.026621398
134	0x3d203513	0.039113116
135	0xbadcb585	-0.0016838765
136	0xbced1bd3	-0.028943932
137	0xbc9964a1	-0.018724741
138	0xbc132d94	-0.008983035
139	0xbcec7fbc	-0.028869502
140	0x3c82b4b7	0.015955312
141	0x3b14abe5	0.0022685465
142	0xbd0bf2eb	-0.03416721
143	0xbd16c497	-0.036808576
144	0x3d23f55e	0.040028922
145	0x3d67d11e	0.056595914
146	0x3ca81ffa	0.02052306
147	0xbcb9399a	-0.022610474
148	0xbb845c15	-0.0040392973
149	0xbd143510	-0.036183417
150	0xbcd134c0	-0.025537848
151	0x3d4e6ad5	0.05039485
152	0xbccc1551	-0.024912508
153	0x3ccba1d2	0.024857435
154	0xbd5d9129	-0.054093514
155	0xbd37d6fa	-0.044882752
156	0xbd1385bf	-0.036016222
157	0xbc542d5c	-0.012950268
158	0xbc96bb8c	-0.018399976
159	0x3c84ad92	0.016196046
160	0xbbefa67c	-0.0073135477
161	0x3b8885f0	0.004166357
162	0x3d11f731	0.03563613
163	0x3d6c0626	0.05762305
164	0x3d22d275	0.03975149
165	0x3c8c86c6	0.017154109
166	0xbb8317aa	-0.0040006237
167	0xbc8e1fbb	-0.017349115
168	0xbd193b60	-0.03741014
169	0xbd445279	-0.047930215
170	0x3d20bf6a	0.039245047
171	0x3cebdb17	0.028790994
172	0x3c9ee1d3	0.01939479
173	0xbb3f325b	-0.0029174301
174	0xbd60badf	-0.054865714
175	0xbd07e1fa	-0.033174492
176	0xbc9a30ac	-0.018822037
177	0x3b9f5ac5	0.0048631155
178	0x3cf36b7e	0.029714342
179	0xbced4074	-0.028961398
180	0xbc95d866	-0.018291663
181	0xbd11642c	-0.035495922
182	0x3cbf8367	0.023378087
183	0x3c2a8905	0.010408645
184	0x3cc6bdc3	0.024260407
185	0x3c844008	0.016143814
186	0xbd2a4ae5	-0.04157533
187	0x3d08cf35	0.033400733
188	0x3d607269	0.05479661
189	0xbcc124c0	-0.023577094
190	0x3b11cde3	0.0022247962
191	0x3cab876c	0.020938598
192	0x3cb1c6c8	0.021701232
193	0xbc9a6ac3	-0.018849736
194	0x3c89b07e	0.01680779
195	0x3d3db1ce	0.046312146
196	0x3c5cd019	0.013477349
197	0xbd4a15f4	-0.049337342
198	0x3d24ff32	0.040282436
199	0x3cd4c528	0.025972918
200	0xbb217c9c	-0.0024640923
201	0x3cb1b11f	0.021690903
202	0xbbf4feba	-0.007476655
203	0x3cef8fd9	0.029243397
204	0x3ce3f567	0.027826978
205	0xbd2b66e7	-0.041846182
206	0xbcc6556d	-0.024210656
207	0xbd10f4f1	-0.035389844
208	0x3d3217ba	0.04347966
209	0x3c603a79	0.013685816
210	0x3c822c24	0.015890189
211	0xbcf6760d	-0.030085588
212	0xbc04de45	-0.008109634
213	0x3d397bc4	0.045284048
214	0xbc8348f0	-0.01602599
215	0x3d551bfa	0.052028634
216	0xbd296c50	-0.04136306
217	0xbd29f5e2	-0.041494258
218	0xbd341bae	-0.04397171
219	0x3b842c88	0.004033629
220	0xbd4737c5	-0.04863717
221	0x3951c5fb	0.00020005547
222	0xbca26492	-0.019823346
223	0x3be3fadd	0.0069573955
224	0xbd356547	-0.04428604
225	0xbc83f718	-0.016109034
226	0xbc93756c	-0.018000327
227	0xbc2ea95c	-0.010660496
228	0x3d43bf87	0.047790077
229	0x3d22ee55	0.039778072
230	0x3d02f7c5	0.031974573
231	0xbd2a27e4	-0.04154195
232	0xbd15df70	-0.03659004
233	0x3cc9b7af	0.02462372
234	0xbc759d90	-0.014991179
235	0xbd1777f9	-0.03697965
236	0xbcabbebe	-0.020964976
237	0xbd10b6cb	-0.035330575
238	0x3b46be5c	0.0030325865
239	0xbd06eb13	-0.032939028
240	0x3d163d42	0.036679514
241	0xbd2bc60a	-0.04193691
242	0x3d0c6ed6	0.03428539
243	0x3d0a73e7	0.03380194
244	0xbd01492e	-0.03156393
245	0x3d33aaa0	0.043863893
246	0x3cde4535	0.02713261
247	0x3d396537	0.04526254
248	0x3caca088	0.021072641
249	0x3d1b2f32	0.037886806
250	0xb9a4f8e2	-0.0003146595
251	0x3c937276	0.017998915
252	0x3c231104	0.009952787
253	0xbd6d2235	-0.05789395
254	0x3c89656f	0.016772
255	0xbd059a25	-0.032617707
