lora_crossencoder_has_instruction_2/checkpoint-3870/adapter_model.safetensors (safetensors, 594924 bytes, 25 tensors)

base_model.model.bert.encoder.layer.0.attention.self.query.lora_A.weight f4 [16, 384]
00000000: 948b 833c d7e2 d13c dbe1 8b3c ce68 e3bc
00000010: bcbb 0ebd 8c8c aa3c 0f63 063d fe9b 5d3d
00000020: f6f7 0f3c de82 5bbd 8963 213c 4487 31bc
00000030: 8181 27bc 44c5 423c e7de 28bd 1a7e 0f3d
00000040: 2e7a 173d fec3 a23b 9483 413b 9752 99b9
00000050: 655a 213c 91d3 343c d549 013c a14c d2bc
00000060: 3004 8fbb b580 66bd 2719 46bc cc1a ecbb
00000070: 2289 123d 29a2 063d dc31 9bbb c2e1 37bd
00000080: 4d22 af3c a780 b23c c012 103c 43b8 41bc
00000090: 9bfd 8f3a 3cf4 3cbc d865 8f3c 202e f13b
000000a0: 227d 003d b3ce 28bd 44bd 353d 886c e13c
000000b0: 2172 493d 09bb 1d3d c86a 81bc 4780 f2b9
000000c0: 43ce b23c cc09 35bd b19c 483b 99ae 1cbd
000000d0: 5f1e 15bd 27db 0e3c 2b23 5c3d 2d08 32bd
000000e0: f28a cabb 5612 60bc c4c2 9c3c 3b55 2abd
000000f0: aa6d 15bd 9e9b a43c 708f 8dbc 7d9d efbc
00000100: 5b97 093c c75b a0bb ffe0 bbbc df6f 183d
00000110: a2f7 513c 80d5 5bba 722e 95bc 95ee 643c
00000120: 1022 193d 81d5 033d 9862 3bbd 6498 d3bc
00000130: d65e 443d 9d0e fbbc 04e7 3dbd 3788 293d
00000140: 8b02 2ebd af81 4e3d 8fc2 1abc bf1d eebc
00000150: 521d 133d d6a6 a93c 0a4f 0ebd 3f7e 26bd
00000160: a21a d53c d334 35bd 3d67 4d3d b2e1 3f3d
00000170: 9aa7 0a3d a629 4dbd 2b0d ecbc 11a4 023d
00000180: 886b 0bbc 5158 43bd 6e5b 1e3d 5ad0 2dbd
00000190: a4fa 72bc 02a5 223d ae9d b03c a39c 04bd
000001a0: 0ba0 9ebc b8d7 383d 72c3 29bb e550 2d3d
000001b0: 698f 20bd 1f7d 40bc a555 123d c198 a53c
000001c0: 35ae 50bd 686f dabc 4bf3 2cbd d3b3 2b3d
000001d0: 2f0f b0bc c569 58bc 4881 e43c 535e cc3c
000001e0: 5202 0abd 3ef4 f03c 644e d03c ab26 553b
000001f0: 64cc 113b 2e53 32bb 531c 40bc 5cde 5aba
00000200: d9e4 433d e4fe a33c 8c2c 43bc 0851 20bc
00000210: cabb 3abc ce73 61bd fa1a 03bd 4a5b 283d
00000220: 816e d63c 7e7a 40bd 891d 9bbc 9605 a03b
00000230: 7824 383c f22f 43bc a028 11bc 6199 3a3d
00000240: 3855 4abc 7d0b 25bc 4b79 b2bc b1e7 733b
00000250: 4c57 0d3d 4901 8f3c d0ae 353c 8f2b 53bd
00000260: 5255 cfbc 1c24 663c 5a60 c6bc fbc0 f0bc
00000270: a414 5ebd b42a 3dbd 179f 17bd 561c e7bc
00000280: de4e 863c e204 fe3c 8b5f e0bb 4105 bfbc
00000290: b1d1 7d3b cfcf 00bc 068c 2ebd 4973 243d
000002a0: 57b1 bdbc bb90 3a3d a887 bbbc c492 fbbc
000002b0: 75f5 dabc 21e3 e4ba aa0d 213d 5d28 f7bc
000002c0: 09f0 0c3d 06b2 933c dbf2 433d 72e4 723c
000002d0: eb92 563d 2909 3d3c c049 333c 032f 20bd
000002e0: bbc1 2b3d 0766 373d 2b01 07bd 9ea7 d93c
000002f0: 7572 27bd 8533 d13b 9d48 163c 75d2 0e3d
00000300: 8032 d03c 665a 843c 616a 0abd bf43 bd3c
00000310: 3d24 0a3d 09b7 17bd 1f43 ed3c 2c9c 8fbc
00000320: 2f8a 833b 4ade 233c 4126 ee3c 7150 e03c
00000330: fd9a 68bc d049 b5bc 2958 6cbc 2c41 033d
00000340: 729c 0dbd 5719 4cbc 81f6 4e3d 391e ba3c
00000350: fd43 e03a 3cc6 893c 531c 633c 9222 083d
00000360: fc59 e43c e9da 0dbc ee99 fb3c 0cd7 733c
00000370: a548 32bd 495e ed3c 0066 bfbc c48e 1c3d
00000380: 4a7b 493d 0b4f 973b 1780 d3bc 454f b6bc
00000390: 1bb0 c73c 0859 31bd d279 c93c 251b 1c3d
000003a0: ad91 82bc c029 54bd e158 93bc 66af 08bd
000003b0: c117 a33c 9aa6 b33c c2ce f9bc e3ec c43c
000003c0: 7c9b ffbb ecc4 103c 9929 3dbc ddc6 383d
000003d0: 63f1 143d 005f e6bc 4f08 9539 15d9 16bd
000003e0: 4776 39bd 3a75 aa3b e22a 313d eb81 42bd
000003f0: 0a93 c5bc 9c2e f23c a284 e03c 9a1f dc3c
0.016057767 0.025620861 0.01707547 -0.027759936 -0.034847006 0.020818971 0.032809313 0.054103844
0.008787146 -0.0535916 0.009850391 -0.0108354725 -0.010223747 0.011887852 -0.0412282 0.03503237
0.036981754 0.0049672117 0.002952789 -0.00029243968 0.009848212 0.0110367695 0.007891138 -0.025671305
-0.004364513 -0.05627509 -0.012090958 -0.007205343 0.03577531 0.03286949 -0.0047361683 -0.044893034
0.02137866 0.021789862 0.008793533 -0.011823717 0.0010985614 -0.011532839 0.017504618 0.007360235
0.031369336 -0.04121275 0.04436995 0.027517572 0.049181107 0.03850845 -0.015797988 -0.0004625341
0.021826869 -0.044198796 0.0030610973 -0.038252447 -0.036405917 0.008719242 0.053744476 -0.04346483
-0.0061811144 -0.013676247 0.01913584 -0.04158519 -0.036481537 0.020093735 -0.01728031 -0.029249901
0.008397902 -0.004893753 -0.022934435 0.037216064 0.012815388 -0.0008386001 -0.018210623 0.013972898
0.037386 0.032186035 -0.045748323 -0.025829501 0.047942005 -0.030646617 -0.04636289 0.04138967
-0.042482894 0.050416645 -0.0094458 -0.029066918 0.035916634 0.020709436 -0.034743346 -0.04064774
0.026013676 -0.04423983 0.050147284 0.0468461 0.033851244 -0.050088547 -0.028814873 0.031894747
-0.008509524 -0.047691647 0.038661413 -0.042435028 -0.014830265 0.039708145 0.021559563 -0.032375943
-0.019363424 0.0451276 -0.0025903848 0.042313475 -0.039199267 -0.011748581 0.03572621 0.02021444
-0.050947387 -0.02666445 -0.04222421 0.04191954 -0.021491615 -0.013208811 0.027893677 0.024947321
-0.03369362 0.029413339 0.025428005 0.0032524269 0.002224707 -0.0027210223 -0.011725503 -0.0008349174
0.047825668 0.020019002 -0.011912476 -0.009784944 -0.011397311 -0.05504208 -0.03200815 0.041102685
0.02617574 -0.046991818 -0.018934982 0.0048834784 0.011239164 -0.0119132865 -0.008859783 0.04555643
-0.012349419 -0.01007354 -0.021786353 0.0037216956 0.03450708 0.017456667 0.011089042 -0.051555213
-0.025309239 0.014046695 -0.024215866 -0.029388895 -0.054218903 -0.046183303 -0.037016954 -0.028211754
0.016395029 0.031008188 -0.006847327 -0.023317935 0.0038729722 -0.007862045 -0.042614006 0.040149007
-0.023155851 0.045548182 -0.022891834 -0.030709632 -0.026728371 -0.0017462709 0.03931967 -0.030170614
0.034408603 0.018029224 0.047839027 0.014824973 0.052386206 0.0115378285 0.010942876 -0.039107334
0.041932803 0.044775035 -0.0329601 0.026569184 -0.04088064 0.0063843154 0.009172586 0.034868676
0.025414705 0.016156387 -0.033792857 0.023103593 0.033725966 -0.03703979 0.02896267 -0.017530523
0.0040142755 0.010001728 0.029070975 0.027382107 -0.014197108 -0.022129923 -0.014425316 0.032044575
-0.034573026 -0.012457213 0.050528053 0.02271949 0.0017110106 0.016818158 0.0138617335 0.033236094
0.02787494 -0.008658149 0.030713048 0.014882814 -0.04352631 0.028975623 -0.023364067 0.03822209
0.049189843 0.004617577 -0.025817914 -0.022254596 0.024375966 -0.043297797 0.024594221 0.038111825
-0.015938604 -0.05179763 -0.017986717 -0.033370398 0.019908788 0.021930028 -0.030494098 0.024038738
-0.0078005176 0.008836012 -0.011545562 0.045111526 0.036363017 -0.028121471 0.00028425685 -0.03682812
-0.045278814 0.005201963 0.043253787 -0.04748718 -0.024117965 0.02956324 0.027406994 0.026870538

base_model.model.bert.encoder.layer.0.attention.self.query.lora_B.weight f4 [384, 16]
00000000: 3dd4 623b e082 403b 3d85 a23a c72f 1eba
00000010: b988 073b 0634 1b3b ec81 0abb fc74 27bb
00000020: 6f9f 013b 9512 45ba 344a 093a 27db 14bb
00000030: 44c6 2b3b 5e45 e03a d3ed 093b 00fb 2d3b
00000040: 1982 2f3b bb06 0c3b d8a9 aab9 d265 1f3b
00000050: 365c 653b e932 393b 5590 58bb afeb 00bb
00000060: 048e ba3a 3380 23bb dc33 6a3b 4e7a 8cbb
00000070: 0e27 1a3b f6a2 0f3a f1a5 97b9 e91b 753a
00000080: fee1 14bb 4e79 d1ba d598 403a f0d3 663a
00000090: 9f11 edba b348 49bb 2abc d13a fb42 833b
000000a0: 3821 22bb c01c 623b 50bb f7ba f031 c43a
000000b0: 35c5 3dbb ba3c efba eb33 01bb 3ab9 6d39
000000c0: 69ab 73ba cd4c e9ba 3f63 9539 82ef f7ba
000000d0: 8607 03bb 2134 e5ba 541a 0f3b 41ec b2b9
000000e0: 9523 8439 6137 43bb 3390 eeba 695e 7a3a
000000f0: d9e9 39b8 67a7 0d3b 8b41 2cbb f2e9 9aba
00000100: c417 bcba 32c4 07bb 14a1 ceba 3928 f539
00000110: 324b 51ba 8c8e 77ba bb85 493a 18ed 283b
00000120: 71bf 4138 86f1 773a 2eb4 d638 3193 8c3a
00000130: 0e97 8eba f8e7 58bb 32ef beba 217b 4fbb
00000140: 39a7 ac3a ca33 5d3a 2aab fa39 5e0e a9ba
00000150: aa64 b03a 9ebf f13a f690 a3ba 3a30 c6ba
00000160: 30d0 173b 8976 02bb 6172 cc3a 1330 9cba
00000170: 967b e63a f095 a439 76a6 533a da6f 783a
00000180: e6cb a43a 3347 ee39 5d6b 20bb 3dba 023b
00000190: b98c 0e3b c4b1 063b b09e 00bb e2ac 46ba
000001a0: 24e3 8dba ec8f a53a 8a64 263b a579 f5ba
000001b0: 0d00 ab3a b9ff 8cbb 7352 2dba 53e6 49bb
000001c0: 6121 8f3b e2b0 6c3b 9e89 acb9 08e8 b03a
000001d0: 08e5 753b 02e8 983b 68c5 6dbb 75a2 5fbb
000001e0: a822 5a3a 8093 b4ba a1ec 3e3b d187 a4bb
000001f0: d793 7c3b 8c14 c13a e318 3d3a 65ab f33a
00000200: 7f58 05bb 5c30 93ba 56cb caba 8de2 213b
00000210: 0ab9 c4b8 b31d 15bb 7ee9 18ba 0688 fe3a
00000220: e505 50bb a267 f53a 8756 f63a 3036 8cb9
00000230: b36d d2ba 96b5 04bb 4028 7cba e6ce d9ba
00000240: 28b3 ab3b 93db 743b cda7 813a 1933 5eba
00000250: db2d 363b 4d76 913b 1d35 27bb 0589 acbb
00000260: 926d 2f3b 3aab 63bb 800a d63a a392 71bb
00000270: 1c47 8a3b 2fd5 433b d844 a53a c578 853b
00000280: 2185 63bb c25e 43bb 92bb dcba a9a9 723a
00000290: d1e9 41bb 7b83 0ebb 742b c53a 506b 3b3b
000002a0: 4078 09bb 87ae 5e3b 3816 b5b9 b016 c43a
000002b0: 60cc 4cbb 980d 13bb 9273 d9ba 3b11 1fbb
000002c0: 487b 5b39 4b1c 6ab9 d848 31bb 44d4 283b
000002d0: e23c 453b e2d2 4bb7 cb4e 29bb 92a8 853a
000002e0: c29c 5abb e205 113b 76e5 753b 48e2 15bb
000002f0: 2e7b 85ba 4bfd efba a887 97ba b395 0abb
00000300: 7999 d53b 8860 703b e10f 20bb 6b05 583b
00000310: 732e ba3b 975a b73b 3e8f a9bb 832b fbba
00000320: 0c47 03bb 400c 233a 9926 993b a326 c6bb
00000330: b4d8 ac3b 35a8 0abb fadb d63a c6b8 3d3a
00000340: 425e b73b ae0a 8f3b 51d2 3eb9 004f 473a
00000350: b3fb 913b a09a b33b fba4 83bb bc6f bfbb
00000360: 68ba f43a a432 99bb 0ab7 663b 34d4 a9bb
00000370: f268 8d3b d8ea 373b 17b8 8d3a 87d5 b13a
00000380: 0f3a d43a 22ad 3d3a eb51 83b9 df97 d53a
00000390: 316a ef3a b479 143b ebc0 f2ba 347f 8cba
000003a0: 8c02 dc3a 45a2 e0ba 44cf 213b 1a24 1bbb
000003b0: d582 aa3a 02cd 083a bca8 1cba 7d22 17ba
000003c0: 1761 36ba 7d58 4dba b760 f239 1eda e2b8
000003d0: 758f 83b9 4a7c f7b9 0abc 9139 7797 673a
000003e0: cb28 1a3b 4936 beb9 104e 56b9 eab1 0a39
000003f0: 303c 1aba 0e6c 94b9 8490 70ba e7bd dbba
0.0034611367 0.0029374883 0.0012399327 -0.0006034341 0.0020680858 0.0023682131 -0.0021134568 -0.0025551906
0.0019778868 -0.00075177226 0.00052371924 -0.0022713633 0.0026210705 0.0017110517 0.0021046295 0.0026547313
0.0026780425 0.0021366316 -0.0003255147 0.0024322164 0.003499759 0.0028259105 -0.0033045013 -0.0019671728
0.0014232998 -0.002494824 0.0035736477 -0.004287041 0.0023521814 0.00054793 -0.000289246 0.0009350167
-0.002271771 -0.0015981586 0.00073469925 0.0008805385 -0.0018086917 -0.0030713498 0.0016001512 0.0040057874
-0.0024739038 0.0034502 -0.0018900428 0.0014968496 -0.0028956656 -0.0018252351 -0.0019714783 0.00022671084
-0.00092952565 -0.0017799378 0.0002849344 -0.0018915983 -0.0019993498 -0.0017486849 0.002183576 -0.00034126829
0.00025203513 -0.0029787647 -0.0018200934 0.00095508114 -4.4325225e-05 0.0021614672 -0.0026284184 -0.0011818989
-0.0014350344 -0.0020716307 -0.0015764558 0.0004676001 -0.0007983922 -0.00094435434 0.0007687469 0.0025776085
4.619308e-05 0.0009458292 0.00010237876 0.0010725019 -0.0010878758 -0.0033097249 -0.0014567135 -0.0031659084
0.0013172395 0.0008438198 0.00047811243 -0.0012897959 0.0013457735 0.0018443947 -0.0012479115 -0.0015120574
0.002316486 -0.0019907078 0.0015598052 -0.0011916183 0.0017584439 0.0003139223 0.0008073816 0.00094771164
0.0012572974 0.00045447945 -0.0024478056 0.0019947432 0.0021751358 0.0020552734 -0.0019625835 -0.0007578862
-0.001082514 0.0012631393 0.0025389516 -0.001872827 0.001304628 -0.0043029455 -0.0006611712 -0.003080745
0.0043679927 0.0036116173 -0.0003290893 0.0013496885 0.0037520546 0.0046663294 -0.0036280993 -0.0034123932
0.0008321204 -0.0013776869 0.002913274 -0.0050210734 0.0038540268 0.0014730855 0.0007213486 0.0018590508
-0.0020346937 -0.0011229622 -0.0015471976 0.0024701685 -9.3804745e-05 -0.0022753298 -0.0005833133 0.00194192
-0.0031741795 0.0018722902 0.0018794098 -0.00026743254 -0.0016054421 -0.0020249835 -0.0009619035 -0.0016617447
0.005239863 0.0037362322 0.0009891927 -0.0008476242 0.0027798328 0.0044391514 -0.0025513836 -0.0052653574
0.002676819 -0.003473951 0.0016330034 -0.0036861084 0.0042199027 0.0029881706 0.0012609018 0.0040732347
-0.0034716802 -0.0029811119 -0.0016840568 0.0009256849 -0.0029588828 -0.002174585 0.0015042857 0.0028597899
-0.0020976216 0.0033978538 -0.00034539565 0.0014960375 -0.0031249747 -0.0022438522 -0.0016590229 -0.0024271745
0.00020931393 -0.00022326519 -0.0027051475 0.0025761286 0.0030096103 -1.2148843e-05 -0.0025834318 0.0010197333
-0.0033357595 0.002212875 0.0037520803 -0.002287047 -0.0010183805 -0.001830974 -0.0011560814 -0.0021146357
0.0065185395 0.003667863 -0.0024423527 0.0032962214 0.0056818067 0.005595516 -0.0051745465 -0.0019162748
-0.002003136 0.0006219782 0.0046737907 -0.0060470863 0.0052748565 -0.0021157388 0.0016392462 0.0007237311
0.005595953 0.004365287 -0.00018198161 0.00076030195 0.0044550537 0.005481079 -0.00401747 -0.005842177
0.0018671276 -0.0046752263 0.0035204315 -0.0051827673 0.004315489 0.0028063562 0.0010812309 0.0013567664
0.0016191619 0.00072355766 -0.000250473 0.0016295871 0.00182659 0.0022655549 -0.0018520629 -0.0010719062
0.0016785427 -0.0017138204 0.002469019 -0.0023672641 0.0013008962 0.0005218537 -0.0005976071 -0.0005765332
-0.00069572165 -0.0007833315 0.00046229895 -0.00010817147 -0.0002509315 -0.00047204114 0.00027796655 0.00088345207
0.002352285 -0.0003628007 -0.00020437711 0.00013226984 -0.00058836024 -0.00028309267 -0.0009176808 -0.0016764969

base_model.model.bert.encoder.layer.0.attention.self.value.lora_A.weight f4 [16, 384]
00000000: 250b e6bb 42e0 12bd 9bad f8bc 8894 bd3b
00000010: b472 14bd 3ab0 acbc 7cb6 393d ce49 30bc
00000020: e3ec bfbc 26f1 18bd 5d63 013d 67f2 5ebc
00000030: bf9b 07bd 39c7 13bd ce77 21bd 83bb 28bc
00000040: 37a6 393c 6468 363d db02 22bd 86b2 413d
00000050: 4a6e b23a 34e9 5fbd 43c8 4bbd 9c44 1abd
00000060: 3648 333d d127 5fbd 087c 273d 756b 48bd
00000070: b36a 7c3c dd35 cabc ed7d 853c c94f 42bc
00000080: dc21 fabc 320a 46bd 208b 0ebc 89d3 c9bc
00000090: 444f 123c 823f f5bc 4944 953c adf0 be3c
000000a0: adb3 2ebd 9079 c33c e4ac 283d 98c2 6e3c
000000b0: b14b c23c ef4a f63b 6fd9 123d fe2a 34bd
000000c0: cfe3 04bb 5b45 823c 907e dc3c 00ed 923c
000000d0: 3488 f73c 7515 4fbc f27a 6ebc b345 c63b
000000e0: 46b6 5b3d 57b7 1a3d def4 4abd a8b5 59bc
000000f0: 4b9a 1f3c 358c 91bc fefd 06bc 373d 2ebd
00000100: ae3e 3bbd 63ef ef3b d4b7 273d 1f7b d43c
00000110: ef12 ddbc 0f7a 6abd 659b aebc f1dd 603b
00000120: f0d6 41bd c3d8 043d ff29 ddbc b406 133d
00000130: 914b 20bd e0e9 613b 56d5 5cbd 9ef5 393d
00000140: 21fe 54bd 86ee 413d ca3d 23bd b7f1 1e3d
00000150: a9b0 6cbb bb84 853b 9cf0 0d3d 3d17 893b
00000160: 9a82 bfbc 557a 55bd 6769 c73a 6688 a1bb
00000170: f63f 5e3d 40c9 a3bb eb8e 053d b326 883b
00000180: 105c 93bc a75d 3cbc a648 c2bb c7c9 57bd
00000190: 04d1 893c 200a 00bc 4ae0 adbc c5bb 133d
000001a0: 9fb9 a23b 4e8b 203d f7d6 92bc 203a 0b3d
000001b0: 1c46 f9bc 19e6 71bc e5ac a1bc c214 2bbc
000001c0: 6656 eebc f2fe 68bd 859c ff3c 95b0 05bd
000001d0: dae9 c7bc a272 653d 672c 51bc 7306 4b3d
000001e0: 769e 18bd 290c b9bc b5ae 053d 7673 87bc
000001f0: 97d5 153d d11e d6bc ffd7 10bd 8b33 6f3c
00000200: dcd9 02bd 67b4 babc 8840 3d3d d5e4 6b3d
00000210: e2cf 23bc 5b35 ccbc 5363 143d 5d73 1dbd
00000220: 5549 e63b dfac 75bc caaf 54bd 9f0b 0abd
00000230: 8e85 23bd dd01 703b 0adb 063d c4a3 09bd
00000240: 91c0 093d f7db 7c3c 2d70 f93c e4e3 883c
00000250: d310 36bd 9c33 c13b 5521 17bd 2d80 5bbd
00000260: 5ca4 26bd 3845 20bd 458a 093c ebed fa3c
00000270: 0825 1a3d 29df e3bc cd1e c3bb 0ecb a63c
00000280: 1792 c5bc ea83 183d 013a eb3c 268a 0cbd
00000290: 65f2 dc3c 0ac1 e239 3077 153c dc5b e8bb
000002a0: bf6b 933c 6837 12bd 16b1 303d afd6 8bbc
000002b0: c635 ddbc e6a3 fabb c696 f1bc 0006 5fbd
000002c0: 1d57 803c eff9 833c f1fa 1c3c 596e 543d
000002d0: 4e71 343d 2913 333c 3c5c 81bc 8181 efbc
000002e0: eaca 7cbc fe66 75bc a95d 05bd 9dc4 39bd
000002f0: e4e8 b33a 8352 ad3c ed01 7e3c 48d1 69bb
00000300: 0c28 a2bc e9c1 09bd 019a 49bd cd87 54bd
00000310: 1f7a 5d3d 41ef 253d e79b 993c 7747 523c
00000320: fed5 35bd a886 38ba 2e9e 233d 7597 afbc
00000330: a484 0c3d e12b 813c d93e 083d 58df 1dbc
00000340: a341 e9bc c440 ee3c 14b7 533d 6f5c 893c
00000350: 7807 103d 0f7a 8a3b 40fc 2ebd 820a 89bc
00000360: 1d95 d53c 0964 0fbd a3e4 cc3a dcf8 24bd
00000370: d4d1 21bc 6f94 263d cdf4 323d f945 083b
00000380: 768d 4f3d d889 32bd 5231 363d 1a1f acbc
00000390: 4736 8fbb 184e 29bc 83b3 863a a62f 20bd
000003a0: 6d51 37bd 7255 5c3c 7eff 93bc 1bc1 b23c
000003b0: 7526 81bc 00e5 bfbc 0617 1f3c a0cb d93c
000003c0: 5850 eebc 45a1 4cbd 987d 36bc 3389 eaba
000003d0: def8 44bc 1bcb dbbc 62c3 eebc 7ecc 8fbb
000003e0: f414 10bd 7554 b0bc 10b8 63bd a952 0cbd
000003f0: 407f 0ebd 6967 b23c 3f3b 7c3c 6854 5c3d
-0.0070203715 -0.0358584 -0.030356219 0.0057855286 -0.036242202 -0.021080125 0.045340046 -0.010759784
-0.023428386 -0.037339352 0.0315889 -0.013607598 -0.033107515 -0.036078665 -0.039420895 -0.0102986125
0.011331133 0.04453315 -0.039553504 0.047289394 0.0013613191 -0.05466576 -0.04975153 -0.037663087
0.043770038 -0.05448133 0.04088977 -0.048930604 0.015406298 -0.024683887 0.016295398 -0.011859843
-0.030533724 -0.048349567 -0.008700162 -0.024637 0.008930031 -0.02993751 0.018221037 0.023308123
-0.04265182 0.023861676 0.041180506 0.014572762 0.023717733 0.007516257 0.035851892 -0.043986313
-0.0020277386 0.015902212 0.026915818 0.017935276 0.030216314 -0.012639393 -0.01455568 0.0060507893
0.053640626 0.037772503 -0.04954993 -0.013287939 0.009741376 -0.017767051 -0.008239267 -0.042538848
-0.045714073 0.0073222383 0.040946797 0.025937615 -0.026986567 -0.05724531 -0.021314332 0.0034311975
-0.04732412 0.032433283 -0.026997564 0.035895064 -0.039134566 0.0034471676 -0.05391439 0.045400254
-0.05200017 0.047346614 -0.03985385 0.038804736 -0.003611604 0.0040746606 0.03465329 0.0041836784
-0.023377705 -0.052118618 0.0015213907 -0.00492959 0.054260217 -0.004998356 0.032607 0.004155004
-0.017988235 -0.011496938 -0.0059290705 -0.052682664 0.0168233 -0.007814914 -0.021225113 0.036067743
0.0049659754 0.03919535 -0.017924769 0.03399098 -0.030428939 -0.014764332 -0.019735763 -0.010441961
-0.029093932 -0.05688376 0.031202564 -0.032639105 -0.024403501 0.056017525 -0.012766934 0.049566697
-0.037260495 -0.022588806 0.032637317 -0.016534548 0.03658065 -0.026137741 -0.03536224 0.014599691
-0.03194605 -0.0227911 0.04620412 0.057591278 -0.009998294 -0.024927786 0.036227535 -0.038440097
0.007027785 -0.014994829 -0.051925458 -0.03370249 -0.03992229 0.0036622204 0.032923736 -0.033603445
0.03363091 0.015433303 0.030448997 0.01671023 -0.04444964 0.005896045 -0.036897022 -0.053589035
-0.04068409 -0.039128512 0.008394782 0.030631026 0.037632972 -0.027816372 -0.0059545995 0.020360496
-0.024117513 0.037235178 0.028714182 -0.034311436 0.026971051 0.00043249904 0.009122655 -0.0070910286
0.017995713 -0.03569737 0.043137632 -0.017070143 -0.02700318 -0.0076489327 -0.02949084 -0.05444908
0.015666539 0.016110389 0.0095813135 0.05186305 0.04405337 0.010929861 -0.015791051 -0.029236557
-0.015429238 -0.0149781685 -0.032560024 -0.04535352 0.0013726023 0.021157509 0.015503389 -0.003567772
-0.019794486 -0.033632193 -0.049219135 -0.051887322 0.054071542 0.040511373 0.018751098 0.012834421
-0.044393532 -0.00070391083 0.039945774 -0.021434525 0.034306183 0.015767993 0.03326306 -0.009635769
-0.02847368 0.029083617 0.05168827 0.016767709 0.035163373 0.0042259763 -0.042721033 -0.016728643
0.02607208 -0.03500751 0.0015632104 -0.040276393 -0.009876687 0.0406689 0.04369049 0.002079366
0.050672017 -0.04358849 0.04448063 -0.021010924 -0.004370484 -0.01033356 0.0010276887 -0.03910794
-0.044755388 0.013448106 -0.018066164 0.021820595 -0.015765408 -0.023424625 0.009710079 0.026586354
-0.029091045 -0.049958486 -0.011138342 -0.0017893672 -0.012022225 -0.026830247 -0.0291459 -0.004388391
-0.035176232 -0.021524647 -0.055595458 -0.03425852 -0.034789324 0.021777825 0.015394985 0.053791434

base_model.model.bert.encoder.layer.0.attention.self.value.lora_B.weight f4 [384, 16]
00000000: 1349 79ba 6651 2f39 b18d da39 3f8c a739
00000010: 62f1 0fba a891 36ba 8a5c c2ba bf34 29ba
00000020: c0a7 1fb7 be10 4bb9 35a5 913a a3f5 a4b8
00000030: 2225 eb39 7ac1 42ba b3a6 ae3a 7dde b73a
00000040: b752 0cbb 52dc 4abb 9aa8 773b 1106 60bb
00000050: e740 813b 5f85 5abb 2ee0 4f3b 7f6f 363b
00000060: 08bd 71bb d87a 7b3b 6746 23bb 3be0 6d3b
00000070: 1fb7 1c3b f5cf 243b 5482 3c3b 9122 b63b
00000080: 54a4 0abb 9611 d5bb ff48 6d3b 42d3 e7bb
00000090: 3643 d23b 54c0 1dbb 25af cb3b b16a a73b
000000a0: fbbe eebb 3d20 cf3b 9c60 93bb c9fe eb3b
000000b0: 733b 1a3b 1292 923b 8979 213b ff61 993b
000000c0: d87e 473a fb1f d9ba 16d2 6fb9 a227 dcba
000000d0: 455c c13a d5e2 7d3a 94ea 0a3b 06b4 b53a
000000e0: 663d f0ba f0ad 913a 6693 b4ba f37e e73a
000000f0: e44b 64ba 56e4 953a cf4e 89ba 0363 c03a
00000100: 462a 8f3b c5fd 443a 45f4 0bbb aaf5 a93a
00000110: efee 3cb9 f074 f13a 1a54 48ba 7c53 57b8
00000120: 719b 473a d7e3 16ba dfef 7e39 1528 3eba
00000130: cddc 26bb 9337 dfb8 4fe9 72bb d271 60ba
00000140: 312c cb3a 78ef 0b39 a300 4bba 6c5b 8239
00000150: c6c3 9f3a 766f 213a 0ff2 2d3a b48c 523a
00000160: 8ff3 29b8 21b0 7d3a f997 a1ba de5c 2339
00000170: 299d 9cba 4d31 983a f766 84ba 0825 d439
00000180: 1a26 4a3b 9fb8 4d3b 2edb 67bb 4ba6 653b
00000190: dd74 81bb cda8 4d3b 0146 50bb 9ade 4bbb
000001a0: 4325 6f3b 255b 7cbb 29a8 3a3b 9a66 6ebb
000001b0: 01c9 0cbb 3e6a 3cbb 2513 65bb e130 acbb
000001c0: e287 313b d129 653b 0f3c 38bb d54d 733b
000001d0: 7679 2fbb 91a8 323b 96d6 d3ba 3ee4 51bb
000001e0: 2120 713b dea3 33bb f874 d33a b711 56bb
000001f0: 323b 2fbb 662c 0dbb dbae 38bb 7759 34bb
00000200: e5e8 12bb 41a7 7eba f933 ec3a 1c58 5fba
00000210: 243e 4e39 28fc ebba 628b 7039 b3bd 5739
00000220: bdf3 8aba cb46 c338 8028 5639 007f 863a
00000230: 83f7 0f3b 7585 0eb9 6ef9 063b 64b5 bf3a
00000240: 651e 99b8 be11 c43a c1ab 26ba d3e4 ca3a
00000250: da3a 64ba 06d5 883a 5eaf b3ba 6d41 b2ba
00000260: 6ff6 a53a 5b85 8cba 3114 da3a 6c8d 9dba
00000270: 9cda 8dba 0171 c1ba fc90 6738 adde 743a
00000280: eb94 d6ba 32d6 903a 949c e73a 337a 9a3a
00000290: be38 27bb 9ac0 dbba 258f 13bb 6d3e 09bb
000002a0: cf01 c73a 45e2 0ebb 800a 103b 4e1a c7ba
000002b0: 3901 fe3a a553 09bb 53a3 ab3a 47e7 2cba
000002c0: 4a12 c0b8 a761 113b bd4f deba 0454 173b
000002d0: de99 4fbb f055 e43a 94dc 3ebb c08f 34bb
000002e0: 622d 263b 9e97 40bb a8a6 303b f1d1 24bb
000002f0: df9b 88ba d387 2dbb cd45 94ba c7f3 54bb
00000300: c4e2 4dbb cee8 02bb a585 3f3b a14a 22bb
00000310: c71a 283b c9b4 16bb 74e5 403b b59b de3a
00000320: 05a8 28bb a545 183b e7c4 ddba 0471 263b
00000330: fd04 2c3b 88a1 ce3a 6000 3d3b 0da9 563b
00000340: 17b4 81bb 1aa2 96bb f23d 9b3b b4e3 d0bb
00000350: 8e0f dd3b 02cd 6cbb 19a3 dd3b d270 b63b
00000360: a0f3 bebb 37fd cb3b 6a76 a4bb 4fc0 c93b
00000370: 3716 603b 4d78 9e3b 87d8 8c3b 4175 bb3b
00000380: fdf4 fd3a 8776 393b 1f6a 45bb ecf5 493b
00000390: 2ae6 1dbb a9e3 143b 8a3f 2cbb 46cf 18bb
000003a0: 69ba 393b 56e1 22bb d9f6 153b 5780 38bb
000003b0: dda5 1dbb a3c0 12bb bd87 c3ba 6793 12bb
000003c0: 33d6 4b3b 32b2 523b 30ca 33bb 23b7 733b
000003d0: 6f1c 81bb fc1b 383b 5cfe 5cbb e513 4dbb
000003e0: 0f84 7b3b 2332 79bb 7aa8 3e3b 5e18 76bb
000003f0: 4818 2cbb 0f84 36bb c67c 71bb b672 75bb
-0.0009509485 0.00016719624 0.00041685769 0.00031957214 -0.0005490986 -0.00069644535 -0.0014828604 -0.0006454698
-9.516196e-06 -0.00019365826 0.0011111858 -7.865883e-05 0.0004485036 -0.0007429343 0.0013324827 0.0014028099
-0.0021411607 -0.0030954075 0.0037789703 -0.0034183303 0.0039445045 -0.0033343656 0.0031719315 0.0027837453
-0.0036886353 0.003837278 -0.002491379 0.0036296982 0.002391286 0.0025148366 0.0028764205 0.00555832
-0.0021155076 -0.0065023405 0.003620684 -0.0070747444 0.0064167036 -0.0024070935 0.006215947 0.005109154
-0.0072859502 0.006320982 -0.0044976007 0.0072020036 0.002353397 0.0044729793 0.002463909 0.0046808715
0.0007610149 -0.0016565317 -0.0002287108 -0.001679648 0.001475223 0.00096849847 0.0021196948 0.0013862855
-0.0018328845 0.001111446 -0.0013776838 0.0017661735 -0.00087088183 0.0011435847 -0.0010475757 0.0014677945
0.004369053 0.0007514621 -0.0021355313 0.001296689 -0.00018018087 0.0018421691 -0.00076419266 -5.1337745e-05
0.000761441 -0.00057559967 0.00024312687 -0.00072538975 -0.0025461197 -0.0001064382 -0.0037065332 -0.00085618824
0.0015500841 0.00013345282 -0.00077439303 0.00024863647 0.0012189082 0.00061582716 0.0006635496 0.00080318307
-4.051957e-05 0.00096774293 -0.0012328617 0.00015579487 -0.0011948693 0.0011611372 -0.0010101487 0.0004046338
0.0030845464 0.003139056 -0.0035378444 0.0035041745 -0.0039506988 0.003138113 -0.0031780007 -0.0031108023
0.0036490716 -0.0038506475 0.002848158 -0.0036377073 -0.0021482112 -0.0028749849 -0.0034954038 -0.0052548503
0.002708905 0.0034967551 -0.002811197 0.003712525 -0.0026775277 0.0027261118 -0.0016161974 -0.0032026912
0.0036792832 -0.0027410905 0.0016132882 -0.0032664367 -0.0026738164 -0.0021541356 -0.0028180394 -0.0027519146
-0.0022416648 -0.0009714254 0.001802086 -0.0008519904 0.0001966884 -0.0018004226 0.00022940108 0.00020574666
-0.0010601204 9.311511e-05 0.00020423718 0.0010261238 0.0021967597 -0.00013591892 0.002059545 0.0014626202
-7.30127e-05 0.0014958901 -0.0006357991 0.0015479572 -0.00087062793 0.0010439462 -0.001370888 -0.0013599821
0.0012661944 -0.0010720895 0.0016638098 -0.0012020296 -0.0010822597 -0.0014758409 5.520972e-05 0.00093410426
-0.0016371285 0.0011050163 0.0017670565 0.0011785686 -0.0025515999 -0.0016765774 -0.002251574 -0.002094175
0.0015183034 -0.0021802348 0.0021978915 -0.0015190335 0.0019379026 -0.0020954397 0.0013094939 -0.00065957423
-9.15868e-05 0.002218345 -0.001696102 0.0023090849 -0.0031677405 0.0017420631 -0.0029123174 -0.0027551502
0.002535664 -0.0029387246 0.0026954804 -0.002514955 -0.001042243 -0.0026478663 -0.0011312306 -0.0032493935
-0.003141568 -0.0019975188 0.0029223945 -0.002476372 0.0025650726 -0.002299594 0.002943364 0.001698366
-0.0025734913 0.002323487 -0.0016919643 0.0025396952 0.002624809 0.0015764693 0.0028839335 0.003275457
-0.003958236 -0.0045969607 0.004737609 -0.0063748006 0.006746239 -0.0036132936 0.0067638275 0.0055676484
-0.005827382 0.006225254 -0.005018999 0.006156958 0.0034192929 0.0048361183 0.004298273 0.005720765
0.001937538 0.0028299408 -0.0030123068 0.0030816747 -0.0024093487 0.0022718704 -0.002628299 -0.0023316904
0.002833987 -0.002485355 0.0022882728 -0.0028152668 -0.002405516 -0.0022392652 -0.0014917772 -0.002236569
0.0031103014 0.003214967 -0.0027433746 0.0037188015 -0.003940157 0.0028092852 -0.0033720946 -0.0031292376
0.0038378274 -0.0038024269 0.002909212 -0.0037551145 -0.002625959 -0.002784971 -0.0036848052 -0.0037452406

base_model.model.bert.encoder.layer.1.attention.self.query.lora_A.weight f4 [16, 384]
00000000: e332 253d 6307 40bd 7969 eabc 6e6e 553b
00000010: 17fd 3b3d 9b31 bb3c cd85 db3c 8c30 433d
00000020: 6b68 36bb f90d f8bb d494 2d3d d8ad e9bc
00000030: 5421 153d dfd5 7b3c 74a4 783b 38ad bf3c
00000040: 76ee 17bd 7d71 f33c 31a2 9f3c 0df9 e5bb
00000050: 2680 dbbc 1919 36bd adb3 5bbd 9b79 cb3c
00000060: 35d7 32bd c606 9b3c ba57 9fbc 103c e63c
00000070: 7c03 b03c 0f5f 443c f97a 44bd 8251 1bbd
00000080: 91a4 3dbd 7028 4ebd 362b f5bc 3fae d03c
00000090: dd47 e43c f643 23bb 0ece 873c 7f31 b93b
000000a0: 2cd9 9abc 2064 2fbd 63ad 0c3d f69a 36bd
000000b0: 62a3 bfbc 40db efbc 96e8 a6bb 2bba c13c
000000c0: 053b 96bc 19e4 2dbb 8c9c 4fbb 1b56 45bd
000000d0: 68b7 983b 2d83 4c3d 517a 15bd 2606 233d
000000e0: 7649 3fbd a6c7 01bd 0103 af3c 1e69 b03b
000000f0: 1af9 d13c c185 5abc deb8 89bc cbe9 5a3c
00000100: 24aa 293c 2713 8e3c 04ab 04bc 81e7 e03b
00000110: a42c a63a c751 96bc 5775 443d 6be9 dbbb
00000120: 291f 1abc 0c74 4abc 7009 d13b e877 4ebd
00000130: b168 443d 6c15 f7bc a357 e13c 62c5 1e3d
00000140: 127a 103d 9c2a 7b3c bf53 453d 22b9 0a3d
00000150: b9fb 18bd 4019 36bc 5527 ae3c c750 3c3c
00000160: 6193 04bd 51e7 133b 1a61 67bc 12e3 b93b
00000170: 5afb cb3c 0917 2ebd 218a 04bd fb39 99bc
00000180: d9a5 363d 0f5f adbc a0e9 2b3d 296b d8bc
00000190: a00c d3b9 a6fb f63b 8b02 3ebd e892 be3c
000001a0: 0e6f 2bbd d88d 033d 611d c4bc a07f cabc
000001b0: 50c9 d93c 8e09 1dbd b1d5 3ebd 5ac6 413d
000001c0: 7608 393c ea8a 45bd b363 4e3d f5a6 923c
000001d0: ebef 313d fa91 f2bb 9205 8d3b 9c20 60bc
000001e0: 9280 0ebd 2563 b6bc 558b 5c3c a336 ef3c
000001f0: c217 7abb 6118 203d 0617 ab3c f9c9 bf3c
00000200: e666 16bc 9ab5 15bd 3ff0 063d f5a9 d63c
00000210: 3b7f 00bc 441c e6bc 17b8 bd3c c58a 163d
00000220: 153f 553c 67fe 16bd d81b 26bb 1f6a 2bbd
00000230: 408b 5abd 5534 bc37 be05 473d 6774 20bd
00000240: a495 c6bc 5e2e 3a3d 42b7 aa3c 4162 b5bc
00000250: c4fc 463d cb2d eebc a725 5abc 8978 f73b
00000260: e15f c03b 4e36 14bd 9182 47bd b75e 173d
00000270: 7e03 31bd 0d13 d53c 0f81 1dbd c3b5 22bd
00000280: fd71 393d dc7e f5bc eef9 20bd 11b2 46bd
00000290: e475 30bd 7335 14bd 2d7f 343d f5ff a13b
000002a0: d0db 973a 9d2e e83c 56e8 32b9 291f e2bc
000002b0: dfa2 12bd 7a4c 403b 4152 3f3c e568 d4bc
000002c0: 99af 2dbc 36fb 643b c7c3 33bd 2cd1 aebc
000002d0: 457c 473c 8b15 ac3c 5c5f 173d 67a7 4b3c
000002e0: 7713 47bd 8311 ebbc f52e 2fbd 83b3 76bc
000002f0: e764 1dbd fca1 2a3d 0a0c 34bd b05d 2cbd
00000300: ab7e 163b 8538 073d ddcf af3c e7c4 fe3c
00000310: 3b1f 283c e33b 0dbc da99 8abc d02a 1fbd
00000320: a056 93bc b4d5 333d c9b1 0c3d 4d50 29bd
00000330: a280 1cbc 3f2f 0bbd a23b b03c 0e10 ce3c
00000340: f7dc 09bd 1674 773c a6cf cb3b 2c19 edbc
00000350: 4710 623c 3018 3e3c 0ba2 24bc b2b0 0fbc
00000360: 6b00 9d3c 75d0 033d 81c5 643c 439f 533d
00000370: d723 243d 51d3 a83c 460d 4ebb 0d47 1bbd
00000380: 1dba f3bc b670 8e3c 2af0 fbbc 7095 19bd
00000390: 2214 1c3d 9d12 2bbc 229d 06bd 6dd2 2a3d
000003a0: 9a93 2a3d 37c9 493c 7523 c63c ce5b d43c
000003b0: f43d 363d 96b4 63bc 71ff 9d3c 25d6 8c3c
000003c0: 92f2 553d 60e5 00bd 9606 b33c 1e62 bebc
000003d0: bbc5 48bb f82b 81bc 015d 0e3c 27a6 3c3d
000003e0: 6f81 383d fe0e db3c 838f 1d3d 2f73 4dbd
000003f0: ee8d 4d3d d06b 323c 1989 003d be99 273c
0.040331732 -0.046882045 -0.028614746 0.0032567042 0.045895662 0.022850802 0.0267972 0.04765372
-0.0027833234 -0.007570025 0.04237826 -0.028525278 0.036408737 0.015370815 0.0037939819 0.023398027
-0.03709265 0.029717201 0.019486519 -0.0070182146 -0.026794504 -0.04445753 -0.05363815 0.02483826
-0.04366227 0.018924128 -0.019451011 0.028104812 0.021486036 0.011985554 -0.04796884 -0.03791953
-0.04629952 -0.050331533 -0.029927831 0.025473712 0.027866298 -0.0024912334 0.016577747 0.0056516523
-0.018902384 -0.042820096 0.034345042 -0.044581376 -0.023393337 -0.029279351 -0.0050936444 0.023648342
-0.01833869 -0.0026533662 -0.0031679003 -0.04817782 0.0046605356 0.049929786 -0.036493603 0.039800785
-0.046700917 -0.03168454 0.021363737 0.0053836247 0.025631476 -0.0133375535 -0.016811784 0.013361405
0.010355506 0.017343117 -0.008097414 0.006863535 0.0012678099 -0.018349541 0.047963466 -0.006711175
-0.009406843 -0.012356769 0.006379299 -0.05040732 0.047951404 -0.030161582 0.027507609 0.038762458
0.035272665 0.015329983 0.04817557 0.033867963 -0.037349436 -0.0111144185 0.02125899 0.011493868
-0.032367114 0.0022568295 -0.014122272 0.005672821 0.024900127 -0.042502437 -0.032358292 -0.018704405
0.04459176 -0.021163492 0.04197085 -0.026418285 -0.00040254463 0.007537323 -0.046389144 0.02326341
-0.041853957 0.032117695 -0.02393979 -0.02471906 0.026585251 -0.03833919 -0.04659051 0.047308303
0.011293521 -0.048228182 0.05038805 0.017901877 0.043441694 -0.0074026557 0.0043036425 -0.01367965
-0.034790583 -0.022264073 0.013460954 0.029200858 -0.0038161133 0.03908575 0.020885002 0.023411738
-0.009179806 -0.036550142 0.03294396 0.026204089 -0.007842834 -0.02808965 0.02315907 0.036753435
0.013015528 -0.03686371 -0.0025346186 -0.04184925 -0.053355455 2.2435715e-05 0.04858946 -0.03917351
-0.024241276 0.045454375 0.020839337 -0.022141578 0.0485809 -0.02907457 -0.013314641 0.0075522107
0.0058708047 -0.0361846 -0.048708502 0.03695556 -0.04321622 0.02601006 -0.038453158 -0.039724123
0.045274723 -0.029967718 -0.03930085 -0.04850966 -0.04308118 -0.036183786 0.044066597 0.0049438425
0.0011585895 0.02834254 -0.00017061955 -0.027602749 -0.035799857 0.0029342459 0.011677326 -0.025928924
-0.010600948 0.0034939772 -0.04388788 -0.021339975 0.012175624 0.021006366 0.036956176 0.012430049
-0.048602547 -0.028694874 -0.04276939 -0.015057447 -0.038426306 0.041658387 -0.043956794 -0.042081535
0.0022963684 0.033012886 0.021461422 0.03109975 0.010261352 -0.008620235 -0.016919065 -0.03885919
-0.017985642 0.043904975 0.034349237 -0.041336346 -0.009552153 -0.033980604 0.02151281 0.02515414
-0.033657994 0.015103361 0.006219822 -0.028942667 0.013797826 0.011602446 -0.0100484 -0.008770155
0.019165238 0.032181222 0.013963104 0.051665556 0.040073242 0.020608576 -0.0031441017 -0.037909556
-0.029751832 0.01738773 -0.030754168 -0.03749603 0.038105138 -0.0104414495 -0.032864697 0.041704584
0.04164467 0.01231604 0.02418683 0.025922682 0.044492677 -0.0138980355 0.019286843 0.017191956
0.052233286 -0.03146875 0.021853726 -0.023240145 -0.0030635435 -0.015768036 0.008689166 0.046056893
0.045045312 0.026740547 0.03846694 -0.050158676 0.050184183 0.010889962 0.031380747 0.010229526

base_model.model.bert.encoder.layer.1.attention.self.query.lora_B.weight f4 [384, 16]
00000000: 435b 183b 233f 8ebb fc42 303b 9183 e1ba
00000010: 2ade 663b c05d f8ba 1e8f aabb cb39 79ba
00000020: 87d1 a13b 37bb c53b 2b94 88bb 5277 89bb
00000030: 63cd 8a3b 3e83 5e3b 7a6b 413b 04ad 7ebb
00000040: 4433 033b af8e 03bb a313 bc3a 32b1 a0ba
00000050: 599b fd3a cd7f e9ba 25a4 01bb a761 caba
00000060: 3c50 153b cda5 0f3b 6798 0abb 4422 e0ba
00000070: dc93 103b 9875 033b 66b8 203b 26b4 02bb
00000080: dc3e a139 c8d7 a439 614f 163b 8b44 7a39
00000090: 4546 d539 0b84 f7ba 6893 5db8 d1cd 193b
000000a0: 9704 1a39 e797 64b9 7bdd 6eba c3cb 1f3a
000000b0: f558 1f3a 8236 61b9 454c 92b9 0cbd d839
000000c0: a7c0 2b3b 904a 89bb d9b5 e03a 5159 1bbb
000000d0: 0042 603a c491 80ba 0710 55bb 4fab a7b9
000000e0: 0160 923b cc10 013b c911 02bb 59d7 caba
000000f0: 12b5 133b 83b3 503b 2b96 803b a0db 45bb
00000100: dabd ab3a c347 10bb 359c df3a 8c10 1dbb
00000110: 1382 943a f687 aaba df6f dfba 15b7 f53a
00000120: f182 ee3a 784c dc3a 0aa9 d1ba 99c9 f9ba
00000130: c28b 993a 319a 053b b59c c13a 83f3 13bb
00000140: 4592 203b ca31 82bb 3c67 d23a 98ee 25bb
00000150: 2c7c 1739 c16b 47ba e9f9 44bb 86be d1b8
00000160: e464 8b3b bc72 a23a ea66 deba 7531 95ba
00000170: 2a53 fc3a 0c09 393b c27f 6f3b fd56 0abb
00000180: dac7 2d3b 93f3 27bb 1db1 b73a 2aa3 f6ba
00000190: 5fd7 e639 25fe 7fba a874 38bb 098b 67ba
000001a0: 985c 653b acc3 a53a 074b bcba 9f0a a8ba
000001b0: 9d9b 1c3b f5eb 1c3b 8569 393b fede faba
000001c0: 6439 e13a 8da0 8fbb d9fc c13a 11b7 05bb
000001d0: 1f0b 9d3a 9510 8cba 350b 84bb 40f8 2eba
000001e0: c176 8f3b 01f7 4b3b b3d0 0bbb c455 4cbb
000001f0: 771a 313b 071c 6a3b bd5d 5a3b cf11 78bb
00000200: b961 a23a b915 c1ba 983a 233b a109 a6ba
00000210: b912 b73a f059 d1ba 04c8 b2ba 4c4c ff3a
00000220: 37e6 1e3b 430d eb3a 0d5e e8ba f83c 16ba
00000230: 2dae 153b 370a e039 0daa 353b 6cc7 25ba
00000240: 980e 0bbb 3082 83b9 cc31 a83a 234e 753a
00000250: cdb6 793a d1c9 efba be50 d0b9 f625 6b3b
00000260: e42d 11b9 9433 463a 4404 91ba 4481 aaba
00000270: 072f 1a3a ba21 b5b9 ad33 abba 5475 1cb9
00000280: 6551 32bb ea3f 8e3a 0911 cbba 2843 463b
00000290: d379 f539 5b3b 8339 c0f4 9d3a 005b 5138
000002a0: 7939 d9ba eacb 9637 2a22 483a 1ee1 3d3a
000002b0: 7430 8fba 3c24 c5ba 3af9 6cbb c4ff 823a
000002c0: e799 e3ba 465f 153b 87ea 15bb b9d7 4d3a
000002d0: f557 1dbb 503b d73a 12e9 193b a57c 013a
000002e0: 5867 23bb 4579 3cbb 8faf 3f3b fa74 c83a
000002f0: 071f 25bb f595 d9ba 6751 f8ba 234e 0a3b
00000300: 030d 4bba b9d3 573a 5cdb 25bb 9a48 e939
00000310: 95a6 caba bf06 e33a 7561 a83a 18d6 3bbb
00000320: f1ca 0fbb a5c3 86ba eee2 043b 0570 6dba
00000330: c15a 0bbb 40a5 d43a 6af2 25bb 6ff5 24b9
00000340: 841c 2ebb 7447 653b ae17 93bb 69b9 c83a
00000350: 7491 81bb ec5d 453b af02 6f3b 457f 923a
00000360: 334e 7dbb 546b 89bb 0940 983b ae23 623b
00000370: cfca 86bb d8c9 49bb 45bf 52bb edb4 533b
00000380: 56d5 4d3b 2aa2 09bb 6e91 063b 2c91 60bb
00000390: 2432 373a 6150 c5b9 d9c1 c5ba b26c 11ba
000003a0: 7328 1c3b 68e9 d03a 327b baba 074b 21bb
000003b0: 8839 e23a 05dd 3d3b 21f3 563b ddea f5ba
000003c0: 7376 acb9 2d14 243a 92be 36bb c5f1 84b8
000003d0: a692 93ba 9df2 213b c4ad 533a 21cf 20bb
000003e0: 48e4 65ba 34b7 78ba 8ebe f63a b596 133a
000003f0: 97b8 c9ba e2da 5339 9e5e 46b9 863b 5b39
0.0023247756 -0.0043410226 0.0026895395 -0.0017205348 0.0035227635 -0.0018948838 -0.005205049 -0.0009507208
0.0049383077 0.0060342806 -0.0041680536 -0.0041951323 0.00423591 0.0033952738 0.0029513524 -0.003886045
0.002001957 -0.002007406 0.0014349114 -0.001225984 0.0019348665 -0.0017814577 -0.0019781676 -0.001544048
0.002278342 0.0021918893 -0.0021147968 -0.0017100056 0.0022060787 0.0020059105 0.0024523973 -0.0019943803
0.00030755147 0.00031441287 0.0022935497 0.00023867392 0.0004067888 -0.0018883956 -5.282779e-05 0.0023468623
0.00014688294 -0.00021800362 -0.00091119827 0.00060957315 0.0006078624 -0.00021477978 -0.00027904115 0.0004133958
0.002620736 -0.0041897967 0.0017144039 -0.002370436 0.00085547566 -0.0009809067 -0.0032510774 -0.00031980357
0.004467011 0.001969385 -0.0019847027 -0.0015475556 0.0022538346 0.0031845279 0.0039241514 -0.003019072
0.0013102845 -0.002201543 0.0017060103 -0.0023966162 0.0011330269 -0.001301049 -0.001704689 0.0018746579
0.0018196983 0.0016807457 -0.0015995812 -0.0019057273 0.0011714625 0.0020386095 0.0014771434 -0.0022575564
0.0024501246 -0.0039732205 0.0016052495 -0.0025319215 0.0001444674 -0.0007607304 -0.0030056185 -0.00010001384
0.0042539705 0.0012393813 -0.0016967927 -0.0011382537 0.0019250859 0.0028234152 0.0036544655 -0.0021108978
0.0026516826 -0.002562736 0.0014014576 -0.0018816937 0.00044029483 -0.00097653485 -0.0028145704 -0.00088326685
0.0034997817 0.0012646816 -0.0014365622 -0.0012820548 0.0023896464 0.0023944352 0.0028291654 -0.0019139943
0.0017183241 -0.004383153 0.0014800086 -0.0020403306 0.0011981464 -0.0010686094 -0.0040296563 -0.00066745654
0.0043781702 0.0031122568 -0.0021334111 -0.003117905 0.002702383 0.0035722272 0.0033320033 -0.0037852412
0.0012388743 -0.0014731205 0.002490675 -0.0012667665 0.0013967372 -0.0015972238 -0.0013639932 0.0019477694
0.0024246105 0.001793303 -0.0017728225 -0.0005731131 0.0022839413 0.0004273222 0.0027719766 -0.00063239667
-0.0021218415 -0.00025083264 0.0012832223 0.00093576516 0.00095258356 -0.0018294399 -0.0003973301 0.003588078
-0.00013845373 0.00075607863 -0.0011063893 -0.0013008495 0.00058816414 -0.00034548139 -0.0013061665 -0.00014921027
-0.002720916 0.0010852788 -0.0015492748 0.003025243 0.00046820808 0.0002503049 0.0012051091 4.9914233e-05
-0.0016572914 1.7976348e-05 0.00076344854 0.0007243323 -0.0010924474 -0.0015040706 -0.0036159293 0.0009994437
-0.0017364592 0.0022792383 -0.0022875385 0.00078522746 -0.0024008725 0.0016420875 0.0023484868 0.0004939533
-0.0024933424 -0.0028758806 0.0029248928 0.0015293651 -0.0025195496 -0.0016600477 -0.0018945158 0.0021103702
-0.00077457743 0.0008233148 -0.002530775 0.00044495316 -0.0015461022 0.0017320736 0.0012846427 -0.0028661545
-0.002194103 -0.0010281695 0.0020276862 -0.0009057525 -0.002126381 0.0016223565 -0.0025321492 -0.0001573169
-0.002656729 0.0034985216 -0.004488907 0.0015314046 -0.003954107 0.0030115796 0.0036470105 0.0011176845
-0.0038651347 -0.0041937027 0.0046463055 0.003450613 -0.004113532 -0.0030790474 -0.0032157463 0.0032303885
0.0031407676 -0.0021001198 0.002053346 -0.0034266217 0.00069883675 -0.00037634655 -0.0015087678 -0.0005547508
0.002382782 0.0015938701 -0.0014227389 -0.002461137 0.0017259577 0.002897085 0.0032798725 -0.0018762011
-0.00032894648 0.000625911 -0.0027884585 -6.3392836e-05 -0.0011258915 0.002471126 0.00080749043 -0.002453752
-0.00087696733 -0.00094877486 0.00188251 0.0005630062 -0.0015390095 0.00020204068 -0.00018917999 0.00020907642

base_model.model.bert.encoder.layer.1.attention.self.value.lora_A.weight f4 [16, 384]
00000000: 0513 223c 5e3a 3bbd 7331 0abc 9093 0c3d
00000010: 3ba6 46bc 94f8 0a3d 6437 653b ecd9 0dbd
00000020: 991a 963c 73c2 143d 4b21 4dbd 3712 9a3c
00000030: db03 90bc ab4b e2bc eee1 d53c f8d7 f3bc
00000040: 7121 22bd 9b9b 2c3d a70f 9abc 006e 5fbd
00000050: 6b96 16bc e908 4ebd 00b3 1c3d ee0c a2bc
00000060: 2f65 9abc 2c61 cebb 2d00 083d 28de f8bc
00000070: 466c e7bc 2ab2 d4ba daef 20bd caff 7cbc
00000080: 6aae 183c dbb1 a3bc 8982 17bb 9cb6 96ba
00000090: 5884 22bd b2cd 3abd d609 c0bc 3227 0abc
000000a0: f38c babc af82 09bd dc15 003a 1dda 443d
000000b0: b0dc 293d fa49 173d e63f 21bd ccbf a93c
000000c0: 273e e33c 00a0 08bc 513f b2ba d2ec 81bb
000000d0: 0b12 b93c 93ab 2d3c 76a1 643c 76c3 2dbd
000000e0: 70f9 95bc d4eb 10bd 8b5b 923c c3bf 3b3d
000000f0: cc46 aebb f422 48bd 0a38 b23c 53cb 95bb
00000100: 433e de3c 2baa f23c 1449 0fbd 0e78 093d
00000110: 5021 af3c 2cd2 5f3d 5a16 3cbd 59ca 20bd
00000120: 2b42 d63c a3d7 85bc 3748 5cbd 7acf 2a3c
00000130: a90a 303b 0abe 1fbc da0e 03bd fc96 a2bb
00000140: b960 243d 52a0 4cbd 54b4 633c 1b3c 28bd
00000150: 222a d8bc 3aae 33bc 4d69 413a 183d f6bc
00000160: c3c9 b03c 4234 9abc 7407 1a3d 9a7e 803b
00000170: 7f29 e23b fd10 b83c ee8b 493d 2e28 4a3c
00000180: 43f5 a63c 9742 76bc 77cb 0f3d f074 debc
00000190: 9840 f23c 7360 52bc f1ba 99b9 6288 70bc
000001a0: 3941 14bd 8b5a 113c 6bca 913c 118c 08bc
000001b0: f769 06bd 982c 113d c7ca 293d 4afb 743c
000001c0: e21a e43c 1755 3a3c eaa6 7e3c 87d0 493d
000001d0: fa89 55bc 4bee f33c 8407 f23c a17e bd38
000001e0: 6133 9dbc c11a 063d 7166 05bd ac8a 0e3d
000001f0: 9e5a 72bc 840d 803c 9b85 2d3d 436c a93b
00000200: 692e 4ebd c529 f6bb d20c 48bc e25b 3d3b
00000210: 8c75 95bc 8468 f0ba 6ad2 eebc 8e27 fa3c
00000220: c020 f0ba b9a5 c5bb bc5d bf3c f071 48bd
00000230: 6a96 883c 39fe c63a 544d dcbc 9234 6dbc
00000240: 9fcc 8ebc 2b66 22bc 8a87 eb3c f6f6 23bd
00000250: f6af abbc 1962 24bd 3224 a03c 52a0 e73b
00000260: 4b23 debc f319 bfbc bcac 6b3c 8a52 6cbc
00000270: d910 3bbc 0a83 553d bbcd 4e3d 3e6a 59bc
00000280: 5f6b 253c 066a 85bb 5856 16bc 523c f43c
00000290: e0aa e1bc f0cf 90bc 9408 a9bb bcaf 1f3d
000002a0: 8c42 1d3b 6ae1 943c ac25 17bd d5e6 ecbc
000002b0: 8e95 9fbc b0d0 70bc e930 ea3b 3dbe eabc
000002c0: d6eb 57bd 083b ef3b ca80 2b3d e498 5c3c
000002d0: 1d76 8abc 117a 63bc c3a4 02bc e90f 433c
000002e0: 8abe 903b 6cc1 a03c 9a2a 0d3c 223c 23bd
000002f0: 07e2 963c 7883 24bd 201a 3dbd 29e4 1e3c
00000300: 7c3c c4bb d2c8 ea3c bd5b f2bb d464 03bd
00000310: cfa6 e9bc 0af3 263d a7b0 df3c 3bca 203d
00000320: fbb1 18bd 795b b2bb 070b 883c cf78 1dbc
00000330: 1f16 053d 63fd d83b 59e5 62bd f58b 21bd
00000340: e862 233d 57a7 11bb 522a c23c 0dd9 053d
00000350: 21b2 0b3d 03c8 183d 9062 d0bc a215 41bd
00000360: be48 253d d465 2fbd 6fd6 33bd df4a 473d
00000370: 2238 debc fc7f 1cbd 3196 7cbc dca2 2ebd
00000380: 9238 05bd cb88 fa3c 8e64 1f3d 9440 443d
00000390: 336d 193d 11ea 093d 9099 26bc f075 51bc
000003a0: a379 303d 2be9 8ebc 4dee 4e3d 10fd 2c3d
000003b0: 3a86 f93c 992a 2c3d 1afc 7a3b 0266 5cbc
000003c0: 4cb0 0c3d 2f31 353d f914 533c f3f0 3a3c
000003d0: 84f6 1c3d af59 493d 0a75 1ebb 75e6 0ebd
000003e0: 0f87 f6bb f378 b0bc 1cb6 bfbc 6d48 8b3c
000003f0: 6167 6c3c 6da1 cbbc 5939 19bd a045 e83c
0.00989223 -0.04570996 -0.008434641 0.034320414 -0.012124593 0.03392847 0.0034975642 -0.034631655
0.01832323 0.036318254 -0.05008058 0.018807514 -0.017579963 -0.027623972 0.026108708 -0.029766068
-0.039582673 0.042140584 -0.018806292 -0.054548264 -0.009191136 -0.050301466 0.038256645 -0.019781556
-0.018847076 -0.006298205 0.033203293 -0.03037937 -0.028249871 -0.0016227413 -0.03929124 -0.015441844
0.009318927 -0.019982269 -0.0023118577 -0.0011498514 -0.039676994 -0.045606323 -0.02344219 -0.008432196
-0.022772288 -0.033571895 0.000488607 0.04805957 0.04147023 0.036935784 -0.03936758 0.020721339
0.027739597 -0.008338928 -0.0013599192 -0.0039649988 0.022591611 0.0105999885 0.013954511 -0.042422734
-0.018307418 -0.035381153 0.017865917 0.045837175 -0.0053184982 -0.04886146 0.021755237 -0.0045713573
0.027129298 0.029622158 -0.034981802 0.03356176 0.02137819 0.054643795 -0.045919754 -0.039255474
0.026154598 -0.016338175 -0.053779807 0.010425443 0.0026861823 -0.009749899 -0.031996585 -0.0049618464
0.040131304 -0.04995758 0.013897974 -0.041072946 -0.026387278 -0.010966832 0.0007378057 -0.030058429
0.021580582 -0.018823747 0.037604764 0.003921342 0.0069019194 0.022469038 0.049205713 0.012338681
0.020380622 -0.015030525 0.03510615 -0.02715537 0.029571816 -0.012840378 -0.00029321716 -0.014680954
-0.036195014 0.008871685 0.017796716 -0.008334176 -0.0328159 0.03544292 0.04145315 0.01495249
0.02784485 0.011372826 0.015542725 0.049271133 -0.013033384 0.029776713 0.0295446 9.035809e-05
-0.019189538 0.03274036 -0.0325684 0.034800217 -0.014792113 0.015631445 0.042363744 0.0051703765
-0.05033723 -0.0075123035 -0.012210088 0.0028893878 -0.018244527 -0.0018341695 -0.029153068 0.03053644
-0.0018320307 -0.0060317186 0.023360126 -0.048936784 0.016673286 0.0015181965 -0.026892342 -0.014477866
-0.017431555 -0.009912054 0.028751153 -0.040030442 -0.020957928 -0.040132616 0.01954851 0.007068672
-0.027116438 -0.023327803 0.014384445 -0.014423976 -0.011417591 0.05212692 0.05048917 -0.013269959
0.0100964 -0.004071477 -0.009175859 0.02981392 -0.0275473 -0.017677277 -0.0051584933 0.038985953
0.0023995964 0.018173892 -0.03690116 -0.028918663 -0.019480493 -0.0146981925 0.007146944 -0.028655166
-0.052715145 0.0073007382 0.04187087 0.013464186 -0.016902024 -0.013884083 -0.007973853 0.011905649
0.0044172453 0.01962348 0.008616114 -0.03985227 0.018418325 -0.04016444 -0.046167493 0.009697952
-0.0059886556 0.028660212 -0.00739619 -0.03207858 -0.028521923 0.040759124 0.027305914 0.039255362
-0.03727911 -0.0054430333 0.01660682 -0.009611323 0.0324918 0.006622003 -0.055394504 -0.039440114
0.039889246 -0.0022224986 0.02370182 0.0326777 0.034105424 0.03730012 -0.025437623 -0.04713977
0.040352575 -0.04282172 -0.04390567 0.048655387 -0.027126376 -0.038207993 -0.015416668 -0.042635784
-0.032524653 0.030582806 0.038914256 0.04791315 0.037457656 0.03367049 -0.010168448 -0.012784466
0.04308475 -0.017445168 0.05052023 0.042233527 0.030459512 0.04203281 0.0038297237 -0.013452055
0.034347817 0.04423636 0.012883418 0.011409986 0.038321033 0.049157795 -0.0024178647 -0.03488775
-0.0075234245 -0.021542048 -0.023402266 0.017002309 0.014428944 -0.024857247 -0.037408207 0.028353512
