lora_crossencoder_has_instruction_2/checkpoint-1161/adapter_model.safetensors (safetensors, 594924 bytes, 25 tensors)

base_model.model.bert.encoder.layer.0.attention.self.query.lora_A.weight f4 [16, 384]
0	0x3c7e0f50	0.0155065805
1	0x3ccc524b	0.024941584
2	0x3c8e4fc2	0.017372016
3	0xbce2936a	-0.027658183
4	0xbd10a3b0	-0.035312355
5	0x3cac366e	0.021022048
6	0x3d069d90	0.032865107
7	0x3d5b6a55	0.053568203
8	0x3c1369cd	0.008997393
9	0xbd599a91	-0.05312592
10	0x3c2091e2	0.009800406
11	0xbc2cd1ac	-0.010548037
12	0xbc2509e6	-0.010073161
13	0x3c40a928	0.01175908
14	0xbd28c7be	-0.041206114
15	0x3d103f24	0.035216466
16	0x3d189639	0.03725264
17	0x3ba32657	0.0049789357
18	0x3b360af9	0.0027777536
19	0x389e07ba	7.535466e-05
20	0x3c21eb06	0.009882694
21	0x3c3a76c8	0.011380859
22	0x3c08c60c	0.008347999
23	0xbcd26209	-0.025681512
24	0xbb86b84e	-0.0041113263
25	0xbd6489af	-0.055795368
26	0xbc4d3480	-0.012524724
27	0xbbefff43	-0.0073241307
28	0x3d1176c6	0.03551366
29	0x3d0669f6	0.032815896
30	0xbb917c69	-0.0044398797
31	0xbd375758	-0.044761032
32	0x3cb21e45	0.02174295
33	0x3cb7e213	0.022446668
34	0x3c048db9	0.00809043
35	0xbc39b60e	-0.011334909
36	0x3ad36c5d	0.0016130317
37	0xbc38d97a	-0.011282319
38	0x3c8db4a5	0.017298052
39	0x3bf0bca8	0.0073467083
40	0x3cfd2688	0.030902162
41	0xbd28b6e9	-0.04119006
42	0x3d37d59c	0.04488145
43	0x3cde7a68	0.027157977
44	0x3d47c17a	0.048768498
45	0x3d1d56ae	0.038412742
46	0xbc850ef5	-0.016242484
47	0xba01cccb	-0.0004951476
48	0x3caf391b	0.021389535
49	0xbd356872	-0.04428906
50	0x3b3e2c59	0.0029018132
51	0xbd1c3cc9	-0.038143907
52	0xbd1536b3	-0.03642912
53	0x3c0f6cf3	0.008754003
54	0x3d5b056a	0.05347196
55	0xbd3252e0	-0.043536067
56	0xbbc56d99	-0.006025028
57	0xbc629e55	-0.013831695
58	0x3ca22cb4	0.019796707
59	0xbd27e98c	-0.040994212
60	0xbd159446	-0.036518358
61	0x3ca17b5e	0.019712146
62	0xbc8cbcd7	-0.01717989
63	0xbcf28852	-0.029606018
64	0x3c0b8c4e	0.008517338
65	0xbb9caf84	-0.0047816653
66	0xbcbf9316	-0.023385566
67	0x3d1a18ba	0.037621237
68	0x3c52c08a	0.012863288
69	0xba22f7f3	-0.0006216757
70	0xbc994fdf	-0.018714843
71	0x3c6777c6	0.014127677
72	0x3d191f1a	0.037383176
73	0x3d044208	0.032289535
74	0xbd3934c5	-0.04521634
75	0xbcd202c2	-0.02563608
76	0x3d438d18	0.04774198
77	0xbcf4e389	-0.029893653
78	0xbd3c9ccf	-0.04604798
79	0x3d2b984a	0.04189328
80	0xbd2d795b	-0.04235206
81	0x3d4c1420	0.04982388
82	0xbc203678	-0.009778611
83	0xbcec9da2	-0.028883759
84	0x3d123341	0.03569341
85	0x3ca4c21e	0.020112094
86	0xbd0c426c	-0.034243032
87	0xbd25a09b	-0.04043637
88	0x3cd64ae3	0.026158756
89	0xbd3322c1	-0.043734316
90	0x3d4c5243	0.04988314
91	0x3d413113	0.04716594
92	0x3d081c87	0.03323033
93	0xbd4bf2ce	-0.049792103
94	0xbcecfbaa	-0.028928597
95	0x3d0184d9	0.031620834
96	0xbc04bed6	-0.008102139
97	0xbd42815a	-0.04748664
98	0x3d1da721	0.038489465
99	0xbd2c749e	-0.042103402
100	0xbc792138	-0.015205674
101	0x3d212fc6	0.0393522
102	0x3caff6ac	0.021479927
103	0xbd04123c	-0.032243952
104	0xbca1a77f	-0.019733189
105	0x3d39377f	0.04521894
106	0xbb1385dc	-0.0022510206
107	0x3d2dc49a	0.042423822
108	0xbd21f9a7	-0.039544728
109	0xbc3ffdca	-0.011718223
110	0x3d13936c	0.036029264
111	0x3ca69a86	0.020337354
112	0xbd507082	-0.050888546
113	0xbcd86ac9	-0.026418107
114	0xbd2dfe2a	-0.042478718
115	0x3d2bd71a	0.041953184
116	0xbcb2b08e	-0.021812703
117	0xbc5bafe6	-0.013408637
118	0x3ce26c98	0.027639672
119	0x3ccab4e3	0.024744457
120	0xbd095321	-0.033526544
121	0x3ceee39d	0.029161269
122	0x3ccc071a	0.02490573
123	0x3b3ad189	0.002850624
124	0x3b19143a	0.0023358003
125	0xbb221bf1	-0.0024735893
126	0xbc3f0190	-0.011658087
127	0xba8abc55	-0.0010584692
128	0x3d448d5f	0.047986384
129	0x3ca4c6b9	0.02011429
130	0xbc4df325	-0.012570177
131	0xbc271a24	-0.0101991035
132	0xbc418379	-0.011811131
133	0xbd5ef14c	-0.054429337
134	0xbd01d5d3	-0.03169806
135	0x3d297624	0.041372433
136	0x3cd7970b	0.02631714
137	0xbd42739f	-0.047473546
138	0xbc9a965a	-0.018870521
139	0x3ba7a2e5	0.005115854
140	0x3c362247	0.011116571
141	0xbc3de015	-0.01158907
142	0xbc19ce54	-0.009387571
143	0x3d3c1174	0.045915082
144	0xbc4da255	-0.01255091
145	0xbc2890ae	-0.010288401
146	0xbcaf0b8f	-0.021367816
147	0x3b5e3abd	0.0033909522
148	0x3d0d7e99	0.03454456
149	0x3c928e19	0.017890023
150	0x3c414911	0.011797206
151	0xbd50e39a	-0.050998308
152	0xbcd58316	-0.026063483
153	0x3c6a71e4	0.01430938
154	0xbcc47d17	-0.023985429
155	0xbcf133af	-0.02944359
156	0xbd5b519a	-0.05354462
157	0xbd3c8f72	-0.046035238
158	0xbd17007a	-0.03686569
159	0xbce5d966	-0.028057765
160	0x3c85146b	0.016245088
161	0x3cfb45aa	0.030672867
162	0xbbcc73db	-0.006239397
163	0xbcc0577e	-0.02347922
164	0x3b70c6b4	0.003673953
165	0xbc006d41	-0.007838548
166	0xbd2da527	-0.04239383
167	0x3d25fc53	0.04052384
168	0xbcc07179	-0.023491608
169	0x3d3b6057	0.045746174
170	0xbcbf2666	-0.02333374
171	0xbcfd4aac	-0.030919395
172	0xbcda90b3	-0.026680326
173	0xbac94f33	-0.0015358686
174	0x3d1f141c	0.038837537
175	0xbcf4d4a0	-0.029886544
176	0x3d0a66e0	0.033789515
177	0x3c90da25	0.017682144
178	0x3d4494f9	0.047993634
179	0x3c749519	0.014928126
180	0x3d55da5d	0.0522102
181	0x3c37e974	0.011225093
182	0x3c369fb1	0.011146472
183	0xbd2184e5	-0.03943338
184	0x3d2a4231	0.04156703
185	0x3d36cc40	0.04462838
186	0xbd0877fa	-0.033317544
187	0x3cd8a4cd	0.02644577
188	0xbd294b34	-0.041331485
189	0x3bd645d4	0.006539086
190	0x3c1208f5	0.008913268
191	0x3d0d54c7	0.034504678
192	0x3cd1c44f	0.025606303
193	0x3c7ecbe1	0.015551538
194	0xbd0a31cf	-0.033738907
195	0x3cbd4a1d	0.023106629
196	0x3d078b4f	0.03309184
197	0xbd17edeb	-0.03709213
198	0x3ced7d6b	0.028990468
199	0xbc90f07b	-0.017692795
200	0x3b89a0a8	0.00420006
201	0x3c1f9d40	0.009742081
202	0x3cf1fa86	0.029538404
203	0x3cddbf4f	0.027068762
204	0xbc6f7861	-0.014616103
205	0xbcb5cf02	-0.022193436
206	0xbc6f5a2f	-0.014608904
207	0x3d03eb98	0.0322071
208	0xbd0d28f3	-0.03446288
209	0xbc48b107	-0.012249238
210	0x3d4f33ab	0.050586384
211	0x3cbd170d	0.02308228
212	0x3ab0f2f7	0.0013500144
213	0x3c8af2c3	0.016961461
214	0x3c60d957	0.013723693
215	0x3d08b36c	0.033374235
216	0x3ce8d186	0.028420221
217	0xbc0d788e	-0.0086346995
218	0x3cf9b1d3	0.030480301
219	0x3c6a7892	0.014310973
220	0xbd33ada4	-0.04386677
221	0x3ced1688	0.028941408
222	0xbcbed371	-0.023294182
223	0x3d1c1add	0.038111556
224	0x3d45fc29	0.04833618
225	0x3ba056c8	0.0048931576
226	0xbcd4c2ef	-0.025971858
227	0xbcb7d278	-0.022439227
228	0x3cc2edeb	0.023795089
229	0xbd337081	-0.043808464
230	0x3ccbd1b8	0.024880275
231	0x3d1e0ea8	0.038588196
232	0xbc83fb5e	-0.016111072
233	0xbd529a5a	-0.051416732
234	0xbc914f2b	-0.017737946
235	0xbd079412	-0.033100195
236	0x3ca2d405	0.01987649
237	0x3cb4345e	0.021997627
238	0xbcf9edca	-0.030508894
239	0x3cc611fd	0.0241785
240	0xbbf76404	-0.0075497646
241	0x3c17172a	0.009221831
242	0xbc43be69	-0.011947253
243	0x3d38ddad	0.04513328
244	0x3d130d1c	0.035901174
245	0xbce864b7	-0.028368337
246	0xb8fe5a3a	-0.0001212847
247	0xbd171923	-0.036889207
248	0xbd38c058	-0.04510531
249	0x3bb33c5f	0.0054698433
250	0x3d32b5d0	0.04363042
251	0xbd41c987	-0.047311332
252	0xbcc64907	-0.024204744
253	0x3cf5c8f8	0.030003056
254	0x3ce13345	0.027490268
255	0x3cdbd612	0.026835475

base_model.model.bert.encoder.layer.0.attention.self.query.lora_B.weight f4 [384, 16]
0	0x3b0c2eee	0.0021390277
1	0x3aef68dc	0.0018265503
2	0x3a6c53e7	0.0009015188
3	0xba8fd723	-0.001097415
4	0x3a8a1a2d	0.0010536365
5	0x3abcda62	0.0014408345
6	0xba9acee1	-0.0011810922
7	0xbad96a00	-0.0016587377
8	0x3aa8520a	0.0012841832
9	0xb948cc8b	-0.00019149685
10	0x376785a1	1.3799786e-05
11	0xbaa8b5f4	-0.0012871609
12	0x3ab0ec3f	0.0013498141
13	0x3a9424d7	0.0011302483
14	0x3aaac305	0.0013028091
15	0x3acaeefd	0.0015482601
16	0x3b2ea7f3	0.0026650399
17	0x3b10feac	0.0022124453
18	0xba064a60	-0.0005122777
19	0x3b2d20f5	0.002641735
20	0x3b61227d	0.0034352832
21	0x3b41f32f	0.0029594412
22	0xbb565c4b	-0.003270882
23	0xbafdcb9c	-0.0019363048
24	0x3aa9554c	0.0012919097
25	0xbb1026ba	-0.002199574
26	0x3b71b219	0.0036879836
27	0xbb877331	-0.004133605
28	0x3b16c996	0.0023008338
29	0x39878502	0.00025848305
30	0xb95d6675	-0.0002111437
31	0x3a46740c	0.0007570393
32	0xbaeaca01	-0.0017912985
33	0xbaad128b	-0.0013204379
34	0x3a64e4f4	0.00087316264
35	0x3a07f70a	0.0005186653
36	0xbae13be6	-0.0017183989
37	0xbb2ade24	-0.0026072348
38	0x3abca034	0.0014391006
39	0x3b59f983	0.0033260293
40	0xbae6cc90	-0.0017608572
41	0x3b2eb6f3	0.002665934
42	0xbaf103fe	-0.0018388031
43	0x3aae873e	0.0013315452
44	0xbb1919aa	-0.0023361244
45	0xbaae95f4	-0.0013319836
46	0xbad78d07	-0.0016445228
47	0x399feb1f	0.00030502022
48	0xba3961ec	-0.00070717814
49	0xbad9d9e2	-0.001662072
50	0x39d9f3d3	0.00041571129
51	0xbaf6b692	-0.0018822721
52	0xbaf7c2c5	-0.001890265
53	0xbac5d3e8	-0.001509306
54	0x3b0ab313	0.0021163865
55	0xba2c4037	-0.0006570848
56	0x3a2f82c7	0.00066952076
57	0xbb538e3a	-0.0032280819
58	0xbad61533	-0.0016333222
59	0x3a8028c3	0.0009777773
60	0x39b354f2	0.0003420483
61	0x3b0b4f3f	0.002125695
62	0xbafc1f0e	-0.0019235329
63	0xba8cdf41	-0.0010747687
64	0xbab1aa2a	-0.0013554741
65	0xbaf50c27	-0.0018695638
66	0xbb0e89f6	-0.0021749712
67	0x3a7522f5	0.00093512173
68	0xba0be5f5	-0.00053366955
69	0xba320ade	-0.00067917805
70	0x39f7e78c	0.00047284027
71	0x3b350f7e	0.0027627642
72	0x3831cbeb	4.2390002e-05
73	0x3af7cc39	0.0018905468
74	0x3a071b4e	0.000515391
75	0x3a652f5c	0.0008742714
76	0xba87ba9a	-0.0010355294
77	0xbb835d75	-0.0040089437
78	0xbaa92b48	-0.0012906576
79	0xbb56dc85	-0.0032785248
80	0x3ae62cf4	0.0017561004
81	0x3abcac71	0.0014394653
82	0xb983411e	-0.00025034783
83	0x38d554fa	0.000101724596
84	0x3b1b88b6	0.002373261
85	0x3b2a8455	0.0026018817
86	0xbb17cb6e	-0.0023162025
87	0xbabeaf22	-0.0014548043
88	0x3aea0ec2	0.0017857181
89	0xbaa01c8a	-0.0012215537
90	0x3b3853f5	0.0028126214
91	0xbb12db92	-0.0022408706
92	0x3aed32f1	0.0018096847
93	0xb925f167	-0.00015825556
94	0x3a446c0c	0.0007492907
95	0x3a3a21f8	0.00071003987
96	0x3a9be324	0.0011893255
97	0x39cab788	0.00038665184
98	0xbb126271	-0.0022336508
99	0x3b0861af	0.0020810177
100	0x3b0781d7	0.0020676756
101	0x3af0d415	0.0018373752
102	0xbaec670f	-0.0018036085
103	0xba107a3b	-0.0005511378
104	0xbaa31881	-0.0012443216
105	0x3a931ee4	0.0011224416
106	0x3b0f4c69	0.0021865612
107	0xbaf02d52	-0.0018324053
108	0x3a9d5220	0.0012002625
109	0xbb7f6336	-0.0038969046
110	0xba9dc981	-0.0012038202
111	0xbb33b6de	-0.002742223
112	0x3b4ddd1b	0.0031412307
113	0x3b121ec0	0.002229616
114	0xb931da0d	-0.00016961266
115	0x3a37d777	0.0007013003
116	0x3b1dee31	0.0024098272
117	0x3b692c4d	0.0035579384
118	0xbb16f123	-0.0023031912
119	0xbb2cc640	-0.0026363283
120	0x39ee6600	0.00045470893
121	0xbab047f4	-0.0013449178
122	0x3aee4266	0.0018177747
123	0xbb665a1c	-0.0035148924
124	0x3b3ae863	0.002851986
125	0x3aaaca5f	0.0013030282
126	0x3905e5bd	0.00012769453
127	0x3a8020cb	0.0009775398
128	0xbb04a753	-0.0020241335
129	0xbacb8cea	-0.0015529667
130	0xba66fa91	-0.0008811141
131	0x3ac04a89	0.0014670651
132	0xba5cedb1	-0.0008427753
133	0xbb1c8c57	-0.002388736
134	0x38e69c8f	0.00010996416
135	0x3ad7be34	0.0016459883
136	0xbb1ae7fb	-0.0023636806
137	0x3a99dd0a	0.0011738848
138	0x3a26836e	0.0006351982
139	0x39938002	0.00028133398
140	0xbac5350e	-0.0015045719
141	0xba9be321	-0.0011893251
142	0xba74f1ff	-0.00093439216
143	0xba936e14	-0.0011248016
144	0x3b7ca407	0.0038549916
145	0x3b2dced3	0.0026520982
146	0x3a70723b	0.0009172295
147	0xbabc8c4b	-0.0014385072
148	0x3ac6ab05	0.0015157169
149	0x3b624646	0.003452675
150	0xbaa2f2d5	-0.0012431989
151	0xbb8d95f5	-0.004320855
152	0x3b1e78df	0.0024180932
153	0xbb407e68	-0.002937222
154	0x3a3e2d66	0.00072546897
155	0xbb0933ce	-0.002093542
156	0x3b51904d	0.003197688
157	0x3b1fec97	0.0024402493
158	0x3a639593	0.0008681651
159	0x3b3fa9a5	0.0029245403
160	0xbb788daf	-0.0037926247
161	0xbb5338c5	-0.0032229882
162	0xba7f6309	-0.00097422354
163	0x39d1e536	0.00040034362
164	0xbb534db4	-0.003224236
165	0xbb4f8d9a	-0.0031670094
166	0x3b0a3dc6	0.0021093949
167	0x3b3b62ec	0.0028592898
168	0xbb0146cd	-0.0019726038
169	0x3b255dc4	0.002523289
170	0xbaa156fd	-0.001230925
171	0x3b020064	0.0019836659
172	0xbb427196	-0.0029669753
173	0xbacfd632	-0.0015856682
174	0xbaec98bc	-0.001805089
175	0xbb0e15e4	-0.0021680528
176	0xb9d2d1ca	-0.00040210626
177	0xba30a16c	-0.0006737921
178	0xbaf1178d	-0.001839386
179	0x3abb844d	0.0014306396
180	0x3aec2bad	0.0018018387
181	0xba34368f	-0.0006874585
182	0xbabbf16b	-0.0014338916
183	0x3a72be92	0.00092599646
184	0xbb2c100f	-0.002625469
185	0x3ad55b39	0.0016277797
186	0x3b154d4b	0.0022781666
187	0xba9f59c8	-0.0012157494
188	0xba931c0d	-0.001122357
189	0xbaa7c5a8	-0.0012799995
190	0xbaa40636	-0.0012514058
191	0xbadfed28	-0.0017084228
192	0x3b9feb79	0.0048803654
193	0x3b053949	0.0020328334
194	0xbb0910f2	-0.0020914641
195	0x3b1712c2	0.0023051952
196	0x3b7e87aa	0.0038838186
197	0x3b825e9d	0.003978564
198	0xbb644bcb	-0.0034835215
199	0xba8b0224	-0.0010605496
200	0xbaf94d89	-0.00190203
201	0x39e024ff	0.00042752174
202	0x3b5aee7c	0.0033406308
203	0xbb8c0d09	-0.004274015
204	0x3b7a14b8	0.0038159322
205	0xbb0141dd	-0.0019723095
206	0x39d9388c	0.00041431596
207	0x37a17db4	1.925123e-05
208	0x3ba1ce61	0.0049379324
209	0x3b812be5	0.003942
210	0xb9d804d0	-0.00041202316
211	0x3a01cfd5	0.0004951929
212	0x3b77f48c	0.003783497
213	0x3ba6a7ed	0.0050859363
214	0xbb60526c	-0.0034228815
215	0xbbac6f2c	-0.005262276
216	0x3ae8f700	0.0017773807
217	0xbb83645a	-0.0040097656
218	0x3b515135	0.0031939272
219	0xbb9136b0	-0.004431568
220	0x3b75bb43	0.003749565
221	0x3b150be0	0.0022742674
222	0x3a7e69e1	0.0009705108
223	0x3a9bd5ec	0.0011889315
224	0x3aaaff18	0.0013045995
225	0x3a0dfd30	0.0005416451
226	0xba0f4aa9	-0.00054661423
227	0x3ac0cac4	0.0014708866
228	0x3ac8420d	0.0015278474
229	0x3b07e9b7	0.002073867
230	0xbac653fd	-0.0015131232
231	0xba53a0a0	-0.0008072946
232	0x3aade402	0.0013266804
233	0xba9952d4	-0.0011697658
234	0x3b1c0360	0.0023805723
235	0xbafa8bea	-0.0019115184
236	0x3a838bee	0.0010036209
237	0x37b9c638	2.2146021e-05
238	0xba2c513e	-0.00065733853
239	0xba5493a2	-0.0008109157
240	0xb99588c6	-0.000285214
241	0xb9e211c5	-0.00043119318
242	0xb9306e8d	-0.00016825851
243	0x3a142fbc	0.0005652865
244	0x3979f5ca	0.00023838054
245	0x366b3e3a	3.505395e-06
246	0xb91f195c	-0.00015172869
247	0x3a30d0d1	0.0006744983
248	0x3b06ab50	0.0020548888
249	0xb95aed55	-0.00020878513
250	0x39df3e38	0.0004258023
251	0xb985d6b0	-0.00025527691
252	0xb9815d2c	-0.00024674216
253	0xba14f646	-0.00056824496
254	0xba213b61	-0.0006150511
255	0xbac6c81f	-0.0015165842

base_model.model.bert.encoder.layer.0.attention.self.value.lora_A.weight f4 [16, 384]
0	0xbbfaaf42	-0.007650287
1	0xbd1526a8	-0.03641382
2	0xbcf5d18e	-0.03000715
3	0x3bacb836	0.005270983
4	0xbd112e6a	-0.035444655
5	0xbca7d781	-0.020488502
6	0x3d37611b	0.04477034
7	0xbc372b8a	-0.011179814
8	0xbcbdb817	-0.02315907
9	0xbd16bfca	-0.036803998
10	0x3cfdd923	0.030987328
11	0xbc5546e7	-0.013017393
12	0xbd0a0e2c	-0.03370492
13	0xbd14e513	-0.036351275
14	0xbd1ec5d9	-0.0387629
15	0xbc20acd8	-0.009806834
16	0x3c42cdda	0.011889899
17	0x3d34d270	0.044146
18	0xbd23eb34	-0.04001923
19	0x3d3f3bff	0.046688076
20	0x3accbc87	0.001562015
21	0xbd5ce0ff	-0.05392551
22	0xbd498c9a	-0.049206354
23	0xbd1d614c	-0.038422868
24	0x3d356226	0.044283055
25	0xbd5c9324	-0.05385126
26	0x3d27b566	0.04094448
27	0xbd49439b	-0.04913674
28	0x3c72a509	0.014809855
29	0xbcc46a42	-0.023976449
30	0x3c8a800b	0.016906759
31	0xbc3c271a	-0.011483932
32	0xbcf503a8	-0.02990897
33	0xbd43e110	-0.04782206
34	0xbc18168f	-0.009282722
35	0xbcc594b4	-0.024118759
36	0x3c1cfe2e	0.009582086
37	0xbcf148bf	-0.029453633
38	0x3c903232	0.01760206
39	0x3cbb6a1e	0.022877749
40	0xbd30e131	-0.04318351
41	0x3cbf8e05	0.02338315
42	0x3d2b4505	0.04181387
43	0x3c79cce1	0.015246601
44	0x3cbe4a27	0.023228718
45	0x3bffb271	0.0078032543
46	0x3d1158c1	0.035485033
47	0xbd32c827	-0.04364791
48	0xbb2ca8c9	-0.002634572
49	0x3c89e4e6	0.01683278
50	0x3cd7da90	0.026349336
51	0x3c979138	0.018501863
52	0x3cf389b2	0.029728744
53	0xbc4516c1	-0.012029351
54	0xbc78be93	-0.015182155
55	0x3bb3a55f	0.0054823603
56	0x3d5ad1af	0.053422626
57	0x3d18b363	0.03728045
58	0xbd48a33e	-0.048983805
59	0xbc4fbd85	-0.012679462
60	0x3c1b40af	0.009475871
61	0xbc960d36	-0.018316846
62	0xbc114410	-0.008866325
63	0xbd2c5267	-0.042070772
64	0xbd3c4a21	-0.045969132
65	0x3c02f7df	0.007993667
66	0x3d250a43	0.04029299
67	0x3cd92108	0.026505008
68	0xbcdc656e	-0.026903834
69	0xbd68268c	-0.056677386
70	0xbcb380a8	-0.021911934
71	0x3b3d2187	0.0028859095
72	0xbd426d4d	-0.04746752
73	0x3d07c6dc	0.03314863
74	0xbcd827c0	-0.026386142
75	0x3d10a6bf	0.03531527
76	0xbd227902	-0.039666183
77	0x3b7d89b8	0.0038686823
78	0xbd5aa737	-0.053382125
79	0x3d39d96d	0.04537337
80	0xbd52c12c	-0.051453754
81	0x3d3f1a87	0.046656158
82	0xbd252d4c	-0.0403264
83	0x3d217980	0.039422512
84	0xbb507966	-0.003181064
85	0x3b696cb3	0.0035617768
86	0x3d107519	0.035267923
87	0x3b98e570	0.004666023
88	0xbcba5402	-0.022745136
89	0xbd529b58	-0.05141768
90	0x3a85f209	0.0010219227
91	0xbb94503b	-0.004526166
92	0x3d5b5f5f	0.05355775
93	0xbb90abfb	-0.004415033
94	0x3d05433f	0.032534834
95	0x3b6bc1b0	0.00359736
96	0xbc8eeb14	-0.017446078
97	0xbc498232	-0.012299107
98	0xbbc8de44	-0.0061300118
99	0xbd591ad3	-0.053004097
100	0x3c84574c	0.016154908
101	0xbc083a34	-0.008314658
102	0xbcac10eb	-0.02100416
103	0x3d1600e5	0.036621947
104	0x3b8b45ed	0.004250279
105	0x3d22ff19	0.03979406
106	0xbc9184bb	-0.017763486
107	0x3d0a62ba	0.03378556
108	0xbcfe2073	-0.031021332
109	0xbc672a41	-0.014109195
110	0xbc9f38ed	-0.019436324
111	0xbc30bf93	-0.010787862
112	0xbcf06f72	-0.029350016
113	0xbd6690eb	-0.05629055
114	0x3cfdb525	0.030970166
115	0xbd041940	-0.032250643
116	0xbcca854b	-0.024721762
117	0x3d635543	0.055501234
118	0xbc5cd15a	-0.013477648
119	0x3d4a2419	0.04935083
120	0xbd16514f	-0.036698636
121	0xbcbcb4af	-0.023035375
122	0x3d02e765	0.031958956
123	0xbc8be6b5	-0.017077783
124	0x3d13cc5b	0.03608356
125	0xbcd057e5	-0.025432536
126	0xbd0f4db7	-0.034986224
127	0x3c76cdf3	0.015063751
128	0xbd01a377	-0.031650033
129	0xbcbf1d60	-0.023329437
130	0x3d3b1ffe	0.045684807
131	0x3d696e9b	0.056990247
132	0xbc2cc888	-0.010545857
133	0xbcc7b652	-0.02437893
134	0x3d170c88	0.036877185
135	0xbd1a4bb6	-0.03766986
136	0x3bf5fbbc	0.0075068157
137	0xbc77362a	-0.015088597
138	0xbd5237ab	-0.05132262
139	0xbd098b65	-0.033580203
140	0xbd269492	-0.04066903
141	0x3b7941c3	0.0038033582
142	0x3d04706e	0.032333784
143	0xbd076096	-0.033051096
144	0x3d08d59d	0.033406842
145	0x3c711d14	0.014716405
146	0x3cfe18cb	0.031017682
147	0x3c840ad4	0.016118445
148	0xbd33a5b2	-0.04385919
149	0x3bd373c3	0.006453009
150	0xbd149cb1	-0.036282245
151	0xbd591fd3	-0.053008866
152	0xbd2901bc	-0.04126142
153	0xbd1e4ce8	-0.038647562
154	0x3c11d48a	0.008900771
155	0x3d003239	0.031297896
156	0x3d1c683e	0.03818535
157	0xbcdf7926	-0.027279448
158	0xbbb2b259	-0.0054533896
159	0x3cacf7fb	0.02111434
160	0xbcc9fa00	-0.024655342
161	0x3d162a10	0.036661208
162	0x3ce9b470	0.028528422
163	0xbd0ecd84	-0.034863964
164	0x3cd88105	0.026428709
165	0x39ada55f	0.00033120342
166	0x3c144e60	0.009051889
167	0xbbcfe938	-0.0063449405
168	0x3c8e8575	0.017397622
169	0xbd102465	-0.03519096
170	0x3d2e38ea	0.042534746
171	0xbc8fe91c	-0.01756721
172	0xbcdb8299	-0.026795672
173	0xbbe81e06	-0.007083657
174	0xbcf67db9	-0.030089246
175	0xbd5ca2f3	-0.053866338
176	0x3c770d93	0.01507892
177	0x3c7c12c5	0.015385334
178	0x3c1c5529	0.009541788
179	0x3d52aac4	0.051432386
180	0x3d34e87e	0.044167034
181	0x3c28f9be	0.010313449
182	0xbc790305	-0.015198474
183	0xbcec1905	-0.028820524
184	0xbc8410b2	-0.016121242
185	0xbc7ec5fa	-0.015550131
186	0xbd01e81d	-0.0317155
187	0xbd387766	-0.045035742
188	0x3a41364e	0.0007370458
189	0x3cb07dba	0.021544326
190	0x3c73e88e	0.014886988
191	0xbb83a3b8	-0.0040173195
192	0xbca363d6	-0.019945066
193	0xbd0c641b	-0.034275156
194	0xbd46ea49	-0.048563275
195	0xbd5300d3	-0.051514458
196	0x3d5acf55	0.053420383
197	0x3d27bc8d	0.0409513
198	0x3c9eca1c	0.019383483
199	0x3c5294c3	0.01285285
200	0xbd33fbf8	-0.043941468
201	0xba962dea	-0.0011457775
202	0x3d263ded	0.0405864
203	0xbcb2ca50	-0.021824986
204	0x3d0e2813	0.034706187
205	0x3c780c41	0.01513964
206	0x3d05e05e	0.032684676
207	0xbc122a56	-0.0089212265
208	0xbce8f894	-0.028438844
209	0x3ceb1be7	0.028699828
210	0x3d516223	0.05111898
211	0x3c8dc64a	0.017306466
212	0x3d0d5cec	0.034512445
213	0x3b98cda9	0.0046631885
214	0xbd2ffb44	-0.042964235
215	0xbc854402	-0.01626778
216	0x3cdb4b92	0.026769433
217	0xbd120a9d	-0.035654653
218	0x3ab42bd7	0.0013745975
219	0xbd26d414	-0.040729597
220	0xbc1813dd	-0.0092820795
221	0x3d24a678	0.04019782
222	0x3d34b540	0.044118166
223	0x3b01bbb1	0.001979571
224	0x3d4d4b22	0.05012048
225	0xbd2f5b7a	-0.04281185
226	0x3d370728	0.04468456
227	0xbcb11efa	-0.021621216
228	0xbba2a237	-0.004963185
229	0xbc32445a	-0.010880554
230	0x3ac3c1b0	0.0014935043
231	0xbd21196c	-0.039330885
232	0xbd395463	-0.045246493
233	0x3c5f820b	0.0136418445
234	0xbc8d0864	-0.017215915
235	0x3cb76d7a	0.02239107
236	0xbc872944	-0.01649917
237	0xbcbe6409	-0.02324106
238	0x3c19dc7a	0.009390945
239	0x3cd4ef6c	0.025993071
240	0xbce91612	-0.028452907
241	0xbd4a39bf	-0.049371477
242	0xbc3fb97c	-0.011701938
243	0xbb151fd1	-0.002275456
244	0xbc4f618d	-0.012657535
245	0xbce0ab66	-0.02742548
246	0xbcf42f5a	-0.029807735
247	0xbb86928b	-0.0041068248
248	0xbd0d880c	-0.034553573
249	0xbcb49127	-0.02204187
250	0xbd613397	-0.05498084
251	0xbd0cff58	-0.034423202
252	0xbd0c0631	-0.034185592
253	0x3cb747e2	0.022373144
254	0x3c7709b0	0.015077993
255	0x3d596665	0.053076167

base_model.model.bert.encoder.layer.0.attention.self.value.lora_B.weight f4 [384, 16]
0	0xba28a7d4	-0.00064337
1	0x3a13f4ea	0.00056441
2	0x372ccb93	1.0299397e-05
3	0x3a3f9b57	0.0007309219
4	0xba87a6b5	-0.0010349365
5	0xb9a46e3b	-0.00031362646
6	0xbafca410	-0.0019274969
7	0xba8cc94b	-0.0010741142
8	0x39d457dc	0.0004050125
9	0xba34dd4d	-0.00068994315
10	0x3ad08ecf	0.0015911701
11	0xba017d3b	-0.000493962
12	0x38f3ea5e	0.00011630797
13	0xba9e989b	-0.0012099923
14	0x3a7a2df0	0.00095435884
15	0x3a6f9738	0.000913966
16	0xbaf3b993	-0.0018594734
17	0xbb33ada0	-0.002741672
18	0x3b5a0b37	0.0033270845
19	0xbb4990fe	-0.0030756588
20	0x3b69ec9a	0.0035694004
21	0xbb3bf706	-0.0028681173
22	0x3b3e915a	0.0029078336
23	0x3b20f2a6	0.0024558692
24	0xbb5ac1f8	-0.0033379775
25	0x3b5f86ef	0.0034107526
26	0xbb0eb1fc	-0.0021773567
27	0x3b5819d3	0.0032974377
28	0x3b0477af	0.0020212939
29	0x3b0f2e27	0.0021847577
30	0x3b250463	0.0025179617
31	0x3ba98606	0.0051734475
32	0xbabaa018	-0.0014238385
33	0xbbc3cd93	-0.005975434
34	0x3b45abfb	0.0030162323
35	0xbbd1aa5e	-0.006398483
36	0x3bc03c57	0.005866568
37	0xbaeff546	-0.001830735
38	0x3bb86a72	0.0056279236
39	0x3b9a377f	0.0047063227
40	0xbbda98a7	-0.0066710296
41	0x3bbc48a3	0.0057459637
42	0xbb8614d8	-0.0040918402
43	0x3bd6362a	0.0065372186
44	0x3add59b4	0.0016887696
45	0x3b863966	0.004096198
46	0x3aebdd7c	0.0017995085
47	0x3b8524da	0.004063231
48	0x3a143180	0.0005653128
49	0xbb025878	-0.0019889157
50	0x38dad259	0.0001043423
51	0xbb00d394	-0.001965736
52	0x3aee4fe8	0.0018181773
53	0x3a20a4eb	0.00061280903
54	0x3b1b255d	0.0023673393
55	0x3ae76a28	0.0017655538
56	0xbb0c21d6	-0.0021382472
57	0x3ac34d72	0.00149004
58	0xbae2afde	-0.0017294844
59	0x3b05bca1	0.002040662
60	0xba208345	-0.00061230763
61	0x3ac89f4c	0.0015306263
62	0xba439f71	-0.0007462418
63	0x3aee042c	0.0018159202
64	0x3b960081	0.004577697
65	0x3a826a5e	0.0009949913
66	0xbb1e916d	-0.0024195567
67	0x3ac5c57b	0.0015088761
68	0xb9db496b	-0.00041825636
69	0x3b0e6caa	0.002173225
70	0xba6ebd94	-0.0009107229
71	0xb9a47b93	-0.00031372588
72	0x3a807297	0.0009799775
73	0xba621214	-0.00086239097
74	0x39ec1170	0.0004502642
75	0xba716798	-0.0009208857
76	0xbb379321	-0.002801128
77	0xb9b9dfff	-0.0003545284
78	0xbb835726	-0.0040081916
79	0xba9895a8	-0.0011641281
80	0x3ac8d71d	0.0015322898
81	0x3971b475	0.00023050777
82	0xba64945a	-0.0008719616
83	0x399cc8fb	0.0002990438
84	0x3a932095	0.001122492
85	0x3a413e93	0.000737169
86	0x3a2ace28	0.0006515705
87	0x3a318eba	0.0006773282
88	0x37cd8bea	2.4503057e-05
89	0x3a5cac17	0.00084179774
90	0xba957b90	-0.0011404622
91	0x38ea4045	0.000111699606
92	0xbaa2e292	-0.0012427142
93	0x3a87a5d2	0.0010349101
94	0xba8d964c	-0.0010802238
95	0x399c39a9	0.000297976
96	0x3aefdac1	0.0018299447
97	0x3b06ca39	0.0020567311
98	0xbb13f4a2	-0.0022576232
99	0x3b1918e4	0.0023360783
100	0xbb37e55c	-0.0028060293
101	0x3af2dae8	0.0018528374
102	0xbb0a64cf	-0.0021117216
103	0xbb06b10c	-0.0020552306
104	0x3b24d4dc	0.0025151288
105	0xbb2e7d31	-0.0026624913
106	0x3af053cc	0.001833552
107	0xbb25e7ef	-0.0025315245
108	0xba6bc832	-0.000899437
109	0xbaf5323a	-0.0018706985
110	0xbb0d6050	-0.00215723
111	0xbb813532	-0.003943109
112	0x3b1921bf	0.0023366062
113	0x3b3e5491	0.0029042105
114	0xbb10d70a	-0.002210083
115	0x3b4af85f	0.0030970795
116	0xbb00affd	-0.0019636147
117	0x3b132917	0.0022454911
118	0xba78f9b6	-0.0009497659
119	0xbb229b09	-0.0024811646
120	0x3b48371a	0.0030550421
121	0xbb06c39f	-0.0020563377
122	0x3a6684a6	0.000879357
123	0xbb31bca7	-0.0027120502
124	0xbb16ec63	-0.002302908
125	0xbabd3f77	-0.001443847
126	0xbb19ff24	-0.0023498023
127	0xbb08f6aa	-0.0020898976
128	0xbb34f53c	-0.0027611991
129	0xbaba4320	-0.0014210679
130	0x3b1b44c1	0.0023692104
131	0xbaafaaf2	-0.0013402386
132	0x3a2fe7f4	0.0006710284
133	0xbb1c2e25	-0.0023831215
134	0x3a23a43b	0.0006242429
135	0x3a2e9275	0.0006659397
136	0xbac90a5c	-0.001533817
137	0x3a243888	0.00062645273
138	0xb95edf37	-0.00021254724
139	0x3ac0fd89	0.0014723997
140	0x3b32c634	0.0027278783
141	0x399b9cd5	0.00029680753
142	0x3b2d673b	0.0026459235
143	0x3b046e0f	0.0020207202
144	0xba0eb55d	-0.00054438954
145	0x3aa7bc97	0.0012797293
146	0xb9cab3f6	-0.00038662524
147	0x3aa5a7dd	0.0012638528
148	0xba1ae7dc	-0.00059091835
149	0x3a594d95	0.00082894537
150	0xba8d0249	-0.0010758127
151	0xba9f49ef	-0.0012152771
152	0x3a80d404	0.000982881
153	0xba5eae71	-0.0008494622
154	0x3ac2a6f9	0.0014850787
155	0xba64ad40	-0.0008723326
156	0xba3cb4d3	-0.0007198576
157	0xbaad9eab	-0.0013246139
158	0x39e8ca6f	0.00044401313
159	0x3aa77a9e	0.0012777632
160	0xbaffa401	-0.0019503833
161	0x3a429155	0.0007422169
162	0x3b0f006c	0.002182032
163	0x3a5aa275	0.0008340248
164	0xbb0f11b1	-0.0021830613
165	0xbb0a17a6	-0.0021071224
166	0xbb00b4f2	-0.0019639102
167	0xbae1e432	-0.0017234145
168	0x3a98a367	0.0011645377
169	0xbae82492	-0.0017711094
170	0x3af569bf	0.0018723531
171	0xba9b97db	-0.0011870818
172	0x3b16fb9e	0.002303816
173	0xbae5ac3b	-0.0017522642
174	0x3ae06b42	0.0017121809
175	0xb9755f3d	-0.000234005
176	0xba02a3e0	-0.0004983526
177	0x3aeb350f	0.001794489
178	0xba9b96a6	-0.0011870458
179	0x3af90339	0.0018998153
180	0xbb32dea2	-0.0027293344
181	0x3aa07d93	0.0012244455
182	0xbb27d324	-0.0025608027
183	0xbb1980a3	-0.002342262
184	0x3b0ac0c1	0.002117202
185	0xbb20dd57	-0.0024545991
186	0x3b1791b9	0.002312763
187	0xbb0aa980	-0.0021158159
188	0xba181f6f	-0.0005803024
189	0xbb13c0cb	-0.0022545333
190	0xba2968ef	-0.00064624747
191	0xbb346bcb	-0.002753007
192	0xbb509e70	-0.0031832717
193	0xbb0edeee	-0.0021800357
194	0x3b4b5fd0	0.003103245
195	0xbb2b6a3c	-0.002615585
196	0x3b344007	0.0027503984
197	0xbb25d787	-0.0025305466
198	0x3b468085	0.0030289006
199	0x3afdbdfa	0.0019358986
200	0xbb3247b0	-0.0027203374
201	0x3b28f3b0	0.0025780015
202	0xbaf9dfd9	-0.0019063904
203	0x3b2e6292	0.0026609045
204	0x3b33dea4	0.0027445937
205	0x3af019d2	0.0018318242
206	0x3b474d86	0.0030411198
207	0x3b6286b3	0.003456515
208	0xbb23e389	-0.0025007448
209	0xbb2efc63	-0.0026700727
210	0x3b40c537	0.0029414424
211	0xbb87b8bb	-0.0041418946
212	0x3b91d3a0	0.0044502765
213	0xbb08dfb9	-0.0020885302
214	0x3b8ba987	0.0042621526
215	0x3b5bda02	0.003354669
216	0xbb737e2a	-0.0037154057
217	0x3b7dafad	0.0038709447
218	0xbb2bff12	-0.0026244563
219	0x3b8450e3	0.0040379628
220	0x3b028cb2	0.0019920287
221	0x3b29a005	0.0025882733
222	0x3b333e22	0.0027350266
223	0x3b76872a	0.0037617185
224	0x3b0b2d62	0.0021236767
225	0x3b48fbfa	0.0030667768
226	0xbb58428b	-0.0032998647
227	0x3b57b746	0.0032915636
228	0xbb2d4cc3	-0.0026443459
229	0x3b270e50	0.0025490709
230	0xbb370568	-0.0027926806
231	0xbb294d3d	-0.002583339
232	0x3b4812cc	0.0030528782
233	0xbb33f960	-0.0027461872
234	0x3b2407db	0.0025029096
235	0xbb44ecd0	-0.0030048378
236	0xbb2ca95b	-0.002634606
237	0xbb219fe1	-0.0024661946
238	0xbae32c3f	-0.0017331912
239	0xbb240f69	-0.00250336
240	0x3a892d55	0.001046578
241	0x3ac298fe	0.0014846621
242	0xba1dd5da	-0.0006020941
243	0x3ad5ca83	0.0016310964
244	0xbb09962a	-0.0020994046
245	0x3a52e907	0.0008045588
246	0xbace21c1	-0.0015726612
247	0xbacb4aa5	-0.0015509917
248	0x3afc9dfc	0.0019273157
249	0xbaf63d36	-0.0018786553
250	0x3abc0270	0.0014343988
251	0xbaf4d52e	-0.0018679255
252	0xba2e9636	-0.00066599564
253	0xbab3b2ae	-0.0013709867
254	0xbac4f585	-0.0015026784
255	0xbac144dd	-0.0014745254

base_model.model.bert.encoder.layer.1.attention.self.query.lora_A.weight f4 [16, 384]
0	0x3d25d6b8	0.040487975
1	0xbd405369	-0.046954546
2	0xbce8daf6	-0.028424721
3	0x3b55d9ee	0.0032631117
4	0x3d3abe88	0.04559186
5	0x3cbac87d	0.022800678
6	0x3cdd8add	0.027043754
7	0x3d407f93	0.046996664
8	0xbb49779c	-0.0030741459
9	0xbbf8bac1	-0.007590622
10	0x3d2e38f8	0.0425348
11	0xbce89524	-0.028391428
12	0x3d157be2	0.036495097
13	0x3c7ca942	0.015421214
14	0x3b607168	0.0034247283
15	0x3cc0bc87	0.023527397
16	0xbd1724b4	-0.036900237
17	0x3cf1a33a	0.029496778
18	0x3c9faa07	0.019490255
19	0xbbd332b9	-0.0064452556
20	0xbcdbb317	-0.026818795
21	0xbd36d2cc	-0.044634625
22	0xbd5ac218	-0.05340776
23	0x3cc92b88	0.02455689
24	0xbd317b68	-0.04333058
25	0x3c984c19	0.018590974
26	0xbc9d5b75	-0.01920865
27	0x3ce6ae17	0.028159184
28	0x3cb26537	0.021776779
29	0x3c3d960e	0.01157142
30	0xbd43291d	-0.04764663
31	0xbd1c0f08	-0.038100272
32	0xbd3d438a	-0.04620699
33	0xbd4e913a	-0.050431468
34	0xbcf6de60	-0.030135334
35	0x3ccfb57f	0.025355099
36	0x3ce0393f	0.027371047
37	0xbb1a938c	-0.002358648
38	0x3c87d619	0.016581582
39	0x3bbb01a7	0.005706984
40	0xbc990fb0	-0.018684238
41	0xbd30b6d4	-0.04314311
42	0x3d0c248a	0.034214534
43	0xbd3977b6	-0.04528018
44	0xbcc17547	-0.023615493
45	0xbcf4c27b	-0.029877892
46	0xbbb06a1a	-0.005383742
47	0x3cbf8a28	0.023381308
48	0xbc952d96	-0.018210214
49	0xbb48d1d2	-0.003064264
50	0xbb40f22e	-0.0029441225
51	0xbd47239e	-0.04861795
52	0x3b8f2be3	0.0043692454
53	0x3d4d9104	0.050187126
54	0xbd1508b9	-0.03638527
55	0x3d236aca	0.039896764
56	0xbd407e9f	-0.046995755
57	0xbd0169f6	-0.031595193
58	0x3cad8109	0.021179693
59	0x3bb3f5f7	0.005491968
60	0x3cd3fbff	0.025876997
61	0xbc54ca44	-0.012987677
62	0xbc8a4e62	-0.016883079
63	0x3c6520ca	0.013984868
64	0x3c2bf2d7	0.010494909
65	0x3c908e79	0.017646061
66	0xbc078717	-0.008271954
67	0x3be1befa	0.0068892213
68	0x3aa8edf9	0.0012888304
69	0xbc989b97	-0.018628879
70	0x3d4449c8	0.047921926
71	0xbbd71c21	-0.0065646325
72	0xbc1be31d	-0.009514597
73	0xbc50c2e2	-0.012741776
74	0x3bcb02c9	0.0061954004
75	0xbd4d5e55	-0.05013879
76	0x3d4569cd	0.048196603
77	0xbcf5c245	-0.029999861
78	0x3ce3051e	0.027712401
79	0x3d1f9017	0.038955774
80	0x3d1048d8	0.03522572
81	0x3c7dba42	0.015486302
82	0x3d46a1af	0.048494037
83	0x3d099570	0.03358978
84	0xbd1a8b84	-0.03773071
85	0xbc3c0904	-0.011476759
86	0x3caf071a	0.021365691
87	0x3c355eaa	0.011069933
88	0xbd05488f	-0.0325399
89	0x3b0b0528	0.002121279
90	0xbc6725d0	-0.014108136
91	0x3bb2d4cd	0.0054574967
92	0x3ccd4747	0.025058402
93	0xbd2f4ed0	-0.04279977
94	0xbd052fc4	-0.032516256
95	0xbc9865f9	-0.018603312
96	0x3d3594f0	0.04433149
97	0xbcaf5568	-0.02140303
98	0x3d2c7c62	0.04211081
99	0xbcd4f43c	-0.025995366
100	0xba16d128	-0.00057532126
101	0x3beb3712	0.0071781958
102	0xbd3e37c3	-0.046439897
103	0x3cbc05d1	0.022951992
104	0xbd29d900	-0.041466713
105	0x3d019e67	0.031645205
106	0xbcc3cb56	-0.023900669
107	0xbcc8ff18	-0.0245357
108	0x3cda6217	0.026658101
109	0xbd1ecf71	-0.03877205
110	0xbd3f8f41	-0.046767477
111	0x3d4213de	0.047382228
112	0x3c3a668c	0.011376988
113	0xbd465331	-0.04841918
114	0x3d4c3cc1	0.049862627
115	0x3c90a976	0.01765893
116	0x3d335140	0.043778658
117	0xbbf89adf	-0.0075868214
118	0x3b987885	0.004653039
119	0xbc62591a	-0.013815189
120	0xbd106f5d	-0.035262454
121	0xbcb57c3c	-0.022153966
122	0x3c5d052d	0.0134900035
123	0x3cef2e2b	0.02919682
124	0xbb71ea57	-0.003691336
125	0x3d1f263c	0.038854823
126	0x3cabbd37	0.020964248
127	0x3cc18c65	0.023626516
128	0xbc1a1206	-0.009403711
129	0xbd14f868	-0.03636971
130	0x3d06ec00	0.03293991
131	0x3cd75f22	0.02629048
132	0xbbf774b1	-0.0075517525
133	0xbce74dad	-0.02823528
134	0x3cbb0450	0.022829205
135	0x3d15ee19	0.03660402
136	0x3c587f6b	0.013213973
137	0xbd186d3b	-0.037213545
138	0xbb357726	-0.0027689426
139	0xbd2aea90	-0.041727602
140	0xbd59d0a1	-0.05317748
141	0xb9e56fc2	-0.0004376155
142	0x3d4620bd	0.048371065
143	0xbd2120e2	-0.039338
144	0xbcc670e7	-0.024223758
145	0x3d3b674f	0.04575282
146	0x3caaff19	0.020873593
147	0xbcb715fc	-0.02234935
148	0x3d467fb2	0.048461623
149	0xbcecd534	-0.028910257
150	0xbc5c63c4	-0.01345152
151	0x3c005bbb	0.00783437
152	0x3bbbefba	0.0057353647
153	0xbd15e2d9	-0.036593292
154	0xbd47f1c9	-0.04881457
155	0x3d16cfde	0.03681933
156	0xbd31c83d	-0.043403853
157	0x3cd414b8	0.025888786
158	0xbd1d8434	-0.038456157
159	0xbd22a052	-0.039703675
160	0x3d3ac275	0.045595605
161	0xbcf51fd8	-0.02992241
162	0xbd202b4f	-0.039103802
163	0xbd462758	-0.048377365
164	0xbd30ab34	-0.043132022
165	0xbd13e589	-0.036107574
166	0x3d34404f	0.044006642
167	0x3ba9cb47	0.0051817033
168	0x3a889317	0.0010419813
169	0x3ce675dc	0.028132372
170	0x38c1f196	9.247956e-05
171	0xbce451eb	-0.027871093
172	0xbd12bee5	-0.035826582
173	0x3b3b1644	0.0028547207
174	0x3c3681fd	0.01113939
175	0xbcd42f2e	-0.025901403
176	0xbc2e5430	-0.010640189
177	0x3b77607a	0.0037746713
178	0xbd34010b	-0.043946307
179	0xbcac612e	-0.021042433
180	0x3c47d285	0.012196188
181	0x3cadea2f	0.021229832
182	0x3d17298f	0.036904868
183	0x3c464966	0.0121024605
184	0xbd44d086	-0.048050426
185	0xbce989be	-0.028508063
186	0xbd2fd0fc	-0.042923912
187	0xbc782127	-0.015144623
188	0xbd1d4ae3	-0.038401496
189	0x3d2a3d5b	0.04156242
190	0xbd3340e0	-0.04376304
191	0xbd2d3d8e	-0.04229503
192	0x3b122602	0.0022300486
193	0x3d06c33d	0.032901037
194	0x3cad905d	0.021187002
195	0x3cffcd6c	0.031225882
196	0x3c210aef	0.009829267
197	0xbc096a10	-0.008387104
198	0xbc8cbd56	-0.017180126
199	0xbd1ec8fe	-0.0387659
200	0xbc94f8b4	-0.018184997
201	0x3d32cc0d	0.04365163
202	0x3d0c895f	0.034310695
203	0xbd2911e2	-0.04127682
204	0xbc1c2ea1	-0.009532602
205	0xbd0b05ca	-0.033941068
206	0x3cafdd8c	0.021467946
207	0x3cc8eff4	0.024528481
208	0xbd089e74	-0.033354238
209	0x3c7ea556	0.015542349
210	0x3bcdabea	0.0062765973
211	0xbceddfb0	-0.029037327
212	0x3c5e7be1	0.01357934
213	0x3c3ef39a	0.011654759
214	0xbc23328e	-0.009960784
215	0xbc0c08f0	-0.008547053
216	0x3c9d8c71	0.019232007
217	0x3d024a8a	0.031809367
218	0x3c60dd97	0.013724706
219	0x3d520f25	0.051283974
220	0x3d22bbf1	0.039730016
221	0x3ca99b5b	0.020703962
222	0xbb53eeef	-0.003233846
223	0xbd1bf717	-0.03807744
224	0xbcf62dc5	-0.030051121
225	0x3c8b8388	0.017030492
226	0xbcfd2668	-0.030902103
227	0xbd17c732	-0.0370552
228	0x3d1cb288	0.0382562
229	0xbc25dd57	-0.010123572
230	0xbd06f95d	-0.032952655
231	0x3d29b5ce	0.041433148
232	0x3d2ae20f	0.041719493
233	0x3c4e83e1	0.012604685
234	0x3cc2aec5	0.023764977
235	0x3cd4407f	0.02590966
236	0x3d34fe45	0.044187803
237	0xbc633d88	-0.013869651
238	0x3ca0a9dc	0.019612245
239	0x3c9142f9	0.01773213
240	0x3d5488fe	0.05188846
241	0xbd02456e	-0.031804495
242	0x3cb757d5	0.022380749
243	0xbcbddca6	-0.023176502
244	0xbb397347	-0.002829747
245	0xbc7ffec6	-0.015624708
246	0x3c13bbf1	0.009016977
247	0x3d3c7f6a	0.04601995
248	0x3d37b546	0.04485061
249	0x3cda80ba	0.02667271
250	0x3d1d09b6	0.03833934
251	0xbd4d71c2	-0.050157316
252	0x3d4cd0bb	0.05000375
253	0x3c2fbbca	0.010725925
254	0x3cfec8d5	0.031101624
255	0x3c2cd89a	0.010549689

base_model.model.bert.encoder.layer.1.attention.self.query.lora_B.weight f4 [384, 16]
0	0x3b017d48	0.0019758511
1	0xbb584509	-0.0033000133
2	0x3ae39a4e	0.0017364712
3	0xbad1557a	-0.0015970909
4	0x3b0b2832	0.0021233675
5	0xba79bc39	-0.00095266436
6	0xbb85b131	-0.0040799608
7	0xba9313f0	-0.0011221152
8	0x3b7bc736	0.00384183
9	0x3b95f20c	0.0045759734
10	0xbb38cdef	-0.0028198918
11	0xbb408dc2	-0.002938137
12	0x3b416481	0.0029509368
13	0x3b29f56e	0.002593364
14	0x3b1f6984	0.0024324367
15	0xbb46ca6c	-0.0030333055
16	0x3a7a725e	0.0009553785
17	0xbaa034c6	-0.0012222759
18	0x3a161e24	0.0005726537
19	0xba2d8dde	-0.0006620566
20	0x3a9e5a99	0.0012081444
21	0xbaa4d592	-0.0012575856
22	0xbaaad686	-0.0013033904
23	0xba8e68f1	-0.0010865015
24	0x3aadf507	0.0013271876
25	0x3aaecaa0	0.0013335533
26	0xbaa9ecfc	-0.0012964304
27	0xba5c6016	-0.0008406652
28	0x3aa780ce	0.0012779476
29	0x3a8b189f	0.0010612196
30	0x3aca7cde	0.001544859
31	0xba9aca25	-0.0011809511
32	0xb9b97e5b	-0.00035380092
33	0x3a360663	0.0006943701
34	0x3afe2bdf	0.0019391737
35	0x3a26ceaf	0.0006363196
36	0x38b65d09	8.6957654e-05
37	0xbad5279c	-0.0016262415
38	0x399ef4dd	0.00030318546
39	0x3b12ec13	0.0022418543
40	0xb992b30b	-0.00027980687
41	0xba0a66eb	-0.0005279618
42	0xba2100a3	-0.00061417575
43	0x3a6edaae	0.00091115653
44	0x398d26dc	0.00026922568
45	0xba4a3298	-0.00077132275
46	0xba277f94	-0.0006389555
47	0x3a492c3d	0.00076741335
48	0x3b068db1	0.0020531232
49	0xbb47ff6c	-0.0030517234
50	0x3a8ca01f	0.0010728872
51	0xbb10bb22	-0.0022084196
52	0xb89cb904	-7.4731215e-05
53	0xb93b33d0	-0.00017853011
54	0xbb0dca58	-0.00216355
55	0xba17bdcc	-0.0005788475
56	0x3b5ac6fc	0.0033382764
57	0x3a63baf7	0.0008687223
58	0xba89a4c2	-0.0010501372
59	0xba24a6cd	-0.0006280959
60	0x3ab1d57b	0.001356765
61	0x3b0f9c7e	0.0021913345
62	0x3b51ad62	0.0031994213
63	0xbb035251	-0.0020038078
64	0x3adec6e6	0.0016996532
65	0xbb1deaf5	-0.0024096344
66	0x3ae1d91d	0.0017230842
67	0xbb442993	-0.0029932007
68	0x3a8f0d5b	0.0010914014
69	0xba6f10d5	-0.00091196346
70	0xbaea9617	-0.0017897513
71	0x3a17ffc5	0.00057983055
72	0x3b07e99f	0.0020738614
73	0x3aee729e	0.0018192118
74	0xbad7ad85	-0.0016454911
75	0xbb1632e4	-0.0022918517
76	0x3aa86eb0	0.001285037
77	0x3b215524	0.0024617398
78	0x3b04bc49	0.0020253828
79	0xbb2aeb9e	-0.002608038
80	0x3b14daad	0.0022713349
81	0xbb5ea1f6	-0.0033971048
82	0x3aa09a2b	0.0012252977
83	0xbb2eb0e1	-0.002665572
84	0xb9c2287d	-0.0003703273
85	0xb867c22a	-5.525552e-05
86	0xbb1bd2aa	-0.0023776689
87	0xba2d1b94	-0.0006603536
88	0x3b707951	0.0036693404
89	0x3a2f68ba	0.00066913257
90	0xba919cc5	-0.0011109343
91	0xba5f3f88	-0.0008516242
92	0x3abce720	0.0014412142
93	0x3b209106	0.0024500503
94	0x3b5e6c04	0.0033938894
95	0xbada396b	-0.0016649192
96	0x3b19686f	0.0023408195
97	0xbaf52fbc	-0.0018706243
98	0x3a41b3cd	0.0007389158
99	0xbb028750	-0.0019917078
100	0xb9e665ed	-0.0004394496
101	0x3904e39e	0.00012673295
102	0xbaf8fe5d	-0.0018996705
103	0xbaa8ab42	-0.0012868422
104	0x3b30093d	0.0026860975
105	0x39bf4005	0.00036478057
106	0xb9dbc91d	-0.00041920776
107	0xba12aba3	-0.0005595034
108	0x3ade9eb1	0.001698455
109	0x3b0166b4	0.0019745054
110	0x3b1f0823	0.0024266324
111	0xbaaedda8	-0.0013341205
112	0x3a941f5c	0.001130085
113	0xbb4a710a	-0.003089013
114	0x3a4b4cc7	0.0007755276
115	0xbae65969	-0.0017574254
116	0x38d891fc	0.00010326874
117	0xb99ac008	-0.00029516243
118	0xbb40ef2b	-0.002943943
119	0xba404278	-0.00073341234
120	0x3b4f13bb	0.0031597454
121	0x3aefd0cc	0.0018296479
122	0xba9766c0	-0.0011551008
123	0xbaf5c454	-0.0018750527
124	0x3ad729ed	0.0016415693
125	0x3b1fb9bb	0.0024372179
126	0x3b28f03f	0.0025777963
127	0xbb2d6ae9	-0.0026461428
128	0x3a5b62d3	0.0008368913
129	0xba59b231	-0.00083044457
130	0x3af9fa38	0.0019071763
131	0xbac7a00a	-0.001523019
132	0x3a1d616c	0.00060035917
133	0xba0836fd	-0.0005196182
134	0xba21d3ae	-0.00061732053
135	0x3aad8b57	0.0013240379
136	0x3aca9787	0.0015456536
137	0x3a89dce9	0.0010518107
138	0xba83b83b	-0.0010049412
139	0xb90d92cd	-0.00013501495
140	0x3abfa453	0.0014621116
141	0x389ae855	7.3865674e-05
142	0x3b0cc354	0.002147873
143	0xb9461b50	-0.00018892926
144	0xbadf8014	-0.001705172
145	0xb9e5eb3a	-0.0004385354
146	0x3ab9e01f	0.0014181173
147	0x3a437513	0.0007456105
148	0x3a8cd24c	0.0010743826
149	0xbafac8ac	-0.0019133291
150	0xba1186ad	-0.0005551379
151	0x3b3be93a	0.002867295
152	0x396b9e95	0.00022470423
153	0x3a830229	0.0009995151
154	0xbab18ac5	-0.0013545385
155	0xbacee6e9	-0.0015785369
156	0x3a48cfb3	0.0007660344
157	0xb85a9565	-5.2114385e-05
158	0xba5b7eb8	-0.00083730696
159	0xb9e8ef1a	-0.00044428633
160	0xbb15f2bd	-0.002288028
161	0x3a043301	0.00050430006
162	0xba92e445	-0.0011206946
163	0x3b4a20c1	0.0030842277
164	0x3a84a06e	0.0010118613
165	0xba12de0c	-0.00056025456
166	0x3a1e84b7	0.0006046998
167	0x3a0ca71b	0.0005365477
168	0xba862235	-0.0010233583
169	0x3a16460d	0.0005732484
170	0x391a2ede	0.00014704044
171	0x39c83917	0.00038189508
172	0xba248704	-0.00062762224
173	0xba77c52b	-0.00094516826
174	0xbb4f58dc	-0.0031638658
175	0x3a145d71	0.0005659676
176	0xbae1411a	-0.001718554
177	0x3ae89283	0.0017743859
178	0xbae2657a	-0.0017272674
179	0x3a836fe0	0.0010027848
180	0xbad67a0a	-0.0016363275
181	0x3a3d9cfe	0.00072331715
182	0x3ae9816f	0.0017815063
183	0x3a680530	0.00088508707
184	0xbb054b45	-0.0020339054
185	0xbb0a210b	-0.0021076824
186	0x3b0aefc3	0.0021200038
187	0x3a69dd5d	0.00089212303
188	0xbafe2e41	-0.0019392447
189	0xbabec138	-0.0014553433
190	0xbada7c0c	-0.0016669049
191	0x3ae65d84	0.0017575477
192	0xba26074d	-0.00063334854
193	0x39ccd928	0.00039071706
194	0xbb0ded48	-0.0021656323
195	0x3a307b2f	0.0006732223
196	0xba8a6b48	-0.0010560537
197	0x3a8edc7a	0.0010899447
198	0x3a444a0a	0.00074878393
199	0xbb20ea9d	-0.0024553903
200	0xbacd429a	-0.0015660108
201	0xba1ada8a	-0.00059071986
202	0x3ac3f41e	0.0014950072
203	0xba9d1e86	-0.0011987246
204	0xbad094f8	-0.0015913537
205	0x3adb8c57	0.0016750199
206	0xbb0240dc	-0.0019875085
207	0xba09ef63	-0.00052618067
208	0xbac60d0a	-0.0015110087
209	0x3b15cde4	0.0022858316
210	0xbb4d0cbc	-0.0031288108
211	0x3a86c2fd	0.00102815
212	0xbb2ce4c7	-0.002638148
213	0x3af65a23	0.0018795173
214	0x3b2627be	0.0025353278
215	0x3a6504e3	0.0008736385
216	0xbb226eed	-0.0024785355
217	0xbb360651	-0.002777476
218	0x3b564739	0.003269626
219	0x3b0559e6	0.0020347773
220	0xbb2c5478	-0.0026295464
221	0xbae85149	-0.001772442
222	0xbb0dd6a7	-0.0021642835
223	0x3b085a88	0.0020805914
224	0x3b0f9ac2	0.0021912311
225	0xba497bcf	-0.00076859904
226	0x3aac8c12	0.0013164303
227	0xbb21be96	-0.0024680248
228	0xb9b41f78	-0.0003435572
229	0x39dcc29f	0.00042106674
230	0xb9ba685a	-0.00035554433
231	0xba433e3f	-0.0007447935
232	0x3a9876b1	0.0011632052
233	0x39daf3c3	0.00041761817
234	0xb9e114a3	-0.0004293072
235	0xbaa72406	-0.0012751825
236	0x3a3139c1	0.000676062
237	0x3abf9066	0.0014615178
238	0x3b12fe95	0.0022429575
239	0xba2cb542	-0.0006588289
240	0xb8ccb864	-9.7618235e-05
241	0x39ece6d0	0.00045185396
242	0xbb2754c1	-0.0025532695
243	0x3895a039	7.1347175e-05
244	0xba4aafd7	-0.00077318907
245	0x3ad5c6df	0.0016309879
246	0x3a0d845b	0.00053984456
247	0xbaeb9a67	-0.0017975093
248	0xba28fe87	-0.0006446619
249	0xba3f148e	-0.00072891347
250	0x3ac88730	0.0015299078
251	0x3a05cdb5	0.00051042
252	0xbaaa7201	-0.0013003947
253	0x39326c55	0.0001701576
254	0xb900bf5a	-0.00012278315
255	0x39125b9a	0.00013957769

base_model.model.bert.encoder.layer.1.attention.self.value.lora_A.weight f4 [16, 384]
0	0x3c2fdae0	0.010733336
1	0xbd38f18a	-0.045152225
2	0xbbe7df7d	-0.0070762024
3	0x3d0a80e1	0.033814315
4	0xbc487cee	-0.012236817
5	0x3d08fd07	0.03344443
6	0x3b7f2fc1	0.0038938376
7	0xbd104645	-0.035223264
8	0x3c8f472b	0.01748999
9	0x3d117936	0.035515986
10	0xbd4b735d	-0.049670566
11	0x3c9bfad1	0.019040497
12	0xbc9548ae	-0.018223133
13	0xbce38e59	-0.027777838
14	0x3ccb6f88	0.024833456
15	0xbcfa6ee8	-0.030570462
16	0xbd205552	-0.039143868
17	0x3d28dccd	0.041226197
18	0xbc9a69e2	-0.018849317
19	0xbd5c47ed	-0.05377953
20	0xbc221924	-0.009893689
21	0xbd4f2d9b	-0.050580602
22	0x3d20755a	0.039174415
23	0xbca9a264	-0.020707317
24	0xbc958ff0	-0.018257111
25	0xbbf07bfd	-0.0073389993
26	0x3d051232	0.032488056
27	0xbd00990b	-0.031395953
28	0xbce1f487	-0.02758242
29	0xbb220882	-0.002472431
30	0xbd1eb529	-0.038746987
31	0xbc878d16	-0.016546767
32	0x3c119849	0.008886405
33	0xbca8ab33	-0.020589447
34	0xbaa13172	-0.0012298061
35	0xbb0af733	-0.002120447
36	0xbd249f86	-0.040191196
37	0xbd38c55a	-0.045110084
38	0xbcc03277	-0.023461564
39	0xbc0606e1	-0.008180351
40	0xbcb2232d	-0.021745289
41	0xbd0d74d7	-0.034535255
42	0xb9899652	-0.00026242674
43	0x3d41b627	0.047292855
44	0x3d27dedf	0.04098403
45	0x3d12d102	0.035843857
46	0xbd24a1a6	-0.040193222
47	0x3ca1ff65	0.019775102
48	0x3cebc856	0.028782051
49	0xbc1d6f6d	-0.0096090855
50	0xba4b4319	-0.0007753834
51	0xbbb09ff6	-0.0053901626
52	0x3cb2fc66	0.021848869
53	0x3c2e0f96	0.010623833
54	0x3c7062d2	0.014671998
55	0xbd2b7644	-0.041860834
56	0xbc934aa6	-0.017979931
57	0xbd0f0dc1	-0.034925226
58	0x3c8c1a39	0.017102348
59	0x3d383489	0.044971976
60	0xbb904040	-0.0044021904
61	0xbd441691	-0.047873084
62	0x3cb2fc5e	0.021848854
63	0xbb918e79	-0.004442033
64	0x3cddcc5a	0.027074981
65	0x3cf8db74	0.03037808
66	0xbd0b6fa6	-0.034042023
67	0x3d061282	0.032732494
68	0x3caa9c3b	0.02082645
69	0x3d5c8271	0.053835336
70	0xbd413512	-0.047169752
71	0xbd1e570b	-0.03865723
72	0x3cdfa7ce	0.027301695
73	0xbc8d9de0	-0.017287195
74	0xbd5ab554	-0.053395584
75	0x3c1ca2ca	0.009560296
76	0x3b57bb75	0.003291813
77	0xbc2edd1b	-0.010672833
78	0xbd026459	-0.03183398
79	0xbbb99cfd	-0.0056644664
80	0x3d21afc9	0.039474282
81	0xbd4966a8	-0.049170166
82	0x3c727f1e	0.014800815
83	0xbd2bdc1a	-0.041957952
84	0xbcde115c	-0.027107887
85	0xbc2898bf	-0.010290324
86	0x3a361582	0.0006945954
87	0xbcfba9c0	-0.030720592
88	0x3cac2781	0.02101493
89	0xbc9dc7ad	-0.019260252
90	0x3d1c970c	0.038229987
91	0x3b330410	0.0027315654
92	0x3bfec5cd	0.0077750445
93	0x3cadcd7f	0.021216152
94	0x3d46e629	0.04855934
95	0x3c5c3e14	0.013442535
96	0x3ca1f338	0.019769296
97	0xbc84dd8d	-0.016218925
98	0x3d119aad	0.0355479
99	0xbcdf64f5	-0.02726982
100	0x3cec1c1f	0.028822003
101	0xbc4fa3aa	-0.012673298
102	0xba837b7e	-0.001003131
103	0xbc807c5a	-0.015684295
104	0xbd1116ac	-0.035422012
105	0x3c05aa82	0.008158328
106	0x3c915d76	0.017744761
107	0xbbfe7321	-0.0077651893
108	0xbd04fa5e	-0.03246533
109	0x3d0df412	0.03465659
110	0x3d26e303	0.04074384
111	0x3c714242	0.01472527
112	0x3ce92329	0.028459148
113	0x3c30eb3d	0.010798273
114	0x3c6fa0dc	0.014625754
115	0x3d4651b0	0.048417747
116	0xbc4a918f	-0.012363805
117	0x3cf17769	0.029475885
118	0x3cf8b89c	0.030361466
119	0x3901a878	0.00012365158
120	0xbca34bd5	-0.01993362
121	0x3d083e79	0.033262704
122	0xbd02612d	-0.031830955
123	0x3d0bd0d9	0.03413472
124	0xbc5ff727	-0.013669766
125	0x3c6fc9a6	0.014635479
126	0x3d2f121b	0.042741876
127	0x3b9acbcc	0.0047240015
128	0xbd4eced8	-0.05049023
129	0xbbf95fb8	-0.0076102875
130	0xbc3c2c50	-0.011485174
131	0x3b70935a	0.0036708922
132	0xbc8ec6a8	-0.017428711
133	0xbb3a2222	-0.0028401692
134	0xbcf2f0e5	-0.029655883
135	0x3cf6edfc	0.030142777
136	0xbb05dcbd	-0.002042576
137	0xbbd647f5	-0.0065393397
138	0x3cb910d6	0.022591036
139	0xbd46b354	-0.048510864
140	0x3c8c9cf7	0.01716469
141	0x3a54c90d	0.0008117117
142	0xbce321e8	-0.027726129
143	0xbc7a318d	-0.015270603
144	0xbc8ac4b8	-0.016939506
145	0xbc14a1db	-0.0090717925
146	0x3cee0f65	0.029060075
147	0xbd2674b3	-0.040638637
148	0xbcb20b4b	-0.0217339
149	0xbd23e409	-0.040012393
150	0x3c98c674	0.018649317
151	0x3c03330b	0.008007775
152	0xbce3ae37	-0.027793033
153	0xbcc1f977	-0.023678524
154	0x3c5b5aa4	0.01338831
155	0xbc65f380	-0.014035106
156	0xbc4a5ed8	-0.012351714
157	0x3d506592	0.050878115
158	0x3d4d9c81	0.050198082
159	0xbc4dab8a	-0.012553105
160	0x3c342869	0.010995963
161	0xbb58aab5	-0.0033060734
162	0xbc1b0dda	-0.009463752
163	0x3cfa21e0	0.030533731
164	0xbcd6d374	-0.026223876
165	0xbc914f24	-0.017737933
166	0xbba96b80	-0.0051702857
167	0x3d21f974	0.039544538
168	0x3b1ce567	0.0023940445
169	0x3c8cde77	0.017195923
170	0xbd132692	-0.035925455
171	0xbceda922	-0.029011313
172	0xbca77329	-0.020440655
173	0xbc7ab8ae	-0.01530282
174	0x3bcf5bb5	0.006328071
175	0xbcedf28f	-0.029046325
176	0xbd597ef0	-0.053099573
177	0x3c07f00d	0.008296979
178	0x3d29fffc	0.04150389
179	0x3c7538aa	0.014967123
180	0xbc88d509	-0.016703146
181	0xbc578763	-0.013154837
182	0xbc0ef79e	-0.008726029
183	0x3c39ef51	0.011348561
184	0x3baf01e0	0.0053407997
185	0x3ca108c7	0.019657506
186	0x3c1953e7	0.009358383
187	0xbd25a450	-0.040439904
188	0x3c9d64ca	0.019213099
189	0xbd265adb	-0.04061399
190	0xbd3ab7ec	-0.045585558
191	0x3c28649d	0.010277894
192	0xbbac1c11	-0.005252369
193	0x3ced41d0	0.028962046
194	0xbbfbc54d	-0.007683432
195	0xbd00462c	-0.03131692
196	0xbcecffbe	-0.028930541
197	0x3d292cdf	0.041302558
198	0x3cd942d7	0.02652113
199	0x3d1fb204	0.03898813
200	0xbd1c6e5a	-0.038191177
201	0xbbcb9cce	-0.006213761
202	0x3c818135	0.015808681
203	0xbc10e470	-0.008843526
204	0x3d06b8bf	0.03289103
205	0x3bcc55da	0.0062358202
206	0xbd61e441	-0.05514932
207	0xbd2427b7	-0.040076938
208	0x3d26acb1	0.040692035
209	0xbab6dd40	-0.0013951436
210	0x3cbf8360	0.023378074
211	0x3d02c7d2	0.031928845
212	0x3d07e086	0.033173107
213	0x3d16706a	0.0367283
214	0xbcd7cb59	-0.02634208
215	0xbd3d6a64	-0.04624404
216	0x3d212fe1	0.0393523
217	0xbd3415f7	-0.04396626
218	0xbd33a148	-0.04385498
219	0x3d4516f2	0.048117585
220	0xbce85f05	-0.028365621
221	0xbd19d20c	-0.037553832
222	0xbc76b3f0	-0.015057549
223	0xbd2fdccf	-0.04293519
224	0xbd0745f9	-0.033025716
225	0x3cf0bc29	0.029386597
226	0x3d1d82b8	0.03845474
227	0x3d487d0c	0.04894738
228	0x3d1bf42b	0.038074654
229	0x3d0e6eec	0.034773752
230	0xbc3851fc	-0.011250015
231	0xbc58b430	-0.013226554
232	0x3d2f6a91	0.04282624
233	0xbc88cc5e	-0.016699012
234	0x3d4bfa58	0.049799293
235	0x3d2da37d	0.042392243
236	0x3cf2d428	0.02964218
237	0x3d27113a	0.040787913
238	0x3b9eb56f	0.004843406
239	0xbc571abf	-0.013128935
240	0x3d08973c	0.033347353
241	0x3d31d236	0.043413363
242	0x3c616f58	0.013759457
243	0x3c43cbbe	0.011950431
244	0x3d228b8b	0.03968386
245	0x3d4d086e	0.050056867
246	0xbabcf06d	-0.0014414914
247	0xbd0ffda6	-0.035154007
248	0xbc013383	-0.0078858165
249	0xbcb4e446	-0.022081506
250	0xbcc7f073	-0.024406647
251	0x3c8649de	0.016392644
252	0x3c682c8f	0.01417078
253	0xbcd28088	-0.025696054
254	0xbd1a1916	-0.03762158
255	0x3ced5a0c	0.028973602
