lora_crossencoder_has_instruction_2/checkpoint-5418/adapter_model.safetensors (safetensors, 594924 bytes, 25 tensors)

base_model.model.bert.encoder.layer.0.attention.self.query.lora_A.weight f4 [16, 384]
00000000: 16dd 833c 2501 d33c bc1b 8b3c ac14 e4bc
00000010: 081a 0ebd 316f aa3c 0c32 063d 2c1f 5e3d
00000020: 03a8 103c 4b2d 5bbd 2ddd 1f3c 1dae 31bc
00000030: 14a7 29bc daea 423c b2c2 28bd 14aa 0f3d
00000040: e676 173d a5f9 a13b da99 433b d6a2 f4b9
00000050: dd20 213c cec6 333c 8bc3 003c fec3 d1bc
00000060: 6424 91bb ad70 66bd a4e2 43bc 6bd1 e7bb
00000070: c59e 123d b4f1 063d 3b07 9dbb 68aa 37bd
00000080: 32e8 ad3c 6aa9 b13c d2ab 113c 249d 42bc
00000090: 5fbb 993a 70b1 3dbc 928e 8f3c daaf ee3b
000000a0: 42a6 003d 927a 29bd 4386 353d e2a6 e23c
000000b0: b4ae 493d ce0f 1e3d d0e7 80bc f16b ddb9
000000c0: 8c1a b33c 64ed 34bd 05e0 4a3b ef2b 1cbd
000000d0: e436 15bd 2dff 0d3c f62d 5c3d ee2d 32bd
000000e0: f430 cbbb ce94 60bc 1c60 9c3c ec56 2abd
000000f0: c795 15bd 50f6 a43c f3e1 8dbc eb1c efbc
00000100: 73b8 093c d568 a2bb 5fa3 bbbc 5342 183d
00000110: 71e1 523c d8b0 63ba d708 95bc 9225 653c
00000120: f8c6 183d b8f0 033d 9e7f 3bbd 5b7f d3bc
00000130: 0827 443d f188 fbbc fdff 3dbd 0907 293d
00000140: 2827 2ebd 2ca4 4e3d 01db 19bc bf26 eebc
00000150: ea7f 133d eb22 a93c b18c 0ebd 4e90 26bd
00000160: 1545 d53c 4079 35bd 1d8a 4d3d 55b9 3f3d
00000170: cc54 0b3d bbe6 4cbd 830d ecbc 9443 023d
00000180: e8f9 0abc a290 43bd da7e 1e3d 823b 2ebd
00000190: d8d7 72bc 74c2 223d dd95 b03c bc8a 04bd
000001a0: 6dcb 9ebc aeab 383d 3782 1dbb 46d5 2c3d
000001b0: 476a 20bd 3de8 3ebc ee12 123d 029b a53c
000001c0: a1b7 50bd 2dc3 dabc 85e2 2bbd d6dc 2b3d
000001d0: 0a27 b0bc 07b0 58bc 1f0b e53c a8e8 cc3c
000001e0: b1cf 09bd 884d f13c e82b d13c ad18 4d3b
000001f0: c21b 0e3b 1ff8 31bb ed68 3fbc 807a 4dba
00000200: 1e26 443d 0cbf a23c 36f4 43bc a461 1fbc
00000210: 0113 3cbc bec3 61bd c327 03bd 64e6 273d
00000220: 9863 d73c 7cf8 3fbd 9a5c 9bbc 3536 9d3b
00000230: 05fc 383c 89a9 42bc 400b 10bc afbf 3a3d
00000240: 30d4 49bc 73e8 23bc f295 b2bc 52d5 7a3b
00000250: 9342 0d3d 06c4 8e3c 1c1e 353c be90 53bd
00000260: 99c2 cebc 018c 653c 576b c6bc f46c f0bc
00000270: fd3a 5ebd 1a0c 3dbd 9d80 17bd f556 e7bc
00000280: 4fa0 863c da20 fe3c 4b27 e4bb 9be6 bebc
00000290: 56ab 7b3b f299 ffbb bae6 2ebd 1535 243d
000002a0: a91f bebc de97 3a3d 0db2 bbbc 1f51 fcbc
000002b0: 97ba dabc 6fc5 e3ba dc3f 213d df80 f7bc
000002c0: d937 0d3d 3500 943c 92d4 433d 94f8 723c
000002d0: 13b3 563d fab1 3d3c 8781 323c 4e93 1fbd
000002e0: ef03 2c3d 1a11 373d 845e 06bd cc76 d93c
000002f0: c55c 27bd dde6 cf3b 5941 173c 6bfd 0e3d
00000300: b3e9 cf3c 17dc 843c 6479 0abd 09bb bd3c
00000310: ddc1 0a3d e9b8 17bd 0b2c ee3c 9157 8fbc
00000320: 358e 823b 138e 243c c781 ee3c 492d e03c
00000330: 6e65 67bc e80d b6bc 052c 6cbc 0d5c 033d
00000340: a7e9 0dbd c1c2 4ebc c908 4f3d baaa b93c
00000350: 13e8 e63a 859f 893c 3e73 643c 75cb 073d
00000360: 2d82 e23c 966b 0dbc 5c3d fc3c 1393 743c
00000370: d836 32bd 899f ed3c 9855 bebc bae0 1c3d
00000380: 9c1c 4a3d 6c08 973b e530 d3bc f107 b6bc
00000390: 8ac4 c73c ad52 31bd f5f5 c83c 5954 1c3d
000003a0: 816e 82bc d788 54bd abf8 93bc c760 08bd
000003b0: cad9 a23c ea6a b33c fda3 fabc 9950 c43c
000003c0: ed6d 00bc 871b 113c 2957 3ebc 25b2 383d
000003d0: fcf9 143d 4adb e5bc b1a9 c839 00ad 16bd
000003e0: ff85 39bd 1cbc af3b e128 313d 469a 42bd
000003f0: 34b1 c5bc 3fe4 f13c a2f3 df3c c05b dc3c
0.016096633 0.025757382 0.016980998 -0.027841888 -0.034692794 0.020804973 0.032762572 0.054228947
0.00882912 -0.05350999 0.009757322 -0.0108447345 -0.010354776 0.011896813 -0.0412013 0.03507431
0.036978625 0.00494309 0.0029846341 -0.0004666063 0.009834495 0.010972692 0.007859121 -0.025606152
-0.004429387 -0.0562598 -0.011955891 -0.007074525 0.035795946 0.03294535 -0.0047921217 -0.044840246
0.021228883 0.021687228 0.008891063 -0.011878286 0.0011728815 -0.011577949 0.017524038 0.0072841467
0.031408556 -0.041376658 0.044317495 0.027667467 0.049238876 0.03858929 -0.015735537 -0.00042232827
0.021863244 -0.044171706 0.003095628 -0.038127836 -0.0364293 0.008666796 0.05375477 -0.043500833
-0.006200904 -0.013707353 0.019088797 -0.0415868 -0.036519792 0.020136982 -0.017319655 -0.029188594
0.0084057925 -0.0049563446 -0.02290505 0.037172627 0.012871132 -0.00086857146 -0.018192692 0.013986008
0.037299126 0.03221199 -0.045776002 -0.025817564 0.047888786 -0.030704947 -0.046386708 0.041266475
-0.04251781 0.050449535 -0.0093905935 -0.02907121 0.03601066 0.020646533 -0.034802143 -0.040664963
0.026033917 -0.044305086 0.050180543 0.046807606 0.034016415 -0.05002473 -0.028815037 0.03180273
-0.008482434 -0.047745354 0.038695194 -0.04253722 -0.014821969 0.039736226 0.021555835 -0.03235887
-0.01938411 0.0450856 -0.0024033913 0.04219558 -0.039163854 -0.01165205 0.035662584 0.020215515
-0.050956372 -0.026704395 -0.041964073 0.041958652 -0.02150299 -0.013225562 0.027959405 0.025013283
-0.033645336 0.029455915 0.025533631 0.0031295225 0.0021684025 -0.0027155948 -0.011682731 -0.00078383833
0.047887914 0.019866489 -0.01196008 -0.009727869 -0.01147914 -0.055118315 -0.03202034 0.040991202
0.026292607 -0.046867833 -0.018965054 0.0047977217 0.011290555 -0.011881241 -0.008791745 0.04559296
-0.012318656 -0.010004151 -0.021800015 0.0038274121 0.03448732 0.017427456 0.011054542 -0.05165171
-0.025239276 0.01401043 -0.024221106 -0.029348828 -0.054255474 -0.04615412 -0.03698789 -0.028239707
0.016433863 0.031021524 -0.006962692 -0.02330332 0.0038401685 -0.007800334 -0.042700507 0.040089685
-0.023208456 0.045554988 -0.02291205 -0.0308004 -0.026700301 -0.0017377565 0.03936754 -0.030212818
0.03447709 0.018066505 0.047810145 0.014829773 0.052416872 0.011578077 0.01089514 -0.03895884
0.04199594 0.044694044 -0.03280498 0.026545905 -0.040859956 0.0063446597 0.009231889 0.034909647
0.025379991 0.016218228 -0.033807173 0.023160474 0.03387629 -0.03704158 0.029073736 -0.01749781
0.0039842376 0.010043639 0.029114617 0.027365344 -0.014123304 -0.022223428 -0.014414792 0.03207021
-0.034646656 -0.012619675 0.050545488 0.022664417 0.0017616771 0.016799698 0.0139434915 0.033153016
0.027649963 -0.0086316075 0.030790977 0.014927643 -0.043509334 0.029006736 -0.023234174 0.038300253
0.04934369 0.0046091583 -0.02578015 -0.022220584 0.02438571 -0.043291736 0.024531344 0.038166378
-0.015921833 -0.051888313 -0.01806291 -0.03329542 0.01987924 0.021901567 -0.030595774 0.023964213
-0.007838708 0.008856661 -0.01161746 0.045091767 0.036371216 -0.028058667 0.00038273403 -0.03678608
-0.045293804 0.0053630006 0.043251876 -0.047510408 -0.024132349 0.029527782 0.027337853 0.026899219

base_model.model.bert.encoder.layer.0.attention.self.query.lora_B.weight f4 [384, 16]
00000000: 45c6 653b e031 453b 1d7f aa3a f0e9 f8b9
00000010: 8640 0d3b a6f5 1b3b 4cf4 0dbb bbbf 26bb
00000020: e088 0d3b 2791 5dba 448c 0a3a 67ab 16bb
00000030: b824 363b fb09 e33a 4f79 0a3b a98a 353b
00000040: 20bd 2f3b 67d8 093b 118f 8fb9 c2d2 1d3b
00000050: b9a7 643b eca9 3a3b c01a 58bb def3 ffba
00000060: 2c7e be3a 9dc6 23bb a4e2 673b 7b35 8cbb
00000070: 4684 193b 5175 1d3a aa67 90b9 aa4f 7c3a
00000080: c8a5 17bb c32b dfba 7bf4 233a 61d1 553a
00000090: feee edba 80f5 45bb c0bd d43a 276b 843b
000000a0: 496a 32bb e571 703b 3177 f2ba 2cbb c83a
000000b0: 6b64 46bb f740 03bb dbdd 02bb c526 a339
000000c0: 91f9 6bba 06f3 e5ba 6fff 8439 6922 f8ba
000000d0: b1d1 02bb d44f dfba a195 0d3b 7a66 cbb9
000000e0: e2ee 2139 c9b4 3abb aaf5 efba a93f 713a
000000f0: e08b fdb8 5ed5 0a3b ea24 2dbb 76cf 9fba
00000100: a4a2 c5ba 2a43 10bb 2829 9eba b171 6739
00000110: 4b63 81ba b0db 91ba fd35 783a d2a1 283b
00000120: 9338 6739 44a7 0d3a f94f 28b9 dca6 9e3a
00000130: d02d 99ba 0d9a 40bb 3332 ccba 7214 4fbb
00000140: b673 9b3a 9828 333a 0afa 333a 2601 c9ba
00000150: 6088 903a c8a3 ca3a 1bc0 81ba 3d4e c1ba
00000160: ebd8 243b fff5 15bb 3709 a53a 772d 79ba
00000170: e9d5 e73a 5b18 0b3a a93d 483a 2302 813a
00000180: 2371 a63a c2db e839 424b 1fbb 6120 f93a
00000190: 03eb 0c3b e31d 013b e737 fbba 1cc2 69ba
000001a0: b75c 91ba 6ea1 903a 4f5e 263b 47b4 f0ba
000001b0: 3981 ae3a 3cd2 88bb c9f6 16ba 0ebc 49bb
000001c0: 6f9c 983b 6193 813b 7b5b 0aba 74b7 d33a
000001d0: dccb 883b 1717 a23b d619 83bb ff2d 6abb
000001e0: 3cbf 633a 6633 9bba d103 553b c667 afbb
000001f0: 5741 853b 4a4f af3a 4c38 543a c571 fd3a
00000200: 09a3 eeba 5335 7dba 8a2a f0ba 9a3a 343b
00000210: 9951 8539 5ab9 01bb 2a86 7aba ee62 f13a
00000220: c7e1 5bbb 0233 073b d0e2 1a3b 0d19 29ba
00000230: 680b c6ba 0c23 14bb 2bdc 5eba a89c e6ba
00000240: ca9d b23b 671d 7f3b 4912 853a d799 33ba
00000250: 7b1d 463b 6c9f 953b 8b6a 35bb 87e5 adbb
00000260: 874e 333b f935 62bb 3e71 e33a 2867 7ebb
00000270: e4cf 8d3b 5849 453b e8cf aa3a a552 8c3b
00000280: ebee 54bb 724e 32bb 8073 03bb 7052 a83a
00000290: 1d8e 2bbb f4ce edba e474 943a 527b 343b
000002a0: fcc6 15bb d195 6f3b ed9e b238 7a44 973a
000002b0: 454c 45bb 3f83 22bb cb93 c9ba ba2f 1cbb
000002c0: c650 bf39 f718 18b9 e8df 44bb cf92 393b
000002d0: caf7 583b dbbf 8639 7fae 3cbb 05f1 893a
000002e0: 271c 6cbb 73a6 223b 3eb7 863b 65a2 26bb
000002f0: f673 87ba 4cd9 05bb 0f86 90ba 8f36 11bb
00000300: 25ec d93b b4ee 7b3b 5f44 29bb f339 6c3b
00000310: 255e c23b 7704 bd3b 49e6 b1bb 6837 fbba
00000320: 7e9d 06bb 6b82 463a 7e9c 9f3b 2e60 cdbb
00000330: 598f b13b 2167 11bb 249a ee3a 8451 373a
00000340: dea8 b73b d405 8d3b 36d5 5eb8 920e 423a
00000350: 807b 903b 78a2 b23b ed66 83bb 4ed4 bebb
00000360: ccf5 fd3a 99aa 9bbb c889 603b 6093 a9bb
00000370: abfa 8b3b 31bb 413b e6e8 8f3a 7ed6 9f3a
00000380: dae7 dc3a 8ffa 473a 554d fbb8 2172 e03a
00000390: 116d f43a 5ef3 173b de83 faba e2d3 95ba
000003a0: 8b85 e23a 452b f4ba a6e7 1f3b 63fa 1ebb
000003b0: 2244 b23a 8194 2f3a 2331 19ba bd89 0aba
000003c0: dbc1 2fba 3df0 49ba 5960 473a 3e07 78b9
000003d0: 0061 9fb9 34f6 03ba 4a48 a739 13b9 4b3a
000003e0: a3d8 1d3b 62a9 11ba f9a0 a5b9 9c6c 1c39
000003f0: a5fb 15ba e49d a0b7 59ac 72ba 1cb0 c7ba
0.0035060805 0.0030089542 0.0013007853 -0.00047476543 0.0021553352 0.002379754 -0.0021660505 -0.002544387
0.0021596476 -0.00084521103 0.00052851834 -0.0022990347 0.0027792882 0.00173217 0.0021129434 0.0027701056
0.0026815608 0.0021033527 -0.00027381678 0.002408192 0.003489001 0.002848263 -0.0032974929 -0.0019527634
0.0014533452 -0.002499021 0.003538289 -0.0042788363 0.0023424788 0.0006006556 -0.00027543056 0.0009624908
-0.0023139585 -0.0017026592 0.0006254387 0.0008156505 -0.001815289 -0.0030206144 0.0016230866 0.004041094
-0.0027223995 0.003668898 -0.0018498657 0.0015314571 -0.0030272256 -0.0020027736 -0.0019968662 0.00031118668
-0.0009001727 -0.001754374 0.00025367315 -0.0018931153 -0.0019961412 -0.001703734 0.0021604078 -0.00038795528
0.00015443147 -0.0028489104 -0.0018307467 0.00092029065 -0.00012090034 0.0021184306 -0.0026419708 -0.0012192565
-0.0015078378 -0.002201269 -0.0012066709 0.0002207223 -0.000987151 -0.0011128094 0.0009468494 0.0025731218
0.00022050952 0.00054036477 -0.0001605152 0.0012104171 -0.0011686627 -0.0029388696 -0.0015578925 -0.003159788
0.0011860046 0.0006834357 0.0006865567 -0.0015335425 0.0011026971 0.0015460188 -0.0009899171 -0.0014748048
0.0025153707 -0.002288222 0.0012591247 -0.0009505371 0.0017687652 0.00053060584 0.00076385826 0.0009842556
0.0012698512 0.0004441422 -0.0024306332 0.0019006842 0.0021502383 0.0019701652 -0.001916644 -0.0008917169
-0.0011090253 0.0011034438 0.0025385802 -0.0018364274 0.0013313658 -0.0041754525 -0.000575882 -0.0030782255
0.00465732 0.0039543365 -0.0005277914 0.0016152696 0.0041746926 0.0049466 -0.0040008826 -0.0035732982
0.0008687859 -0.001184088 0.0032503495 -0.005352947 0.004066627 0.001337507 0.0008095547 0.0019336274
-0.0018206547 -0.000965913 -0.0018323225 0.002750075 0.00025428532 -0.0019794316 -0.0009556735 0.0018416324
-0.0033551322 0.0020629768 0.0023633726 -0.0006450571 -0.00151096 -0.0022603897 -0.00085014355 -0.0017594295
0.005450939 0.0038927437 0.0010152544 -0.0006851232 0.0030229974 0.0045661237 -0.0027681913 -0.005306903
0.0027360038 -0.0034517033 0.0017352474 -0.003881881 0.004327761 0.003010353 0.0013031932 0.004282313
-0.003249104 -0.0027207402 -0.0020057857 0.0012841951 -0.0026177235 -0.0018143342 0.001132634 0.0027539325
-0.00228542 0.0036557803 8.517304e-05 0.0011540793 -0.0030105275 -0.0024797467 -0.0015379129 -0.0023832158
0.0003649054 -0.0001450515 -0.0030040685 0.0028316265 0.0033106678 0.00025701415 -0.0028790531 0.00105241
-0.0036027522 0.002481845 0.0041111996 -0.0025426385 -0.0010334242 -0.0020423708 -0.0011026281 -0.0022157764
0.006650465 0.0038441839 -0.0025828106 0.0036045283 0.005931633 0.0057683545 -0.0054290635 -0.0019166293
-0.002054065 0.00075725344 0.0048709502 -0.006267569 0.0054186997 -0.0022186714 0.0018203896 0.0006993043
0.0056048473 0.0043036733 -5.3127493e-05 0.0007402684 0.0044092536 0.0054514967 -0.0040100724 -0.0058236485
0.0019375621 -0.0047505614 0.0034261812 -0.005175039 0.0042718253 0.0029561038 0.0010979443 0.0012194661
0.0016853765 0.00076285837 -0.00011983017 0.0017123857 0.0018648227 0.002318583 -0.0019112786 -0.0011430944
0.001728223 -0.0018628618 0.0024399548 -0.0024258129 0.0013600627 0.0006697849 -0.0005843809 -0.0005284807
-0.0006704607 -0.000770334 0.00076056045 -0.00023653821 -0.00030399114 -0.00050339405 0.00031906582 0.00077714137
0.0024085424 -0.0005556551 -0.00031591186 0.0001491778 -0.0005721397 -1.914701e-05 -0.0009257249 -0.001523498

base_model.model.bert.encoder.layer.0.attention.self.value.lora_A.weight f4 [16, 384]
00000000: 966c eabb ca61 13bd 82f7 f8bc feaa b93b
00000010: f055 14bd 338c abbc 8783 393d 2f1b 33bc
00000020: 6d89 bebc 1f5e 18bd 6fd6 003d 7dd2 5cbc
00000030: 9c1f 08bd 2f02 14bd fb0e 21bd b993 26bc
00000040: 3a00 3b3c a01a 363d 401d 22bd 5d22 413d
00000050: 0a2e ae3a 459c 5fbd 3f34 4bbd e398 1abd
00000060: a988 333d 58a8 5ebd b4ee 273d bb48 48bd
00000070: 0c7a 7a3c 3289 c9bc ed7b 863c 0676 3fbc
00000080: 7ee2 f9bc fd64 45bd 41d0 10bc 361c c9bc
00000090: 8e0a 143c 5024 f4bc 5118 943c 0710 be3c
000000a0: 6144 2fbd 2d08 c23c 5336 293d 3221 703c
000000b0: 83cb c13c 815b f73b be37 123d ea01 34bd
000000c0: 0978 0dbb b028 823c 515f db3c 9204 943c
000000d0: 0a09 f73c 4d8e 4cbc 08c0 70bc 71e7 c23b
000000e0: da48 5b3d 9e62 1a3d 3f73 4abd 8ab9 57bc
000000f0: 7802 1e3c f1b1 92bc a60a 09bc e0b9 2dbd
00000100: ec24 3bbd 1f95 ed3b 4c56 273d 058b d53c
00000110: 42f5 dbbc 3601 6abd ffa2 afbc 0e1c 623b
00000120: 6a17 42bd 6615 053d 7525 dcbc b8d6 123d
00000130: f2d7 20bd 3ca0 6d3b e72a 5cbd 7e5b 3a3d
00000140: f1a0 54bd 936e 413d c0e3 23bd bf58 1f3d
00000150: 1e15 63bb 881c 803b 2870 0e3d 9261 8d3b
00000160: 5eca bebc 661a 55bd f8bf b43a 8582 9ebb
00000170: 6bde 5d3d 3398 9fbb eb19 053d c0da 833b
00000180: 3340 92bc 62a5 3dbc 7830 c6bb d36f 57bd
00000190: 1a19 893c 2939 02bc fed4 adbc 4a11 143d
000001a0: b807 a03b 9411 213d 8e13 91bc 08e2 0a3d
000001b0: 2954 fabc ab49 70bc 9b5d a1bc 308e 2cbc
000001c0: 6d77 eebc 659b 68bd cf24 003d 8bc4 05bd
000001d0: 1608 c9bc 99f1 643d 7124 53bc eba7 4a3d
000001e0: 031c 18bd 6405 babc 773b 053d e58a 88bc
000001f0: 9135 153d 7d63 d5bc cf19 11bd 2671 6f3c
00000200: da91 02bd 7123 bcbc c7b0 3c3d de5f 6b3d
00000210: 27fe 25bc 521f cbbc 70c4 143d d501 1dbd
00000220: f09d eb3b 3f5c 75bc 5b33 54bd a7e4 09bd
00000230: e3af 23bd 575a 793b f672 063d fc0b 09bd
00000240: cf12 093d 8432 7c3c d991 fa3c 13c4 883c
00000250: 1fa0 35bd be47 c53b bea3 16bd 2ece 5abd
00000260: f92b 27bd 9300 20bd 33bb 0b3c 88b5 fb3c
00000270: 02ae 1a3d c494 e2bc 5e0c bfbb 9a84 a73c
00000280: fa8a c5bc 1701 183d db66 ec3c abf4 0cbd
00000290: 30ca db3c 9ae2 143a 6bfd 123c 7bd4 e5bb
000002a0: 3882 923c 3fc8 11bd e944 303d 4fde 8cbc
000002b0: 3de0 dcbc ccb4 f5bb 3d9a f2bc c289 5ebd
000002c0: c643 7e3c 180b 833c 6d08 1e3c c509 543d
000002d0: 5354 343d a9d3 303c b5b6 80bc 0d80 eebc
000002e0: 8e1e 7fbc 545e 77bc a716 05bd d2a9 39bd
000002f0: c0b6 a23a ab73 ae3c 9116 7c3c 26cf 73bb
00000300: 5367 a2bc 6e2e 0abd e126 49bd a41b 54bd
00000310: d50d 5d3d 9e5f 263d f267 9a3c f938 533c
00000320: d270 35bd 6b28 5aba 5320 243d 8f08 b1bc
00000330: 3394 0c3d 7444 803c 1a8c 073d 3816 1cbc
00000340: cc96 e9bc 3f0b ed3c 2270 533d 4d56 8a3c
00000350: 15b6 0f3d bffd 8e3b 1452 2ebd abdd 88bc
00000360: 01b1 d63c 827a 0fbd 27a8 aa3a bf9e 25bd
00000370: ed7e 1fbc c3e7 253d db61 333d 9252 053b
00000380: 6200 4f3d 3923 32bd ce9a 363d 6604 adbc
00000390: 6279 93bb 7a9b 2bbc 20f0 993a 9ed3 1fbd
000003a0: dcb4 37bd fd98 5d3c 3e44 93bc 7704 b43c
000003b0: b8ca 81bc 83d0 bebc 387c 1c3c 5c30 d93c
000003c0: 6944 edbc 501c 4cbd 8be7 38bc f50d f8ba
000003d0: f510 47bc fd23 dcbc 4aa2 efbc a6b8 8dbb
000003e0: 27aa 0fbd 424a afbc fa4d 63bd 2d7d 0cbd
000003f0: d550 0fbd 0f77 b33c de0a 7d3c 1f14 5c3d
-0.0071540577 -0.03598193 -0.030391458 0.005666136 -0.03621477 -0.020940876 0.04529145 -0.010931774
-0.02325889 -0.037199136 0.0314545 -0.013477919 -0.03323327 -0.036134895 -0.039320927 -0.010167056
0.011413628 0.044458985 -0.039578676 0.047151912 0.0013288867 -0.05459239 -0.049610373 -0.03774346
0.0438315 -0.054359764 0.04099913 -0.048897486 0.015287887 -0.024601553 0.016416514 -0.011685854
-0.030503508 -0.048192013 -0.008838714 -0.024549585 0.00903572 -0.029802471 0.018078001 0.023201002
-0.04278982 0.02368554 0.041311573 0.014656352 0.023656612 0.00754875 0.03569769 -0.043947138
-0.002158644 0.015888542 0.026778849 0.018068586 0.030155677 -0.012485099 -0.014694221 0.005948
0.053536274 0.037691705 -0.049426313 -0.013166795 0.009644143 -0.017907115 -0.008364355 -0.042413592
-0.04568951 0.0072504426 0.040853783 0.026067266 -0.026850346 -0.05713006 -0.021440027 0.0034501585
-0.04738561 0.03249111 -0.02687333 0.035849303 -0.03926844 0.0036258837 -0.053751852 0.04549741
-0.0519113 0.047224592 -0.04001212 0.038902994 -0.0034650038 0.003909651 0.03477493 0.00431461
-0.023289856 -0.05202713 0.0013790121 -0.0048373365 0.054167192 -0.0048704385 0.03249542 0.0040238798
-0.017852878 -0.011575075 -0.0060482584 -0.05259688 0.016735602 -0.007948198 -0.021219727 0.0361493
0.0048837326 0.039323404 -0.01770952 0.033906966 -0.030557709 -0.014666001 -0.019697955 -0.010531947
-0.029109681 -0.05678882 0.031285103 -0.03265814 -0.024539988 0.055894468 -0.012887106 0.049476545
-0.03713609 -0.022707649 0.032527413 -0.016667793 0.036428038 -0.026048416 -0.035425004 0.014614379
-0.031877376 -0.022966119 0.046067026 0.057464473 -0.010131395 -0.024795208 0.03632015 -0.038331825
0.0071904585 -0.014975606 -0.05180679 -0.033665325 -0.03996266 0.0038048232 0.03282448 -0.033458695
0.033465203 0.015392903 0.030587124 0.016695058 -0.044342156 0.006020515 -0.03677725 -0.053419285
-0.04081342 -0.039063048 0.0085285185 0.03072621 0.037763603 -0.027658828 -0.0058303317 0.020448972
-0.02411412 0.037110414 0.028857639 -0.03441302 0.026829809 0.0005679518 0.008971552 -0.007013855
0.017884359 -0.03559136 0.043034468 -0.017195849 -0.026962394 -0.0074983593 -0.029614562 -0.054330595
0.015519088 0.0159965 0.009645564 0.05176713 0.04402573 0.010792651 -0.015712122 -0.029113794
-0.01557125 -0.015098173 -0.032492306 -0.04532797 0.0012414083 0.02129539 0.01538624 -0.0037202328
-0.01982466 -0.033735685 -0.049109343 -0.051784173 0.05396827 0.04061853 0.018848393 0.012892001
-0.044297047 -0.0008322063 0.04006989 -0.021610526 0.03432102 0.015657641 0.033092596 -0.009526782
-0.028514288 0.028936027 0.05162061 0.016886855 0.035085756 0.004363745 -0.042558745 -0.016707262
0.026207449 -0.035028942 0.0013020084 -0.040434595 -0.009734851 0.04050423 0.043794494 0.0020343405
0.050537474 -0.043490622 0.044581227 -0.021120261 -0.004500554 -0.01047408 0.0011744536 -0.039020173
-0.044850215 0.013525245 -0.017976876 0.021974785 -0.015843734 -0.023292786 0.0095511 0.026512317
-0.028963285 -0.04983169 -0.011285673 -0.0018925058 -0.012150039 -0.02687263 -0.02925219 -0.0043249903
-0.03507438 -0.021397714 -0.055494286 -0.034299064 -0.034989197 0.021907357 0.0154444855 0.053730126

base_model.model.bert.encoder.layer.0.attention.self.value.lora_B.weight f4 [384, 16]
00000000: 3b47 93ba 2de5 21b8 25a6 223a 99e5 c638
00000010: ee70 9fb9 dee4 68ba c47c a1ba f3e4 dbb9
00000020: 477f 6ab9 6cfd 4538 2613 623a 8d18 1239
00000030: c60c 233a 4457 04ba 5f3a c83a 9b93 d73a
00000040: e5ad 16bb 2c9c 56bb aa60 823b 1bfe 6abb
00000050: 12d6 863b 9f38 67bb 437b 5a3b 424d 413b
00000060: a6f3 7cbb 9ece 833b e145 2ebb 300e 783b
00000070: 9e57 283b 12f5 2f3b 8eaa 473b 76ed bb3b
00000080: 64c9 08bb 0239 d3bb 5587 693b 3190 e6bb
00000090: 9d08 d13b e4b2 1abb 3628 ca3b 9f60 a53b
000000a0: 3c52 edbb 69d8 cd3b 30b8 91bb 9e6d eb3b
000000b0: a133 183b bad0 903b bce7 1e3b 2473 973b
000000c0: 93bc 593a 7226 ccba 6bf6 aab9 1bed d0ba
000000d0: 58cb b53a 0633 8b3a f1f8 043b 7810 a83a
000000e0: 73cf e4ba fa07 853a 410e a7ba e01e de3a
000000f0: f467 78ba 1fe5 873a 2417 94ba ba0b b43a
00000100: d1db 8b3b 3e09 2d3a 6412 05bb aa8e 9f3a
00000110: a040 e4b8 2402 e33a 2ede 35ba 156b 0338
00000120: fb24 323a aeff 00ba 41bb 3339 3bc0 2dba
00000130: 4165 20bb ebc8 fbb7 2513 6cbb 1f87 47ba
00000140: de41 bf3a 7f85 1a38 40e4 2eba 2cde 2839
00000150: 4c34 ab3a b658 053a 79bd 433a 6ba2 6b3a
00000160: d19f 07b9 c189 8b3a 1c4e adba 3ed5 7339
00000170: 2710 90ba ce4a a43a 8962 6eba 11b0 043a
00000180: 2ab0 573b 59bc 593b f5bd 75bb 6794 713b
00000190: 603b 87bb cf82 5b3b fd94 5bbb dc8a 57bb
000001a0: d517 7b3b cf32 84bb 278a 453b 135b 79bb
000001b0: ed56 1abb 1c3a 47bb 05b6 72bb c4d9 b2bb
000001c0: 0e7c 1b3b c46b 593b 4dee 28bb be1a 653b
000001d0: c8bc 23bb 1cc9 203b e04a c0ba 0106 49bb
000001e0: 0713 643b 5ffb 27bb 5274 c53a 2e4c 47bb
000001f0: f925 1bbb 701f 06bb 5753 23bb e065 25bb
00000200: 9f0b 0dbb f8cf 67ba 419b de3a 7004 4aba
00000210: 1706 fe38 af4d deba 2a95 1f39 0fea f438
00000220: 6bb2 7fba 5c1f 2036 fd8c 9539 cd5b 7a3a
00000230: 09aa 093b a930 66b9 9b14 013b 66d8 b33a
00000240: 77e0 2fb8 438b c03a 3fb8 20ba 28b0 ca3a
00000250: 2551 63ba 8717 883a 38b4 b0ba 6117 adba
00000260: 72ac a33a 878b 89ba 404f d53a 5b04 9fba
00000270: dbca 8fba 0e0a bcba 4a8c f337 f716 753a
00000280: 0961 beba c066 a73a 26b3 cd3a 4e97 b03a
00000290: b7f4 31bb 1c07 c2ba 02ba 1dbb 89de 13bb
000002a0: eff4 dc3a 7271 1abb 0d37 1a3b 5958 dbba
000002b0: bf9d e53a 6791 13bb 45cd 923a 70ea 5dba
000002c0: 4994 bb37 0ebb 183b 9f7f efba 2636 1e3b
000002d0: 9747 56bb f84d f53a 9525 45bb 5c62 3bbb
000002e0: 8ffd 2c3b f017 48bb 4d2b 373b 44e7 2abb
000002f0: 7adb 98ba f942 34bb 3e1c a4ba 38a5 5cbb
00000300: c9e1 43bb 3dd9 eeba 413d 333b 8173 17bb
00000310: a7d7 1c3b 5508 0bbb 10c3 353b ff1b c73a
00000320: 3a90 1dbb 5b66 0c3b b008 c7ba 1181 1c3b
00000330: f989 213b f817 b73a ac04 323b 54c3 4a3b
00000340: 48c0 84bb 660b 9bbb 1810 9f3b 4176 d5bb
00000350: 3912 e23b bdd0 72bb ca1d e33b 8e8f bb3b
00000360: debc c3bb a22a d13b ebd2 aabb 2517 ce3b
00000370: 31da 653b 575f a43b 7b7f 8f3b c740 bf3b
00000380: 5a91 f43a e8e1 333b e6ac 3ebb 96da 443b
00000390: 5a53 18bb dce4 0e3b 1926 27bb 4e39 13bb
000003a0: 3f91 343b 99e6 1cbb 27fd 0f3b b520 34bb
000003b0: 4d78 18bb 8cea 0cbb b7ee b9ba ad29 0dbb
000003c0: c919 593b 1e71 613b 80c0 43bb e582 823b
000003d0: a67a 89bb 4091 463b 0544 6ebb 7ca9 5cbb
000003e0: 57de 853b 6d15 85bb 4e9a 4e3b ee45 83bb
000003f0: effc 39bb 95a1 45bb e531 7fbb 1837 83bb
-0.0011236438 -3.8598828e-05 0.0006204567 9.4841416e-05 -0.00030410982 -0.00088842015 -0.0012320508 -0.00041941516
-0.00022363394 4.7204478e-05 0.0008624069 0.00013932791 0.000621986 -0.0005048404 0.0015276185 0.0016447188
-0.0022991833 -0.0032746894 0.0039788084 -0.0035857025 0.0041148746 -0.0035281552 0.003333763 0.0029495512
-0.0038597374 0.0040224334 -0.0026591944 0.0037850253 0.002568699 0.0026848954 0.0030466649 0.0057350947
-0.0020871991 -0.006446005 0.0035633643 -0.007036232 0.0063792006 -0.0023605162 0.0061693443 0.0050469185
-0.007242469 0.0062819016 -0.0044470057 0.0071846982 0.0023224133 0.0044194134 0.0024247011 0.00462188
0.0008305993 -0.0015575422 -0.00032608522 -0.0015939804 0.0013869805 0.0010620065 0.0020289982 0.0012822291
-0.0017456844 0.0010149472 -0.0012745337 0.0016946457 -0.00094759394 0.0010367966 -0.00112984 0.0013736405
0.0042681475 0.00066008035 -0.002030515 0.0012173255 -0.000108839246 0.0017319364 -0.00069377094 3.133256e-05
0.00067956717 -0.0004920912 0.00017140528 -0.0006628071 -0.0024474415 -3.0015091e-05 -0.0036022153 -0.0007611382
0.0014591774 3.684079e-05 -0.0006671585 0.00016104494 0.001306185 0.00050867663 0.00074668933 0.0008988741
-0.0001293414 0.0010645912 -0.0013222131 0.00023253725 -0.0010991142 0.00125345 -0.00090936624 0.00050616363
0.0032911398 0.0033223836 -0.0037497256 0.0036862136 -0.004126951 0.0033494716 -0.0033505552 -0.0032889163
0.0038313766 -0.004034377 0.003014216 -0.003804867 -0.0023550347 -0.0030399626 -0.0037034762 -0.0054580886
0.0023725065 0.0033175806 -0.0025776804 0.0034958567 -0.0024984349 0.0024533933 -0.0014670752 -0.0030673745
0.003480138 -0.0025632007 0.0015064573 -0.0030410397 -0.0023673757 -0.0020465516 -0.00249215 -0.0025237724
-0.002152182 -0.00088429404 0.0016983525 -0.000770635 0.00012112798 -0.0016960407 0.0001521899 0.000116784235
-0.00097540644 2.3860111e-06 0.0002852454 0.00095504225 0.002100589 -0.00021952637 0.001969612 0.0013721108
-4.19323e-05 0.0014689941 -0.00061309704 0.0015463876 -0.0008671454 0.0010382988 -0.0013481444 -0.001320582
0.0012487306 -0.0010493853 0.0016274229 -0.0012132035 -0.001097049 -0.0014346258 2.9033185e-05 0.00093494303
-0.0014524768 0.0012771711 0.0015693649 0.0013472827 -0.0027153918 -0.0014803144 -0.0024067168 -0.0022563061
0.0016857664 -0.0023566154 0.0023531348 -0.0016734704 0.0017518325 -0.0022517086 0.0011200091 -0.0008465415
2.2361188e-05 0.0023304853 -0.0018272287 0.0024141162 -0.003269648 0.0018715253 -0.0030082215 -0.0028592562
0.002639625 -0.0030531846 0.0027949393 -0.0026077786 -0.0011662089 -0.002750574 -0.0012520624 -0.0033667814
-0.0029889217 -0.0018222701 0.0027349743 -0.0023109617 0.002393225 -0.0021214683 0.0027734675 0.0015190839
-0.0024042265 0.0021423313 -0.0015185084 0.002388064 0.0024648889 0.0013968935 0.002716343 0.0030939179
-0.004051242 -0.0047315834 0.0048542134 -0.006514341 0.006899145 -0.0037050687 0.0069310414 0.0057239
-0.0059734425 0.006383256 -0.0052131317 0.00628938 0.003507268 0.005016248 0.0043792105 0.0058365795
0.0018659041 0.0027447883 -0.0029094755 0.0030037514 -0.002324304 0.0021803891 -0.0025504886 -0.0022464576
0.0027552394 -0.0023941158 0.002197096 -0.0027485315 -0.0023265064 -0.0021502106 -0.0014185522 -0.0021539733
0.0033126941 0.0034399698 -0.0029869378 0.003982889 -0.004195529 0.0030298978 -0.003635646 -0.0033670356
0.004085343 -0.004061392 0.0031525078 -0.004006139 -0.002837952 -0.0030156125 -0.0038939652 -0.0040043704

base_model.model.bert.encoder.layer.1.attention.self.query.lora_A.weight f4 [16, 384]
00000000: 0d18 263d 661b 40bd 961f e9bc 08b0 4b3b
00000010: 14c4 3b3d 630f bb3c 09df db3c 39ab 433d
00000020: b6b5 41bb b7ba fdbb 20bf 2d3d 5079 eabc
00000030: 00c9 143d 54de 7b3c e2a8 733b 43bd be3c
00000040: 5ca3 17bd 4395 f23c d5a2 a03c 3892 e2bb
00000050: c68e dbbc cfc5 35bd 8d99 5bbd 1b90 cb3c
00000060: f983 32bd e941 9a3c a2cf 9dbc c03b e43c
00000070: 2002 b13c a9ca 423c ee98 44bd 0105 1cbd
00000080: c951 3ebd 8ceb 4ebd 87d7 f2bc bdfa cf3c
00000090: 1a58 e33c b96a 23bb a2ba 873c 639f b73b
000000a0: b6d8 99bc 1c47 30bd 8c63 0c3d 9ff3 36bd
000000b0: 9794 bfbc 7ddc f0bc 1688 acbb 9d28 c33c
000000c0: 48e3 94bc 50df 29bb 7600 48bb c5c8 45bd
000000d0: eddb 953b c8cc 4c3d 1fe0 14bd ba6c 233d
000000e0: 6449 3fbd dfc8 01bd f5bd ad3c 0e68 ab3b
000000f0: 691a d33c 01ea 57bc 155c 88bc eecd 5a3c
00000100: b76a 283c 09ad 8e3c 4ccf 02bc f19a db3b
00000110: c06b a13a fc74 97bc 0746 443d 7dc5 dbbb
00000120: fe49 17bc 3b6b 4dbc af0f cd3b effb 4ebd
00000130: 01e5 443d 9fb3 f8bc d1f2 e13c c6a1 1e3d
00000140: 4f47 103d e140 7d3c 2855 463d d6ed 093d
00000150: caf4 18bd 1039 35bc 9cf1 ad3c 5cea 393c
00000160: 12b7 04bd ced4 0c3b 019d 64bc 9609 b63b
00000170: bf22 cd3c 2aa7 2ebd 6180 04bd 845d 98bc
00000180: b9d8 353d d764 aebc a269 2c3d 22dd d8bc
00000190: 7c1a 04ba 78c7 f53b c730 3ebd f48e bd3c
000001a0: de09 2bbd c7d9 023d 31bf c4bc 00de c9bc
000001b0: 5445 db3c 54a3 1dbd 5766 3fbd b261 413d
000001c0: 22d2 393c 0f09 46bd ea42 4e3d 8053 913c
000001d0: 3dab 323d b8c4 f6bb 47bc 903b f76f 5ebc
000001e0: 1a77 0fbd 8a98 b5bc ec21 603c 9356 ef3c
000001f0: ac2f 6bbb e46f 1f3d 8f33 ac3c 9275 bf3c
00000200: 5bdd 13bc d6f4 15bd 80fb 063d 8be3 d73c
00000210: 0238 fbbb fd80 e7bc 0897 bd3c 7965 163d
00000220: 3ac1 543c 10fb 16bd 9ad0 2cbb 515f 2bbd
00000230: 3d14 5abd cd72 65b8 cd73 463d 7310 21bd
00000240: 7d76 c5bc 7f71 3a3d c886 ab3c 888b b5bc
00000250: eb7c 463d cc20 efbc fd21 5dbc dbd8 f63b
00000260: a669 bc3b 4bc6 13bd cc36 48bd dc20 173d
00000270: 669b 31bd 9347 d43c c384 1dbd 08e3 22bd
00000280: 59bb 393d 7eec f3bc 18b5 20bd 0040 46bd
00000290: f56c 30bd e4b9 13bd 8ed9 343d 3560 a53b
000002a0: 3674 8c3a 6f57 e73c 312c 1e37 8229 e2bc
000002b0: 53d7 12bd e58b 383b 4584 3e3c b5ad d4bc
000002c0: b0fd 2cbc 815c 6f3b dc16 34bd ab21 adbc
000002d0: 3b54 493c 5f2c ad3c 78f9 163d b1e8 4b3c
000002e0: f932 46bd afb0 ecbc 2d66 2ebd bbd6 77bc
000002f0: 69a2 1cbd c4ff 293d ae97 33bd bfa1 2bbd
00000300: 6d8f 213b fa5c 073d 58a4 ae3c b391 ff3c
00000310: 9022 293c 99e0 0cbc 5386 8bbc 2027 1fbd
00000320: 687c 94bc 5141 333d 061a 0c3d 24cf 28bd
00000330: 78bc 1abc 8c11 0bbd 8225 b13c 4765 cd3c
00000340: b963 09bd ddf9 773c 3d5d ca3b 8dfa edbc
00000350: cc07 623c db0c 3e3c 7508 28bc cd93 0dbc
00000360: 244c 9c3c 2166 033d 56de 663c 9eeb 533d
00000370: 0386 233d 962c aa3c 0b75 46bb 5cf9 1abd
00000380: 45fe f1bc 63a1 8d3c 8800 fcbc 8621 19bd
00000390: 1555 1c3d c052 27bc 095d 07bd 852f 2b3d
000003a0: 79a1 2a3d 9992 4a3c f39a c53c fa07 d33c
000003b0: e283 353d 32e2 65bc 5242 9f3c abfa 8b3c
000003c0: 1b4e 553d 2f68 01bd e86a b43c 9c4b bebc
000003d0: 43f7 40bb 6049 80bc 41da 103c 34bf 3c3d
000003e0: 5851 383d 47b8 db3c b1fb 1c3d 90c3 4dbd
000003f0: 34b5 4d3d 7c0a 303c 4fa4 003d e876 283c
0.04055028 -0.04690113 -0.028457444 0.0031080265 0.04584129 0.022834485 0.02683975 0.047770713
-0.002955777 -0.0077432054 0.0424186 -0.0286223 0.0363245 0.015372831 0.003717952 0.023283606
-0.037021026 0.02961219 0.019608894 -0.0069144033 -0.026801478 -0.044378098 -0.053613234 0.024848988
-0.04358289 0.018830257 -0.019264046 0.027860522 0.021607459 0.011889138 -0.047997408 -0.03809071
-0.046464715 -0.050517604 -0.029643787 0.025388116 0.027751971 -0.0024935438 0.016568486 0.005603717
-0.018780094 -0.043036565 0.034274623 -0.04466593 -0.023386283 -0.029402012 -0.005265246 0.023823077
-0.018174782 -0.0025920458 -0.0030517853 -0.048287172 0.0045733363 0.049999982 -0.03634655 0.03989861
-0.04670085 -0.031685706 0.021208743 0.00523091 0.02576943 -0.0131783495 -0.01664547 0.0133547615
0.010279349 0.017416494 -0.007983994 0.00670182 0.0012315437 -0.0184884 0.047918346 -0.006706892
-0.00923395 -0.012537773 0.006257973 -0.05053323 0.048069958 -0.030359088 0.027581604 0.038728498
0.035224255 0.015457363 0.048421055 0.033674084 -0.037342824 -0.011060968 0.021233372 0.01134738
-0.032401152 0.0021489146 -0.013953448 0.005555342 0.025040982 -0.04263989 -0.032348994 -0.01859928
0.044396136 -0.021288319 0.042092927 -0.026472632 -0.0005039347 0.007500585 -0.046433236 0.023139454
-0.041757457 0.03194597 -0.024016948 -0.02464199 0.026766457 -0.03848584 -0.04672846 0.04721231
0.0113416035 -0.048348483 0.050356783 0.017740011 0.043620337 -0.007530775 0.0044169757 -0.013576499
-0.035025693 -0.022167463 0.013679963 0.029216086 -0.003588657 0.038925067 0.021020679 0.023371492
-0.009024943 -0.036610447 0.032954693 0.026353618 -0.0076665888 -0.028259749 0.023143306 0.036717866
0.012985522 -0.036860526 -0.0026369453 -0.041838948 -0.053241957 -5.470477e-05 0.04845028 -0.039322328
-0.024104351 0.045518395 0.020938292 -0.02216126 0.048458975 -0.029190443 -0.013496873 0.0075331754
0.005749899 -0.03607778 -0.048880383 0.03689657 -0.04336109 0.025913035 -0.03845669 -0.039767295
0.045344684 -0.029775854 -0.039235204 -0.04840088 -0.04307266 -0.03606595 0.04415279 0.005046869
0.0010715786 0.028239934 9.427823e-06 -0.027607683 -0.03584988 0.0028159556 0.011628215 -0.025961736
-0.010558531 0.0036523642 -0.043967113 -0.021134218 0.0122881485 0.021139322 0.036859006 0.012445615
-0.048388455 -0.028892843 -0.04257791 -0.015126879 -0.038240824 0.041503683 -0.043845825 -0.0419023
0.0024652139 0.033047654 0.0213186 0.031197404 0.010323182 -0.00859847 -0.017031824 -0.038855672
-0.018125728 0.043763462 0.034204505 -0.04121317 -0.0094443485 -0.03395228 0.02162433 0.025072707
-0.03354237 0.015135256 0.0061756657 -0.029050136 0.013795804 0.011599745 -0.010255923 -0.0086411955
0.019079275 0.03207982 0.014091095 0.051738374 0.039922725 0.020773213 -0.0030282165 -0.037835464
-0.02954019 0.01728887 -0.030761972 -0.037385486 0.038167078 -0.0102126 -0.03304771 0.041793365
0.0416579 0.012364053 0.024121737 0.02576064 0.044315226 -0.01403098 0.019440804 0.017087301
0.05207644 -0.031593498 0.022023633 -0.023229413 -0.0029444254 -0.015659988 0.008841098 0.046080783
0.04499945 0.026821269 0.03832597 -0.05023533 0.050221637 0.010744687 0.031406697 0.010282256

base_model.model.bert.encoder.layer.1.attention.self.query.lora_B.weight f4 [384, 16]
00000000: 6c8e 123b b8e3 8bbb 7c2d 2b3b b3e2 d8ba
00000010: b241 643b d6fd f6ba d7ab a7bb 34d0 66ba
00000020: e5b6 9e3b 9c71 c33b 5e90 86bb 6baa 86bb
00000030: ddaa 873b 454d 573b b869 3c3b 1dd8 77bb
00000040: bf58 173b b799 17bb 90d5 e03a 36f6 bfba
00000050: cc6b 113b e725 02bb 7b91 12bb fa8e e2ba
00000060: ab41 2b3b 50d0 233b 38e8 1dbb 1355 05bb
00000070: baf7 253b b154 1d3b b01d 363b f639 16bb
00000080: 4d0d a239 f857 cf39 29ec 0e3b a87f 1639
00000090: 3601 9539 8c35 e1ba 8183 0938 a9d6 193b
000000a0: 242f 3038 3b9b b9b9 1990 49ba 6685 3c3a
000000b0: aac4 ee39 9d89 a0b9 4158 a8b9 b9fa f439
000000c0: 717e 243b f77d 84bb d170 d03a 1ca5 12bb
000000d0: f9ae 3e3a b04c 70ba 4f78 4bbb 2f36 7db9
000000e0: df53 8d3b 21e1 ec3a a60a f4ba 121e b5ba
000000f0: b620 0a3b 448f 443b 754b 783b 8d57 3cbb
00000100: e52f 7a3a 176c f7ba 121e bf3a c5b9 08bb
00000110: 2cc0 5e3a aa56 95ba 39b0 b8ba daab 123b
00000120: eca9 be3a 7865 b43a 2609 adba ce81 ceba
00000130: 84db 553a eefd d43a 23fa 913a cc7c fbba
00000140: ec97 103b 763c 73bb 49ef b63a a3f5 14bb
00000150: 656e b0b8 3451 2bba 8af5 34bb ba96 ad38
00000160: c2ca 813b 84d1 7f3a ca58 c1ba 1940 61ba
00000170: 4276 d93a 04cd 223b 31c9 5c3b ba05 f2ba
00000180: 3cfe 1f3b e196 17bb d030 983a 479c d7ba
00000190: 9d5d 5c39 324d 71ba 1b46 27bb 5f8d 35ba
000001a0: ac3e 513b 92de 833a 9ed5 9dba 5609 87ba
000001b0: 4e68 083b d362 083b 3e4a 283b beae d8ba
000001c0: 6b60 de3a 08eb 8ebb a272 b73a 0ddc 08bb
000001d0: dcc1 953a d3aa 7bba bcdb 81bb 02cb 33ba
000001e0: ce48 8d3b d9a2 473b 63e4 06bb 8678 49bb
000001f0: 4b87 2a3b 94dd 683b cb25 593b 5493 76bb
00000200: 3f7d 7f3a f43a 9bba b57b 173b 59fe 83ba
00000210: e2ac 9e3a 2f55 caba fb33 94ba 2cfb 0b3b
00000220: 09d1 0c3b 31c5 c73a 7892 cdba d094 94b9
00000230: 681e 053b 963a 4538 6334 213b 552c b8b9
00000240: eacb 12bb e816 80b8 e01d 923a 4c97 8b3a
00000250: 7503 473a 3f5b d7ba fd83 6db9 095f 793b
00000260: 60e4 bfb9 2d7d 113a fea8 6bba acbe 8eba
00000270: e14d bd39 5fa2 1eba b0e8 c3ba ffdd 5538
00000280: d6a4 2bbb fbc1 703a 373a b3ba 9bb6 3d3b
00000290: a894 2d3a 5c82 d038 553f 863a 7edd cbb8
000002a0: 949c beba 1b46 6839 9e27 153a dfd5 0a3a
000002b0: 9f79 60ba b7de a7ba 511c 63bb 115d 583a
000002c0: 41d9 c6ba 11e5 073b fc3f 08bb 236e 1e3a
000002d0: c837 11bb 4c17 cd3a 6d9d 0a3b 6be3 a739
000002e0: 3b51 11bb 8526 2fbb 6a59 323b 0cbc a93a
000002f0: 15a9 12bb f2aa b5ba 4fca d9ba 1475 f43a
00000300: fc2e 0aba c2b0 003a 5b7f 1bbb 9062 9738
00000310: 4b7d b2ba 3d14 e03a 2d73 893a b9cc 44bb
00000320: cd6c faba e69a 48ba 94e3 f33a 7431 9bba
00000330: 61a7 fbba 46aa 053b 5698 0ebb 256d eeb9
00000340: d289 44bb f27b 7b3b 6cac 9cbb d01a e63a
00000350: ce9e 8bbb 5da2 513b bfc3 803b 8b5b a93a
00000360: ff66 8abb 18a3 94bb 658c a23b d516 7b3b
00000370: 08be 91bb bda6 64bb ab2f 69bb 7407 693b
00000380: e1b1 513b 0a91 0bbb 9ed4 013b aebb 6bbb
00000390: b7d1 2c3a ffd8 6cb9 0f4f c1ba d6d1 1eba
000003a0: f0f0 193b a52a cb3a c4d7 b1ba 5f5a 1fbb
000003b0: 3113 d83a 8b5c 3d3b 8136 583b f7f2 f8ba
000003c0: c461 0fb9 ebb5 e839 62ea 2abb 7d02 3cb9
000003d0: 2327 78ba 9b93 1c3b 0748 263a 32f0 2abb
000003e0: 8507 28ba 5b0d 3fba 4414 dd3a 472b c239
000003f0: 8706 aaba f6b2 f439 c81b 6e38 4188 2238
0.0022362722 -0.0042690895 0.002611964 -0.0016547054 0.0034829197 -0.001884396 -0.0051169205 -0.00088048284
0.00484358 0.005964471 -0.0041065654 -0.004109671 0.0041402415 0.0032852453 0.0028749537 -0.0037818023
0.0023093668 -0.0023132393 0.001715349 -0.001464552 0.0022189496 -0.0019859017 -0.0022364545 -0.0017285042
0.002613167 0.002499599 -0.0024094712 -0.0020344898 0.0025324658 0.002400678 0.0027788691 -0.002292273
0.00030908958 0.00039547659 0.0021808243 0.0001435267 0.00028420397 -0.0017182096 3.2785818e-05 0.0023473895
4.2005573e-05 -0.00035401605 -0.0007689014 0.0007191509 0.00045541424 -0.00030620108 -0.0003210921 0.0004672611
0.002509978 -0.0040433365 0.0015902763 -0.0022376245 0.0007273998 -0.0009166701 -0.0031047051 -0.00024148145
0.0043129767 0.0018072465 -0.0018618896 -0.0013818166 0.0021076626 0.002999262 0.0037886773 -0.0028738708
0.000954388 -0.0018876818 0.0014581105 -0.002086268 0.0008497264 -0.0011393626 -0.0014090604 0.0022380264
0.001454649 0.001376315 -0.0013201579 -0.0015755238 0.00081580156 0.0016249993 0.0011137169 -0.0019186973
0.0022063209 -0.0037114895 0.001395681 -0.0022729419 -8.4128966e-05 -0.00065352325 -0.0027612173 8.277358e-05
0.003960938 0.0009758698 -0.0014751193 -0.000859262 0.001659103 0.0024841437 0.0033689255 -0.0018464841
0.002441301 -0.0023130702 0.0011611227 -0.0016449773 0.00021015709 -0.00092049234 -0.0025523964 -0.0006925668
0.0031928224 0.0010060838 -0.0012041812 -0.0010302465 0.0020814124 0.0020810857 0.0025679017 -0.0016531569
0.0016965991 -0.004361514 0.0013995955 -0.0020883114 0.0011425572 -0.0009600345 -0.003962962 -0.00068585586
0.0043116575 0.0030462055 -0.0020582906 -0.0030742004 0.0026020582 0.0035532461 0.0033134099 -0.0037624435
0.0009746141 -0.0011843131 0.0023114507 -0.0010070308 0.0012105966 -0.0015436764 -0.0011306995 0.0021359427
0.00214869 0.0015241263 -0.001568391 -0.00028339634 0.0020312313 4.7023022e-05 0.0024597875 -0.00035128245
-0.0022399374 -6.107782e-05 0.001114782 0.0010649948 0.00075917627 -0.0016430392 -0.00022651251 0.003805103
-0.00036600512 0.00055499637 -0.00089897204 -0.0010890565 0.00036106913 -0.0006051417 -0.0014946666 5.0989907e-05
-0.002619078 0.0009184179 -0.0013673966 0.0028947953 0.0006621578 9.942494e-05 0.0010242263 -9.7210504e-05
-0.0014542514 0.0002215136 0.00056898023 0.00052961515 -0.0008563045 -0.0012807463 -0.003465433 0.0008253614
-0.0015170948 0.00207359 -0.002079009 0.00060436333 -0.0022158492 0.0015647202 0.0021150962 0.00032022162
-0.0022173661 -0.002672584 0.002721394 0.0012949719 -0.0022378613 -0.001386015 -0.0016616079 0.0018650615
-0.00052712834 0.00049091515 -0.0023727033 7.2186e-05 -0.0013617662 0.0017095875 0.0010486596 -0.003002925
-0.0019105911 -0.0007652476 0.0018607252 -0.00118403 -0.0019199663 0.002039568 -0.002175828 -0.00045476216
-0.0029989374 0.0038373438 -0.0047812965 0.0017555598 -0.0042608744 0.0031987645 0.0039295848 0.0012920959
-0.004223704 -0.004536044 0.004960584 0.003831317 -0.0044477023 -0.0034889423 -0.003558139 0.003555742
0.0031996893 -0.0021296167 0.0019810568 -0.003597002 0.0006592529 -0.00022587551 -0.0014748293 -0.00060584897
0.0023489557 0.001550038 -0.0013568331 -0.002431534 0.0016485212 0.0028894271 0.0032991471 -0.0018993308
-0.00013673963 0.00044386028 -0.0026079644 -0.00017930004 -0.0009466281 0.002389169 0.00063431304 -0.002608311
-0.0006409812 -0.0007288062 0.0016867002 0.00037034808 -0.0012971916 0.00046672643 5.6769495e-05 3.8750706e-05

base_model.model.bert.encoder.layer.1.attention.self.value.lora_A.weight f4 [16, 384]
00000000: 1ce6 1f3c 75f5 3abd 7c6d 0bbc 89cb 0c3d
00000010: 8683 45bc 482e 0b3d c614 643b 1ed2 0dbd
00000020: 04d9 963c 74ef 143d a59d 4cbd af68 993c
00000030: 4957 8fbc f15a e3bc 8928 d73c 4621 f2bc
00000040: 28b3 21bd 45c8 2c3d b534 9bbc 3ece 5fbd
00000050: f4d4 14bc 1549 4dbd 543d 1c3d 9665 a1bc
00000060: 7732 9bbc 9ac5 cdbb 3d5c 083d 7556 f6bc
00000070: cd1d e8bc d432 c1ba 1d34 21bd 3d54 7abc
00000080: fe9a 193c def5 a2bc dcde 1cbb fb91 84ba
00000090: 6f49 22bd 111a 3bbd c8bd bebc cb8a 0cbc
000000a0: d728 bbbc d738 09bd 84a3 2a3a f800 453d
000000b0: 4349 2a3d f7e3 173d ec7d 20bd a645 ab3c
000000c0: 198b e23c f02d 07bc 03f4 c7ba 2472 76bb
000000d0: e8e6 b93c 83e9 2c3c 4c18 633c d208 2ebd
000000e0: 9645 95bc 1a1c 11bd 8664 933c 342f 3c3d
000000f0: f7c6 b3bb 9991 48bd 5f77 b03c 85e2 95bb
00000100: 82c7 dc3c d8c6 f13c 9fab 0fbd 3e16 0a3d
00000110: 8e15 af3c 7b45 603d 77c4 3abd cd6f 21bd
00000120: 123a d43c 54cf 84bc 84be 5bbd dee0 2c3c
00000130: e635 2b3b 32e3 1ebc a14f 03bd 4da6 9dbb
00000140: 07c3 243d f0ed 4cbd e6e1 613c abf5 27bd
00000150: 5ee9 d6bc 9349 34bc 36da 003a 535e f5bc
00000160: d8dd b03c 001a 9abc d487 193d 7110 873b
00000170: 80d1 de3b 39d8 b93c c9b4 493d cf4f 463c
00000180: d847 a53c 21be 73bc a893 0f3d f922 ddbc
00000190: fa06 f23c b98b 4fbc c0b5 7bb9 593c 6ebc
000001a0: 5770 14bd 5194 133c 0984 923c 18a5 0abc
000001b0: d087 05bd 10a8 113d cc14 2a3d c2ae 743c
000001c0: 9593 e33c 96aa 3b3c d3b6 803c a405 4a3d
000001d0: a595 57bc 076e f33c 94b4 f13c 0603 8738
000001e0: 04d8 9cbc 1cde 053d 3a55 05bd a9c6 0f3d
000001f0: 02a4 75bc 728d 803c 045b 2d3d e414 a43b
00000200: f812 4dbd 87dc fbbb e38c 46bc f08e 363b
00000210: dfc1 95bc b84f e1ba 3cdb eebc 2bed f93c
00000220: 89b5 04bb f006 c3bb 0fdc bf3c ebb5 48bd
00000230: 5df6 873c 0a4b ca3a 5674 dcbc 7c06 6bbc
00000240: dbb0 8fbc cc81 24bc 54cc ea3c bc15 23bd
00000250: 552a abbc 0546 24bd 1621 a13c 0ec1 df3b
00000260: b75d dfbc 14ce bebc eeed 6d3c 33c6 6bbc
00000270: 5313 39bc 3091 553d 6bb0 4f3d 8bc2 5abc
00000280: e245 233c 26cc 87bb 1d9c 15bc d9fe f23c
00000290: 45ba e1bc d13f 90bc 1049 a9bb 96aa 1e3d
000002a0: 9153 2d3b facc 953c 1363 17bd 30b0 ebbc
000002b0: 5a08 9ebc 53c6 6ebc 74d8 ef3b e49b eabc
000002c0: f243 57bd 8eba ec3b a7fe 2b3d 75e2 593c
000002d0: 8676 8abc d2f4 65bc 920d 02bc ca53 443c
000002e0: 4fe9 8e3b 20e3 a03c 4d07 0b3c 86de 22bd
000002f0: 6e81 963c fc93 24bd 52a6 3dbd 708e 1c3c
00000300: 6953 c3bb bbf5 ec3c 2d44 f4bb 51c2 03bd
00000310: f33c e8bc da73 273d 4292 e03c 2b97 213d
00000320: 011b 18bd 2625 b2bb b15f 883c 8b2a 1ebc
00000330: e370 053d 7e32 d33b f750 62bd b349 21bd
00000340: 5521 233d 6aa1 19bb e5f6 c13c ef30 053d
00000350: 695d 0c3d 55aa 183d ead7 cfbc 3839 41bd
00000360: d879 253d 84c0 2ebd 0050 33bd 9688 473d
00000370: 2731 ddbc 8809 1dbd 8a40 7bbc 9d75 2ebd
00000380: 47f6 04bd 7fdc fb3c 6db7 1f3d 038e 433d
00000390: 5b06 193d 579e 093d d787 23bc ce30 54bc
000003a0: 4805 303d 5fbe 8fbc 5c8b 4e3d d3f1 2c3d
000003b0: dc3f fa3c 1794 2c3d e891 723b 83a3 5bbc
000003c0: 7d0c 0d3d 4ac6 353d f7be 503c f265 393c
000003d0: aa5b 1c3d af0b 493d 5876 24bb a1d2 0ebd
000003e0: 3d1c f5bb b61a aebc 153b bebc d6ec 8b3c
000003f0: 3c2f 6d3c 6aff cabc 378a 17bd d388 e63c
0.009759452 -0.045644242 -0.00850999 0.034373794 -0.012055283 0.033979684 0.003480242 -0.03462421
0.018414028 0.036361173 -0.04995503 0.018726675 -0.017497675 -0.027753325 0.026264446 -0.029556882
-0.039477497 0.04218318 -0.018946031 -0.054640047 -0.009083975 -0.050118525 0.038144425 -0.01970176
-0.018944962 -0.0062796595 0.03329109 -0.030070523 -0.028334523 -0.0014739879 -0.03935634 -0.015278873
0.009375332 -0.01989263 -0.0023936545 -0.0010114306 -0.039620813 -0.045679156 -0.023283854 -0.008578013
-0.022846622 -0.033501472 0.0006509351 0.048096627 0.041573774 0.03708264 -0.03918259 0.020907234
0.027654218 -0.008250698 -0.0015255216 -0.0037604654 0.022693112 0.01055372 0.013860773 -0.04248888
-0.018221658 -0.03542719 0.01799227 0.045943454 -0.005486365 -0.048966978 0.021541296 -0.0045741224
0.026950601 0.029513761 -0.03507578 0.033712618 0.021372583 0.05475376 -0.04559752 -0.039413262
0.025906596 -0.016212143 -0.053648487 0.010551659 0.0026124655 -0.009697722 -0.032058362 -0.0048110844
0.040225055 -0.050031602 0.013786769 -0.04100577 -0.026234325 -0.01100387 0.00049153285 -0.029952204
0.021590158 -0.018811226 0.03748305 0.004121833 0.0067998767 0.02268611 0.049244676 0.012103989
0.02017586 -0.014876873 0.035052925 -0.026994215 0.029544342 -0.01266759 -0.00024004932 -0.014540755
-0.036239948 0.009007529 0.017885225 -0.008462213 -0.032600224 0.035560668 0.04152374 0.014934244
0.027780334 0.011454245 0.015712177 0.049321786 -0.013158237 0.029715551 0.029505052 6.437865e-05
-0.019145973 0.032682523 -0.03255198 0.035101566 -0.014992716 0.015692446 0.042323127 0.005007373
-0.050066918 -0.007686201 -0.012118551 0.0027856193 -0.018280922 -0.0017189896 -0.029157273 0.030508598
-0.0020249805 -0.0059517547 0.023420362 -0.049001615 0.016596967 0.001543374 -0.026910942 -0.014344808
-0.017540386 -0.010040712 0.028661884 -0.03981565 -0.020894209 -0.04010584 0.019669097 0.006828434
-0.027266366 -0.023291625 0.014522059 -0.014390516 -0.011296111 0.052140415 0.050705355 -0.013352047
0.009965392 -0.0041442094 -0.009131459 0.029662536 -0.02755464 -0.017608555 -0.0051661804 0.038736902
0.0026447515 0.018286217 -0.03695972 -0.028770536 -0.019291092 -0.014573651 0.0073195044 -0.028638788
-0.052555032 0.0072243875 0.041990902 0.0132986205 -0.01690222 -0.0140354205 -0.007937806 0.0119828675
0.0043613086 0.019639552 0.008485627 -0.039762996 0.018372264 -0.04018019 -0.046301194 0.009555444
-0.005960871 0.028925767 -0.0074544162 -0.032167736 -0.028349375 0.04088197 0.027413491 0.039450806
-0.037135128 -0.0054365573 0.016647192 -0.009653698 0.03257836 0.006445228 -0.055252995 -0.039376926
0.03982671 -0.0023442158 0.023677299 0.03251737 0.03426877 0.037271816 -0.02537151 -0.04717371
0.040399402 -0.042664066 -0.043777466 0.048714243 -0.027000977 -0.038339168 -0.0153352115 -0.042592634
-0.03246143 0.03074479 0.038993288 0.047742855 0.037359577 0.03359827 -0.009981117 -0.012951089
0.042973787 -0.01754683 0.050425872 0.04222281 0.030548029 0.042133417 0.0037013236 -0.013405683
0.034435738 0.044378556 0.012740842 0.01131581 0.038173355 0.049083408 -0.0025094952 -0.03486884
-0.007480173 -0.021252971 -0.023221532 0.017080706 0.014476594 -0.024779994 -0.036997046 0.028141415
