lora_crossencoder_has_instruction_r_8 la_16 ld_0.3/checkpoint-1548/adapter_model.safetensors (safetensors, 299980 bytes, 25 tensors)

base_model.model.bert.encoder.layer.0.attention.self.query.lora_A.weight f4 [8, 384]
0.03076473 -0.021470305 -0.0023185215 -0.010366396 -0.010081354 0.008910862 0.03605863 0.002605379
0.034767993 -0.053940266 0.02139828 0.018804403 -0.0053394255 -0.015801527 -0.03486855 -0.020322992
0.035655152 -0.022646824 -0.022678962 -0.014664093 -0.004581595 0.028202442 -0.03748051 0.021986296
7.886935e-05 -0.01899245 0.0027791096 -0.019296147 0.047958147 -0.0005738553 -0.025715396 0.027281335
0.013247051 -0.041414846 -0.027210679 0.010927139 0.02215442 -0.04710293 0.04686 0.016091835
0.0025163565 -0.018618578 -0.011481149 -0.02596637 0.03727283 -0.021761945 -0.0001670942 0.017010858
0.048231848 -0.026339702 0.02348494 0.03218106 -0.027608411 0.023001954 0.053417925 0.016978405
-0.042862676 -0.038725488 -0.037613478 0.025930203 -0.029319819 -0.0027095375 0.052705508 -0.014868382
-0.025098985 -0.02113938 0.051690467 0.007240025 -0.04380008 0.038800016 0.050798308 -0.03802597
-0.050890516 -0.022961799 0.009171149 0.0388527 -0.028683284 -0.017757406 -0.04786646 -0.04122799
0.04549831 0.028505968 0.04362024 0.00704156 -0.032501258 -0.04423888 0.044115674 0.034244448
-0.031365555 -0.05030814 0.007243221 0.030759593 -0.035944767 0.00034611294 0.027887097 -0.0091415355
0.022300856 0.013159305 0.037004333 -0.042211443 0.008656868 0.004298269 -0.046884403 -0.006339254
-0.022476528 0.04598496 0.002502285 0.046309724 0.023772342 0.006665684 0.03375188 0.003535747
0.019729873 0.04522597 -0.03764721 -0.010830653 0.034255724 0.024186216 0.04638232 -0.03297166
-0.034018185 -0.015895205 -0.0236247 -0.025933217 -0.036187287 0.011665363 -0.040424123 0.020683559
-0.032233313 -0.019505609 -0.045661893 -0.008934493 0.019192006 0.015311826 -0.023792312 0.0077124354
-0.04751016 0.040509425 -0.044817984 -0.049022626 0.045545265 0.01693558 -0.0170515 -0.008159855
-0.012327118 -0.0342181 -0.014404195 0.03106774 0.017066257 -0.017051475 0.027066706 0.0036231745
0.0089679025 0.029525453 -0.025268557 0.04373311 0.011868147 -0.050088137 0.04307295 0.025025656
0.032756574 -0.0083740875 -0.00045263898 0.02572537 -0.0027336248 0.029288532 0.040661927 0.025461122
0.051804055 0.03372318 0.044843737 0.04945797 0.0061240233 0.015077587 0.0071994816 0.03736434
0.0242407 0.045974728 -0.010381342 -0.011608511 0.050639454 0.024031509 0.04668092 0.029968726
-0.03701836 0.02481369 -0.0142435795 -0.02012992 0.024218192 -0.031359784 -0.01331868 0.013972587
0.0028144065 -0.010118321 -0.0024087152 -0.049868118 -0.027075596 0.0024237179 -0.053382933 -0.005981111
-0.048732173 0.009681598 -0.011245455 0.032521095 -0.0049978714 -0.011309292 0.043998983 0.04457473
-0.042194027 -0.031434715 0.03810411 0.026253423 -0.019092554 0.018780664 0.018583093 -0.0058394494
-0.008067998 0.0036326936 -0.009749492 -0.023198312 -0.009163124 -0.033062387 -0.026458818 -0.012308602
-0.009716522 -0.0033388238 0.048240386 -0.047610812 0.00079113385 0.053621143 0.010535661 -0.0205438
-0.009530073 0.015480224 -0.050102025 0.034118466 -0.0434178 -0.031299766 -0.047121607 -0.01855055
0.011564379 -0.043531604 -0.020282246 0.026142986 -0.0084884465 0.004332077 0.017535327 0.04725739
0.0026202265 0.009357852 -0.035187382 0.007258935 0.04833854 0.027015917 0.030426133 0.009663376
00000000: 5106 fc3c 7ee2 afbc 56f2 17bb d1d7 29bc
00000010: 432c 25bc ddfe 113c 37b2 133d 02bf 2a3b
00000020: e268 0e3d 78f0 5cbd 724b af3c b10b 9a3c
00000030: 59f6 aebb 3472 81bc 53d2 0ebd 677c a6bc
00000040: 230b 123d d585 b9bc 3bc9 b9bc aa41 70bc
00000050: 3421 96bb cf08 e73c 2a85 19bd 9b1c b43c
00000060: a966 a538 0e96 9bbc b921 363b f412 9ebc
00000070: c36f 443d c76e 16ba 18a9 d2bc 1b7d df3c
00000080: 290a 593c 9da2 29bd eee8 debc be07 333c
00000090: 307d b53c 00ef 40bd 45f0 3f3d 06d3 833c
000000a0: 75e9 243b fd85 98bc 6e1b 3cbc 6db7 d4bc
000000b0: 65ab 183d 1b46 b2bc 0236 2fb9 5b5a 8b3c
000000c0: c28e 453d 5cc6 d7bc 7d63 c03c 4ad0 033d
000000d0: 092b e2bc 986e bc3c c1cc 5a3d 4c16 8b3c
000000e0: c690 2fbd 9e9e 1ebd 9710 1abd 946b d43c
000000f0: 1e30 f0bc 7f92 31bb bbe1 573d 849a 73bc
00000100: 639c cdbc 7e2c adbc 62b9 533d bb3d ed3b
00000110: b667 33bd c4ec 1e3d e311 503d 1fc1 1bbd
00000120: 9372 50bd 621a bcbc 9642 163c 0224 1f3d
00000130: 35f9 eabc fb77 91bc 9f0f 44bd aede 28bd
00000140: 705c 3a3d 5985 e93c 23ab 323d e3bc e63b
00000150: 0a20 05bd d433 35bd a3b2 343d e843 0c3d
00000160: 2b79 00bd e90f 4ebd 8b58 ed3b 8bfb fb3c
00000170: d23a 13bd 7e76 b539 7b73 e43c 61c6 15bc
00000180: 49b0 b63c 209a 573c db91 173d e8e5 2cbd
00000190: 89d5 0d3c 7ed8 8c3b dc09 40bd 84b9 cfbb
000001a0: b220 b8bc ba5a 3c3d 60fd 233b 44af 3d3d
000001b0: 37be c23c cf6b da3b 693f 0a3d feb7 673b
000001c0: 8ba0 a13c de3e 393d f633 1abd 0d73 31bc
000001d0: bb4f 0c3d 2c22 c63c 63fb 3d3d 4b0d 07bd
000001e0: a756 0bbd a936 82bc 9688 c1bc e671 d4bc
000001f0: 1f39 14bd 1420 3f3c c493 25bd 9170 a93c
00000200: 1407 04bd 3aca 9fbc f707 3bbd fb61 12bc
00000210: 8e38 9d3c 74de 7a3c 18e8 c2bc 99b8 fc3b
00000220: 039a 42bd 36ed 253d 1093 37bd f3cb 48bd
00000230: ac8d 3a3d 7cbc 8a3c 96af 8bbc eab0 05bc
00000240: aef7 49bc 4728 0cbd 93ff 6bbc c681 fe3c
00000250: 89ce 8b3c 89af 8bbc ffba dd3c c872 6d3b
00000260: 1cee 123c 5ddf f13c 0100 cfbc 7d21 333d
00000270: 9e72 423c 3829 4dbd 436d 303d 9b02 cd3c
00000280: c22b 063d 7833 09bc 2d50 edb9 03be d23c
00000290: 9d26 33bb 81ee ef3c 1f8d 263d d893 d03c
000002a0: 7d30 543d 5121 0a3d 11ae 373d 7194 4a3d
000002b0: 08ac c83b fc07 773c a1e9 eb3b 5a0b 193d
000002c0: 6f94 c63c ff4f 3c3d 8116 2abc a031 3ebc
000002d0: 516b 4f3d badd c43c 7e34 3f3d f980 f53c
000002e0: 90a0 17bd 1446 cb3c e75d 69bc 81e7 a4bc
000002f0: 3b65 c63c 1e73 00bd 9836 5abc 47ed 643c
00000300: e871 383b 50c7 25bc 89db 1dbb 8342 4cbd
00000310: a4cd ddbc 3dd7 1e3b 10a8 5abd 32fd c3bb
00000320: 639b 47bd 919f 1e3c db3e 38bc d734 053d
00000330: 2fc5 a3bb 9c4a 39bc 4738 343d fe93 363d
00000340: a5d3 2cbd b0c1 00bd 0e13 1c3d 6b11 d73c
00000350: fd67 9cbc e8d9 993c 923b 983c da58 bfbb
00000360: a32f 04bc 7c12 6e3b 55bc 1fbc 630a bebc
00000370: ed20 16bc 6d6c 07bd 2ac0 d8bc 05aa 49bc
00000380: 0c32 1fbc 2bd0 5abb b697 453d 8e03 43bd
00000390: 1864 4f3a d8a1 5b3d c49d 2c3c 794b a8bc
000003a0: 0624 1cbc c4a0 7d3c c837 4dbd cebf 0b3d
000003b0: ddd6 31bd 2f34 00bd 9602 41bd 53f7 97bc
000003c0: 8578 3d3c 324e 32bd f426 a6bc d129 d63c
000003d0: 2013 0bbc 19f4 8d3b 3fa6 8f3c f790 413d
000003e0: 1bb8 2b3b ad51 193c a520 10bd 5cdc ed3b
000003f0: a2fe 453d 7c50 dd3c 3a40 f93c 2353 1e3c

base_model.model.bert.encoder.layer.0.attention.self.query.lora_B.weight f4 [384, 8]
0.0016163272 0.0011445518 -0.003933409 -0.0021763758 0.0030533965 -0.002492607 0.0011853033 0.002263008
0.0010651895 0.0024453895 -0.0038895574 -0.00249867 0.005523545 -0.0019265094 0.0002581267 0.0035601095
-0.0025305508 0.0012625064 0.0044256784 0.004251184 -0.0025574074 0.0031983391 -0.0026629956 -0.00229843
0.0023623162 0.0022537683 -0.0011890442 0.0018264147 -0.0019536114 -0.0003346449 0.0035266534 0.0016566622
-0.0030088876 -0.003079242 0.001286851 0.003738367 -0.0031131096 0.002402609 -0.0013157075 -0.0023023235
0.0008551814 0.0010706459 -0.0028909636 -0.0020817018 0.003717542 -0.001603765 0.0007859144 0.002050149
-0.0043485365 -0.0021646789 -0.0017758051 -0.001047357 0.0020207167 0.0013390735 -0.0032605722 0.00061019167
0.002664488 -0.00054632185 -0.0045589246 -0.0014734557 0.0028975233 -0.002822677 0.0011755469 0.0029641232
-0.001373557 -0.0020070653 0.0029729966 0.002392283 -0.0037891523 0.0019738758 -0.0010961306 -0.0024711504
0.003089664 0.0035666279 -0.006319769 -0.004490109 0.0044954647 -0.003878781 0.004103268 0.004680566
-0.0021958502 -0.002807115 0.004506094 0.0042051603 -0.0055260323 0.0030165412 -0.0022242425 -0.004516151
-0.0015943313 -0.0024175693 0.0011134411 0.00024072696 -0.0016427378 0.0017280085 -0.0020192743 -0.0012045414
-0.0005009643 -0.0024355135 -0.0033122431 -0.002625131 0.004107249 -3.7605114e-05 -0.0013912864 0.0029338433
0.0035651573 0.0017249369 -0.0072977124 -0.005865054 0.00609574 -0.0046561514 0.0034644133 0.005958164
0.00032317336 0.0009786151 -0.0024423965 -0.000826652 0.0031569034 -0.0009789042 0.000314128 0.0017379867
-0.0008291623 0.00054218067 0.00028640643 0.0014029891 0.00047257778 0.000521041 -0.0008696004 -0.00023554053
0.0010657808 0.0006087869 -0.0027361447 -0.0013868731 0.0022798588 -0.0020584832 0.00036628646 0.0013750467
0.0014771654 0.0016775514 -0.0023804891 -0.0019544659 0.003544094 -0.001930803 0.0013978285 0.002096895
-0.0012970143 0.0014873702 0.0019325237 0.0028588788 -0.00058051076 0.0008039388 -0.00021865839 -0.0013335472
-0.002633072 -0.003186921 0.0041667153 0.002192948 -0.0024710507 0.0033578156 -0.0040294784 -0.0030892736
-0.001917606 -0.0005041305 0.0054546893 0.0036817382 -0.0052107438 0.002829406 -0.0015686806 -0.0037325516
0.0019584342 0.0021128994 -0.0036279284 -0.0022505838 0.0027894094 -0.0025333003 0.0034749664 0.0025114138
-3.9774044e-05 -0.0021339415 -0.0005564242 -0.00036645474 -0.00029420905 0.0006864084 -0.0012340078 -0.0011457616
0.00045986837 -0.00073431135 -0.001744313 -0.0026991689 0.0028398864 -0.0003890097 -0.0011908959 0.0017339768
0.0037840703 0.0037123743 -0.0038523115 -0.003387147 0.0039184815 -0.00369235 0.0028805176 0.0036293166
0.002769922 0.0026350098 -0.0046615945 -0.003278802 0.0009408127 -0.0029206097 0.0032538082 0.0035493015
0.0025343532 0.0017000575 -0.00048092546 -0.0012716611 -0.0019975954 -0.002938862 0.0030170972 0.00016847595
-0.0011311951 -0.0012715736 -0.0020050812 -0.00087642873 0.00293588 -0.0011564897 -0.0010727801 0.0016642594
0.00057820755 0.0015702087 -0.0016972405 -0.0014071888 0.0034602415 -0.0012402924 0.00048969494 0.0014219182
-0.0037964087 -0.0040241615 0.0052189846 0.0048569445 -0.005101688 0.0045574196 -0.0038491036 -0.0048857573
0.00068995147 0.00077319134 -0.0041918163 -0.0023258692 0.004716689 -0.0015326925 -0.0008227438 0.0030541997
-0.0015551924 -0.0015584879 0.0037323406 0.0025788322 -0.0032122245 0.0018929833 -0.0018581813 -0.0031088523
00000000: f1da d33a c904 963a d4e3 80bb 87a1 0ebb
00000010: 7e1b 483b 025b 23bb 2e5c 9b3a f94e 143b
00000020: d49d 8b3a d442 203b f2e7 7ebb bac0 23bb
00000030: dbfe b43b ee82 fcba 2e55 8739 ba50 693b
00000040: 99d7 25bb af7a a53a 4805 913b 844d 8b3b
00000050: 2d9a 27bb 3a9b 513b a785 2ebb 42a1 16bb
00000060: 17d1 1a3b f5b3 133b b4d9 9bba 4f64 ef3a
00000070: 2908 00bb 4773 afb9 6d1f 673b 5c24 d93a
00000080: c230 45bb 1ccd 49bb 8eab a83a 64ff 743b
00000090: 5005 4cbb 1775 1d3b d173 acba 94e2 16bb
000000a0: 412e 603a ea54 8c3a 5276 3dbb 296d 08bb
000000b0: 01a2 733b 6c35 d2ba d305 4e3a cb5b 063b
000000c0: 2b7e 8ebb 49dd 0dbb 22c2 e8ba 7847 89ba
000000d0: 006e 043b da83 af3a 53af 55bb 45f5 1f3a
000000e0: b19e 2e3b 0a37 0fba 0863 95bb f820 c1ba
000000f0: 60e4 3d3b a9fc 38bb cf14 9a3a bc41 423b
00000100: ed08 b4ba f888 03bb 9bd6 423b d9c7 1c3b
00000110: 6d53 78bb 245c 013b 0aac 8fba 06f3 21bb
00000120: f67b 4a3b 16be 693b 1116 cfbb c421 93bb
00000130: b14e 933b 2633 7ebb b574 863b 6f5f 993b
00000140: 41e8 0fbb 93f7 37bb dba7 933b 71cb 893b
00000150: b813 b5bb 2ab1 453b 99c4 11bb 38fc 93bb
00000160: e2f8 d0ba 1570 1ebb e2f0 913a a76b 7c39
00000170: 2251 d7ba 587e e23a cd55 04bb b4e1 9dba
00000180: 2553 03ba 239d 1fbb 3812 59bb 640a 2cbb
00000190: 1a96 863b 2fba 1db8 d35b b6ba b945 403b
000001a0: 6aa5 693b 4717 e23a a621 efbb a42f c0bb
000001b0: c6be c73b a192 98bb 360b 633b b43c c33b
000001c0: 986f a939 e044 803a 9d10 20bb adb3 58ba
000001d0: 0de4 4e3b 934e 80ba 8cb1 a439 28cd e33a
000001e0: 245c 59ba 2121 0e3a d228 9639 81e4 b73a
000001f0: 51c4 f739 7896 083a e5f5 63ba 6efb 76b9
00000200: abb1 8b3a ff96 1f3a e450 33bb bdc7 b5ba
00000210: af69 153b 9ee7 06bb 230a c039 e93a b43a
00000220: 729d c13a 49e1 db3a fb01 1cbb 7f16 00bb
00000230: 0844 683b ff12 fdba 5737 b73a 0f6c 093b
00000240: 9400 aaba ddf3 c23a bc4c fd3a 075c 3b3b
00000250: 6b2d 18ba 6bbf 523a aa47 65b9 6bca aeba
00000260: 9e8f 2cbb a9db 50bb f188 883b 90b7 0f3b
00000270: 5af1 21bb cc0e 5c3b b709 84bb 6975 4abb
00000280: 2e58 fbba a027 04ba 40bd b23b 5149 713b
00000290: e3be aabb 8e6d 393b 309c cdba d39d 74bb
000002a0: 1359 003b 9278 0a3b 8ac2 6dbb 887e 13bb
000002b0: 86ce 363b ba05 26bb 43bc 633b 8896 243b
000002c0: 0ed3 26b8 99d9 0bbb ffdc 11ba b920 c0b9
000002d0: 1240 9ab9 17f0 333a 6ebe a1ba 612d 96ba
000002e0: 7d1a f139 cd7e 40ba 6fa1 e4ba 8ae4 30bb
000002f0: 631d 3a3b 00f4 cbb9 d617 9cba 9b46 e33a
00000300: 2afe 773b 4e4b 733b 1077 7cbb e6fa 5dbb
00000310: 9b66 803b 5afb 71bb 11c7 3c3b d4d9 6d3b
00000320: 9487 353b 21b0 2c3b 4ac0 98bb 2be1 56bb
00000330: dfa0 763a b367 3fbb d83d 553b 669b 683b
00000340: 6417 263b 77d4 de3a b924 fcb9 dead a6ba
00000350: 17ea 02bb ec99 40bb 7eba 453b eba8 3039
00000360: 9c44 94ba eeaa a6ba ae67 03bb 23c0 65ba
00000370: e567 403b 5b95 97ba 879c 8cba 4723 da3a
00000380: da92 173a 76cf cd3a f175 deba 6c71 b8ba
00000390: 38c5 623b 4f91 a2ba df5e 003a a85f ba3a
000003a0: 2bcd 78bb 1ddd 83bb 0404 ab3b 0127 9f3b
000003b0: 102c a7bb 6856 953b 3e41 7cbb b418 a0bb
000003c0: dcdd 343a feaf 4a3a 815b 89bb 9c6d 18bb
000003d0: 758e 9a3b a0e4 c8ba 67ad 57ba f828 483b
000003e0: 99d7 cbba 2d46 ccba 499a 743b a001 293b
000003f0: 2f84 52bb fb1d f83a 388e f3ba e3bd 4bbb

base_model.model.bert.encoder.layer.0.attention.self.value.lora_A.weight f4 [8, 384]
-0.020342996 0.0005321134 -0.0073031243 -0.050148223 0.0033566963 -0.040624205 0.012121505 -0.01054574
0.038977806 0.0058669928 0.019824142 0.05615375 0.020818317 -0.051267266 -0.022957709 -0.040730424
0.022862654 -0.03893562 0.034873612 0.011812801 0.018269055 -0.016678112 0.0088273715 -0.03255702
0.032383617 -0.028825115 0.030224899 0.054944664 -0.020773355 0.008336361 0.039826315 0.014288145
0.00084958796 0.044517327 -5.231887e-05 -0.024758743 -0.01697288 0.036285765 -0.04337586 -0.03810688
0.013416833 0.00033773447 -0.032261312 0.0024659538 0.0017654806 0.018225553 0.0373615 0.012916866
-0.029538292 0.013325682 -0.032274146 -0.002860883 -0.036881834 -0.03781174 -0.031415418 0.037388977
0.00093744404 0.008766233 0.015708694 0.011532953 -0.0024448303 -0.055813033 -0.014033343 0.033425495
-0.017273499 -0.040738326 -0.051020592 -0.020394042 -0.030093933 -0.0072442302 0.022913324 -0.019572347
-0.00740504 0.028385716 0.015370128 -0.023892537 -0.025698548 -0.010302038 -0.0022245725 0.042055383
-0.0026469096 -0.0034200614 -0.027094522 0.026629314 -0.004029083 0.033577118 -0.023536205 -0.01969093
0.05218727 0.039150182 0.006248976 -0.019188521 0.027107913 -0.0077969744 0.037747733 0.03435728
-0.0037075314 -0.025636537 0.03944486 0.036181554 -0.041532584 -0.013247545 -0.038449757 -0.009625817
0.007850604 -0.03121377 -2.3554956e-05 0.043053705 -0.044164784 0.058787424 0.045783862 0.037137356
0.01740997 -0.023301804 0.015851194 -0.032309327 0.04118045 -0.03353457 -0.04906251 -0.018399455
-0.023238847 -0.047484405 0.040824376 0.012516666 -0.037642013 0.007716568 -0.009443935 -0.030932683
0.014264554 -0.060089607 0.023398401 -0.012530926 -0.024851698 0.02308125 0.035850145 0.029840529
-0.024257636 -0.04107568 0.0046313037 0.019042604 0.02512163 -0.0048827184 0.016412226 0.033914093
-0.008284319 -0.03958871 -0.008130666 -0.047295287 0.016278286 0.048646923 0.037823312 -0.035235807
-0.048242636 0.02832747 -0.005675368 0.041022073 0.056564674 0.03035606 -0.01935222 0.007820705
0.028613446 -0.034460496 -0.028895333 -0.009366609 -0.05370079 0.0111326445 0.018802041 0.041896265
-0.06032974 0.016188052 0.0034502288 0.023169685 0.051787563 -0.03442472 0.02374425 0.048808258
-0.057138894 0.001198256 -0.00039073764 -0.0030745887 -0.0113939075 0.02027342 0.031951413 0.054211132
-0.019284615 -0.0072305873 -0.006742119 0.043651357 0.021697573 0.03416301 -0.023174148 -0.04395467
0.02353108 0.03255136 0.008204584 0.018403478 -0.044964988 0.01940365 -0.007050797 0.034245316
-0.01663298 0.010866848 -0.0064585404 -0.027356517 0.01366365 -0.019303631 -0.022188094 0.050182085
0.014694708 0.03000965 -0.04977784 -0.027104659 0.016265105 -0.037899915 -0.031084945 -0.037643887
-0.030136457 -0.03799562 -0.012391981 0.020592202 -0.02868518 0.028962499 0.028792351 0.04404433
0.02237868 -0.032227207 -0.012639176 -0.016483787 -0.035235953 -0.057631124 0.053058255 0.044064857
-0.0036943443 -0.01646315 -0.036986392 8.040507e-05 0.00084470335 0.010831331 -0.05163918 -0.050718255
0.01291 0.04510652 -0.047549065 -0.014514447 -0.017621065 -0.008916841 -0.0066304062 -0.021935992
0.0004227989 -0.038060892 0.023205118 0.03635016 0.0286327 0.053557552 0.043019414 -0.03995231
00000000: 5ba6 a6bc 877d 0b3a 0c4f efbb 3968 4dbd
00000010: 05fc 5b3b 9165 26bd 4799 463c 0ac8 2cbc
00000020: 31a7 1f3d e73f c03b 3d66 a23c 7901 663d
00000030: 2d8b aa3c a0fd 51bd ce11 bcbc f2d4 26bd
00000040: 764a bb3c f57a 1fbd a2d7 0e3d 7a8a 413c
00000050: fca8 953c 89a0 88bc aea0 103c 835a 05bd
00000060: afa4 043d a622 ecbc 359a f73c a80d 613d
00000070: e22c aabc 3b95 083c eb20 233d d318 6a3c
00000080: e2b6 5e3a cd57 363d f570 5bb8 d9d2 cabc
00000090: b60a 8bbc 62a0 143d e3aa 31bd f615 1cbd
000000a0: 47d2 5b3c f411 b139 7024 04bd d79b 213b
000000b0: b367 e73a c14d 953c 5f08 193d 43a1 533c
000000c0: 4afa f1bc f653 5a3c e531 04bd a77d 3bbb
000000d0: 6811 17bd 7ce0 1abd 74ad 00bd 2f25 193d
000000e0: cebe 753a 3fa0 0f3c 85af 803c b6f4 3c3c
000000f0: 7239 20bb 359c 64bd 1bec 65bc 2ce9 083d
00000100: 2781 8dbc 3bdd 26bd f8fa 50bd 6811 a7bc
00000110: 8d87 f6bc 0261 edbb b9b4 bb3c 3056 a0bc
00000120: faa5 f2bb 2989 e83c fdd2 7b3c 48ba c3bc
00000130: c385 d2bc e1c9 28bc 22ca 11bb 4442 2c3d
00000140: c677 2dbb 1c23 60bb 55f5 ddbc b825 da3c
00000150: 6606 84bb 2988 093d 00cf c0bc e04e a1bc
00000160: 52c2 553d f15b 203d 36c4 cc3b 3f31 9dbc
00000170: 6a11 de3c c37d ffbb 5e9d 1a3d 38ba 0c3d
00000180: 0efa 72bb b703 d2bc ef90 213d 1c33 143d
00000190: 121e 2abd 3b0c 59bc 7e7d 1dbd 9ab5 1dbc
000001a0: d29f 003c 05b4 ffbc e297 c5b7 1559 303d
000001b0: 22e6 34bd 15cb 703d dc87 3b3d 571d 183d
000001c0: 5a9f 8e3c 6de3 bebc 5dda 813c c956 04bd
000001d0: d5ac 283d 8c5b 09bd c5f5 48bd 74ba 96bc
000001e0: 655f bebc 027f 42bd 7637 273d b412 4d3c
000001f0: 832e 1abd 44db fc3b bcba 1abc 8a66 fdbc
00000200: e0b5 693c 8520 76bd 01ae bf3c 834e 4dbc
00000210: ca95 cbbc e414 bd3c 9ad7 123d 2074 f43c
00000220: f3b7 c6bc f93e 28bd 31c2 973b 3cff 9b3c
00000230: e0cb cd3c 36ff 9fbb ef72 863c 81e9 0a3d
00000240: f4ba 07bc c527 22bd 7c36 05bc b4b8 41bd
00000250: 0a5a 853c ff41 473d 9eec 1a3d 6c53 10bd
00000260: 129a 45bd 030f e83c 70f8 b9bb c306 283d
00000270: 5cb0 673d 46ad f83c 8c88 9ebc 6a22 003c
00000280: bf66 ea3c 7326 0dbd e8b5 ecbc 6876 19bc
00000290: 5cf5 5bbd b265 363c bd06 9a3c 6b9b 2b3d
000002a0: 511c 77bd ce9c 843c 3c1d 623b 5ace bd3c
000002b0: 321f 543d ef00 0dbd 4d83 c23c 2beb 473d
000002c0: 790a 6abd cd0e 9d3a ebdb ccb9 0a7f 49bb
000002d0: 83ad 3abc 7114 a63c 7cdf 023d 7e0c 5e3d
000002e0: c5fa 9dbc 90ee ecbb feec dcbb c4cb 323d
000002f0: 1cbf b13c 83ee 0b3d b6d7 bdbc d009 34bd
00000300: 40c4 c03c 9354 053d 856c 063c e4c2 963c
00000310: 352d 38bd 67f4 9e3c 5f0a e7bb d144 0c3d
00000320: e341 88bc dd0a 323c 2aa2 d3bb c61a e0bc
00000330: 80dd 5f3c a622 9ebc cec3 b5bc bb8b 4d3d
00000340: 13c2 703c ccd6 f53c d9e3 4bbd 970a debc
00000350: 663e 853c f13c 1bbd dba5 febc 7a30 1abd
00000360: bbe0 f6bc 4ca1 1bbd bc07 4bbc fab0 a83c
00000370: 2ffd eabc c342 ed3c f0dd eb3c d467 343d
00000380: 7e53 b73c ad00 04bd 8c14 4fbc 0209 87bc
00000390: 9353 10bd 9d0e 6cbd 9d53 593d 5a7d 343d
000003a0: d01c 72bb badd 86bc 0b7f 17bd 259f a838
000003b0: 156f 5d3a e575 313c 9b83 53bd f2bd 4fbd
000003c0: 7784 533c 9dc1 383d cfc2 42bd 01ce 6dbc
000003d0: 0d5a 90bc f117 12bc e143 d9bb 1cb3 b3bc
000003e0: 1cab dd39 bde5 1bbd a918 be3c e8e3 143d
000003f0: 208f ea3c 2a5f 5b3d 2035 303d 09a5 23bd

base_model.model.bert.encoder.layer.0.attention.self.value.lora_B.weight f4 [384, 8]
-0.0004066749 -0.00083442155 0.000455249 -0.00081876386 0.0003250668 -0.00068243576 -0.0009807991 0.0002619467
0.002309778 -0.0010355576 0.0019201345 0.003654779 -0.0011773347 0.0040204194 0.0031045135 -0.004962154
0.0042128786 -0.00036252436 0.0021859799 0.00901456 -0.003663694 0.009397277 0.008156948 -0.0071337037
0.0005036393 0.00035559593 0.0005489837 0.0046612527 -0.0010244986 0.004704044 0.0043704277 -0.0051392526
-0.004211077 0.0048833 -0.0061385124 -0.0016190109 0.0046992875 -0.0013945495 -0.0012983201 0.0018613073
-0.0018946099 0.003172368 -0.001599635 0.00037350948 0.0018541163 0.0006340788 0.0005521083 -0.00036748394
-0.00028123346 0.0022589923 -0.0019370738 -0.0031727485 0.0003062268 -0.003426674 -0.0028515265 0.0036192068
-0.0046339273 0.002796472 -0.0031341864 -0.004268457 0.0035914872 -0.004279444 -0.0037710206 0.00304981
0.0032703006 -0.0044001807 0.003962749 0.0018382266 -0.00402874 0.0016394672 0.0015268767 -0.0029023392
-0.0019042988 -0.0013355316 0.00049147644 -0.0014090644 0.0019577122 -0.0012530521 -0.0015888944 0.0007322733
0.00368698 -0.0027277824 0.0029215189 -0.0015654782 -0.0038106872 -0.0020356723 -0.0017251881 0.001345337
0.00069831667 -0.0024879924 0.001322993 -0.0018892038 -0.0010401341 -0.0022760313 -0.0018952317 0.0019777915
0.0023896308 -0.0032721616 0.0046375506 0.003694981 -0.0043926043 0.004118394 0.0033458204 -0.0044232747
0.0034283637 -0.002464053 0.0032422296 0.006539718 -0.0037116427 0.0068430216 0.006105502 -0.0076623713
-0.004833139 0.002807085 -0.0035645873 -0.0051392773 0.004921913 -0.0050398675 -0.004860386 0.0053736195
-0.0013864834 0.0008906581 -0.0014589526 -0.0028249398 0.0010036414 -0.0028456205 -0.002535709 0.002799266
-0.0034486293 0.003313746 -0.0029850863 -0.0025306183 0.0032330335 -0.0027898757 -0.0021346589 0.002674245
0.003853841 -0.00228913 0.0027655198 0.0012570879 -0.0038745957 0.0007676509 0.0011085803 -0.0007202174
-0.0011229112 0.0027876147 -0.0021625706 0.0042725396 0.0015459381 0.0043386305 0.004104705 -0.0038396714
0.0053935153 -0.002753766 0.0038735082 0.005961277 -0.005124584 0.0065221386 0.005935429 -0.0055785207
-0.00012971286 0.00096247875 -0.0004804517 0.0033744609 3.2952398e-06 0.0037683747 0.0036537887 -0.0032911403
0.009257803 -0.007948425 0.009099487 0.007893444 -0.008977797 0.008589221 0.007265679 -0.008570828
0.0004622163 0.001114809 6.523143e-06 0.002771563 -0.00023779213 0.0030655977 0.0031516564 -0.0020227525
-0.008254477 0.0068389317 -0.0077620153 -0.008266804 0.008649548 -0.0086436095 -0.007833259 0.008945373
-0.0067507247 0.0053952686 -0.00577697 -0.0063304678 0.0067340955 -0.0051794904 -0.0044400217 0.006580256
0.011589598 -0.011474456 0.011094401 0.010514146 -0.011743361 0.011172126 0.0097019905 -0.0113816885
0.0034992709 -0.0031495926 0.00339992 0.004235671 -0.0034677335 0.004600619 0.004076645 -0.0044128215
-5.3843356e-05 0.00092930865 2.3148084e-05 0.0011064692 0.00018818546 0.0012887373 0.001171642 -0.0010694313
0.00037617862 -0.00025996167 0.00058047246 0.0014709852 -0.00045559724 0.0014726148 0.0012269496 -0.0014081277
-0.0052975 0.004212683 -0.0046525863 -0.0026344636 0.005501283 -0.001828277 -0.0017880002 0.003227145
0.010385899 -0.006346413 0.010289793 0.009067239 -0.010954053 0.009836423 0.0082572 -0.009565185
0.0048149945 -0.006501954 0.0057146223 0.004359883 -0.0051507177 0.0044115675 0.003952958 -0.005132598
00000000: fb36 d5b9 15bd 5aba 7dae ee39 50a2 56ba
00000010: ba6d aa39 7de5 32ba 288e 80ba e455 8939
00000020: a55f 173b 8cbb 87ba 06ad fb3a 0485 6f3b
00000030: cc50 9aba b9bd 833b 1875 4b3b 9199 a2bb
00000040: 300c 8a3b 3211 beb9 a842 0f3b ceb1 133c
00000050: 961a 70bb 09f7 193c b8a4 053c d8c1 e9bb
00000060: a906 043a 476f ba39 ace9 0f3a 6cbd 983b
00000070: 7848 86ba 6224 9a3b ce35 8f3b 2d67 a8bb
00000080: 13fd 89bb 1704 a03b 9325 c9bb fe34 d4ba
00000090: 7bfc 993b 51c9 b6ba 652c aaba 1cf7 f33a
000000a0: 8f54 f8ba 81e7 4f3b d8aa d1ba 98d3 c339
000000b0: d205 f33a 4f38 263a 5cbb 103a dcaa c0b9
000000c0: 8472 93b9 9a0b 143b 69e5 fdba e3ed 4fbb
000000d0: 118d a039 0d92 60bb ade0 3abb 3730 6d3b
000000e0: 33d8 97bb 0445 373b ec66 4dbb 6ade 8bbb
000000f0: 285f 6b3b 943a 8cbb 3a23 77bb 52df 473b
00000100: 8a52 563b 642f 90bb f3d9 813b a6f0 f03a
00000110: 8503 84bb 64e3 d63a 7b21 c83a 2c35 3ebb
00000120: aa99 f9ba 010d afba 6dd6 003a 5bb0 b8ba
00000130: f64c 003b 743d a4ba 7342 d0ba 08f6 3f3a
00000140: 43a1 713b 98c4 32bb f476 3f3b bb30 cdba
00000150: b9bc 79bb ea68 05bb b51f e2ba 0556 b03a
00000160: 3d0f 373a 960d 23bb 4768 ad3a 299f f7ba
00000170: 1c55 88ba 7829 15bb 6c69 f8ba d69d 013b
00000180: 5a9b 1c3b c371 56bb 98f6 973b 7f27 723b
00000190: d6ef 8fbb 98f3 863b 8d45 5b3b 1ef1 90bb
000001a0: 66ae 603b f37b 21bb 967b 543b 214b d63b
000001b0: 083f 73bb 6d3b e03b aa10 c83b a114 fbbb
000001c0: 4f5f 9ebb 12f7 373b da9b 69bb 6267 a8bb
000001d0: 0048 a13b 7925 a5bb df43 9fbb 3015 b03b
000001e0: aaba b5ba 0e7b 693a 533a bfba a022 39bb
000001f0: 9e8c 833a 977d 3abb 232e 26bb e473 373b
00000200: 6602 62bb 6f2b 593b 70a1 43bb bbd8 25bb
00000210: 4de1 533b 59d6 36bb a2e5 0bbb 6342 2f3b
00000220: b990 7c3b 3a05 16bb b93d 353b dfc4 a43a
00000230: eeec 7dbb 2e3c 493a c84d 913a f9cc 3cba
00000240: a62e 93ba 6ab0 363b eab9 0dbb a900 8c3b
00000250: 13a1 ca3a 122b 8e3b c380 863b ffa2 7bbb
00000260: 16bc b03b 8778 34bb afda 7d3b d156 c33b
00000270: 20ec a7bb aab7 d53b fd7d c23b 06cc b6bb
00000280: 8803 08b9 db4e 7c3a 23e5 fbb9 0f26 5d3b
00000290: ca23 5d36 d6f6 763b 6774 6f3b 2cb0 57bb
000002a0: 0aae 173c 1c3a 02bc 0416 153c 8153 013c
000002b0: 9c17 13bc ceb9 0c3c ef14 ee3b a86c 0cbc
000002c0: 9f55 f239 c81e 923a 5fe1 da36 1ca3 353b
000002d0: d757 79b9 32e8 483b 058c 4e3b 2890 04bb
000002e0: c93d 07bc 1e19 e03b 8158 febb 7d71 07bc
000002f0: d5b6 0d3c ed9d 0dbc 1257 00bc 9d8f 123c
00000300: 2f35 ddbb cbca b03b bd4c bdbb d06f cfbb
00000310: b0a9 dc3b b7b8 a9bb 9a7d 91bb 309f d73b
00000320: 4ce2 3d3c 5bff 3bbc 4ac5 353c 8643 2c3c
00000330: 3a67 40bc 4b0b 373c 19f5 1e3c 437a 3abc
00000340: 0654 653b 6569 4ebb 31d1 5e3b 62cb 8a3b
00000350: ea42 63bb cac0 963b 6095 853b 6e99 90bb
00000360: ddd5 61b8 d99c 733a 222e c237 f206 913a
00000370: a653 4539 d9ea a83a c891 993a 292c 8cba
00000380: d739 c539 774b 88b9 d92a 183a 13ce c03a
00000390: 3add eeb9 c104 c13a 99d1 a03a ed90 b8ba
000003a0: a796 adbb 8c0a 8a3b b974 98bb f7a6 2cbb
000003b0: 1b44 b43b cca2 efba 555b eaba 827e 533b
000003c0: 9e29 2a3c 92f5 cfbb 8596 283c c28e 143c
000003d0: a178 33bc f328 213c 3549 073c 4bb7 1cbc
000003e0: 1ac7 9d3b 580e d5bb ba41 bb3b 59dd 8e3b
000003f0: 5ac7 a8bb e98e 903b d187 813b 5a2f a8bb

base_model.model.bert.encoder.layer.1.attention.self.query.lora_A.weight f4 [8, 384]
-0.009541998 -0.007320375 0.027875522 0.011666033 -0.043360587 0.024023484 -0.03674709 -0.0505078
0.03961183 -0.001462922 -0.019380933 -0.017571948 -0.044471804 -0.035988603 0.022740588 0.04276342
0.020530129 -0.008786088 0.011096672 -0.036910225 -0.040121846 0.026871732 -0.024803441 -0.036538977
-0.009624802 -0.04154282 -0.006200127 -0.031230215 -0.013209613 -0.044520594 0.0007608336 -0.021647368
0.02581739 -0.037412666 -0.03770965 0.03127011 -0.0068541337 0.039644193 -0.008884917 0.049832467
-0.015718149 -0.001658858 0.019796688 0.020941813 0.0015632436 0.023287283 0.012127127 -0.030180516
0.011010629 0.034464072 0.023342598 0.040782265 0.03714464 0.0047910367 -0.04848572 -0.04480907
-0.015561251 0.047969837 -0.013380496 0.01711155 -0.044280015 0.009692471 0.02434076 -0.047760393
0.036072917 0.040829625 -0.03546243 0.021691214 -0.005415602 -0.014346503 0.0310806 -0.0039555603
0.027547337 0.03740307 0.0191455 0.020040253 0.042103667 0.04686721 0.04754048 0.046918377
0.019293016 -0.048281863 -0.037394844 -0.04093783 0.009985801 -0.027716557 -0.013196725 -0.01599266
0.01765422 0.045356967 -0.039105333 -0.033942703 -0.03859641 0.021281008 -0.008465826 -0.0136682205
0.043724205 0.049819116 -0.0018293877 -0.03491085 0.031603508 -0.03564143 0.009999801 0.012846442
0.009597256 0.042182762 0.041834693 0.048249375 -0.018253464 -0.039700195 0.026400909 0.046495173
0.036752988 0.009348293 -0.010330517 -0.009885288 -0.046913244 0.016711887 0.05176729 -0.039014444
-0.0106206145 -0.037077714 0.020322625 0.029250678 0.017587917 0.022648469 0.0048010144 0.011888357
0.023710437 0.02248792 -0.042237796 0.041129757 -0.00964862 0.0159394 -0.0012518131 0.0021634216
0.031091643 0.030335514 -0.024303412 0.042866975 0.027317101 -0.02513278 -0.0040278514 0.044415884
0.0345677 0.03558719 -0.032511726 0.025365591 -0.0063758926 -0.0487331 0.01082057 0.026398508
-0.033965733 -0.011970816 -0.0145142395 0.012435271 0.026005892 -0.026764482 0.01922713 -0.01625629
0.004469427 -0.012191471 0.027383475 0.020064622 -0.051888674 0.037327573 0.010703646 -0.039025903
-0.011426746 -0.0178818 0.029217334 -0.0075846734 0.003355956 0.035524804 -0.032076843 -0.04459132
0.039004702 0.032324847 0.012776789 -0.00125508 -0.024757087 -0.0145925125 0.016747374 -0.0013879881
-0.0048325243 -0.01782739 -0.017950512 -0.013826377 -0.01745679 0.023903035 0.010039841 -0.014898085
0.04008386 -0.01965076 0.016830506 0.0298327 0.01193091 0.026033146 -0.038973194 0.0027925796
0.020585062 -0.045001887 0.026768561 -0.046872843 -0.016776934 -0.052294835 0.011106231 0.02333087
-0.00039775748 -0.027709194 -0.042119917 0.041462492 -0.0010811262 -0.014825388 -0.0059243767 0.009869917
0.023347704 -0.0065128882 -0.013850435 -0.0030467901 -0.0072305445 -0.012411198 0.03487405 -0.026527973
-0.012987486 -0.0062326533 0.024821743 -0.00030211982 0.050112907 -0.048010293 0.053751137 0.0044614873
0.03764857 -0.0015361495 0.018189877 -0.034502003 0.00753235 -0.03548266 -0.0023495718 0.029200612
-0.014840461 0.013266057 0.03638798 -0.037394498 -0.048494644 -0.047002967 0.022478627 -0.022178663
-0.013064417 -0.029359393 0.03347936 -0.030105999 0.034564067 -0.038754083 0.02740768 0.035582654
00000000: 0a56 1cbc c2df efbb 355b e43c e422 3f3c
00000010: df9a 31bd e6cc c43c 1e84 16bd 44e1 4ebd
00000020: 0440 223d 84bf bfba c3c4 9ebc 0cf3 8fbc
00000030: 1128 36bd c968 13bd 784a ba3c b228 2f3d
00000040: cd2e a83c 86f3 0fbc d1ce 353c 2d2f 17bd
00000050: ce56 24bd 1b22 dc3c 9630 cbbc e5a9 15bd
00000060: 58b1 1dbc ce28 2abd 6f2a cbbb 82d6 ffbc
00000070: 226d 58bc 3a5b 36bd ae72 473a d255 b1bc
00000080: fe7e d33c 063e 19bd 6f75 1abd 1615 003d
00000090: a498 e0bb f361 223d 0b92 11bc 211d 4c3d
000000a0: 59c3 80bc 0a6e d9ba aa2c a23c 2a8e ab3c
000000b0: c0e5 cc3a f9c4 be3c dbb0 463c 213d f7bc
000000c0: ed65 343c 332a 0d3d fa38 bf3c 4e0b 273d
000000d0: fa24 183d 21fe 9c3b f698 46bd b789 37bd
000000e0: 9ef4 7ebc 057c 443d de39 5bbc 852d 8c3c
000000f0: f65e 35bd 2bcd 1e3c 4666 c73c 67a0 43bd
00000100: 32c1 133d f73c 273d 0e41 11bd c6b1 b13c
00000110: 5d75 b1bb 980d 6bbc be9c fe3c a59d 81bb
00000120: f4aa e13c f633 193d 06d7 9c3c 752b a43c
00000130: e574 2c3d d5f7 3f3d ceb9 423d 7c2d 403d
00000140: 630c 9e3c 34c3 45bd 562b 19bd 6dae 27bd
00000150: 7c9b 233c d50d e3bc 1437 58bc 0a03 83bc
00000160: 959f 903c 3ac8 393d ea2c 20bd 8107 0bbd
00000170: 4517 1ebd 8255 ae3c 3fb4 0abc acf0 5fbc
00000180: 2718 333d 210f 4c3d 11c8 efba aefe 0ebd
00000190: ae72 013d c0fc 11bd 35d6 233c e279 523c
000001a0: cf3d 1d3c d5c7 2c3d db5a 2b3d 23a1 453d
000001b0: 4a88 95bc ac9c 22bd b846 d83c b971 3e3d
000001c0: 4d8a 163d 9529 193c 5441 29bc e7f5 21bc
000001d0: 1a28 40bd 5ee7 883c f009 543d 9ccd 1fbd
000001e0: 1602 2ebc cdde 17bd a27b a63c 1e9f ef3c
000001f0: 8914 903c 4889 b93c d451 9d3b 62c7 423c
00000200: 643c c23c 9638 b83c 8a01 2dbd ad77 283d
00000210: 3f15 1ebc 5893 823c e113 a4ba 31c8 0d3b
00000220: e7b3 fe3c 2f82 f83c f317 c7bc 4895 2f3d
00000230: 1dc8 df3c 43e3 cdbc 11fc 83bb 6eed 353d
00000240: dc96 0d3d e0c3 113d 042b 05bd 80cb cf3c
00000250: ddec d0bb 5c9c 47bd c348 313c af41 d83c
00000260: a71f 0bbd 3e21 44bc 22cd 6dbc 4fbd 4b3c
00000270: 4f0a d53c 3041 dbbc 3782 9d3c e92b 85bc
00000280: 4574 923b bcbe 47bc 4f53 e03c 905e a43c
00000290: 3889 54bd cce4 183d 585e 2f3c a0d9 1fbd
000002a0: 3f37 3bbc da7c 92bc 3159 ef3c da88 f8bb
000002b0: 99ef 5b3b 7582 113d 0263 03bd 63a5 36bd
000002c0: 65c3 1f3d 0f67 043d bd55 513c 7f81 a4ba
000002d0: 60cf cabc 6f15 6fbc ca31 893c 27ed b5ba
000002e0: 275a 9ebb bf0a 92bc f40c 93bc 0788 62bc
000002f0: 8b01 8fbc 4cd0 c33c 257e 243c 1917 74bc
00000300: f92e 243d a1fa a0bc 21e0 893c b563 f43c
00000310: dd79 433c 7743 d53c 5ba2 1fbd b603 373b
00000320: 01a2 a83c e653 38bd be49 db3c bdfd 3fbd
00000330: c86f 89bc 1c33 56bd e9f6 353c 6120 bf3c
00000340: 1b8a d0b9 64fe e2bc ef85 2cbd 93d4 293d
00000350: 93b4 8dba 2fe6 72bc 4621 c2bb 6fb5 213c
00000360: af43 bf3c 116a d5bb efec 62bc a8ac 47bb
00000370: 34ee ecbb 5658 4bbc 18d8 0e3d 3151 d9bc
00000380: 77c9 54bc 493b ccbb f856 cb3c d665 9eb9
00000390: 3143 4d3d 71a6 44bd 272a 5c3d ab31 923b
000003a0: 6335 1a3d a058 c9ba f002 953c f951 0dbd
000003b0: eed1 f63b 4456 11bd 46fb 19bb 1f36 ef3c
000003c0: 6825 73bc e059 593c 900b 153d f92a 19bd
000003d0: 52a2 46bd 2f86 40bd 1925 b83c 07b0 b5bc
000003e0: 230c 56bc 1c83 f0bc a721 093d dba0 f6bc
000003f0: 0d93 0d3d 9abc 1ebd 1286 e03c 1ebf 113d

base_model.model.bert.encoder.layer.1.attention.self.query.lora_B.weight f4 [384, 8]
-0.0018197913 0.0036629976 0.0004086035 -0.0030231255 0.00087168586 0.00089365215 -0.0049896347 -0.004187705
-0.0013659985 0.0009330723 -0.0016153046 3.5022065e-05 -1.1073582e-05 -0.00095903367 -0.0019733016 -0.0007540035
0.0021030444 0.00048309064 0.0037723547 -0.00066027563 -0.0021402333 0.0037219888 -0.0008290463 -0.00042148828
-0.0021280528 0.001274774 0.00084743067 -0.00094707025 0.00034202437 0.0005614827 -0.002418209 -0.0008107577
-0.0011689488 0.0025115446 0.0025751893 -0.002554954 0.00054100726 0.002132884 -0.0026340254 -0.0025615913
-0.0029096734 0.0015556694 0.00084301055 -0.0011254943 0.00069981854 0.0005300867 -0.0028432012 -0.00081779814
-0.0026442227 0.00042396496 -0.0004686859 -0.00022302195 0.0012648732 -0.00028848177 -0.0027715524 0.00024120654
-0.0019938892 0.0016153611 0.0010533459 -0.0013970943 0.0003578946 0.00034141113 -0.0024141343 -0.0011770421
0.0006871983 0.0010785179 0.0027905763 -0.0008820054 -0.0014103279 0.0020133532 -0.0019748916 -0.0009731998
0.003954167 0.0030663286 0.006140138 -0.0045748875 -0.001768407 0.0036529526 -0.0013216106 -0.002938255
0.0030231301 -0.0005484347 -0.0020359433 0.0001220042 0.0008493958 -0.00018034798 0.0014874229 6.623483e-05
0.0015382804 -0.0019790693 0.00063948793 0.00014669605 -0.0006678441 -0.0002886137 0.003793245 0.0017599809
-0.0029000407 -0.0021895764 -0.0036018007 0.0013627071 0.0017863583 -0.0031034872 0.0022831745 0.0019408787
0.0009808488 -0.0039660092 -0.0006782187 0.002666052 0.00048374938 -0.0012463406 0.0044535436 0.0033759102
-0.0024185614 1.2515386e-06 0.0015232874 0.000110840745 -0.0009669315 0.00022583736 -0.001973293 0.00019920249
-0.0016710485 -0.0019570491 -0.0041003623 0.0021323997 0.0014045103 -0.004285324 0.0025086927 0.001778638
0.003105186 0.0037767668 0.0030232887 -0.0020999426 -0.0021932884 0.003163066 -0.0028357545 -0.0026347132
-0.0022233217 -0.00020162569 -0.00084074895 0.002005854 0.0005705667 -0.0012383953 -0.002036479 0.0006553723
-0.002199124 -0.0018543798 -0.0022862945 0.0033245997 -0.0006113146 -0.0009447098 0.0005265864 0.0022117815
-0.0028473258 -0.0016506467 0.00062778615 0.0017182946 -0.00084819517 -0.0010603106 0.0006119473 0.002136028
-0.0014292992 0.0033132208 0.0014924384 -0.0031013836 0.00021304279 0.001542202 -0.00560153 -0.0029800667
-0.0012599961 -0.0027357216 -0.0026698455 0.0033997425 -0.0010086058 -0.0041255024 0.0049649314 0.0033773014
-0.0010116143 0.0018323628 0.0028776445 -0.0015793348 -0.001481935 0.0016657551 -0.0020665568 -0.0017178415
0.002412759 0.0034327274 0.0031187327 -0.003462231 -0.001574412 0.0029017883 -0.0003418084 -0.0016439392
0.0027554086 0.0017982206 0.0016872322 -0.0024528143 -0.0007190862 0.002337705 -2.288254e-05 -0.0032987327
0.0024088747 -0.0011178276 0.00017778174 0.00033329093 -0.0009901635 4.5641253e-05 0.004239768 0.00044664004
-0.0023184386 -0.00089908903 -0.0037931167 0.0014617475 0.001873876 -0.0035883524 0.00023687165 0.0006974684
-0.0031027247 0.0023977486 -0.0005405967 -0.0026766073 0.002239181 -0.0013056744 -0.001911613 -0.003835278
-0.0036633788 8.608018e-06 -0.0005953512 0.00057231344 0.0018724726 -0.00085895887 -0.0012688985 0.0004149349
0.0016148872 -0.0014657731 -0.0007711631 0.0017049665 -0.0005020485 -0.0012497583 0.0023944918 0.0018912331
0.0014144448 -0.0008790893 -0.00070558797 0.00018919569 0.00017389901 -0.0007179197 0.0024514778 3.8041148e-07
0.0015624133 0.000425002 0.0034522014 -0.0007457823 -0.0012423478 0.0029253976 -0.00021901257 -0.00065266073
00000000: 1086 eeba e70e 703b d539 d639 a11f 46bb
00000010: d981 643a fb43 6a3a 1780 a3bb 0439 89bb
00000020: 4e0b b3ba 6c99 743a a1b8 d3ba a8e4 1238
00000030: acc8 39b7 a967 7bba 8252 01bb 51a8 45ba
00000040: 3bd3 093b 5447 fd39 9c39 773b 5916 2dba
00000050: 2843 0cbb 9cec 733b 5b54 59ba 33fb dcb9
00000060: cd76 0bbb 5116 a73a 1c26 5e3a cf44 78ba
00000070: bc51 b339 7730 133a d17a 1ebb 0789 54ba
00000080: 6a37 99ba ba98 243b 82c4 283b 0471 27bb
00000090: 62d2 0d3a dbc7 0b3b 9d9f 2cbb 5fe0 27bb
000000a0: 38b0 3ebb 9ae7 cb3a 7bfd 5c3a 5285 93ba
000000b0: 0774 373a 84f5 0a3a 0055 3abb 8161 56ba
000000c0: b24a 2dbb 9d47 de39 f5b9 f5b9 00db 69b9
000000d0: 1aca a53a 5e3f 97b9 efa2 35bb 63ec 7c39
000000e0: e9ab 02bb 86ba d33a 6c10 8a3a b51e b7ba
000000f0: cda3 bb39 6dff b239 7436 1ebb fb46 9aba
00000100: 1925 343a 0e5d 8d3a 1ae2 363b 6136 67ba
00000110: c0da b8ba 76f2 033b 2f6d 01bb 551e 7fba
00000120: f591 813b 75f4 483b 3633 c93b f0e8 95bb
00000130: e4c9 e7ba 6066 6f3b e539 adba bd8f 40bb
00000140: b51f 463b d4c4 0fba 766d 05bb 82dc ff38
00000150: fda9 5e3a cb1b 3db9 a1f5 c23a 8ee7 8a38
00000160: 20a0 c93a 46b3 01bb 4fa3 273a 6cd2 1939
00000170: 4212 2fba 1351 97b9 1798 783b 29af e63a
00000180: 9c0e 3ebb ff7e 0fbb 300c 6cbb dd9c b23a
00000190: 3d24 ea3a e063 4bbb 50a1 153b 1565 fe3a
000001a0: d38f 803a 4cf5 81bb 7dca 31ba eeb8 2e3b
000001b0: be9f fd39 405c a3ba 08ef 913b 603e 5d3b
000001c0: ba80 1ebb 8afa a735 0ba9 c73a 2c73 e838
000001d0: ad79 7dba c1ce 6c39 5d52 01bb 03e1 5039
000001e0: 1507 dbba d641 00bb 555c 86bb bbbf 0b3b
000001f0: 8c17 b83a e76b 8cbb e168 243b 3021 e93a
00000200: 6080 4b3b a283 773b 5e22 463b 319f 09bb
00000210: 46bd 0fbb 714b 4f3b 11d8 39bb 27ab 2cbb
00000220: 26b5 11bb 7c6b 53b9 b565 5cba a574 033b
00000230: 1592 153a a751 a2ba 7376 05bb 4acd 2b3a
00000240: 2e1f 10bb a90e f3ba a8d5 15bb 87e1 593b
00000250: a140 20ba 67a6 77ba 9d0a 0a3a 89f3 103b
00000260: 339a 3abb 835a d8ba 0492 243a 6638 e13a
00000270: 6a59 5eba 1ffa 8aba 176b 203a 9afc 0b3b
00000280: 5357 bbba 9f22 593b ec9d c33a 9540 4bbb
00000290: 3d64 5f39 b623 ca3a 0a8d b7bb 394d 43bb
000002a0: 7426 a5ba cb49 33bb 93f8 2ebb 37ce 5e3b
000002b0: 3233 84ba 392f 87bb ddb0 a23b b755 5d3b
000002c0: 2598 84ba e52b f03a dd96 3c3b af01 cfba
000002d0: 7d3d c2ba 7755 da3a 126f 07bb 3229 e1ba
000002e0: 611f 1e3b 9cf7 603b a763 4c3b 99e6 62bb
000002f0: 805c ceba ee2b 3e3b bf34 b3b9 7279 d7ba
00000300: 1694 343b 45b2 eb3a 1e26 dd3a 65bf 20bb
00000310: 0f81 3cba 2f34 193b e1f3 bfb7 8d2f 58bb
00000320: 36de 1d3b 1284 92ba ec6a 3a39 8dbd ae39
00000330: 60c8 81ba ec6e 3f38 c0ed 8a3b 032b ea39
00000340: f2f0 17bb d8b0 6bba f095 78bb 1b98 bf3a
00000350: d89c f53a 902a 6bbb c060 7839 50d6 363a
00000360: 1557 4bbb 8c23 1d3b d5b6 0dba 056a 2fbb
00000370: 39bf 123b 2a23 abba 178f faba 4a59 7bbb
00000380: 4c15 70bb 286b 1037 5811 1cba 4e07 163a
00000390: c16d f53a c12b 61ba 2b51 a6ba 9f8b d939
000003a0: 9faa d33a 2f1f c0ba e127 4aba 2f79 df3a
000003b0: e89b 03ba eece a3ba e8ec 1c3b 41e3 f73a
000003c0: e464 b93a af72 66ba 35f7 38ba d562 4639
000003d0: a958 3639 c732 3cba f9a8 203b 5b3b cc34
000003e0: e4c9 cc3a ced2 de39 543e 623b 9a80 43ba
000003f0: 46d6 a2ba 07b8 3f3b bda6 65b9 5217 2bba

base_model.model.bert.encoder.layer.1.attention.self.value.lora_A.weight f4 [8, 384]
-0.0109663755 0.006591495 -0.053057272 0.03318113 -0.027069315 0.010705167 -0.011261836 0.025010355
-0.018501673 0.028662905 -0.0055114026 0.0053918827 -0.009679146 0.014036689 -0.019919733 -0.03159404
-0.043494772 0.021108555 -0.0022363453 -0.057843134 -0.012680273 -0.0016733211 0.01656469 0.022909258
0.02800714 0.031557336 0.010066182 0.04476112 -0.033368018 0.024217604 0.012483369 -0.023114376
0.010070961 0.022004927 0.024546642 -0.040454146 -0.017406443 0.015857648 -0.030717764 0.04711876
0.03421709 -0.029496463 0.030609405 0.004267624 0.05467252 0.01455839 -0.02045146 0.013730387
-0.045510918 -0.044212542 0.005641077 0.054980762 0.0052729896 0.04313277 0.019131096 0.04164308
0.03196115 -0.048198972 0.053662933 0.029815279 0.0007124018 0.0019122075 0.037270904 0.015851378
-0.046199676 0.028871812 0.031709813 -0.028052755 0.012205934 -0.025752997 -0.020325202 0.047089826
0.025898075 -0.029109314 0.043892644 0.0142946625 -0.042488523 -0.0298912 -0.042113867 -0.006109619
0.0015578412 -0.05228062 -0.057749726 0.057552315 0.039872263 -0.02562093 0.025525752 -0.03826923
-0.0077435877 0.00044265078 -0.0032178042 0.019113613 -0.052735265 -0.01431655 -0.023176625 0.00933044
-0.018298756 0.018521046 -0.013539611 0.016827246 0.025470478 -0.017104834 0.033458304 0.010350876
-0.019768802 0.05124776 0.013084444 -0.046089195 -0.029567135 0.024002178 -0.017526165 0.03407729
0.023787336 -0.0069225 -0.035937153 -0.036338218 -0.02402421 0.0038287314 -0.019813474 -0.044548057
-0.03347705 0.002208707 -0.04166145 -0.052630227 0.030603666 -0.004888306 -0.008495461 -0.006159211
-0.037985604 0.022712566 -0.016092079 -0.03801268 -0.011284903 0.031643275 0.05663273 0.028529748
-0.025618786 -0.004839334 0.02050192 0.012234088 -0.009390516 0.01360242 -0.023837745 -0.041270457
-0.0022840996 -0.036839303 -0.04088245 -0.005436439 0.050062437 -0.04489216 0.026273306 0.008340476
-0.022461047 -0.013217568 0.019073788 0.04216603 0.053994365 -0.0057732076 0.048347674 0.0437666
0.037494697 -0.051809948 0.043208644 -0.003946473 0.018420277 -0.056111716 -0.003690958 0.017739598
0.042604048 0.054265182 0.029220445 -0.0043872814 -0.029669207 0.053016488 -0.03146834 0.0067911656
-0.020759962 -0.048202373 0.033261932 0.031015249 0.041055806 0.010493042 0.029094592 0.031544972
0.042204443 0.010616441 0.03771257 0.018295458 0.039342083 -0.013410208 -0.051908135 -0.028017579
-0.058262564 0.036660343 -0.018438267 -0.028575469 0.009637663 0.038262393 0.018666428 -0.027543861
-0.0011418473 -0.018227423 0.032039482 -0.009964108 -0.034484457 -0.047563165 -0.031907234 -0.0037061078
0.014693916 0.045817267 -0.044161096 0.023421887 -0.036950108 -0.023259336 -0.035489477 -0.038213704
-0.039202202 -0.029457968 -0.028189544 0.014304158 -0.021985611 -0.025297835 -0.012835885 0.045986973
-0.041772325 0.028369999 -0.0169492 -0.042810313 0.0039292285 -0.042285696 0.026531938 -0.031449072
0.028522767 -0.021039685 0.022117633 0.053477205 -0.039186936 0.055772148 -0.03610206 -0.014009647
0.05813127 0.035316486 -0.041354425 0.04133263 0.022062723 -0.025637709 0.021398654 -0.027614888
0.054501705 0.011435011 -0.012355461 0.025667537 -0.023550915 0.055476394 -0.014003715 -0.031063441
00000000: 50ac 33bc 78fd d73b 9552 59bd f0e8 073d
00000010: 78c0 ddbc ba64 2f3c 9083 38bc 84e2 cc3c
00000020: d290 97bc 78ce ea3c ff98 b4bb 64ae b03b
00000030: 4895 1ebc 24fa 653c b52e a3bc c168 01bd
00000040: 9327 32bd d9eb ac3c a68f 12bb ecec 6cbd
00000050: ebc0 4fbc 5753 dbba acb2 873c 32ac bb3c
00000060: 3b6f e53c 4442 013d a1ec 243c 7057 373d
00000070: e7ac 08bd ff63 c63c 0b87 4c3c 5c5a bdbc
00000080: ac00 253c ad43 b43c 0a16 c93c 3fb3 25bd
00000090: f597 8ebc e6e7 813c d2a3 fbbc 9aff 403d
000000a0: 3827 0c3d 91a2 f1bc 93c0 fa3c 6dd7 8b3b
000000b0: 4bf0 5f3d 5086 6e3c d289 a7bc 6bf5 603c
000000c0: a869 3abd 3618 35bd c9d8 b83b 8233 613d
000000d0: 0bc9 ac3b fdab 303d d1b8 9c3c ef91 2a3d
000000e0: b2e9 023d 496c 45bd aacd 5b3d 2c3f f43c
000000f0: 7ac0 3a3a 09a3 fa3a 60a9 183d c0da 813c
00000100: df3b 3dbd 9484 ec3c 26e2 013d e4ce e5bc
00000110: 66fb 473c f3f7 d2bc 0a81 a6bc 43e1 403d
00000120: 3328 d43c a876 eebc c6c8 333d 2934 6a3c
00000130: 7208 2ebd 64de f4bc 977f 2cbd 3333 c8bb
00000140: 7a30 cc3a 3424 56bd fa8a 6cbd fabb 6b3d
00000150: 1951 233d fce2 d1bc 621b d13c 32c0 1cbd
00000160: ecbd fdbb 9513 e839 cce1 52bb 2794 9c3c
00000170: ef00 58bd f78f 6abc e8dc bdbc b4de 183c
00000180: 46e7 95bc 73b9 973c 3fd5 5dbc 4bd9 893c
00000190: 77a7 d03c 701f 8cbc 930b 093d b896 293c
000001a0: 2ff2 a1bc 2ce9 513d 2360 563c 06c8 3cbd
000001b0: c736 f2bc 37a0 c43c 0893 8fbc a194 0b3d
000001c0: a9dd c23c 24d6 e2bb d632 13bd 62d7 14bd
000001d0: 6cce c4bc 74eb 7a3b de4f a2bc 0678 36bd
000001e0: 3b1f 09bd f4bf 103b 32a5 2abd cb92 57bd
000001f0: 8ab4 fa3c 152e a0bb 8c30 0bbc 35d3 c9bb
00000200: cb96 1bbd b40f ba3c 89d3 83bc 2fb3 1bbd
00000210: 50e4 38bc 619c 013d b9f7 673d 38b7 e93c
00000220: 7dde d1bc 4793 9ebb a4f3 a73c 7c71 483c
00000230: aeda 19bc afdc 5e3c 6047 c3bc 360b 29bd
00000240: d5b0 15bb cfe4 16bd 5b74 27bd 2824 b2bb
00000250: 450e 4d3d d7e0 37bd 1e3b d73c 7ea6 083c
00000260: 3b00 b8bc 808e 58bc a240 9c3c 49b6 2c3d
00000270: 3229 5d3d 2d2d bdbb 3608 463d 9b44 333d
00000280: 0a94 193d ab36 54bd 8cfb 303d 6a51 81bb
00000290: 1fe6 963c 66d5 65bd 00e4 71bb a252 913c
000002a0: 9581 2e3d 2b45 5e3d b75f ef3c 2fc3 8fbb
000002b0: d60c f3bc d127 593d f2e4 00bd 6d88 de3b
000002c0: cc10 aabc da6f 45bd aa3d 083d b113 fe3c
000002d0: 222a 283d 02eb 2b3c c857 ee3c 4d35 013d
000002e0: 91de 2c3d 95f0 2d3c 7f78 1a3d 5be0 953c
000002f0: 2a25 213d 7db6 5bbc a09d 54bd 1f85 e5bc
00000300: baa4 6ebd 2829 163d d90b 97bc 1a17 eabc
00000310: 4ae7 1d3c 07b9 1c3d 56ea 983c aaa3 e1bc
00000320: 0aaa 95ba ad51 95bc d53b 033d 7f40 23bc
00000330: 933f 0dbd 98d1 42bd 29b1 02bd 2ce2 72bb
00000340: c0be 703c e3aa 3b3d 44e2 34bd 42df bf3c
00000350: ff58 17bd 5d8a bebc 6a5d 11bd f985 1cbd
00000360: 7d92 20bd d651 f1bc c2ed e6bc fd5b 6a3c
00000370: 2b1b b4bc 683d cfbc 9b4d 52bc d65c 3c3d
00000380: 7519 2bbd 3368 e83c 0cd9 8abc de59 2fbd
00000390: c2c0 803b c433 2dbd 8259 d93c bed0 00bd
000003a0: 94a8 e93c 6b5b acbc 0a30 b53c ea0a 5b3d
000003b0: 7b82 20bd 5671 643d c1df 13bd b888 65bc
000003c0: 0e1b 6e3d 05a8 103d 4263 29bd 674c 293d
000003d0: e2bc b43c 2c06 d2bc 3b4c af3c 9e38 e2bc
000003e0: 2e3d 5f3d ea59 3b3c 8f6e 4abc ba44 d23c
000003f0: d9ed c0bc 373b 633d d66f 65bc c278 febc
