lora_crossencoder_has_instruction_r_16 la_16 ld_0.3/checkpoint-3096/adapter_model.safetensors (safetensors, 594924 bytes, 25 tensors)

base_model.model.bert.encoder.layer.0.attention.self.query.lora_A.weight f4 [16, 384]
00000000: d1ec 23bd 6bbb 4c3d a596 18bd 7a7f 093c
00000010: 85c1 ad3b 5b50 b7bc 5fe7 173d d50d e7bc
00000020: b317 093c 4830 833c 147d 1abc de0e 34bc
00000030: c21d 07bd fc5e 8abb 1bef 38bd 22c3 48bd
00000040: 8a79 9b3a c73e 9e3c dac2 dabc 4860 343d
00000050: 583a 0ebd ca21 45bd 0f5c b13c 4c6f 44bd
00000060: 455f eb3c 3418 49bd b8b3 5bbc 3a6a f6bc
00000070: 87ed 1bbd dd0c 0e3d 2dde 44bd 5d46 bb3c
00000080: 1e00 023d 9202 15bd 98e8 c7ba b153 c0bc
00000090: fffb 2e3d b71f 50bd 874a 813c 2761 823c
000000a0: 9f65 23bd 29eb cd3a 29d3 47bc 59d6 ef3c
000000b0: 83ee 073d 4310 0d3d 9146 febc db50 893c
000000c0: 20c0 803c 11c7 3bbd 8620 d63c 23a4 d83c
000000d0: 869c 353c 5364 403d 4eaf b63c 129b 7e3c
000000e0: 72fe fabc 492d 943c 62e3 02bc 05e6 5dbc
000000f0: e3e5 043c 389f c43c a3d5 273d 910f 443d
00000100: 9eec 85bc 3c80 bfbc deba babc a1e6 05bd
00000110: 1fa2 48bd 6a59 e53b 6afa a6bb 068a d0bc
00000120: 5ad2 18bc f158 1c3c 07c5 2d3d a528 39bd
00000130: f1fd 81bc 20e5 10bd d0c2 27bd 2be9 8cbc
00000140: 500e c03b 4234 02bd 9781 d0bc 80a5 f5ba
00000150: 748b d9bc 82d9 063b 4d5e 3abd a549 cd3c
00000160: f397 44bd eda9 33bd eb22 e7bc 9c71 b03c
00000170: ef33 9f3c 4a7e 683c 0ff8 143d 846d f9bc
00000180: 324d 0bbd af29 a3bc bbce dfbb dc3e 18bd
00000190: 0ef0 38bd 530e 433c 7d7c 4abd 5e0c 383d
000001a0: 9de1 083d 073a 01bd 875e 53bc 4a7f d1bb
000001b0: 3934 8bbb 27de f83b b3d5 26bd 4f0d c3bb
000001c0: d7c5 353d bacf f4bc cb5d d23c 35c6 01bc
000001d0: 6975 3cbd 23f3 033d bdeb 45bd a05e 46bd
000001e0: cd44 253d ac2a 45bd 7c55 cd3c 7725 5c3d
000001f0: 55c6 ddbb 5dea cfbc cad0 7ebc 0849 24bd
00000200: 8fbb cc3b 44bf 0fbd 8f6f 883c 8d54 7a3a
00000210: 4e42 f33c 6390 01bd 2383 1c3d 57d2 8b3c
00000220: 182f 10bd ad70 fd3c 815f d53c 1c2c 52bd
00000230: 67ea 8abb 348a 913c 3a03 183d 9ff6 353d
00000240: 5101 3cbd 8409 eabc c96b 25bd acbb 3b3d
00000250: 1999 ebbc ee35 4ebd 6a0c bdbc 47c1 253b
00000260: c48a 0cbc 5a28 15bd 2bad 99bc b5d9 c1bb
00000270: 884c 2e3c fe69 65bc e24a aabc 7bcd 08bc
00000280: 6de7 3d3d ddc1 133d 8953 82bc fc32 e33c
00000290: 7f60 8f3c eeab 22bd 4ba2 033d 8235 a8bb
000002a0: a71c 3a3d df70 d0bc 094e 613d 6035 133d
000002b0: f73d 50bd 1d03 b93c 7a8b fabc e1d2 2c3d
000002c0: 3da1 b23c 233c 18bc 7bc2 9e3c ac51 b73a
000002d0: 9ae9 8c3c c22d 033d 2e59 d8bc 1656 1bbd
000002e0: 2afc 133c ae1b 323d b9bf 44bd 0365 403c
000002f0: 68f7 273d c634 13bd a66f 503d fa48 c33c
00000300: 0ab7 863c 5ab6 8bbb d1a5 033d 63ad 63b8
00000310: 7120 56bc 9e24 22bd cf9b d7bc 5761 a4bc
00000320: 0660 09bd dbea e6bc 154e 62bd b6aa 1a3a
00000330: 78dd 2f3d c44b 953c 1897 093d 60d6 0dbd
00000340: ec01 753c 559f 72bc 98c1 a9bc 99a6 32bd
00000350: 363d 76bc 53d5 05bd 7038 15bd d69a 88bc
00000360: fe8f 1a3d a038 fcbc c30a 0e3d 1154 973c
00000370: 1edd 143d e1da 383d 425d fcba 601d 853c
00000380: 3622 2a3d 12fc 0c3d 3b0e 23bb 1b4b 043d
00000390: 41df 74bc 28a8 ae3c eb88 0d3d 0aee 2cbd
000003a0: ac4f 283d 39f7 01bd 46c0 ac3c fb57 1e3d
000003b0: 099e 3a3d e5f8 1bbd 9a3b 403d 38a4 523d
000003c0: 91c3 883c b877 823a a4a0 0ebc c45f 163d
000003d0: d920 eebc 8ae7 9bbc f5fe 55bc ae4f 843c
000003e0: 927a 3e3d 7599 6a3c 81a5 50bd 54c6 d23c
000003f0: 2415 bd3c 648e 0ebd 52c5 49bd 2ca9 ecbc
-0.040020768 0.049983423 -0.03725304 0.008392209 0.0053026103 -0.022377184 0.037085887 -0.028204838
0.008367467 0.016014233 -0.009429235 -0.010989873 -0.032987364 -0.004222749 -0.045149904 -0.04901422
0.0011861783 0.019317044 -0.02670424 0.044037133 -0.03472361 -0.048127927 0.021650342 -0.047957703
0.028731951 -0.049095348 -0.0134095475 -0.03007995 -0.03806832 0.034680236 -0.048063446 0.0228607
0.031738393 -0.036379404 -0.0015251813 -0.023477407 0.04272079 -0.050811496 0.015782608 0.015915466
-0.039891835 0.0015710342 -0.012196341 0.029277014 0.033186447 0.034439337 -0.031039508 0.016762188
0.015716612 -0.04584414 0.026138555 0.026445454 0.011084681 0.046970677 0.022300389 0.015539901
-0.030638907 0.018088 -0.007988783 -0.01354361 0.00811145 0.024001703 0.040975224 0.047866408
-0.01634818 -0.023376577 -0.022794183 -0.032690648 -0.048982736 0.0069991844 -0.0050957697 -0.02545644
-0.0093274955 0.00954269 0.042424228 -0.045204777 -0.015868159 -0.03537476 -0.040957272 -0.017201027
0.005861081 -0.03178812 -0.025452418 -0.001874134 -0.026555754 0.0020576422 -0.04550009 0.02505953
-0.047996473 -0.043863226 -0.028214892 0.021538548 0.019433944 0.014190266 0.03636938 -0.030447729
-0.034009166 -0.019917337 -0.006830064 -0.037169322 -0.04515081 0.011905271 -0.049435128 0.04493367
0.033418287 -0.03154948 -0.012900955 -0.006393348 -0.004248169 0.007594842 -0.040731143 -0.0059525142
0.044378128 -0.029884208 0.02567949 -0.007920791 -0.04601041 0.032214295 -0.04832052 -0.048430085
0.040348817 -0.0481364 0.025065176 0.053746667 -0.006768028 -0.025380308 -0.015552709 -0.04010871
0.0062479447 -0.035094514 0.016654758 0.0009549342 0.029694702 -0.03163184 0.038211 0.017068071
-0.035201162 0.030937517 0.026046516 -0.051311597 -0.0042393687 0.017766096 0.037112452 0.04442465
-0.045899693 -0.02856899 -0.040385995 0.045833275 -0.028759526 -0.0503444 -0.023077209 0.0025292204
-0.008578006 -0.036415435 -0.01875933 -0.0059158453 0.010638364 -0.014002321 -0.02078766 -0.008349772
0.046363283 0.036073554 -0.015908973 0.027734272 0.017502068 -0.039714746 0.032137197 -0.0051333318
0.04543748 -0.025444446 0.05500606 0.035939574 -0.050840344 0.022584492 -0.030584086 0.042193297
0.0218054 -0.009291681 0.019379845 0.0013986132 0.017201234 0.03202606 -0.026409712 -0.037923895
0.009032289 0.04348343 -0.048034403 0.011742833 0.04100743 -0.035939 0.050887726 0.023838509
0.016444702 -0.0042636814 0.032140557 -5.4282496e-05 -0.013069258 -0.039585702 -0.026319413 -0.020065947
-0.03353884 -0.02818816 -0.055250246 0.00059000717 0.04293582 0.018224604 0.03359136 -0.034628272
0.0149540715 -0.0148084955 -0.020722196 -0.04361591 -0.015029242 -0.032674145 -0.036430776 -0.016675394
0.037734978 -0.03078872 0.034678232 0.018472703 0.036343686 0.045130614 -0.0019253867 0.016249359
0.041536532 0.03442008 -0.0024880308 0.03229819 -0.014945806 0.021320418 0.034554403 -0.0422192
0.041091606 -0.03172991 0.021087777 0.038658123 0.04556087 -0.03807916 0.04693184 0.051426142
0.016694816 0.0009953892 -0.008705292 0.036712423 -0.029068397 -0.019031305 -0.013061275 0.016151275
0.04650361 0.014318814 -0.050939087 0.025729336 0.02308137 -0.034803763 -0.049260445 -0.028889261

base_model.model.bert.encoder.layer.0.attention.self.query.lora_B.weight f4 [384, 16]
00000000: 8ee9 5e3b 07a2 74bb 25a1 543b b5fc 5bbb
00000010: fc5f 68bb 7eac 82bb 9cd1 33bb d4e5 bbb8
00000020: 7c90 61bb 9b50 533b 8662 8bbb 1c4c 12bb
00000030: 2271 41bb ab36 3abb f562 4b3b 1dd2 833b
00000040: 3808 573b 4708 23bb e390 f3b9 4420 52bb
00000050: 58fe a7bb b399 5abb 5a95 ef39 f360 b03b
00000060: 565c 1dbb fdd5 5f3b 3e11 72bb dbc5 36ba
00000070: a125 1abb 20ef dbba 7c3b d33a cfff 5d3b
00000080: 03a9 55bb 565b 6b3b eadd faba 1a23 983b
00000090: 3f60 753b cc29 933b d12f 23ba b429 c7ba
000000a0: 7544 1b3b b5bd 14bb 8542 813b b4d4 ea3a
000000b0: 3f64 893b 09b1 c53a b392 29bb a568 3abb
000000c0: f0a6 d4ba 6233 6dba 99e0 f5ba c564 8039
000000d0: 10d7 a73a 17b4 903a 0703 293a e690 52bb
000000e0: e6af c93a 883b cb3a 7b3a b43a 3dc1 5dba
000000f0: 676a 08ba 0c44 f4ba b36e 85b9 0c53 3a3a
00000100: 53c6 f5ba ea8d 4d3b 428d 93bb 96b5 7d3b
00000110: 0459 df3a 4fdc 0b3b ee88 6a3b 3a55 123a
00000120: a286 353b 28e7 18bb bc12 9a3a 3e9b 413b
00000130: b05c 513b cfa0 983b c60a 5bbb a497 0bbb
00000140: 59b4 5a3b 6c57 eaba c4c9 4e3a e5ca 26bb
00000150: 827d 70bb 7902 2bbb 8a54 e8b9 3e04 1a3b
00000160: fd4a e4ba 1ede 163b a418 23bb 4c10 8eba
00000170: 8c96 20bb 11ad 2eba cedc c73a dbda 1b3b
00000180: f778 043b b3dc 393a 96a8 71bb 7cab 6fb8
00000190: f25c 33bb dc4c a2ba 3913 8e3b 5d2c 373b
000001a0: ac7f f3b9 3847 02bb 55d3 beba be9a 703b
000001b0: 3052 8cba ef96 7d3b ec01 d0ba ccdd 8439
000001c0: c927 713b e85f 72bb ce37 bc3a f050 67bb
000001d0: 57a6 87bb e055 49bb 1f2d 58b8 1a93 503b
000001e0: 2aab 71bb 666a b23a c64f a2bb c615 21bb
000001f0: 8caa 3dbb 743d 23bb 5561 2d3b 2d0b 903b
00000200: 1fb2 64bb 9a2d 283b 38e4 d4ba 3598 5b3b
00000210: 9c70 533b 9c79 4a3b 7354 b13a 06a6 853a
00000220: 4631 133b 9214 2abb d810 513b be55 ba3a
00000230: 1f0f 303b b8f0 033b 7d9e 0cbb 1f19 38bb
00000240: 43d1 ca3b a5d1 acbb 070f 723b 1bc6 a6bb
00000250: eff7 63bb 1d56 9ebb 3e71 70bb 6eec 0fb9
00000260: ffc9 9abb 4e1d ae3b 2ddb b8bb 9a5e 7abb
00000270: 34ec a0bb f7ea bfbb 76fb 7a3b e6db ce3b
00000280: cbf0 9bbb 6585 8e3b 1bcf 25bb c99d a23b
00000290: d29b 9d3b 59b0 aa3b 111c 223b cfe0 0439
000002a0: 8e8f 993b 57d2 5dbb af17 963b 54fd 363b
000002b0: b68a 813b 0f30 893b 62fb 87bb e563 7dbb
000002c0: 4f12 00bb a61f af3a b182 3aba 9811 443a
000002d0: 85af c93a a39e 1d3a ea27 ca3a ba76 463b
000002e0: 8ba7 a93a 726c b4ba 13a6 d43a b344 cb3a
000002f0: f991 d33a 6df6 993a 5deb 00bb 067c e5ba
00000300: 9708 a13b f42b 99b8 f8c7 41b9 0b69 55bb
00000310: 4d0d c5bb b38b a8bb 81a5 6c3a 63ff 873b
00000320: f3c5 89bb c10c e839 97e3 adbb c33f 6dba
00000330: df1f 26ba a4a0 72ba 4180 863a b134 593b
00000340: bbcc c63b 1caf ccbb 4ab3 b83a 757e e6bb
00000350: 33a1 dcbb 57da babb 5e70 dab6 a271 6c3b
00000360: 2563 a9bb 4425 b53b c51b e0bb ad96 81bb
00000370: 8b21 bbbb a30e 92bb e709 8c3b 87c5 ce3b
00000380: e99a e13a cca8 9bba 3197 a5ba 6f31 adba
00000390: 8e8a 36bb 5c16 f0ba 482d 813a b386 8a3b
000003a0: d161 78ba a7c7 073b d935 14bb e1b5 a439
000003b0: 11c8 94ba 9cfb b1b9 ae79 fd39 845e e73a
000003c0: 33b7 34ba 9612 753a 6bac 26bb 992e 043b
000003d0: 4b49 1ab9 9b2b 2a3a 5022 233b 1597 fc39
000003e0: a7dc 873a c579 b038 0746 5e39 320f db3a
000003f0: ea32 453a 96cc e63a 06de 97ba 7893 6dba
0.003401372 -0.003732802 0.0032444682 -0.0033567373 -0.0035457602 -0.003987848 -0.002743817 -8.959664e-05
-0.0034418395 0.003224409 -0.0042536883 -0.0022323197 -0.0029516895 -0.0028413932 0.0031034325 0.00402285
0.0032811295 -0.002487676 -0.0004645652 -0.003206269 -0.0051267557 -0.0033355772 0.00045696908 0.005382651
-0.0024011335 0.0034154647 -0.0036936547 -0.0006972232 -0.0023520964 -0.0016779639 0.001611575 0.0033874398
-0.003260196 0.0035912595 -0.0019139622 0.0046428563 0.00374414 0.0044910666 -0.0006225082 -0.0015194924
0.0023691927 -0.0022696082 0.0039446973 0.0017916174 0.0041928585 0.0015082668 -0.0025874793 -0.002844372
-0.0016224068 -0.0009048489 -0.0018758952 0.00024489142 0.0012805182 0.0011039999 0.00064472895 -0.0032129823
0.0015387505 0.0015505413 0.0013750339 -0.00084592757 -0.00052038435 -0.0018636002 -0.00025450214 0.0007107712
-0.0018751122 0.0031365105 -0.004502923 0.003871297 0.0017040079 0.002134103 0.0035787183 0.0005582158
0.0027698656 -0.002333114 0.0011754851 0.0029541994 0.0031946115 0.0046578418 -0.003342317 -0.0021300102
0.0033371656 -0.0017878837 0.0007888342 -0.0025450524 -0.0036695902 -0.0026094003 -0.00044313475 0.0023501064
-0.0017417368 0.0023020576 -0.0024886513 -0.0010838597 -0.0024503795 -0.0006663362 0.00152483 0.002378157
0.0020213702 0.00070900767 -0.0036874167 -5.7141748e-05 -0.0027368632 -0.0012382525 0.0043357876 0.0027950027
-0.00046443695 -0.0019878875 -0.0014558831 0.0036713327 -0.0010705646 0.00386947 -0.0015869713 0.00025342254
0.0036797395 -0.0036983434 0.0014359893 -0.0035296045 -0.0041397023 -0.0030721352 -5.1540435e-05 0.003182596
-0.0036875703 0.0013612031 -0.0049533574 -0.0024579628 -0.0028940765 -0.0024908455 0.002645572 0.0043958635
-0.0034896208 0.0025661946 -0.0016242331 0.003350747 0.0032263165 0.0030895239 0.0013529196 0.0010196574
0.002245979 -0.0025952202 0.0031900909 0.0014216227 0.0026864482 0.0020132493 -0.002145677 -0.0028091145
0.0061894967 -0.005274015 0.0036935227 -0.005089534 -0.003478523 -0.004832043 -0.0036688591 -0.0001372562
-0.004723787 0.005313552 -0.005641362 -0.003820336 -0.00491097 -0.0058568674 0.0038296855 0.006312835
-0.0047589294 0.004349398 -0.0025300446 0.004962657 0.004809835 0.0052090106 0.0024735967 0.00012672249
0.0046863025 -0.0033847296 0.00458046 0.0027921991 0.003953303 0.0041866372 -0.00414984 -0.0038664278
-0.0019542163 0.0013360872 -0.00071148115 0.00074794283 0.0015387392 0.00060127134 0.0015423272 0.003028317
0.0012943608 -0.0013765229 0.001622381 0.0015508145 0.0016141526 0.0011746414 -0.0019671537 -0.0017508275
0.004914354 -7.3037954e-05 -0.00018480408 -0.0032563831 -0.0060135485 -0.0051436066 0.00090273476 0.0041503175
-0.0042045056 0.0004425999 -0.005306672 -0.0009050334 -0.00063371466 -0.00092555047 0.0010261611 0.0033142979
0.0060668862 -0.0062464606 0.0014091518 -0.007034118 -0.0067330836 -0.0057022977 -6.5099875e-06 0.0036078473
-0.0051692897 0.005528124 -0.006839248 -0.0039547295 -0.0057107857 -0.0044573112 0.0042736414 0.006310168
0.0017212305 -0.0011875867 -0.001263356 -0.0013213585 -0.002785358 -0.001831721 0.0009855414 0.004227483
-0.0009475025 0.0020718367 -0.0022615104 0.00031416028 -0.0011351128 -0.00033947534 0.0004834658 0.0017652069
-0.0006893754 0.0009348778 -0.002543236 0.0020169376 -0.00014713888 0.0006491483 0.0024892278 0.0004817775
0.0010365442 8.415015e-05 0.00021197657 0.0016712903 0.00075225404 0.0017608579 -0.0011586554 -0.0009062807

base_model.model.bert.encoder.layer.0.attention.self.value.lora_A.weight f4 [16, 384]
00000000: b3e1 313c fccb 74bc 1840 1a3d 53c1 b7bc
00000010: 095a 08bd 0f6c 2e3d fd82 3dbd 6fc9 7ebc
00000020: 4515 843b 632a ae3c 9c91 1f3c 0d6d 20bd
00000030: 44c4 23bd 6225 4cbd 4064 2dbc 0b8f 6f3d
00000040: 3141 0bbd 6af3 073d fac1 db3c eaa5 74bd
00000050: 27a0 4e3c f511 103d eade 3d3c 3720 4f3c
00000060: 7df3 1d3d 0a1e 823c 3bbf 893b cfee 583c
00000070: 78bd c3bc cb48 ea3c 1934 4b3b b3df 333d
00000080: 8cd1 253d b151 563c 1146 9b3c a174 4ebc
00000090: 36c9 fc3b e860 d03c 89f2 053d 3786 0fbd
000000a0: 1328 26bd 836c dabc 55ed 413d f568 87bb
000000b0: 5664 013c 4c5e a13c 4296 43bd 612f 5d3c
000000c0: d3c3 06bc d710 0abc 0e9a 17bd 2510 273d
000000d0: eece 41bd f28d 4b3d 0752 f23c fc8e 22bd
000000e0: aba1 103d ca57 b33b 4de1 08bd a612 7dbc
000000f0: 80c1 aebc 9d40 d6bc c979 a73c 8f64 173d
00000100: cfe5 f33c ef5c 01bd 0db3 37bd 851d 203d
00000110: bb83 303d 793f 433d dcc3 ef3c 4b51 d83c
00000120: 670a 0c3d 8ca5 933c 09f2 11bc 8bf9 f4bb
00000130: 5a96 8137 acdb 26bc 4b2b d6bb 7d6b 823c
00000140: dbc6 343d fd00 133d 078d 30bd 0ffc bcbc
00000150: 0e4e cb3c 9c0c 1c3d a163 173d d9d3 95bc
00000160: 33d4 673d ab4d d0bb d202 f83c 2d57 a23c
00000170: 47bc efbc 4e2a bb3c acfe 04bd c78e e43c
00000180: 9ea3 14bd 15b0 61bd f9c0 2f3d eac9 d03c
00000190: ce12 d0bc 5db3 0d3d 162d 033d 09d6 22bc
000001a0: a1ef 6abd 7158 413d 914e 37bb 2df1 80bc
000001b0: ef7d 03bd dadc 13bc 1170 2c3d 2fab 1b3d
000001c0: 0f9a 13bd fa2a 18bd ef80 193d 4565 bdbb
000001d0: fecd bbbb 5926 3abd bca6 733b 36f4 32bd
000001e0: c2c5 61b9 10c3 11bd 466d 703c 0181 75bd
000001f0: ff89 d23b a494 ae3c 628e 2abd ea05 683d
00000200: 221e 2abd ea58 b4bc 7840 b5bc ccab c03c
00000210: 32c6 c7bc 9f72 84bc 7a2e 763d 0d30 5f3d
00000220: 4f31 703d 4944 98bc 1f02 ddbc bd09 be3b
00000230: cd35 2cbd 0b76 613d 4d26 71bd db6f bd3b
00000240: ce4b 8cbc 7105 22bd 5fb5 1abd ac4b 193d
00000250: 9e4b 043d 6689 013c 9118 9ebc 1a2d da3c
00000260: eb3a 30bd 66a1 e4ba ccd5 dbbc 88e0 9c3c
00000270: 5350 2f3d dae1 a83c 2797 17bd 409a e13c
00000280: dd74 623c 8b15 ff3c 859d d6ba 8139 f5bc
00000290: f13e 3fbd ed0a 483d cda7 1dbd bbb6 503d
000002a0: 6965 4abc 7c01 103c 0974 db3c e91e 2dbd
000002b0: b2e8 4c3d 61b9 e8bb 6f55 2cbc 3da3 3d3d
000002c0: de25 6c3b 2d56 47bd 715a fb3c eaeb 873c
000002d0: 3b52 30bc 03bd b73b 3cbc 1dbb 904a ed3c
000002e0: 1237 17bc a8b3 15bd 0203 533c bfb5 25bd
000002f0: 3c77 47bd 5b1c 1f3d b8a9 a73c 46e5 2b3d
00000300: 555e 823c 4dee e6bc 82c2 243d 5340 533d
00000310: 970e a83c 8f64 98bb cabf 5a3d a466 1e3d
00000320: 1096 9e3c 21b8 1d3d 5783 e83b 4854 9ebc
00000330: 8f1a 07bc 2fdd e5b9 e9ce d6bc d098 bc3c
00000340: e656 263d 8c34 67bd b499 1e3d a0a0 96bc
00000350: 9069 f5bc d624 273a 904b b63c ec08 353d
00000360: d438 b03c 27e5 41bc 98eb 58bd 813a c13c
00000370: 8d88 293d 0b78 30bd ec30 6d3d 69cd 35bd
00000380: 9e42 e7bc 5c36 4f3d 1f94 bebc b0bd 893c
00000390: 75e9 76bd c52c 57bd 683b 3f3d ab85 173d
000003a0: 6129 21bd 23df 023d 184e f8bc bc10 813c
000003b0: ed82 063d 2a13 cd3c 1198 41bd 14f4 c8bc
000003c0: bf20 17bd 60b2 b7bc e831 d937 64ff 1c3d
000003d0: d436 db3c 7bed aa3c 303f 98bc 475a 933c
000003e0: 50e9 81bb bc65 2d3d c7cd 5ebc 95a7 2e3c
000003f0: d750 e73a 3957 47bc 01af c03c 353e 21bd
0.010857034 -0.014941212 0.03765878 -0.022431051 -0.03328899 0.04258352 -0.0462675 -0.015550955
0.004030856 0.021260446 0.009739306 -0.0391665 -0.039982095 -0.04984034 -0.0105829835 0.058486026
-0.03399772 0.033191122 0.026825894 -0.05972854 0.0126114255 0.035173375 0.011588791 0.012641958
0.038562287 0.015883464 0.0042037047 0.01324053 -0.023894057 0.028599164 0.0031006394 0.043914508
0.040483043 0.013081 0.018954309 -0.012601049 0.007714416 0.025436834 0.032702003 -0.035040107
-0.04056556 -0.02666307 0.047345478 -0.004132385 0.007897457 0.019698285 -0.04775072 0.013500066
-0.008225399 -0.0084268665 -0.037012152 0.04078688 -0.047316484 0.049695916 0.02958013 -0.03968714
0.03531043 0.0054731118 -0.03341799 -0.015446341 -0.021332502 -0.026153857 0.020443814 0.036961135
0.029772667 -0.03158277 -0.04484849 0.039090652 0.043094378 0.047667954 0.029268198 0.026405951
0.034189608 0.018023275 -0.008907803 -0.007476037 1.5448011e-05 -0.01018421 -0.0065359226 0.015920395
0.044134956 0.035889614 -0.043103244 -0.02306941 0.024817493 0.038097963 0.036960248 -0.018289493
0.056598853 -0.006356915 0.030274782 0.01981696 -0.029264582 0.02284732 -0.032469437 0.027900113
-0.03628885 -0.055099566 0.042908642 0.025486905 -0.025399592 0.034594882 0.03202542 -0.009938725
-0.057357434 0.047203485 -0.0027970413 -0.015740002 -0.03210252 -0.009024823 0.042099062 0.03800505
-0.036035594 -0.03715036 0.037476476 -0.0057798945 -0.0057313433 -0.045446727 0.003717824 -0.04368993
-0.00021531343 -0.035586417 0.01467449 -0.05993748 0.006425142 0.021311112 -0.041639693 0.056646265
-0.041532643 -0.022015054 -0.022125468 0.02351942 -0.0243865 -0.016167937 0.060102917 0.054489184
0.058640774 -0.018587248 -0.02697855 0.0057995007 -0.042043496 0.055044215 -0.058874417 0.0057811565
-0.01712599 -0.03955597 -0.037770625 0.037425682 0.032298677 0.0079062935 -0.019298824 0.026632834
-0.04302494 -0.001744312 -0.026835345 0.019150034 0.042801213 0.020615507 -0.037009384 0.027539372
0.013821808 0.031138202 -0.0016373849 -0.029934647 -0.046690885 0.048838545 -0.038490105 0.050955515
-0.01235328 0.008789416 0.026788728 -0.042265806 0.050026603 -0.007102177 -0.010518416 0.046298254
0.0036033313 -0.048666168 0.030682774 0.016591985 -0.010761793 0.0056072487 -0.0024068495 0.028966218
-0.009229438 -0.036548287 0.012879135 -0.04045653 -0.048697695 0.0388454 0.02046667 0.0419667
0.015914122 -0.028189803 0.04022456 0.051575016 0.02051477 -0.0046506594 0.05340556 0.038672104
0.019358665 0.038505677 0.007095735 -0.019327298 -0.008246078 -0.00043843078 -0.02622171 0.023022085
0.040610217 -0.056446597 0.0387208 -0.018387139 -0.029957563 0.00063760334 0.022252828 0.04419796
0.021511473 -0.011834419 -0.052959055 0.023587467 0.04138999 -0.043083232 0.057907984 -0.044385348
-0.028230008 0.05058895 -0.023263989 0.016814083 -0.060281236 -0.05253293 0.046687514 0.03699271
-0.039346103 0.03195108 -0.030310676 0.01575505 0.032839704 0.025033552 -0.047264162 -0.024530448
-0.036896463 -0.022423923 2.5891655e-05 0.038329497 0.026759543 0.020865193 -0.018584818 0.017987384
-0.0039645806 0.04233335 -0.013598866 0.010660072 0.0017647994 -0.012166792 0.023520948 -0.039365966

base_model.model.bert.encoder.layer.0.attention.self.value.lora_B.weight f4 [384, 16]
00000000: 83d9 023b 4dd7 1c38 6045 7eba 2019 273b
00000010: d453 bdba d739 be3a 14d5 1bbb 1708 cdb9
00000020: c740 c83a 30ba ea3a bf27 94ba 773a 4b3a
00000030: a0db 84ba ce94 ecba 0dbb b1ba f86f c33a
00000040: 7c8c 2a3b 2991 50bb c1f9 cfba 1689 1d3b
00000050: 88a9 74bb a65f da3a 35c3 29bb a0e9 5cbb
00000060: 9188 973b 4ebb 72ba 3bce 8fbb 2639 143b
00000070: a18f 6e3b f2bc a83a 01bf 59bb 3d16 12bb
00000080: 7d92 993a 83e2 fdbb 98f0 37bb f416 5c3a
00000090: 7eb2 dbba 486c 963a cb97 b7ba 5056 01bc
000000a0: f315 433b 1a15 72bb c71f 72bb fc44 573b
000000b0: 3edb 093c a26c 7b3b cda7 45bb 880b b8bb
000000c0: 1aaf 3b39 1369 8dbb df37 18ba 10f0 09ba
000000d0: 21c2 04ba ef52 f6b9 d33f 4738 4506 73bb
000000e0: 3757 643a 5d51 2bbb 7540 07bb e451 6939
000000f0: 8932 913b 421b 363b 4306 65ba f3ca 53bb
00000100: 3db7 b9bb a0d9 e73a 2377 a83b 944f bdbb
00000110: af81 6d3b 4cf2 e5bb 8fbb da3b 43fc 9b3a
00000120: e295 6ebb df52 62b9 eedd 1a3b 57ef 92bb
00000130: 5daa 1ebb 1377 5a3a 53fb 833b 96a8 723a
00000140: 6844 e1ba e248 163a ecfa 0b3b 04c2 60bb
00000150: ce07 d33a 787a 4dbb 363a 203b 9260 b3b9
00000160: 0f3a c5ba 19e8 8bbb 098a 413a ab99 fdba
00000170: 0cd2 9b38 a304 ac3b e0e6 e33a 8582 80ba
00000180: 2d57 37bb 3d85 4a3b 7d97 913a eb32 5dbb
00000190: cb1c 093b 71ed 08bb bfe7 4b3b dcba 6a3b
000001a0: 658a fcba 4c8e 153b d07a 7d3b ecaa 12bb
000001b0: 3dd8 5ebb 0425 20bb f1b7 003b 0905 3f3b
000001c0: f3e8 65bb 2765 af3b 1add 8b3b 93fa 7fbb
000001d0: c134 7e3b e49d 85bb 3991 743b 149e a13b
000001e0: 88cf 8cbb 9d04 9839 7104 8c3b bd1b a4bb
000001f0: b3b1 8ebb 6bae 53b8 d2e9 883b af99 593b
00000200: 14a9 733b e38c 05bb 91da 65bb 64ec 883b
00000210: 4417 6bbb 6c1c 943b fdd6 84bb 9c43 b1ba
00000220: ea93 693b 252d 063b fb67 2dbb f813 333b
00000230: 11c1 cb3a 6921 2fbb ef26 6cbb 8cb7 14ba
00000240: f780 e73a 323a b13a b2d2 083a 7adb 4b3b
00000250: 98b1 a2ba 259e 743a dc61 26bb e258 7f3a
00000260: 02a1 243a 306c 003b 2e0f 6939 143d 59ba
00000270: ed31 d5b9 f2f7 d8ba 6c46 a1ba 5704 bf3a
00000280: ab18 423b b2e0 023a 3ccc 89bb f950 303b
00000290: 0c58 63bb 90f9 613b 3385 36bb df12 c53a
000002a0: 88f1 633b 8c3e 423b ab13 94ba d2ff 883b
000002b0: e455 c5ba 5d2d 61bb 6106 67bb dc38 073b
000002c0: de92 fbb9 501d 183b 4b9a bd39 2b4c 223a
000002d0: f049 953a 0cbc f23a 49db 81ba 4099 3f3b
000002e0: afd1 eeba 15bd 6b3b 034f 163b 28c0 56ba
000002f0: cdf4 48bb 0e63 80bb 194a ac3a c438 3e3b
00000300: b63b 953b 9684 64bb 01f8 9abb a5ea a23b
00000310: d987 89bb f146 453b 7763 bfbb 1acd 59bb
00000320: 14d3 953b bf3e b5ba 36ba 7ebb 1d70 8b3b
00000330: d81a 8d3b 94e4 d53a 3654 9ebb 38f7 3cbb
00000340: b78e 923b 2533 d4bb 93d9 afbb b704 973b
00000350: dcb3 8dbb ca23 7a3b a3c9 99bb 0a7f 05bc
00000360: 9432 bb3b d689 feba 161f c8bb e1a2 af3b
00000370: 7bc7 073c d43e f33a ffa3 b3bb 8e2a bbbb
00000380: d89d 1ebb 43f0 953b 3818 8f3b ca28 ddba
00000390: c0a3 463b 20ca 27bb 03e5 173b 50b5 853b
000003a0: 2b10 34bb e01b 503a 0d3f 933b 87d9 a2bb
000003b0: c942 acbb 59ff 09ba 7a3f 853b e735 693b
000003c0: 7695 fcba db70 123b aba2 a43a 2e5e 16bb
000003d0: 640f e03a 22fa d3ba 464b 073b f9b5 3e3b
000003e0: 6926 0abb baba 123b 62f0 c43a 1e87 b4ba
000003f0: 155a 34bb 1a8a 1abb 32ed f33a 6f8a 263b
0.0019966073 3.7393813e-05 -0.0009699669 0.0025497153 -0.0014444538 0.0014513087 -0.0023778128 -0.00039106674
0.0015278094 0.0017908271 -0.0011303349 0.00077525474 -0.0010136254 -0.0018049718 -0.0013559774 0.0014910689
0.0026023677 -0.0031824803 -0.0015867279 0.0024038008 -0.0037332494 0.0016660586 -0.0025903706 -0.0033708587
0.0046244343 -0.0009259478 -0.0043885983 0.002261707 0.0036401527 0.0012873693 -0.003322542 -0.0022291087
0.001171663 -0.0077479496 -0.002806699 0.0008395754 -0.0016761569 0.0011476362 -0.001400703 -0.007894114
0.0029767721 -0.0036938847 -0.003694521 0.0032847514 0.008414088 0.003836431 -0.0030159832 -0.005616609
0.0001789894 -0.0043155043 -0.0005806665 -0.00052619074 -0.0005064328 -0.00046982567 4.7504738e-05 -0.0037082594
0.0008710506 -0.0026141026 -0.0020637785 0.00022251118 0.004431073 0.0027787243 -0.000873659 -0.0032317012
-0.0056675957 0.0017688759 0.0051411553 -0.0057773087 0.0036240628 -0.0070174094 0.0066751908 0.0011900741
-0.0036405255 -0.00021583911 0.0023630816 -0.004484098 -0.002421043 0.00083337835 0.004027763 0.00092566886
-0.0017186524 0.0005732906 0.0021359278 -0.003429533 0.0016100348 -0.0031353515 0.002444876 -0.0003421349
-0.001504721 -0.0042696116 0.00073829346 -0.0019348165 7.4301e-05 0.005249576 0.0017387532 -0.0009804523
-0.0027975545 0.003090217 0.0011107769 -0.0033752273 0.0020921703 -0.002089348 0.0031113473 0.0035816943
-0.0019267319 0.0022820411 0.0038677938 -0.002237971 -0.00340034 -0.0024436126 0.0019640888 0.0029147288
-0.0035081476 0.0053526345 0.0042683007 -0.0039059266 0.0038788768 -0.00407766 0.0037318005 0.0049321745
-0.0042972006 0.00028995136 0.0042729904 -0.0050081895 -0.0043546795 -5.046876e-05 0.004178264 0.0033203175
0.0037179636 -0.0020378164 -0.0035072903 0.0041785706 -0.0035872022 0.0045199897 -0.004053949 -0.0013524177
0.0035641142 0.0020473686 -0.0026459682 0.0027325135 0.0015545209 -0.0026722795 -0.0036033948 -0.00056731026
0.0017662336 0.0013521372 0.00052193843 0.003110616 -0.0012412546 0.00093314267 -0.0025387919 0.00097407226
0.00062800955 0.0019595735 0.00022226266 -0.00082869944 -0.00040663723 -0.0016553386 -0.0012304313 0.0014573437
0.0029616754 0.00049925887 -0.004205255 0.0026903732 -0.0034689931 0.0034481026 -0.002785039 0.0015035531
0.0034781415 0.0029639332 -0.0011297365 0.004180887 -0.0015055505 -0.0034359314 -0.0035251605 0.0020633256
-0.00047983875 0.002321083 0.00036163846 0.00061911595 0.0011389833 0.0018519177 -0.0009907271 0.0029235631
-0.001822045 0.0035970856 0.0022935278 -0.00081920857 -0.003066349 -0.0039180582 0.0013144641 0.0029025534
0.0045542372 -0.0034869066 -0.0047292714 0.0049718195 -0.0041971025 0.0030102099 -0.0058407146 -0.0033233822
0.0045722816 -0.0013827904 -0.0038868315 0.0042553083 0.0043061785 0.0016318732 -0.004831816 -0.0028833877
0.0044725793 -0.0064758235 -0.005366513 0.0046087164 -0.0043244194 0.0038168305 -0.0046932264 -0.008147964
0.0057128165 -0.001941974 -0.0061072214 0.005359993 0.008287306 0.0018558153 -0.0054821963 -0.00571186
-0.002420297 0.0045757606 0.004366901 -0.0016873118 0.0030310005 -0.0025602654 0.0023177273 0.004080452
-0.0027475457 0.0007938724 0.0044936 -0.004969779 -0.005256985 -0.0005264185 0.004066405 0.0035585107
-0.0019270617 0.00223451 0.0012560686 -0.002294432 0.001709443 -0.0016172568 0.0020644232 0.0029100163
-0.0021080023 0.002238913 0.0015025253 -0.0013773178 -0.0027519513 -0.002358085 0.0018610118 0.0025412103

base_model.model.bert.encoder.layer.1.attention.self.query.lora_A.weight f4 [16, 384]
00000000: ae1c 50bd a300 a5bc 3e42 433d f25b d73c
00000010: 8e58 26bc cf6c 5cbd af58 3fbd 5a60 6d3b
00000020: 0da1 1abd 781a 793c 3959 2b3d e43f a3bb
00000030: 3198 13bc 457e 383d f37b 35bd 874b f53c
00000040: 4e37 3dbc 0ac0 563c f102 44bd c1f9 f8bc
00000050: 6602 8fbc 2aa1 b13c a392 553d f279 18bd
00000060: 171b cf3a 6a5d 0c3d 6ed5 5fbc 2115 4e3d
00000070: 3a02 1abd 1176 073b c0e8 b9bc 9fed aa3a
00000080: 0b4e c43c e227 3d3d 8ee9 1f3d 042c d53c
00000090: 0557 7ebc 199e bebc d74b 223d a717 3ebd
000000a0: e39d 37bd 9dc5 853c bca0 f43b c534 213d
000000b0: 1211 5bbd d93e 953c c08e a43b 202b 57bd
000000c0: 0232 37bd fc4a afbc 2f62 f83c 9f07 df3c
000000d0: ceb9 cf3c 1fbd 0d3d 634b 503c cc94 50bc
000000e0: 69c3 4cbd 48a3 c0bc 4208 36bd f426 25bd
000000f0: 8946 77bb 58c5 63bc 85fa 9b3b 2e3e d9ba
00000100: d83b 2abd c091 e8bc 45ac 653c fddd 023d
00000110: cbb4 243a bb4e de3c 5c72 e1bc 8dea 1ebd
00000120: f196 2abd 013e 323b 797e 49bd 4c0b 3c3d
00000130: aaca de3b a04b 0fbd 9c1f 00bd f571 17bd
00000140: 7520 57bc 8cc9 a43c 65cf 293d e875 1bbd
00000150: c6bd 093d 59c0 8ebc 57f8 0c3d 4030 ecbb
00000160: e300 76bb a8e9 9d3c 0565 9c3c 658a 24bd
00000170: 4804 cebb ccdc fc3c 754a 8d3c 5799 283d
00000180: e48e a3bc a09d 043d d302 043d ad82 cbbc
00000190: 2bf8 22bd a346 2c3d b2d6 693c 5839 4f3b
000001a0: 2913 4a3c 97d7 2bbd 19db 00bd 0544 363d
000001b0: 392c 323b 146d a13c 3d90 e3bc 4ee2 3a3c
000001c0: 2134 233d dd7d 333d 42a9 0fbd b03c 2ebc
000001d0: 6e9e 3d3d 944f ebbb 032c 053d f717 52bd
000001e0: 9e22 28bc f0c1 2ebd c59c 30bd 939b dabc
000001f0: b865 b63c c89b 013d 14d8 0bbd 390f 143d
00000200: f26c 003d b4d6 bf3b f79c 21bd 5349 bd3c
00000210: 25df 1a3d 9c32 abbc 3b73 503d f21c 4e3c
00000220: 7266 563c 74a4 8cbb 94e7 913c 8baf bebc
00000230: c112 90bc e3be 443d 1ba8 3e3d b349 0ebd
00000240: 9b91 363d bdd0 703c 3b72 bdbc 9197 553d
00000250: bf12 46bd 42f1 adbc 661b e5bc 0dc3 69bb
00000260: c8f7 4ebd a0e0 58bc 9ff9 52bd 26f2 d53c
00000270: 8460 d13c d6ce 413d 2b48 5e3c b415 d1bc
00000280: d877 043d fd91 82bb c6ae 4bbd 7307 043d
00000290: e897 853c c6b9 56bb 6967 933b 138b 9d3c
000002a0: ddf8 96bc 726d 03bd 59e2 04bc 4f27 203d
000002b0: 08ef aa3a f042 4d3d b381 1bbd e720 173a
000002c0: feb7 e93b 3993 f43c efb4 b2bb f8be ecbc
000002d0: 7269 a33b 55e9 d8bb be4f 00bd 7362 e93c
000002e0: 80f7 363d a2b2 253d a3f6 24bd 8292 093c
000002f0: e190 1d3d 8d7b eb3c 0399 f7bc b144 39bd
00000300: 2b76 5a3c cbc1 e2bc 25b5 f33c b9c5 1cbd
00000310: 8c3d 66bb e077 2ebd 9a55 293d be32 193d
00000320: 58c8 083d 5e50 b93b 86a9 e43b a556 b8bc
00000330: 996a 843b 2612 af3c c945 623c c030 f6bc
00000340: c72b 2bbd 9112 a63c 6767 f33c c0da 42bd
00000350: 1dd8 fd3b 818f d13c 1608 a5bc fc41 0ebd
00000360: ee5b 0cbb 597f 4ebd 61bf 50bd cab6 bc3c
00000370: 46c9 e1bc 067d 303d 9f7d 003d d8ce e7bc
00000380: 5b1d 14bd 819b 85bc aa3c 5bbc 2592 49bc
00000390: 0c40 4bbc 76b0 0f3d dea2 2e3d faaa e8bc
000003a0: 2b49 03bc 7d13 843c ced7 da3c f87a a5bc
000003b0: 38c0 0d3d 4c0b c2bc ee96 963c 8f6d 17bd
000003c0: ae5e 6d3c a74c 2fbd b21c dc3c deaa 0f39
000003d0: c66f afbb 5d39 2f3d 6fbb c6bc e99c 16bd
000003e0: 26ac c6bc 1b3a 0d3d 1940 243d a36c 44bd
000003f0: d98c 06bd 24df 2cbd 1a15 36bd 6470 8f3c
-0.0508086 -0.020141905 0.047670595 0.02628896 -0.010152949 -0.053814705 -0.046715435 0.003622076
-0.037751246 0.015204065 0.041833136 -0.0049819816 -0.009008453 0.045042295 -0.04430766 0.02994324
-0.01154883 0.013107309 -0.047854368 -0.03039253 -0.017457198 0.021683294 0.052141797 -0.03722567
0.001580092 0.034268774 -0.013661725 0.05031312 -0.03759978 0.0020669738 -0.022693992 0.0013040787
0.023962995 0.046180613 0.039041094 0.026021965 -0.015523677 -0.023268746 0.039623108 -0.046409275
-0.044828307 0.01632958 0.00746545 0.039356966 -0.053483076 0.018218445 0.0050219 -0.05253136
-0.044725426 -0.02139806 0.030320255 0.027225314 0.025357153 0.034604188 0.012713286 -0.012730788
-0.049991045 -0.023515359 -0.04444147 -0.04032035 -0.0037731251 -0.013902031 0.004760089 -0.0016574317
-0.041560978 -0.028389812 0.014018123 0.031949986 0.0006283044 0.027137151 -0.027520351 -0.038797904
-0.041647855 0.0027197602 -0.04919288 0.04590921 0.006799062 -0.03498423 -0.031280145 -0.036973912
-0.013130297 0.020115636 0.041457552 -0.03795424 0.033628248 -0.017425703 0.034416523 -0.0072079003
-0.003753715 0.019276455 0.019091139 -0.040171046 -0.0062871315 0.030867003 0.017247418 0.04116186
-0.019965596 0.032376885 0.032229256 -0.024842585 -0.039787453 0.042059552 0.014272379 0.0031619873
0.01233367 -0.04195365 -0.031458948 0.044498462 0.0027187003 0.019705333 -0.02777874 0.011406494
0.039844636 0.043821204 -0.035073526 -0.010634586 0.04629367 -0.0071811173 0.032512676 -0.051292386
-0.01026216 -0.042665422 -0.043118257 -0.026685512 0.0222653 0.031642705 -0.034141615 0.03614733
0.0313539 0.005854452 -0.039456334 0.023106253 0.037810463 -0.020898156 0.050891142 0.012580143
0.013085948 -0.0042920653 0.01781062 -0.023277065 -0.017587068 0.048033606 0.046547037 -0.034738254
0.044572454 0.014698205 -0.023125758 0.052146498 -0.04835772 -0.021233205 -0.027967166 -0.0035669238
-0.05052927 -0.0132371485 -0.05150759 0.026116442 0.025558718 0.047316395 0.013567011 -0.025523044
0.032340854 -0.0039846883 -0.049727224 0.032233667 0.016307786 -0.0032764538 0.0044984114 0.019231355
-0.018429214 -0.032086797 -0.008110606 0.039099988 0.0013041208 0.050112665 -0.037965488 0.00057650957
0.0071325293 0.029855357 -0.005453698 -0.028899655 0.0049869353 -0.006619612 -0.031326048 0.028489327
0.04466963 0.04045356 -0.040274274 0.008396747 0.038468245 0.028745437 -0.030224329 -0.045231525
0.0133338375 -0.027680298 0.029749462 -0.0382745 -0.00351319 -0.04259479 0.0413414 0.037401907
0.033394188 0.0056553325 0.0069782166 -0.022502253 0.0040410277 0.021370959 0.013810583 -0.030052543
-0.041789796 0.020272525 0.029712392 -0.047571898 0.00774671 0.025581123 -0.020145457 -0.034730896
-0.00214171 -0.050414417 -0.050963763 0.02303638 -0.027561795 0.04308798 0.0313698 -0.028296873
-0.036160808 -0.016309502 -0.013381163 -0.01230291 -0.012405407 0.035080396 0.04263579 -0.02840184
-0.00801305 0.016122574 0.026714232 -0.020200238 0.034607142 -0.023687027 0.018382516 -0.036969718
0.014487905 -0.04279771 0.026869152 0.00013701196 -0.0053539006 0.042779315 -0.024259297 -0.036770735
-0.024252009 0.03447924 0.04010019 -0.047955167 -0.032849167 -0.04220499 -0.044453718 0.017509647

base_model.model.bert.encoder.layer.1.attention.self.query.lora_B.weight f4 [384, 16]
00000000: 4cf4 2cbb 5973 4c3b b4fd 7f39 4f95 b53b
00000010: 9c6a d03b 078b 94ba 79c9 e13b d8bb 04bb
00000020: 1ee3 96bb 2905 b63b 336a 9e3b 6157 d3bb
00000030: e4c5 7bba 1c58 753b 10c1 8f3b aa45 26bb
00000040: 257c f7ba 3ed6 fa3a c4c6 7ab9 732e 9a39
00000050: f5fc b73a da03 83ba 7b75 c43a b810 d0ba
00000060: 0335 c9ba df04 9c3a 6a16 ac3a e682 acba
00000070: fcae 883a f695 023b 1acf b33a 791d d837
00000080: ee39 133b fcda 543a 69f5 ff3a 876f 323a
00000090: 017f 21b7 59f2 f43a e472 033b a87a 74ba
000000a0: 7027 5e3a 6b06 cc39 a396 0139 dcc5 093a
000000b0: 0d3c 8ebb 25db f0ba f24f e2b9 a938 76bb
000000c0: f3cc 09bb 62fc 5e3a 4109 053a 9bbf ad3a
000000d0: de81 303b 08e0 c6ba eb35 a43b 8d0b a0b9
000000e0: 0af8 6abb 9868 a63a 37eb 7f3a e4e1 f4ba
000000f0: 3030 46ba 3f22 553b 2d46 b53b 5503 ccba
00000100: fbfe 2839 dd8f dd3a efc4 1e3b ef09 453b
00000110: 12b1 4c3b 113c 95ba ef1d 933b b9a3 f9ba
00000120: 4531 6dbb cbcb 2a3b a653 003b ab01 50bb
00000130: 7d41 17bb f813 bb3a 3c7b 8d3b dad8 5bbb
00000140: d523 0ebb d8aa 063a cd34 6f39 1c45 a23a
00000150: 27db 323b de7c 07bb 7a0c aa3b 34d2 0d39
00000160: 885e 8abb f8d4 913a c0e3 443a 11da 06bb
00000170: e673 22ba 27c8 5d3b 8256 cd3b 9a04 c0ba
00000180: 1bf7 19bb 32b8 8538 f509 f239 fcbd d8b8
00000190: e243 f53a 993b 11bb ad64 983b cc21 1d3a
000001a0: a653 0bbb b8f4 a738 0e81 1838 c242 ffb9
000001b0: e2db 043a 2781 533b 9681 933b fdbb 30ba
000001c0: 93b1 2cbb 04ea cd3a d63e 4039 bd13 d23a
000001d0: a2a8 573b bfd1 5bba e215 9a3b 37b7 9eba
000001e0: 535f 98bb 6048 043b 5b3d f23a 0a61 25bb
000001f0: 2ecf 6aba 8b48 6c3b 26e2 8e3b 6e38 c4ba
00000200: b683 733a 4205 1a3a ed0b 653b 99df c53a
00000210: 9991 c03a a4ed 35ba 956d 873b 58ec f4b9
00000220: 6136 90ba e177 1b3a 2594 153a 5241 a2ba
00000230: 9b36 7cba a6e2 1ab9 9073 343b 22fc e8ba
00000240: e66e e53a 94e2 053b 90e9 363b dcd8 363b
00000250: 1a99 da3a bfaa 813b 1231 d93a 35ed 45bb
00000260: d826 50b9 d6c5 153b 8cbd 093b e622 e2ba
00000270: 4601 b4bb ecf4 8aba b331 6bb8 64b5 95bb
00000280: c723 d03a b146 bd39 800b 81ba 4555 c2b9
00000290: 1f6e 4eba 6b10 313b 0ad5 6ebb b8ab 62ba
000002a0: bafe a93a 5e63 d8b8 ac91 dcb7 8f41 9539
000002b0: d91e c4b7 bcbb 1aba 4407 2cbb 56fa 1c3a
000002c0: e2e6 ec3a 8a77 f4ba a46a 1cb9 bf8e feba
000002d0: 3242 2bbb 944d a93a b1ca 65bb f398 cd39
000002e0: b0b0 213b 1f8d 04bb 07ab 0fbb caf2 0e3b
000002f0: 55d3 d2b9 087d 1abb 89a9 15bb 8f34 693a
00000300: 5883 47bb 2b00 baba f7ff 91bb 37b3 2cbb
00000310: 2272 0dbb c6db 08bb e9fc 97bb 6195 d13a
00000320: 37e4 55b9 1445 ceba 8317 acba d164 8e3a
00000330: 9921 353b febc 013b bad6 08bb 32d9 263b
00000340: a983 1a3b 73b1 99bb d77e dcba d099 55bb
00000350: d20f 7dbb 6992 033a dd98 91bb af87 8d3b
00000360: fee5 393b 3afe 64bb a8f2 78bb 8c4d 603b
00000370: 0e72 ee3a c9bf 3ebb 1b4a 3abb 2626 7d3b
00000380: 1b03 e9ba 9a08 a8b7 0ceb d83a 8a4f 2d3a
00000390: 758c 9e3a 3758 47bb 1f6c 663b 325b 2f38
000003a0: 4a62 15bb 84c1 ab39 3b88 02b9 6955 52ba
000003b0: aa7e 6f39 298a 173b 164f 403b 05f4 35bb
000003c0: e253 09bb 30f7 a8ba a9c4 22bb 3e38 1dbb
000003d0: 0a3b e6ba db86 59ba 4db3 91bb 4b51 1a3b
000003e0: 664e 013a 5ad4 b6ba ebb0 97ba 75c5 9b3a
000003f0: 5278 9c3b f111 563a 6cdc a5ba 9d29 913b
-0.002639073 0.0031196682 0.00024413207 0.0055414806 0.006360365 -0.0011332937 0.0068904725 -0.0020253565
-0.004604711 0.0055548144 0.0048344373 -0.0064496254 -0.0009604378 0.003743655 0.0043870285 -0.0025371113
-0.0018881602 0.0019137335 -0.00023915904 0.00029407776 0.0014037179 -0.0009995655 0.0014988625 -0.0015874123
-0.0015350882 0.0011903307 0.0013129239 -0.0013161569 0.0010428126 0.001992581 0.0013718337 2.576293e-05
0.0022464949 0.00081197894 0.0019528094 0.000680678 -9.625918e-06 0.0018687948 0.0020057494 -0.00093261385
0.00084745046 0.00038914694 0.00012358515 0.00052556186 -0.0043406547 -0.0018375857 -0.00043165643 -0.0037570393
-0.00210267 0.0008506236 0.00050749263 0.0013255955 0.0026932876 -0.0015172968 0.0050113103 -0.00030526184
-0.003585341 0.0012695966 0.0009762528 -0.0018683043 -0.0007560281 0.0032521633 0.0055320472 -0.0015564958
0.00016116716 0.0016903837 0.0024226268 0.0030065735 0.0031233472 -0.0011385699 0.0044896523 -0.0019045986
-0.0036192697 0.0026061411 0.0019581108 -0.0031739275 -0.0023079806 0.0014272919 0.004317669 -0.0033546002
-0.0021688838 0.0005137152 0.00022812486 0.0012380215 0.002729127 -0.0020673792 0.0051894756 0.00013525115
-0.004222695 0.0011126092 0.0007510744 -0.0020576755 -0.000619708 0.0033841224 0.006266416 -0.0014649809
-0.0023493234 6.376243e-05 0.00046165255 -0.0001033507 0.0018712247 -0.0022160767 0.0046506734 0.0005994111
-0.0021259575 8.008763e-05 3.6359816e-05 -0.0004868713 0.00050681655 0.0032273026 0.004501532 -0.00067418796
-0.002635096 0.0015710001 0.00018333955 0.0016027611 0.003290691 -0.00083854416 0.0047023157 -0.0012109046
-0.0046500354 0.002018474 0.001848142 -0.0025234842 -0.0008957264 0.0036053981 0.004360455 -0.0014970431
0.0009289341 0.0005875417 0.0034949735 0.0015096545 0.0014691829 -0.0006940013 0.0041329362 -0.00046715396
-0.0011002534 0.0005930644 0.0005705974 -0.0012379086 -0.0009621174 -0.00014771018 0.00275347 -0.0017775337
0.0017504364 0.002042924 0.002791021 0.0027900254 0.0016677708 0.003957122 0.001657041 -0.00302012
-0.00019850896 0.0022853515 0.002101752 -0.0017252832 -0.005493316 -0.0010601557 -5.6074652e-05 -0.0045687426
0.0015879803 0.00036101558 -0.0009845346 -0.00037066094 -0.00078746857 0.0027017843 -0.00364429 -0.0008646804
0.0012969591 -0.00010318191 -2.6293877e-05 0.0002846834 -2.3379385e-05 -0.00059026084 -0.0026249448 0.00059882307
0.001807418 -0.0018651348 -0.00014917046 -0.0019421204 -0.0026131985 0.0012916797 -0.003506344 0.00039214603
0.0024671964 -0.0020225716 -0.0021922009 0.0021812194 -0.00040211776 -0.002357306 -0.0022836647 0.00088960765
-0.0030443277 -0.0014190724 -0.004455562 -0.0026351938 -0.002158292 -0.0020882948 -0.0046383035 0.0015989953
-0.0002039828 -0.001573714 -0.0013129566 0.0010863786 0.0027638434 0.0019796486 -0.002087994 0.0025459048
0.002357701 -0.004690343 -0.0016822469 -0.00325929 -0.0038614166 0.000501907 -0.0044432716 0.0043191533
0.0028365846 -0.003494157 -0.0037986431 0.003422591 0.001819195 -0.0029106012 -0.0028425518 0.0038627475
-0.0017777415 -2.0031166e-05 0.0016549542 0.00066112785 0.0012096303 -0.003041757 0.003515966 4.1808184e-05
-0.002279418 0.00032759842 -0.00012448516 -0.00080235914 0.00022840002 0.0023123121 0.0029344014 -0.0027763855
-0.002095454 -0.001289105 -0.0024836457 -0.0023989822 -0.0017565202 -0.0008297988 -0.004446423 0.002354699
0.0004932642 -0.0013948784 -0.0011573111 0.0011884408 0.0047750855 0.00081661256 -0.0012654192 0.0044300095

base_model.model.bert.encoder.layer.1.attention.self.value.lora_A.weight f4 [16, 384]
00000000: e5d8 32bd 9527 4ebd 22cb 293c 7a12 9dbc
00000010: 1af4 1bbd eaee 5c3d 7f21 5cbc f7d2 113d
00000020: cd00 373c ae45 483d 3949 213d 3f70 36bd
00000030: b7c4 af3c 8c81 58bc ab9e ae3c f364 0a3d
00000040: 8814 9f3a ae89 2e3d 5820 3939 e474 1ebd
00000050: 0a81 99bc 66d9 0c3d 76a9 37bc a3c8 44bc
00000060: b051 cbbc 5870 9bbc 5209 223d 6caf 3f3c
00000070: d33e 4abc e16a 4e3d 10b7 9e3c 279c af3b
00000080: 9417 ecbc 13e3 993a cfa1 203d 34cf 343d
00000090: 2b8d 5d3d 2352 4dbd d40c 01bb 9202 c5bb
000000a0: d605 46bd 7bba d83c cf27 0e3b d514 533d
000000b0: 9250 9fbc 9312 1dbd 37ee 2f3d 9ac5 0e3c
000000c0: 57ab eb3c a812 2ebd 0ce5 3ebd e447 5b3d
000000d0: 42c2 473d 904d 263d 1516 aebb 91f6 49bd
000000e0: 7c39 893c 0ea7 dd3b 9859 25bd ce87 48ba
000000f0: ced6 2d3d baff 26bc 7dda 46bc b062 33bd
00000100: 01e2 823c 3f2b 17bd b291 133b 523d 2a3d
00000110: b5d4 d43c 8937 c1bb 5724 8b3c ca1f e63c
00000120: 3cea 0dbd 56bf 043d 0db2 e93b 4c1e bc3c
00000130: dfff adbc 7583 2ebd af8d ef3c 2ba5 0e3c
00000140: ef05 493c b298 8e3c 1ab3 bcbb beb9 2e3d
00000150: 35e9 153d 5325 debb 6576 823c ea41 1d3d
00000160: 8e75 8a3c d397 03bd ece0 06bd b037 e9bb
00000170: 8207 c53c 6956 2e3d 4c30 febc 9a50 46bd
00000180: 6ade b03c 4a8a 4f3d 6245 c6bc 256f 493d
00000190: 8426 37bb 9cb7 f5bb 85f8 313d a17d 103d
000001a0: 9bda 39bd a6cd ae3c 3c19 49bd 58b9 14bc
000001b0: 2964 3cbd fbbf fdbc 0188 23bd e8cd 333d
000001c0: d3bc f1bc 9bb5 003d dad9 55bd 9407 2bbd
000001d0: 4c17 30bc 0483 ecbc c5bd 3bbd f10a 45bd
000001e0: 8c58 353d 5783 193d 3a4f db3b 00fb 8e3b
000001f0: 59ed 5bbd 6909 1cbd 6b44 813c f959 083d
00000200: b042 1a3c 846b 153d e1ba 253d 1a05 ddbc
00000210: 2e11 15bd 2b0b 6039 d07c c23c bca0 0b3c
00000220: bc63 e03b 863d 90bc e68e 4c3d a814 dd3b
00000230: e8c0 b03c a9fc 053d 7b21 b3bc 1717 b03c
00000240: 5bf4 2abd b18b 3dbd 2a99 47bd 3b4e 88bc
00000250: a21d 46bb adca b23b 24a4 913b 99e9 02bc
00000260: 9398 023c aaff 77bc 8b6c 483d 4593 1abd
00000270: f8ea 013c 0f07 3a3d f9b2 503d 9f36 eabc
00000280: c08b 08bd a213 0ebd 070e 903c 27a9 9dbc
00000290: 6ae0 89bc eef2 8c3c 2f3e 87bc 639d b8bc
000002a0: 9d0d 5abc bb05 74bc c8b4 60bd b4b8 1cbd
000002b0: 61de 9abc 7485 27bd b535 4f3d a36d 93bb
000002c0: 9eb2 bd3c 470f 4ebc 4e8f 023d 9e28 35bd
000002d0: f43a 023a 66cd e53c 3c4b d13c c7e2 de3b
000002e0: b977 033d 485d 13bb 0220 633c cb24 37bb
000002f0: c14e 0dbc ecc4 d3bc ad60 51bd e1ee 973c
00000300: c658 24bc 8a82 26bd 5bf5 483d 8b53 a5bc
00000310: e297 1b3c dd5e f9bc 54cc d9bc 33bd 07bd
00000320: 774d 04bb f421 a23c 9027 1f3d fcf9 68bd
00000330: 670a 1f3d 2f26 6bbc b073 abbb 4b12 2d3c
00000340: 60c3 2cbd 1f32 f63b 6d16 313d c759 a13b
00000350: 898a 00bd 1df6 2f3d c815 8a3c 6dd0 9dbb
00000360: 4286 743c caa8 b13c 1db3 13bd e7d9 143d
00000370: 8c01 e03c f126 263c bde6 183d 8dfb cdbc
00000380: 4375 9ebb 6596 2f3d 29a8 b4bc 6d66 dcbc
00000390: 8f67 fb3c 64de d93c 39b1 14bd 542a 043c
000003a0: e0fc 3c3d f366 26bd b976 1f3d 2e21 cebc
000003b0: 17cb 32bd ae0a 953c b18d b2bc 3158 283c
000003c0: 88ce 463c b33f 2b3d 78ce 1a3d 1dd7 b33c
000003d0: ec81 b53c 8129 e4bc 263d 3ebd 1020 1b3d
000003e0: fc56 e5bb 0d5e 573c 3b05 4d3d c833 773b
000003f0: b895 c5bc dfc9 5c3c 7450 d73c a10b ee3c
-0.043663878 -0.050330717 0.010363372 -0.01917385 -0.03807459 0.053938784 -0.0134357205 0.035601582
0.0111696245 0.048894577 0.03937647 -0.04454064 0.021456106 -0.01321448 0.021315893 0.03378768
0.0012136856 0.04261177 0.00017655024 -0.038685694 -0.018738288 0.034387015 -0.011209836 -0.012010726
-0.024819225 -0.018974468 0.03955967 0.011699539 -0.01234408 0.050394896 0.0193744 0.005359191
-0.028819837 0.0011740647 0.039216813 0.044142917 0.054089706 -0.05012716 -0.0019691484 -0.0060122693
-0.04834541 0.026456108 0.0021691208 0.05153354 -0.019447599 -0.038347792 0.04295179 0.008714104
0.028768225 -0.04249826 -0.046605155 0.053535357 0.048769243 0.040601313 -0.005312691 -0.04930741
0.016751043 0.0067642992 -0.040368646 -0.0007649631 0.04244118 -0.010192806 -0.012137053 -0.043795288
0.015976908 -0.036906477 0.002251726 0.041562386 0.025980333 -0.005896513 0.016985102 0.02809133
-0.03464721 0.032409035 0.007131821 0.022963665 -0.021240173 -0.042605836 0.029242365 0.008706371
0.012269481 0.017406795 -0.0057586553 0.042657606 0.036599357 -0.0067793517 0.015925596 0.03839294
0.016901758 -0.032127213 -0.032929346 -0.007117234 0.024051432 0.042562876 -0.03102889 -0.04841671
0.02159043 0.050668992 -0.024203006 0.04917826 -0.002794654 -0.0074986946 0.043449897 0.03527606
-0.045374494 0.021338295 -0.04909633 -0.0090773925 -0.045993958 -0.030975332 -0.039924625 0.04389754
-0.029508984 0.031423192 -0.052209713 -0.041755274 -0.010747742 -0.028871067 -0.045835275 -0.048106138
0.044273898 0.03747877 0.006692794 0.0043634176 -0.05369315 -0.03809491 0.015779695 0.03328893
0.009415314 0.036479488 0.040461425 -0.026979972 -0.036393337 0.00021366465 0.023741156 0.008522209
0.0068478268 -0.017607462 0.049940966 0.006746847 0.02157636 0.03271166 -0.02186655 0.021495385
-0.04173694 -0.0462758 -0.048730053 -0.016638866 -0.0030230065 0.0054562897 0.004444616 -0.007990264
0.007970947 -0.015136639 0.04893164 -0.037738103 0.007929556 0.045416888 0.05095193 -0.028590498
-0.0333364 -0.034686692 0.017584814 -0.019245697 -0.016830642 0.017205682 -0.016509144 -0.022535985
-0.01330891 -0.014893944 -0.054859906 -0.038262084 -0.018904867 -0.040898755 0.05058833 -0.0044991537
0.02315646 -0.012576885 0.031874947 -0.04422819 0.0004967891 0.028052043 0.02554857 0.0068019363
0.0320966 -0.002248602 0.013862612 -0.0027945514 -0.008624733 -0.025850736 -0.051117588 0.018546524
-0.010030931 -0.040651836 0.049062114 -0.020181438 0.009496661 -0.030440742 -0.026586689 -0.03313942
-0.0020187774 0.01979158 0.03885609 -0.05687903 0.03882828 -0.014352365 -0.005232297 0.010563443
-0.04217851 0.007513299 0.043234278 0.0049240324 -0.031382117 0.04295932 0.01685609 -0.004816106
0.014924588 0.02168693 -0.036059488 0.03634062 0.027344488 0.01014112 0.037329424 -0.025144363
-0.004835756 0.042868037 -0.022052841 -0.02690431 0.030689029 0.026595302 -0.036301825 0.008066732
0.046139598 -0.040625524 0.038931582 -0.025162306 -0.043650713 0.018193569 -0.02179608 0.010274933
0.012134202 0.041808795 0.03779456 0.02195316 0.022156678 -0.027851822 -0.046445034 0.037872374
-0.0069988947 0.013144982 0.050053816 0.0037720073 -0.024119243 0.013475864 0.02628348 0.02905828
